Assets/Model/test11.onnx (onnx, 89535 bytes, 19 tensors)

action_model._discrete_distribution.branches.0.bias f4 [3]
000000 cb 83 2a 3d bc d9 9c 3e 37 26 dc be
       0.041629594 0.30634868 -0.42997906

action_model._discrete_distribution.branches.0.weight f4 [3, 128]
000000 d7 6e a7 bf 9a 71 8a 3d 1f dc e0 3e 42 d5 8a 3e
       -1.3080701 0.06759949 0.4391794 0.27115828
000010 5a 29 d8 be 7c 20 6b 3e 64 3c eb 3d bd 10 39 3e
       -0.4221905 0.2296161 0.11486128 0.18072791
000020 e3 3c f9 be f4 0f 85 be 72 58 99 be 0c ea e1 3d
       -0.48679265 -0.25988734 -0.2995029 0.11030969
000030 87 2a 19 be 79 1a 54 3f b3 28 78 bf 33 a0 82 be
       -0.14957629 0.82852894 -0.969371 -0.25512847
000040 e9 d6 d0 be 81 f0 c4 bd 06 bb ef 3e df 17 2b 3e
       -0.40788963 -0.09616185 0.46822375 0.16708325
000050 5b c3 13 3f 93 a5 5d bf 3b 5e 2e bf 7a 34 24 3f
       0.57719964 -0.8658077 -0.68112534 0.6414257
000060 96 6e 22 bf 17 be 90 be 45 78 8b bd d1 ff 5b bd
       -0.6344999 -0.28270027 -0.06810049 -0.053710762
000070 3f f6 02 3f ef c0 f8 3c de bf 53 3e 78 9f ca 3e
       0.5115699 0.030365435 0.2067866 0.3957479
000080 0a 3b 89 3e 29 79 08 be ea 6e 6e bf 90 a2 e2 3d
       0.26802856 -0.13327469 -0.9313799 0.110661626
000090 ef dd 02 3f f5 30 39 3e 0d f5 cf 3d 10 90 78 bf
       0.51119894 0.18085082 0.101541616 -0.9709482
0000a0 a4 a8 ef 3e e5 02 5a be 9d ec 5a bf 56 2a 11 3f
       0.4680835 -0.21290167 -0.85517293 0.56705225
0000b0 83 5b 97 3c a7 c4 d3 bc 47 58 ff 3c f8 37 a3 be
       0.018476253 -0.025850607 0.031170024 -0.31878638
0000c0 3c 86 29 bd 14 00 cc 3e ca 3b e1 bd 56 f7 14 3f
       -0.04138778 0.3984381 -0.10997732 0.58189905
0000d0 47 55 10 3d 59 ea ab 3e ad 04 56 3e db 6c 02 bc
       0.035237577 0.3357723 0.20900221 -0.0079605235
0000e0 b5 6f 49 3b 1c ab 13 3f 91 ce 41 be 0f 7a b9 3e
       0.0030736749 0.5768297 -0.18926455 0.36225936
0000f0 7a 3f bf 3e 73 5d 11 3f 84 f0 78 be 1b 26 33 bf
       0.37353116 0.5678322 -0.243105 -0.6998002
000100 6c d9 48 bf a5 50 f4 3e 53 8b 2d 3f ed 41 bd 3d
       -0.7845676 0.47717777 0.67790717 0.0924109
000110 8f 93 f4 bd be 7c bc be 29 68 26 bf 09 2a 4e be
       -0.11942207 -0.3681392 -0.65002686 -0.20133223
000120 13 7b 49 3e 3b d7 91 be 7d 69 0d 3e 31 b7 53 bf
       0.19675855 -0.2848452 0.13809772 -0.827014
000130 60 c5 00 be 5f 32 eb 3e 6e 0e 5c be 19 eb 96 be
       -0.12575293 0.45936868 -0.2148988 -0.2947624
000140 8c 77 cd 3e 36 e6 05 3f 4a 80 af be 9f be 4f be
       0.4013027 0.523044 -0.34277564 -0.2028756
000150 89 94 e7 bd be b5 7a be 23 35 f3 be 82 5a 7c be
       -0.11307628 -0.24483392 -0.47501478 -0.24643901
000160 87 91 af bd 51 0d e7 be 4f b7 a8 bc 9e 4e 0b bf
       -0.08572679 -0.45127347 -0.02059522 -0.54416835
000170 36 1f 4e 3c c9 32 cf 3d 03 bc 92 3d b7 0b 89 3e
       0.012580683 0.101171084 0.07164767 0.2676675
000180 fb 45 ea 3e 1f 4d 22 bf e4 c9 07 be 3f ee 4e bc
       0.45756516 -0.6339893 -0.13260609 -0.0126300445
000190 5f 9d 69 3d 1d b4 88 be 39 61 bb 3e e9 f3 d2 bd
       0.057034846 -0.26699916 0.36597613 -0.103004284
0001a0 61 47 fa be 7b 31 6e 3d 67 63 a3 be 75 c3 42 bf
       -0.48882583 0.058152657 -0.31911775 -0.76079494
0001b0 64 cc 3c bd 45 64 33 3e 23 5f 26 bf de 3e 9b be
       -0.04609336 0.17518719 -0.6498892 -0.303214
0001c0 b7 cb 98 be 9c cf d3 bc 45 7e 2d be 44 fa 91 3e
       -0.29842922 -0.025855832 -0.16942699 0.2851125
0001d0 a0 19 2c 3e 09 ed 37 3e 82 b2 2f 3f c9 d3 b9 3d
       0.1680665 0.17961515 0.68631756 0.09073598
0001e0 5d 98 76 3d be e2 53 3e b1 81 ce bb 3e ef 6b 3d
       0.0602039 0.20691964 -0.0063020815 0.057601206
0001f0 64 02 57 bd 0d 0d 02 3d 41 1e fb 3e f6 da 0b be
       -0.052492514 0.031750727 0.4904652 -0.13657746
000200 5e 54 d9 3d 77 2a d3 3e eb af ba bd 8c 46 bf be
       0.10611795 0.41243336 -0.09115585 -0.3735851
000210 c6 ee f0 3e 58 87 ea be 9e 8a b9 3e 64 c1 20 be
       0.4705717 -0.45806384 0.3623857 -0.15698773
000220 c3 ad 16 3e 02 0a 92 be 54 6a 06 3f 7d ce 65 be
       0.14714722 -0.2852326 0.52505994 -0.2244205
000230 d5 cf c9 bd 64 33 91 be 69 53 39 3d 30 62 80 3e
       -0.09854094 -0.2835952 0.04524556 0.2507491
000240 96 4d 2c 3f 23 0e d3 3d 02 fd 25 bf bb 37 e8 3c
       0.67305887 0.10305431 -0.64839184 0.028346887
000250 a6 15 c8 bd 7c 2f 40 3e 28 36 d7 bd 1a 74 b1 be
       -0.09769754 0.18768114 -0.10508376 -0.3465889
000260 e6 ad 8d 3e 27 ad f6 3d 41 40 d8 3b 2c dd 21 3e
       0.27671736 0.12044745 0.0065994565 0.15807027
000270 98 21 07 bf b8 ff 6f 3e 52 89 c0 3d 8c 4b e7 bd
       -0.52785635 0.23437393 0.09401192 -0.11293706
000280 6e f5 ff 3e d7 56 80 be 69 13 aa 3d ca 6a 4c 3d
       0.49991935 -0.25066254 0.083044834 0.04990653
000290 91 a5 4d 3e ee a6 bc 3e 74 81 37 3e 86 c2 0c 3f
       0.2008269 0.36846107 0.17920476 0.5498432
0002a0 e9 89 25 bc de 33 78 3e df f4 37 3f cd 6c 98 be
       -0.010103681 0.24238536 0.7185802 -0.29770508
0002b0 5b 5d 7d be 59 c1 ec bd 09 f5 9a 3e 76 24 47 be
       -0.24742644 -0.11560316 0.30265072 -0.19447502
0002c0 00 e9 69 be 20 a2 7b 3e cf 98 9c be 9b 83 74 bc
       -0.22842789 0.24573565 -0.30585334 -0.014923955
0002d0 b7 e4 cd 3e 64 0f e2 3d df 57 94 3e 79 2e d7 bd
       0.40213558 0.11038092 0.2897329 -0.10506911
0002e0 88 25 d8 3d 9a d5 03 3e c0 6d ca 3e 16 d1 73 3d
       0.105540335 0.12874451 0.39536858 0.05952557
0002f0 fc 64 26 bf a9 65 a0 be 3e f7 14 3e d4 22 cf bd
       -0.6499784 -0.3132756 0.1454744 -0.10114065
000300 65 b0 ac 3e 48 8c a2 be 57 f9 10 3e c7 96 7c bb
       0.33728328 -0.3174765 0.14157616 -0.0038542019
000310 70 0e 38 3e c0 d9 d9 3d 8f 36 ea be 4f d0 ca be
       0.17974257 0.10637236 -0.4574475 -0.39612052
000320 51 c2 cb bd 8c 61 d5 3e 4c 49 e3 be 10 04 05 3f
       -0.09949172 0.41675985 -0.4439186 0.51959324
000330 b4 61 32 3e 35 be 8a 3d 37 a9 a1 3b 89 32 77 be
       0.17420083 0.0677456 0.004933502 -0.24140371
000340 f1 e9 02 3e be 51 f3 be 3b 6c ca 3e c7 29 0c be
       0.12784554 -0.47523302 0.39535698 -0.13687812
000350 ac 64 e0 be 87 e4 b2 3e 45 20 c6 3e aa b3 a6 bc
       -0.43826807 0.34939978 0.38696495 -0.020349342
000360 14 73 58 3e 09 06 bb 3e a1 65 64 be ea f3 4a 3f
       0.21137649 0.36528042 -0.22304393 0.79278433
000370 6f 40 a0 3e 2a 55 97 3e 9f 00 4f 3e 18 40 f8 be
       0.3129916 0.29557163 0.2021508 -0.484864
000380 fb ed 87 3d d1 b6 01 3f 3f de da be 3a 48 64 bd
       0.06637188 0.5066958 -0.42747685 -0.055732943
000390 38 51 89 be c0 dd 84 be 45 a7 0f 3e 90 e3 2c bf
       -0.26819777 -0.25950432 0.14028652 -0.6753473
0003a0 00 28 13 be 91 12 89 be 30 14 67 be 1f 08 4e 3f
       -0.14370728 -0.26771978 -0.22566295 0.8048114
0003b0 53 32 02 3e 2a 4a fc bd 95 9f 84 3e 24 bc bb 3e
       0.1271451 -0.12318833 0.25903 0.36666977
0003c0 37 a7 d7 3e f6 7c ef bd ec 37 82 3d 46 05 c7 3d
       0.42119762 -0.11693756 0.063583225 0.09717803
0003d0 f1 f9 17 bf e2 7a 70 bf a6 4c d7 be cc b7 74 3e
       -0.59365755 -0.93937504 -0.42050666 0.23898238
0003e0 2d 5d 62 3e bc d4 7f 3e cb 33 eb be 7e 75 6b bd
       0.22105856 0.24983495 -0.45937952 -0.057485096
0003f0 97 c1 30 3e 3d 24 b3 bb c3 04 5e be 1d 91 2d 3e
       0.17261349 -0.0054669664 -0.21681504 0.16949888

action_model._discrete_distribution.branches.1.bias f4 [3]
000000 90 26 cb 3d 98 1c 97 3e 86 17 a6 be
       0.099194646 0.29514003 -0.32439822

action_model._discrete_distribution.branches.1.weight f4 [3, 128]
000000 15 b6 8e be f2 4e 34 3f a6 5f 26 3f 14 33 a5 3e
       -0.27873293 0.7043296 0.649897 0.32265532
000010 84 1a 8d bf 7b 11 21 be fe 58 92 bd 84 37 10 bf
       -1.1023717 -0.15729325 -0.0714588 -0.5633471
000020 b8 14 fa be f3 4f 09 3e 94 b6 ac 3e 02 71 b2 bf
       -0.48843932 0.13409404 0.33733046 -1.3940737
000030 35 96 00 3f 9d 64 27 3f 14 f6 9c 3c 40 d0 e7 be
       0.502292 0.653879 0.019160308 -0.4527607
000040 70 92 77 be a6 6e 8e be 88 bf 9a 3e c0 82 75 bd
       -0.24176955 -0.27818793 0.30224252 -0.059939146
000050 ea 65 68 bd 1d 3e c4 be 29 9d 89 bd 46 24 3d be
       -0.056737818 -0.3832864 -0.06719429 -0.18470868
000060 25 4d 5b 3e 43 d6 e1 bc 94 a7 a6 be 59 40 4f bf
       0.21416147 -0.027567988 -0.32549727 -0.8095756
000070 b3 f8 8b 3e 03 76 1a be ce 73 e6 3d 18 e0 87 be
       0.2733818 -0.1508408 0.11252557 -0.26538157
000080 59 a4 ea bd 1d 37 5e 3e b2 12 3a be 09 66 0d 3f
       -0.11457128 0.21700712 -0.18171194 0.5523382
000090 d9 c1 50 3d be 62 03 bf 96 f8 16 bf ac 94 f2 bd
       0.050966118 -0.51322544 -0.5897306 -0.11844763
0000a0 f0 23 00 3e df 67 22 bf 59 bc 06 bf 87 d4 43 3f
       0.12513709 -0.63439745 -0.52631146 0.76496166
0000b0 af 13 f1 bd 39 8c 45 bd 95 c2 b3 be 8b 38 92 be
       -0.117713325 -0.04822943 -0.35109392 -0.28558764
0000c0 1d 05 ed bc 67 9f 35 3e ac 41 83 be 74 1d b5 3d
       -0.028933102 0.17736588 -0.2563604 0.08843508
0000d0 a3 f8 1a bf 1f af 14 be 65 93 19 be e0 b0 9e 3e
       -0.6053564 -0.14519928 -0.14997633 0.3099432
0000e0 12 34 78 3e 21 70 be be 8f 90 26 bd 90 20 06 3e
       0.24238613 -0.37194923 -0.040665206 0.13098359
0000f0 74 ff aa 3e 86 a8 75 3d e4 42 c6 3d 9a bc c8 be
       0.3339802 0.05997517 0.09680727 -0.39206392
000100 ab 3d d0 bc c5 8c b7 3e 77 73 31 bc e8 19 0a 3c
       -0.02542003 0.35849586 -0.010830752 0.008429028
000110 cd 85 94 3e a7 92 3d 3e e1 bc cc be de 85 25 3f
       0.29008332 0.18512975 -0.39987853 0.6465739
000120 d8 35 04 3e ee 73 06 3f 7b af fa 3b c1 f3 d1 3e
       0.12911165 0.52520645 0.0076503134 0.41006282
000130 3a fe 0b 3f 60 48 02 3f ff 42 01 3e f9 f6 0d 3f
       0.54684794 0.50891685 0.12623213 0.55454975
000140 9c c9 c8 3d 76 fa af be 52 f0 0a bf fd 29 06 3e
       0.09804079 -0.34370774 -0.5427295 0.13101955
000150 9b 9e 98 3e c7 69 fd bc 53 f0 ea bd 6c 9c 28 3f
       0.29808506 -0.030934228 -0.114716195 0.6586368
000160 8c 6e 47 3e 73 80 96 3d 0b 97 7a 3a 4a 73 f8 be
       0.19475764 0.073487185 0.00095592503 -0.4852546
000170 19 f3 f6 3e 38 62 ab bf 9d 34 f9 3e 00 6c ac ba
       0.48232344 -1.3389349 0.48672953 -0.0013154745
000180 f4 c6 b3 3e 1a 5a 4a bf a8 5d 7f 3f 85 c3 92 be
       0.35112727 -0.79043734 0.99752283 -0.28664795
000190 49 43 87 3d 6c 6b 8c bf 9d ec aa 3d 8a 11 43 3f
       0.066046305 -1.0970283 0.08345912 0.7619864
0001a0 2e 27 51 3e d8 9f 29 bf d7 b9 1a 3e 12 e5 21 bf
       0.20425102 -0.6625953 0.15109955 -0.6324016
0001b0 14 28 3e 3e fb b9 ce be d6 2e 8c be 7c ed 3c 3e
       0.18569976 -0.40376267 -0.27379483 0.18449968
0001c0 bf 6b 0d be 20 2d c1 bb 90 7f 59 be 93 b2 5c be
       -0.13810633 -0.005895272 -0.21240067 -0.21552496
0001d0 a5 9f 11 3f 84 d6 0b 3f 4b 13 a8 3e b7 3f bb 3e
       0.56884223 0.546242 0.3282722 0.36572048
0001e0 50 99 af 3e 5c f6 33 bf 3c 27 8a be 35 12 a4 bc
       0.34296656 -0.7029779 -0.26983058 -0.020028213
0001f0 c1 5b 86 bc a8 61 e2 be ef f5 19 3f dc 03 23 3f
       -0.016401174 -0.4421513 0.6014089 0.63677764
000200 82 5c 7f bd f8 54 8b be 2e e8 e7 be b9 1a c7 3e
       -0.06234408 -0.27213264 -0.45294327 0.38887575
000210 5d 1d b2 3c 80 fd 44 bd 9a 12 55 3e 0a 61 6a 3e
       0.021742517 -0.04809332 0.20807877 0.2288858
000220 1b bf bf bd ba 50 5e be b5 52 29 3f f7 60 90 3e
       -0.09362622 -0.21710482 0.66141826 0.28198978
000230 df b6 11 be 7e 15 cb be e0 9f b3 3d e6 50 84 3e
       -0.14229916 -0.39664835 0.08770728 0.2584297
000240 bf 51 29 3f bd 03 92 be 48 93 8f be 95 11 79 be
       0.6614036 -0.28518477 -0.28042054 -0.24323113
000250 f4 61 40 3f c3 03 73 3d f8 ce 51 bf 68 f4 9c bd
       0.75149465 0.05932976 -0.81956434 -0.07663804
000260 4d 9f e6 bc c5 45 bc 3e 95 68 1d 3f 17 43 4d be
       -0.028152132 0.3677198 0.61487705 -0.20045124
000270 ac 98 6e bf 79 a3 f3 3d e3 b5 04 be 62 37 08 3f
       -0.9320171 0.11896414 -0.1296001 0.5320951
000280 16 1d 50 3e 92 b1 39 be 80 b3 33 be d5 59 17 bd
       0.20323595 -0.18134144 -0.17548943 -0.036950905
000290 93 1a cb 3d be 6b 5c 3e 9f 68 d2 3d aa ba 5b 3e
       0.09917178 0.21525475 0.10273861 0.21457925
0002a0 5b e4 b5 3d 09 fb 8d bd 97 af 22 3f 13 11 e4 be
       0.08881446 -0.06932647 0.6354918 -0.44544277
0002b0 72 c3 c8 bb a8 b1 f0 be 9a fd cf 3b e0 03 38 be
       -0.0061268145 -0.4701054 0.0063473703 -0.17970228
0002c0 7f 04 f4 be 4a 48 ba 3e 09 da ba be 90 27 63 3e
       -0.4765968 0.36383277 -0.36494473 0.2218306
0002d0 87 6b 58 3f 44 79 05 3f c3 36 8a 3e 3c 65 3d 3e
       0.84539074 0.5213816 0.26994905 0.18495649
0002e0 28 ef 35 3d d8 a4 94 3e 10 c8 64 3f 21 1d f5 3c
       0.04441753 0.29032016 0.8936777 0.029921116
0002f0 c0 33 41 be 54 91 a7 3e 7a 57 a3 3c 40 49 9b bc
       -0.18867397 0.32728064 0.019939173 -0.018955827
000300 01 89 95 bd 1a 9c 90 bb be 87 e7 3d 9d 32 91 3e
       -0.07301522 -0.00441314 0.11305188 0.28358927
000310 d0 6b 8b be c7 ba 74 3e 4e 1b 3f 3e 59 b6 71 bf
       -0.27230692 0.23899375 0.1866276 -0.94418865
000320 cf 17 b5 3e e1 ab 93 be fe 4e dd be d6 6c 07 3f
       0.35369727 -0.2884207 -0.4322433 0.52900445
000330 16 de c8 be b2 2d 76 3e 38 5a c9 bd 9d 1f 7d be
       -0.39231938 0.24040869 -0.09831661 -0.24719091
000340 4b 4c 63 3e 16 fe a0 3c a5 5a e2 bc f1 0d 5b be
       0.22197072 0.019652408 -0.027631113 -0.21392037
000350 b1 ab 15 bf 41 bb b8 3e 20 b1 01 3e 1c 58 55 3e
       -0.58465105 0.36080363 0.12665224 0.20834392
000360 0b 85 ec be 53 5a 13 3f 0a e7 d4 be 40 a2 06 3f
       -0.46195254 0.575597 -0.4158252 0.52591324
000370 7a ec 11 3e 4e ba 02 3e 1e 1f 26 3f 2d a8 13 bf
       0.14250365 0.12766382 0.6489123 -0.5767849
000380 bc 96 6b 3d 6a 91 82 3e 04 ca ac bd 2d 4c 4e 3e
       0.0575168 0.25501567 -0.08436969 0.20146246
000390 83 73 57 bf f1 3a 82 bf 7a d5 49 3f 80 71 6c bf
       -0.8416063 -1.0174237 0.78841364 -0.9236069
0003a0 69 d1 48 3d b9 89 05 3f 2f 51 c5 bc 7e 6d aa 3e
       0.049027834 0.52163273 -0.024086563 0.3328666
0003b0 78 90 fd be 52 14 d6 3d 3c b4 24 3f d1 e1 75 3d
       -0.49524283 0.104530945 0.64337516 0.06002981
0003c0 4e 65 32 3f cb 32 86 bb 0e 35 39 3f 6a c6 29 3e
       0.6968583 -0.0040954105 0.7234658 0.16579595
0003d0 70 a2 cd be e7 9a 94 bf 52 e1 fe 3e 32 5a 9d 3e
       -0.40162992 -1.1609772 0.4978128 0.30732876
0003e0 1a 61 ee bd b7 55 98 3e 8a 58 d8 3d 75 1e 5f be
       -0.116396144 0.29752895 0.105637625 -0.21788962
0003f0 44 56 db 3e 90 4d 89 be 37 5d f7 bd 1e 96 46 be
       0.42839253 -0.26816988 -0.12078326 -0.19393203

action_model._discrete_distribution.branches.2.bias f4 [3]
000000 48 b1 79 3e 56 ca 07 be d6 fe b7 bd
       0.24384034 -0.13260779 -0.08984153

action_model._discrete_distribution.branches.2.weight f4 [3, 128]
000000 3a 7c 8a bd ed fa 92 be e4 bc 4a 3e f6 62 76 be
       -0.067619756 -0.28707066 0.19798619 -0.24061188
000010 8f 6e 4d bf fd 8a 69 bf 35 eb 83 3e 08 3a 2a bf
       -0.80246824 -0.91227704 0.25765386 -0.664948
000020 d7 2e 4e 3e 3c 73 66 3f ab 22 88 be 1c 15 1c 3e
       0.20135055 0.90019584 -0.2658895 0.15242428
000030 0e 57 fd 3e ac 50 df be 1c 6d dc 3b 10 e6 03 be
       0.4948048 -0.43616235 0.006726874 -0.1288073
000040 6a d0 25 bf 48 90 3e 3f d7 de ea 3e 48 36 3b 3f
       -0.6477114 0.74438906 0.45873138 0.731297
000050 d4 85 5f 3e 6a e8 92 3d 1e 0c 1f 3d e6 94 fa bd
       0.21828395 0.07173236 0.038829915 -0.122354314
000060 74 e9 07 3e 3f 55 df be 17 02 8a be 1c 6f 6e 3e
       0.13272649 -0.43619725 -0.2695472 0.23284572
000070 ea 44 89 bc eb 1d 1e 3d 78 25 23 bf 7d 24 0b be
       -0.016756494 0.03860275 -0.6372905 -0.13588138
000080 74 7f 4d bf 0f cf 34 3f 11 9b d1 be 3a 5d 84 be
       -0.80272603 0.70628446 -0.4093862 -0.25852376
000090 eb 26 36 be 48 d9 ca 3b 12 31 83 be c6 fb 24 3e
       -0.17788284 0.0061904527 -0.25623375 0.16111669
0000a0 47 79 94 3c ec 7c 8c 3e a2 2a c4 3d 20 5f c9 3d
       0.018124236 0.27439058 0.09578444 0.09832597
0000b0 2b a8 07 3f 66 04 0b 3f 50 9d 49 bd e3 28 ae bd
       0.5299098 0.54303586 -0.04922229 -0.08503892
0000c0 cd 33 da 3e 19 9a 19 3f 0a e4 c7 bd 1e 31 1f bf
       0.42617646 0.6000076 -0.09760292 -0.6218432
0000d0 28 ec 29 bf 53 0c 45 be e4 34 9b be 75 30 ad be
       -0.6637597 -0.19242983 -0.3031379 -0.33826032
0000e0 b7 ee 55 bf 2e 65 d9 bd 18 f4 5e be 8c fc 83 3e
       -0.83567375 -0.106150016 -0.21772802 0.25778615
0000f0 77 b1 9a bc 4d be c7 be 15 79 d8 3e 1e 6c fb 3e
       -0.01888345 -0.39012375 0.42279878 0.49105924
000100 ca c5 92 3e bf 89 e5 bd c1 65 40 3e 67 8b 94 be
       0.28666526 -0.112079136 0.18788816 -0.29012606
000110 83 87 4d be e5 c7 1d be aa 89 f2 be 50 91 69 bd
       -0.20071225 -0.15408285 -0.47370654 -0.057023346
000120 cd a1 47 3d ac 67 02 bd 4c be 1f 3f a7 a4 58 bf
       0.04873829 -0.03183715 0.62399745 -0.8462624
000130 8e ad 83 be c6 d7 c4 3e 9d e2 a4 be ba 84 b0 3e
       -0.2571835 0.38445872 -0.32204142 0.34476262
000140 02 ef 7e bd fc 4b d5 be 2e b9 3d 3e f4 cd 3d be
       -0.062239654 -0.41659534 0.18527672 -0.18535596
000150 6b 5b 3e bd ce 88 18 3e b6 f1 12 be 3c ba a2 3e
       -0.0464739 0.14895937 -0.14350018 0.3178271
000160 fa dc d4 3c 53 33 5e bf e9 f9 52 3e d9 a0 55 bf
       0.025984276 -0.86797065 0.20603146 -0.8344856
000170 f4 26 f6 3e 08 ad 66 bb 58 9b 3a 3e 8c 79 8f 3e
       0.48076594 -0.003519835 0.18223321 0.2802242
000180 d9 74 e0 bd 53 a8 32 bf d9 8a 47 bf 1b 75 23 3e
       -0.10959787 -0.6978809 -0.7794624 0.15962641
000190 13 ff 82 3e 7a 16 00 3f 20 e5 41 bc 15 3c 86 bf
       0.2558523 0.50034297 -0.011834413 -1.0487086
0001a0 04 b1 d3 3e 3a 1c b0 bc 7a 0f a0 be f8 44 ac be
       0.4134599 -0.021497834 -0.31261808 -0.3364637
0001b0 d1 33 3f 3b 72 a1 b9 3e eb aa 26 be 39 41 93 3d
       0.0029175172 0.36255985 -0.16276138 0.071901746
0001c0 24 a4 a5 be 52 49 12 3f 46 79 2c 3e a0 14 13 3e
       -0.32351792 0.5714313 0.16843137 0.14363337
0001d0 1e ee 5c be 74 6b 1e bf a8 cb dd 3e c8 a2 4e 3e
       -0.2157521 -0.6188271 0.4331944 0.20179284
0001e0 cb 54 aa bd 59 67 d7 be b6 f6 c5 3e b3 4b 29 3e
       -0.08316954 -0.42071036 0.38664788 0.16532783
0001f0 9f fb 21 bf 12 a7 4a 3f 35 c2 3a be 94 1c d7 be
       -0.6327457 0.7916118 -0.18238147 -0.4201399
000200 1f e7 ad 3d da ce ac 3d 99 1f 6f 3e a7 1c 7d bc
       0.084913485 0.08437891 0.23351897 -0.015448726
000210 56 7d 23 be 8e e7 42 3e 08 23 3e 3b f4 37 e4 3e
       -0.1596578 0.19033644 0.002901258 0.4457394
000220 a1 25 0b 3e 0a 11 8e be 44 9c a8 bd 3f 7d b6 3d
       0.13588573 -0.27747375 -0.0823293 0.089106075
000230 f5 e3 b3 bc 29 76 85 be bf f9 85 3d 9d 74 bc 3c
       -0.021959284 -0.26066712 0.06541776 0.023004824
000240 2a eb 8d 3b 50 22 1f be 56 bb 2b 3e 54 04 7c bd
       0.0043310123 -0.15540433 0.16770682 -0.061527565
000250 ae b1 15 3e 2a 85 58 3e c9 dd 23 3e 6d cb 83 be
       0.1461856 0.21144548 0.16002573 -0.2574114
000260 f7 4f a4 be e5 01 b5 3e 03 85 fa 3d 63 9e 66 3e
       -0.32092258 0.35353008 0.12232401 0.22521357
000270 6a d3 a9 3e 96 11 9a be 45 3d 04 3f eb c7 81 3e
       0.3316911 -0.30091542 0.5165599 0.25347838
000280 b9 7c cc be 17 6a 6f be 45 25 1f 3e 8d ad 24 3e
       -0.39938906 -0.23380314 0.15541561 0.1608183
000290 06 2c 44 be b9 0a 25 be 5d 11 6e 3c 1e 74 f7 be
       -0.19157419 -0.16117372 0.014530507 -0.48330778
0002a0 51 dd 60 3e e2 02 96 3e e1 68 08 be ca ce 22 bc
       0.21959426 0.29299074 -0.13321258 -0.009936998
0002b0 61 38 cf bc b3 7a 83 bd 06 58 c2 bd e4 36 0f 3f
       -0.025295438 -0.064198874 -0.094894454 0.5594313
0002c0 7f 5e d9 3d e2 2f 15 bf 30 3d df 3e 31 56 44 3f
       0.10613727 -0.5827619 0.4360137 0.7669402
0002d0 d0 13 d9 3c 67 7f e9 bc b8 f0 85 3e 2c d2 fd bc
       0.026498705 -0.028503133 0.26160216 -0.030984007
0002e0 63 0c b5 3b bd 18 a1 3d 75 a3 59 39 40 53 30 be
       0.0055251583 0.078660466 0.00020755625 -0.17219257
0002f0 72 8f 03 3e b6 0f 3e 3d d8 92 a2 3b a4 db 5d be
       0.12847689 0.046401702 0.004961353 -0.21665817
000300 90 7e 5d be 09 da e3 3c c5 38 49 be 49 f1 ca 3d
       -0.21630311 0.027813928 -0.19650562 0.09909303
000310 c0 f3 c3 bd af 29 29 3e ba a9 1f be d2 1c 99 be
       -0.09567976 0.16519807 -0.1559209 -0.299048
000320 7f a1 06 3e 76 b6 24 3e b3 c8 94 3d b9 a9 1b 3f
       0.13147543 0.16085228 0.07264843 0.6080585
000330 c3 f1 dc 3e 81 14 ca bc ca 35 f1 3d 29 60 7f bd
       0.431532 -0.02466798 0.117778376 -0.062347565
000340 22 01 40 bd 68 c8 12 bc 94 85 b6 be 7a 20 b7 3e
       -0.04687608 -0.008958913 -0.35648787 0.35766965
000350 84 e6 e5 3e 40 43 53 3d e4 c6 0b bf e6 63 07 bd
       0.44902432 0.051577806 -0.5460036 -0.033054255
000360 ee 41 97 3e 91 ed 07 3f b8 7d 85 bd fd 87 98 3e
       0.29542488 0.5309687 -0.065181196 0.2979125
000370 ac f1 bb bd 21 2b 94 3e c4 02 95 3d cd f0 2e bd
       -0.091769546 0.28939155 0.07275918 -0.042710114
000380 7f 8a 26 3e 05 57 87 3e 81 b8 09 3c 7a a9 93 bd
       0.1626377 0.26433578 0.008405806 -0.072100595
000390 39 35 35 3e 52 f1 38 be 4c 95 cb 3d 1d aa 15 3f
       0.17696084 -0.18060806 0.099405855 0.584627
0003a0 c7 3b 5d 3d dc 45 d3 be 39 e9 b3 3e e2 1c ee be
       0.054012086 -0.41264236 0.35138872 -0.4650641
0003b0 16 7d 1d 3e de 93 d9 3d 06 73 76 3e d9 51 31 3e
       0.15379748 0.106239066 0.24067315 0.17316379
0003c0 48 e7 12 b8 b4 f2 6b bd 52 25 5a 3e b1 7a 3f 3e
       -3.502451e-05 -0.057604507 0.21303299 0.18699147
0003d0 0c 6d 98 3e 3b e8 fa be 35 f1 b7 3d eb 44 85 be
       0.29770696 -0.49005303 0.089815535 -0.26029143
0003e0 d2 11 31 3e 16 a2 8b 3b 7b 74 cb be 1e 42 9c be
       0.17291954 0.0042612655 -0.39737305 -0.30519193
0003f0 c4 8d 47 3b c5 87 1f bf df fd f1 bd 03 63 16 3c
       0.003044949 -0.6231654 -0.11816 0.00917888

action_model._discrete_distribution.branches.3.bias f4 [3]
000000 fd c1 99 bd da f6 41 3e 3e b0 f2 bc
       -0.075077035 0.18941823 -0.029625054

action_model._discrete_distribution.branches.3.weight f4 [3, 128]
000000 03 fd d2 3d 8c c7 b7 bd a6 fb 9c be 9a 9e 87 3d
       0.103021644 -0.089736074 -0.30660743 0.06622048
000010 b8 73 84 be 19 e3 a0 be 6e e8 71 3e a0 91 f4 3c
       -0.25869536 -0.31423262 0.23623821 0.029854596
000020 7d fc 87 3e 67 53 b3 3e 2f 3d 5d 3e 21 9a ff be
       0.2655982 0.35024568 0.21605371 -0.4992228
000030 bd 86 0a 3f e5 d9 0f bf 02 c3 85 3c a6 87 5b 3f
       0.54111844 -0.56191856 0.016328339 0.8575386
000040 6d 1a 96 3f ef cb ac bc 75 6a 25 3d 68 44 c9 bb
       1.1726815 -0.021093337 0.04038473 -0.006142188
000050 22 8e 2c 3e ea b7 96 3e c1 e7 3b bf 73 2e 86 3e
       0.16851094 0.2943719 -0.73400503 0.26207313
000060 33 d5 f2 3c ab 76 3f bc 97 ac 4d 3e 60 77 68 3d
       0.029642677 -0.0116860075 0.20085369 0.05675447
000070 c5 ac d2 be 41 0b a5 3e d6 f3 c5 3e 0a dc 08 3f
       -0.41147438 0.3223515 0.38662595 0.5346075
000080 ea a5 26 3d 59 fe fa 3d 6c 0b 3f be b4 1f 6c 3e
       0.04068557 0.12255544 -0.18656701 0.23058969
000090 b4 0d e5 be b6 58 f9 bd 08 9a 94 3d ec 1c ef 3d
       -0.44737017 -0.121751234 0.07255942 0.11675438
0000a0 7c 98 3a 3f 2f 43 8a 3d 14 4f 2c bf ea b5 4f 3e
       0.7288892 0.067510955 -0.67308164 0.20284238
0000b0 1e 7a 8b be be d0 ac 3d 74 ef 19 bf e7 ca cd be
       -0.27241606 0.08438252 -0.60131 -0.40193865
0000c0 16 36 eb 3e 66 14 a0 be 20 3c ed 3e e5 99 06 3f
       0.45939702 -0.31265563 0.46334934 0.52578574
0000d0 2c a2 24 bf d4 80 95 bd 06 64 27 3f ca a2 cf 3e
       -0.64309955 -0.07299963 0.65387 0.40553886
0000e0 55 ff ae 3e cd 01 ef be f8 b4 c5 be c0 f8 6b bf
       0.34179178 -0.4668106 -0.3861463 -0.9217644
0000f0 38 29 7a be 3a 38 f2 3d 58 27 ba 3e e8 42 cf 3d
       -0.24429786 0.118271306 0.36358142 0.10120183
000100 12 41 fa 3d ea 36 df 3e 7f 50 14 be 52 3a 52 3f
       0.122194424 0.43596584 -0.14483832 0.8212024
000110 ce d4 8a 3e 2f e3 60 3e 18 49 04 3f d2 54 55 bf
       0.27115482 0.21961664 0.5167403 -0.8333255
000120 d1 e8 c6 3e 3f 85 8e 3e 6d ec 39 be 7d 94 5d 3d
       0.388495 0.27836034 -0.18156596 0.054096688
000130 af 0d e8 3e c7 bf 2c 3f 7d 84 b9 3e a2 f0 4b be
       0.4532294 0.6748013 0.36233893 -0.19916013
000140 8a d6 eb 3d d8 1b 3b be 32 5b a8 be 0f ec 7b be
       0.115155295 -0.1827234 -0.32882077 -0.24601768
000150 b7 49 8b be d0 9a 33 3e 7f c8 11 3f 78 79 e2 bd
       -0.27204677 0.17539525 0.5694656 -0.110583246
000160 3c 2d 3c bd 23 af c4 be 49 d9 cc be c2 22 a2 be
       -0.045941576 -0.3841487 -0.40009525 -0.31667143
000170 3d 59 e4 3e db 60 9f bc 8c 4e 46 3e 9d 20 ce be
       0.44599333 -0.019455364 0.19365901 -0.40259257
000180 7d a0 55 be 80 4a 04 3f d4 a7 04 3f c5 51 36 3e
       -0.20862003 0.5167618 0.51818585 0.1780463
000190 07 8a b3 be 5f 11 92 3e a6 3a ff 3b f5 6c 11 bf
       -0.35066244 0.28528878 0.007788974 -0.5680688
0001a0 21 fc 0d 3f 54 dd 1b bf ce 26 ac be 13 e9 96 be
       0.55462843 -0.60884595 -0.33623356 -0.29474697
0001b0 6c b4 05 3f e2 9f d2 be 9e 90 b7 3e fe 4c 54 be
       0.52228427 -0.41137606 0.35852522 -0.20732495
0001c0 d8 83 83 3e f9 2b 93 bf e4 75 0d 3f 7e 17 6e 3e
       0.25686526 -1.1497794 0.5525801 0.23251149
0001d0 6a dd 8f 3e 44 a2 92 bf 7a 2e 31 3e e0 f5 c7 3e
       0.28098613 -1.145577 0.17302886 0.39054775
0001e0 57 0e e2 be bc b7 5a be 43 28 b4 3d 10 15 ff be
       -0.44151565 -0.21359152 0.08796742 -0.49820757
0001f0 88 a9 d7 be 22 69 a5 be 25 6d ed 3e 4f ac 65 3f
       -0.4212153 -0.32306772 0.46372333 0.8971605
000200 bd 32 48 3e 6e 1e cf 3e 57 39 00 be 71 5e ed 3e
       0.19550605 0.40452904 -0.12521873 0.46361116
000210 65 ba a2 3e 52 c5 af be 6b bd 0c be 60 ac aa 3e
       0.31782833 -0.3433023 -0.13744132 0.33334637
000220 10 d5 ff bd 9b 3b 3b be ff 02 4a be c8 36 f8 3e
       -0.1249181 -0.18284456 -0.19727705 0.48479295
000230 ae d2 0f bf ee c2 fb 3e af eb 52 3e ad d6 aa 3e
       -0.56180847 0.49172157 0.20597719 0.3336691
000240 a5 4b d2 be 99 67 6b 3e 7a 1a 87 bd fd c2 ea bc
       -0.41073337 0.22988738 -0.06596847 -0.02865743
000250 87 6b 77 be bb f0 ae 3b 15 8c 20 3e d3 8d 63 3e
       -0.24162112 0.005338756 0.15678437 0.2222207
000260 33 00 6d bd 53 7a 51 be dc 1d 5d 3d 0d 7c 7d 3e
       -0.057861518 -0.20456819 0.053983554 0.24754353
000270 0b cf 42 3f 96 38 03 bf 52 91 ff bd ef 9e 0c bf
       0.7609717 -0.5125822 -0.124788895 -0.54930013
000280 75 da 30 3e 8d f3 51 3e 88 22 b3 be 43 1d 21 be
       0.17270835 0.20503063 -0.34987283 -0.15733819
000290 b6 61 1d 3f 16 df 72 3e 67 e1 ac 3d bc 63 c4 3d
       0.6147722 0.23717913 0.084414296 0.09589335
0002a0 c9 76 34 3b 00 31 93 3e b7 91 4c 3e 1e b7 1f be
       0.0027536622 0.28748322 0.19977461 -0.15597197
0002b0 2b 7a 82 3e 3f bb 34 3e ca 69 a4 be 99 bc 1a 3e
       0.25483832 0.17649554 -0.3211196 0.15111007
0002c0 25 91 12 3e c1 21 ff 3d 45 ff 0e 3e da b5 04 3d
       0.1431318 0.1245761 0.13964565 0.03239999
0002d0 c4 40 ac 3d 9e 6b 40 3e 55 68 2c bf 01 b0 46 bf
       0.084107906 0.18791053 -0.673467 -0.7761231
0002e0 1d 49 18 bd d5 97 e7 3d fb 10 80 3d 4e f4 05 3f
       -0.0371791 0.113082565 0.06253239 0.52325904
0002f0 12 6c 05 3f fb 9e 3f 3e 8d 60 18 bb 54 86 d1 bd
       0.5211803 0.1871299 -0.0023250908 -0.10230699
000300 4a 8b 88 bd b3 03 9c be c6 15 b0 be b3 63 25 bf
       -0.06667192 -0.30471572 -0.34391612 -0.64605254
000310 3f e2 77 3d f4 06 96 be c8 04 ac be 5a 6d 20 3f
       0.0605185 -0.2930218 -0.33597398 0.6266686
000320 d3 05 71 be 34 63 81 3e 6a 31 b7 3e 83 9e 0d bf
       -0.23537378 0.25270998 0.35779887 -0.55319995
000330 e8 69 a6 bb 36 4a f8 be f4 37 5d bf 25 58 7e bd
       -0.005078543 -0.48494118 -0.864135 -0.06209578
000340 d3 38 bf 3b fa b0 a1 bd 7d 40 c2 3b b0 2c 08 3e
       0.0058356314 -0.07895084 0.0059280978 0.13298297
000350 e3 a1 c3 3c 42 4e 0b 3e c8 67 3f 3e 30 8c 99 3e
       0.023880905 0.13604072 0.18691933 0.29989767
000360 6e b8 1d 3f eb 9c 7d 3e 24 74 87 3e f9 fb 1a be
       0.6160954 0.2476689 0.26455796 -0.15135182
000370 66 e7 2a be 59 64 08 3e 55 ed 90 bd 9e 46 22 3f
       -0.16689834 0.1331953 -0.070765175 0.63389003
000380 2f d6 5f be 01 42 34 bd bf 18 8a 3e fd b1 01 bb
       -0.21859048 -0.04400826 0.26972005 -0.0019789927
000390 ca c5 12 3f 86 dc 9b be eb e2 4a 3d 89 83 23 bf
       0.5733305 -0.30441684 0.049532812 -0.6387258
0003a0 40 00 a9 be ba 75 4d 3f 49 3d d5 3e 39 9e f5 3e
       -0.33008003 0.8025776 0.4164832 0.47972277
0003b0 95 e9 36 bd 12 af b0 3e 5f 58 3c 3f 20 89 d0 be
       -0.044656355 0.34508568 0.73572344 -0.40729618
0003c0 f1 81 b9 be b0 4f 3f 3f 13 86 1d be 45 71 c0 3d
       -0.3623195 0.7473097 -0.15383177 0.093966044
0003d0 0b a6 9f 3e 96 4c a0 3e 1d 85 e8 3e 3c 8e a8 bc
       0.31181368 0.3130843 0.45414057 -0.020575635
0003e0 8b 39 bc be 05 ca b4 bd f3 a2 97 ba 92 70 bc 3e
       -0.36762652 -0.08827595 -0.0011568948 0.36804634
0003f0 c3 fe 02 be b8 f4 8e 3d 9f 38 89 be a5 b0 1a bf
       -0.12792496 0.0698027 -0.2680101 -0.6042579

action_model._discrete_distribution.branches.4.bias f4 [3]
000000 87 24 34 3d ab 37 ba 3d 8b bd ff bd
       0.043980148 0.09092649 -0.12487324

action_model._discrete_distribution.branches.4.weight f4 [3, 128]
000000 d6 80 79 3e e1 9c e8 bd 4e 60 8a 3e 1d 83 c7 bd
       0.24365553 -0.11358047 0.270266 -0.09741805
000010 b6 bf 5b 3d 79 80 9f 3c 79 20 0b 3f 1b a4 e2 bd
       0.053649627 0.01947044 0.54346424 -0.11066457
000020 ad 6c 06 3e 32 c4 89 bd 66 bb 8a be e6 f2 58 3d
       0.13127394 -0.067268744 -0.270961 0.05296602
000030 29 72 f1 3e 32 5e 88 3f 71 5a 73 bd e2 c2 df 3d
       0.4715741 1.0653746 -0.059412424 0.10925843
000040 a3 41 c7 be ea dc 4d be fc 47 a6 3e 86 68 b5 be
       -0.38917264 -0.20103803 0.32476795 -0.35431308
000050 ec 16 9f bd 7b 9a 0b 3e 0b 9c ee bb fa 11 4b 3e
       -0.07768044 0.13633148 -0.0072817854 0.19831076
000060 fd b8 d9 3d 9e 64 32 3e 54 84 76 3e 31 8c 9c 3d
       0.10630987 0.17421195 0.24073917 0.07643927
000070 44 c1 69 3e b2 b6 a9 3c 3f 4c 42 3e 9b a6 0c 3f
       0.22827631 0.020716999 0.18974398 0.5494172
000080 aa c3 11 3f 56 31 73 3e df b4 a5 bd 0d 3d 14 bf
       0.56939185 0.23749289 -0.08091139 -0.57905656
000090 81 c1 35 be 0c 95 aa be e4 04 83 bd f1 97 16 3d
       -0.17749597 -0.3331684 -0.06397417 0.036765996
0000a0 a2 c2 e4 be 9c 6c 9d 3b 5b 63 27 3f 49 28 6a 3e
       -0.44679743 0.004804207 0.6538598 0.2286693
0000b0 98 f7 1e bd 58 67 08 3e 22 67 0a bf 9a 6c 1a bf
       -0.038810343 0.13320673 -0.5406362 -0.6032196
0000c0 0b 3c ae 3d 0c 51 e3 3e b8 e1 33 bf 2b 26 0b be
       0.08507546 0.4439777 -0.70266294 -0.13588779
0000d0 60 23 82 3e 97 7f 4a 3f 9e 41 15 be b8 97 d9 3d
       0.25417614 0.79100937 -0.14575812 0.10624641
0000e0 59 f7 95 be c7 fe 1f be ee 15 95 3e ef f5 b8 3e
       -0.29290274 -0.15624534 0.29118294 0.36125132
0000f0 30 dc 21 be 95 69 45 bd 4d bd ea 3b af 4d 5c bd
       -0.15806651 -0.048196394 0.0071636797 -0.053785022
000100 0c 1a df 3e 12 a8 0b 3d ec 59 d0 be 1b fe 72 3d
       0.4357456 0.03409583 -0.40693605 0.059324365
000110 d9 63 54 be a9 1e 7e 3e c7 41 3b 3e c9 f9 02 3e
       -0.20741214 0.24816383 0.18286811 0.12790598
000120 69 b0 84 3e 68 68 87 bf 0f f3 56 bd 94 e3 3f 3f
       0.2591584 -1.0578737 -0.052477892 0.7495663
000130 69 74 86 be c8 95 14 3e 44 cc c8 bd c6 94 73 3d
       -0.2626069 0.14510262 -0.098045856 0.059468053
000140 45 cc af be 9b 0a c9 3e f7 d9 0b 3f f9 e4 bf be
       -0.34335533 0.39265904 0.5462946 -0.3747938
000150 42 ef 87 bd c0 5d 10 be 21 8d 9c bf 1e c3 55 be
       -0.06637432 -0.14098263 -1.2230569 -0.20875213
000160 61 da 27 3c a7 e0 94 be 46 64 51 3d bb c7 1b 3f
       0.010244937 -0.29077646 0.05112102 0.6085164
000170 22 1f 8b bd 82 1f a0 ba c0 6a 31 3d 60 4d a2 3e
       -0.067930475 -0.0012216421 0.043314695 0.31699657
000180 38 da cf bd 68 86 91 be ac 18 ad 3d c7 ff be 3e
       -0.10149044 -0.28422856 0.084519714 0.37304518
000190 66 18 83 be 0d 5a 66 be 4d 55 9c 3e 28 ae 6a be
       -0.25604552 -0.22495289 0.3053383 -0.22917998
0001a0 3a 85 2c 3d 80 85 75 3e 03 d9 27 be bc 22 0c bf
       0.042119242 0.23976707 -0.16391377 -0.547405
0001b0 f0 4c cf bd 7b af 8f be a1 6f 58 3e d4 99 4a 3e
       -0.101220965 -0.28063568 0.21136333 0.19785243
0001c0 92 e9 78 3e 52 0d 19 3c 36 cd 85 bf d8 6a c0 3d
       0.2430785 0.009341555 -1.045325 0.09395379
0001d0 d7 d3 2f 3e f4 44 9f be 2a a0 7a 3e 4c 6c 79 be
       0.17170654 -0.31107295 0.2447516 -0.24357718
0001e0 95 4f 8c 3e f2 ef 0a 3f 24 ec 3f be 36 c2 29 3e
       0.27404466 0.5427238 -0.18742424 0.16577992
0001f0 85 ee c5 3e 2d 69 e6 bc c2 b4 58 3e b7 29 98 3c
       0.38658538 -0.028126324 0.21162704 0.018574579
000200 02 da a3 be 2f 5d a4 3e 84 84 a6 be 5b f4 c4 3c
       -0.32002264 0.32102343 -0.32522976 0.024042299
000210 d7 e0 ff 3e 9f b5 02 bd 8f bf 03 bf 62 5b 2f 3e
       0.49976227 -0.03191149 -0.5146417 0.17124704
000220 dc 90 16 bf 48 22 07 bd 5b 33 ea be 7a c6 91 bd
       -0.5881479 -0.032991678 -0.45742306 -0.071179345
000230 0f 1b a1 be 49 6f 6e bf bc ee ac 3d 68 e0 2b bf
       -0.31465957 -0.9313856 0.084439725 -0.6713929
000240 79 64 36 3d a7 b3 4c 3e 43 50 e0 bd d8 e1 a9 3e
       0.044529412 0.19990407 -0.10952809 0.33180118
000250 00 e9 fd 3e a1 bd 21 3e 51 7a d7 be 29 a4 f1 bd
       0.49591827 0.15794994 -0.42085508 -0.11798889
000260 0e 02 d6 3e 0c fa eb 39 2c 94 d3 3e 55 28 30 be
       0.41798443 0.00045008992 0.41323984 -0.17202885
000270 03 91 4d be dc cf 09 3e f6 02 15 bf 55 82 7c bd
       -0.20074849 0.13458198 -0.58207643 -0.06164773
000280 55 73 90 be 5c ca 8d be 22 90 09 3f 1b 98 33 3e
       -0.2821299 -0.2769345 0.53735554 0.17538492
000290 7d f6 7d 3e 2d b0 bf 3e 94 50 fb be 06 4c 08 3f
       0.24801059 0.374391 -0.49084914 0.53241
0002a0 5f 87 7e 3d 6f 81 8e 3e f6 86 c8 bb fd 74 03 be
       0.06214082 0.27833125 -0.006119604 -0.12837596
0002b0 eb 3d c5 bd 39 c8 8f 3c 42 1a 07 3f 55 24 e1 3e
       -0.096309505 0.017551528 0.5277444 0.43973032
0002c0 2a 49 39 3c 40 a5 0e be fb da 0c bb e2 22 d8 3e
       0.011308948 -0.13930225 -0.0021492827 0.42214113
0002d0 36 87 80 bc 0f 04 8e be 60 eb b9 3e dc 77 68 3e
       -0.015689474 -0.2773747 0.3631239 0.22701973
0002e0 1e 04 a6 3e e5 40 e8 3d 0f 4a ec 3c 11 bb 29 3e
       0.32425016 0.11340503 0.028843908 0.16575266
0002f0 76 b1 6c be 47 64 3f 3d f9 34 67 3e 21 4a 63 3e
       -0.23114571 0.04672649 0.22578801 0.22196247
000300 3a 22 07 3e 18 93 c6 bd 35 08 11 3f 03 30 e8 be
       0.1319665 -0.09696025 0.5665315 -0.4534913
000310 55 18 09 3e 7b 7b 5f 3e 27 5a 6c bc 16 40 7e 3e
       0.13388188 0.21824448 -0.014425791 0.24829134
000320 22 16 c6 3e e5 3f 8c 3e 8c 80 d8 3e 17 b3 d5 bd
       0.3868876 0.27392498 0.42285573 -0.10434549
000330 58 2a 69 3c e5 b0 49 bc e6 67 bf bd 80 5a 08 3e
       0.014231287 -0.012310241 -0.09345989 0.13315773
000340 4b 59 84 3d 77 a5 c0 bc 5d 5f 9a bd 62 0d 22 3f
       0.06462344 -0.0235164 -0.0753772 0.6330167
000350 f5 a2 26 bd af 51 ef 3e 77 b6 72 3f 55 3a ba 3d
       -0.04068275 0.46742007 0.9480967 0.09093157
000360 ac ad 05 bc 84 f4 c2 3e 6d b9 4d be e6 23 9b bd
       -0.008159082 0.38077176 -0.20090266 -0.075752065
000370 69 c1 fd 3e 68 54 bf 3d 6a 19 0a 3f b3 57 66 3c
       0.49561623 0.09342271 0.5394503 0.014058995
000380 46 5f b3 3e d7 55 36 3f 44 20 e8 be 5d 64 a9 3d
       0.35033625 0.7122473 -0.45337117 0.08271096
000390 80 56 1f be e9 da cd bd 3f 30 c2 3d e3 5c 31 3f
       -0.15560341 -0.100515194 0.094818585 0.6928236
0003a0 36 3e f7 bc 33 f0 20 3f f5 ec cb 3d 1b fa 55 3f
       -0.030181032 0.62866515 0.09957305 0.83584756
0003b0 8f e2 5f 3e 82 ad 16 3d 10 44 b1 be 65 dc 58 3e
       0.21863769 0.036786564 -0.3462224 0.21177824
0003c0 61 86 60 3e 67 7c cf 3e c9 51 f9 bd a3 a2 f7 be
       0.21926261 0.405246 -0.121738024 -0.4836627
0003d0 ae 94 14 bf c8 40 41 be d0 58 f4 be 10 f0 37 3f
       -0.5803937 -0.18872368 -0.4772401 0.7185068
0003e0 da 8f 0e bd f1 65 9f be 94 31 b5 3e d7 64 7e be
       -0.034805156 -0.31132463 0.35389388 -0.24843155
0003f0 e5 06 57 3e 0d 7f df bd 7b 2a 4e be 4f d9 34 3d
       0.20998724 -0.10912905 -0.20133393 0.044152554

action_model._discrete_distribution.branches.5.bias f4 [3]
000000 31 09 38 be 30 00 99 bc 48 1e 00 3e
       -0.17972256 -0.018676847 0.12511551

action_model._discrete_distribution.branches.5.weight f4 [3, 128]
000000 5c a7 6c 3d d2 ea 1d 3e 88 cd c4 be 48 ff ae bc
       0.057776794 0.15421608 -0.38438058 -0.021361962
000010 49 9a 71 3e ee 84 e7 be d1 f7 bb 3e 1c 98 ed 3e
       0.23594011 -0.45218605 0.36712506 0.46405113
000020 c2 9d 04 3f 58 aa a7 3e fe b3 e5 3e 46 3b 30 bf
       0.5180322 0.3274715 0.44863886 -0.68840444
000030 79 4f a7 bf 77 a7 19 3f 2d 96 24 be 0f 8a 86 3e
       -1.3071128 0.60021156 -0.16072913 0.26277205
000040 4a d1 83 3f 66 a2 f1 be ed 18 8e be 95 62 0d bf
       1.0298245 -0.47194213 -0.27753392 -0.5522855
000050 dd 7a 11 be 8d 14 85 be bf 5a 5a be 82 bc ee bc
       -0.14207025 -0.25992242 -0.2132368 -0.029142622
000060 ea 0a d7 3d b3 80 52 3e 4d 03 8c 3d 01 c6 02 bf
       0.105001286 0.20556907 0.06836567 -0.5108338
000070 d7 c6 de be 4d 0b 98 3e be 77 1d be 0a 34 ba 3e
       -0.43511078 0.29696122 -0.1537771 0.36367828
000080 16 be 00 3f d0 0f d0 be ba 03 74 b8 fd ba 9f 3d
       0.5029005 -0.40637064 -5.8177604e-05 0.07799337
000090 b3 94 d7 be 83 b9 15 3f 7d 10 3a 3f 81 4e 0e 3f
       -0.42105636 0.58486193 0.7268141 0.5558854
0000a0 5d aa fa bd 00 95 04 be 9f ef 73 3f 28 05 e8 be
       -0.122395255 -0.12947464 0.9528751 -0.45316434
0000b0 fc 9e 14 bf 21 00 40 bf 6d 67 c0 3e 13 dc 57 be
       -0.5805509 -0.75000197 0.37578908 -0.21080045
0000c0 58 c0 7f be 1d aa e4 bc c5 43 11 3e dc 15 f3 3d
       -0.24975717 -0.027913148 0.14186008 0.11869404
0000d0 9d ea 49 3f a0 f5 49 3f b7 24 02 3f a0 04 06 3e
       0.78873616 0.7889042 0.5083727 0.13087702
0000e0 b5 a9 ce 3d 5e 0b eb 3e 71 06 ef 3e cc 9c 39 3d
       0.10090963 0.4590711 0.46684602 0.04531555
0000f0 3d 38 4a be 59 d1 58 3e 36 58 68 be 83 de 06 3d
       -0.19748016 0.2117361 -0.226899 0.032927047
000100 cc ce 80 bc 0e 61 36 be 47 ed 04 be 0e 4f 49 3f
       -0.015723608 -0.17810461 -0.12981139 0.7863625
000110 03 bf 9f be e1 c5 5b 3e 84 64 2c 3e b2 14 17 be
       -0.31200418 0.21462204 0.16835219 -0.14753988
000120 6f c3 9c 3e 1e d5 12 bd 6b 36 f2 bd 1d 70 24 3f
       0.30617854 -0.035847776 -0.11826786 0.6423357
000130 bd e7 4d 3e 71 58 de be bf ce 8d 3d f2 5e 29 3e
       0.20107932 -0.4342685 0.06924199 0.16540125
000140 1e 5c a2 be 75 e9 c2 be 18 2b 15 3f 07 bf 8c 3d
       -0.31710905 -0.3806874 0.5826888 0.06872373
000150 d6 dc df be 64 aa 03 3f 6c f7 2d 3d da de b7 be
       -0.43723172 0.5143187 0.042472288 -0.3591221
000160 b9 1d 37 bf 58 f3 a4 3e a2 4a 0c bf 8c 79 81 3f
       -0.7152973 0.32216907 -0.5480138 1.0115218
000170 3a 76 07 3f e9 f4 8f 3d 42 fd 48 3e 0a e9 a9 bd
       0.52914774 0.07029135 0.1962786 -0.08296402
000180 09 38 4c 3c d3 fa 2c 3f a5 34 f7 bd b0 85 c0 be
       0.012464532 0.6757023 -0.12070588 -0.37601995
000190 3b 86 66 bc 4d 1d 13 bf b6 9e 0d 3f a5 36 1a bf
       -0.014070089 -0.57466584 0.553203 -0.6023963
0001a0 4f 0b 5e 3e 36 a0 ce be 1d da 7a be 9d 2c 1b 3f
       0.21684001 -0.40356606 -0.24497266 0.6061495
0001b0 86 9c d7 3e b0 1d f0 be 32 f3 b9 be 31 33 46 3f
       0.42111605 -0.4689765 -0.36318356 0.7742186
0001c0 8a 39 5b 3f 61 90 ba 3e f7 3d 07 3f aa 31 60 bf
       0.8563467 0.36438277 0.52828926 -0.8757578
0001d0 83 22 74 bf 30 90 3f bf 6d c9 14 bf e1 f8 d2 3e
       -0.9536516 -0.7482939 -0.5811985 0.41205505
0001e0 8e 4b 99 bd 00 e0 81 3f ed 52 40 3e ab 45 0e be
       -0.07485114 1.0146484 0.18781634 -0.13893764
0001f0 c6 ec e1 bd 9c 7b 08 3f 58 24 ea 3d 0e c7 12 3f
       -0.11031489 0.5331361 0.11432713 0.57334983
000200 a4 23 04 3e 16 55 8f be 76 bb 4a bc 30 15 22 3e
       0.12904221 -0.27994603 -0.012373796 0.15828395
000210 9b b9 21 bf 4c 95 d2 3e 06 08 08 bd 9d bb 7c be
       -0.63173836 0.4112953 -0.033210777 -0.24680944
000220 71 9a 9e ba 5e 29 83 bf 33 ae 66 bf 9f b4 06 3f
       -0.001210047 -1.0246999 -0.90109557 0.52619356
000230 e1 84 15 3f b1 68 0c 3f f2 b3 31 bd b0 22 b3 be
       0.5840588 0.54847246 -0.0433845 -0.34987402
000240 e9 10 46 bf 6c 0e f8 3e 3d ff 74 3e 49 42 77 3e
       -0.7736955 0.48448503 0.2392549 0.2414638
000250 00 e3 36 3e 39 5b 37 3e dd d1 71 3f bd d9 85 3d
       0.17860031 0.17905892 0.9446085 0.06535671
000260 9f 39 5d bf 82 47 d0 3e 44 62 c4 b9 44 e3 ca 3e
       -0.8641605 0.40679556 -0.00037457247 0.39626515
000270 bc 61 14 3f 40 9b 68 3e 74 ac d0 3e af bd 77 3e
       0.5796163 0.22715473 0.4075657 0.24193452
000280 07 9d dc be b9 32 56 3e 06 4b cd be 3b 90 e5 be
       -0.43088552 0.20917787 -0.400963 -0.44836602
000290 ac 24 97 be 62 eb 8a be bb bc 79 3d e2 48 6f be
       -0.29520166 -0.27132708 0.060971003 -0.23367646
0002a0 bf 58 2c be 6a 6c e2 bd c8 22 8c be 34 ce ed 3e
       -0.16830729 -0.110558346 -0.27370286 0.46446383
0002b0 e5 eb 9d 3e 92 c5 ba 3e 5e 57 9f bc 38 02 1f be
       0.30844036 0.3647886 -0.01945084 -0.1552819
0002c0 2b f6 b9 3e ee b7 83 bd f7 22 42 3e de 71 32 bc
       0.36320624 -0.06431566 0.1895865 -0.010891406
0002d0 9c bc 92 be 0c cc a7 be ce ab de 3e 00 b8 98 3e
       -0.28659523 -0.32772863 0.43490452 0.2982788
0002e0 24 aa 28 be cf 8a b1 3c ed f3 35 be 2a 73 04 3f
       -0.16471153 0.021672634 -0.17768832 0.51738226
0002f0 0c ff 32 3e a2 bb 9d be bb 0d 18 bd 34 a6 a9 be
       0.17480105 -0.30807215 -0.03712247 -0.33134615
000300 e4 e8 07 bf f7 b6 1e 3e fa a8 73 be ac 05 c8 be
       -0.5308974 0.15499483 -0.23794928 -0.39066827
000310 05 3b 06 bf a0 2f 65 bf f8 6d db 3e 49 6f f4 be
       -0.52433807 -0.89525795 0.42857337 -0.47741154
000320 c6 87 24 3e f4 72 00 bf d2 99 9a 3c 73 14 cd bf
       0.16067418 -0.50175405 0.018872175 -1.6021866
000330 aa 66 65 bd 28 9a 06 3e 0b 67 ee 3d 56 f8 08 bf
       -0.05600611 0.13144743 0.11640748 -0.5350393
000340 52 96 d3 3d 37 34 08 be af d6 11 bf 31 f6 13 be
       0.10331406 -0.13301168 -0.56968206 -0.14449383
000350 fe 84 77 3f 68 57 88 be bd 3b e7 be ee 69 c5 be
       0.96687305 -0.26629186 -0.45162764 -0.3855738
000360 c8 5d 81 3e 9c d6 a4 bc 6e 0b ec 3e 31 05 16 bf
       0.25266862 -0.020121865 0.4610247 -0.5860167
000370 f4 c5 bb be 4d 20 ba 3d c8 ea 62 3e 72 cb 98 3b
       -0.36674464 0.09088192 0.22159874 0.0046629244
000380 fc f4 62 be 6d b1 88 bf 11 dd eb 3e 0e 86 18 3e
       -0.22163767 -1.0679146 0.46067098 0.14894888
000390 8e 69 39 3e b2 83 b6 3e dd 87 f0 bd 62 f1 73 3e
       0.18106672 0.3564735 -0.11744664 0.23822549
0003a0 cc e5 06 bf 1c 9c d3 3e 41 0e b8 bd 45 e0 77 3e
       -0.5269439 0.4133004 -0.08987094 0.24206646
0003b0 44 72 da be 2c 20 51 3e 4c 5e ee 3d 77 ed 1b bf
       -0.42665303 0.20422429 0.116390795 -0.6090922
0003c0 d7 7b ff be b4 ad be be c2 3a a1 bf 7e 18 03 3f
       -0.4989917 -0.372419 -1.2596056 0.5120925
0003d0 bd 38 29 3f d3 4c ce 3e 37 11 6c 3e 5a 37 5c bc
       0.661022 0.40292987 0.23053442 -0.013440931
0003e0 42 e4 80 3d 78 42 8e be d0 df b8 be 18 2c d3 be
       0.06293537 -0.27785087 -0.36108255 -0.41244578
0003f0 4c 59 ca be 0c b6 df be f9 95 dc 3d 06 49 98 bd
       -0.39521253 -0.43693578 0.107707925 -0.07435803

action_model._discrete_distribution.branches.6.bias f4 [3]
000000 bc 82 82 3e bd 30 a8 bd 3b 13 a9 bd
       0.25490367 -0.08212421 -0.08255621

action_model._discrete_distribution.branches.6.weight f4 [3, 128]
000000 41 13 a1 3e 64 61 03 3f ee ba aa 3e 59 56 0f bd
       0.31460002 0.5132048 0.3334574 -0.034994457
000010 90 75 05 bf 36 9d 0c bf 94 4a 4f 3e 55 73 9d 3c
       -0.5213251 -0.54927385 0.20243293 0.019220034
000020 0b e7 50 bc 00 56 88 bd fb 75 02 3e 85 40 fd be
       -0.012750397 -0.06657028 0.12740318 -0.49463287
000030 3f 25 c5 3e dc c2 1c be d2 b2 0b ba cd 0a 0f 3f
       0.3850498 -0.15308708 -0.00053290755 0.55875856
000040 25 bd 54 3e 72 d6 7d 3e 4f b1 d9 bd 12 8f e4 bd
       0.20775278 0.24788836 -0.10629522 -0.11160101
000050 b7 63 7a 3e cd 0e 3c 3c 52 ee c5 3e d5 6f c6 be
       0.244521 0.011478138 0.38658386 -0.38757196
000060 93 24 0d 3d e3 3f 24 be 0d f6 03 3d 74 d9 eb 3e
       0.034458708 -0.16039996 0.032217074 0.4606434
000070 0b b5 a8 3e 0d b8 8b be 4b 05 c5 bc 0b c6 8a bd
       0.32950625 -0.27288857 -0.024050375 -0.06776055
000080 73 da 4c 3d 33 c8 46 3e 94 07 18 bf 33 cb e1 3e
       0.050013017 0.19412307 -0.59386563 0.4410034
000090 99 ee 40 3e 7c 1e 0e bf 4c d1 a2 3d a1 dd c6 3d
       0.18841018 -0.55515265 0.079500765 0.09710241
0000a0 f7 54 22 3d bd af d4 bd 67 e7 3b 3e ce 03 11 3e
       0.03963181 -0.10385082 0.18349992 0.14161608
0000b0 4a 51 84 3e 54 be 84 3c 86 6d 4e 3d 68 fa 84 3e
       0.2584327 0.016204037 0.05039742 0.25972295
0000c0 8f 48 1d 3e 01 37 e2 be 97 4f d3 3d 73 6e 97 be
       0.1535971 -0.4418259 0.10317915 -0.29576454
0000d0 70 8f d9 3e f6 5f 82 3e 89 68 a8 bd cf 4a b3 3e
       0.42492247 0.25463837 -0.082230635 0.35018012
0000e0 fa 39 2e bf ae 33 48 bc 7f 5b b7 3e cc 89 8e 3e
       -0.68057215 -0.012219353 0.35811993 0.27839506
0000f0 86 c1 32 bf 7d c7 2a bd 0a 85 eb 3e b8 17 ce be
       -0.69826543 -0.041694153 0.45999938 -0.4025247
000100 63 64 67 be 4a a5 88 bd e8 cb b1 bc 50 d2 82 bf
       -0.22596888 -0.066721514 -0.021703675 -1.0220432
000110 c2 44 8c 3e 57 a8 af be fc b2 4a 3e 4d 87 84 3f
       0.27396208 -0.3430812 0.1979484 1.035379
000120 de a2 8d bc de e0 93 3e 31 ab 35 3e bc 78 7b 3e
       -0.017289575 0.28882498 0.17741086 0.24557775
000130 54 e4 8d 3e d2 ce 11 3d 54 8f 55 3d 5a bb 31 bd
       0.27713263 0.03559763 0.05213864 -0.043391563
000140 69 b6 74 3e 7d c3 55 be 16 3f bd be e8 45 57 bf
       0.23897709 -0.20875354 -0.36962193 -0.84091043
000150 e8 05 38 bc 8c 7a f5 be 95 90 f5 be 06 f8 a3 be
       -0.011231877 -0.47945058 -0.4796187 -0.32025164
000160 01 b3 39 3f fc 66 29 3f 1f 00 71 3b 30 9d db bd
       0.72538763 0.66172767 0.0036773754 -0.107233405
000170 0d df 3a bf cf 84 a0 3e 83 c7 d1 3e 55 12 eb bd
       -0.729966 0.31351325 0.40972528 -0.11478106
000180 49 24 56 3e 8e 3e 11 bf 7f 57 97 3e 72 73 4d be
       0.20912279 -0.56736076 0.29558942 -0.2006357
000190 5d 62 68 3d 38 5d cb 3e 4c d3 b5 3e 7e 74 e1 3e
       0.05673443 0.39719558 0.3551277 0.4403419
0001a0 af 83 87 bf e5 93 be be c8 76 4c 3f 36 e1 01 3f
       -1.0587062 -0.3722221 0.79868746 0.5073427
0001b0 5c 5b af bf 01 c1 af 3e 9d b5 76 3e 7f 0a c2 be
       -1.3699756 0.34326938 0.24092717 -0.37898633
0001c0 76 a7 1c bd a1 58 b3 bf e4 9d a3 bf 16 cb 48 3e
       -0.03824564 -1.4011422 -1.2782559 0.19608721
0001d0 1a 93 ce be d4 66 81 3f 99 41 c2 3e 31 64 bd 3e
       -0.40346605 1.0109506 0.37940672 0.36990502
0001e0 41 fb 5b bf 3c 0d a7 3d 2d 84 84 be 7c 32 31 3e
       -0.8593026 0.08156821 -0.25882092 0.17304415
0001f0 00 86 27 bd 64 da 4f be 2a 38 a4 3e 42 60 0c 3f
       -0.040899277 -0.20298153 0.320741 0.5483438
000200 6a 6e 48 be 3b d3 15 be 49 5f 26 be 1a 9e 28 3d
       -0.1957337 -0.1463136 -0.16247286 0.041166402
000210 2f 8e 35 bf b1 c1 f7 3e b5 99 08 3f 40 58 6b bd
       -0.7092008 0.48389962 0.5335954 -0.05745721
000220 bd 74 b8 3e 52 1a 0b 3e 7a 46 6c bf bd 1a fa 3d
       0.36026564 0.13584259 -0.9229504 0.12212131
000230 f4 b1 b1 3d 42 02 35 3f 20 6a ea 3d 84 6a 59 3e
       0.0867652 0.7070657 0.11446023 0.21232039
000240 b6 c1 77 bf 82 56 d1 bd c5 74 86 3c 43 e4 54 3f
       -0.96779954 -0.10221578 0.016413102 0.831608
000250 35 c4 5e 3e 27 2a 9c be 10 66 f3 3e 4a 07 a6 3d
       0.21754535 -0.3050091 0.47538805 0.08106859
000260 49 75 ac 3d ca 82 f3 be e0 e5 1c bf 3e f8 00 bd
       0.08420808 -0.47560722 -0.6128826 -0.031486742
000270 c8 15 6d be e2 4e 2e be 34 2d 70 be a2 07 a0 3e
       -0.2315284 -0.17022279 -0.23454744 0.31255823
000280 5d ad e0 be 54 c7 3c bc d7 21 9b 3e 2b e3 2c bf
       -0.43882266 -0.011522133 0.30299255 -0.6753413
000290 f2 3f 33 3e dc 9d b8 3e 7d e7 fb 3d 5f 20 ab be
       0.17504862 0.36057937 0.12300012 -0.33423135
0002a0 3a 7d c5 3e 5e c7 e5 3e dc 94 9a 3e 03 13 07 3f
       0.38572103 0.44878668 0.30191696 0.52763385
0002b0 e7 20 3f 3e b6 d0 cc be 52 4c 03 bf 62 6e ec bd
       0.18664895 -0.40002984 -0.5128833 -0.11544491
0002c0 16 6f ac bd d4 31 aa be 97 0e af 3d 2c 45 76 3d
       -0.084196255 -0.3324114 0.08547705 0.06012456
0002d0 df eb 8e be 54 a0 35 be 90 4f 67 3e 09 74 6e 3e
       -0.2791433 -0.17736942 0.22588944 0.23286451
0002e0 5a 9a 01 bf 36 8d 34 be 55 33 82 be ff 79 75 3c
       -0.50626147 -0.17631993 -0.25429788 0.014982699
0002f0 63 e2 a7 be 3b b1 63 bd 6a 2c 20 3e 7d 11 fb ba
       -0.32789907 -0.055588942 0.15641943 -0.0019154992
000300 0c a9 95 3e 48 9b 3c 3f 88 29 19 be d6 f4 d5 3e
       0.29230535 0.7367444 -0.14957249 0.41788357
000310 f5 81 f0 3e 30 f1 dc b9 e4 25 c2 bc 85 a2 91 3d
       0.4697415 -0.0004214137 -0.023699708 0.07111076
000320 5a 90 02 3f ce 3b 7d be 08 47 2e 3f dc 78 d5 be
       0.51001513 -0.24729845 0.68077135 -0.4169377
000330 52 76 67 3e 9e 99 d0 3d aa ff e2 be c6 7b 1b 3e
       0.2260373 0.1018555 -0.4433568 0.15183935
000340 af 2c 1a bf a6 e8 81 3e a1 29 26 3e 4a 38 cc 3e
       -0.6022443 0.2537281 0.16226818 0.39886695
000350 cf 59 84 3e da a0 05 3e 4e 2b c4 be 8d 48 0a 3f
       0.2584977 0.13049641 -0.3831429 0.54016954
000360 3e 0c aa be af 88 bc bd 11 b6 28 bd 52 cf 98 be
       -0.33212465 -0.09205758 -0.041189257 -0.29845673
000370 8b dc 91 3e 53 e1 44 bd e1 85 55 be 4d cb 13 bd
       0.28488573 -0.04806645 -0.20851852 -0.036082555
000380 5c 18 98 3c 4f 72 5c bd 73 95 82 bd 8b e5 22 bf
       0.018566303 -0.05381995 -0.063761614 -0.63631505
000390 45 cc fa 3c 29 d7 55 3e e5 57 16 be 3b e7 4a 3e
       0.030614981 0.20882858 -0.14681967 0.1981477
0003a0 a5 17 87 3e 78 94 24 3e 0a fb 85 be fd 15 0e bf
       0.26385227 0.16072261 -0.2616809 -0.555023
0003b0 f1 c2 ec 3e 55 8d 7a 3e e0 8b 48 bf 3f a8 62 3e
       0.46242478 0.24467976 -0.7833843 0.22134493
0003c0 14 21 98 3e 8d ba f8 3d 14 09 8f 3e e5 57 d0 be
       0.29712737 0.12144957 0.27936614 -0.40692058
0003d0 b6 a7 07 3f a9 77 1f bc 2d 8f b5 3e e9 7b 61 3d
       0.5299028 -0.009733119 0.35460797 0.05504981
0003e0 91 79 23 3f 38 5e b5 3c 0b 4b 89 be 97 80 c7 3e
       0.6385737 0.022139654 -0.26815066 0.38965294
0003f0 b3 eb 4e bf 8a b2 11 be 13 8a 3c bf d8 b1 d1 be
       -0.808284 -0.14228263 -0.73648185 -0.40955997

discrete_action_output_shape f4 [1, 7]
000000 00 00 40 40 00 00 40 40 00 00 40 40 00 00 40 40
       3.0 3.0 3.0 3.0
000010 00 00 40 40 00 00 40 40 00 00 40 40
       3.0 3.0 3.0
