Training/Model/model_critic_robot_subset_joint5_03.pt (torch, 279095 bytes, 5 tensors)

network.0.weight f4 [256, 11]
000000 49 22 94 3e e9 d4 c4 bd 22 45 49 bd ff 67 da be
       0.28932407 -0.09610922 -0.049138196 -0.42657468
000010 c0 31 bd 3e 3c 5c 55 bf 08 c0 5b 3e b7 05 5e 3d
       0.3695202 -0.83343863 0.21459973 0.05420467
000020 ef 2e c8 be 36 6d ed be 3f fc d5 bc ef d8 aa 3e
       -0.39098307 -0.46372384 -0.026121257 0.33368632
000030 d6 30 cc 3d eb e4 d1 3d 76 10 18 3d 10 90 a6 3d
       0.09970252 0.10248741 0.037125073 0.081329465
000040 e3 05 41 3e 18 3e e8 3d 2d 84 41 be 8e 06 2b be
       0.18849902 0.113399684 -0.18898077 -0.16701719
000050 31 e1 48 be 19 4f 7c be f2 ee 4b bd ee 6f a5 3c
       -0.19617154 -0.24639548 -0.049788423 0.020194974
000060 b3 65 f6 bc 69 2f 2c be 9f a5 a5 3d 68 7c 9d 3e
       -0.03007779 -0.1681496 0.0808823 0.30758977
000070 9b 41 c8 3e 09 fd 1b bf 76 19 35 be 16 22 3d 3e
       0.39112553 -0.60932976 -0.17685494 0.18470034
000080 75 be 8c be b1 c3 7f be 98 1f 44 be d6 c3 7c 3e
       -0.27489057 -0.24976994 -0.19152677 0.2468408
000090 a3 8f 63 3e ca 17 da bb cf 77 74 3d 18 2e de bc
       0.22222762 -0.006655668 0.05968457 -0.027121589
0000a0 6b 0f 0f 3e 18 1f 90 be 2d 1c 30 be 09 58 a2 bd
       0.13970725 -0.28148723 -0.17198248 -0.079269476
0000b0 b0 42 4e 3e 1e 8b e7 bd 70 34 13 3d 58 c5 18 3d
       0.20142627 -0.113058314 0.03593868 0.037297577
0000c0 f0 7a 15 3e 0c c8 9c 3d 3c a2 5f 3e 24 b5 ca bd
       0.14597678 0.076553434 0.21839231 -0.09897831
0000d0 00 c3 88 be d5 a8 33 be f8 a6 29 bd 80 34 94 3d
       -0.26711273 -0.17544873 -0.041419 0.07236576
0000e0 82 ef ee bb 02 bc d5 bd 16 ff 99 3c 58 be 9b 3e
       -0.007291735 -0.1043625 0.018798392 0.30418658
0000f0 15 6a 09 bf f7 6f eb 3d 00 55 15 3e 9e ba 41 3e
       -0.53677493 0.11495965 0.14583206 0.18918845
000100 99 22 ed be ee 55 2a bd 0d db b0 3d e7 ed 7e be
       -0.46315458 -0.041585855 0.086355306 -0.2489544
000110 60 e2 83 3e 0e 3e 8e bc f8 f4 79 3e ab 91 ef bd
       0.25758648 -0.017363574 0.24409854 -0.11697706
000120 cf 4c 97 3b d3 af 58 3d 84 7c 8c be 26 04 41 3e
       0.0046173106 0.052902054 -0.27438748 0.18849239
000130 92 10 2e 3e fb 67 ab bc b9 8c 4c 3e 14 c2 f8 3d
       0.16998509 -0.020923605 0.19975556 0.121463925
000140 8c 63 27 3d 81 d8 c0 3d 9b 44 d7 3e c7 2d 92 3d
       0.04086642 0.09416295 0.4204453 0.071376376
000150 f3 8f 36 3e 1b b1 47 be bf 6a 19 3e 6a 8d 26 be
       0.1782835 -0.19501154 0.14982127 -0.16264883
000160 86 2d 37 3e e0 13 4e bc a0 c5 37 bc 40 3a 77 3e
       0.1788846 -0.012577981 -0.011216551 0.24143314
000170 4d 31 87 be 14 65 ba 3d 46 d6 b1 bd 00 01 d4 3c
       -0.264048 0.0910131 -0.086834475 0.025879383
000180 6a 4c c9 bd ff f7 8e be 9e 78 4f be a7 a3 92 bd
       -0.09829028 -0.2792358 -0.20260856 -0.071601205
000190 8e 00 66 3e f6 14 40 be 55 de 83 bd ee 8d 48 be
       0.22461149 -0.18757996 -0.06438891 -0.19585392
0001a0 7d 5b 67 3e ca 52 81 be 52 e4 68 3e 64 98 8f be
       0.22593494 -0.25258476 0.22743347 -0.28045952
0001b0 f4 4d 21 be e7 bc 69 3e 17 af 94 bd f7 f3 e8 bd
       -0.15752393 0.22825967 -0.07259958 -0.113746576
0001c0 f0 f9 1f 3e 81 50 da 3d e8 2e ad 3d 24 e1 ca 3d
       0.15622687 0.10659886 0.08456212 0.099062234
0001d0 7f a5 66 be ff 68 b8 be 90 3d d0 bc d3 b5 d8 3e
       -0.22524069 -0.36017606 -0.02541998 0.4232622
0001e0 e8 dc 5d 3c ec 94 14 3e 8b b7 86 3e 53 e8 8e 3d
       0.013541438 0.14509934 0.26311907 0.06977906
0001f0 e9 f8 9e bc 6e 8c f4 bd af 5f 27 be 63 b2 83 3e
       -0.019405799 -0.11940847 -0.16345094 0.25722036
000200 1d 97 b5 3e 9a 7f 19 bd 5e 7e eb 3d 37 91 82 3e
       0.35466853 -0.037475206 0.11498712 0.25501415
000210 1f b1 7f 3e 16 b7 aa 3d d7 2a 7c 3e bd 23 47 bd
       0.2496991 0.08335702 0.24625717 -0.048618067
000220 c9 7e 81 be 35 03 4f 3e 61 e6 33 3e c4 b2 80 3e
       -0.25292042 0.20216067 0.17568351 0.25136387
000230 d7 2e 94 be 8e 65 40 3d 6a 17 02 be 17 de ce bd
       -0.28941986 0.04697185 -0.12704244 -0.10100954
000240 f1 82 1f 3e 6f 81 d0 bd 51 74 11 be 3a fe 8b 3d
       0.15577294 -0.101809375 -0.14204527 0.06835599
000250 81 b0 0f 3e f6 71 a2 3e b1 3e bf bc 3e d0 31 3e
       0.14032175 0.3172757 -0.023345323 0.17364594
000260 65 6b f6 bd fa e8 6e be 32 22 c7 bd 6f 53 91 bb
       -0.12032203 -0.23331061 -0.09723319 -0.004434995
000270 30 c5 81 be 6b 4c e9 bd af 62 fd 3d ea b6 47 bf
       -0.25345755 -0.11391529 0.12372338 -0.7801348
000280 10 a7 b4 3e ff d3 b4 3e 78 6a 7d 3d 7e 4b 4b be
       0.3528371 0.3531799 0.061869115 -0.19853017
000290 e8 2c f3 bc 84 60 29 3d d8 54 11 3c 50 ed b1 3b
       -0.029684499 0.04135181 0.008870326 0.005429901
0002a0 b9 cb 37 3e 92 88 d4 3c 46 88 39 be 83 b9 53 3d
       0.17948808 0.025944028 -0.1811839 0.05169059
0002b0 31 b0 bb bd e3 b7 15 bc 4b 28 76 be 1e bf f1 bb
       -0.09164465 -0.00913808 -0.24038808 -0.0073775193
0002c0 a1 0a 6a 3e 1e 2f 01 3f 9b d6 d8 3b 99 0d 26 3e
       0.22855617 0.5046252 0.00661738 0.16216125
0002d0 df 5f 14 be 29 07 90 bd 50 e9 4a 3d 92 d6 68 3d
       -0.14489697 -0.07032616 0.04953891 0.056845255
0002e0 55 8f 91 be 95 9e 6b 3c 37 79 32 3e 4d b6 0a 3e
       -0.28429666 0.014381071 0.17429052 0.13546105
0002f0 70 30 e2 bd 3e 65 77 3e a5 75 a6 bd f0 b0 04 3e
       -0.11044395 0.24159715 -0.08127908 0.12958121
000300 f3 3c 8a 3e 08 1f 1e be 3a 69 c2 be 49 84 54 3e
       0.26999626 -0.15441525 -0.37970906 0.20753588
000310 e9 48 7f be 9e dd e9 bd 98 ca b4 3e 4d 7c 49 3e
       -0.24930157 -0.11419223 0.35310817 0.19676323
000320 25 9e d4 be 9b 5a 53 3d e8 b0 30 be e4 97 bb 3e
       -0.41526905 0.05160008 -0.17254984 0.3663932
000330 ad 78 cb 3d 1e 05 0d 3e f8 66 3c 3d a4 55 ef 3d
       0.099351265 0.13771483 0.045996636 0.116862565
000340 7c d1 4b bd d5 24 e9 3e 1b 5e 1e be 27 c3 88 3e
       -0.049760327 0.45535913 -0.15465586 0.2671139
000350 fc 5e c6 3d b5 ec 32 be 44 59 04 3e 43 d5 7d 3e
       0.096860856 -0.17473109 0.12924677 0.24788384
000360 93 21 1b 3e ed 44 d3 bd fb 9d 25 3e fb ec 8e 3d
       0.15149526 -0.10315881 0.16173546 0.06978794
000370 00 bd cc 3b ce 6c 28 3e c6 79 1d 3e f4 2a 79 bd
       0.0062481165 0.16447756 0.15378484 -0.06083198
000380 76 86 93 bd a4 bb 88 3e 50 fe d2 bc 70 89 94 be
       -0.07203381 0.26705658 -0.025756031 -0.29011106
000390 c5 ea 4f be d8 d1 86 be 68 26 0f bd ee 60 3e 3e
       -0.20304401 -0.26331973 -0.034948736 0.18591663
0003a0 64 ad 74 3e 41 bd 97 be 3d 85 89 3e 75 81 08 3e
       0.23894268 -0.29636577 0.26859465 0.13330634
0003b0 d4 f0 9e 3e 81 30 30 3c 35 d3 3d 3d 99 94 1c 3e
       0.31043112 0.010753752 0.046344 0.1529106
0003c0 2f fd 1c 3e 4b d7 8c bd 45 c5 a7 3e 05 0c 48 bd
       0.15330957 -0.068770014 0.32767692 -0.048839588
0003d0 e0 c5 a9 3e 0e aa 51 3d 0e 99 e3 be 6b 44 d7 bd
       0.3315878 0.051187567 -0.4445271 -0.105110966
0003e0 f4 fc 71 be f3 48 d3 3e 9b 92 47 be 27 89 52 3d
       -0.2363165 0.41266593 -0.1948952 0.05140033
0003f0 bf c4 3f bc fb cc 33 bd cd f5 b5 bd 5d 88 77 be
       -0.011704623 -0.043896656 -0.088847734 -0.24173112

network.0.bias f4 [256]
000000 fb 5d 24 3d 72 05 3f be 1a 62 61 3d 90 95 89 3c
       0.04012869 -0.18654421 0.055025198 0.01679495
000010 76 38 3f be cb 3a 0b be 03 a3 d9 bd 2a f5 df bd
       -0.18673882 -0.13596646 -0.10626795 -0.10935433
000020 88 ce 68 be ed f9 67 be e1 74 ad 3d 79 bf 1a be
       -0.22735035 -0.22653933 0.084695585 -0.15112104
000030 29 0b bf bd f9 68 a7 be 80 3c 8b bc 48 de 3f 3d
       -0.093283005 -0.32697275 -0.016996622 0.046842843
000040 be 37 58 3e 4e 89 1e be 70 6f 5f be 64 cd 26 3e
       0.21115014 -0.15482065 -0.21819854 0.16289288
000050 56 33 90 bd 20 c4 8e bc 74 34 7d 3e 8c e5 ee bc
       -0.070410416 -0.017427504 0.2472704 -0.02916219
000060 f2 fc 7a 3d 16 21 99 be a3 0e 2a be 54 7b 89 3c
       0.061276384 -0.29908055 -0.16607146 0.01678244
000070 2a 15 5b bd a8 58 e6 bd a9 46 44 be 62 44 63 be
       -0.05348698 -0.112473786 -0.1916758 -0.22194055
000080 d7 53 c6 bd 91 b2 48 be 67 5b 3d bb f8 6e ba be
       -0.0968396 -0.19599368 -0.0028893591 -0.36412787
000090 e9 d1 68 3e bd 8b 16 3e ab c1 50 be f3 6e 48 bd
       0.22736324 0.14701743 -0.20386378 -0.048933934
0000a0 19 ce 4f 3e 27 83 1f be 12 a0 ff bd 06 d5 0e 3e
       0.20293464 -0.15577374 -0.12481703 0.1394845
0000b0 95 93 42 bd 90 46 51 be 53 0d 7f bd 4e cd 63 3e
       -0.047504026 -0.20437074 -0.062268566 0.22246286
0000c0 29 65 e8 bd 6b 65 a8 3d 6e de b2 bd 20 4f 37 be
       -0.1134742 0.08222469 -0.08733831 -0.17901278
0000d0 7a 56 85 be 3b 10 4c 3e 78 5d 29 3e 99 b4 6a be
       -0.2604254 0.19928066 0.16539562 -0.22920455
0000e0 91 90 0c 3e b2 75 fb 3c dc d8 8b be 94 93 9e be
       0.13727023 0.03069577 -0.27313888 -0.30971968
0000f0 92 5d b3 3d de f3 06 be 2f 2b 89 be 25 a9 4d be
       0.087580815 -0.13178965 -0.2679076 -0.20084055
000100 e2 1e 94 3d c8 1c 2f 3e a6 ab 59 be ac 64 96 be
       0.07232453 0.17100823 -0.21256885 -0.29373682
000110 3c 4e a9 be 3e 92 88 be d0 52 85 be 88 73 84 be
       -0.330675 -0.26674074 -0.26039743 -0.25869393
000120 2b 80 99 be ae 6d 32 be ad d7 98 be 78 38 6c be
       -0.29980597 -0.17424652 -0.29852048 -0.23068416
000130 19 2d 83 3c 89 08 97 be c0 d1 a2 3d 6d 35 cc bd
       0.016012715 -0.294987 0.07950163 -0.09971128
000140 24 7b 94 3d 89 4a 0d be 99 56 34 be 94 a1 9f 3d
       0.0725005 -0.13797964 -0.1761116 0.077944905
000150 70 1f 82 bc 34 4b 72 bd e7 0b f8 3c ef dd f5 3d
       -0.015884131 -0.05915375 0.030279113 0.12005221
000160 88 f1 75 3d c6 b3 dd 3b a2 93 3a be 16 07 a4 bd
       0.060044795 0.0067658154 -0.1822038 -0.08009164
000170 eb 17 db bd 84 f2 1c be eb 09 d6 bd 42 14 2e be
       -0.10697921 -0.15326887 -0.104511105 -0.16999915
000180 cc 7f 03 be 57 92 80 be aa 52 19 3e ba fd 07 3e
       -0.1284172 -0.25111648 0.1497294 0.13280383
000190 ae 36 38 3d 03 b8 b6 bc 3b 66 2c bd c8 67 b6 3d
       0.04497402 -0.02230454 -0.042089682 0.089065135
0001a0 29 32 5b bc 6c 32 fb bd fc bd 30 3e f7 a3 56 be
       -0.013378658 -0.122654766 0.17259973 -0.20960985
0001b0 b8 97 0d 3d 80 81 91 be 06 16 db bd 87 85 f1 bd
       0.03456852 -0.28419113 -0.1069756 -0.117930464
0001c0 a1 d3 9a be 12 cf 93 bd 96 b9 5c bd 16 64 76 be
       -0.30239585 -0.0721723 -0.053887926 -0.24061617
0001d0 7b f7 39 3e 49 41 0f be dc 97 aa bd 79 0a 37 3d
       0.18160813 -0.13989748 -0.08329746 0.044687722
0001e0 5d f9 0b bd ad c8 06 3e 98 90 1d be fb 93 41 3e
       -0.03417336 0.13162489 -0.1538719 0.18904106
0001f0 ec a6 bc 3d 9a 5f 7c 3d 06 8c 26 bd 39 82 b3 be
       0.09211525 0.06161461 -0.04066088 -0.3506029
000200 88 1e 3e be f0 0d 20 bc 3a 4b 1b be 02 c2 0b be
       -0.18566334 -0.009768948 -0.15165415 -0.13648227
000210 01 62 df 3d 24 a9 0b 3e a1 01 0c be 82 17 e1 3c
       0.10907365 0.13638741 -0.13672496 0.02747703
000220 a3 59 74 bd 07 06 87 3b 6d 9e 77 be 15 49 82 be
       -0.059655797 0.0041205916 -0.24181528 -0.25446382
000230 2f f4 de 3c 48 a4 77 3d ac eb c7 3d 7d 93 31 3e
       0.027216045 0.060459405 0.09761748 0.17341419
000240 49 04 51 3e df 59 36 be 69 23 87 be d4 ea a2 be
       0.20411791 -0.1780772 -0.26394203 -0.31819785
000250 24 33 70 be 60 28 a1 bc 1d 5a 1e 3e 68 0b 72 be
       -0.23457009 -0.019672573 0.15464063 -0.23637164
000260 51 94 d6 bb c9 a1 80 3e dd c7 79 be 54 79 94 be
       -0.0065484424 0.25123432 -0.24392648 -0.28998816
000270 06 cf aa bd d1 da 95 be 21 72 1e 3d de 80 78 be
       -0.08340268 -0.29268506 0.03868306 -0.24267909
000280 36 42 a5 3d f8 69 de ba ec 12 85 bd eb 7b 32 3e
       0.08069269 -0.0016968837 -0.0649775 0.17430083
000290 ac e6 a4 3c 73 e4 18 be 56 cf e7 3c b7 b7 89 be
       0.020129524 -0.14930896 0.028297108 -0.26897976
0002a0 2e 62 2d 3e 73 12 4a 3e ae 41 3a 3e be 4c 38 be
       0.16931984 0.197336 0.18189117 -0.17998025
0002b0 98 6d 7f be 7d 41 a3 bd ce 19 1f 3e ec bb 7c be
       -0.2494415 -0.07971475 0.15537187 -0.24681062
0002c0 4f 23 5b 3d 64 2d 9a be 52 c6 a8 3d 1c 25 e1 bc
       0.05350047 -0.30112755 0.082409516 -0.027483515
0002d0 07 96 98 be d9 8c 20 3e f9 8e 39 3e 96 ba 60 3e
       -0.29801962 0.15678729 0.18120946 0.21946177
0002e0 28 6a ae 3d dc 79 96 3d ac 15 4d 3e 8a 3c 0e bd
       0.085163414 0.073474616 0.20027798 -0.034725703
0002f0 5e f0 11 3b 01 22 00 bd 1d 3b f7 bd ad 82 64 be
       0.0022268514 -0.03128243 -0.12071822 -0.22315474
000300 4e fe 0f be d8 7b 14 3d 3e e7 7d 3d 2a 23 48 be
       -0.14061853 0.03625092 0.061988108 -0.19544664
000310 3f 8f 37 be 63 02 3b 3d e8 cf dc 3c 81 a0 dd 3c
       -0.17925738 0.045656573 0.026954606 0.027054073
000320 68 23 17 be d9 6d 07 3e d2 1b 09 3e 7c 02 64 3e
       -0.147596 0.13225497 0.13389519 0.22266573
000330 d7 73 36 3e a7 8a 4a be c0 9a 8c be 88 3a a3 be
       0.17817627 -0.19779454 -0.27461815 -0.31880593
000340 7c 18 87 be 3b cd 4a 3e a0 13 3c bc 50 4e 70 be
       -0.26385868 0.19804852 -0.011479288 -0.23467374
000350 6f 70 8c 3e 73 fb f9 bb 37 4f 41 3d 87 f7 68 3d
       0.2742953 -0.007628852 0.047194686 0.056876685
000360 21 2f 0d be 64 a2 88 be db dc a0 3d cc a3 3a be
       -0.1378751 -0.26686394 0.07854625 -0.18226546
000370 52 f5 6c be e4 3f 04 3d ee f3 50 be e8 5e 34 be
       -0.23140457 0.032287493 -0.20405552 -0.17614329
000380 60 a8 f2 3d dd 22 90 be 58 22 5b 3e 37 3e 12 be
       0.11848521 -0.281516 0.2139982 -0.14281546
000390 1a 9a b2 bb f7 b6 37 3d 1e cd 53 be ff 83 52 bd
       -0.0054504992 0.044852223 -0.20683715 -0.051395413
0003a0 94 17 72 3c 78 58 b4 bb a1 20 1f 3e 8d 5b e5 bd
       0.014776129 -0.0055037104 0.1553979 -0.111991026
0003b0 1f ac a9 be 8a 94 21 be 36 07 0b be b2 39 83 3d
       -0.3313913 -0.1577932 -0.1357697 0.06407489
0003c0 6d 23 8d bd 03 9d b4 be 40 c0 2d be bc 5e 43 3e
       -0.068915226 -0.3527604 -0.16967869 0.19079107
0003d0 77 b4 20 be 10 6c 0f be 84 77 5a 3e c3 e8 97 be
       -0.15693842 -0.14006066 0.21334654 -0.2966977
0003e0 53 eb a1 be 41 0f ff 3d a2 66 40 3d d3 78 e3 bd
       -0.3162485 0.12454081 0.04697288 -0.1110703
0003f0 55 36 bb bd bc da 77 be 8c 87 ff bd 43 97 46 be
       -0.091412224 -0.24204534 -0.124770254 -0.1939364

network.2.weight f4 [256, 256]
000000 7a 33 87 bd 2c 88 3b bd 67 d5 f4 3c d8 ce 71 bd
       -0.06601615 -0.04578416 0.029886914 -0.059035152
000010 60 c0 bf bc bc ad 77 bd c0 fd 12 3b 85 c8 29 3d
       -0.023407161 -0.06046842 0.0022429079 0.041450996
000020 34 82 85 3c 6a 00 27 3d a8 9f 83 3c 5a 37 61 3c
       0.016297437 0.04077188 0.016067341 0.013746107
000030 d8 60 da bb e9 43 6a bd 92 d0 1d 3d 53 00 1b bd
       -0.0066643767 -0.05719367 0.038528986 -0.037842106
000040 0a a1 80 bd 14 1c 70 3c d1 dc 61 3c 58 5e 45 bd
       -0.06280716 0.014655132 0.013785557 -0.048185676
000050 18 34 18 bd 81 5d 06 3d 5e 8a 31 3d 56 37 e0 3c
       -0.037159055 0.032804016 0.043344848 0.027370136
000060 e0 ad 86 bc 14 c7 2b bd 9a d9 48 3c ec ca 42 bd
       -0.016440332 -0.041937903 0.0122589115 -0.047556803
000070 17 a3 af 35 91 f7 4e 3c 49 c6 f3 3c 4a 43 23 bd
       1.3085981e-06 0.012632267 0.029757636 -0.039859094
000080 be 3b 84 3c 29 ef 95 3c b0 2c 8d 3c f0 65 3d bd
       0.016141769 0.018302517 0.017233223 -0.046239793
000090 65 75 d2 bc e5 1a 51 bd 1c d0 3c bb aa 9a e4 3c
       -0.025690744 -0.05105104 -0.0028810566 0.02790578
0000a0 ff 62 37 3c 30 51 f7 3b 9c 75 13 3d f1 03 84 bb
       0.011193036 0.00754752 0.036000833 -0.00402879
0000b0 e3 73 2d 3d e6 be 64 bd bc 15 21 bd ca 69 7a 3c
       0.042346846 -0.055846117 -0.03932737 0.015284011
0000c0 66 21 0a bd f2 d9 2a 3d 51 97 e4 3c 23 e3 20 bc
       -0.033723257 0.041711755 0.027904185 -0.009819779
0000d0 b0 7e 23 3c 54 a1 ee bc 34 df 85 bc 90 56 62 bd
       0.009978935 -0.029129662 -0.016341783 -0.055258334
0000e0 1d 79 7c bc b1 fe 00 3d 12 4f e6 3c c9 33 00 3d
       -0.015409735 0.031492893 0.028113876 0.031299386
0000f0 05 66 38 bc 1a c4 c2 bb 93 e2 72 3c ef 72 4a bd
       -0.011254792 -0.0059437873 0.014824527 -0.049426015
000100 50 88 22 bd 45 0a 86 bd 32 66 28 bd 30 d6 4c bd
       -0.03968078 -0.065449275 -0.041113086 -0.050008953
000110 59 c7 c0 3a 1c 2a 33 bd 38 56 f5 bc d0 72 b2 3c
       0.0014707848 -0.04374133 -0.029948339 0.021783262
000120 df 61 8d bc 53 85 9a bd 84 68 b1 bc c7 e5 d6 bc
       -0.017258583 -0.07544961 -0.021656282 -0.026232613
000130 3d cf 80 3c fa 8e 62 3d 9c 7d 07 bd ef 8c e7 bc
       0.015723819 0.055312134 -0.033078775 -0.028265445
000140 bc 07 6b 3c 62 dc 29 bd 40 39 13 bb 69 b5 1b bc
       0.014345106 -0.04146994 -0.0022464544 -0.009503701
000150 58 33 0d bd 00 ef 7f 3d 1e 87 96 bc dd 9e 87 bd
       -0.034472793 0.062483788 -0.018374976 -0.06622098
000160 c6 b1 53 bc 03 86 83 bd 2d 5f ce bc a0 1d 80 bc
       -0.012920802 -0.06422045 -0.025191868 -0.015639126
000170 80 43 f4 bc e6 b7 1d bd 2c 64 7c bd a3 a6 81 bd
       -0.029817343 -0.038505457 -0.06161897 -0.063306116
000180 fe 75 40 bd ae 19 65 3d b4 5f e8 bb b4 56 9f bc
       -0.046987526 0.055932693 -0.007091487 -0.019450523
000190 cf 8c fc 3c d0 84 e8 3b 9f d1 9c bd 3b 04 0f 3d
       0.030828862 0.0070959106 -0.076571696 0.034916144
0001a0 b0 62 05 bd 78 da 0e bb 8e a4 78 bc 80 cb 01 3c
       -0.03256482 -0.0021797698 -0.015175952 0.007922053
0001b0 14 95 d3 3c b8 1b 6a bd f9 32 f7 bb b3 03 15 3d
       0.025827922 -0.05715534 -0.007543918 0.03638048
0001c0 82 93 c8 3c c6 76 88 bc 26 8d 2c bd da af d4 bc
       0.0244844 -0.016658198 -0.042126797 -0.025962759
0001d0 f7 c7 d9 3c 20 a9 82 3c a2 c7 c4 bb 30 8c 89 bd
       0.026584608 0.015949786 -0.0060052434 -0.06716192
0001e0 47 4d 59 bd 9d d5 ba bc 1e fd 41 bd 0a c9 02 3d
       -0.053052213 -0.022806937 -0.047360532 0.031930007
0001f0 33 54 11 3d 37 f0 0d 3d 7d 93 59 bd 3e 23 3f 3d
       0.03548069 0.034652915 -0.05311917 0.04666447
000200 69 50 27 bd 90 d4 36 3d a4 76 43 bd 11 74 d4 bc
       -0.04084817 0.04463631 -0.047720566 -0.025934251
000210 b2 7a 12 bc c0 7c f2 3c b9 05 02 3c c9 f9 5f bc
       -0.008940386 0.029600501 0.007935935 -0.013670393
000220 00 3a b2 bc 32 b1 0f bd 38 5a 99 bc 93 96 92 bd
       -0.021756172 -0.035081096 -0.018719777 -0.07157626
000230 b2 dc 3b 3d be 93 3e 3d 1e fc 7d bd c5 0c 8f 3c
       0.04586477 0.046527617 -0.062008016 0.017462144
000240 13 d7 9b bb 90 76 79 3c b0 36 3a bd 60 b7 38 3d
       -0.0047558635 0.015226021 -0.04546231 0.045096755
000250 6a 7f 22 bd 80 62 0a 3c 15 1b 90 bc 58 d8 a9 bd
       -0.039672293 0.008446336 -0.017591039 -0.082932174
000260 4d 3d 3e 3d 8d dd 7a bd 39 19 71 bc ca 9e 82 bd
       0.04644518 -0.061246444 -0.014715486 -0.06377943
000270 24 17 1d bd 63 3d 51 bd 74 c4 2d bd 6c 0f 8d bd
       -0.038352147 -0.051083934 -0.04242368 -0.06887707
000280 fe 2f 76 bd 12 79 d8 bb e6 d2 9c 3c 77 02 7e 3c
       -0.060104363 -0.0066062296 0.019143533 0.015503517
000290 6b 1b 0c bd 32 4c 66 3d c1 5c e7 ba a2 1e 14 bc
       -0.034205835 0.05622501 -0.0017651544 -0.009040507
0002a0 b7 93 be bc d3 70 28 3c 83 90 ec 3a d0 dc 05 3c
       -0.023263795 0.010280806 0.0018048439 0.008170322
0002b0 31 17 b6 3c c8 8a ef bc 1b 59 86 bc 14 fc 26 bd
       0.022227855 -0.02924098 -0.01639991 -0.040767744
0002c0 38 46 3a bc ec c5 93 bc c2 ea e1 bc ac f1 26 3c
       -0.0113692805 -0.018038712 -0.027577762 0.010189455
0002d0 31 f2 24 bd 30 cc 61 bd 53 2d 05 3d 8e 10 ca 3c
       -0.040270034 -0.05512637 0.032513928 0.024666097
0002e0 db e7 54 bd e3 0b 5b bd a1 5a b1 3c ee d6 25 bd
       -0.051978927 -0.053478133 0.02164966 -0.040488176
0002f0 55 5f 96 3c 86 8b ae 3c e9 23 8d bc fb 5f 75 bd
       0.018356005 0.021306764 -0.017229037 -0.059905987
000300 5f e7 22 bd 34 b2 40 bd c3 fa 26 3d b0 26 7a bc
       -0.039771434 -0.047044948 0.04076649 -0.015268013
000310 52 ac b2 3c d8 f3 ae 3b a0 98 97 bc 47 ec 95 bd
       0.021810684 0.005339127 -0.018505394 -0.07320457
000320 08 7e bd bc d8 20 d1 3c a1 65 03 bd 8e 37 a1 3c
       -0.023131385 0.025528356 -0.032079343 0.01967981
000330 5f ef 00 bd 62 e9 22 3d 80 fb 4a 3a f0 e0 36 bc
       -0.031478282 0.039773352 0.0007743165 -0.011162028
000340 d8 0e aa bd bc 1b 95 bc 0c 46 78 bd 38 d7 2f 3d
       -0.083036125 -0.018201701 -0.060613677 0.042929858
000350 b7 2a cc 3c d9 a8 9a bc a4 d3 62 bd 99 2f a5 bc
       0.024922712 -0.018879341 -0.055377617 -0.020164298
000360 4a ee 42 3d 50 9c af 3c 89 3b eb 3c 04 03 eb 3c
       0.04759053 0.02143684 0.028714912 0.028687961
000370 b4 91 7c bd 90 96 15 3d df 59 01 bd 98 23 ec 3c
       -0.06166239 0.03652054 -0.03157985 0.028825566
000380 94 48 8e 3c 28 53 eb 3c 66 b1 1d 3d 85 f3 8e bd
       0.017368592 0.028726175 0.03849926 -0.069800414
000390 27 f7 ed 3c 29 bc 8f 3c e4 29 99 bc af 1e 40 3d
       0.029048515 0.017545776 -0.018696733 0.046904262
0003a0 7d d7 90 bd 15 13 49 bd 1b 67 d1 3c 57 a8 5d bd
       -0.07072351 -0.049090464 0.02556186 -0.05411562
0003b0 45 be 15 3d 58 60 ab 3c 00 b3 a5 39 d2 2b 27 bd
       0.03655841 0.020919964 0.00031604618 -0.040813275
0003c0 19 64 88 bd 3c 15 61 3c c9 a3 18 bc a4 70 1e bd
       -0.06659717 0.013737973 -0.009316393 -0.03868164
0003d0 4a 1a 5f bd 9a 2e 14 bd 01 6c 4c bd a6 8e 8e ba
       -0.05446843 -0.036177255 -0.049907688 -0.0010876253
0003e0 00 ed 20 bc b5 12 f3 bb 2a 24 3b 3b 8b 8a d5 3b
       -0.00982213 -0.0074180015 0.002855549 0.0065167597
0003f0 9c 80 c4 bc e9 a8 77 3c fc d9 cf bc bf 2f c8 bc
       -0.023987107 0.015115955 -0.025372498 -0.02443683

network.2.bias f4 [256]
000000 d4 66 d9 3b fb a1 6a bc 80 2c 26 bd 55 c4 21 3d
       0.0066345725 -0.014320846 -0.040569782 0.039493877
000010 2d 26 3b bc 50 5a 9f bd cc 15 70 bd 09 2b cf bb
       -0.011422676 -0.077808976 -0.058614537 -0.006322269
000020 9c 22 61 3d 56 5f 54 bd 21 ea 57 bd 6d 81 91 bd
       0.054964647 -0.051848732 -0.052713517 -0.07104764
000030 4e 24 0f bc b5 f4 a7 3c a1 70 19 b9 51 43 56 bd
       -0.008736683 0.020502428 -0.00014633175 -0.05231029
000040 4d f9 55 3c fa e3 08 be 24 c8 d0 3c 24 fa 78 bd
       0.013059926 -0.13368216 0.02548606 -0.060785428
000050 af 96 01 be 30 c0 33 3d 42 5f 83 bd 12 5b 2d 3d
       -0.12655137 0.043884456 -0.06414653 0.04232318
000060 1d 1a f6 b8 02 4d 47 3c 2c 93 35 bd 57 cd 81 bd
       -0.00011735058 0.012164356 -0.044329807 -0.063379936
000070 c4 9d 37 bd 44 f1 26 bd ac 92 6a bd 8b 54 06 bd
       -0.04482819 -0.040757433 -0.057268783 -0.03279547
000080 49 06 0e 3d 8f 8d 82 bd db 6f 1b 3b 04 0b 0d 3d
       0.034673963 -0.063746564 0.0023717794 0.034434333
000090 ca 18 3d bc a1 19 e7 bc 02 6f 63 3b ce 57 98 bd
       -0.011541555 -0.028210463 0.0034703617 -0.074386224
0000a0 4a 8a 99 bc c8 b1 7d bd 2f 86 45 bd 92 0f 0d bd
       -0.0187427 -0.061937124 -0.04822367 -0.034438677
0000b0 2a 36 43 bd a5 6f 31 bd 15 d1 de bb 7e 29 08 bc
       -0.047659077 -0.043319363 -0.006799827 -0.008310674
0000c0 0e e5 25 3b a4 6f 8a bd db 49 3c bd 3e de 08 3d
       0.002531353 -0.06759575 -0.04596887 0.03341507
0000d0 29 4c 7a b8 32 cf 0e 3d 08 da 09 3d ee e2 53 3c
       -5.9675574e-05 0.034865566 0.033655196 0.012932522
0000e0 b0 22 21 3d fc 55 0a 3c 4c ac 23 bd 63 00 ec bc
       0.03933972 0.008443352 -0.039959237 -0.028808778
0000f0 6e be 28 3d c2 3c 20 3d 96 72 64 bd d6 c9 5a 3d
       0.041197233 0.039120443 -0.05577334 0.053415142
000100 34 f0 9c 3c 2c 12 cc 3a 50 0e 80 bd 7d 44 4b bb
       0.019157507 0.001556938 -0.0625273 -0.0031016164
000110 11 9c f3 bc 68 8d 5f bd c9 1a 22 3c 53 9d d4 bd
       -0.029737504 -0.054578215 0.009894081 -0.1038157
000120 11 25 78 bd 3f 55 17 bd f8 ef 8e bd 53 15 72 bd
       -0.060582224 -0.03694653 -0.06979364 -0.059102368
000130 92 d2 3e 3d 41 17 ec bc 06 15 23 3d ac 4b 04 be
       0.046587534 -0.028819682 0.03981497 -0.12919492
000140 7f e0 a4 bd 18 2b 3e bc 7b 05 b9 bc 90 f1 62 bd
       -0.08050632 -0.011606954 -0.022585621 -0.055406153
000150 c0 8c 46 bd 3c f7 51 3c cf e1 32 bd 5e 09 98 3c
       -0.048474073 0.012815293 -0.04367238 0.018559154
000160 44 c1 81 3d 66 91 fa 3c 31 2e 55 bd 1c 67 8f bc
       0.063356906 0.03058691 -0.052046005 -0.017505221
000170 11 6f 35 3d f7 84 e3 3c 63 d0 31 bd 73 92 05 3d
       0.044295374 0.027773364 -0.043411624 0.032610368
000180 ac 71 61 bd b4 ee db bc 02 df ea 3c 97 7c 38 bd
       -0.055040047 -0.026847221 0.028670792 -0.045040693
000190 ce 61 32 bd 77 9b 54 3d 2c e0 67 3c c4 ed 51 3d
       -0.043550305 0.051906075 0.014152568 0.05125214
0001a0 f5 a2 98 bd d2 a9 8a bc e7 8c cc bc ff 5f 43 bb
       -0.074529566 -0.01692668 -0.024969531 -0.0029811857
0001b0 d6 04 de bd 0f 2e 44 bd 63 a9 de 3b 8a ac f1 3c
       -0.10840766 -0.047895487 0.006795095 0.029501218
0001c0 6f 50 a3 ba f3 38 b0 3c 4b c6 b9 bd 4f 5d 68 bd
       -0.0012459884 0.02151153 -0.090710245 -0.05672961
0001d0 4d 49 9e 3c 88 a7 37 bc 84 e3 3f bd 63 21 ba bd
       0.019322062 -0.011209376 -0.046847835 -0.09088399
0001e0 83 e2 b4 bc 2d 11 2a 3d 3e 19 0c bd 88 c2 5e bc
       -0.022080665 0.041520286 -0.03420376 -0.013596185
0001f0 4e 03 13 bc 0e a4 7a 39 af 40 9e bd 7f c9 76 bd
       -0.008972956 0.00023902973 -0.07727181 -0.060250755
000200 a8 c6 57 bd 44 3f cb 3c b2 1b 54 bd 3e b1 90 bd
       -0.052679688 0.02481044 -0.051784225 -0.07065056
000210 89 bf 4c bd 8d f0 b4 3d de 5a 89 bd 85 61 ee 3c
       -0.04998735 0.08834944 -0.06706785 0.029099235
000220 fc 45 24 3d 57 17 01 bd f8 41 a0 3c 7f b1 11 bd
       0.040105805 -0.0315164 0.019562706 -0.035569664
000230 95 37 51 3d 25 22 1b 3c 38 61 c1 bc 63 7d 13 bc
       0.051078398 0.00946859 -0.023605928 -0.0090020625
000240 fd 27 b6 bb d1 85 c1 bd 07 42 8e bd e5 88 da bd
       -0.005558966 -0.094493516 -0.069461875 -0.10670642
000250 4c d8 63 bd 73 eb 31 3d 4e 4a a0 bd d8 37 68 bd
       -0.0556262 0.043437432 -0.078266725 -0.05669388
000260 3f a6 82 3c 0d 15 3a bc c2 9f 51 bd 7a d6 35 bd
       0.015948413 -0.011357558 -0.051177748 -0.044393994
000270 3b 66 ec 3c e2 4b 96 bc 68 ef 1f bd ec 93 6c bc
       0.028857341 -0.01834673 -0.039046675 -0.014439564
000280 04 f8 0b bb 90 19 b9 bb 00 82 0f 3c d1 80 14 3d
       -0.0021357546 -0.0056487992 0.008759022 0.03625566
000290 1f 4a 18 3d f4 d1 29 3d d7 15 21 3c 70 9a 17 bd
       0.037180062 0.041459993 0.009831867 -0.037012517
0002a0 a5 d9 ae bd ff c8 04 3d 49 9d 8f bd 52 89 25 bd
       -0.08537606 0.032418247 -0.07012422 -0.040414162
0002b0 a0 e0 0e 3d a5 72 df 3c fc 23 d3 bc 45 48 98 3c
       0.034882188 0.027276346 -0.025773995 0.018589148
0002c0 7b e6 88 3c 2d 92 a1 bd a6 f5 6e bd a1 0b ed bc
       0.016711464 -0.07889209 -0.058339737 -0.02893621
0002d0 65 b0 aa 3d 91 48 4f 3c d3 da 85 bc 67 cb 2b 3d
       0.08334426 0.0126515785 -0.016339695 0.041942026
0002e0 e3 38 8e bd 81 9d 81 3d d6 e8 27 3d 9a 48 8b bc
       -0.06944444 0.063288696 0.040993534 -0.017002393
0002f0 e8 2b be bc e4 f5 84 bd 21 03 2f 3b 45 61 08 bc
       -0.023214296 -0.064922124 0.0026704746 -0.008323972
000300 3d 9c 88 bb a5 57 0b 3c a4 45 4a bd b1 e2 e6 bb
       -0.0041690157 0.008504783 -0.04938282 -0.0070460667
000310 7f b4 5e 3d 6e 5e d9 bd 54 c0 11 3d 09 57 c5 bc
       0.054371353 -0.10613714 0.03558381 -0.024089353
000320 8f 75 1c bd 3b 5e 33 3d 36 e8 4c bd 22 d8 02 bd
       -0.03819805 0.043791037 -0.05002614 -0.0319444
000330 71 33 38 3c 53 c6 ee bd 7d 2f 1f 3d cd 66 04 be
       0.011242733 -0.11658921 0.038863648 -0.1292984
000340 09 8f 85 bc 04 4e 65 bd fc b9 54 3d 80 08 08 3d
       -0.016303556 -0.055982605 0.05193518 0.03321123
000350 e3 8c 11 be 96 a5 6a bd ea bd 40 bd b1 9e 30 bd
       -0.142139 -0.05728682 -0.047056116 -0.04312009
000360 25 24 bc bc 44 06 e0 3c 64 8f 02 3b 7a cf 58 3c
       -0.022966454 0.027346738 0.0019921893 0.01323306
000370 44 89 3a 3d c3 26 6a bc c4 41 69 3d b2 20 bd bc
       0.045541063 -0.014291468 0.056947485 -0.02308688
000380 01 fe a1 bc ae 5a fb 3c e8 a8 90 bc ba 72 03 bd
       -0.019774439 0.030682888 -0.017658666 -0.032091834
000390 f9 6f 32 3d 47 10 c1 3c 39 52 8c 3c 1e 88 ac bc
       0.043563817 0.023567332 0.01712905 -0.021061
0003a0 77 5e 14 3d e9 d1 94 bc 9b da 2b bd 57 a8 ab bd
       0.0362229 -0.0181665 -0.041956525 -0.08381718
0003b0 5b 75 0e bc 15 a1 0c bd 70 3c 8f bd 38 b6 10 3d
       -0.008694972 -0.034333307 -0.069939494 0.035330027
0003c0 d5 d8 f3 3b dd d6 8a bc be 1c 8e bc e9 34 81 bd
       0.00744162 -0.016948158 -0.01734769 -0.0630892
0003d0 f4 e9 87 bd 15 8e fb 3d 04 62 87 bc e8 b0 10 bc
       -0.0663642 0.12282959 -0.01652623 -0.00883124
0003e0 11 84 cd bc 26 fd c2 bd 0d a5 d0 bd eb aa 2b 3d
       -0.025087388 -0.095209405 -0.10187731 0.041911047
0003f0 18 6d ac 3c 7f ec a2 bc f0 77 dd 3d 46 3f e7 bc
       0.021048114 -0.01988816 0.10813892 -0.028228413

network.4.weight f4 [1, 256]
000000 79 63 d2 ba bb 50 3e be 3a 78 2a bd 3b 36 55 3d
       -0.0016051374 -0.18585484 -0.041618563 0.05205367
000010 34 da d5 3c ad bb 5a 3c ee 58 0a bd 4d 4e eb 3b
       0.026105024 0.013350409 -0.033776216 0.007180965
000020 0e 2c 2f 3d cc 48 20 3d 59 a6 26 3c 09 ce 34 bd
       0.042766623 0.039131925 0.010171496 -0.044141803
000030 2f 38 16 3d 2f 65 89 3c 39 53 fe ba aa 4b 49 bc
       0.036674675 0.01677188 -0.0019403464 -0.012286106
000040 15 65 09 3d c8 80 1c 3d 62 bc bd bc e8 cd 47 3d
       0.033543665 0.038208753 -0.023161117 0.048780352
000050 cb d7 4a bd 34 9b b6 3a d6 54 51 3c f1 92 28 3c
       -0.049522202 0.0013931752 0.012776574 0.01028894
000060 b7 30 c6 bc 62 bc 88 bc 18 ce 08 bc ed 90 9a 3c
       -0.02419315 -0.01669139 -0.008349918 0.018867934
000070 58 53 10 bd 44 46 6c bc 99 23 30 3d db 3b 23 3d
       -0.035235733 -0.0144210495 0.0430027 0.039852004
000080 77 8a 0f 3d a4 a4 d4 bc 7b a6 a1 3c 1e e5 af bb
       0.03504416 -0.025957413 0.019732704 -0.005367889
000090 b9 eb 45 bc 9a 5c 69 bc c6 ec 36 3d 58 89 68 3c
       -0.012080126 -0.014243269 0.0446594 0.014192902
0000a0 2b f0 17 3b 62 6b 75 3c 37 d5 fe 3b 13 fd 25 3d
       0.0023183923 0.014979215 0.007776882 0.040524554
0000b0 00 46 da bb 7c f6 ee bc 70 45 6b bc 07 a8 8c bb
       -0.0066611767 -0.029170267 -0.014359817 -0.0042924914
0000c0 ab a4 10 3d 7e 53 66 bc 4d b4 ba bc 21 2a 09 3e
       0.03531329 -0.014057992 -0.022791052 0.13394977
0000d0 35 2e ed bc fe c6 51 3d fe 48 75 3c 17 c7 a8 3c
       -0.028952697 0.051215164 0.014971016 0.020602746
0000e0 a5 17 39 bd a1 d7 5b 3c dc 22 55 3b 3c 38 3c 3d
       -0.045188565 0.013418109 0.0032521999 0.045952067
0000f0 d0 5d b9 bc 64 ab 16 bd 72 9a 2d 3d e9 7a 71 3d
       -0.022627741 -0.036784545 0.04238362 0.058955107
000100 a2 90 06 bd a5 30 80 bb 8b f4 2e 3c 71 f2 8b ba
       -0.032852776 -0.003912049 0.010678421 -0.0010677112
000110 57 5b 9f bc e0 7c d3 3c 4f ed b1 3b 34 58 22 bd
       -0.019452734 0.025816381 0.0054299007 -0.0396349
000120 bb 55 d1 bc 61 e0 42 bc 75 65 8b 3c b9 d0 08 bd
       -0.025553575 -0.011894316 0.017016152 -0.03340218
000130 e7 92 5f 3d 65 ab b8 ba 7b 77 0b 3a 05 4d 0a bc
       0.054583456 -0.0014089165 0.0005320233 -0.008441214
000140 b5 56 ad 3c 80 96 2b bd 7f 3f e0 3c b8 dd 95 bc
       0.02115951 -0.041891575 0.027374027 -0.0182942
000150 48 61 9b 3c 07 59 f6 3c c6 5f 86 3c ae 9e cb bb
       0.018967286 0.030071748 0.01640309 -0.0062139845
000160 c9 11 85 be 94 5f 71 3d a4 1c 1c 3d d9 72 e2 3c
       -0.25990131 0.05892904 0.03811325 0.027642654
000170 4a 29 1c 3d 0b dd 34 3b 27 81 23 bc 80 48 e0 3c
       0.038125314 0.0027597572 -0.009979523 0.02737832
000180 6a 1f 14 3c de ff 71 3d 15 91 d2 3c 7f 20 3c 3d
       0.009040693 0.059081905 0.025703946 0.04592943
000190 fa 91 a1 3c 79 21 87 3c ff 48 11 bd f0 e8 68 3d
       0.019722927 0.016495453 -0.035470005 0.05686277
0001a0 22 b0 d2 bc f6 1f 14 bc b4 00 55 3d 69 f7 5e 3c
       -0.025718752 -0.009040823 0.052002624 0.013608792
0001b0 a8 c0 6b 3d 61 6e 49 bc 90 7e 7c 3c 04 e8 3c bb
       0.05755678 -0.012294383 0.015411034 -0.0028824816
0001c0 bf a2 12 3c f7 f4 e9 bc 8d 12 63 bd ae da c8 ba
       0.0089499345 -0.028559191 -0.055437613 -0.0015323961
0001d0 91 73 e9 3c a6 37 68 3d e8 1c 14 bc 61 90 0a bd
       0.02849749 0.056693695 -0.009040095 -0.033829097
0001e0 4a 2a a2 3b 4c c0 94 3c 36 5c 59 3d 30 54 05 3d
       0.004948889 0.0181581 0.053066455 0.03255099
0001f0 56 53 f3 3b fc 90 d5 bb d2 96 1a bd f6 f2 26 3c
       0.007425706 -0.0065175276 -0.03774149 0.010189762
000200 2a c5 f5 bc 03 c9 24 bd 25 9f 30 bd 22 82 b7 bc
       -0.030001242 -0.040230762 -0.043120522 -0.02240092
000210 ed 6c f8 3c e2 60 8e 3d e4 12 b2 bc af ca 5b 3d
       0.030325377 0.06952073 -0.021737523 0.05366009
000220 f0 c2 38 bc 70 14 6a 3d 8c 76 5d 3d ab 3b bd bb
       -0.0112769455 0.057148397 0.054068133 -0.0057749352
000230 b2 45 c2 3c 38 3a 29 bd 51 94 0d bd db f8 ab bc
       0.023714874 -0.041315287 -0.034565274 -0.020992687
000240 fb 86 7f bc 56 9b d0 3a 48 1e f6 ba 81 f6 29 3d
       -0.015596147 0.0015915434 -0.0018777335 0.04149485
000250 cf 5b 30 bc e9 d4 59 bc 41 6f af bb 7f d3 3b 3d
       -0.010764076 -0.013295391 -0.0053538387 0.045855995
000260 68 0d b3 bc d1 e5 db 3c e8 72 c0 3c 78 7d f6 3c
       -0.021856979 0.026842983 0.023492292 0.030089125
000270 ba 37 53 3d 86 6c eb bc a0 0b 9b bb 21 2d 17 bd
       0.051566817 -0.028738271 -0.0047316104 -0.036908273
000280 df de 1d 3d 77 c3 14 bd c1 39 34 3d 08 28 f8 3c
       0.038542625 -0.036319222 0.04400039 0.030292526
000290 29 0c 0e 3d e3 49 28 3d ed 6a 17 bd d4 29 73 bd
       0.034679566 0.04108609 -0.036967207 -0.059366062
0002a0 85 5f 8f bd a3 1b e4 bb 61 51 4e bc 2e 9b c8 3c
       -0.07000641 -0.0069613024 -0.012592644 0.024488058
0002b0 f1 65 58 bc 7d 52 21 bd 00 17 2d bc 1a 06 99 be
       -0.0132078985 -0.039385308 -0.010564566 -0.29887468
0002c0 5a 46 25 bd e5 b4 15 bb 82 a2 d3 3c 9d 4e 08 3d
       -0.040350296 -0.0022843417 0.025834326 0.033278096
0002d0 1f 6d 48 3d 24 5a 7c bc b5 43 47 3c 7e 26 29 bc
       0.04893219 -0.015402351 0.012162139 -0.010324119
0002e0 4c 82 4d 3d df fd 50 3d 26 ee 9b bb 24 7a df bc
       0.05017309 0.05102336 -0.004758614 -0.02727992
0002f0 8c 2a 70 3c d3 ea bc 3a 7c f6 40 3c bf 45 01 3d
       0.014658581 0.0014413245 0.011777516 0.031560656
000300 24 13 95 bc 98 8a 44 3d 7e 88 26 3c 7d a9 6f 3d
       -0.018197604 0.047983736 0.010164378 0.058511246
000310 a7 93 44 3d 5d e9 18 bd 10 c3 1a bb a4 4e 29 3d
       0.047992375 -0.037331928 -0.0023614801 0.041334763
000320 7b ab 54 3c d8 c4 0a 3d 55 1d 3b 3c 50 d9 e2 3c
       0.012980337 0.03387913 0.0114205675 0.027691513
000330 47 d6 fb bc 6b c0 41 3c b3 11 71 3c 1d 2e 9c bd
       -0.030741824 0.011825661 0.0147136925 -0.07625983
000340 49 d2 cc bc af 09 70 bc c2 9b 20 3d 6e 7d 15 bd
       -0.025002616 -0.014650746 0.039211042 -0.036496572
000350 11 8d 4c 3d f5 84 fe 3b 50 d7 c7 3b 6e fd ca 3c
       0.04993922 0.0077673146 0.0060986653 0.024779048
000360 60 70 66 bc 94 07 29 3d c3 f6 28 3c 73 c0 43 bc
       -0.014064878 0.041266993 0.010312739 -0.011947739
000370 e2 2d 7a 3d 41 d5 ab bb e1 0d 49 3d 23 2d b3 bc
       0.061078914 -0.0052439277 0.0490855 -0.021872109
000380 1d b0 24 bc 33 7f 14 3d d8 4c e5 bc a9 60 6a 3c
       -0.010051754 0.03625412 -0.027990744 0.014305272
000390 89 8f 27 3d f5 0c 8b 3d 46 8b 12 bc 0f 93 6a 3d
       0.04090837 0.06789581 -0.008944338 0.057269152
0003a0 6b 3e 1a bd d1 b7 1c 3d cc a7 17 3c a7 84 63 3b
       -0.037657183 0.03826124 0.0092563145 0.0034716518
0003b0 8f ec 4f 3b 96 7d 92 bc 37 d0 0c 3d c3 30 ac ba
       0.0031726693 -0.01788215 0.034378257 -0.0013137091
0003c0 55 d9 66 3d 2b ea 07 3d 6f d5 4c 3c 55 54 30 3d
       0.056359608 0.033182304 0.012502058 0.043049175
0003d0 77 ec da bb dd 91 93 be 19 e9 4c 3d ac 2a 75 3d
       -0.006681021 -0.28822222 0.050026987 0.05985515
0003e0 ab 4d 1b 3d c4 17 64 3c fc 01 61 bd 9a fc 8f 3c
       0.037915867 0.013921682 -0.054933533 0.017576504
0003f0 7a ce 43 bc 1e a6 30 3a 06 37 8b 3e 24 dd 18 b9
       -0.011951083 0.00067386206 0.27190417 -0.00014578231
