Training/Model/model_critic_robot_subset_joint2_103.pt (torch, 282175 bytes, 5 tensors)

network.0.weight f4 [256, 14]
00000000: 1a10 0bc0 0bae 8fc0 fe78 32bf 8ee3 08bd
00000010: 35a6 47be 3081 073e e702 bc3d 24c1 bbbd
00000020: 99bc bc3d d4e3 3a3f 529e b1be 9f3c 2d3e
00000030: 4392 d1be 9f62 6dbd d7bb 2440 4ff1 1a40
00000040: 0365 9dbe f808 bebe 9083 a1bf 7e47 f63f
00000050: 0529 0bc0 c77f b03e c1f1 353f fa26 ac3e
00000060: 92e1 f63b 08fd 01bc b2a3 2ebd 9408 263d
00000070: 7586 8a40 fb09 cdbf 27f4 793e ede6 01bf
00000080: b131 afbf 73c2 dbbf 6bd6 00c0 2812 15bf
00000090: 21c2 7b3e 3854 0b3f 8a12 a039 bd75 82bc
000000a0: 1c40 973b a925 c1bd 7e69 9b3e a240 bb40
000000b0: e7af b33e 174b 65be a74c cabe a79d 6c3e
000000c0: 4905 29be d4c4 a3be 696d f9bf 89d4 9dbe
000000d0: 3a3a 033d 072d 1abc f7df 44bd 6205 1e3d
000000e0: 2012 d5bd 33ed d03d d4e8 77bc cc53 6cbd
000000f0: 4875 c3bd b96e 17be 24c5 2e3d 0758 08be
00000100: 3549 9fbe 8ad7 1e3e 9bbc 1fb9 ef9a 363d
00000110: 978e a73d 70bb 3cbd 8ae5 5cc0 9280 5840
00000120: c035 a23c 9adc cf3e f9b4 05bd 7dac 57be
00000130: 7578 413f 1522 363e 3feb 0fbe 908c 653f
00000140: 57ea e0bc 2ceb 023e 5241 9a3e 89f8 c6bd
00000150: 3962 ab40 9639 6640 9c97 2dbe 2273 c9be
00000160: 1be9 e5bd cd26 3f3d 0912 10bf 807e 013f
00000170: 666a 91bf ef91 15bd 5465 223d 4b6b cebd
00000180: f0af 35be 4901 023d 3047 2bbf 347b e240
00000190: c6d8 c13f d285 983f 6481 413e d9b2 ce3e
000001a0: 1537 6dbd 5aa3 fa3f 6631 adbf 2cee bdbb
000001b0: d43e 013e 0ff5 29bd 78be 203d 6d7d c13c
000001c0: f5d0 f440 d2d9 e43f 467b 063e b813 3c3f
000001d0: 35b8 043f 2e7b c0bf 1704 6dc0 eb4d e83f
000001e0: 3b2e 71be e401 c03e 7fe7 d7bd 0a94 31bd
000001f0: 0537 a93b 3230 68bd 5b75 3b40 4831 97bf
00000200: 9ca2 3ebd 899d aabe 3745 393f 0b25 2abe
00000210: 038b aec0 c156 083f 8973 e6be 6d2f 493f
00000220: f0e8 843e aa64 06be b4c8 3cbe 23c3 afbe
00000230: cd3f 37be 3e5a 3ebe 85a4 35bd f66f bf3c
00000240: 3313 fcbe 6570 c3bd 99d7 053e 7653 1b3e
00000250: 3f77 57be 3a09 cc3e d85f cdbc db17 193d
00000260: 3a00 9ebd 3e4d 8b3c 559f d7bf 6461 8bc0
00000270: 4680 5fbe 2f96 e7be 1a2a fcbe 946f e1be
00000280: 5951 a23e f1fe 73bf 86f5 733e b530 193f
00000290: b344 543e a7a4 b33d a5a7 e93e 5452 02be
000002a0: b53b 60c0 b1da 03c1 9976 da3f d01a 763e
000002b0: d6be e63c 4f2d 24be bb7a 1240 de32 d9bf
000002c0: 0e05 b6bf c04c 193c 69ac 8c3d bf0d 1d3c
000002d0: 5cde 34bd d200 783c 8645 29c1 4e5d cb40
000002e0: 0e2a cfbe 4516 463f a357 663f 4161 ca3f
000002f0: 6982 3abf 2a6f 32bf ea7d 413e f9bb 633f
00000300: fe16 083d c8e6 21bd b9ec 8a3d a0fe 093e
00000310: f399 28c0 4461 b340 3f27 a83f c2a3 06c0
00000320: 9e54 0c3e 455c 893f 0956 a2be 12e8 e7be
00000330: 9804 abbf 8c56 d63d 64df 1a3e 103f e2bd
00000340: bd9c 863d 2cf6 7a3d 1cb6 c33e 3682 873f
00000350: 9d60 99be 1008 213f 8af7 0cbe ea56 c13e
00000360: d1e7 0e3f 6f06 033e 615f 8ebe 8f39 fe3e
00000370: 7157 acbd 49f8 a6bd 6a69 c7bd 6333 2a3e
00000380: 5d3c fd3e 58f4 6140 f8ef 81bf d6b2 a0bf
00000390: f322 bdbf 82af e73e 37f4 453f 8884 8c3f
000003a0: d4eb 5c3e 635f 1cbe 8d14 2e3b 13ce 00bd
000003b0: 9600 80bd 0cd0 0d3d 5224 a340 18ce ef40
000003c0: d49b 503f 21f5 e03d 0a1c 14bf 77b2 2d3e
000003d0: 3d56 373f 874d a53f 6b8f 49be 7a36 c4bd
000003e0: abe3 e63d 227b 70bb 0b51 873c b984 6e3d
000003f0: 7cd2 b03f a92a dc3f 331b f93d abea 4dbd
-2.1728578 -4.4899955 -0.6971587 -0.033420138 -0.19496997 0.13232875 0.09180241 -0.09167698
0.0921566 0.7300389 -0.346911 0.16917656 -0.409319 -0.05795538 2.5739648 2.4209783
-0.30741128 -0.37116218 -1.2618275 1.9240568 -2.1743786 0.34472486 0.7107201 0.33623487
0.0075342143 -0.0079338625 -0.04263658 0.040535524 4.328913 -1.6018671 0.24409543 -0.5074299
-1.368704 -1.7168716 -2.013087 -0.5823083 0.24585773 0.5442538 0.0003053139 -0.015925283
0.0046157967 -0.09431011 0.30353922 5.8516397 0.3509514 -0.22391926 -0.39511606 0.23107015
-0.16505922 -0.31986105 -1.9486514 -0.30826214 0.03203795 -0.009410149 -0.048065152 0.038579352
-0.10403848 0.10201492 -0.015131194 -0.057697102 -0.09543854 -0.14788331 0.042668477 -0.1331483
-0.3111054 0.15511909 -0.00015233683 0.04458135 0.08181494 -0.04607719 -3.45151 3.3828473
0.01980102 0.40597993 -0.032643292 -0.21061893 0.7557443 0.17786439 -0.14054583 0.89667606
-0.027455492 0.12785023 0.3012796 -0.09715373 5.35574 3.5972648 -0.16952366 -0.39345652
-0.11226102 0.046667863 -0.5627752 0.5058365 -1.1360595 -0.036516126 0.039647415 -0.10079058
-0.17742896 0.031739507 -0.669055 7.0775394 1.5144279 1.1915839 0.18897015 0.40370825
-0.05791386 1.9581101 -1.35307 -0.0057962146 0.12621623 -0.04149347 0.039244145 0.023619378
7.6505075 1.7878973 0.13132963 0.7346759 0.5184358 -1.5037591 -3.7033746 1.8148779
-0.23552792 0.37501442 -0.10542201 -0.04335407 0.0051640295 -0.056686588 2.9290378 -1.1811914
-0.046541795 -0.33323315 0.7237124 -0.16615693 -5.454469 0.53257376 -0.4501002 0.7858799
0.25958967 -0.13124338 -0.18435937 -0.34328565 -0.17895432 -0.18589112 -0.04434635 0.023368817
-0.49233398 -0.09542922 0.13070525 0.15168557 -0.21041583 0.3985079 -0.025070116 0.037376266
-0.07714887 0.017004605 -1.6845499 -4.3556385 -0.21826276 -0.45231768 -0.4925087 -0.4403044
0.31702688 -0.95310885 0.23824129 0.59839946 0.20729332 0.08771639 0.45635715 -0.12726718
-3.5036442 -8.240891 1.7067443 0.24033666 0.02816717 -0.16032909 2.2887409 -1.6968648
-1.4220293 0.0093566775 0.06868822 0.009585797 -0.04415737 0.015136914 -10.5794735 6.3551397
-0.40461773 0.7737773 0.89977473 1.581093 -0.7285524 -0.6970087 0.18895689 0.889587
0.033225052 -0.03952673 0.067834325 0.13476038 -2.6343963 5.6056232 1.3136977 -2.103745
0.13704154 1.0731283 -0.31706265 -0.45294243 -1.3360777 0.10465726 0.1512428 -0.110471845
0.06572864 0.061269924 0.38224876 1.0586612 -0.29956523 0.6290293 -0.13766304 0.37761623
0.55822474 0.12795423 -0.27807143 0.4965329 -0.084151156 -0.081528254 -0.09736903 0.16621165
0.49460116 3.5305386 -1.0151358 -1.2554576 -1.4776291 0.4525109 0.7732577 1.0977945
0.21574336 -0.15270762 0.0026562542 -0.031446528 -0.06250112 0.034622237 5.0981836 7.493908
0.81487775 0.10984255 -0.57855284 0.1696261 0.71615964 1.2914284 -0.19683616 -0.09580703
0.11273893 -0.0036694487 0.016518136 0.058232043 1.3814235 1.7200519 0.12163391 -0.050272625

network.0.bias f4 [256]
00000000: d8f0 11bf f534 0cbf 8c72 0cbf 1e01 f73e
00000010: 2548 91be a04a 51bf d055 083e 07c9 c8bd
00000020: 4cec 91be ec76 00bf 88cb b1be b87a 0abf
00000030: 7884 da3c 3d39 8abf 943b 9abe 9d9b 39bf
00000040: aa08 db3c 47e0 be3d af6b 3bbe 5233 37bf
00000050: 0761 f1bd 209d 87be cc3b 5fbf 0f75 8bbf
00000060: 077e 22bf 1356 1fbf a6f6 e53d 59fb 86bd
00000070: 2997 1ebf 19a7 b2be 9f11 b9be 510f 6bbe
00000080: 5e23 67bf c12e 8fbe 84f1 27be 8924 63be
00000090: c203 b63e f61d 95be c710 1cbf b194 efbe
000000a0: 1620 ad3e 879f 0fbf a5f7 0bbf 7645 b5be
000000b0: 9eab b4be 790c 39bf 6ca8 c0be 2b1b 32bf
000000c0: 26d2 10bf 8da2 80bf 3191 5dbe 0a6c 45bf
000000d0: 615d eabe 43ff 48be dfee f5be f2af c5be
000000e0: 5e45 893e 9565 5ebf ed6a 8dbe f9b5 29bf
000000f0: e527 81bf 2ecc 54bf 4dfa acbe afc3 4ebf
00000100: 6804 b2bd bd7b e73e cffd 0bbf 40b7 5bbf
00000110: 5272 c4be 96be ea3e 6529 01bf 0908 10bf
00000120: 5e14 143f 55cb 6fbf c4ba f2be 5033 53bf
00000130: 407a b3be 20c5 5ebf 0bf8 58bf 1d36 65be
00000140: 652b c4be 7483 44bf 2c25 47bf d85a adbe
00000150: c3a0 173e d012 6cbf ab8b 233e 3935 37bf
00000160: 3886 5abf b679 debd 9d98 a6be 4569 073f
00000170: 3aa8 18bf 758d d9be c589 19be 973a 33bf
00000180: f490 12bf ddc7 d5be 735d 17bf 1853 33be
00000190: 4c15 103f 9364 0cbf a5cc 44bf 8d5d 19bf
000001a0: e95c 69bf e3d0 8cbe 6d47 acbe a1f6 0fbf
000001b0: 456f b7be 4bb3 98be e309 fcbe daa5 39bf
000001c0: 1efa 0ebf 20e2 27bf 816b 84bf 17d2 cabe
000001d0: 506f b8be 819c bebe d709 d9be 5e44 5cbf
000001e0: 99eb 0bbf 6cba 65bf d073 44bf 4af7 57be
000001f0: d2d7 bcbe 35bc 91bd d05d 93be c913 5cbf
00000200: 50f2 dabe ea0c bfbe 8bcb 88bf 90b6 44be
00000210: 2e4c 9c3e 7d42 8ebe 3234 f1be 5f89 62bf
00000220: 8a93 6bbf 70a4 47bf 026d 86be 99cb a8be
00000230: d497 e23e 93fe 983d 3bd8 1ebf cfaa 44bf
00000240: 302f 8e3d 602b 0ebf e8fb 01bf 40bc 36bf
00000250: dead b3be a546 2dbf c4a8 39bf 13d5 1ebf
00000260: dd8a 9dbf 860d 25bf c8b1 15bf 2a6e 7ebf
00000270: 7539 4ebf e4ba 0fbe ed15 5ebf cd7d 85be
00000280: 2781 02be 3d29 eebe 0ee8 54bf 7c9c 11bf
00000290: 89b0 26bd 20ec 83be a81c 9ebd b314 a0be
000002a0: 3c9e b8be 421c adbe 302d 87be d5f1 90bf
000002b0: ffd1 6dbf b8d6 bebe 7b12 8dbe 07e7 52bd
000002c0: fec4 94be 5861 16bf 3d01 283e bca6 1a3f
000002d0: 34d0 85bf c3c1 99be c9ad 07bf dd02 dfbe
000002e0: 7e42 84bf 0200 b13b f0e2 8c3e b9a7 1dbf
000002f0: 0148 7cbf 7cc0 d7be 2845 55bf cf7e 21bf
00000300: 058e 12bf 7fd0 8abe 8462 6ebe 7450 30be
00000310: 46dd 0f3f 2e17 85be 5b65 a9bf 374d 93be
00000320: 55f2 57be a514 1abf 654f adbf 23aa 0dbf
00000330: 38a3 aebe afb8 47bf de06 e0be d5d8 7b3b
00000340: 6cc7 d1be 4342 04bf 6eb4 16bf 7639 0fbf
00000350: 59e8 4ebf 28a9 1dbf 37d7 a6be fe75 993e
00000360: 10e1 4dbf 7280 b7be 2420 52be 4fb3 29bf
00000370: 0e6d 003e 9c81 08be 0ba6 93be 7333 1abf
00000380: 0002 bcbe 8a1f 25bf 819b cdbe 45c6 9cbe
00000390: aedb e2be ce33 3fbf d2b7 3fbf 4e47 95bd
000003a0: 82f4 1cbf 6a41 04be 665b 1abf 8eee ca3d
000003b0: 9fc5 49be ad52 71be 28cf 96be 05d3 75bf
000003c0: a1e4 f1be 0332 f93e 5566 75bf f5f8 21bf
000003d0: 3303 61bf 22a3 e1be 240d 59bf 0df1 c7bd
000003e0: 915a 93be de0d 1fbf 64a4 bf3e f258 aabe
000003f0: 91c7 793d b9b3 963e cbe4 f2be 156d 84bf
-0.57008123 -0.54768306 -0.54862285 0.4824304 -0.28375354 -0.81754494 0.13313985 -0.09803968
-0.28500593 -0.5018146 -0.34725595 -0.54093504 0.026674494 -1.0798718 -0.3012358 -0.7250307
0.02673753 0.09320121 -0.18302797 -0.71562684 -0.117860846 -0.26487064 -0.8720062 -1.0895098
-0.6347355 -0.62240714 0.11228685 -0.065909095 -0.619494 -0.3489311 -0.36146256 -0.22955061
-0.9028834 -0.27965358 -0.16400725 -0.22181906 0.35549742 -0.2912442 -0.609631 -0.4679313
0.33813542 -0.56102794 -0.5467475 -0.35404557 -0.35287184 -0.72284657 -0.37628496 -0.69572705
-0.5657066 -1.0049607 -0.21637417 -0.7711798 -0.45774367 -0.19628625 -0.48033807 -0.38610798
0.26810735 -0.8687375 -0.2762064 -0.66293293 -1.00903 -0.83124053 -0.33784714 -0.8076734
-0.08692247 0.45211592 -0.54684156 -0.8582649 -0.3836847 0.4584853 -0.5045379 -0.5626226
0.5784358 -0.93669635 -0.47408116 -0.8250017 -0.35054207 -0.8701954 -0.84753484 -0.22383924
-0.38314357 -0.7676308 -0.77791095 -0.3385837 0.1480742 -0.92216206 0.15971248 -0.71565586
-0.8536105 -0.10863058 -0.3253831 0.52895004 -0.59631693 -0.42490736 -0.14993961 -0.70011276
-0.5725243 -0.41754046 -0.5912697 -0.17512167 0.56282496 -0.54840964 -0.7687476 -0.5990837
-0.91157395 -0.27503118 -0.33648244 -0.562357 -0.3582708 -0.2982429 -0.49226293 -0.72518694
-0.558504 -0.65579414 -1.0345308 -0.3961341 -0.36022425 -0.37228778 -0.4239032 -0.8604182
-0.5465637 -0.8973758 -0.76739216 -0.21090427 -0.36883408 -0.07115976 -0.2878251 -0.8596769
-0.42762995 -0.3731454 -1.0687116 -0.19210267 0.3052687 -0.27785102 -0.47110134 -0.8849086
-0.92022 -0.77985287 -0.2625504 -0.32967833 0.4425646 0.07470431 -0.6204869 -0.76823133
0.06942594 -0.55534935 -0.50775003 -0.71380997 -0.35093588 -0.6768592 -0.7252314 -0.62043875
-1.2308003 -0.6447376 -0.584744 -0.99386847 -0.8055642 -0.14036137 -0.86752206 -0.2607254
-0.1274458 -0.46515837 -0.8316659 -0.568794 -0.0406957 -0.25766087 -0.077203095 -0.31265792
-0.36058223 -0.33810622 -0.26401663 -1.1323801 -0.92898554 -0.37273192 -0.27553162 -0.051489856
-0.29056543 -0.58742285 0.16406722 0.60410666 -1.0454164 -0.3003064 -0.5299955 -0.43556872
-1.0332792 0.0054016123 0.2751689 -0.6158405 -0.9854737 -0.4213904 -0.8330865 -0.6308412
-0.57247955 -0.27112195 -0.23279768 -0.1721819 0.5619701 -0.25994247 -1.3234056 -0.28769848
-0.21088536 -0.6018775 -1.3539854 -0.55337733 -0.341089 -0.7801618 -0.4375524 0.0038428803
-0.4097246 -0.5166361 -0.58869064 -0.55947053 -0.80823284 -0.61586237 -0.3258607 0.29972833
-0.80421543 -0.35840183 -0.20520073 -0.6628923 0.12541601 -0.13330692 -0.28837618 -0.60234755
-0.36720276 -0.6450125 -0.40157703 -0.30620018 -0.44308227 -0.7468842 -0.7488986 -0.07288991
-0.6131059 -0.12915578 -0.6029571 0.09908782 -0.19704293 -0.23566695 -0.29454923 -0.96025115
-0.47244743 0.48670968 -0.9585927 -0.63270503 -0.87895507 -0.44069773 -0.84785676 -0.09762774
-0.28780034 -0.62130535 0.37430108 -0.33270985 0.060981337 0.29433993 -0.4744018 -1.0345789

network.2.weight f4 [256, 256]
00000000: 32cc c4bf 6f4c d23e 13b5 c1be ab36 543e
00000010: 2256 f8bc 1c38 5ebe dd9a 1fbc ad36 60bf
00000020: c013 36bf 204a 83bd 7b8f 57bd 1a5d 00be
00000030: 0999 8cbf 21b0 99bf 7a61 61bf cc7f cabd
00000040: df32 d7bf f156 aebe 0b87 fd3d 64e1 e7be
00000050: 4477 8dbe fcab d7bc 3f21 82bb 8614 93bd
00000060: 3c1e 1e3e 629f aabf 35de 7cbe 697a 933c
00000070: 4bde 65bb 9db5 5dbd 08be 0a3e ffe7 64bd
00000080: 2749 e6be 4df0 5e3d 0eb7 363d 533e 3dbe
00000090: 407d d1bf 156b 21bf 98f3 a4bd 58ae 8b3d
000000a0: 0b6d 55bf 4350 cd3a 86c1 373e cdb1 063e
000000b0: 6d4f eebf 285e 6c3f 0558 003d a02e 3dbf
000000c0: e174 0c3f 8aa2 9ebd 30dd 09bf dd79 9fbf
000000d0: f43b f6bc 9b5b 27bf 7daa 53be cf15 fdbf
000000e0: e832 f43d 7758 0abd 2cdb a73d e857 bcbf
000000f0: bdc0 0dbe 5fac afbf 972f 93bc bac6 ce3d
00000100: ba90 913c f3c3 1cbe 2da0 64be eb91 21bd
00000110: c0e0 a0bd b0f3 85bf 1c69 cdbc 83ff 04bf
00000120: 2ae2 f63d fcee b5bc 02ef 41bf 3790 babf
00000130: 8b12 20ba 3097 cdbd 58cf 2dbe ab99 293c
00000140: 6580 45bf 7529 61be 2b25 ed3f d817 83bd
00000150: 9b13 9abf 8c48 b93f f4d9 9bbf 59bd 4fbf
00000160: 2347 afbf bd20 9bbd d6f4 d2bd 70bc 62bf
00000170: 19db 3fbe c393 7e3d 62a5 acbc 6b29 0cbe
00000180: 5a01 0fbf 0b78 2fba 0cc6 96bf f97e 73bf
00000190: 230c 3dbd 4ed3 de3d 14e8 243e 5956 2ebe
000001a0: f88c adbc 657a ae3c 0518 113c 8e29 33bf
000001b0: 3f1a 043d 81f1 2bbd 0509 8abd 1b5b 6fbf
000001c0: adb1 85be 8b45 49be 2f75 50be ef18 5f3d
000001d0: 6677 94bf 6eca da3d d622 83be b7d8 04be
000001e0: c5a3 bc3f b4c0 cdbf 6c3e a8bf 3de5 0c3e
000001f0: b198 a43d bc15 1abf 1db2 903b 4b00 7dbe
00000200: f020 1b3f 9fa9 8cbf 2707 98bd ec7f 8bbe
00000210: 5b34 fdbe 3f15 3bbd 615f 5fbc c54b c63e
00000220: 07bf 663c 089f 8f3d 2e59 283e 7c69 0cbb
00000230: 7bf9 24bf 56ed 87bf c51e dbbd 0362 893f
00000240: 977f ab3d 9b15 5c3d 5881 f6bf 248a 673e
00000250: f553 3ebe 0c4e 40bd 3636 fc3d 172c 243f
00000260: d0c4 19be b8d1 ad3e cc38 3fbe 8b38 83bd
00000270: 7bfc 01bf 976e 81bd 5591 ebbd 7cd7 1dbe
00000280: 2e7b 28be 69cb a1bf 9cfd 3abd 4d1d ddbc
00000290: 0c15 26be d9ac 03be 49c3 603d 83b3 a3bf
000002a0: 0f27 c9bf d921 29bc c9e5 8b3d 9495 3b3d
000002b0: 9697 26bf b970 bfbd ebc2 903d c45d b7be
000002c0: fbff 50be d82c 4abf 3bf4 41bd 1321 823e
000002d0: 14e8 72be 6c12 753d 6f82 51bf 1acc 03bf
000002e0: 7555 35bf 205d f43e f5c1 e53e 6147 21be
000002f0: f109 863f 18c0 05bf d3d4 693f 3072 8e3e
00000300: 1eb9 cabf de31 dc3d 994a c3bd d0cf 143e
00000310: 09f8 98bf 7835 653d dc14 e5bd 3405 7ebd
00000320: 40ae 3fbe c7fe 4ebd 13af 773f 9c1c 07bd
00000330: cb72 23bd cb6f 36bf 38c4 b6be 018d e9be
00000340: 6a80 9abd 3608 f83c 89f4 15bf aaf1 03bd
00000350: b28f 94bf 615e b73a d3df 543d fada 94bf
00000360: 1700 43bf 1282 923d 906e 80bf 4e61 6ebf
00000370: 7e62 a5bf bdf2 4dbe 2c57 9abc 5520 2abd
00000380: 60e7 1b3d 4f10 86bd ab6f ccbe 485f c1bc
00000390: 1392 55bd 4a12 8dbf e3fe bcbe 8b6a 9ebf
000003a0: f8a6 ccbf 8964 e53d befe 61bd a592 a4bd
000003b0: defe dc3e d353 52bd cc46 34bf afc4 c33f
000003c0: 8a2b 4fbd 52f3 bfbf 0dbe 4bbf 2194 b83d
000003d0: 1fa7 65bf 3179 3ebf c6fc 3cbe 73ad 37be
000003e0: 7ced 9dbc edcd 06be c8c1 54be 75fd 19bd
000003f0: bf11 97be 29be 3abf b7e1 8e3d 0129 98bf
-1.5374815 0.4107394 -0.3783346 0.20723979 -0.030314509 -0.21701092 -0.009741512 -0.8758343
-0.71123886 -0.064106226 -0.052627068 -0.12535515 -1.0984203 -1.2006875 -0.8803936 -0.098876566
-1.68124 -0.34050706 0.12379273 -0.45289147 -0.27630055 -0.026327126 -0.0039712484 -0.07181649
0.15441221 -1.332989 -0.2469414 0.018002706 -0.0035075124 -0.054128278 0.13549054 -0.05588531
-0.44977686 0.054428387 0.04460817 -0.18480806 -1.6366348 -0.6305402 -0.08054274 0.06820363
-0.8336951 0.0015664179 0.17944917 0.13153763 -1.8617989 0.9233117 0.031333942 -0.7389927
0.54865843 -0.077458456 -0.5385313 -1.2459065 -0.030057885 -0.65374154 -0.20670505 -1.977228
0.11923772 -0.033775773 0.081961006 -1.4714327 -0.13843055 -1.3724478 -0.017967029 0.10096498
0.017769206 -0.15309124 -0.22326727 -0.0394458 -0.07855368 -1.0464993 -0.025074534 -0.5195238
0.12054856 -0.022208683 -0.7575532 -1.4575261 -0.0006106279 -0.10038602 -0.16973627 0.010351579
-0.7714904 -0.21988471 1.8526968 -0.06401032 -1.2037233 1.4475265 -1.2175889 -0.81148297
-1.3693584 -0.07574604 -0.10300605 -0.8856878 -0.18735923 0.062152635 -0.021074954 -0.13687675
-0.5586144 -0.0006693608 -1.1779189 -0.9511562 -0.046154153 0.10880147 0.16104156 -0.17025127
-0.021185383 0.021298597 0.008855824 -0.6998528 0.032251593 -0.041978363 -0.067400016 -0.9349839
-0.26112118 -0.19655435 -0.20357202 0.054467138 -1.1598938 0.10683142 -0.25612515 -0.12973295
1.4737478 -1.6074433 -1.314405 0.13759322 0.08036936 -0.60189414 0.004415764 -0.24707143
0.60597134 -1.0989264 -0.07423239 -0.27246034 -0.49454007 -0.04567456 -0.01363358 0.38729683
0.01408363 0.07012755 0.1644027 -0.0021425178 -0.64443177 -1.0619304 -0.10699228 1.0733036
0.08373945 0.053731542 -1.9258223 0.2261129 -0.18586715 -0.04694943 0.123150274 0.64129776
-0.15016484 0.33949065 -0.1867401 -0.06407269 -0.5077588 -0.063199215 -0.11502329 -0.15414232
-0.1645324 -1.2640201 -0.045652017 -0.02699151 -0.16218966 -0.12858905 0.05487374 -1.2789158
-1.5715045 -0.010323011 0.068309374 0.045796946 -0.6507505 -0.09347672 0.07068428 -0.35813725
-0.20410149 -0.78974676 -0.047352057 0.2541586 -0.23721343 0.05983202 -0.8183965 -0.5148331
-0.7083352 0.477273 0.4487454 -0.15749885 1.0471784 -0.52246237 0.9134037 0.27821493
-1.5837743 0.10751699 -0.09535713 0.14532399 -1.1950694 0.055959195 -0.11185619 -0.06201668
-0.18718815 -0.050535943 0.9675152 -0.03298627 -0.039904397 -0.7126433 -0.35696578 -0.4561539
-0.07544024 0.030277353 -0.58576256 -0.03221289 -1.1606352 0.0013989919 0.051971268 -1.1629326
-0.7617201 0.07153715 -1.0033741 -0.93117225 -1.2920682 -0.20112129 -0.018840395 -0.04153474
0.038062453 -0.06546079 -0.39928946 -0.023605004 -0.05214126 -1.1021206 -0.36913213 -1.2376264
-1.5988455 0.11200816 -0.05517458 -0.08035783 0.43163198 -0.051349472 -0.7042053 1.5294398
-0.05057863 -1.499613 -0.7958687 0.09012628 -0.8970813 -0.74403673 -0.184558 -0.1793726
-0.01927828 -0.13164492 -0.20777047 -0.03759523 -0.29505727 -0.7294641 0.069766454 -1.1887513

network.2.bias f4 [256]
00000000: 33e9 a6be 7050 72bd e784 26bd da42 3cbd
00000010: 62bb 9fbd 2c06 1dbd 8ba0 483d 79fc 71bd
00000020: e691 55bd 94f8 f7bd 9fad d3bd 2910 01bd
00000030: ce74 84be 1758 55be 7403 29bc d64b 3bbe
00000040: 2e00 3ebd 3f96 93bd 65ed 00bd c774 c4bd
00000050: 0f28 a0bd f8c3 cbbd 6de0 83bc 5060 3cbd
00000060: 7ac6 533e dd4b a1bd c39d 04bc c69d 763f
00000070: d142 e6be 6934 df3c a871 efbd 3910 aebd
00000080: a5fd a53e ba60 a63c 93e6 b73a 33d7 843e
00000090: 85ba 0f3c 31b8 a4bd 573b 9abe 29f3 09bd
000000a0: 8e43 92bd 2d03 babd 4723 f8bd 3838 613d
000000b0: d973 c03e 4845 b9bd ec08 ccbd 7433 fbbd
000000c0: 430e 613e b63f 92bd 1dc8 dabd 2606 75bd
000000d0: 5613 87bd 5cd8 c8bd ea7e d23d fdaa 5cbc
000000e0: 51c7 f3bc e759 ebbd 3ee2 903f 5f20 0cbd
000000f0: 232c 463d a80f e6bc db96 843c 627d efbb
00000100: b8ea cf3c 3d76 33be 790d f1bd d2c0 f1bd
00000110: 22c9 b2bc 0f21 5ebd 0383 63bc fe99 8abd
00000120: 93b5 eebd 5099 11bd 80bf d13e 87a8 9e3d
00000130: b54a dcba 3fb1 d0bd 460f 94bd ae4f aebe
00000140: 8ff4 d03c 0ea9 833c 7afb b3bc faf1 7f3d
00000150: f87c 3cbd 9a4c a8bd 7109 813e dffe e0bd
00000160: b6bc 63bd 47be 84bb 6042 edbd a5e7 8dbd
00000170: 0209 c1bd 548f 9f3d 4ebb f4bd 5f5f c7bd
00000180: cae9 94be 025d 69bd 23e5 fdbd 4e2e 17bb
00000190: 6ee5 63bd b8ac 8fbd 909f b1bd f6a4 8fbc
000001a0: 5ff9 b3bd ecb5 debd e790 fc3e 13c5 90bd
000001b0: 3bac 43bd 52cb 15be 4e97 96bb a3b9 a0ba
000001c0: 3348 e2bd efa9 95bd eacf 81bc e911 95bd
000001d0: d295 97be ff66 e73d 0e33 66be 797c 35bc
000001e0: 0edc 86bc 21a8 e9bd 79ef eabc 7953 8c3c
000001f0: 7e23 c5bd b810 a2bd 9d00 98bd 6dfa 80bd
00000200: 896d c5bb cf0a 3fbe 7332 f0bd 5e0c 773d
00000210: ab1b 6b3d b96a a4bd 7a65 fbbc e58f dfbb
00000220: bb87 33b9 0abd 0e3f 26c3 1fbd 9c4d b63c
00000230: 6d36 75bd 0981 7e3d 5b28 9a3d ace5 8bbd
00000240: 6aca 29be e619 65bd 4927 83bd e052 7dbe
00000250: b19d d0bb b8d5 efbc 5a28 b1bd d18d 64bc
00000260: 975a a33c 5b6e bfbc 1f8d 95be f2db df3d
00000270: da36 76bd 3414 6dbd 211b 0f3f c2ac bebb
00000280: ebfd 15be 7135 b63b 0e13 f43e 0c42 8d3d
00000290: 41bb c43e 0f16 bd3a c54a cbbd 5447 83bc
000002a0: cc05 e7bd 5500 8bbd c61a abbd 37d3 27bd
000002b0: 62f3 e83e 92b5 9bbe 72b0 0bbe 239b 7abd
000002c0: 2329 3a3d ee96 d0ba ddfc a8bd 6a19 5abd
000002d0: 01c7 e63e 4326 73be 233e 16bc b657 6fbd
000002e0: 8daf aebc c0a0 19bd 6c49 a3bd 061f 023d
000002f0: b958 2fbd 6f61 973e 5e31 aebd be47 96bd
00000300: 9793 983b 8353 bf3e f9eb 873d a93f 88bc
00000310: e060 ef3d 00bf 3ebd b9cd 673d 2083 f93d
00000320: 0ef2 873d b764 90bd f731 97be 5303 c2bd
00000330: c2b1 72bd e949 c7bd 5ef3 abbd f708 35bd
00000340: ad36 4c3e 0d1b e53b 737f 7ebd d273 2cbd
00000350: 92a9 753e 3487 a0bd a406 e4bd 31a7 b43e
00000360: 208f 1b3d 6c1b ea3e c880 59bb 73a9 a4bd
00000370: 91bb e5bd 74db c1be 2db4 a13d 511a 6cbd
00000380: b583 11bd e0d2 d8bd 0616 fd3d 36bc 95bd
00000390: abac 51bd 8bfd 3fbd a00f 583d bb90 d93e
000003a0: 21d3 43bd c017 efbd dcce a6bd 7e0b e6bd
000003b0: b4b3 c83d a149 ab3e 099e 433e 2633 563e
000003c0: 9733 08bd 3c21 d5bd de72 f8bd b8d6 12bd
000003d0: 6391 6bbb 60da 743f 2e80 4abd e17e a53d
000003e0: fa4c 073e 3dde da3e dbb0 38bc 6044 11bd
000003f0: febc 973c 7730 57bc 15a3 a9bd b8a2 833d
-0.32599792 -0.059158742 -0.04065409 -0.045962192 -0.07799412 -0.038335964 0.04898123 -0.059078667
-0.052141093 -0.121079594 -0.1033585 -0.031509552 -0.25870365 -0.20834385 -0.010315765 -0.18290648
-0.04638689 -0.072063915 -0.031476397 -0.09592586 -0.078201406 -0.099494874 -0.016098225 -0.04599029
0.20681182 -0.07875798 -0.008094254 0.96334493 -0.44972852 0.02724667 -0.116916 -0.08499188
0.32420078 0.020309795 0.0014030508 0.25945434 0.008772497 -0.08042944 -0.30123398 -0.03367916
-0.07141791 -0.09082637 -0.121161036 0.054985255 0.37588385 -0.090464175 -0.09962639 -0.12265673
0.21978097 -0.07141058 -0.106827 -0.059820317 -0.06595485 -0.09806892 0.10278113 -0.013468501
-0.029758127 -0.11491757 1.1319044 -0.03421056 0.048381936 -0.028083637 0.016185215 -0.007308648
0.025380477 -0.17525573 -0.11770148 -0.11804356 -0.021824423 -0.054230746 -0.013886216 -0.06767653
-0.11655726 -0.0355466 0.40966415 0.07746988 -0.0016806932 -0.10190057 -0.07229476 -0.34045166
0.02550724 0.016071822 -0.0219705 0.062486626 -0.046017617 -0.082177356 0.25202516 -0.10986113
-0.05559989 -0.004051003 -0.11584926 -0.06928948 -0.09425546 0.077910095 -0.11949788 -0.097349875
-0.29084617 -0.056973465 -0.1239722 -0.0023068371 -0.055638723 -0.07015365 -0.08673012 -0.017534714
-0.08787798 -0.108745426 0.49329302 -0.07068839 -0.047771674 -0.14628342 -0.0045956736 -0.0012262355
-0.11048927 -0.07307803 -0.015846211 -0.07278807 -0.2960649 0.11298942 -0.22480413 -0.01107704
-0.016462352 -0.11409021 -0.028678643 0.017129647 -0.0962591 -0.07913345 -0.07421992 -0.06297765
-0.0060250205 -0.18656467 -0.117283724 0.06031453 0.057399433 -0.08028168 -0.030688036 -0.0068225735
-0.00017121334 0.557572 -0.039004467 0.022253804 -0.059866358 0.062134776 0.075272284 -0.06830916
-0.16581121 -0.0559329 -0.064039774 -0.24738646 -0.0063664545 -0.029276714 -0.086502746 -0.013949827
0.019940658 -0.023368051 -0.2920923 0.10930623 -0.060110904 -0.057880595 0.5590077 -0.005818934
-0.14647643 0.00556057 0.47670788 0.06897363 0.38424113 0.001442613 -0.099263705 -0.016025223
-0.112804025 -0.06787173 -0.08354716 -0.040972915 0.45498186 -0.30411965 -0.13641527 -0.061183106
0.045449387 -0.0015914121 -0.08251355 -0.053246893 0.45073703 -0.23745064 -0.009170088 -0.058433257
-0.021323944 -0.03750682 -0.079729885 0.031767868 -0.042809222 0.29566523 -0.0850551 -0.073379025
0.004656266 0.37368402 0.06636805 -0.016631918 0.11688399 -0.04656887 0.056592677 0.12183213
0.06637965 -0.0705046 -0.29530308 -0.0947329 -0.059251554 -0.09730894 -0.08396028 -0.044198003
0.19942732 0.00699175 -0.062133264 -0.042102642 0.23990467 -0.07838288 -0.11134079 0.35283807
0.03797829 0.45724046 -0.0033188332 -0.080401324 -0.11217416 -0.37862742 0.07895694 -0.057642285
-0.035525996 -0.10587096 0.12357716 -0.07311289 -0.05119006 -0.046872657 0.052749276 0.42493233
-0.04780877 -0.11674452 -0.08144924 -0.11232661 0.09799901 0.33454612 0.19103254 0.20917949
-0.033252325 -0.104067296 -0.12131284 -0.035849303 -0.0035944812 0.95645714 -0.049438648 0.08080841
0.13212958 0.4274768 -0.011272634 -0.035465598 0.018522736 -0.0131341135 -0.082830586 0.064275205

network.4.weight f4 [1, 256]
00000000: 1007 4bbf be5a bb3c 6bcf d83c eead 273a
00000010: f3cc 643d 0c29 1a3c 233b 033c a37f cfbc
00000020: 1206 96be 9ba9 b93c 4066 6a3c 55eb 2b3d
00000030: 09aa 17be 9549 1fbe 16ef 5f3d b242 dfbd
00000040: 76c7 433d 569e 803c 7ee5 743d dc3b d13a
00000050: d411 173d b18f c53c 9458 673d c83e 263d
00000060: 3c9c 1f3e 11e9 74bd c9d5 f13b 0082 53be
00000070: b745 16bd b5f5 44bc 9079 863b c0bd 653d
00000080: 5c23 123f 6607 5d3b b524 c4bb 184b 903d
00000090: e20f 4f3b 86f0 ec3c 2ae5 0e3c 466a 53ba
000000a0: c355 6c3d 1ddd ae3e 7686 073d 6597 f5b9
000000b0: 7553 343e 7935 593d 32ce 783c 0818 f53d
000000c0: b3d9 1e3e 8a81 053d 0a1e c03c c44b 573d
000000d0: 529d c63c 3b62 e63c f284 7fbe 7457 713d
000000e0: af48 cf39 9940 ef3c 087d 43be 8ccd 753d
000000f0: f1c5 9a3c 67a8 6c3d 9779 8cbc 7dc7 b73c
00000100: a709 ed3b 69b4 013e 113d 5a3d d9c4 f8bd
00000110: 9d47 8f3b 3fff 973d c4bd 2cbc 9f4c 39bc
00000120: d141 3b3d 1c0b a13b b997 d7bd 4085 a2be
00000130: f292 1b3b 3ece cbbe 1085 673d 5b2d b63e
00000140: d2e4 8339 e6ae 26bc c253 293d 2446 b23e
00000150: dc3f d63c 476e 07bf 5bfb 52be 3e13 173d
00000160: 87c9 1d3d 461d 5dbc 1e05 563d 91bf 1c3d
00000170: ac3b 6c3a fdf1 d7bd dc2b 5e3d 36ae b23c
00000180: 1940 7abe 9248 cc3c 1581 fdbd 2033 613b
00000190: e4b8 093d 6e42 5f3d a53e 743d 2034 c93c
000001a0: d100 b6ba d86a a03c b427 903e 311b 57bc
000001b0: df63 fe3b e8bb 35bc 0159 5c3d 2496 d83c
000001c0: c88f ab3b 3d7a 3c3d a914 073d e1a2 dcbd
000001d0: d891 afbe 562b c23d 519a df3e 8f9e 503d
000001e0: 69ab ab3c 7e88 aabc 5710 033d 79b8 50be
000001f0: e6ff a13c a155 553d 24cd 193d 8081 39bc
00000200: 3084 d03c ee86 4c3d 70b9 433d 7f38 193a
00000210: 3539 c73e c289 b83c f63e 00bd 1bbd 623d
00000220: 45c9 083d 40b9 653e 3577 513d fe9c d5be
00000230: eebc 543d 5d48 2b3a 3a85 823b cb3d 5e3a
00000240: 1583 683b 725f 123d 7a04 9f3b 4663 033e
00000250: b72a 643d f058 f83c 96d5 843c f3ca c43c
00000260: f5bd 0d3c d3d5 f73a 2bb3 d93d 3615 933d
00000270: 92f2 6e3d 39f3 973c 6145 f53d c64a 253d
00000280: 6fe1 2f3d a52d dc3e 7b05 9d3d 9d11 6e3e
00000290: 3fec 443e 0483 263d 821a 113d ef57 75bd
000002a0: b3bb 293d 2c5c 5b3d 6983 213f 6394 1f3d
000002b0: 4e50 3c3e c217 a93e 9652 dd3b 82e4 523d
000002c0: ba15 c23c 3596 6d3d ca8a 5d3d cbd9 443d
000002d0: 6de9 703e 216a 92ba ebe9 1c3e 7555 813c
000002e0: d1de 1a3d 59f7 363b 46de 753d 8051 b03b
000002f0: 6604 6d3b e4a4 3ebe 76c4 7b3a 50de 713d
00000300: 96cc f83c ea20 9b3e 47c7 a13c 9c7c ff3c
00000310: 42a1 493e f923 9b3c 7a86 403c afe8 9a3e
00000320: 9ecd f03b 81e3 36bd 16ba 4a3e 3320 283d
00000330: 3c24 ad3c 3298 e03c 4ebe 6a3d 7b88 b93c
00000340: 241f e23e 5979 a1bc 29d9 593e f784 df3c
00000350: 44ae 893e 4ed8 83bc 86e5 da3c 5bc8 443e
00000360: b24e b13c ae6c 2e3e 2a98 70be 31d2 823c
00000370: 8411 f73b 347c 453e 747f 1cbe c2dd 243d
00000380: a1d5 1b3d 6b93 1c3d 5453 87be 3bfb babe
00000390: 6dda 1a3d b34e 2abe a35e af3e 6026 333e
000003a0: 3146 50bb ed43 7b3c e081 9c3c f11c bb3c
000003b0: 0886 b43c 9151 a23e 98e9 343e fffa f83e
000003c0: 28ae bb3c 9e2d ec3c 51b1 2c3d 9b96 f33c
000003d0: a28b 1a3c ecba 813e fc13 4ebc 7ac6 35bd
000003e0: 791d 9c3e fec4 243e c476 b93c b81f 723b
000003f0: 799d abbb 477f a43c c299 183d d009 873a
-0.7930765 0.022870418 0.026466092 0.0006396462 0.055859517 0.0094092 0.008009705 -0.025329417
-0.29301506 0.022663882 0.014306605 0.041972477 -0.14810957 -0.15555413 0.05467137 -0.10901393
0.047797643 0.0157005 0.059789173 0.0015963274 0.036882237 0.024116369 0.05648096 0.040587217
0.15586942 -0.059792582 0.0073802215 -0.2065506 -0.03668758 -0.012021472 0.004103847 0.056089163
0.57085204 0.0033726334 -0.005985821 0.07045573 0.003159516 0.028923284 0.008721629 -0.0008064847
0.057698976 0.3415307 0.033087216 -0.0004684284 0.17609961 0.05302951 0.01518588 0.11967474
0.15512733 0.03259424 0.023451824 0.05256249 0.024244938 0.028123012 -0.24953058 0.058921292
0.0003953627 0.029205607 -0.19090664 0.060010478 0.018893214 0.05777779 -0.017147822 0.02243399
0.0072338167 0.12666477 0.053280894 -0.12146921 0.0043725506 0.07421731 -0.0105432905 -0.011309772
0.045717064 0.0049146544 -0.10526986 -0.31742287 0.002373871 -0.39805788 0.056523383 0.35581478
0.00025156752 -0.010173535 0.041339643 0.34819138 0.026153497 -0.52902645 -0.20603697 0.036883585
0.03852227 -0.013495749 0.052250974 0.03826863 0.00090115773 -0.105442025 0.054241046 0.021811586
-0.24438514 0.024936948 -0.12378136 0.0034362748 0.03362359 0.05450671 0.059630055 0.024560988
-0.0013885741 0.019582197 0.2815529 -0.0131290415 0.0077633704 -0.011092164 0.05379582 0.02643878
0.005235646 0.046015013 0.032978687 -0.10773254 -0.34290957 0.09480922 0.43672422 0.050932463
0.020955758 -0.020817038 0.031998005 -0.2038287 0.019775342 0.052083615 0.037549153 -0.011322379
0.025453657 0.049933366 0.04778427 0.00058449054 0.38910833 0.022526626 -0.031310044 0.055356126
0.03339507 0.22433949 0.051139075 -0.41721338 0.05193799 0.00065339153 0.003983167 0.0008477836
0.0035478522 0.035735555 0.0048528286 0.12830839 0.0557048 0.030315846 0.016215127 0.024022555
0.008651246 0.0018908329 0.10629877 0.0718178 0.0583368 0.018548595 0.119761236 0.040354513
0.0429396 0.43003574 0.07667061 0.23248906 0.19230746 0.04065229 0.03542567 -0.059898313
0.04143877 0.0535547 0.6309114 0.038959872 0.18390009 0.33025938 0.00675423 0.051487453
0.023692 0.058004577 0.054087438 0.048059266 0.23526545 -0.0011170545 0.15323608 0.01578782
0.03781015 0.0027918427 0.06002643 0.0053808093 0.0036165952 -0.18617588 0.0009604165 0.059049904
0.030370992 0.3029855 0.019748343 0.031187348 0.19690421 0.018938052 0.011750812 0.30255648
0.00734873 -0.04465056 0.19797549 0.041046333 0.021135442 0.027416322 0.057310395 0.022648087
0.44164383 -0.019711183 0.21274246 0.027285082 0.26890767 -0.016094353 0.026720773 0.19217055
0.02164397 0.17033646 -0.23495546 0.015969368 0.00753993 0.19285661 -0.15282995 0.040250547
0.03804553 0.038226526 -0.26430762 -0.365198 0.037805963 -0.16631584 0.3425189 0.17495108
-0.0031780119 0.015336019 0.019104898 0.022840949 0.022036567 0.31702855 0.17667234 0.48628995
0.022910193 0.028830346 0.04216129 0.0297349 0.009432705 0.25337923 -0.012578007 -0.044378735
0.30491236 0.16090772 0.02263964 0.0036945175 -0.005237278 0.020080222 0.03725601 0.0010302607
