Training/Model/model_critic_robot_subset_joint2_10.pt (torch, 282167 bytes, 5 tensors)

network.0.weight f4 [256, 14]
00000000: dd83 123f a290 253f 0f6c 6cbd 747e 063f
00000010: 5990 a13e cb53 66be 2d5f f63e 42cc febb
00000020: 7ce1 24bf 4283 0e3f 97d4 b0be e4e1 0c3e
00000030: 53ae d9bd 63db 4f3d 8d63 203f 401b ff3e
00000040: 00d8 b53e e8c1 5a3e ea74 2b3f 6ce6 54bf
00000050: b99e 873f b860 bcbe c6ba 01bf 9ace 213f
00000060: a515 52bf c814 7b3e 1401 be3e fbe2 72be
00000070: 8c36 1b3f 1d74 f13e 279d bfba a64a 083f
00000080: 6866 093f 49db 0bbf c179 963f 45bb 573e
00000090: 8150 37bf 602f 1b3f 391d dcbd 91c6 b63e
000000a0: 0616 24bd 1c09 6a3d fd3e 253f 9522 2f3f
000000b0: 7208 273e c0e7 d13e 2c39 983d c6b3 54be
000000c0: cfad 183f 847d 553e 921c 09bf e35c eb3e
000000d0: ded2 ecbc 8cf8 183e 230a af3c 1872 993c
000000e0: d04e 843e b664 243f 8314 f7be 1534 9a3d
000000f0: 5f79 f93a 1425 b83e 119c f33f 7834 373d
00000100: 10fb 50be 97e4 383f 1f55 3c3e 42df 253d
00000110: 86c2 5cbe c26f f13d 5609 953f 98eb 363f
00000120: a45a 9a3e 09f6 c63b ec8b 61bf d587 b8bf
00000130: 317e 4840 27b3 893f e1ad 8abf 19e0 993e
00000140: 38b3 783e 428d 2fbe dbe0 46bc 286b ccbd
00000150: d38b 853f e404 b7bd a1fd 543e a564 9f3e
00000160: 0ae7 243e c005 a3bf 1e98 3440 a5b6 593e
00000170: 920c d3bf 22a3 493e 991f 0b3e f56d 793e
00000180: 4587 283e 5f7d da3e 761c 8bbd 9f84 853c
00000190: 52b1 173e 8ca1 8c3d c01a 8e3d 4893 bdbd
000001a0: 7a79 823e 6af9 843d fb34 bebe 3716 60bd
000001b0: 61c0 203d 2817 12be 222e cd3d 411c e5bd
000001c0: c4ef a63e 8c90 b73d 2a38 2e3e 7c7b 4a3d
000001d0: 9c16 a4bd 3f64 18be f983 2cbd c9e6 09be
000001e0: afd4 d8bc 52f4 7b3e d7bd 87bd e3b0 eebd
000001f0: c1e8 983d ffd4 943b 738c 3a3f 6d03 433f
00000200: c0ad d7be 09d2 a03e a2e2 8a3c a8d6 12be
00000210: 4e9c a53f a3af 963e 74a2 3c3c 1356 273f
00000220: f136 833e 19d4 353e 6e89 753d 9117 a43d
00000230: 1a8f cd3f c974 e93e 1559 873d f5e9 133f
00000240: 3bf8 e2bd 2084 4bc0 7236 d5bf a377 503e
00000250: 040a 213d 0617 0c3f c8b2 103e 60d0 77bd
00000260: ac3e 5bbd ba46 21be caa8 f03e 3c18 2a3f
00000270: 9e74 5cbe cb14 703e 8db9 e0be a393 4cbe
00000280: 84ae 633f 5daf 483f 4ac0 0fbf d1fe 533f
00000290: dd36 c4bd 34c4 ab3e 44a3 21bc e46d f9bd
000002a0: a5a6 493f fe57 833e fb63 7b3e ca70 403e
000002b0: a4ea 18be 3863 bbbe a372 453f 77aa 953e
000002c0: 463f 73be a01d 5e3e 371e 6dbd 49e1 9ebd
000002d0: b1e8 47bd 7108 173e 808d 363f 7f56 263f
000002e0: 470d 713d bb27 5f3e 5ffa 21be aecc 7c3d
000002f0: 1452 ba3f 4439 9a3f f771 aabd 8ad2 2d3f
00000300: 29d5 62bb 7c08 9bbd 5b96 aa3d b56e 033e
00000310: 293d dbbb 96a3 303e 07b6 d13f 876c 513f
00000320: 7136 953d a2d8 7f3f 400c a83f 4ac4 af3e
00000330: eed2 30bf 2865 4a3f 27a2 3f3d ba31 b53b
00000340: 0e8f 103c d851 adbc 0ef7 703e aff5 743f
00000350: 8bcf f3be 24e3 6cbf bfc8 d7bf 30c1 633f
00000360: c747 10bf bf65 85be acf1 3ebf cb0a 3b3f
00000370: d1d1 383d 3f7a babd c391 17bd 4d23 6b3d
00000380: 3566 043f 1833 723f 5bad 06bf 8342 4f3f
00000390: 3810 d23e e420 04bf 72f6 4dbf bce9 e03e
000003a0: d1f4 ecbe f698 693f 01db 9abe cf0b 6e3c
000003b0: dcfd 8bbe cda2 5f3e 9cdc 06bf 2adb 9abe
000003c0: 85ce 623f ec9f 10bf e0e2 fb3e 559a 28bf
000003d0: f422 883f 1c2e 43bf b63f 25c0 afd9 b83d
000003e0: 0121 4e3d b81e bc3b f431 b2bc a946 20bd
000003f0: e167 db3d 98e2 0f3f 6055 39bf bd0d 4a3e
0.5723246 0.6467382 -0.05772024 0.525367 0.3155544 -0.22492902 0.48119488 -0.0077758143
-0.6440656 0.55669034 -0.34537193 0.13758045 -0.10628953 0.050746333 0.626519 0.49825478
0.35516357 0.21363032 0.6697527 -0.83164096 1.0595313 -0.3679254 -0.5067562 0.63205874
-0.82064277 0.24519646 0.37110198 -0.23719399 0.60630107 0.471589 -0.0014618979 0.53238904
0.53671885 -0.5463148 1.1755906 0.21067531 -0.71607214 0.60619164 -0.10747761 0.3569837
-0.040060066 0.057137594 0.6454924 0.68412143 0.16311815 0.40997124 0.0743278 -0.20771703
0.5964021 0.20848662 -0.5355922 0.45969304 -0.028909143 0.14938563 0.021367138 0.018731162
0.2584138 0.6421617 -0.48257837 0.07529465 0.0019033364 0.35965788 1.9032003 0.044727772
-0.20408273 0.722238 0.18391846 0.04049612 -0.2155858 0.11788894 1.1643474 0.7145324
0.30147278 0.00607181 -0.8810413 -1.4416453 3.132702 1.0757798 -1.0834314 0.30053785
0.24287117 -0.1714373 -0.012138571 -0.09981376 1.0433296 -0.0893648 0.20799877 0.31131473
0.1610376 -1.273613 2.8217845 0.2126108 -1.6488211 0.19691136 0.13586272 0.24358352
0.16457851 0.42673776 -0.06792538 0.01629859 0.14813736 0.0686675 0.06938696 -0.09256607
0.25483304 0.064928845 -0.37149796 -0.054708686 0.039245967 -0.14266646 0.10018565 -0.1118703
0.32604802 0.08963117 0.17013612 0.04943417 -0.08012125 -0.14881991 -0.042118046 -0.13466944
-0.026468603 0.2460492 -0.06628006 -0.11654832 0.07466269 0.0045419927 0.7287056 0.761771
-0.42124748 0.31410244 0.01695377 -0.14339697 1.2938325 0.29430875 0.011513341 0.65365714
0.25627854 0.1775669 0.059945516 0.080123074 1.6059296 0.45596913 0.06608788 0.57778865
-0.110825025 -3.1799393 -1.665724 0.20358138 0.039316192 0.5472263 0.141307 -0.060501456
-0.053526565 -0.15749636 0.47003776 0.6644323 -0.21528861 0.23445432 -0.43891564 -0.19978194
0.88938165 0.78392583 -0.56152785 0.82810694 -0.09580777 0.3354813 -0.009865586 -0.12179163
0.78769904 0.2565307 0.24549858 0.18793026 -0.14933258 -0.36599135 0.77128047 0.29231617
-0.23754606 0.21690989 -0.057890143 -0.077578135 -0.048805896 0.14749314 0.7130966 0.6497573
0.058850553 0.217925 -0.15818165 0.061718635 1.4556298 1.2048726 -0.08322518 0.6789938
-0.0034611917 -0.07569978 0.08329459 0.128352 -0.0066906405 0.17249903 1.6383675 0.81806225
0.072857745 0.9993993 1.3128738 0.34329444 -0.69071853 0.790606 0.0467855 0.0055296095
0.008823169 -0.02115719 0.23531744 0.95687383 -0.4761928 -0.9253409 -1.6858138 0.88966656
-0.56359524 -0.2605419 -0.7458751 0.73063344 0.04512197 -0.09105348 -0.037004244 0.057406712
0.51718456 0.9460921 -0.5260827 0.80960864 0.41028 -0.5161269 -0.8045417 0.43928325
-0.4628053 0.91249025 -0.30245212 0.014529183 -0.27342117 0.21839447 -0.52680373 -0.30245334
0.88596374 -0.5649402 0.4919653 -0.6586049 1.0635667 -0.7624223 -2.5820136 0.09025895
0.050324444 0.0057409666 -0.021752335 -0.039129887 0.10713173 0.5620513 -0.72395897 0.19731803

network.0.bias f4 [256]
00000000: a02f 17bf 0d67 44bf 6996 69bf e86c 1dbf
00000010: 5581 30bf 7e59 5bbd f674 9d3c 76d1 dbbe
00000020: 1294 b5be 7f57 17bf cf83 50bf 035a 4cbf
00000030: b172 23bf 3df5 38bf e3d4 14bf 4142 b0be
00000040: 5687 4fbf 7583 b93d 6bf3 40bf 9909 6cbe
00000050: 05c8 1cbf dccc 04be 0fb0 5ebf 5eb8 12bf
00000060: 3ee5 bcbe da2d 24be f7c4 8cbf ec09 38be
00000070: 46a6 51be ca80 05bf cc5a 38bf 4acc 6dbf
00000080: 447f 0dbf 64d2 01bf 85a8 b7be 62f9 2cbf
00000090: 128f 18bf a42d 9dbc da38 2bbf 2db1 c0be
000000a0: ae9d bfbd 779e 37bf c46b 11be dcc5 b9be
000000b0: 23a1 84bf 18c3 cd3e dd98 1b3d f983 41bf
000000c0: 18a4 a0be 0fe4 d6be abba dfbe f055 7dbf
000000d0: 3b41 d9be 248b 18bf 2ebc 01bf 913a 44bf
000000e0: aa79 0fbc 7ddc c6be 0f77 bebe 73b6 2ebf
000000f0: 01db 66bf 3822 70be 3b48 b6be 4fdb 25bf
00000100: 0c14 86bf 1ac2 24bf 1d5f b9be 71ac 13bf
00000110: a770 96be 969a 1bbf 7be6 07bf d340 63be
00000120: 1d65 e7be 9d0c a0bf f554 f1be aa68 a33e
00000130: 1e12 77bf 5e54 8dbf ba76 bebe 0b18 67be
00000140: cc43 1ebf 6897 fabe 88bd 88bf 50f4 8cbf
00000150: 5234 aebf 9629 acbe 60c2 00bf 0a00 4bbf
00000160: f1e7 60be a111 3ebf 75fc c2be 50d5 d2be
00000170: ad66 76be 5e23 eebe cf21 01bf 3abd 61bf
00000180: 42a0 cebe 2dfe bcbe 6124 9c3e f803 93be
00000190: c8d4 fbbe 2af7 c7bd fab9 723f ea78 80bf
000001a0: 042d b53b 40d7 57be b75b f3be 770c 01bf
000001b0: 9721 cabe 5c7e bfbe 57f4 0ebf 3b87 11bf
000001c0: c6b2 84bf 1b92 11bf 27a7 4dbf 9a4f 83bf
000001d0: 830d 00bf fee8 a7bf e113 7bbe b83a 11bf
000001e0: 3679 4bbf fe33 babe 45f4 13bf 88a9 d7be
000001f0: 1af3 1abf 0ca2 b1be 6a94 63bf 10ff 65bf
00000200: ffd3 113f 5af2 21bf 7756 acbe c828 47bf
00000210: 365d b6be 5968 03bf 49b4 bebe 7b1d fabe
00000220: 47c3 3abf 2514 b1bf 2b4f 07bf c12d 21be
00000230: fed8 31bf 30d2 3bbf a63e d7be 9a34 1abf
00000240: fcdc 2abf 347d 4ebe a4ce cdbe 91b9 30bf
00000250: 9a2a 143f 9cfd 17bf 9f8e d3be 5c06 61bf
00000260: 2601 3cbf bc79 8d3b 7725 1ebf 1a91 2abf
00000270: ded3 7ebf ff94 943e 87c8 c1bd acac 9e3e
00000280: 0003 55bf 5202 f9be e0d2 9dbe be47 8cbf
00000290: 721c c93e 63ce 56bd f102 c8be 5a5f eebe
000002a0: d48a e3be e1f8 03bf a180 15be dc1e efbe
000002b0: 4dbf 0ebf 4127 1bbf 47ff 11bf 70d8 6ebf
000002c0: 9449 0ebf 4d61 22bf b60f 85bf a994 1abe
000002d0: db5a 18be b00d c8be e324 7dbf 4b8a 65be
000002e0: 3641 a6bf 2f3b 0f3e d681 09bf affc bebd
000002f0: 7de0 f1be b311 7fbf 5e11 56be fbb4 47bf
00000300: ea22 c33e f10a ebbe 7520 a0be f692 ef3e
00000310: 5034 29bf bf07 34bf 76c7 afbe 5508 21bf
00000320: 3446 44bf 9d49 35bf 4866 27bf fc9b cbbe
00000330: 8904 88bf 096f 66bf 14ae 9fbf b86b ed3d
00000340: 6e8b 4fbf 7bc5 bc3e b2c4 9dbf d1ef 5cbe
00000350: f10a 80bf 6a46 38bf 417e 413c 4812 e7be
00000360: 64a8 f8be 0a25 babe e4bb 25bf 3788 98be
00000370: 3dfa f1be cf8a ebbe f6e9 56bf 72e2 fc3c
00000380: 2d9a 033e 0c3b 29bf 0d32 bebd 317f 92bf
00000390: 939d 57bf 418a acbe c30c fabe e24e a4be
000003a0: cec3 a3be 2e0d f5be cb95 3dbf 834b f6be
000003b0: 2163 b1be 5417 413e dc28 1abf 68c0 cbbe
000003c0: 5cc4 26bf bf2f 5fbf 8502 b1be 7e6c a1be
000003d0: eaa7 b5be 6d80 15bf 8d61 22bf 44b4 edbe
000003e0: 5cd6 c9be 0d5e 27bf 2e4d 8bbf 8d61 613e
000003f0: 239b 11bf 8326 31bd af50 d1be 2960 49bf
-0.59057045 -0.76719743 -0.9124513 -0.614943 -0.68947345 -0.053552143 0.01922081 -0.42933244
-0.3546453 -0.59117883 -0.81451124 -0.79824847 -0.6384688 -0.72249204 -0.5813734 -0.34425548
-0.8106588 0.090582766 -0.75371426 -0.23050536 -0.61242706 -0.12968773 -0.86987394 -0.5731257
-0.36893648 -0.16033116 -1.0997609 -0.17972535 -0.20473585 -0.5214964 -0.72013545 -0.92889845
-0.55272317 -0.50711656 -0.35870758 -0.6756803 -0.5959331 -0.019186802 -0.66883624 -0.37635174
-0.09356247 -0.71726173 -0.14201266 -0.36283767 -1.0361675 0.40187907 0.03798758 -0.75592
-0.31375194 -0.4197087 -0.43697104 -0.98959255 -0.4243258 -0.5958731 -0.50677764 -0.76651865
-0.008757034 -0.38840094 -0.3720021 -0.68247145 -0.90177923 -0.23450553 -0.35601982 -0.64787763
-1.0474868 -0.64358675 -0.36205378 -0.57685 -0.29382822 -0.60782754 -0.5308606 -0.22192697
-0.4519433 -1.2503849 -0.4713513 0.3191579 -0.9651202 -1.1041372 -0.37199956 -0.22567765
-0.618222 -0.4894364 -1.068284 -1.1012058 -1.3609717 -0.33625478 -0.5029659 -0.79296935
-0.21963479 -0.7424565 -0.38083234 -0.4117837 -0.24062605 -0.46511358 -0.5044221 -0.8817936
-0.40356642 -0.3691267 0.30496505 -0.28713965 -0.49185777 -0.0976394 0.9481503 -1.00369
0.005529048 -0.21078205 -0.4753091 -0.50409645 -0.39478752 -0.37401092 -0.55841583 -0.5684697
-1.0367057 -0.56863564 -0.8033318 -1.0258667 -0.5002062 -1.3117979 -0.24519302 -0.5673022
-0.7948183 -0.36367792 -0.577946 -0.4212153 -0.60527194 -0.34693944 -0.88898337 -0.8984232
0.56964105 -0.63260424 -0.33659717 -0.777966 -0.3561799 -0.51331097 -0.37246922 -0.48850617
-0.7295422 -1.3834273 -0.52855176 -0.1574011 -0.6947173 -0.73367596 -0.42039984 -0.60236514
-0.66743445 -0.20164949 -0.40196717 -0.6903315 0.57877505 -0.5937135 -0.4131975 -0.8790033
-0.7343925 0.0043174904 -0.61775917 -0.6662766 -0.99542034 0.29019925 -0.09462076 0.30991113
-0.832077 -0.48634583 -0.30824947 -1.0959394 0.39279515 -0.05244292 -0.39064744 -0.46557122
-0.44441855 -0.51551634 -0.1459985 -0.4670323 -0.5576065 -0.6060677 -0.5703015 -0.9329901
-0.5558102 -0.6342972 -1.039542 -0.15095772 -0.14878409 -0.39072943 -0.9888441 -0.22416036
-1.2988651 0.1398742 -0.5371374 -0.09325539 -0.47241583 -0.9963638 -0.20905063 -0.7801053
0.38112575 -0.45906785 -0.31274763 0.4679181 -0.6609545 -0.7032432 -0.34331864 -0.6290334
-0.7666962 -0.7081545 -0.65390444 -0.39767444 -1.0626384 -0.90013176 -1.2475 0.11592811
-0.8107213 0.36869416 -1.2325652 -0.21575858 -1.0003339 -0.71982443 0.011809886 -0.45131135
-0.48565972 -0.36356384 -0.64739823 -0.29791424 -0.4726123 -0.4600434 -0.83950746 0.030869696
0.12851782 -0.66105723 -0.0928689 -1.1445066 -0.84224814 -0.3369923 -0.4883786 -0.32091433
-0.31985325 -0.47861618 -0.7405669 -0.48104486 -0.34645942 0.18856555 -0.60218596 -0.39795232
-0.6514337 -0.8718223 -0.34572235 -0.31528085 -0.3547967 -0.5839909 -0.634301 -0.46426594
-0.39421356 -0.65377885 -1.0882928 0.22009869 -0.56877345 -0.04324962 -0.4088187 -0.78662354

network.2.weight f4 [256, 256]
00000000: e117 60bd 1dda c0bd 0e20 68bd 1bc8 abbd
00000010: d73e b6bd a80b 60bd e9c9 1fbb 20d2 4fbd
00000020: 3b80 2bbd dbe5 ab3c faa5 1cbc cbf9 00bb
00000030: 23b2 7ebc f8f4 c93c 60f8 cf3a 4c39 4bbd
00000040: 07bd 5e3b b5ad d13c a753 75bd 87c7 4dbd
00000050: 0816 2abb f679 2abd c34c 563d 4cc9 64bd
00000060: e255 09bd 3cf7 bcbd 9a10 5dbd 05a4 7f3c
00000070: 2d68 92bd 18cb 96bd 59d6 7ebc f605 26bd
00000080: fc29 e7bb b448 adbc 9b46 2e3c ef45 38bd
00000090: ebc1 71bc 1f71 94bc 7476 eebd 77f4 ed3b
000000a0: 77aa 873c c6c9 42bd 93f4 80bc 8007 98bd
000000b0: 4057 a8bd 0140 18bd 440e 483c 0907 b8bd
000000c0: d4eb 403c db58 0dbd c0fb 3ebd e005 7cbd
000000d0: a3c0 7dbd 6fca 97bd 01f4 b4bd ff93 7fbd
000000e0: 3055 05bd a837 42bc 5a86 d53b dbdd f13c
000000f0: ae4c 37bc cf06 a8bd 5a02 8fbd 5e82 26bd
00000100: 4874 81bd 6ce4 da3c cb96 fe3b 5b63 77bd
00000110: 3ce1 96bd 8e70 24bb e08b 603c e3d6 063d
00000120: 2892 4dbd 7818 83bb b090 98bd 1dce bcbc
00000130: b54f 63bd 5d55 f6bc 7f7e b6bd 1ca2 abbd
00000140: 63f2 71bc 3ff6 1dbc 4803 66bd 3973 2cbd
00000150: 9733 7ebd cb0e 7cbd 2e22 06bd 966c 6ebc
00000160: 6363 5bbd 00fc 78bd f2e9 a53c b29c c93b
00000170: 4161 79bc 32a4 35bd 6ee6 e1bb f877 2a3d
00000180: 90bc 21bd d48e a6bd ab63 c8ba a820 42bc
00000190: fcdd b7bd 1641 70bd 237f 02bd 75b3 6bbb
000001a0: 3a15 893c 7218 96bd 1584 91bc ce33 33bd
000001b0: ea9f 73bd fb3d d8bc ce72 83bc 4729 4bbd
000001c0: d230 98bd 905a d1bc 218f 7ebc 2ac6 e63d
000001d0: 481e aabd adde cfbd 94bc 78bd 5a47 91bd
000001e0: 73b6 c63c ee3b 50bd aab9 c0bd 8da9 86bd
000001f0: 2397 90bd d223 a4bd 0d9f 77bd ccd3 24bd
00000200: b31e 683c c290 ba3b 5fca 4bbd 7814 e4bc
00000210: b610 a0bd 0778 9fbc b63e 26bd f504 a33c
00000220: ef8c 253d 7696 5ebd ce97 59bd 38e4 d93c
00000230: 4eff 5f3d 00a9 43bd 9a34 87bc eb5a a8bd
00000240: 1884 02bd 4a45 db3c 35b7 b5bd 5d61 d9bc
00000250: 756c 86bd 1084 d5bd 7a97 ffbc fc94 58bd
00000260: 2940 bf3c 1cfd a1bd fb57 b5bd 2782 563c
00000270: 3781 40bd ae78 1c3b b830 96bd 70ed 233d
00000280: 4694 5dbd f255 c53a a83d 4bbb 7c70 d83b
00000290: b48d c23b 675a 5b3c f3b5 e1bc 9bb5 d83c
000002a0: ce27 683d 0243 73bd e021 4c3c f7f1 35bd
000002b0: 83ba 33bc e7d6 633c bd7e c6bd da61 803c
000002c0: 66be 90bd 5127 b6bc 9e9c 41bd e0b2 223b
000002d0: 94da 4dbd b548 45bd 5111 77bd 5719 8abd
000002e0: 823c d0bd d65e 71bd 0a67 863a 4758 a5bd
000002f0: c415 9dbd d757 523b 05ce ecbb 6c1d 8a3b
00000300: ef3d d83b ab88 d63c f66a a2bc 8c9d abbd
00000310: a028 99bd 0603 d73c 31a8 8eba 93e6 9d3b
00000320: 2d9c 24bd 0c45 5ab9 cc25 d5bb 814a 77bd
00000330: f7ce c4bd d497 a2bd a958 253c d23f 323c
00000340: 107c 0d3d c805 82bd 2d03 98bd 4664 9fbd
00000350: bcfd dfbc 3293 b1bd 147b 5fbd 7baa bc3a
00000360: 029e bd3d 3420 933c 4be9 14bc 60e7 a2bc
00000370: aa6d bcbd 3be6 95bd 4c02 7e3c d4ce 06bd
00000380: 430e 8abd 8f71 acbd 86c1 86bd bb75 a4bd
00000390: ffe9 90bd 7ac8 793c 29bc a33c 38f0 c0bd
000003a0: 8313 1fbc 417e 3bbc f832 c4bd 017b 1abd
000003b0: 9afe a9bd cbb2 a1bd 9ab6 5fbd 7a5d 8bbd
000003c0: 3d2c 55bd 95ff 8abd 155f 48bd 84b2 78bd
000003d0: 5fb6 87bd 1aeb aebc 9f88 4bbd 92d8 b0bc
000003e0: 6185 b7bc d559 273d e38f 1abc 0c35 ea3c
000003f0: 1c73 c4bc 9161 88bc 2325 68bd 60ba 433c
-0.054710273 -0.09416602 -0.056671195 -0.083877765 -0.088987045 -0.054698616 -0.0024381822 -0.0507375
-0.041870337 0.020983627 -0.009561056 -0.0019680138 -0.015545401 0.024652943 0.0015866868 -0.04961519
0.003398718 0.025595525 -0.05989423 -0.050239112 -0.0025953073 -0.041620217 0.0523193 -0.055856034
-0.03352917 -0.09226844 -0.05397091 0.01560307 -0.07148776 -0.07362956 -0.015554034 -0.04053303
-0.0070545655 -0.021152832 0.010636951 -0.04498857 -0.014755706 -0.018120347 -0.11643687 0.0072618085
0.016560776 -0.047555707 -0.015741622 -0.074233055 -0.082197666 -0.037170414 0.012210432 -0.08985717
0.011774976 -0.034508567 -0.046626806 -0.06152904 -0.06195129 -0.07411658 -0.088356026 -0.062397
-0.032551944 -0.01185409 0.00651626 0.029524734 -0.011187715 -0.08204424 -0.069828704 -0.04065167
-0.06321007 0.026720248 0.0077694408 -0.060397487 -0.07367179 -0.0025091502 0.013705224 0.032919776
-0.050188214 -0.0040007196 -0.07449472 -0.023047501 -0.055495936 -0.030070001 -0.08910846 -0.08380529
-0.014767262 -0.009641229 -0.056155473 -0.042102072 -0.06206092 -0.061537545 -0.03274744 -0.014552256
-0.05356158 -0.0607872 0.020253155 0.0061527127 -0.015220941 -0.044346042 -0.0068939244 0.041618317
-0.039486468 -0.08132711 -0.0015288492 -0.011848606 -0.08977887 -0.05865582 -0.03185953 -0.003596512
0.016733754 -0.07328881 -0.017763177 -0.043750577 -0.059478678 -0.026396742 -0.016045954 -0.049599912
-0.07431187 -0.025555879 -0.015537054 0.112682655 -0.08306557 -0.10149894 -0.060726717 -0.07093687
0.02425692 -0.050838403 -0.094104126 -0.06575308 -0.07060077 -0.08014645 -0.060454417 -0.040241048
0.0141674755 0.005693526 -0.049753543 -0.027841792 -0.07815687 -0.019466413 -0.04058715 0.019899825
0.040417608 -0.05434271 -0.053123288 0.026598081 0.054686837 -0.047768593 -0.016504575 -0.08220466
-0.031864256 0.026766438 -0.088728346 -0.026535684 -0.06563655 -0.104255795 -0.03120016 -0.052876458
0.023346024 -0.07909605 -0.088546716 0.013092554 -0.04699823 0.0023875642 -0.07333511 0.04002136
-0.054096483 0.0015055521 -0.0031012092 0.006605206 0.0059373025 0.013388253 -0.02755258 0.026453784
0.056678586 -0.059390076 0.012459248 -0.04442021 -0.010969761 0.013906217 -0.09692142 0.01567166
-0.070675656 -0.022235544 -0.047268502 0.0024825856 -0.05025728 -0.048165042 -0.06031925 -0.067431144
-0.10167791 -0.058928333 0.0010254097 -0.08073478 -0.07670167 0.0032095814 -0.007226708 0.004214933
0.00659918 0.026188215 -0.019826394 -0.08379659 -0.07478452 0.026246559 -0.0010883865 0.0048187464
-0.040188003 -0.00020815822 -0.00650475 -0.060373787 -0.09609788 -0.07939115 0.010091939 0.010879474
0.034542143 -0.06348759 -0.07422481 -0.077827975 -0.02734267 -0.086706534 -0.054560736 0.0014394069
0.09258653 0.017959692 -0.0090888245 -0.019885719 -0.09200604 -0.073193036 0.015503477 -0.03291209
-0.067410015 -0.08420097 -0.065798804 -0.08030268 -0.07075881 0.015245551 0.019987183 -0.09420818
-0.009709242 -0.0114436755 -0.09580034 -0.037714962 -0.083005145 -0.0789543 -0.0546175 -0.068049386
-0.052044142 -0.0678703 -0.048918802 -0.06071712 -0.066265814 -0.02135234 -0.04969084 -0.021587644
-0.022402467 0.040857155 -0.009433719 0.028589748 -0.02398067 -0.016648086 -0.05667604 0.011946291

network.2.bias f4 [256]
00000000: 5151 89bd 2ba0 8abd 5c10 b5bd e253 adbd
00000010: 8a1b d2bd d992 d9bd af1d 4ebc ab2d 103c
00000020: 1f77 67bd 0887 10bb 03e1 ecbd 46e5 5abd
00000030: 3737 eabc 1153 7cbc 2216 febe 2de1 d43d
00000040: e3e4 95bb 51f5 3abe 7288 60bc 5bc6 1abc
00000050: d67b 31bd ca5b d9bd 29e5 91be 0459 bebd
00000060: 9e00 08bf 405a 4dbd 3930 3cbd 76c8 2abe
00000070: ba22 ae3f e7da d73d c577 3cbf ad6a 57bd
00000080: 5f5e a6bd 12e6 abbd d07f d2bd 1738 dfbd
00000090: 240e 48bd 745c 45bd 16a2 a33e 1e6e b0bd
000000a0: 38d2 d8bd 33a9 193f 74fc 77bd c076 ecbd
000000b0: 728f 5ebd 3611 e8bd 1d38 babc b507 eebd
000000c0: 9fa9 30be 6c3c c2bd 0c1f 6f3e 1e58 9ebc
000000d0: 0f3c 73bd 9acd 5a3c 49ea 43be 5f2a f5bc
000000e0: f3ad 07be 3d3a d5bd 9115 e4bc 3594 cfbd
000000f0: 46ee 18bd f823 6e3e b365 6fbd 7c7f b2bd
00000100: beef da3e 8d46 65bc 9045 d4bc 3edf 133f
00000110: ee79 b0bd 7587 3fbe e9f6 853f 4b4e e63e
00000120: 4d6d bcbd b21e 05bd 5cc9 053e b981 e9bd
00000130: 9588 e4bc 7be2 e9bd d58d d5bd d287 2bbc
00000140: 8eed d1bb f7df 5b3a 51cb f1bd 5933 acba
00000150: 76e6 a2bd 5bea 91bd e381 b6be e4de 1d3d
00000160: 769a a7be 0a46 d4bd 651f a5be 42df 8c3e
00000170: c14b d7bd 0e48 82bb a089 3a3e fa37 3fbe
00000180: bc64 e63c 72da aebd 53d4 6ebd 2db6 7fbb
00000190: 31dc 1d3f 8394 21bd 4301 fd3c 7a7f 1abd
000001a0: 2e72 b8bd 6aa4 95bd 1aa5 43bd a5b3 43bd
000001b0: 6ca5 c0bd fa39 45bd 87af 163f 8669 afbd
000001c0: bc44 8b3e f256 dfbd 69c3 d53e 588c bbbd
000001d0: 4362 e8bd c9e9 a2bd 9407 f8bd d87e c1bd
000001e0: 50c0 22bd 9b06 eabe 1046 9e3b c16c 5dbd
000001f0: 1f99 433f 622c ddbd 2d73 c9bd d31a 2dbd
00000200: 71e8 5fbd d5dd 9fbd d1ab 02be cefe 74bd
00000210: 071c 103f 5edb f7be 0057 1e3f 2a70 2dbd
00000220: 2e3e 6dbc b6fb d7bd 0ce5 6fbe e4e9 0e3d
00000230: 150b aabe 669e 63bd 4db7 9dbd 9de7 9dbd
00000240: cc40 abbd 9bc5 f33e 3572 533f 92be 843d
00000250: bf67 cfbd a0be 93bd c0c7 783e 409f 90bd
00000260: 2ec9 a7be 8b9e f8be d7c0 adbe f0ce ecbb
00000270: 9786 ebbc b87f b2bd 1d72 833d 7449 7fbd
00000280: 5513 693e 8b47 cebc 1b0c 7abe ac60 9fbe
00000290: a395 06bf 3712 cabd dadf 17bf 73a1 61bd
000002a0: 1b3d 91bd 1c41 76bd 3cff bcbc ae34 12bd
000002b0: ec07 18be 4888 39bd af2b 30bd 854a 4abc
000002c0: 5272 a7be b86d bdbd 54fc 4ebd 9a8f 463c
000002d0: a165 1e3f c4d8 54be efb4 bcbd 4397 0f3e
000002e0: d918 7cbd 08fc 52bd 7cc0 573e c6a0 6abd
000002f0: 7d07 a03e ae09 9dbc 705c e9bd b160 70bb
00000300: 07e5 9bbd 2237 42bb 4773 c1bd e134 e0bd
00000310: 8685 893e bf83 67bc a62f e5bd 124d babd
00000320: cd2c f5bd c49c 173e 3694 b43e fc8a 0dbe
00000330: de25 373e 3b60 91bd c7d5 a03d 2841 94bd
00000340: 7ee5 c1bc 75ee 1dbf 9d2d cebd 578b 76be
00000350: 012f 86bd 9270 fb3e 06d0 4d3c 88dd f3bd
00000360: eca8 8ebd f27c 9a3e 5aae f43d e90b 933e
00000370: 0c9a 7dbc 8dae 99bd 0dc3 11bc 7106 593f
00000380: 868c 37bd 0528 f13d 211a d3bc 547a 80bd
00000390: 6e11 c1bd 7f91 2abd 300c 9bbc 9dbc 00be
000003a0: 6423 983c f5ec d33d e126 af3e e725 2dba
000003b0: 4dd0 cdbd abb4 c7bd 5f4d 2cbd fb09 2bbd
000003c0: d5c6 50bd 5e91 1fbd e6cc 7b3b 1c88 3f3a
000003d0: 6618 033e 4539 49bd 534f bd3e 992c c5bd
000003e0: 1354 53bd 92ec afbe edd1 22bd 46f8 f2bc
000003f0: fd04 c23d a0d0 a1bb 4cbc 0bbd a170 f1bd
-0.06704963 -0.06768831 -0.08841011 -0.08463265 -0.10259159 -0.10623712 -0.012580319 0.008799951
-0.056510087 -0.002205314 -0.11566355 -0.05344131 -0.028590782 -0.015400664 -0.4962626 0.10394511
-0.0045744046 -0.18257643 -0.013704406 -0.009446706 -0.04333099 -0.106132105 -0.28495148 -0.09294322
-0.5312594 -0.050134897 -0.045944426 -0.16678032 1.3604348 0.10539799 -0.73620254 -0.05259197
-0.081234686 -0.08393492 -0.102782845 -0.1089937 -0.04884161 -0.048183873 0.319596 -0.08614753
-0.10586971 0.600238 -0.060543492 -0.11546087 -0.05433602 -0.11331408 -0.022731835 -0.11622564
-0.17252205 -0.09484181 0.23351687 -0.019329127 -0.05938345 0.013354683 -0.19132341 -0.02992743
-0.1324995 -0.10411499 -0.027842315 -0.1013569 -0.03733661 0.23255908 -0.058446597 -0.08715722
0.42761034 -0.013993871 -0.025912076 0.57762516 -0.08617006 -0.18704017 1.0465976 0.44981608
-0.09200535 -0.032499976 0.13065094 -0.11401696 -0.027897159 -0.11420151 -0.10427443 -0.010469394
-0.0064064926 0.00083875604 -0.11806358 -0.0013137861 -0.07954113 -0.07124778 -0.3564597 0.038542643
-0.32735032 -0.103649214 -0.32250515 0.27514082 -0.10512496 -0.0039758747 0.18216562 -0.18673697
0.028124206 -0.08537759 -0.058307957 -0.0039018497 0.6166411 -0.039448272 0.03088439 -0.037719227
-0.09006153 -0.0730675 -0.047764875 -0.047778744 -0.09406552 -0.048150994 0.58861583 -0.08565049
0.27200878 -0.109052554 0.4175065 -0.09157628 -0.11346867 -0.07954747 -0.121108204 -0.09448022
-0.039734185 -0.45708165 0.0048301294 -0.054058794 0.7640552 -0.10799481 -0.09836421 -0.04226191
-0.054665033 -0.07805983 -0.12760855 -0.059813313 0.56292766 -0.4840955 0.618515 -0.042343296
-0.014480157 -0.10546057 -0.23427218 0.034891024 -0.3321158 -0.055570982 -0.077009775 -0.07710192
-0.083619684 0.47611699 0.8259614 0.06481661 -0.1012721 -0.07214093 0.24294949 -0.070616245
-0.32770675 -0.4855846 -0.33936188 -0.0072268173 -0.0287507 -0.08715767 0.0641825 -0.06232591
0.22761281 -0.025180599 -0.2441868 -0.31128442 -0.5257208 -0.098667555 -0.59325945 -0.05508561
-0.07091733 -0.060120687 -0.023070924 -0.03569477 -0.14846772 -0.045295984 -0.04301041 -0.012346868
-0.32704407 -0.09249443 -0.050533608 0.012119198 0.61873823 -0.20785815 -0.09214198 0.14022546
-0.061547134 -0.051509887 0.2106952 -0.05728223 0.31255713 -0.019169655 -0.11394584 -0.0036678726
-0.07612043 -0.0029634912 -0.094458155 -0.10947586 0.26859683 -0.014130532 -0.11190729 -0.09096731
-0.11971436 0.14805895 0.35269326 -0.1382255 0.17885539 -0.07098433 0.07853275 -0.0723899
-0.023669 -0.6169198 -0.10067294 -0.24076591 -0.06551934 0.49109322 0.012561804 -0.11907488
-0.06965813 0.3017345 0.119473174 0.28720024 -0.015478622 -0.07503996 -0.008896601 0.84775454
-0.044811748 0.11775211 -0.025769295 -0.06273332 -0.094271526 -0.041642662 -0.01892671 -0.1257195
0.018571563 0.1034793 0.3420935 -0.0006605074 -0.10049496 -0.097512566 -0.042065974 -0.041757565
-0.05097087 -0.038956992 0.003842169 0.00073063537 0.12802276 -0.049126882 0.36974582 -0.09627647
-0.05159385 -0.34360176 -0.039750982 -0.029659402 0.09473608 -0.0049382 -0.03411512 -0.117890604

network.4.weight f4 [1, 256]
00000000: 39b3 fdbc 664e 323d 0cc5 8d3b 110c 703c
00000010: 4f39 e03c aa76 32bc c0f0 1a3c f9ce 31ba
00000020: f9ce 263f 1cc5 5d3d d6be 453d 33de f83c
00000030: d2de da3c fc66 a03c 3224 be3d d4b4 1b3e
00000040: 8151 733c 893a d43e 160e 7f3c 0420 143c
00000050: 939f 823c 1a09 97be 3598 643e d1da 5e3c
00000060: 83f6 833d 282e 413d fd79 d83c dda9 f13e
00000070: 23a5 70be a7e6 3e3e effc a53e f2b2 203c
00000080: 1baf d33c f0a5 3f3d b059 e33c c481 1a3d
00000090: 955f 653c e1a3 0b3d dbd8 8fbe 19a1 e43c
000000a0: d23f 533c 7228 a7be 9e7a bc3c 9a1d 8f3c
000000b0: ebb2 323d 05e4 3c3c 0771 703d 024d 00bb
000000c0: c39f 473c defb 723d 8aa5 b0be 322c ae3c
000000d0: 58bb cb3c 9eb3 e2bc 6909 003e e6b1 70be
000000e0: 4548 3a3d f04d 483c 7fa6 e43c 4738 633d
000000f0: 18dc d8bb 7f4a 3bbe 52c5 503d f8b3 3d3d
00000100: 853b bfbe 1954 283d 090d 443d 7098 4abe
00000110: 21b3 ba3c c80e 233e d724 a2be 0060 503e
00000120: 0d6d 8d3c cf58 133d 27bd 85be 323b db3c
00000130: 5fda 7b3d 9938 d93c 6686 b1be bfd8 a83c
00000140: f7e2 8d3a c466 113d 1baf 2dbc d9ed 063d
00000150: 545e c73b 50f3 c93b 720a a7be d361 93be
00000160: c37f 883e 3315 a0be 33d2 ddbe 58f0 513e
00000170: bff4 613e adb5 3f3d 0bd5 51be 481d f3bd
00000180: b3ae 6d3c 5ef9 4f3d 2dbe 613d 96d6 55b8
00000190: 5b5e 7b3e 6577 933c 2c2d 773e 45cf e13c
000001a0: a555 533d 66ae 00bd 672c a03c be7a 463d
000001b0: 3e00 983c cf08 033b 7b9b de3d 4605 ad3c
000001c0: f0c5 01be 4040 2a3e 6d29 d5be d04f d33a
000001d0: b4f9 a13c 06a0 f23c d402 9e3c 20b5 1d3c
000001e0: 0dfa 133c 19a3 343f be9d d23c 71c5 65bc
000001f0: 76d4 473e a9d6 443d b79e 093d 10a1 1dbd
00000200: 4ea2 12be d40e b93c 3afa 39bd 4ece 5a3d
00000210: 50aa f2be 43f6 84be 2e57 753e b95a c3bc
00000220: 6081 8f3c 406b 4a3d 8391 963c 6285 cabc
00000230: c3db 0d3e 72d2 283d fdeb 493d c612 2e3d
00000240: 70db e3bc 1077 973e 485a b73e a739 b13b
00000250: 53ee 4a3d d420 fb3c b441 e6be 65e7 1c3d
00000260: 8921 f03e 0bfd c0be b9df bf3e 10a6 08bb
00000270: f371 4bbd b23f 7abe 8663 2a3e ed9c 36bc
00000280: b315 8abe 0aa4 fc3a e7f6 563e 1720 d43d
00000290: d25f 2c3f bad1 d23b 9ef8 833e 4ee0 553e
000002a0: 6a7d e73b 6abb 383d 7b92 91be 7e58 533d
000002b0: be67 b93e 16a5 eb3c 1520 e9bc baa3 053d
000002c0: 1a64 b0be 73fb 013c 873d 323c 22fe 8e3c
000002d0: 856c 003e 6511 f7bd deb2 313d 332a f6bc
000002e0: 196a 5c3d cdec 7a3c fd7f e43e 0c81 633d
000002f0: 6d1a a73e 68b8 233d 37b2 3c3d c987 3c3d
00000300: 877d 533d 72dc 5abc 04b2 09bd 7282 ca3b
00000310: 3f96 fbbe 17b1 17bf 9330 0e3d d097 143c
00000320: 0bd4 a13b b5d3 9ebe 86c3 e23d 125e 023f
00000330: 1949 883d 8ae2 05bd 5eed 2e3d bf1b f23b
00000340: 3e38 e33c b8d3 c9be cb0e 2e3b b1e8 f2bd
00000350: 0480 97bc cf06 903e 526d 663e 46a1 fe3c
00000360: 8f49 283c a3b9 943e ab08 8dbe d187 843e
00000370: 00f4 353c e0e2 dd3c c0bf 4c3d a9b9 1d3e
00000380: 4f41 573d 5336 6d3e e819 583d 9d27 44bd
00000390: 14a0 633d 1dab 383c 3425 373d 2905 683e
000003a0: c8dc bdbc 932f 043f 2738 a73e 1f07 933b
000003b0: 242e 3a3d c6f9 103d 111f 433c d192 aaba
000003c0: d825 ab3b a14b 453d 2bcf 1f3c 0f65 143c
000003d0: 2e94 243e 7ceb 523d 3158 383e 0edf cf3c
000003e0: 7fcf f13c ed8d 5fbe 02e9 14bb 6702 25bc
000003f0: ce64 e33b a44a f43b 3093 053d 68de 763c
-0.03096925 0.043531798 0.0043264683 0.014651314 0.027371077 -0.0108925495 0.009456813 -0.00067828555
0.65159565 0.054143056 0.0482777 0.03037939 0.026717577 0.019580357 0.092842475 0.15205699
0.014850975 0.4145091 0.015567323 0.009040836 0.015945232 -0.2949913 0.22323687 0.013601975
0.06443503 0.04716316 0.026425356 0.47199908 -0.23500495 0.18642674 0.32419536 0.009808289
0.025840333 0.04678911 0.027752727 0.03772141 0.013999839 0.034091834 -0.28095135 0.027908849
0.012893634 -0.32648045 0.023007687 0.01747017 0.04362766 0.0115289735 0.05870154 -0.001957715
0.012184086 0.05932223 -0.34501296 0.021261308 0.024869606 -0.027673539 0.1250359 -0.23505363
0.045479078 0.012225613 0.027911423 0.055473592 -0.006618034 -0.18290137 0.05096943 0.04631421
-0.37350097 0.041095827 0.047863994 -0.19784713 0.022790493 0.15923607 -0.31668732 0.20349121
0.017263914 0.035973366 -0.26120874 0.026761625 0.06148755 0.026516246 -0.3467285 0.020611165
0.0010825087 0.035498396 -0.01060083 0.032941673 0.006084243 0.0061630383 -0.32625157 -0.2878557
0.26659974 -0.31266174 -0.43324432 0.2050184 0.2206602 0.04680412 -0.20491426 -0.11870819
0.014506984 0.050774924 0.055113006 -5.0983006e-05 0.24547713 0.018001268 0.24138325 0.027564654
0.05159535 -0.03141632 0.019552423 0.0484569 0.018554803 0.0019994264 0.10869499 0.021120679
-0.12673163 0.16626072 -0.41633168 0.0016121808 0.019772388 0.02961732 0.019288458 0.009625703
0.009031785 0.7056137 0.025709983 -0.0140241245 0.19514641 0.04805628 0.033598628 -0.03848368
-0.14319727 0.022590078 -0.04540465 0.053419404 -0.47395563 -0.25969133 0.23959038 -0.02384697
0.017517745 0.049418688 0.018379932 -0.024721805 0.13853364 0.04121632 0.04929732 0.042498372
-0.027814597 0.29583025 0.35811067 0.005408484 0.04954369 0.030655302 -0.44972003 0.038306613
0.46900585 -0.37693056 0.37475374 -0.0020850934 -0.049669217 -0.2443836 0.16639528 -0.011145812
-0.2696968 0.0019274962 0.20992623 0.10357683 0.6733371 0.0064336928 0.25775617 0.20886347
0.007064511 0.045100607 -0.28432068 0.051598065 0.36211962 0.028765243 -0.02845768 0.032626845
-0.3445137 0.007933485 0.010878927 0.017455164 0.12541397 -0.120638646 0.04338347 -0.030049419
0.05381212 0.015315247 0.44628897 0.05554299 0.3263735 0.039970785 0.046068396 0.046027932
0.051633384 -0.013358222 -0.033617035 0.006180101 -0.49138066 -0.5925459 0.034714293 0.009069398
0.0049386076 -0.31020895 0.110724494 0.5092479 0.06654567 -0.032686748 0.04270684 0.0073885615
0.02773678 -0.3941934 0.002655911 -0.118607886 -0.01849366 0.28130195 0.2250264 0.03108276
0.010271444 0.2904788 -0.27545676 0.2588487 0.011105537 0.027085721 0.049987555 0.15402855
0.052552518 0.23165254 0.05275908 -0.04788934 0.055572584 0.011271265 0.044713214 0.22658218
-0.023176566 0.5163509 0.32660028 0.004486933 0.04545416 0.035394453 0.011909262 -0.0013013725
0.005223017 0.04816783 0.009753983 0.009057297 0.16072151 0.051494107 0.18002392 0.025374915
0.029517887 -0.21831484 -0.0022721891 -0.010071374 0.006939507 0.007455187 0.032611072 0.015067674
