Training/Model/model_actor_robot_subset_joint5_101.pt (torch, 279095 bytes, 6 tensors)

network.0.weight f4 [256, 10]
00000000: 3ffd 65be 1e9a 53be 7eac 2b3e 9635 193e
00000010: 104a 8d3e 7f7e aa3e 44d5 9a3e 5319 4e3d
00000020: 79c6 7fbe ed81 1b3f c80f 613d 82a9 3cbe
00000030: 804e 2f3d 1463 5ebe b0df adbc 7874 17be
00000040: 4058 9ebe f4b0 f13d d6ad 61be 205d 09bd
00000050: 282a 533d 2c3a 3dbe 0212 dfbd 7900 9fbe
00000060: 8088 45bd 4e53 123e be83 40be 26e2 98bd
00000070: 561f 56be a272 573e 5132 54be 90eb 71bd
00000080: ea97 bf3c 25a7 edbc d22d 85be e6de 213d
00000090: bd05 1ebe d10f 323d 2c8f 79be 36ea bb3e
000000a0: cee2 583e c02a 363d e1f1 283e ea83 80bd
000000b0: 7394 533d 4147 403e e3a6 b9bd bddd 973d
000000c0: cb4e cc3d a1bd 6dbe bdc3 0abe 9c08 da3d
000000d0: 34b4 063e 0545 85be 475a b5bd 7ef1 273e
000000e0: 19aa ecbd d6f9 2c3e 9d45 f63d 874a 8d3e
000000f0: 93de 8bbe acbc 56be 3b27 f6bb cd48 073e
00000100: b6ad 293c 8278 4dbe 4b6a fe3c 369e 9a3e
00000110: 0a66 0abd b777 973e 6055 553d 0050 97bb
00000120: c0b9 64be 482c 4ebe 92a4 93bd 61a3 983e
00000130: dfb1 8f3e b2de 89be 0c6f 38be d884 823d
00000140: ea25 cfbd 4604 4e3e 606f 60bd b8a5 6ebe
00000150: 36cb 3abe 2b0f 993e 60ac 3abc bc43 003e
00000160: 40b7 773c 203e 3c3c 3633 703f afbc 073f
00000170: 007a 60be ee80 b13f f19d 1ec0 8b8c 413f
00000180: fa33 a1c0 4b2b 57bf 8aa8 3e3e 1fce 8fbe
00000190: 3343 98bd 114e 503e 4ca7 6cbe 538f 89be
000001a0: 026c 15be 53de 503d 75e3 79be 8546 0c3e
000001b0: 5991 d1bd 69ba 13be 7c51 79be 2026 ce3d
000001c0: de77 6cbe 0cee aabc f0a7 33be 298f 25be
000001d0: 8647 8d3e 99ea c2bc 63b5 4dbe 3a00 983c
000001e0: 0272 103e fce8 42be 9acd 953e 1c74 cbbe
000001f0: 6574 eabe 7db9 d83e 0e3e 1bbf 2f78 9fbe
00000200: 8377 8bbe 7e88 d23d fea8 87c0 b8c8 f9bf
00000210: d48b 8dc0 5435 1ac0 ee8e 9ac0 9518 54bc
00000220: 6242 0c40 2fb4 94bd 774f 4b3e b2c6 3b3e
00000230: fb46 bfbf cfe5 1dbf da66 3b3f 7841 25c0
00000240: 5e5f ac3f 6903 ff3f 41ac 893f 1725 253f
00000250: ec6f 5b3d 8694 49bf 3642 b8bd 912f 95be
00000260: 3782 27be 2037 013e 66ac 30be c777 a03e
00000270: ec2f 3bbe a048 9d3c 66a0 f7bd 43df 99be
00000280: c550 283f 9659 d93e b5a7 cdbf d455 0b40
00000290: fc2d 52be eed3 b0bf deb8 b640 751a 41be
000002a0: 1064 aebe 8053 c13e efca 07be bcd4 4a3e
000002b0: 1d5b b13e 3fe8 4abe f927 afbe 8b91 6cbd
000002c0: 68a4 5b3d 955c 88bd f2aa 64be 88fb d03d
000002d0: 58e4 35bd 46bc 99be 07ad 0ebe e06c c5bc
000002e0: 24cc 80be f667 663e 969d 4f3e 5624 9fbe
000002f0: 9816 0c3d 06e1 1abe 6be5 8e3e f62d 143e
00000300: 30b4 383d c302 973e 2c9b 1b3e b4eb c43d
00000310: 20ad 14bc acda fc3d 2018 1fbc 00b6 f13c
00000320: 1fc1 9cbe dd67 20be 5c25 173e 92ff 1cbe
00000330: 6a9e 663e 8f09 953e 001a c5bc 6499 273e
00000340: c8c5 96be a8d3 66be 2198 893f 0d5e 4d3f
00000350: abe9 70bf 0858 1340 663c 5ebe b20e b2bf
00000360: 0ed5 ba40 33a4 22be 503b e8bd 0590 943e
00000370: 87f2 563e 5a51 e1bd 3e50 873e f985 b8bd
00000380: 85fa cfbc 5971 2e3d 8137 913d 46d7 1fbb
00000390: 35d3 313e 5c7a 693e 5f8c 84be 2f3c 9e3e
000003a0: 9e48 193f d006 62bf d49f 1f3f 4f36 1d3f
000003b0: 5511 613e 4993 0a3f 4c47 8cbe 973d d63e
000003c0: 999a 68be 5e88 413e feac 52be 755a 953e
000003d0: fcbd 31be 1810 bb3d 0057 b9ba 4caa 023e
000003e0: e06f 7dbe 48d2 123e 02d5 633f 4b06 5a3e
000003f0: 2f4d a0bf aeff 0140 bcff 6cbf cff9 a8bf
-0.22459887 -0.2066426 0.1676502 0.14961848 0.27595568 0.33299634 0.30240834 0.05031712
-0.24978055 0.60745126 0.05494669 -0.18424037 0.042799473 -0.21717483 -0.021224827 -0.14790523
-0.30926704 0.11801329 -0.2203897 -0.033536077 0.051553875 -0.18479222 -0.108921066 -0.31055048
-0.04822588 0.1428959 -0.18800256 -0.074650094 -0.20910391 0.21039823 -0.20722319 -0.05906254
0.023387868 -0.029010365 -0.2601152 0.039519213 -0.15431876 0.043472115 -0.24371022 0.36702126
0.21180269 0.044474363 0.1649852 -0.062751606 0.051655244 0.18777181 -0.09065034 0.0741534
0.09975966 -0.23216869 -0.1355123 0.10646173 0.1315468 -0.2602922 -0.0885511 0.16400716
-0.11555881 0.1689218 0.120249964 0.27595922 -0.27318248 -0.2097041 -0.007512001 0.13211365
0.010356357 -0.20065501 0.031056544 0.3019883 -0.03378872 0.29583523 0.052083373 -0.004617691
-0.22336483 -0.2013408 -0.07209124 0.29812148 0.28065392 -0.26927716 -0.18011111 0.06372994
-0.101146534 0.20118818 -0.054793715 -0.23305404 -0.18241581 0.29894385 -0.011393636 0.12525839
0.015119374 0.011489421 0.9382814 0.53022283 -0.2192154 1.3867471 -2.47839 0.75605077
-5.037595 -0.84050435 0.1861898 -0.28086945 -0.07434692 0.2034228 -0.23110694 -0.2686716
-0.14591983 0.050993275 -0.24403174 0.13698776 -0.10232801 -0.14426579 -0.2434749 0.100658655
-0.230926 -0.020865463 -0.17544532 -0.16167893 0.2759363 -0.023793506 -0.20088725 0.018554796
0.1410599 -0.19034189 0.29258424 -0.39737022 -0.45791927 0.42329016 -0.6064156 -0.3114638
-0.27239618 0.1027994 -4.239379 -1.951438 -4.423319 -2.409505 -4.8299475 -0.012945314
2.1915517 -0.0726093 0.19854532 0.18337515 -1.4943537 -0.61678785 0.73203814 -2.582121
1.3466604 1.9922916 1.0755693 0.6450972 0.053573534 -0.78742254 -0.08997004 -0.29137853
-0.16358267 0.12618685 -0.17253265 0.31341383 -0.1828 0.01919967 -0.120911404 -0.30053148
0.65748245 0.4245116 -1.6066805 2.1771135 -0.20525354 -1.3814676 5.710067 -0.18857749
-0.34060717 0.37759018 -0.13261007 0.19807714 0.34639826 -0.19815157 -0.34210184 -0.057755988
0.053623587 -0.066582836 -0.22330835 0.10204226 -0.04440722 -0.30026454 -0.13933192 -0.024099767
-0.25155747 0.22500595 0.20274958 -0.3108241 0.034201235 -0.15124902 0.27909407 0.14470658
0.045093715 0.29494295 0.15195912 0.09615269 -0.009074479 0.12346396 -0.009710342 0.02950573
-0.3061609 -0.1566462 0.14760345 -0.15331867 0.22521368 0.29108855 -0.02406025 0.16367108
-0.2944777 -0.22541678 1.0749551 0.80221635 -0.9410655 2.302248 -0.21702728 -1.3910735
5.8385077 -0.1588295 -0.11339438 0.29016128 0.20990954 -0.11001845 0.26428407 -0.09009928
-0.025388012 0.042588565 0.07090665 -0.0024389788 0.17365725 0.22800583 -0.25888345 0.3090529
0.5987643 -0.88291645 0.62353253 0.61410993 0.21979268 0.5413099 -0.27398145 0.41843864
-0.22715224 0.18899676 -0.20573804 0.29170576 -0.1735763 0.09133929 -0.0014140308 0.12760276
-0.24749708 0.14338028 0.889969 0.21291463 -1.2523555 2.0312304 -0.9257772 -1.3201236

network.0.bias f4 [256]
00000000: ee86 6bbe 80de f7bb 281d 743d 3941 183e
00000010: ad3a 93be a8ac 46be fcb6 2bbe 127d 38be
00000020: 1b94 28be 6f37 8e3d fc15 2dbc eae7 dbbc
00000030: 70e5 70bb 7b3b 6e3e 1336 cb3e 48fd 18be
00000040: 567c 2ebd 1e7a 703c 88e9 41be ab5d 8dbe
00000050: 0f15 19be ba43 46be 27fe 2fbe 3fc0 203e
00000060: ffd8 6fbe a1a8 f63c 3985 97be 44de df3d
00000070: 454c 9fbb 3f8e 833d 3cf5 fbbc cd38 81bd
00000080: 5b51 7c3d 42a3 03bf 90d3 113d 128a 8abe
00000090: 28fc 28bd 1caa 84be c86d ba3d 1e7d 2a3d
000000a0: 96b5 2bbe 70f3 9fbe 02b9 a0be 0e1f 8cbe
000000b0: 54b3 073e e3d2 1bbe 0bad 8dbe c9e6 e23d
000000c0: 248f 80bd 5655 30bd a55f 5e3e 4007 74be
000000d0: ab6c 323d 826f d5bd 67b8 c7be 1369 d2bc
000000e0: 28ed dc3d fb05 7bbe 2527 333e 923d 38be
000000f0: 88f3 81be 7488 7bbe 9cf3 74be 60fe c73c
00000100: 99b1 5dbe 4eab 89be 892e 9cbe 16e1 83be
00000110: d9c8 1ebe cceb 8bbe d804 323e fce3 f9bd
00000120: 1c6a 4e3e d1c8 8ebd dbe8 7bbd 50cb 2b3e
00000130: 2a1c 5dbe 1a6e 67be c353 aa3d 237b 05be
00000140: b402 31be 7624 293e 5321 1b3e f454 6ebe
00000150: 3a56 c63c 88b8 a1bd 0837 dcbd e8c6 bfbe
00000160: 41b8 f23c c1f3 90be e175 4bbe ffbd 4ebe
00000170: b4ee 1fbe a1fa 7fbe 324a c8bd 15a7 1a3e
00000180: 0af2 c2bd fdbd 28be dc58 6fbe d553 a0be
00000190: 76a9 48be e0e4 023d 239a 973d 2748 93bc
000001a0: 6c19 88bd d652 95be d6e4 efbd 5613 303d
000001b0: f4df 9fbe dae4 bbbd 6f3d ce3d 9036 8abe
000001c0: 66b8 55be 258b 98be 4a95 f43d b517 733d
000001d0: 6c06 b7bd 0334 d8bc 5e57 81bc eadc c33d
000001e0: 4c1f 09be c577 9bbd a9a0 183e 0624 a0be
000001f0: a214 89bd e706 a9bc 1536 27be 68b4 79be
00000200: f004 073e 8f77 2ebe 769d b73c 800b 4ebd
00000210: ba8d f7bd d9e5 c8bd c138 48bd c557 1b3e
00000220: ac46 07be 49f6 27be e569 fdbd bca3 62bc
00000230: 0570 0abe 1acd c1bb f669 74be df50 74be
00000240: 2f28 383e c0a2 7dbd cd38 bbbd d424 2abe
00000250: 911d 243e cd94 22be ac1c 6fbe d55c b2bd
00000260: 0f31 d9bd 10cc 9e3d 47e5 7dbe 40f0 71be
00000270: 7e5a 7fbe ba15 68bd a8d0 d03d 12ec 95bd
00000280: daa0 c3bd 9fe8 c8bd d002 41bd 1095 88be
00000290: b163 1bbd e0de e0bd 6e37 81be 64f0 98be
000002a0: 55f9 ebbd 5109 83be ef11 88bc e122 85be
000002b0: 26c5 093e b699 72bd a399 8a3b 498e 40be
000002c0: 5fde 2fbe a25b 9cbe 1490 e4bd 5616 50be
000002d0: 29ef 0fbd c746 2a3c a747 2e3d b6ad bebd
000002e0: c7af 2bbe cec4 19be 93db 7cbe 7e39 4f3d
000002f0: 9fd7 8a3d 66fe eabd b99a b1bd 2ec8 69be
00000300: ca1b f2bc 42d4 0abe 2609 8abe 5b54 67be
00000310: 9e26 39be 0a9f 623d 39b2 1abe b199 febd
00000320: 6f42 1abd f35a 0dbe 8260 a1be dd31 00bc
00000330: eee3 a93b f62a 12be 7145 95be 46d7 ce3b
00000340: 5291 923e a937 5cbe 2d2a 0fbe c0ab f6bd
00000350: fc57 1bbd 17f2 2fbe 82b5 a9bd d2fe 82bd
00000360: 0e28 c5bd c5c8 4fbc af1c 003d d931 323e
00000370: e27f 1bbe 89f2 7bbe f116 31be 5a9c 37be
00000380: 04a7 9ebe 7e1f 823d f88e 3bbd fd34 393d
00000390: f8a2 8ebe 50cc 9fbd d6c9 78be 4005 a3be
000003a0: d7ee c23d 1b4b 16be 35ff 033d 17b1 bfbc
000003b0: 3e77 31be d0a0 a0be 3486 c53e 539b 7a3d
000003c0: 4a1c 4cbe c0af c33b 198b e4bb cdb8 903d
000003d0: 6fc2 9fbe 7abb 90be ac41 713d b852 4abe
000003e0: dee6 5cbd 728f cdbd acca 56be 7d97 98be
000003f0: 578f c43d 54aa 913e c4a2 a63d 7f46 08bd
-0.2300069 -0.007564366 0.059598118 0.1486863 -0.28755704 -0.194018 -0.16769022 -0.1801646
-0.16462748 0.06944167 -0.0105643235 -0.026843984 -0.003675785 0.23264877 0.39689693 -0.14940369
-0.042599045 0.0146775525 -0.18936741 -0.27610525 -0.1494944 -0.19361773 -0.17186795 0.15698336
-0.23422621 0.030109705 -0.29593828 0.10931066 -0.004861387 0.06423616 -0.030756585 -0.06309662
0.061601024 -0.51420987 0.035602152 -0.27058464 -0.0412561 -0.25911033 0.0910297 0.041623227
-0.16768488 -0.31240416 -0.3139115 -0.27367443 0.13252002 -0.15217166 -0.27671084 0.11079175
-0.06277302 -0.043050133 0.21716173 -0.2383089 0.043560665 -0.10421659 -0.39007875 -0.025684869
0.107874215 -0.24514 0.17495401 -0.17992237 -0.25381112 -0.24563771 -0.23921055 0.024413288
-0.2164978 -0.26888508 -0.30504254 -0.25757664 -0.15506305 -0.27328336 0.1738466 -0.12201688
0.20157665 -0.069718964 -0.061501365 0.16776776 -0.21592775 -0.22600594 0.083167575 -0.13035254
-0.17286187 0.16517815 0.15149431 -0.23274595 0.024211038 -0.07896525 -0.10752684 -0.3745644
0.029628875 -0.2831097 -0.19869186 -0.20189665 -0.15618402 -0.24997951 -0.09779777 0.15102799
-0.095188215 -0.16478725 -0.23373741 -0.3131396 -0.19595894 0.031956553 0.07402446 -0.01797874
-0.06645474 -0.2916476 -0.11713569 0.04298719 -0.3122555 -0.09174509 0.10070311 -0.26994753
-0.20871124 -0.2979366 0.11942537 0.05934878 -0.08936772 -0.026391989 -0.01578873 0.095636204
-0.13390845 -0.075912036 0.14905037 -0.31277484 -0.066933885 -0.020633174 -0.16329224 -0.24385226
0.13185477 -0.17037795 0.02241395 -0.050303936 -0.12087579 -0.09809465 -0.04888225 0.151702
-0.13210553 -0.16402544 -0.123737134 -0.013832983 -0.13519295 -0.0059143426 -0.23868546 -0.23858975
0.17984079 -0.06192279 -0.09141693 -0.16615611 0.16026904 -0.15877075 -0.23350781 -0.087091126
-0.1060506 0.077537656 -0.24794494 -0.23626804 -0.24936864 -0.056661345 0.10196048 -0.073204175
-0.095521644 -0.09809994 -0.047121823 -0.26676226 -0.03793687 -0.1098001 -0.25237602 -0.29870903
-0.11522166 -0.25593045 -0.016610114 -0.26003173 0.13454112 -0.05922862 0.0042297407 -0.18804277
-0.17174672 -0.3053866 -0.11160293 -0.2032102 -0.03514019 0.010392851 0.0425488 -0.093104765
-0.16766272 -0.15016481 -0.24693136 0.05059194 0.06779408 -0.11474304 -0.08672089 -0.22830269
-0.029554266 -0.13557532 -0.26960105 -0.22590773 -0.18081138 0.055327453 -0.15107049 -0.12431658
-0.037661012 -0.13804226 -0.31518942 -0.007824388 0.005184642 -0.14274201 -0.29154542 0.0063122837
0.28626496 -0.21505608 -0.13980933 -0.120444775 -0.037925705 -0.17182194 -0.08286573 -0.06396259
-0.096267805 -0.0126821445 0.031277355 0.17401828 -0.15185502 -0.24604239 -0.17293908 -0.17930737
-0.30986798 0.06353663 -0.045790642 0.04521655 -0.2785871 -0.078026414 -0.24295744 -0.31839943
0.09518211 -0.14677088 0.032225806 -0.023399873 -0.17330644 -0.3137269 0.3857895 0.061183285
-0.19932666 0.0059718788 -0.0069745895 0.07066498 -0.3120303 -0.28268033 0.05890052 -0.19758117
-0.05393111 -0.10037126 -0.2097575 -0.29803076 0.095976524 0.28450263 0.08136514 -0.033270355

network.2.weight f4 [256, 256]
00000000: 7e2f 78be 6817 cd3c 54d9 24bd e89b f73e
00000010: a06b b2bb 80dc 59bd fcc8 493d b0ae c6bc
00000020: 58fe 16bc 7d94 a33e 08ce 393c 0e8a 0b3d
00000030: 3072 dbbe ee10 ce3e 34b9 83bf e0ba 65bd
00000040: 7765 5ac0 f0eb ecbb 763d 6dbd dc07 94bc
00000050: 666d 08bd bfb3 65c0 b8dd c9bc b653 29bf
00000060: 5e65 0f3d c346 52c0 d0a2 483c a329 f33c
00000070: 340c b8bc 5524 8bbe 4fbe 09c0 ce9f 32bd
00000080: 0059 ccb9 8cae 55be d69a 533d f4f7 4ac0
00000090: e052 7a3c ec0d 553d e784 00be ff51 6bbe
000000a0: 9ce1 ed3c bc44 8bbc d8c8 0e3c 6098 57bd
000000b0: e439 fd3c a22a 3e3d 40c9 d43b 8474 903c
000000c0: 88f8 873c a0df 2bbc 4769 303f 98ad 503d
000000d0: 42f7 1abd b468 f7bc 8091 6a3a 8f82 1fbf
000000e0: c0ff 3bbc 7780 773e 6c7b 34bd 003a edb9
000000f0: 7016 05bc 66a2 433d 108f e23b 5a6e 373d
00000100: b01f 3cc0 544d c73c 7e2d 7a3d 760a 753d
00000110: 5887 cdbc b80e bdbc b80e b73c 5891 4bbd
00000120: d274 083d b818 cbbc 0261 04bd 0f7b 8a3e
00000130: 249c 31bd f0f2 c2bb ecf4 e7bf 3408 e7bc
00000140: aa00 45be d22a 033f eef1 6ebd 7e12 043d
00000150: ac91 1bbe 5b6f 143e 700c fcbb 1822 cbbc
00000160: 0ca1 1c3e 4547 3dbf 93b7 a2be eb6f 8cbf
00000170: 14b5 0bbf 44af 4cbf 142e 3e3e 3c5c c3bc
00000180: ce2e 223d 9e3b 403d a6ac 273d 50d8 91bc
00000190: e495 e23c 675d 19bf 7a54 0f3d aac9 c3be
000001a0: ecfc 223d 3675 1cbd a468 933c b4b7 f83c
000001b0: f01a 79bd d058 59bd fcba cf3c 68a5 9c3c
000001c0: 2bf7 4bbd 0067 73ba b0ba c2bd 7af8 2c3d
000001d0: 2374 b6bf f88a c63c a626 61bd 78a4 6d3c
000001e0: 522e 633d b861 133c 3a98 a9bd 803c 2b3c
000001f0: 40af 35be f465 8cbf 2c5c f2bc f66c 2d3d
00000200: 05b9 0fbe 6060 3dbb 5cae 87bc 4b0d 6dbe
00000210: fca4 1dbd f0d3 21bc f1f0 91bc 2aab 28be
00000220: fad3 60be 5dda 303c dd1d 803e 44a7 3fbd
00000230: 4200 7fbd 3477 713d 937f 85be 0308 6ac0
00000240: 7c7e 773d 662a 75bd b8da 22bf 00bc a2bc
00000250: c821 e43e b07b 60bc 8027 173c b27c 04bf
00000260: 1870 06bf 0005 e939 f838 63bc a8f9 f0bc
00000270: 44d4 8ebc bca4 62bd 1e58 da3d 385e 6cbd
00000280: dcea b6bc 8578 743c 7c9e c03c 409e e13b
00000290: 806b ae3e 70a2 abbb d408 5bbd a474 30bd
000002a0: 2d9f a3be 9830 edbc 019a 94be 0022 3c3c
000002b0: 56be 1cbf 1d6f fe3d 28a6 f7be 000e db39
000002c0: 60ec e43e 40c6 18bd b017 51bd 94cd 2abd
000002d0: d72a a03c c137 f53d bcab 07bd c06a 07bd
000002e0: 148c ccbc 4062 8f3c d08d 15bd 46a9 ae3d
000002f0: 548b 58bd 5a7f b0ba 1b4c d2bf 9838 22bf
00000300: 6a8d 42bd c01f 54bd f2b4 26bd d02e c6bb
00000310: c011 42bd 8cba 0a3d 7c6a e83c b22a 5f3e
00000320: c9cf 24be 07f1 5dc0 2ab2 5e3d bdb2 cfbe
00000330: b0c7 0d3d f824 8a3e 20fa db3c 847a a0be
00000340: da73 e83e 809e f13a 20ad cdbc d02c b1bc
00000350: 3a33 f0be aa91 29bd a69b 4ebd 9645 613d
00000360: 6003 333e fe13 02bd 747e d43c 6c6e bbbc
00000370: 379d 07c0 dad5 4e3d 89b3 0cbf cce4 8e3c
00000380: e033 a3bc 9e54 123f e85f 2ebd d9cc 293d
00000390: ace4 1b3d 3ed5 b5be 002f 673b 886f 33bc
000003a0: 3f08 233e 604f 553d 983f 55bc 3959 7cbf
000003b0: 98a2 26bc 961b 6a3d 5856 afbf 2677 6fbe
000003c0: 406e 4abc 323a 7e3d 5ed3 66bd 0a05 adbf
000003d0: 6e54 333d fad6 193d e87a 0b3d 9220 0abd
000003e0: c964 873e 49e6 59be 4637 1cbd 20b8 31bc
000003f0: 04d4 41bd a108 86bf 655f 023e c8c0 623d
-0.24236867 0.025035575 -0.040246323 0.48361135 -0.005444959 -0.0531888 0.04926394 -0.02425322
-0.009215914 0.31949225 0.011340626 0.034067206 -0.42860556 0.4024729 -1.0290895 -0.05608642
-3.412443 -0.0072302744 -0.05791994 -0.018070154 -0.033307455 -3.5890958 -0.024641857 -0.6614336
0.03500878 -3.285569 0.012245849 0.02968294 -0.022466756 -0.27176157 -2.1522405 -0.043609433
-0.00038976222 -0.20867366 0.051661335 -3.1713839 0.015278548 0.05201523 -0.12550698 -0.22980498
0.029038243 -0.017000549 0.008714877 -0.05263555 0.030911393 0.046427377 0.0064937174 0.017633684
0.016598001 -0.010490328 0.6891064 0.050946802 -0.03783346 -0.030201294 0.0008948073 -0.6230859
-0.01147455 0.24170099 -0.044063017 -0.00045247376 -0.008123025 0.047762297 0.006914027 0.044782974
-2.939434 0.024328865 0.06107854 0.05982443 -0.025088951 -0.023078308 0.022345886 -0.049699157
0.033314534 -0.02479206 -0.032319076 0.2704701 -0.043361798 -0.0059493706 -1.8121619 -0.028202154
-0.19238535 0.51237214 -0.05833619 0.032244198 -0.15192288 0.14495604 -0.0076919124 -0.02479653
0.1529581 -0.73936874 -0.3178068 -1.0971655 -0.5457318 -0.79954934 0.18572265 -0.023847692
0.039595418 0.046931855 0.040936135 -0.017803341 0.027659364 -0.59908146 0.034992673 -0.38239795
0.039791986 -0.03819772 0.017994232 0.030361034 -0.060816705 -0.053063214 0.025357716 0.01912184
-0.049796265 -0.00092850626 -0.09508264 0.042229153 -1.4254192 0.024236187 -0.0549685 0.014504544
0.055464096 0.008995466 -0.08280988 0.010451436 -0.17742634 -1.0968614 -0.029584967 0.04234024
-0.14035423 -0.0028896555 -0.016562633 -0.23149602 -0.03848742 -0.00987719 -0.017815085 -0.16471544
-0.21955863 0.010794249 0.25022784 -0.046790376 -0.062256105 0.05895157 -0.26073894 -3.656739
0.06042336 -0.059854887 -0.6361499 -0.019865036 0.44557023 -0.013701364 0.009225726 -0.5175277
-0.5251479 0.00044444948 -0.013868563 -0.02941592 -0.0174352 -0.055332884 0.10661338 -0.05770704
-0.022328787 0.014921312 0.023513071 0.00688532 0.3406639 -0.00523787 -0.053475216 -0.043079987
-0.3195738 -0.028953835 -0.29023746 0.011482716 -0.6122793 0.12423537 -0.48368955 0.00041781366
0.4471159 -0.03729844 -0.05104798 -0.04169996 0.019551678 0.11973525 -0.033122763 -0.03306079
-0.024969138 0.017502904 -0.036512196 0.0852838 -0.05286725 -0.0013465688 -1.6429476 -0.63367605
-0.047498144 -0.05178809 -0.040699907 -0.006048061 -0.04738021 0.03386931 0.028371088 0.2179363
-0.16094889 -3.4678361 0.05436913 -0.40566054 0.034614265 0.2698133 0.026852667 -0.31343472
0.45400888 0.0018434078 -0.025106966 -0.021627814 -0.46914083 -0.04139868 -0.050441407 0.054998003
0.17481756 -0.031757347 0.025939204 -0.022879802 -2.1189706 0.050496913 -0.5496145 0.017443083
-0.019922197 0.57160366 -0.042571932 0.041455124 0.038059875 -0.35514253 0.0035275817 -0.010951884
0.15921114 0.05207765 -0.01301565 -0.9857364 -0.010170601 0.057155214 -1.3698225 -0.23385295
-0.012355387 0.062067218 -0.05635392 -1.3517163 0.04378169 0.037558533 0.03405276 -0.033722468
0.2644408 -0.21279253 -0.03813865 -0.0108471215 -0.047321334 -1.0471383 0.12731703 0.05535963

network.2.bias f4 [256]
00000000: 13ef cd3e 2108 97be 16a5 d5bd 10b5 0e3c
00000010: a4f4 bb3c f976 ef3a 5df7 acbd d4eb c8bc
00000020: dbe9 2bbd cfc0 1bbd 1da9 6bbc 0fec aebd
00000030: a1c8 94bd 7e60 68be 38a0 3bbd 84a3 cdbe
00000040: 631a 8dbd 1606 00bd 67cb 7abd 7a44 92bd
00000050: aca0 24bd 93c0 49bd f011 83bd 8a54 39bc
00000060: df43 a2bb d006 d8ba 35a3 6ebe 1774 71bd
00000070: d8a4 acbd 4802 87bd 6ddf e9bd 56e9 3cbd
00000080: c202 debd 6369 77bd 942b 97bd ba4a 00bd
00000090: 39e3 67be f4fa 57bd cc2d d33e 2da6 5dbf
000000a0: 8ffd 35be 6b39 cfbd 18e2 f9bd 7e26 4ebd
000000b0: b0ab abbe 80eb 7bbd 0cc0 6dbe 795a a5bd
000000c0: e18f 66bd 08de e4bc 658c 3b3d 4d07 6c3c
000000d0: f0d2 3bbd 39dd d13b 0f87 8abe ee81 25bf
000000e0: e7ac 53be f856 4abd b525 f3bc b66c a1bd
000000f0: 105e 54bd a824 71bd d749 6abe 446d 95bd
00000100: ff4c f0bd 21e6 6fbe 1875 86be fd00 cd3b
00000110: 548c 98bc ea97 27bc a116 4bbd d71c e4bd
00000120: 95ca 81be 246c ce3c 73d5 15bc 6ada afbd
00000130: fc86 afbc a8c0 debb 088e bb3a 32dd fabd
00000140: 56d0 aabd 0a20 1fbd 6a6e 71bd 0809 c7bd
00000150: 914e 5ebd 3aba 463d e6ba 02bc 8625 1bbd
00000160: 73b7 e2bc e410 9bbe 2ec6 adbd adec 77bc
00000170: 3dc2 32bd c58b f3bd 0e28 c6bd 9f6f 3fbd
00000180: 8544 d6bd 9cb1 24bd ba4c ecbb 60ed 0abd
00000190: b196 c7bd 0687 58bd f767 24bd 6539 dabd
000001a0: d0a8 60bc e4e9 1abd df42 efbe d449 73bd
000001b0: 38b6 293f 37b4 07bd 39d9 883a d9dc e2bc
000001c0: 1e48 19bd 5fe7 a1bd e966 a6bc 0091 22bd
000001d0: 97d3 bebd d290 0bbd ad66 52bd 50bd d3bd
000001e0: e263 e5ba bd0a 6bbd 5d2e 4cbc 6e6a 21bd
000001f0: 528e 82be 0141 66bd 3a6b 98bc 507d 7bbd
00000200: cba3 aebd 2633 7cbc dcf8 03bd b5a4 343b
00000210: 7f4b 64be c43f 36bc ea58 25bd eb65 4abd
00000220: 6da1 95bd a61b cfbd 2248 29bb d608 d0bd
00000230: 842d 9ebd 57b9 49bd 7f44 59be 4991 a8be
00000240: 7062 5abd 98df 6cbd 16dd 6abe 43a6 03bd
00000250: 10b0 53bd 8e1b b53c b438 93bc b5e4 82bd
00000260: 94fa 0fbd 4fb6 abbd d2c0 b6be b307 cabd
00000270: ba12 5fbd 86fa d5bc 1c9f 9ebd 72ed 34bd
00000280: 3db9 1dbd ae84 60bd 2847 eebc 40a7 3abc
00000290: 2801 293e 616f 86bd b1df a3bc a55a f9bc
000002a0: 6623 8bbe 371b 6ebe 71aa 40bd 4087 6cbd
000002b0: 0b4f fdbb ba98 65bd d4a9 f6bd 7680 d8bd
000002c0: 3aa1 513a 13a3 91bd 414e eabc bf58 08bb
000002d0: 9f63 ad3e e279 61bc 4745 03bc 1714 ecbd
000002e0: 5f5d f8bc 37b0 27be 72f8 60be dcd6 f5bc
000002f0: 2b25 d2bc ae1f e8bc 4f63 23be 11e6 85be
00000300: 5929 26bd 784c e2bc 50a4 61be fe8f bebc
00000310: 6651 9fbc 8fd4 bbbd a6e7 8ebd 6250 6abc
00000320: f455 04bd 21d8 9bbe 7410 78bb 989e b8bd
00000330: 3ec1 453a 76ac 1abe d0d1 b5bd 12fe bdbd
00000340: acfe a23e 1a02 34bd 2aa1 65bd 2c6b 7f3c
00000350: 00f5 3cbd bcdd e1bc 898e cfbd 6008 1dbd
00000360: 9484 ebbb 1bef 64bb bcd0 7fbe 2c9b 89be
00000370: fbe1 df3c 18d8 35bd af3a ffbb aacd 98bd
00000380: 3c4d e3bd cd20 c4bd 4670 c1be 0ca1 8a3b
00000390: e132 82bc fb66 f1bc 5ca8 9bbd c51f b03c
000003a0: a14d d9bd 294c 87bc d872 7cbd 603b 9cbd
000003b0: d8ec 6dbd dc86 7bbd 40c6 b6be eec7 b1bd
000003c0: d5c3 8bbd ced9 03be 9957 a0be da8c afbe
000003d0: a8c5 12bd 1d24 77bd 27a3 a4bd bbb2 93be
000003e0: 1d43 6abb 5cf9 72bd 74b8 f3bc 08da dfbd
000003f0: a9f1 2dbe 2bb1 cabd 75c4 24bc 826e fc3c
0.40221462 -0.2949839 -0.10431878 0.008710161 0.022943802 0.001826971 -0.08445618 -0.024526514
-0.04197107 -0.038025673 -0.0143835815 -0.08541118 -0.072648294 -0.22693059 -0.045807093 -0.40163815
-0.068897985 -0.031255804 -0.061229136 -0.07141967 -0.04019229 -0.04925592 -0.06399906 -0.01131166
-0.0049519385 -0.0016481522 -0.23304446 -0.058948603 -0.08429879 -0.06592232 -0.11419568 -0.046120964
-0.1084037 -0.06040324 -0.07381359 -0.031321265 -0.22645272 -0.052729562 0.41245878 -0.8658169
-0.17772506 -0.101183735 -0.12201327 -0.050329678 -0.33529425 -0.061503887 -0.23217791 -0.08073897
-0.056289557 -0.027937904 0.045788188 0.0144060375 -0.045855463 0.0064045456 -0.27056167 -0.6465138
-0.20671426 -0.049399346 -0.029681066 -0.07882063 -0.051847517 -0.05887285 -0.2287973 -0.072962314
-0.11733436 -0.23427631 -0.2626121 0.0062562213 -0.018621601 -0.01022909 -0.049582127 -0.11138313
-0.2534987 0.02519805 -0.009145129 -0.08586581 -0.02142667 -0.0067978688 0.0014309296 -0.12249221
-0.08340518 -0.038848914 -0.05894319 -0.097185194 -0.054274146 0.048517443 -0.00797913 -0.037877582
-0.027675366 -0.30286324 -0.084850654 -0.0151321115 -0.04364227 -0.11891893 -0.096756086 -0.04673731
-0.10462288 -0.040208444 -0.007211295 -0.033917785 -0.09745539 -0.052863143 -0.04013821 -0.106554784
-0.013712123 -0.03782071 -0.46730706 -0.05939658 0.6629367 -0.03313085 0.0010440714 -0.027693199
-0.037422292 -0.07905459 -0.020312743 -0.039689064 -0.09317701 -0.03407366 -0.05136745 -0.10338843
-0.0017501081 -0.057383288 -0.012462226 -0.03940814 -0.25499207 -0.056214336 -0.018605817 -0.061398804
-0.08527335 -0.015393054 -0.032219753 0.0027563993 -0.22294424 -0.011123601 -0.040368 -0.049413603
-0.0730618 -0.101126954 -0.0025830348 -0.10157935 -0.07723525 -0.04924902 -0.21217535 -0.32923344
-0.053316534 -0.057830423 -0.229359 -0.03214098 -0.05168158 0.022107866 -0.017971374 -0.06391279
-0.03515108 -0.08384382 -0.35693985 -0.0986475 -0.05446122 -0.026120435 -0.077451915 -0.044171758
-0.038506735 -0.054814033 -0.029086664 -0.011392415 0.16504347 -0.065642126 -0.020004125 -0.03043873
-0.27175444 -0.23252569 -0.047037546 -0.057746172 -0.00773037 -0.056053855 -0.12044111 -0.10571377
0.0007996742 -0.07111182 -0.028601767 -0.002080485 0.33865067 -0.013761969 -0.0080121225 -0.11527269
-0.03031796 -0.16375814 -0.21969774 -0.03000968 -0.025652489 -0.028335419 -0.15955852 -0.2615209
-0.040566776 -0.027624354 -0.22035336 -0.02326202 -0.019447993 -0.09171402 -0.06977777 -0.014301391
-0.032308534 -0.3043833 -0.0037851604 -0.09014624 0.0007543749 -0.15104851 -0.08877909 -0.09276976
0.31834924 -0.043947317 -0.0560619 0.015589517 -0.046132088 -0.027571552 -0.10134608 -0.038338065
-0.0071874354 -0.0034932557 -0.2498197 -0.268762 0.027329436 -0.044395536 -0.007788978 -0.07461102
-0.11098716 -0.09576569 -0.3778097 0.004230624 -0.015893402 -0.02946805 -0.076004714 0.021499524
-0.1061051 -0.016515808 -0.06163296 -0.076285124 -0.0580872 -0.06140791 -0.35698128 -0.08680712
-0.06824461 -0.12876055 -0.31316832 -0.3428715 -0.03583303 -0.060337175 -0.08038931 -0.28847298
-0.003574557 -0.05931984 -0.02975104 -0.10930258 -0.16986717 -0.09897073 -0.010056605 0.030814413

network.4.weight f4 [2, 256]
00000000: f9a1 873f 3613 0b3e 146e 7f3d ac1c 47bd
00000010: a0fc 83ba c936 4abc 55a8 ab3d 83ae 243d
00000020: fca7 acbb 551f 37bd 66b9 923c 3497 843d
00000030: 0dd6 103b ad19 39bd bcfa 9cbd 5226 963e
00000040: 771c 323d 54e1 8abd 1e3c 0ebd e60a 833d
00000050: 42dd b4bd 7fb0 983b 47e4 cc3c fa6f eebd
00000060: fe14 6ebd f228 20bd db6b 683d fb04 a13c
00000070: 890f aa3d 169c fb3a f8d5 753c 88be 033d
00000080: 9614 29bd 3f7e febc e3b3 5d3a a01e 0b3d
00000090: 26cc 583b f36b eb3c 014d 293f 7370 193e
000000a0: 00c0 77bd 65f4 fdbc 682e e83d 83af 38bc
000000b0: 1d6d 44be 6e0b 1b3d 12c9 39be c1ea a43d
000000c0: 6330 193d 52d0 703c a51f 07bd 8bef 0c3a
000000d0: 7b13 69bc 25dc 3dbc 5d13 38bd 3d28 15be
000000e0: 3d8c 88bc c468 123d 213a 983d e166 2ebd
000000f0: 5ec8 553d 864c 48bd 8442 753d b2c5 e0ba
00000100: 79ec 9d3d 6b5c 82bd 47ea 02be f06b 8dbd
00000110: 561c 70bc ff2d 993c 747d e8bb 62f1 43bd
00000120: 9c11 97bc 04d1 a73c d8ba 0bbd d8b2 a13c
00000130: 065f 9c3d 2a58 d3bc bc9b ed3b 7135 1abb
00000140: dcfd a1bd cc7e 23bd cab8 bdbd 2e34 75bd
00000150: 0f80 b33c a645 e5bc c734 603b 449d d93c
00000160: 638e 853c 9aa5 51be 5bdd 353c a100 0bbd
00000170: 0311 f9bd 4a9c 393d ddf1 e93b 41a9 843c
00000180: fea3 a53c c800 cb3c 4aac 193d e50a 9bbd
00000190: 25b1 91bd 07fe e3ba f497 2fbd 2676 313d
000001a0: 0fbb b3ba bf49 af3d 2eab 99bd 4bf1 6dbd
000001b0: 07a8 5fbf 693e 403c 2226 4a3d 917f 223d
000001c0: 90c8 8dbd 4fc7 2d3d 1851 03bd c816 6a3d
000001d0: 847b 9b3d 082d 2fbd 38dd dd3c cb86 283d
000001e0: 084c c83d bb41 2fbd c1e6 33bc c14b 793b
000001f0: 7268 ae3e 3ea7 bc3d 6d13 c4bd 16b3 2fbd
00000200: a2e7 5b3c 63cf 9cbd 8436 443c a061 8abd
00000210: 4465 5b3e 3c50 773d c570 28bd 51c5 0fbc
00000220: c899 3a3d 25de 2cbd 43a0 9f3c 7802 6dba
00000230: 3e8e c1bd 16ae ca3c cb1d c7bc 50cd 10be
00000240: 4c21 efbc 8af9 073d 8aa3 bbbc 9af8 873b
00000250: 8a0c 6abd fc75 1e3c 12a9 6abd 45ad 13bd
00000260: f410 6d3d 9fdc cbbd 7ea5 50be 7cd6 633d
00000270: 9654 403c 19db 803d a2ea 89bd 9d4d f339
00000280: 8219 f03c 3456 e73c 3065 9dbc ea32 763d
00000290: 4228 93be c3cf 353d dd60 06bc 8194 813a
000002a0: 6f6e 45be 55a0 243e f76e efbc 18ba 183d
000002b0: fe46 07bd c48c bcbc 3661 95bc 52d8 6d3d
000002c0: 972e 22bd 6b24 743d b08f 8dbc 5607 243d
000002d0: ad9d e9be dd87 d83d 395a 84bd c14e 8bbd
000002e0: ca24 3cbd 72b4 663c 6796 c23d 314a 3bbb
000002f0: 565a 613c 3fbd e63c aa23 05bd 34b9 0c3e
00000300: 069c 523c 3363 48bc 710f 7a3e 98ca 8fbd
00000310: 2427 963d d898 26bc 0b95 a03c b2d8 c63b
00000320: 9eb6 9a3c 0b5b f23d a640 373d 3b3f ad3c
00000330: 3407 adba 047a 033d af21 1dbd 77b9 e2bc
00000340: add5 77bf d47b ebba ea9a 1b3d 4908 a2bc
00000350: 234a fdbb 2bbe 663a 5cab afbc b2a9 c43d
00000360: 0c6a 1ebd c7c2 243d 45e7 903d d3ea 603d
00000370: f151 a2bc 4026 08bc 8422 423b 7105 93bd
00000380: fece a6bd 5a01 413d baed 53be d977 aebb
00000390: a0d1 573d da05 633c ee7c 2abd 13b2 4ebd
000003a0: 1278 9d3d 5dec c5bc 4039 6fbd 1e80 d43c
000003b0: fce5 2f3d 28a3 11bc c10b 133e c24c 93bd
000003c0: fcf1 15bd 079c 08bd 0674 27be 023b 8f3e
000003d0: 23a6 68bd dba2 a7bc 50c9 c63b 84f6 79be
000003e0: 58bf 3dbd 4454 9abc 6cf8 013d 70fe a03c
000003f0: cb0f d5bc 7b29 603d 350a 40bd fe0c 61bc
1.0596305 0.13581547 0.062360838 -0.048611328 -0.0010069795 -0.012342163 0.08381716 0.04020549
-0.0052690487 -0.044707615 0.01791067 0.06474152 0.002210024 -0.045190502 -0.07665011 0.2932611
0.043484177 -0.06781259 -0.0347253 0.06398563 -0.08831264 0.004659712 0.025011195 -0.116424516
-0.05812549 -0.03910155 0.056743484 0.019655695 0.08303744 0.0019196298 0.015004627 0.032164127
-0.041279398 -0.031066058 0.0008457286 0.033964753 0.0033080666 0.028737998 0.66133124 0.14984302
-0.06048584 -0.031000325 0.11336976 -0.011272314 -0.19182248 0.037852697 -0.18143108 0.08052588
0.03739966 0.014698105 -0.032989163 0.0005376271 -0.014225836 -0.011588131 -0.04494034 -0.14566131
-0.016668433 0.035744444 0.07432962 -0.04257858 0.05219304 -0.048901103 0.059877887 -0.0017148762
0.07711119 -0.063652836 -0.12784682 -0.06905353 -0.014655193 0.01869869 -0.0070950333 -0.047837622
-0.018441014 0.020485409 -0.034113735 0.0197386 0.07635312 -0.025798876 0.007251231 -0.0023530389
-0.07909748 -0.039915845 -0.09263761 -0.059864216 0.021911649 -0.027987313 0.0034211145 0.026564248
0.016303247 -0.20473328 0.011100139 -0.033936147 -0.12161448 0.045315064 0.007139428 0.016193988
0.0202198 0.024780646 0.037517823 -0.07570437 -0.07113866 -0.0017394432 -0.042869523 0.043325566
-0.0013712364 0.08558988 -0.07503353 -0.058091443 -0.87365764 0.01173363 0.049352773 0.039672438
-0.0692302 0.042426404 -0.03205976 0.057150632 0.07591918 -0.042767555 0.027083024 0.041144174
0.09780127 -0.042787295 -0.010980309 0.0038039538 0.3406406 0.092115864 -0.09574018 -0.0428954
0.013421925 -0.076567434 0.011975888 -0.06756902 0.21425349 0.06037925 -0.04112317 -0.008775071
0.045556813 -0.04220404 0.019485598 -0.00090412004 -0.09450959 0.024741214 -0.024306199 -0.1414082
-0.029190682 0.033196963 -0.02290513 0.0041495087 -0.057140864 0.009671684 -0.057290144 -0.036053915
0.057877496 -0.099541895 -0.2037563 0.05562447 0.011738917 0.062917896 -0.06734206 0.00046406398
0.029309038 0.028239347 -0.019213289 0.06010715 -0.28741652 0.04438759 -0.008201805 0.0009886177
-0.19280408 0.16076787 -0.029227717 0.037286848 -0.033026688 -0.023016341 -0.01823483 0.058067627
-0.039595213 0.059605043 -0.01728043 0.04004606 -0.4562811 0.10572789 -0.06462521 -0.068021305
-0.045933522 0.014081107 0.09501343 -0.0028578157 0.013754448 0.028166411 -0.032504715 0.13742524
0.012854582 -0.012230682 0.24419953 -0.070210636 0.07331684 -0.010168277 0.01960232 0.0060683126
0.018885907 0.11833771 0.044739388 0.021148315 -0.0013200999 0.032098785 -0.0383622 -0.027676327
-0.9681042 -0.0017965981 0.037989534 -0.019779341 -0.007729785 0.0008802141 -0.021444015 0.09602679
-0.038675353 0.040224817 0.07075361 0.054911446 -0.019814463 -0.008309901 0.0029622624 -0.07178772
-0.081449494 0.04712043 -0.20696154 -0.0053243455 0.05269015 0.013856376 -0.04162305 -0.050462794
0.07688917 -0.024160558 -0.058404207 0.025939997 0.04294394 -0.008888997 0.14359953 -0.07192375
-0.036607727 -0.033351924 -0.16352853 0.27974707 -0.056799065 -0.020463398 0.006066479 -0.24410444
-0.046325058 -0.01883901 0.031731054 0.019652575 -0.026008507 0.05472706 -0.046884734 -0.013736008

network.4.bias f4 [2]
00000000: c004 49be eca5 22be
-0.19630718 -0.15883607
