Training/Model/model_actor_robot_subset_joint3_02.pt (torch, 283183 bytes, 6 tensors)

network.0.weight f4 [256, 10]
00000000: 12f6 423e 201b 9c3e 6c8e 583e 1a85 773e
00000010: a60d e0bc 55ab 1abd 6910 b43c 38fb b53d
00000020: e802 af3d 045e 50be 8520 003f b686 f83e
00000030: f67e 883e 3d89 543e 2856 4f3e fa3e 473d
00000040: ad70 ba3e 1a4e f83b 11f7 23bf 558c f93e
00000050: 1cc3 ac3c 5cb6 c63e 5309 e83e 39d4 aabd
00000060: 9b00 bb3d 829b 803e cd3f 173f db28 7e3e
00000070: ecae c0be dafd 9fbe f52d a93e 54b2 5d3e
00000080: ae21 bf3e 3fb2 f43d a380 38be 87f7 c2bc
00000090: cdf6 733e b9a8 8e3d 6e1a c0be 1287 0f3e
000000a0: 71a9 33be 0e74 9b3e 5029 d8bd cc16 bfbc
000000b0: 4eca 813d 25f2 b8bd 2128 76bd ec31 cebd
000000c0: 67a3 65be 34e6 fabd 60e0 703e 6b54 a43d
000000d0: 66e7 b53e 440a 2d3d 0b97 e5bd 9c9e 373e
000000e0: df10 c33e cd3e 94be 114d e8be b738 973e
000000f0: 85be 3d3e be0c b63e bc89 033f 052b 1e3f
00000100: 6561 87be e767 fdbd 1317 ad3e 0e4f dbbe
00000110: 167a dcbe 52da 02be 20d4 1a40 2369 f23e
00000120: 5313 4340 56dd fe3e a4b5 673f dd94 3fc0
00000130: 1b49 9140 8204 7a3e eb52 72bf b2d6 fe3e
00000140: 7493 7c3e 9287 213e 34cb dc3e e598 0ebf
00000150: a3df 163d 8194 8e3d ffe1 fa3b 340b 74be
00000160: 55d3 a0be 6582 c13e 192e f63e c5d5 e43e
00000170: 4f9d 1b3e 1bcc 953e fe60 b1be 558c 963c
00000180: 151b de3e a0fc 6cbc 9905 9bbd 3fc0 463e
00000190: 1ee3 1340 62c6 f73f 53e7 3940 f880 a53f
000001a0: d9f1 24c0 65f7 90bf 3d5b 163f 8c20 903f
000001b0: c0cd acbe dcf9 c2bf ab21 da3e aa32 3e3f
000001c0: ec9e 393f aa55 bb3e a127 4cbd 8ea5 cbbe
000001d0: 5a58 003f ad94 a2be 937c 50bf ae44 b9bd
000001e0: 8814 f33e c4f3 fc3e bf6d e93d 5d79 61ba
000001f0: 3ba3 84bd d57f 78bd 6c04 b63d 5ead 23be
00000200: 0e0b 32be 21e1 c8bd 12d0 fa3d bf3d 783e
00000210: 4695 a43d f6a1 8a3a f0e3 16be 0aa5 1ebe
00000220: 205f e33e 573e 84be 07b3 dabe 6cfa fb3d
00000230: 8208 e0bd bb44 87be 30e7 03bd 58aa cb3d
00000240: fbd5 983e e816 1e3d 125d f1bd c023 4fbd
00000250: 1ec2 96be 88dd bb3d dd72 d23e 8f0b 013f
00000260: 0954 d13e 2159 3d3e 41a9 18be b816 b53d
00000270: 8d3f 843e 8dd8 b13d 2d80 0bbf 4c1e e33e
00000280: 0090 b2bb c0b9 053e 5096 4c3d 7e9a 333e
00000290: 8a57 bbbd a02e 533d 428e 45be 7671 783e
000002a0: e823 93be 22bb 533e 61fe 133f fc8d 8a3f
000002b0: b938 0dbf 2f18 bcbf 899e 13c0 70d1 c33f
000002c0: 9427 ad3e 94fb ac3e a3cf 0fbf 23d2 1d40
000002d0: 40dc cd3e 0977 123f b38f d0bc ef0c 743f
000002e0: 5947 02c0 5756 a03f 3077 6cbf 6a48 1cbf
000002f0: f4e1 abbe dbee 3140 319a 953e ef67 eb3e
00000300: 93cf e03d f87d f3be 88cd 6ebe f8e6 2c3e
00000310: a350 793e 90e5 063d eff0 cfbe 2650 e43e
00000320: 757d 3abe 7869 213e 023b 433e 121b 5e3e
00000330: 70ba e73c 48b0 323e e4ab 083e 24cc 033e
00000340: 55cd 4bbe 1099 c13c f21c e53e 052f a13e
00000350: d52b 1b3f ca54 623c 768b 16bd 4ded 49be
00000360: 7c8a c8bd c2e2 c1be 8a21 7cbd 14d0 15be
00000370: df9d d73d 9966 f73e 6140 ff3d 98c6 7fbd
00000380: 0871 c63d d34d 833e 2b4c cd3f 8774 c5be
00000390: 8d2b c4be 3c4c d03e ea1e ab3f b9a9 0c3f
000003a0: 3e86 0640 5aef 0bc0 22b3 553f 2819 d3bf
000003b0: ac0b 1540 b57a a7bf 3a0f 20bf 5c74 f33f
000003c0: a6cf d23d 7e22 f8bd 481f ac3e 7c38 463e
000003d0: a7e9 c3bd d62d 2cbe 4ff8 1dbe 5398 723d
000003e0: 3fe0 48bd bb63 3cbe 0de8 c03f 2f44 c63f
000003f0: 77e1 1f3f 9e0b 99bf cc89 debf 29f2 bd3f
0.19039181 0.30489445 0.2114808 0.24171868 -0.027350258 -0.03776105 0.021980481 0.08885807
0.08545476 -0.20348364 0.5004962 0.48540276 0.26659364 0.20755477 0.2024771 0.048644044
0.3641409 0.00757767 -0.6404887 0.48739877 0.02108913 0.38811004 0.45319614 -0.083412595
0.09130975 0.25118643 0.5908173 0.24820273 -0.37633455 -0.3124836 0.33042875 0.21650058
0.37330383 0.1194806 -0.18017821 -0.02379967 0.23824616 0.06965775 -0.37520164 0.14016369
-0.17545106 0.3036198 -0.10554755 -0.0233263 0.06337415 -0.090305604 -0.060096864 -0.100681156
-0.22425614 -0.12250939 0.23523092 0.08023914 0.35528105 0.04224612 -0.1121045 0.17931598
0.3809881 -0.28954163 -0.45371297 0.29535457 0.18529709 0.35556597 0.5138204 0.6178439
-0.26441494 -0.123733334 0.33806667 -0.4283375 -0.43061894 -0.12778595 2.419197 0.47345838
3.0480545 0.4977824 0.90511537 -2.993461 4.540174 0.24415782 -0.9465777 0.49773175
0.24665624 0.15774372 0.43123782 -0.5570205 0.03683437 0.069619186 0.0076563354 -0.23832399
-0.31411234 0.37794796 0.48082045 0.44694343 0.15196727 0.29257283 -0.34644312 0.018377462
0.43380037 -0.014464527 -0.07569427 0.19409274 2.3107371 1.9357417 2.904744 1.2929983
-2.5772612 -1.1325499 0.5873297 1.1259933 -0.33750725 -1.5232501 0.42603812 0.7429606
0.7250812 0.36588794 -0.04984248 -0.39774746 0.50134814 -0.31754056 -0.81440085 -0.09046303
0.47476602 0.49404728 0.113978855 -0.00086011534 -0.06476446 -0.060668785 0.08887562 -0.15984103
-0.1738703 -0.09808565 0.122467175 0.24242304 0.08036284 0.0010576833 -0.14735389 -0.15492645
0.44408512 -0.25828812 -0.42714712 0.123036236 -0.10939123 -0.26419625 -0.0322029 0.099446
0.29850754 0.038596064 -0.1178533 -0.050571203 -0.29444975 0.09173113 0.4110326 0.5040826
0.40884426 0.18491031 -0.14908315 0.08842224 0.25829735 0.08683882 -0.54492456 0.44359052
-0.005449295 0.13059139 0.049948037 0.17539403 -0.09147556 0.051558137 -0.19292548 0.24262032
-0.28738332 0.20676854 0.57810026 1.082458 -0.55164677 -1.469488 -2.3065512 1.529829
0.33819258 0.3378569 -0.56176203 2.4659507 0.402071 0.57212883 -0.025459146 0.95332235
-2.0356047 1.2526349 -0.92369366 -0.61047995 -0.33570826 2.7802036 0.292192 0.45977733
0.10977092 -0.47557044 -0.23320591 0.16884983 0.24347167 0.03293377 -0.40613505 0.44592398
-0.1821192 0.1576289 0.19065478 0.21690014 0.028287143 0.17450058 0.13346821 0.12870842
-0.19902547 0.023632556 0.44748646 0.31481186 0.6061376 0.013814161 -0.036754094 -0.1971943
-0.09792039 -0.37868315 -0.061555423 -0.14630157 0.105281584 0.48320463 0.12463451 -0.062445253
0.09689528 0.25645313 1.603887 -0.38565466 -0.38314477 0.40683162 1.3368809 0.54946476
2.1019435 -2.1864839 0.8347646 -1.6492052 2.3288374 -1.3084322 -0.62523234 1.9019885
0.10293512 -0.12115954 0.33617616 0.19357485 -0.0956605 -0.1681436 -0.15426753 0.0592273
-0.049041983 -0.18397419 1.5070816 1.5489558 0.6245341 -1.195667 -1.7385802 1.4839526

network.0.bias f4 [256]
00000000: fb63 a1be 5043 74be cc8e 14be e042 2cbe
00000010: 6e9d 993c 4197 823d ff56 05bf dd3e 79bf
00000020: 8973 14bf 1fa4 02bf cd34 2cbe 0d46 21bf
00000030: 6e74 f4bd e0be 20be 4663 4abe 3057 9abe
00000040: 002e 68bc 1f2a e4be 343c 9ebe 5ad4 67be
00000050: ca78 41be 85ff b7be 1621 61be 43e4 d9be
00000060: 50f9 3bbe ab3e 4bbf 98b4 49bf c03f 72be
00000070: 4256 9fbe 1833 3bbf a961 07bd ff9b bfbe
00000080: 4ee3 55be 8c80 e9be 1468 f8be 7f26 97bd
00000090: d4d6 35be c03f a6bc 3f14 9fbe 96f9 2b3e
000000a0: 4c1f f8be 7a2e b7be d647 b9bd 2938 8bbf
000000b0: 9a11 9bbe 11c1 48be 2fbc d7be 328f 00bf
000000c0: c6ca 85be 88fb 73bd cbdf acbe 7a8a 893b
000000d0: 9d8d f3be 3dc5 f5be 5dac 59be 42bd 61be
000000e0: 05d8 083a d1b0 ecbe 3acc 5bbe 2f72 2fbf
000000f0: 1a56 06bd 6542 0abf 3a6a 35be b45b 0ebd
00000100: 8d79 d1be 9123 6dbe 0cee 7abd ee00 6ebe
00000110: ef3b 91bf 8d46 abbd 81f7 acbe 2bb9 06bf
00000120: b75c 3abf 3ac3 00be 2576 47be cdbc d6be
00000130: a4a6 2ebf 4e86 4ebe 8670 c5be 98c4 d6be
00000140: 970e 8bbe 6e83 6dbf ce9f 0cbe 74b1 bcbe
00000150: 97d2 87be cf68 96be 9801 e8bd 99ca 7dbe
00000160: f5d8 91be 55fd 4dbe cf99 9bbf d5b9 98be
00000170: d544 17be c75c 99bd 1cd5 a4be 35b7 2abf
00000180: 984d 073e 29be a9be 3cf4 81be 2c07 d0be
00000190: b489 a3bf dd90 88be 1779 dabe 4338 aebe
000001a0: 43aa 4bbf 2897 61be 0ab4 08bf e774 38be
000001b0: b2aa 9abe 4467 b7be 78eb 37bd a0e7 35bd
000001c0: 1efa 10be 4f02 3abd cf16 87be ac00 c0be
000001d0: 00f1 4fbf 7068 29bd 698c bcbe 1a61 a4be
000001e0: e1fd 31bf 985e 9fbe 89c7 80be fc6d 3dbe
000001f0: 5879 8ebe 3bb8 08bf 14f2 963e dd0f 7dbf
00000200: 2a84 06bf 2c65 c9bd a446 dfbe 6f64 28bf
00000210: 16c7 ccbe dab0 debe f76b 15bf b19f c6be
00000220: 4c43 06bf 06fa b63b 6d75 4abf 89c7 72bf
00000230: 192d 20bf 6af1 67bd 842f eabd e903 0dbf
00000240: f54c a3be cfcb a8be 19be 8bbe 7f34 12bf
00000250: ae09 0ebe c658 c0be d131 4bbe 180a 1abe
00000260: ea2e c2be edc7 7abf 16bb 35bf 2584 62be
00000270: b947 eebe 49bf 2ebf 47f0 9cbe c77e 0ebd
00000280: 018d 883d cc51 fabc b8aa 75be 7d89 c33d
00000290: 015a 26bf e0a6 d2be 5103 d2be 5a7f e0be
000002a0: b354 e4be 9ea6 80be 342f d1bd 0982 3a3d
000002b0: d994 acbe 4786 60bf 4c41 a3bc 53b7 0ebf
000002c0: ceca ecbe b439 8cbe ccd2 2fbf 7b89 bebe
000002d0: 0b9d a1be 1b44 20bf 64fa 2abe 98d7 04bf
000002e0: 6a0c 45be 1511 1fbf dd68 6fbe 282f a6be
000002f0: eb9c e6be 74ee 6bbe be0f 2abf 6268 a6be
00000300: 0d95 95be 7829 5dbe 9a2a b5be ae2c 0ebe
00000310: 477c efbe 5f76 8ebe cb8d 9fbe 9014 58bf
00000320: a220 7abe 11e2 67bd e859 bebe 596e 86be
00000330: 5bc2 ccbd 780e dabe 071d 42bf ded4 b2be
00000340: 498a 863b f2b5 95be 2f13 89be d61f 7abe
00000350: 4ee3 debe 5236 60bf c4d5 b5bd 1fd4 a8be
00000360: e1b9 87bd 62c3 9bbe 7f97 a3bd 00d6 72bf
00000370: 2c53 b7bf 498d 13bf 0c0c 0bbf bc96 bb3c
00000380: df37 61be d7da b33d 8d3f ecbd 359b 9abe
00000390: b2a8 413d 313d 10bf 8159 15be c694 cabe
000003a0: bb44 30bf 782f 12be b797 94be 88b5 96be
000003b0: 2e6f d6be bd91 41bf 7bd9 a9be 99ef b3be
000003c0: 5f48 7dbf 322b 41bf 31f5 bfbe 5958 1fbf
000003d0: 5486 ddbd deed eebe 5fdb e1bd fb75 58be
000003e0: 7c7f 04bf 0b5f 1cbf bdd5 11bf 51a3 81bd
000003f0: 918c efbe 731c 0fbe f356 6bbf 2031 72be
-0.31521592 -0.23853803 -0.14507598 -0.16822386 0.018751826 0.06376506 -0.5208587 -0.97361547
-0.5798879 -0.5103168 -0.16817017 -0.62997514 -0.1193627 -0.15697813 -0.19764432 -0.30144644
-0.0141711235 -0.44563386 -0.30905306 -0.226396 -0.18893734 -0.35937133 -0.21985278 -0.42556962
-0.18356824 -0.793925 -0.7879119 -0.23657131 -0.31120497 -0.7312484 -0.03305212 -0.37423703
-0.20887491 -0.45605886 -0.48516905 -0.073803894 -0.17757732 -0.02029407 -0.31070134 0.16794428
-0.48461378 -0.35777646 -0.09046905 -1.0876514 -0.30286866 -0.19604899 -0.4213576 -0.502185
-0.26131266 -0.05956605 -0.3376449 0.004197416 -0.4756898 -0.48002043 -0.21257158 -0.22044852
0.00052201777 -0.4622865 -0.21464625 -0.68533605 -0.032796957 -0.5400756 -0.17716303 -0.034755424
-0.40913048 -0.23158099 -0.061262175 -0.23242542 -1.1346415 -0.08363066 -0.3378258 -0.52626294
-0.7279772 -0.12574473 -0.19478662 -0.4194092 -0.68223023 -0.2016842 -0.3856241 -0.41946864
-0.2715957 -0.9277867 -0.13732836 -0.36854136 -0.26527855 -0.29376838 -0.11328429 -0.24784316
-0.28485838 -0.2011617 -1.2156314 -0.2982928 -0.14772351 -0.07488399 -0.3219384 -0.666858
0.13213193 -0.33152893 -0.2538165 -0.40630472 -1.2776399 -0.26673022 -0.4267051 -0.340273
-0.79556674 -0.22030318 -0.5339972 -0.18013345 -0.30208355 -0.35820973 -0.044902295 -0.044410348
-0.14157912 -0.045412358 -0.2638459 -0.37500513 -0.8122711 -0.041359365 -0.36825874 -0.32105333
-0.69528013 -0.31126857 -0.25152233 -0.18498987 -0.27826953 -0.53406113 0.29481566 -0.9885233
-0.52545416 -0.0983375 -0.43608582 -0.6577825 -0.3999564 -0.43494302 -0.58367866 -0.3879371
-0.52446437 0.0055840043 -0.7908543 -0.94835716 -0.62568814 -0.056626715 -0.11434844 -0.5508409
-0.3189465 -0.32967994 -0.2729347 -0.5711135 -0.1387088 -0.3756773 -0.19843222 -0.15042913
-0.37926418 -0.9796131 -0.70988595 -0.22120722 -0.46539095 -0.6826063 -0.30652067 -0.034788873
0.06667519 -0.030556582 -0.23990905 0.09547708 -0.64981085 -0.4114294 -0.41018155 -0.43847162
-0.4459587 -0.2512712 -0.102140814 0.045534167 -0.33707312 -0.8770489 -0.019928597 -0.5574848
-0.46248478 -0.27387774 -0.68681026 -0.37214264 -0.31565127 -0.6260392 -0.16697079 -0.5189147
-0.19243017 -0.6213544 -0.23379846 -0.32457852 -0.45041594 -0.23040181 -0.6643027 -0.32501513
-0.2921528 -0.2159785 -0.35384065 -0.13884231 -0.46774504 -0.27824685 -0.31162867 -0.84406376
-0.24426511 -0.056612078 -0.37177968 -0.26256064 -0.09998008 -0.42589164 -0.7582554 -0.3492803
0.0041058403 -0.29240376 -0.26772448 -0.24426207 -0.43532795 -0.87582886 -0.08878663 -0.32974336
-0.066272505 -0.30422503 -0.0798788 -0.9485779 -1.4322257 -0.5763746 -0.5431526 0.022899024
-0.2199397 0.08781975 -0.11535559 -0.3019654 0.04728002 -0.5634337 -0.14584924 -0.3956663
-0.68854874 -0.1427592 -0.29022 -0.29435372 -0.41881698 -0.75613004 -0.33173737 -0.35143736
-0.98938555 -0.75456536 -0.37491754 -0.6224418 -0.10816637 -0.46665853 -0.1102817 -0.21138756
-0.51757026 -0.61082524 -0.56966764 -0.06329978 -0.4678693 -0.13975696 -0.9192955 -0.23651552

network.2.weight f4 [256, 256]
00000000: c919 13bd f2a8 0c3d 8a25 bb39 fc6a eebc
00000010: 0d91 35bd 5cdb 043d 002c b2bb 3ee1 71bc
00000020: 4063 4a3c 3da2 bbbd f1f4 4a3e 1e20 48bd
00000030: 2782 d3bd fa56 1a3d 2cfb afbc b4b7 b93a
00000040: f8c8 13bd d518 14be c263 a0bd 21a3 83bd
00000050: 10c9 d8bc e05e 6fbc a76d 78bd 20df 44be
00000060: 4f76 64bd 68af 61bd ee5f 6cbf ac9b e1bc
00000070: a065 c73c 20d8 64ba acba d33d 9406 e2bc
00000080: 9018 0cbd a460 cd3c 7ca3 0cbd fe7f 98bd
00000090: 6397 51bd 003f fa39 80c4 463a af29 82bd
000000a0: 13c9 20bb 381c 2abc 3768 2fbd 1d65 17bd
000000b0: 2c48 5fbd e28f aabd 9064 7abd aa77 c13a
000000c0: 34d5 323d 530d 83bd f2ba 61bd 8313 a5bd
000000d0: 268a edbb 1d79 b5bd 8d5c 26bd 00fa d1bc
000000e0: 1f3b a93a 2c26 f73c 6cd3 05bd 72d5 c4bd
000000f0: 3474 2ebd c440 77be d215 723d 4fd8 cebd
00000100: 9744 4bbd 33b3 ccbd dcec eebc a7d1 68bd
00000110: 6d21 d5bd 24b0 43bd c56d 12bd e85d 00bd
00000120: ebb5 1ebf c628 96bd 0b02 a6be 021c 0c3d
00000130: 7bcb 7ebd ef96 36bd 782c aebd c668 ed3b
00000140: 76ce 5cbd d24b 6ebe c998 94bd d4c5 b13c
00000150: 96c0 2abd ddd6 0a3c 4d39 91bd c734 06bf
00000160: 0089 c83c 74a9 79bd 1a6c a7be 0440 073c
00000170: fe56 b3bd 6b5f e3bc a279 42bd ab38 ecbc
00000180: fab8 d0bd c059 61bd 9ac3 92bd bb2a 20bc
00000190: ab44 ccbc 3001 2ebd 3cbe e2bc a4a8 09bd
000001a0: 7dda bfbd ba63 81bd 72f5 863c f834 bbbc
000001b0: f5a7 c7bc 7ccd 66bd c5e0 64bd a48c 07be
000001c0: fcb5 dabe 0d8c edbd a3d2 b2bc ce84 72bd
000001d0: ff07 c8bc d6c5 4d3d ac52 10be 0356 97bb
000001e0: ecb8 4ebd 004b 043b 56bf a2bd aa4c 3abd
000001f0: f012 78bc 8ed8 1a3d 96cb 1cbe 6756 26be
00000200: 38f4 72bc 24d1 33bd 99eb c2bd df1b 62be
00000210: 34e0 c93c c40b 153d ecd6 d9be 0cc4 85bd
00000220: 6975 49bd f2f0 813d 26c5 93bd 7712 60bf
00000230: 0257 1fbd 2a42 493d c28e c8bd c5e1 bbbd
00000240: 6322 74bd 66e2 45bd 5ee1 643d 7121 19bd
00000250: 96c7 b8bc b291 f73b a879 f7bc 23b4 08be
00000260: 1411 bf3c f759 85bc 1825 efbb f0fb d5bb
00000270: acdc a3bd b60c 3abd e04b 2dbd 9664 0abd
00000280: 8492 9fba 609d 713b 00d5 46bd 2b9a 9cbd
00000290: 3b19 513b f3f6 d2bd c730 9ebd 484e d73c
000002a0: 3b53 87bc c1f4 18bd 077b 00be 1f75 c1bd
000002b0: fbd5 67bd 99cf 4abd 5e9b c4bb 8e93 d8bd
000002c0: 0c69 90bd 4820 c8bd dedf 72bc 7ddd 38bd
000002d0: 6b8d 76bd 33bc 9abd 4c64 b6bc aa62 a8bd
000002e0: 02ba 6dbd 33cf 29be fc10 5fbd 03a1 113c
000002f0: c181 073d 9045 2fbc d959 a4bd 3b44 a7bd
00000300: 002c 2cbc 380b 153d a492 a43c e5d7 13bd
00000310: e2a7 b3bd 2a10 d5bd 5e97 41bd 2855 5bbc
00000320: 2901 bcb9 1d71 cabd 2f07 b9bd 2fa7 d6ba
00000330: fea2 3cbd 40a1 383b 7dc4 a5bd 5cb6 12bc
00000340: a263 e73a 7c62 703c 1b16 15bc 851c b8bd
00000350: 95e4 e7bd 559f 093c f07e f537 5c40 d8bd
00000360: 94b1 1abc 87dc 66bd 635c 5fbd 2b91 78bd
00000370: 837d b6be 2fb1 8bbd 88c9 e4be b046 12bc
00000380: 64e1 cdbd 1559 29ba 521a 41bd 0ab8 b6bd
00000390: 528e 45bd 20b0 5ebd d04b 21bc 3853 40bc
000003a0: 9ddf d4ba 37c6 ebbd b8ec 07bc 754d f7bd
000003b0: d2ae 05bd 91f5 0dbe bbd6 33bd 001f 98bb
000003c0: 65b6 65bc 20cb d8bc 74bf 903c 40db 68bd
000003d0: 8cc1 bd3c f99f 08bd 320f 39bd fdd7 80bd
000003e0: accc 043d 00dc 7ebb 81ab 41bf 625f 94bd
000003f0: 4691 8cbc 4b1c 72bd fd90 e5bc 16c3 673d
-0.035913263 0.034340806 0.00035695388 -0.029103749 -0.044327784 0.03243576 -0.005437374 -0.014763175
0.012352765 -0.09161804 0.1982 -0.048858754 -0.10327559 0.037680604 -0.021482073 0.0014169128
-0.03608033 -0.14462598 -0.07831527 -0.06427599 -0.026463062 -0.014610022 -0.060651448 -0.1922574
-0.05577689 -0.05509892 -0.9233388 -0.02754005 0.02434045 -0.0008729715 0.10338339 -0.027591027
-0.034203112 0.025070496 -0.0343356 -0.074462876 -0.051169764 0.00047730654 0.00075823814 -0.06355607
-0.0024533912 -0.010382704 -0.042823996 -0.036961664 -0.054512188 -0.08328225 -0.06113106 0.0014760394
0.043660358 -0.06399026 -0.055109926 -0.08060362 -0.0072491346 -0.08860991 -0.040615607 -0.025631905
0.0012911296 0.030169569 -0.03267233 -0.09611024 -0.04259129 -0.241458 0.05910284 -0.10099851
-0.04962596 -0.09995117 -0.029165678 -0.056840565 -0.10406766 -0.047775403 -0.035749216 -0.031339556
-0.61996335 -0.07331996 -0.32423434 0.034206398 -0.062205773 -0.044577535 -0.085045755 0.007245156
-0.053907834 -0.2327111 -0.07255704 0.021700777 -0.04168757 0.008474079 -0.070910074 -0.5242428
0.02447939 -0.06095262 -0.32699662 0.008255009 -0.08756827 -0.02775546 -0.04747928 -0.028835615
-0.101915315 -0.055017233 -0.07166214 -0.009775813 -0.024935087 -0.0424816 -0.027678601 -0.033608094
-0.09367845 -0.063178495 0.01647446 -0.022852406 -0.02437208 -0.05634831 -0.05587842 -0.13237244
-0.42716968 -0.11598978 -0.021828955 -0.059208684 -0.024417875 0.0502375 -0.14094037 -0.0046184077
-0.050469324 0.0020186305 -0.07946651 -0.04548327 -0.015141234 0.03780418 -0.15312037 -0.16243897
-0.014828734 -0.043900624 -0.09517593 -0.22080944 0.024643041 0.036388174 -0.42546785 -0.065315336
-0.049184237 0.06344785 -0.072153375 -0.87528175 -0.038901336 0.049135365 -0.09792854 -0.091739215
-0.059603106 -0.048311614 0.05587899 -0.037385408 -0.022556107 0.00755521 -0.030209377 -0.13349967
0.023323573 -0.01627825 -0.007298123 -0.0065302774 -0.08001074 -0.04542228 -0.04230869 -0.033787332
-0.0012174402 0.0036867484 -0.048542976 -0.07646593 0.0031905908 -0.10301008 -0.07724147 0.026282445
-0.01651918 -0.03734279 -0.12546931 -0.09446167 -0.056600552 -0.049514387 -0.0059999665 -0.10575019
-0.07051286 -0.09771782 -0.014823882 -0.045133103 -0.06019346 -0.075554274 -0.022264622 -0.08221944
-0.05803872 -0.16582946 -0.054459557 0.008888486 0.033082727 -0.010697737 -0.080249496 -0.08167311
-0.010508537 0.036387652 0.020089455 -0.036094565 -0.087722555 -0.10403474 -0.047263496 -0.013387002
-0.0003585902 -0.09884856 -0.09034573 -0.0016376729 -0.04605388 0.0028172284 -0.08094118 -0.008954611
0.0017653594 0.014671918 -0.009099509 -0.08989815 -0.113228954 0.008399804 2.9265386e-05 -0.105591506
-0.009441752 -0.056362655 -0.054531466 -0.060685318 -0.35642633 -0.068209045 -0.44685006 -0.008927986
-0.100527555 -0.00064601126 -0.04714424 -0.089218214 -0.04823143 -0.054367185 -0.009844735 -0.011738591
-0.0016240958 -0.11512416 -0.008296184 -0.12075321 -0.032637425 -0.13863207 -0.043905955 -0.0046423674
-0.014020537 -0.026464045 0.017669417 -0.056849718 0.02316358 -0.033355687 -0.045180507 -0.062911965
0.032421753 -0.0038888454 -0.7565232 -0.07244755 -0.017159116 -0.059109014 -0.028023237 0.056582533

network.2.bias f4 [256]
00000000: d9e4 30be 3050 1bbb 5c18 06be 6eed 94bd
00000010: f2df 7cbe bccd e6bd f641 d9be 7bdd d3be
00000020: 376e 99bd 4f04 db39 f961 49be 3e9e 2bbe
00000030: 0255 d4bf a28d 8bbd 7a40 64be d09c 3ebf
00000040: 3458 8bbd c3bd 30bd fb7a 69be 8571 d6bd
00000050: 3341 58bd e5bd f23e 97b2 3ebc 7b34 e8bb
00000060: aba7 d8bc 564a 5a3f 7e67 01bf e710 c3bd
00000070: 1feb 73bd 99da 4bbd 387d b3bd 164b b7bd
00000080: fdef 4fbe 7253 8abc 69af 4a3f 028c 46be
00000090: 8b1c 40be 38e7 acba 436d dbba c4b2 4f3d
000000a0: 78ad 7ebc 8633 d63d 379e 1ebd 3dfc 56bd
000000b0: 5a4d c4bd 2f8f 6e3f 301a 3cbd f925 e1bb
000000c0: 7a09 c1bd 2075 adbc c165 86bd 37f1 8fbd
000000d0: a494 f0be e3bc 9abe 05fe 94bd 2c21 0bbe
000000e0: c8da 8bbd 2a5b 22bd 9277 40bf 9ee9 22bd
000000f0: 33f4 f6bc 9035 9eba dcab 84bc c486 13bd
00000100: 7ca9 463f b35b f2bd de64 02bf 6a5e 84bd
00000110: eac5 30be 1410 27bd 4fb0 b2bd fcbc 96bc
00000120: 0523 32bf 1a6b a1bd 63bb a2bd 9c90 80bd
00000130: baab 07bf 2055 2cbe b3b0 0ebd 4d05 2cbe
00000140: 1864 a4bc 3866 fdbb f7fa b6bd e9b5 a9bd
00000150: c6a3 91bd 798d debe 2ff6 29be 4c0a 9cbd
00000160: eb5b 12bd f1b2 b4be 0f89 b7bd a3d1 0ebf
00000170: 2736 8fbd d53e 0bbd 7b6c b1bd c5e7 fdbc
00000180: 94d3 bcbd df00 9b3e 4325 35be d014 5cbc
00000190: bb1e 13bf 6fae 32bd 30f4 64be 3293 c5bc
000001a0: a5d0 9dbd 8f73 90bd 90b5 0ebd f052 f5be
000001b0: 259c 78be 226c a8bd 9fa9 4cbf 6f4b fcbe
000001c0: 9dbb 37be e61a a4bc d535 01be e082 54bc
000001d0: a15f 93be efcf d0bb acf8 04bd 0bf0 52bd
000001e0: a696 18bc b902 18bf d1b9 e9be 6151 0abf
000001f0: 6f55 bbbd e5e0 19be 787c 71bd c28b 31bd
00000200: 2821 dfbe 756c 68bf 4f8e 36bf 9285 353f
00000210: 4f16 cfbc a948 35bf 3f8f babf 32f5 cabe
00000220: 5002 51bf c5c0 dfbd 0441 78be c538 01bd
00000230: d051 0d3e 5b65 22bf 6986 a3be 7c18 d4bd
00000240: abc3 ebbe 3167 03bf 1081 bfbd b2f6 e0bd
00000250: 2c28 743f 077a edbd a9bc 02be bae3 53be
00000260: 467a 373f 9e8e 08bd 8126 f1bd 04ac 86bd
00000270: 6e06 87bd 9a10 00bf 1e75 77bd fcd2 60bf
00000280: fca5 8abd b91a d9be ea9d 2bbe abbd eabc
00000290: 611a 4fbd bb19 40bd 15ae 0dbc 025d 99bd
000002a0: abef f2be 782e cabd db5b f3bd 870d d9bd
000002b0: 98bc 1abd 83dc 76be bea4 87be 2077 ea3e
000002c0: 53bb 13bf dfca afbd a9eb e1bd 4907 49bf
000002d0: c5d9 00bf 034d e6bd 6eca 9fbd ddaf 8fbd
000002e0: e405 32bc 8cf9 b9bd f984 dcbe 8cec 3ebd
000002f0: d381 41bd 941f acbd 8e2f eabe 4388 69bd
00000300: aea6 dfbd 0eae 76bd 83c3 cebc 1d39 77bd
00000310: b9b7 c7bd 755e b6be 8557 efbe f15d 14bf
00000320: 79be 0dbd 8750 a5bc a550 adbe 47b5 fbbc
00000330: 44a1 c2bd 72a5 cdbe 778b 93bd dce0 62be
00000340: ce1d 49bd eef1 7abd 25c9 83bd f06a aabe
00000350: d2bd 84bd 38bb cfbd 9a18 9abd 3db6 90bd
00000360: 0db0 57bc 713e dcbd a3b1 48be cedc 55bf
00000370: fee9 dfbd 69fc 91be 20ac 89be 72d8 d3be
00000380: ac38 0bbd 188c 72be 68d9 2bbe 0ece bdbd
00000390: f5cb 05bf 0544 18be e04d 8bbc dc5d 03bd
000003a0: 3ce0 e7bd d9ce 14bf 3a85 99bd 98b3 cfbe
000003b0: 799d c8be 7b11 73bd 8ade 29bf a2ff fd3e
000003c0: bc43 b7bd f915 85be d65b 8bbd 7404 2abc
000003d0: 5d84 afbe 0e7e a2bd 923b a9bd f8b6 fdbd
000003e0: 2975 95be cd82 40bf 7dfd 41bd 83a2 38be
000003f0: 06c2 3ebf 1988 cfbc a454 bebd 3053 37be
-0.17274798 -0.0023698919 -0.1309523 -0.072718486 -0.24694803 -0.112697095 -0.42433137 -0.41379914
-0.07491725 0.00041774145 -0.1966628 -0.16759583 -1.6588442 -0.06814124 -0.22290221 -0.74458027
-0.06803933 -0.04314972 -0.2280082 -0.10470871 -0.052796554 0.47410503 -0.011639259 -0.0070863343
-0.026447138 0.8526968 -0.5054854 -0.09524708 -0.0595504 -0.049769018 -0.08764118 -0.089498684
-0.20306392 -0.016885493 0.79173905 -0.19389346 -0.18760888 -0.0013191467 -0.0016740937 0.050707594
-0.015544288 0.10459046 -0.038725104 -0.052486647 -0.09585066 0.9318723 -0.04592341 -0.006870982
-0.09425636 -0.021174014 -0.06562377 -0.0702843 -0.46988404 -0.30222234 -0.07275013 -0.13586873
-0.068288386 -0.039637722 -0.7518245 -0.039773576 -0.03014574 -0.0012070406 -0.01619523 -0.036017194
0.7760236 -0.118338965 -0.5093516 -0.064633206 -0.17262998 -0.040786818 -0.087250344 -0.018400662
-0.69584686 -0.07881756 -0.079458974 -0.06277582 -0.5299641 -0.16829348 -0.034836482 -0.16798897
-0.02006726 -0.0077331327 -0.089345865 -0.0828665 -0.071113154 -0.4346731 -0.16597818 -0.076191515
-0.03573219 -0.3529277 -0.08961689 -0.5578863 -0.069927506 -0.03399547 -0.08663269 -0.030994305
-0.09220043 0.30274102 -0.17689995 -0.013432696 -0.57468766 -0.043623384 -0.22358775 -0.02411804
-0.077058114 -0.07053291 -0.03484112 -0.4791484 -0.24278314 -0.0822375 -0.7994632 -0.492763
-0.17942663 -0.020032357 -0.12618192 -0.012970656 -0.28783897 -0.006372444 -0.032463714 -0.051498454
-0.009313261 -0.59379154 -0.4564958 -0.54030424 -0.091471545 -0.15027197 -0.058956593 -0.043346174
-0.43579984 -0.9079049 -0.71310896 0.7090694 -0.025279192 -0.70813996 -1.4574965 -0.39640194
-0.81644154 -0.1092544 -0.24243551 -0.03154828 0.1380074 -0.63435906 -0.31938484 -0.103562325
-0.4604772 -0.5132933 -0.093507886 -0.109845534 0.953738 -0.115955405 -0.1276728 -0.2069234
0.7167095 -0.033339135 -0.11774922 -0.06575778 -0.06593023 -0.5002533 -0.060414426 -0.87821937
-0.0676994 -0.424032 -0.16759458 -0.028654894 -0.050562266 -0.04689954 -0.008647461 -0.07488443
-0.47448477 -0.098721445 -0.118827544 -0.10598283 -0.037777513 -0.24107556 -0.26492876 0.4579401
-0.5770771 -0.085836165 -0.11031277 -0.7852674 -0.5033229 -0.112451576 -0.07802282 -0.07015965
-0.010865662 -0.090808004 -0.430702 -0.046612307 -0.04724295 -0.084044605 -0.45739406 -0.057014715
-0.109204635 -0.060224585 -0.025239712 -0.0603572 -0.09751839 -0.3561894 -0.4674646 -0.57955843
-0.034605477 -0.02018 -0.3385059 -0.030726088 -0.09503415 -0.40165287 -0.07204335 -0.2215609
-0.04910069 -0.06126588 -0.0643485 -0.33284712 -0.06481518 -0.10143131 -0.075242236 -0.07066009
-0.013164532 -0.10754097 -0.19599013 -0.83540046 -0.10933302 -0.28512886 -0.26889133 -0.41376072
-0.033989593 -0.23686254 -0.16782153 -0.092678174 -0.5226434 -0.14869697 -0.017004907 -0.032071933
-0.11322066 -0.58128124 -0.07496114 -0.40566707 -0.39182642 -0.059342843 -0.6635519 0.49609095
-0.08948466 -0.25993326 -0.06804626 -0.010377038 -0.34280673 -0.07934199 -0.08263315 -0.12388414
-0.2919095 -0.75199586 -0.047360886 -0.18030743 -0.74514806 -0.025333451 -0.09293488 -0.17902827

network.4.weight f4 [6, 256]
00000000: 9350 093e bd56 913c f2b0 e03d 3473 d1bd
00000010: 28ff 25be 133d d63d 8e77 29be 5f3f 423e
00000020: fe60 653d b2b2 f23c 3efd 17be 572b 8d3d
00000030: ac92 16bd 6189 233d dc5e 2f3e e4e6 8c3d
00000040: b9b8 ed3d 7cc3 83bd 6d70 0dbe 1e35 863d
00000050: d247 293c b214 f63e a16b f1bd f00b c63d
00000060: fa2f 0abd ccf6 2b3e c156 8b3e 1341 a33a
00000070: bff0 943b d5f9 f3bc b832 d2bc 85d7 863d
00000080: f150 0bbe 9c67 863d 5596 e5be 3a32 503d
00000090: 1864 40be bb75 c2bc 5643 633c 7447 09bf
000000a0: 10ae c1bb 1829 783f 1e8f 37bd 16c9 fa3c
000000b0: f150 843c 015a b53f 67ec ce3d 28d1 0dbd
000000c0: 18d5 533d d8c9 453d 0ae3 14be b5d5 003d
000000d0: 7505 1b3e c442 87be b44a 2bbd 2cda 27bd
000000e0: 3dc5 48bd 0046 30bd 7146 0abf 229a ab3d
000000f0: 885e ccbd 4445 d43d c345 3a3d 3bfd 18bd
00000100: 6601 60bf 793e 6f3d 7396 c73e 2394 fa3c
00000110: bb93 3fbe 5202 0b3d 3760 173c 54f8 e7bc
00000120: c2d3 f43e 44ab 943d f9ae d8bd cd50 01bb
00000130: e0e6 35bc a020 d23b 3ce5 19bc 28ee 833d
00000140: ec58 04bd fc28 86bd 6cdb 61be 5c2d 693d
00000150: 914c b9bd f834 6fbd 11a3 7a3e 6ff3 09bd
00000160: e3cc 6cbd 35f0 fbbe ead6 b1bd 1b82 3cbe
00000170: 7a86 f83b f11d 603d 4a1f d839 b65c 973d
00000180: 852b 1c3d 4f13 78bf 331f 88bd 70e8 ebbc
00000190: d4a3 813e f1d7 0d3d b309 193e 513a cbba
000001a0: 80cd 9d3d e9b6 623d 4e41 833d 11f4 993e
000001b0: e9da 54be cf0d db3d 032a 6c3e 5a7d 9cbe
000001c0: 680f aabd badc 78bd 1dee af3d d5f0 53be
000001d0: 954b 6abd 005d 42bd 9928 6abd 5009 553c
000001e0: 016f 9c3c d9b4 a7be 97e6 ec3e 86fc 40be
000001f0: e319 03bb f084 163d 9f27 4e3d 6163 b23c
00000200: 2235 e93d 9e51 34bf 0d6a f0be eeac 21bf
00000210: ece9 2a3d 5af0 883d 919b bfbe 8030 cdbe
00000220: 227a acbe 441d 063d 8c46 bc3d 1ef2 883b
00000230: 4ed0 923e a8e2 8b3e 73b4 30be f8ec e63c
00000240: efc3 153f 0256 063e f445 bc3d 6e69 3f3b
00000250: 088b a5be 2eea 383d 5d37 8bbd 2d51 6a3e
00000260: 2afe 07be 4528 d1bb 1981 ccbd 06cb 0f3c
00000270: 3a46 3bbd 1533 17bf d6b5 08bd 3a6b 91be
00000280: cc88 32bd 1df2 e6be f23a cabe ee9e 56bd
00000290: 0eb4 65bc 84ac 473c 8f7c 473d 8317 823c
000002a0: 3123 0d3e 8042 823f 9224 29bc 6fba 15bd
000002b0: fc79 7ebc efee a6bd b3db 18be cfa0 5e3f
000002c0: ccc3 d8be a9dd f13c b4a1 e33d dfc0 d8bd
000002d0: 6d7d 423e 5089 6abb 6799 553d 124a c5bd
000002e0: 67f3 53bd b780 07bd d209 d0be 0082 a63c
000002f0: 86ff 313c c0ab 153d b02c 88bd c07d 873c
00000300: 758f 96bd 6d1c 9cbd 2274 afb9 7531 ed3c
00000310: c851 0cbc c7b8 a43e c670 e53e 2a28 8b3e
00000320: 4b24 07bd 1235 353d ae43 e4be e71d 55bd
00000330: 2fa1 91bc f9b7 f93d 08fc b6bc 21c4 d3bd
00000340: 499e cf3d 79ba 17bd 78bc d0bc 59f7 c0bd
00000350: 7073 123d ea3d 01bc a1f7 693c 26ad 203d
00000360: 05f6 cd3d 46c4 55bd b613 b63d a535 3dbf
00000370: 3081 f6bc 1804 36bd 0cd9 0b3f 7385 da3e
00000380: a2bc 78bd a3aa 99be dd4b 7cbd b0c8 823d
00000390: 1701 443b 6003 68be 87c6 67bd 29b2 b13d
000003a0: 2e36 8f3c aa70 e9be 08a9 eb3e c906 19bf
000003b0: d9d1 8bbe 1d50 1a3d b341 83be 6a9a aabe
000003c0: d132 e63d c2ee b7bd 58e0 a5bd 2805 0abe
000003d0: 19d9 b2be d5b6 963c 73c0 013c 53c2 83bd
000003e0: 2b8c 16be 530e 3cbf 49bd 8cbd fdff a6be
000003f0: ca24 283e 066e 193c bf23 12bd 5e0a 58be
0.13409643 0.017741555 0.1097125 -0.102270514 -0.16210616 0.10460868 -0.16549513 0.18969487
0.056000702 0.029626224 -0.14842698 0.06893032 -0.03676097 0.039925937 0.1712603 0.068799764
0.11607499 -0.0643377 -0.13812418 0.065531 0.010332065 0.48062664 -0.11788107 0.09670246
-0.03373716 0.16793364 0.27214625 0.0012455307 0.0045453007 -0.029782215 -0.02565895 0.06584076
-0.13605095 0.06562731 -0.44841257 0.05082915 -0.18788183 -0.023737779 0.013871035 -0.53624654
-0.0059106424 0.96937704 -0.04481422 0.030613463 0.016151877 1.4168092 0.10103684 -0.034623295
0.051716894 0.048288196 -0.14539734 0.031453807 0.151388 -0.26418126 -0.04181929 -0.04097955
-0.049016226 -0.043035507 -0.54013735 0.08379008 -0.09978968 0.10364774 0.045476686 -0.037350874
-0.87502134 0.058409188 0.3898197 0.030588215 -0.18708698 0.03393776 0.009239248 -0.028316654
0.47817808 0.07259229 -0.105802484 -0.0019732 -0.011102408 0.0064125806 -0.009393033 0.06441909
-0.032311365 -0.06550786 -0.22056359 0.056928024 -0.09047807 -0.058400124 0.24476267 -0.033679422
-0.057812583 -0.492067 -0.0868357 -0.18409006 0.00758439 0.054716054 0.00041222043 0.0739073
0.03812744 -0.9690446 -0.06646576 -0.028797358 0.25320303 0.034629766 0.14945106 -0.001550505
0.07705212 0.055350218 0.0640894 0.3006902 -0.20786633 0.10695993 0.23062901 -0.30564386
-0.0830372 -0.060757376 0.085903384 -0.20697339 -0.057200987 -0.047451973 -0.057167623 0.013002709
0.0190959 -0.32755163 0.46269676 -0.1884633 -0.0020004443 0.036747873 0.050330754 0.021775903
0.113870874 -0.7043704 -0.4695591 -0.63154495 0.04172699 0.066864684 -0.37423375 -0.40076065
-0.3368693 0.032742754 0.09193143 0.0041792532 0.2867455 0.27321362 -0.17256336 0.028189167
0.58502096 0.13118747 0.0919303 0.0029207128 -0.32332635 0.045145206 -0.06797669 0.22882529
-0.1328055 -0.0063829743 -0.09985561 0.008776432 -0.04572127 -0.5906232 -0.033376537 -0.2840212
-0.04358749 -0.45106593 -0.39498097 -0.05239766 -0.014019979 0.012187127 0.048702773 0.015880352
0.13782956 1.0176544 -0.01032366 -0.03655475 -0.015532013 -0.08151042 -0.14927559 0.86964124
-0.4233688 0.029524641 0.11114827 -0.10583662 0.18993159 -0.003578741 0.05214825 -0.096332684
-0.0517458 -0.033081736 -0.40632492 0.02032566 0.010864144 0.036540747 -0.066491485 0.016539454
-0.07351581 -0.07622609 -0.00033465127 0.028954247 -0.00856442 0.32172224 0.44812602 0.2717908
-0.032993596 0.044240065 -0.44582886 -0.05203047 -0.017777054 0.12193293 -0.022336975 -0.10340143
0.101376124 -0.03704307 -0.025480494 -0.09422178 0.03575462 -0.007888297 0.014280231 0.039227627
0.1005669 -0.052189134 0.08890478 -0.7390998 -0.030090898 -0.044437498 0.5462806 0.4267994
-0.06072677 -0.30012998 -0.061595786 0.06385934 0.0029907876 -0.22657537 -0.056585815 0.086765595
0.01748189 -0.45593768 0.46027398 -0.5977598 -0.2730854 0.03767406 -0.25636062 -0.33320934
0.11240161 -0.08981086 -0.08099431 -0.1347853 -0.34931257 0.018397728 0.007919419 -0.06433549
-0.14701907 -0.7345936 -0.06872041 -0.3261718 0.16420284 0.009364611 -0.03567862 -0.21097705

network.4.bias f4 [6]
00000000: 7f01 ebbd cef0 d13e fe21 b6bf 2841 c4bf
00000010: 6ad0 99bf fa06 80bf
-0.11474895 0.41004032 -1.4229124 -1.5332384 -1.2016728 -1.0002129
