Training/Model/model_critic_robot_subset_joint3_01.pt (torch, 281143 bytes, 5 tensors)

network.0.weight f4 [256, 13]
000000 8e da 19 3e 1c 4e 8d 3e ac 4a c8 be 36 fc 81 be
       0.15024778 0.27598655 -0.3911947 -0.25387734
000010 90 a8 03 be e3 bd cb be ff 43 6b 3f 63 1e d0 be
       -0.1285727 -0.3979331 0.9190063 -0.40648183
000020 8a e9 2f 3d bd 9a 31 bf 8e da be bc a4 2f a3 bd
       0.04294733 -0.69376737 -0.023297574 -0.07968071
000030 6e b1 56 bd b7 17 44 3f b3 6a e2 3e 7f 87 ed 3e
       -0.052415304 0.76598686 0.4422203 0.46392438
000040 ff 51 b5 bd 9d ec 60 3e 61 6d 2a 3f 7c 97 96 3d
       -0.0885353 0.21965261 0.6657315 0.07353112
000050 e8 cc d2 be 81 c3 aa be 56 61 39 bf 07 33 01 3c
       -0.41171956 -0.33352283 -0.7241415 0.007885701
000060 dd f3 a6 bd 27 fc 8c 3d 4b 79 48 3f a9 8a ba 3d
       -0.08151982 0.06884032 0.7831008 0.091084786
000070 13 02 7d 3f 8a a7 08 3f 1f 02 38 bf dd 71 f1 3e
       0.9883129 0.53380644 -0.71878237 0.47157183
000080 70 a3 5c 3f 2f 12 92 3e 88 74 42 be be a5 19 bf
       0.86186886 0.28529498 -0.18989766 -0.6001853
000090 43 cc be bc 2a 4f 2f bc 73 5e cb bc b7 4f a8 3d
       -0.023290759 -0.0107000265 -0.02482531 0.082183294
0000a0 51 9c a9 3e 8b c6 4b 3f e1 6d 4d bd 9c ac 66 3f
       0.33127072 0.7959983 -0.050153617 0.9010713
0000b0 eb cd 94 bd 54 78 c5 3f 9e e8 a0 3e 00 e3 68 be
       -0.07265838 1.5427346 0.31427473 -0.22742844
0000c0 a5 a6 fc be 61 30 ec bd 55 e4 e7 bc 09 ea 1a bd
       -0.4934589 -0.11532665 -0.02830712 -0.03782085
0000d0 4b 7f 14 3f 9e 1a 33 3f d5 9a a3 3e 73 df 6f bb
       0.58006734 0.6996249 0.31954065 -0.0036601692
0000e0 f5 19 2d bf 5c 0b 39 bf a8 c7 59 3e 9f d9 9e 3e
       -0.6761773 -0.7228296 0.21267569 0.31025407
0000f0 76 05 08 bf ea 1d 91 bd 22 1b 20 bd fe 48 33 3d
       -0.5313333 -0.07085784 -0.039088376 0.043770783
000100 9d bd e1 bd 21 ad 82 3d e1 a2 e9 bc b6 53 e1 bc
       -0.11022494 0.06380678 -0.02852005 -0.027505737
000110 3e a5 a6 3d d3 d1 56 3e 95 6f 00 3f 47 3f 9f 3f
       0.08136986 0.20978479 0.5017026 1.2441186
000120 9a 00 53 bf e4 9c 4f 3e 5b 68 8b 3f cf 2d 25 3c
       -0.8242279 0.20274693 1.0891222 0.010081722
000130 68 3a 3f bc ca 3f 07 3d 2d 4b 40 3f 98 72 b4 3d
       -0.01167164 0.03301982 0.7511471 0.088109195
000140 30 67 b8 3f 7a bb 39 bf dc 80 68 3f 05 dc 42 bf
       1.440649 -0.7255169 0.90821624 -0.76116973
000150 6a f5 5b bf 40 af 57 3e 27 f5 17 bf 34 c0 f8 be
       -0.8592135 0.21062946 -0.5935845 -0.4858414
000160 0d 39 8a bd 94 09 06 3e 9e 3f e5 3d 83 4f ed 3e
       -0.06749163 0.13089591 0.11193775 0.46349725
000170 be dd 03 be 71 17 36 3f ae 29 24 3e 7b eb 92 be
       -0.12877557 0.7112952 0.16031525 -0.28695282
000180 68 a3 92 3d 3a eb 8a 3f 5c 1a 49 3e df eb c8 bd
       0.071600735 1.0853035 0.19638962 -0.09810614
000190 2f 38 8c be 8b b3 da 3d 2d 45 06 bc be 8a 27 bd
       -0.27386615 0.10678776 -0.008195204 -0.0409038
0001a0 e3 10 c1 be ce 22 6b 3e a7 85 8f 3d 62 21 6e 3e
       -0.37708196 0.22962496 0.07007914 0.23254922
0001b0 91 5e 99 3f 54 38 78 be d7 67 b0 bf dc e7 9a be
       1.1981984 -0.24240237 -1.378169 -0.3025502
0001c0 c2 ac 18 bf 09 b6 90 3e 25 9f 56 3b 6d 46 9a 3d
       -0.5963861 0.28263882 0.0032748666 0.07532964
0001d0 91 07 e8 bd 91 f4 16 3d 4c 7b c0 3e 38 47 3d bf
       -0.11329568 0.03685433 0.37594068 -0.73936796
0001e0 69 ab bf bd b3 1f bd 3e 68 18 e2 3e 69 a2 4b 3f
       -0.09358866 0.36938247 0.44159245 0.79544693
0001f0 f9 31 91 bf db dd 56 be 2e 9c 5d 3f 43 43 9e bc
       -1.1343375 -0.20983069 0.86566436 -0.019319182
000200 70 b3 fb 3c 68 72 55 3d 18 33 7b 3e 03 56 7f 3e
       0.03072521 0.05211106 0.2453121 0.24935155
000210 bf 4b 76 3d 31 65 9b 3d c9 1b aa 3e 60 ac 2e be
       0.06013083 0.0758766 0.33224323 -0.17057943
000220 22 64 eb bf d9 2c ac bd 65 c4 1d 3c a9 23 9d 3d
       -1.8389933 -0.084069915 0.009629344 0.07672817
000230 61 51 02 3d b0 a0 61 be 58 80 8f 3e de 7f 08 3f
       0.03181589 -0.22033954 0.28027606 0.5332011
000240 f3 95 fa 3c 40 a8 b8 3f 91 d2 80 bf 83 52 0e bf
       0.03058908 1.4426346 -1.006426 -0.5559465
000250 6b 74 24 3f 8f 9b a1 bf 2f 42 45 be 9d 1c 94 bd
       0.6424014 -1.2625598 -0.19263528 -0.0723202
000260 c8 f8 a2 3d d9 e0 d8 bb cd 53 fd bc 11 97 d2 3c
       0.079576075 -0.006618601 -0.030923748 0.0257068
000270 0d 06 24 3e 4f 6d c0 3d d7 e5 ce 3d c6 e6 65 bd
       0.16017933 0.09395849 0.10102432 -0.056128286
000280 cf 34 22 3e 8e 37 1a 3e e4 4b 6d 3e 7d 2b d5 3c
       0.15840457 0.15060255 0.23173481 0.026021713
000290 4c 31 74 be e9 2b 4b be 0a 14 a5 bc 19 4d ee bd
       -0.2384693 -0.19840969 -0.020151157 -0.11635799
0002a0 78 46 db bb 5f 73 84 3e 16 6f 80 3e 8f 22 af 3e
       -0.00669175 0.2586927 0.25084752 0.34206054
0002b0 9f 74 3b 3e a6 0d 27 bd 4b 24 ae 3d e0 02 f6 3d
       0.18306206 -0.0407845 0.08503016 0.12012267
0002c0 d2 b1 62 be 9c 15 98 be 57 9a 2b 3e ac 77 84 bc
       -0.22138146 -0.29703987 0.16758095 -0.016170345
0002d0 bf e8 22 3d 7a cd da 3d 76 e6 2e 3d f9 e8 83 3e
       0.039772745 0.10683723 0.042700253 0.25763682
0002e0 6e 76 cb bd 8e c3 9b 3e 93 d2 a6 bf 6c 86 dd bc
       -0.09934698 0.30422634 -1.3033012 -0.027041636
0002f0 9b bd 69 3f ae 07 35 bf 5c 2e a9 bd 67 a0 86 3e
       0.9130494 -0.70714843 -0.082607955 0.26294252
000300 c4 48 70 bb fe b0 7b bd 4e 86 21 3d 83 2d c6 3e
       -0.0036664465 -0.06144809 0.039434724 0.38706598
000310 a4 b3 58 bd a4 6c 23 3f 7d 93 aa be bb df 9d 3e
       -0.052905694 0.6383765 -0.3331565 0.30834755
000320 21 5d 68 be 17 56 8f 3e 72 ec 88 be 79 4f 48 be
       -0.22691776 0.2799537 -0.26742893 -0.19561566
000330 3f 50 2f 3f 96 02 ab bd fe b7 92 bd 4a 9c 2e be
       0.6848182 -0.083501026 -0.07164 -0.17051807
000340 ed 0a ce 3e 3c 22 a6 3e 4a 19 5e 3f 1a 73 84 bf
       0.4024271 0.32447994 0.8675734 -1.0347626
000350 86 07 2a be bb f9 69 3b f4 62 b5 be 8f fe 42 bf
       -0.16604432 0.003570183 -0.35427058 -0.76169676
000360 47 0d bb be 25 dc 2f be 43 39 8f bd 0b dc 93 bc
       -0.36533567 -0.17173822 -0.06993344 -0.01804926
000370 4f d0 08 3a 66 e9 17 3f cc fa 8b be 35 cd 58 3f
       0.00052190287 0.5934051 -0.2733978 0.8468812
000380 16 63 00 3f 55 93 10 bf f9 50 db bd 61 fd 98 3f
       0.50151193 -0.5647481 -0.10708804 1.1952325
000390 4d f3 b0 3e 2e 8d af 3d 37 45 0a 3f 28 15 68 bc
       0.34560624 0.0857185 0.54011863 -0.0141652
0003a0 8a 1b c7 bc 35 1b 2f 3e 59 3f 61 3e 03 4c 9c 3e
       -0.024305124 0.17100222 0.21996821 0.30526742
0003b0 a3 f0 4c 3e 10 0e 63 bc 38 46 77 bd be f3 bb bd
       0.2001367 -0.013858333 -0.0603697 -0.091773495
0003c0 63 b0 23 be a6 a5 08 3e 2f e8 4a be 35 a1 95 bd
       -0.15985255 0.1334444 -0.19815134 -0.073061384
0003d0 be a7 59 3c 00 8d 3d 3e bb f8 56 3e 2f cc cc 3e
       0.013284622 0.18510818 0.2099332 0.3999953
0003e0 60 08 de 3e da 0a 63 3e f9 b7 38 bc 3c 39 0d 3f
       0.43365765 0.22172108 -0.011274331 0.5516546
0003f0 8e 2d 0e 3e bb 90 47 bf ab a4 85 3e 76 51 36 be
       0.13884565 -0.77955216 0.26102194 -0.17804512

network.0.bias f4 [256]
000000 1a 6e 53 be cd 03 b6 bb d8 c4 9e bc 28 84 93 bd
       -0.20647469 -0.0055546523 -0.019380972 -0.07202941
000010 84 a4 de be e2 bc c4 bd 11 90 71 be c5 f1 12 bd
       -0.4348489 -0.09606339 -0.23590113 -0.0358751
000020 10 ff dc be 96 75 87 be 35 43 c7 be 3f 3c 89 3d
       -0.43163347 -0.26456898 -0.38918462 0.06700944
000030 28 50 6b be ee e8 be be 49 46 8a 3e 93 60 a0 bd
       -0.22979796 -0.37287086 0.27006748 -0.0783092
000040 f3 8c 54 be 66 9a 57 be 5a 57 a5 be dd 61 99 be
       -0.20756893 -0.21054992 -0.32293206 -0.29957476
000050 da db 25 be 27 8b 4a be 0d 72 3b be 5c 0c b2 bd
       -0.16197148 -0.19779645 -0.18305226 -0.086937636
000060 c1 44 cb be 79 66 88 be 21 de ac be 48 8b 01 be
       -0.39700893 -0.2664068 -0.3376322 -0.12650788
000070 77 51 42 be 70 30 ca bc 04 82 56 be 97 0b a2 bc
       -0.18976389 -0.0246813 -0.20948035 -0.019780917
000080 ea 88 c7 bd 5e 76 ca be 4f a5 46 3e 4d b2 8b be
       -0.09742911 -0.39543432 0.19398998 -0.2728447
000090 3c 41 b1 bd 47 34 5e be 72 6a 4d be 88 f0 b2 be
       -0.086550206 -0.2169963 -0.20060137 -0.34949136
0000a0 87 d9 f5 be 1c d2 71 bd 74 b8 73 be 29 89 01 bf
       -0.48017523 -0.059038267 -0.23800832 -0.50599915
0000b0 f8 6b 95 bd 91 8f fa 3d 97 aa 74 3d 37 00 99 be
       -0.07295984 0.12234414 0.059733 -0.29882976
0000c0 4b e0 d4 be 95 56 b8 be 68 67 96 bd 29 36 9d be
       -0.41577372 -0.36003557 -0.07343942 -0.30705383
0000d0 33 2b a5 bd 82 cb 04 be 94 b9 e7 be 3e 6d 08 bf
       -0.0806488 -0.12968257 -0.45258772 -0.5329169
0000e0 91 9c e1 be e2 5d 29 3d b4 11 d5 be d3 2d c9 be
       -0.44064763 0.0413493 -0.4161507 -0.39292774
0000f0 bd 05 93 be 4c 28 8c bd 1c 03 87 3e 95 7e 33 bf
       -0.28715315 -0.068436235 0.2636956 -0.70115024
000100 9a 58 38 be bd 2c b4 bd 68 6b 8c ba 2e 2e cc bc
       -0.18002549 -0.08797596 -0.0010713162 -0.024924364
000110 66 b6 0c be e0 80 93 be 6f 88 03 be 8e 20 da be
       -0.13741454 -0.2880926 -0.12845014 -0.42602962
000120 6d 43 74 be d7 9c 0c be 58 2e bc be c4 2a bc 3c
       -0.23853846 -0.13731705 -0.36754107 0.022969611
000130 5f 84 a2 bc 4c c1 a1 be a5 9d 91 be 87 94 89 be
       -0.01983851 -0.31592786 -0.28440586 -0.2687113
000140 9c 1f b2 bc 9d 67 15 bf 1c 87 a3 be df b2 f4 3d
       -0.021743588 -0.58361226 -0.31939018 0.119481795
000150 b6 f9 ab bd b8 8b 0e bd 2b 77 08 be a9 5f 81 be
       -0.08397238 -0.034801215 -0.13326709 -0.25268295
000160 84 2c a4 be 05 3b 69 be 73 b0 c3 bd 46 fa 0c 3d
       -0.32065213 -0.2277642 -0.095551394 0.034418367
000170 03 e0 5a be 16 96 11 bd e9 69 ba be 29 dc 4d be
       -0.21374516 -0.035543524 -0.36408928 -0.20103516
000180 f4 aa fe be 7f 03 5b be 01 1f 01 bf 27 9b 62 be
       -0.49739802 -0.21388052 -0.50437933 -0.22129498
000190 05 6f e6 bc 61 7a 02 be 59 2a 65 be 71 9f 8b be
       -0.02812911 -0.12741996 -0.22379436 -0.27270082
0001a0 03 b0 9a be 62 04 d7 be 2b 9f 97 be 10 17 b6 3d
       -0.3021241 -0.4199553 -0.29613623 0.088911176
0001b0 32 38 2f 3d da ba 72 be b5 da 93 bd 25 d8 4e bd
       0.0427782 -0.2370409 -0.072194494 -0.0504991
0001c0 66 36 e5 be 39 31 a3 bd d6 1d 29 bf f7 28 85 be
       -0.44768065 -0.07968373 -0.6606115 -0.26007816
0001d0 2b f8 d0 be 4c 4a b3 be 94 96 82 be c2 78 12 3d
       -0.40814337 -0.35017622 -0.25505507 0.035759695
0001e0 cd ef d5 be 49 68 89 bd 0e 17 cf be 7e db 69 be
       -0.41784516 -0.06709344 -0.40447277 -0.22837636
0001f0 c9 9b e6 be 8b 95 0e be 03 a9 42 bc f5 6e a5 be
       -0.4504073 -0.13924234 -0.011881116 -0.32311216
000200 63 24 03 be 5c dd 03 be 60 98 2b bd 5b 01 5b be
       -0.12806849 -0.1287741 -0.041893363 -0.21387236
000210 46 22 63 be 53 c9 18 bd 7f df 25 be 28 d6 13 be
       -0.22181043 -0.037301373 -0.16198538 -0.14437163
000220 99 67 67 be 59 d7 0c bf 13 56 c4 3d cd 7a aa be
       -0.22598113 -0.55016094 0.0958673 -0.33296815
000230 ff f4 b3 be 5a 4a 53 be 66 98 c2 be 2b 12 94 be
       -0.35147855 -0.20633832 -0.38006896 -0.2892011
000240 5f a4 c0 be 7a 67 1f bb 7c b5 ad be 0c e2 8d bd
       -0.37625405 -0.0024323151 -0.33927524 -0.06927881
000250 d1 fa cf be 6d 9d 56 be b3 a8 c5 be 8e 3c 5a 3d
       -0.40621045 -0.2095849 -0.3860527 0.053280406
000260 48 36 9f bd 6f 61 01 3d 2a aa f2 bd c2 9a 27 bf
       -0.07774025 0.03158706 -0.118488625 -0.65470517
000270 c9 37 30 3d 1c 42 13 be 61 55 24 3e db 7c 8c bd
       0.04302195 -0.14380687 0.16048194 -0.06859752
000280 ec 38 a4 bc 3f 8a 85 bd 0b 5d 2b 3d b8 50 be bd
       -0.020046674 -0.06520509 0.04183678 -0.0929274
000290 ac 65 82 be cb 10 5c be e7 86 94 bd 21 ea 8e be
       -0.25468194 -0.21490781 -0.07252293 -0.27913
0002a0 74 25 01 3e 15 dd 90 be 49 48 61 be 6d 02 a5 bd
       0.12611943 -0.28293672 -0.22000231 -0.08057103
0002b0 67 4c 8a bd 73 03 92 be cb fd 27 3d 2e 44 45 be
       -0.06752854 -0.28518257 0.04101352 -0.1926429
0002c0 5d 6a cc bd 36 0c 89 bd 04 f9 2e 3d 2b 57 8d be
       -0.09981225 -0.06691782 0.04271795 -0.27605566
0002d0 63 95 da be a7 72 a9 be 35 91 66 be 1a 18 ed bd
       -0.42692098 -0.33095285 -0.2251633 -0.11576863
0002e0 74 e9 23 be 79 c4 69 be d6 75 20 bd 3b 48 ce be
       -0.16007024 -0.22828855 -0.039174877 -0.40289482
0002f0 90 4e 8a bd 6d 43 37 bd fc 02 3e be e1 4e 94 be
       -0.06753266 -0.044742037 -0.18555826 -0.2896643
000300 47 c6 ae be 05 74 9e bd 23 3f 04 3d 49 7f 2d be
       -0.3413565 -0.07736973 0.032286774 -0.16943087
000310 4d 24 82 be 5d ae 31 be aa 57 0d bf 96 67 a5 be
       -0.2541832 -0.1735167 -0.5521189 -0.32305592
000320 7f 11 46 be d8 8d fd be 8a 4c 47 3e 6c 21 0b be
       -0.19342612 -0.4952228 0.19462791 -0.13586968
000330 e5 55 ae bd ff a8 b2 be 80 77 92 be 16 de 3f 3e
       -0.08512477 -0.3489456 -0.28606796 0.18737063
000340 b9 4e 97 3d 32 8a a5 3d b9 52 2f bd d2 3d 2f be
       0.07388062 0.08082999 -0.0428035 -0.17113426
000350 14 6c f9 3d b6 bf 58 be 82 d8 e9 bd fa 84 aa be
       0.121788174 -0.21166882 -0.11418249 -0.33304578
000360 a1 18 6a be 19 1c 66 3c 04 31 a1 be ab a6 ba bd
       -0.22860958 0.014044785 -0.31482708 -0.09113821
000370 5d 91 ae be d3 d6 df be 30 a3 3f bd 8a 2e 72 bd
       -0.34095278 -0.43718585 -0.046786487 -0.059126414
000380 dc 38 00 bf 80 44 83 be 9b 71 e7 bd 43 e6 8d be
       -0.5008676 -0.256382 -0.113009654 -0.27714738
000390 66 88 01 be 99 d7 6a be c7 39 c1 be e2 1c 37 be
       -0.12649688 -0.22933806 -0.37739393 -0.17882112
0003a0 7f 39 c1 be e3 a9 12 3e c8 14 cb 3c 3d c0 35 bc
       -0.3773918 0.14322619 0.024790183 -0.011093196
0003b0 9b 0d b3 bc 0d 2a 43 be 34 e2 a7 bd 51 08 0d 3d
       -0.021857074 -0.1905901 -0.08197442 0.03443176
0003c0 2d 41 55 3d 21 ab b0 be 8b 63 c3 3d 2f fe 96 bc
       0.05206411 -0.3450556 0.09540471 -0.018431751
0003d0 08 ab dd bd 41 99 45 be 5a 26 e2 be 72 f3 90 be
       -0.10823637 -0.19296743 -0.44169885 -0.28310734
0003e0 16 96 85 be c3 92 68 be 39 15 92 be fe 59 98 3d
       -0.2609107 -0.22712235 -0.28531817 0.0743904
0003f0 5f 2d d4 be 30 6e 52 3d 5f 17 37 be 2c b8 cc 3d
       -0.41440865 0.051374614 -0.17880009 0.099960655

network.2.weight f4 [256, 256]
000000 1c 5b 9b bd 9f bb c7 bb 1f b7 24 bc e0 2d 00 bd
       -0.07585737 -0.006095364 -0.010053425 -0.03129375
000010 53 7a 8d ba c5 0b 84 bc 52 0b 1c bd 56 59 98 bd
       -0.0010793902 -0.016118893 -0.038096733 -0.074389145
000020 f1 13 b4 3b 3d 9b c5 3c 4c 1c d8 3b 07 76 80 bc
       0.0054955413 0.024121875 0.00659517 -0.01568128
000030 b6 37 cc bc 70 22 f1 bc 41 a4 ef bb d6 a5 97 bd
       -0.024928909 -0.029435366 -0.0073132818 -0.074046776
000040 2d 03 7e 3c 1c fd 8c bd c8 7b 63 bd 49 64 41 bd
       0.015503687 -0.06884214 -0.05553797 -0.04721478
000050 07 6f d6 bc 2e 76 ee bc 1e 77 99 bd 4f e4 57 bd
       -0.026175989 -0.029109087 -0.07493423 -0.052707966
000060 6d 90 5c bd c6 ab 63 bb 70 e1 da 3b 1d 76 b5 3c
       -0.053848673 -0.0034739836 0.0066797063 0.022151047
000070 4b 62 ac 3b 53 5a aa bc 56 45 9d 3b 98 6e 51 bd
       0.005260741 -0.020795023 0.0047995253 -0.05113086
000080 49 a1 05 bd 17 e2 b8 3c b4 3a e6 3c 3c 00 66 bd
       -0.032624517 0.022568746 0.028104164 -0.056152567
000090 9f b5 de bc a2 6a 8d 3c e5 73 60 bd 90 a4 90 bd
       -0.027186213 0.01726276 -0.054798026 -0.07062638
0000a0 be 3d 9e bc ab c6 43 bc 0c 29 09 3d c2 1f 21 bd
       -0.01931655 -0.011949222 0.03348641 -0.039336927
0000b0 4e fb 3a bd f0 8e 84 bd 12 6c 1d bd 30 e1 ea bc
       -0.04564982 -0.06472576 -0.038433142 -0.02867183
0000c0 1e 5d d4 bc 6c 73 93 bc e3 0d 83 39 92 a5 6f bd
       -0.025923308 -0.017999373 0.00024996614 -0.05850751
0000d0 a2 c0 e1 3c 2b ec 76 3c 6b 6d e9 3b 9c a0 86 3a
       0.027557675 0.015070955 0.0071236393 0.0010271254
0000e0 49 40 b3 3c f0 36 50 bd 60 5c 31 bb 1b d7 33 3d
       0.02188124 -0.050833642 -0.0027063116 0.043906312
0000f0 67 1a d0 3b 02 25 93 3c 29 91 c3 bb f9 89 8f bd
       0.0063508037 0.017961983 -0.005968232 -0.07008738
000100 3d 73 ed bc 00 59 be 3c f7 af 5b 3c d4 72 95 bd
       -0.028985614 0.023235798 0.0134086525 -0.07297292
000110 f9 f9 5a bd 9a 9d 2b bd 7d 23 df bc 91 04 96 bd
       -0.05346105 -0.041898347 -0.027238602 -0.0732509
000120 09 1a 37 3c 50 25 11 3c 3a 2a a5 3c 62 92 9e bc
       0.011175641 0.008858994 0.020161737 -0.01935691
000130 cc 02 61 bd ae 1f 80 bd c2 fd 37 bc 33 bf 49 3a
       -0.054934308 -0.062560424 -0.011229934 0.00076960324
000140 4a 2e 94 bd 36 48 4d bd 0c 3f 08 bd 5a 10 71 bc
       -0.072353914 -0.050117694 -0.03326325 -0.014713371
000150 76 4d 28 3d 57 92 8d bd d5 c1 ea 3c b1 75 02 3d
       0.041089498 -0.06912678 0.02865688 0.03185052
000160 17 63 20 bd 53 46 a8 bd 1a 0a 9e bd cc 04 ab bc
       -0.039157 -0.08216538 -0.077167705 -0.02087631
000170 8a 68 80 bd 9c bb 84 bc b0 89 02 bd 60 0b 41 bb
       -0.06269939 -0.01620274 -0.03186959 -0.0029456243
000180 14 3e 3a bc b6 90 20 3c 07 e6 06 3d 82 6b 57 bd
       -0.01136734 0.009800127 0.032934215 -0.05259276
000190 73 e9 97 bc 61 2d 79 3c 61 f2 c9 3c af 63 62 bd
       -0.018543934 0.015208573 0.024651708 -0.055270847
0001a0 f2 c0 ac 3c 03 84 aa bc 93 88 91 bd 2e cc cc 3c
       0.021088097 -0.020814901 -0.071061276 0.024999704
0001b0 d6 ff b0 3c 08 e5 f1 bc 97 b0 c7 bc e2 7c 37 3c
       0.021606367 -0.029528156 -0.024376197 0.011199208
0001c0 7c ea 16 3c a4 70 79 bd 43 80 a0 bd 2d bd ac 3c
       0.009211179 -0.060898438 -0.07836964 0.0210863
0001d0 c1 36 41 3b b7 44 06 bd a2 da 8d bd c2 c8 1b bc
       0.0029482099 -0.032780375 -0.069264665 -0.009508314
0001e0 98 d0 87 bd 45 d3 4e bd f0 46 cd bc ca f0 07 3d
       -0.06631583 -0.05049445 -0.02505824 0.03318862
0001f0 b6 49 11 bd fd fc 8c bd db 93 72 3c ea 10 f4 3b
       -0.035470687 -0.06884191 0.014805759 0.0074483054
000200 35 ef e1 bb 2f 8a 60 bd 35 95 07 3d be 80 68 bd
       -0.006894971 -0.054819282 0.03310128 -0.056763403
000210 c9 6f 44 bd a6 a6 a4 bc c5 cb a4 bd 89 eb 80 3c
       -0.04795817 -0.020098995 -0.080466785 0.015737312
000220 65 55 0b bd 81 0a 94 bd b2 6d d0 3c b3 d5 fb 3b
       -0.034016985 -0.07228566 0.025442932 0.007685387
000230 22 ab d2 bc a1 3c 77 3b 8e 44 12 bd f4 3e 29 3c
       -0.025716368 0.0037725347 -0.03570991 0.010329951
000240 8e 4a 05 bc 2e 15 c8 3c 7a 81 75 3c 32 91 ff 3a
       -0.008135451 0.024424162 0.014984483 0.0019498228
000250 d2 32 de bc 0f 00 d3 3c d2 5b 28 bd 61 3e 9f bd
       -0.027123842 0.025756864 -0.04110319 -0.0777557
000260 6c dc 77 bd b5 c7 7f bd 48 fc 0c 3d bb d2 6b 3c
       -0.060512945 -0.062446315 0.03442028 0.014393504
000270 4c f3 8d bc 7f 40 c2 3c 6c 40 a3 bb 96 c1 97 3c
       -0.017327927 0.023712395 -0.004982045 0.018524926
000280 9a 3e 1e 3d 97 6b fc bc c6 2e 43 bd 3d 2d 79 ba
       0.03863392 -0.030813022 -0.04765203 -0.0009505337
000290 a4 71 e8 3c e1 c1 92 bd 20 d0 b4 3b c4 5d 9b bc
       0.0283745 -0.07165886 0.0055179745 -0.01896561
0002a0 88 e4 83 3c 47 e5 bb 3a 6f f6 59 3c 73 32 3c bd
       0.016100183 0.0014335298 0.013303383 -0.04594655
0002b0 b6 6d aa bd 9b 54 a7 bc c2 af 65 bd ab d5 29 3c
       -0.08321707 -0.020426085 -0.05607582 0.010365884
0002c0 f5 a4 e6 3c 8b af ce bc d8 5b 7f bd 24 6d 9c 3c
       0.02815483 -0.02523019 -0.06234345 0.019095011
0002d0 16 22 9d bd 91 b7 d5 bb 95 4b b3 3c c0 63 27 bd
       -0.07672517 -0.006522127 0.021886626 -0.040866613
0002e0 0c 8e 3d bd a5 b7 d7 3c a1 99 8e bd b0 5e 44 bd
       -0.046278045 0.026332686 -0.06962896 -0.047941864
0002f0 00 92 92 3a 9e 3c 7b 3c 9d 3e 36 3c 88 cd 7e 3c
       0.0011182427 0.0153342765 0.011123327 0.015551932
000300 88 ad cc 3c 66 c2 aa 3c b7 49 cb bc 6d d7 0a 3d
       0.02498509 0.02084465 -0.024815423 0.033896852
000310 2e 7d 3e bd f3 ba 59 bd e9 62 fe 3c 85 99 78 3c
       -0.0465061 -0.053156804 0.031053023 0.015173321
000320 98 7e 3c 3d 8e b0 7f bc 7d 36 86 bd 1c f8 27 3c
       0.046019167 -0.015606059 -0.065533616 0.010252025
000330 b6 37 cd bc ef 05 49 bd 2b 60 5c 3c 63 24 8f 3c
       -0.02505098 -0.049077924 0.013450663 0.017473405
000340 f0 58 0c bc 05 2c 2f 3c d0 22 78 bc 02 8a 0f 3d
       -0.008566126 0.010691647 -0.015145019 0.035043724
000350 c8 33 c8 bc e6 11 d9 3c 3a 50 94 3c 40 14 92 3c
       -0.024438754 0.026497792 0.018104661 0.017831922
000360 e0 2a 2d bc 3d 1c 87 bd fd cc 67 3c 5f dc 16 3d
       -0.010569304 -0.06597183 0.014147994 0.036831256
000370 08 af 70 bd 50 e3 fb 3c bf 95 88 3c cb 73 ae bb
       -0.058760673 0.03074804 0.016672967 -0.005323862
000380 93 e5 0b bd 70 b8 1f 3c a1 12 98 bd 17 bb 43 bd
       -0.034154486 0.009748563 -0.07425428 -0.047785845
000390 6d 0d 8b bb 3d 6d 41 3c ca 3b 8b bd 6d 0c 12 3c
       -0.004243544 0.01180583 -0.06798513 0.008914095
0003a0 09 58 59 3b f7 12 4a bd 50 cc 81 bb 88 ce 01 3d
       0.0033164045 -0.049334493 -0.0039611235 0.031691104
0003b0 cf 20 59 bd b9 21 ef 3c dd 64 9b bc 6a 15 24 3b
       -0.053009804 0.029190885 -0.018968994 0.0025037178
0003c0 1f 76 39 bd 57 98 50 bc a7 51 10 3d fd 9a 65 3b
       -0.045278665 -0.012731633 0.03523412 0.0035035007
0003d0 a4 6d 2c 3d b5 ab fb ba 3c fa 8a bc 38 25 4e bc
       0.04209675 -0.0019200953 -0.016965024 -0.012582116
0003e0 9c 8f 93 bd dc eb 4e 3b 77 b4 2c 3d 9f aa a7 bd
       -0.07205126 0.0031573689 0.042164292 -0.0818684
0003f0 da 87 fd 3c 83 29 22 3d 06 53 eb 3b 29 ba ed bc
       0.030948568 0.03959037 0.007181528 -0.029019432

network.2.bias f4 [256]
000000 69 c0 35 bd 1e a9 9e 3c 39 27 37 bd d2 58 3e bb
       -0.04437295 0.01936775 -0.04471514 -0.002904464
000010 07 35 a1 bd 12 90 8f bd d5 7f 9e bc 95 d0 47 bd
       -0.07871442 -0.07009901 -0.019348064 -0.048782904
000020 b7 89 8e bd af 77 b4 3c 23 57 69 3b 0b 2b aa bc
       -0.06959861 0.022029726 0.0035604916 -0.020772478
000030 4e 37 c5 bb b7 dd 93 bc 87 23 35 3d 4e 96 de bc
       -0.0060185557 -0.018050058 0.044223335 -0.02717128
000040 a4 37 cb bc 3e 57 01 3e 5d 67 08 be 3f 96 b1 bd
       -0.024806805 0.12630937 -0.1332068 -0.08671235
000050 47 12 02 3d ed cc d5 3c 9f d6 1b 3c 90 8c ac bd
       0.031755712 0.026098693 0.009511619 -0.08425248
000060 94 3c cf 3c 8c 95 20 bd 5c 87 7c bd 12 ce e3 3c
       0.02529744 -0.03920512 -0.061652526 0.027808223
000070 62 e6 9d 3c 6f 77 80 bd dc 2a 0c 3c ec 3d 84 bd
       0.019274894 -0.0627278 0.00855514 -0.06457123
000080 d6 71 67 3c 1e d4 2f 3c e2 ef 6a bd e7 21 3c 3e
       0.014126262 0.010731725 -0.057357676 0.18372308
000090 bc b4 52 bd 9d 88 16 be 51 25 86 bd 62 fa 2f bd
       -0.051441893 -0.14700551 -0.06550086 -0.042963393
0000a0 15 b6 ef bd 2f c7 86 bd 86 b2 6d 3d e8 b8 65 be
       -0.11704651 -0.0658096 0.05803158 -0.22433817
0000b0 5d 3e 35 be eb 32 58 bd ac bb 5a bd 8f ff 9c 3b
       -0.17699571 -0.052782934 -0.053401634 0.004791207
0000c0 a8 9a 80 be 82 3b 11 be 62 ce 02 3d d1 8b aa bc
       -0.25117993 -0.14182857 0.031935103 -0.020818623
0000d0 ad 3a 99 3c f3 bb 94 bd 30 00 e0 bd fd ba 10 be
       0.018704737 -0.07262411 -0.10937536 -0.1413383
0000e0 fe fc e1 bc ba 86 ec bc 68 23 25 3e 96 92 99 bd
       -0.027586456 -0.028872836 0.16126788 -0.07498662
0000f0 28 73 48 bc d5 5c 12 bd df e1 39 bd f5 6e 07 bd
       -0.012234487 -0.035733063 -0.045381423 -0.0330648
000100 3d 74 36 bd ff 83 62 3d 64 02 82 bd ee 75 1b 3e
       -0.044544447 0.055301663 -0.06348112 0.15181705
000110 56 14 68 be 57 2e 97 3d d9 b0 73 bd 7a 32 d0 bc
       -0.22664008 0.073818855 -0.059494827 -0.025414694
000120 d8 7b 67 bd 09 3c 2a be 7d 23 1f be 73 46 00 be
       -0.05651459 -0.16624464 -0.15540881 -0.12526874
000130 2e 2e cd 3a 43 af 9a bd b7 64 b7 bc b9 f7 97 bd
       0.0015654021 -0.0755296 -0.022386892 -0.07420296
000140 39 cd 76 3e 61 70 91 3b 48 41 18 bc b2 83 8b 3a
       0.24101724 0.0044384454 -0.009292908 0.0010644107
000150 c7 fe db 3b de 08 46 bd 3a 21 b3 be 88 d9 81 bd
       0.0067137214 -0.0483483 -0.34986287 -0.06340319
000160 9c f8 66 bd 61 f2 b2 39 42 c0 2e be f3 3d bf bd
       -0.056389436 0.00034131392 -0.17065528 -0.09337988
000170 f4 e5 ef bd 8a 25 a4 bb 5f 74 9a bc f7 47 be bb
       -0.11713782 -0.005009358 -0.018854318 -0.0058069187
000180 39 bd e5 3d 24 19 63 bd e3 24 97 3d db 64 81 bd
       0.11217732 -0.055443898 0.073800825 -0.06318065
000190 f6 ae bf bd ab dc 2f be 5a 65 62 3e 5d 86 9c 3c
       -0.09359543 -0.17174022 0.22108975 0.019107038
0001a0 1a ed a7 bd 0c 9c 39 3c e8 91 97 bd 84 0e 1c be
       -0.081995204 0.011328708 -0.07400876 -0.15239912
0001b0 2f db 9e bb 01 82 10 3d 11 db 86 bd ee 64 1c be
       -0.004847906 0.03528023 -0.06584752 -0.15272877
0001c0 e8 f6 b2 bd 37 ce 6b bd 59 b4 9b be ea aa 0b be
       -0.087385 -0.05756971 -0.30411032 -0.13639417
0001d0 d8 bc a8 3d 43 dd c7 bd 34 d1 91 bd ae 8f 3f 3e
       0.08239144 -0.09758999 -0.071199805 0.18707153
0001e0 9c 15 b8 bd 0f 0e 0c 3c ee 20 69 bc 83 2c cf bc
       -0.08988497 0.008548274 -0.014229042 -0.02528978
0001f0 1a 2a 93 bd 05 a5 cb 3e 2c f7 24 bc 92 a4 7f bd
       -0.071857646 0.39774337 -0.010068696 -0.062412806
000200 66 b0 47 be 76 4c 3f bd 3d ea 80 3e c0 40 35 be
       -0.19500884 -0.04670378 0.2517871 -0.17700481
000210 ad f1 48 3c ad 16 0c be f2 0a 4b 3e 42 c6 3c 3d
       0.012264651 -0.13680525 0.19828394 0.04608751
000220 a3 59 e9 bc e4 8c a4 bd 1e 72 1f bd 97 08 0c be
       -0.028485125 -0.08034685 -0.03892719 -0.13675152
000230 8d d0 a0 bb 72 c1 f3 bd 3f 17 b3 3c 14 e6 81 bd
       -0.0049076737 -0.11902131 0.02186167 -0.06342712
000240 5d 37 29 bd 0e 43 33 bd ab 64 19 be 47 e1 26 bd
       -0.041312564 -0.04376512 -0.14979808 -0.040742185
000250 e7 41 97 bd d6 b1 cd 3c 5b 84 3f bd 8f 9c 1a bd
       -0.07385617 0.025109213 -0.046757083 -0.037746962
000260 58 4b 58 be 6e b3 13 be f6 03 89 be f7 0d 92 be
       -0.21122491 -0.14423916 -0.26760834 -0.2852628
000270 e1 ab 83 3d 1e a9 3f bd da f2 c2 bd 46 ee b6 bd
       0.06429268 -0.046792142 -0.095189765 -0.08932166
000280 89 61 9e bd 45 04 35 3c e0 5f 03 bd b9 47 68 be
       -0.07733447 0.011048381 -0.032073855 -0.2268361
000290 07 ee 4e bc ad 3e 75 bd f7 4e 9b bb a4 85 9f bc
       -0.012629992 -0.059874225 -0.004739638 -0.019472905
0002a0 b9 e8 0c 3d 52 8a 09 bc 5e ff 6b bd cd b8 0c be
       0.03440163 -0.008394795 -0.057616584 -0.13742371
0002b0 47 82 ab be 14 a2 33 be 14 6e a4 bd e7 d7 ad 3d
       -0.3349783 -0.17542297 -0.08028808 0.08488446
0002c0 31 d7 9e bd 16 5b 19 3b c3 2f b2 bd ca c8 5b bd
       -0.07755888 0.0023400239 -0.08700516 -0.053658284
0002d0 c7 33 4d bd 42 87 62 bc 69 b8 6f bc 5b 8c e9 bd
       -0.050098207 -0.013826193 -0.014631369 -0.11403724
0002e0 7c e3 c3 bc 76 8b 8a bd 83 04 0e be 7b d4 d4 bd
       -0.023912184 -0.06764881 -0.13868909 -0.1039209
0002f0 86 5c b8 3d 89 02 60 bd 8d 39 63 bd 60 82 f0 bd
       0.090020224 -0.054689918 -0.055474807 -0.11743617
000300 34 d4 11 bd 17 7f 5c 3d ad 05 e3 bd 89 52 51 bd
       -0.035602763 0.05383214 -0.11085067 -0.051104102
000310 72 31 b6 3d f3 95 01 be 01 25 fc bc 10 ee d2 bd
       0.0889615 -0.12654857 -0.030779364 -0.10299313
000320 fc 5e d3 bd d3 fb 85 bd c3 2a a9 bd a5 82 62 3c
       -0.10320851 -0.06542172 -0.08260109 0.013825093
000330 8f e9 1e bd e2 11 88 bd 03 6f a4 bd 3e c2 14 be
       -0.038796958 -0.06644036 -0.08028986 -0.14527223
000340 a5 a6 da bd c0 88 6e bc 8d 40 64 3e 92 5b 37 be
       -0.10676316 -0.014558971 0.22290249 -0.17906025
000350 d9 a3 a0 bd a0 9f c9 bd d0 ff 17 3b ec 8a 1f be
       -0.078437515 -0.09844899 0.0023193248 -0.15580338
000360 6e 20 44 bd 18 9c 22 bc 9a 00 60 be a6 70 f8 3c
       -0.04788249 -0.009924911 -0.2187523 0.030327152
000370 06 b7 ab 3b 06 21 13 bb 17 21 8d bd d0 0e de bd
       0.005240324 -0.0022450103 -0.06891077 -0.10842669
000380 27 8a cc bb 61 d9 fa bc 59 fc db be f4 24 a7 bd
       -0.006242055 -0.030621232 -0.42965963 -0.08161345
000390 47 a6 22 bc 4f 58 13 3d c7 c2 91 be 9a ea 90 bd
       -0.009927339 0.03597289 -0.28468916 -0.07075997
0003a0 5e 3b 5b 3e f1 71 4a bd cd d0 1b be ea 98 a9 bc
       0.21409366 -0.04942507 -0.1521637 -0.020702798
0003b0 8d 19 42 bd ea 07 02 be 3a d0 a2 bc ca 17 07 bb
       -0.04738765 -0.12698331 -0.01987468 -0.0020613545
0003c0 ac c1 e1 bd 4b 84 86 be 07 c6 ce bc 01 e0 f5 bd
       -0.11023268 -0.26272807 -0.025240911 -0.12005616
0003d0 6e 88 78 bd e0 33 64 bd 48 c9 2a b9 70 ab fd bd
       -0.060676984 -0.055713534 -0.00016287446 -0.12386215
0003e0 24 d6 2a be 8c 78 91 be 38 5b 26 3c 71 08 a5 bd
       -0.1668325 -0.28412282 0.010153584 -0.08058251
0003f0 17 5b 59 bd a9 b0 ea 3b 0c 3c 3e bd 76 cb 13 bf
       -0.053065386 0.007162173 -0.046443984 -0.5773233

network.4.weight f4 [1, 256]
000000 c8 98 7f bc 43 5a 17 3e d8 6c 6b 3e d9 71 cf bb
       -0.015600391 0.14780526 0.2299074 -0.0063307104
000010 9f 7d b0 bb 3a 37 7e 3e 9d 59 a1 3c 02 23 7d 3c
       -0.005386069 0.24825755 0.019696051 0.015450241
000020 22 45 67 3c 82 8c e3 bd 7c 14 15 3e 62 ae a6 bc
       0.014115604 -0.11110784 0.14558595 -0.020346824
000030 83 04 a0 bc 03 2b 39 3d 50 69 78 3e ea 98 09 bd
       -0.019533401 0.045207035 0.24258924 -0.033593096
000040 ea 85 8c bc ea 27 23 3e 99 23 cc bd dc 16 d7 3b
       -0.017153699 0.15933195 -0.09967727 0.0065640043
000050 cc d0 c4 3e 8b 79 39 bc 24 d6 41 3c ce 0f 23 bc
       0.3844055 -0.011320482 0.01183084 -0.009952499
000060 b6 ec d1 ba e5 cb a3 3d d5 02 23 3c 2d d8 c8 ba
       -0.001601598 0.07997874 0.009949406 -0.0015323214
000070 5d 36 1a 3c 0d 09 f3 bc ed 89 84 bb 7f 79 54 3c
       0.009412375 -0.029667402 -0.0040447623 0.01296842
000080 6e 6d be bc 3e 87 8d 3c f7 f7 80 3a 55 a3 a9 3d
       -0.02324554 0.017276403 0.0009839524 0.08283106
000090 03 63 de 3b 78 99 9d bc a4 1e 8d 3c a0 b8 fa 3a
       0.0067867055 -0.019238219 0.017226525 0.0019128509
0000a0 98 b6 23 b9 6d 9f 40 3b 64 08 a1 3e 27 80 29 3f
       -0.00015612913 0.00293919 0.31451714 0.6621117
0000b0 a8 5d d5 3e d5 61 3b 3b 06 98 20 bd 1a 17 f9 bb
       0.41673017 0.0028592248 -0.03920748 -0.007601631
0000c0 e9 53 4e 3e ad dc c3 bd 11 f4 39 3c 59 a4 bb 3d
       0.20149197 -0.09563575 0.011349694 0.09162206
0000d0 50 a4 0d 3c 5f 17 98 3c a7 55 cc 3d fd cf 14 ba
       0.008645132 0.018565832 0.099772744 -0.00056767446
0000e0 79 f6 eb bb 84 d4 ed 3b 98 e5 9f 3d e1 be 8d bb
       -0.0072010127 0.007258 0.078074634 -0.004325733
0000f0 91 b9 46 bc 2c b5 39 bc ab 5b d5 bc 35 d3 60 bc
       -0.012129203 -0.011334699 -0.026044687 -0.013722231
000100 50 f8 18 3a 59 a6 0c 3e bf 9e 9a bd 4b 82 6a 3e
       0.0005835341 0.13735332 -0.0754981 0.22901265
000110 0d 94 ff bc 26 e6 da 3d f6 7b c1 3b 3d 4b 21 bd
       -0.031198526 0.106884286 0.00590467 -0.039378393
000120 a8 a5 2f 3c 24 ca ec 3d 07 35 93 bd c6 76 7e be
       0.010720648 0.11561993 -0.071878485 -0.24849996
000130 60 17 b7 bc 17 80 1f bd a4 0b 6c 3b 5e 40 7e 3c
       -0.022350013 -0.038940515 0.003601768 0.015518276
000140 f9 8c f0 3d 42 e9 3b 3c e0 0f 0c bd a4 ec e9 bc
       0.117456384 0.011469187 -0.034194827 -0.028555222
000150 fe 24 3e 3c 3b e8 56 3c 81 4c 20 3f 7e d0 b0 3e
       0.011605499 0.0131168915 0.62616736 0.34534067
000160 2d 40 27 3e 77 84 31 3e a1 5a 94 3e 80 dd 53 3d
       0.16333075 0.17335688 0.28975394 0.05172491
000170 fa 0a 4b bc 09 eb 0b bd 03 c8 0a bc 14 7d 2b bd
       -0.012392754 -0.034159694 -0.008470538 -0.04186733
000180 8c 14 d5 3d 3c 23 9b bc d7 2f df 3d 21 2b 96 bc
       0.1040431 -0.0189377 0.108977966 -0.018331112
000190 36 ce 16 bd 1c 75 e5 3d 71 5a 2b 3e 72 c6 08 3c
       -0.03681775 0.112039775 0.1673372 0.008348094
0001a0 5b 6d a7 3a ba 6b 96 be 15 a7 ee bb 48 19 78 bc
       0.0012773679 -0.29379064 -0.0072831013 -0.015142746
0001b0 de c5 f5 bc 6e c9 ca be 6f 42 99 b9 f6 b2 aa 3e
       -0.030001577 -0.39606804 -0.0002923193 0.3333966
0001c0 d3 90 98 3d b8 f8 71 bc 83 77 c3 3e 53 42 cf 3c
       0.07449498 -0.014768772 0.38177118 0.02530018
0001d0 2b df 4e 3e a4 ba c1 3b e8 7b e8 bc 2a 00 86 be
       0.2020232 0.005912142 -0.028379396 -0.26172
0001e0 ab af c4 3d 87 f5 fa bc 7e f1 dd 3b 77 42 83 3b
       0.096038185 -0.030634655 0.006773173 0.004005726
0001f0 4d 9e dd 3d 87 3d aa be 56 93 93 bc 4a ad 99 3a
       0.10821209 -0.33250067 -0.018014591 0.0011724618
000200 43 d1 02 3f 60 de 8d 3c 25 27 1a bf d0 04 59 3e
       0.5110056 0.01731795 -0.6021598 0.21193242
000210 3c 57 d1 bb 89 4e 86 bc 25 49 00 3e bd 39 a5 3e
       -0.006388573 -0.01639487 0.12527902 0.32270613
000220 24 04 1f bd af d3 28 bd 8f 08 3f 3c c2 1b 3e 3d
       -0.03882231 -0.041217502 0.011659755 0.04641319
000230 bf 6e 35 3d da 54 5a bd 9b f0 45 3b 69 2c 1c bc
       0.04429507 -0.053303577 0.0030203226 -0.009532073
000240 9b 5d 2b bd fa 7e 88 bb e2 51 ed 3c db 34 42 bc
       -0.041837316 -0.0041655274 0.028969709 -0.011853422
000250 0e f7 a2 3c 5a 81 2c bd b4 5f 2c bd 00 f7 38 3c
       0.019893195 -0.042115547 -0.042083457 0.011289358
000260 19 c5 fc bd b2 d6 5c 3c fe 31 ae 3e 7c ec 83 3e
       -0.12342281 0.013478922 0.34022516 0.2576636
000270 e1 54 7f 3d da ed 0e 3c fb d1 a5 3a 33 06 88 3c
       0.062336806 0.0087237 0.001265108 0.016604519
000280 cf d5 8b 3b 1e fa 87 3e 85 ff 2e bb 47 0d 23 3e
       0.0042674313 0.26558012 -0.0026702594 0.15923034
000290 1a 55 24 bd f0 65 75 3c b1 d2 b6 ba 6e 2d 2f bd
       -0.04012022 0.014977917 -0.0013948289 -0.042767935
0002a0 11 8a d6 bc 64 84 5d 3e 98 c2 2c 3c 2a e2 3a be
       -0.026188882 0.21632534 0.010544442 -0.18250337
0002b0 25 15 24 3e 3e 72 0c 3e 86 12 88 bc 21 b9 de 3d
       0.16023691 0.13715455 -0.016610395 0.10875154
0002c0 2e c1 1c bd 44 61 21 3c 40 37 8b 3c 44 f7 8d 3b
       -0.038270168 0.00984985 0.016994119 0.004332455
0002d0 d4 4e db 3b 50 c3 27 bd a8 4c 23 bd 84 09 41 3e
       0.0066927467 -0.04095775 -0.039868027 0.18851286
0002e0 be 66 04 3f c2 42 a8 ba bf f7 9c be db 80 c9 3d
       0.5171927 -0.0012837278 -0.30657765 0.0983903
0002f0 a7 8e 0f 3d ee 88 c2 bc 10 0c a6 3d 40 33 34 bd
       0.035048153 -0.023746934 0.081077695 -0.04399419
000300 ad 48 6a 3c f4 e7 e2 3c 12 0f 89 3d b4 34 9c 3d
       0.014299554 0.027698494 0.066923276 0.0762724
000310 08 eb e5 3d 88 05 05 bd 64 0c 05 bd 4c cb 84 3d
       0.11226469 -0.032475978 -0.03248252 0.06484088
000320 98 9b b5 3c 0e 85 80 bc d0 37 8d 3f da 49 7a 3c
       0.02216892 -0.015688445 1.1032658 0.015276397
000330 1d 0f 41 3d 1f 1d 88 bb 97 8f 11 bd 95 e6 3a 3d
       0.047133554 -0.004153862 -0.03553733 0.045630056
000340 0e d7 72 3d f1 c5 0e 3d a6 e5 27 bf da 30 a8 bc
       0.059287123 0.03485674 -0.6558479 -0.020531107
000350 2d d1 a0 bd 66 32 01 be 40 e3 7e bb 1e f0 8e bd
       -0.07852397 -0.12616882 -0.0038892776 -0.069793925
000360 90 8a 18 bc 26 9e 98 bc 60 c5 27 3e 23 29 da 3d
       -0.00931038 -0.018630099 0.16383886 0.106523775
000370 29 9b b6 3a a4 07 c2 ba d4 b3 cf 3b cb a6 eb 3e
       0.0013931739 -0.0014803302 0.006338576 0.4602569
000380 10 e3 1b 3e 02 d4 6d bd f2 75 89 3e d1 4f 9f 3c
       0.15223336 -0.058063515 0.26847798 0.01944724
000390 0c d8 39 3c a8 31 00 bd 78 3b d9 bd 08 74 4f bc
       0.0113430135 -0.031297356 -0.10607046 -0.012661941
0003a0 cf 3a e4 3e 7d 35 5d bc 9e 25 0a 3e 06 d6 0a bd
       0.44576117 -0.013501522 0.13490912 -0.033895515
0003b0 3c 4f 8d bc 19 ce 45 bb c4 37 de 3c 6d f0 cb 3e
       -0.017249696 -0.0030182658 0.0271262 0.39831868
0003c0 df 05 92 bc 2c ff 59 3e a1 fc e2 bc b1 23 3b bd
       -0.017825065 0.21288747 -0.027708353 -0.045688335
0003d0 c8 75 33 be 76 9f 8b bb ac 1d 18 bd a7 fc 75 bd
       -0.17525399 -0.0042609526 -0.037137672 -0.0600554
0003e0 24 7b c1 be 5c 8d 47 3f 68 15 f6 3a 5c 66 25 3d
       -0.3778926 0.7795007 0.001877469 0.04038082
0003f0 0f 6f 77 3e 8e 85 9e bc dc a3 37 bc b9 da 00 3f
       0.24163459 -0.019350793 -0.011208501 0.50333744
