Training/Model/model_critic_robot_subset_joint0_102.pt (torch, 284223 bytes, 5 tensors)

network.0.weight f4 [256, 16]
0	0xc0754b7a	-3.8327317
1	0xbf79f4ec	-0.97639346
2	0xc060df91	-3.5136454
3	0xc04cef83	-3.2021186
4	0xbfe7b9ea	-1.8103611
5	0x407185f5	3.773801
6	0x401e69cc	2.4752073
7	0x400ce3bc	2.2013998
8	0xbfb5af54	-1.4194131
9	0x406f44b3	3.738568
10	0x3e0ad539	0.135579
11	0x3e35d1dc	0.17755836
12	0xbf10f9d3	-0.566312
13	0x3edd5767	0.43230745
14	0xbe9f0414	-0.310578
15	0xbce1bd75	-0.02755616
16	0xc083afad	-4.115195
17	0x3fba6f01	1.4565126
18	0x3f82bb70	1.0213451
19	0xc08120b4	-4.035242
20	0xbeece321	-0.46267036
21	0xc02a682f	-2.6626089
22	0x3fdfe348	1.7491236
23	0x40a5b983	5.1788955
24	0xbe989af1	-0.2980571
25	0x402e1152	2.7198071
26	0xbeca80b2	-0.39551312
27	0xbf155d68	-0.5834565
28	0x3e657103	0.22406392
29	0x3f0b2f6d	0.5436924
30	0x3f238996	0.63881814
31	0x3c3771a1	0.011196525
32	0x40bd57f6	5.9169874
33	0x3fbcb0fa	1.4741509
34	0xbf87c2f4	-1.060637
35	0xbffd6ef7	-1.9799489
36	0xbecc9ed7	-0.39964935
37	0x3e84e8e0	0.2595892
38	0x4118f17d	9.558957
39	0xbfba4b2f	-1.4554194
40	0x3f3406ce	0.70322883
41	0x4085ec69	4.1851087
42	0xbf380c85	-0.71894103
43	0x3f03121e	0.5119952
44	0x3f7e1c6a	0.99262106
45	0x3f5cf841	0.86316305
46	0xbec69db9	-0.38792208
47	0x3f81d672	1.0143569
48	0x40951988	4.6593666
49	0x40389dc9	2.8846304
50	0xc09f2092	-4.972726
51	0x409c91af	4.8927836
52	0x3ec8c0cd	0.39209595
53	0x3facfeb0	1.3515224
54	0x3e4308f1	0.1904638
55	0xc03886a3	-2.8832176
56	0x3f99bed7	1.2011365
57	0x3e80815f	0.25098702
58	0x3f5e8867	0.86926883
59	0x3ec1ee48	0.37877107
60	0xbea05034	-0.3131119
61	0xbe5fb236	-0.21845326
62	0x3f142246	0.578648
63	0x3f7ad328	0.9797845
64	0x3e65451e	0.22389647
65	0x40e338ae	7.100669
66	0xbe936cd5	-0.2879397
67	0x4014c6f4	2.3246431
68	0x4030b2c6	2.7609115
69	0xbec232be	-0.37929338
70	0x4079491a	3.8950868
71	0xc083eed4	-4.122904
72	0xbf5f1b09	-0.8715063
73	0xbec7ebc8	-0.39047074
74	0x3fc1a11f	1.5127295
75	0x3f551bc2	0.8324548
76	0xbf48cc8d	-0.7843712
77	0x3f1e726c	0.61893344
78	0xbfad1c1c	-1.3524203
79	0xbe115b45	-0.14194973
80	0xbef6bd47	-0.48191282
81	0xc036bc95	-2.8552601
82	0x3db3bd8c	0.087763876
83	0x40d49e1a	6.6442995
84	0xbfcd3f47	-1.6034936
85	0xc095246d	-4.6606965
86	0xbf6967d3	-0.9117405
87	0x3f98eaaf	1.194662
88	0xc03c57c4	-2.9428568
89	0xbf590ca9	-0.8478494
90	0x3e7c71a0	0.2465272
91	0xbe19a7d0	-0.15005422
92	0x3e56adcd	0.20964737
93	0xbf17069b	-0.58994454
94	0x3e263bce	0.16233751
95	0x3f14731a	0.5798813
96	0xbf541a20	-0.82852364
97	0x409beb17	4.8724475
98	0x3fff848c	1.9962325
99	0x3eb69801	0.35662845
100	0xbdca4b05	-0.0987759
101	0xbddf212e	-0.108950004
102	0x40a00b52	5.001382
103	0xc03da3e5	-2.9631283
104	0xc04b72e4	-3.1788874
105	0x3fd5d598	1.6705809
106	0x3e4f2d33	0.20232086
107	0x3fabeff0	1.3432598
108	0x4039cc22	2.9030843
109	0x3f61012b	0.8789241
110	0x3f73ef0a	0.9528662
111	0xbf81d398	-1.0142698
112	0x3fac26ed	1.3449379
113	0x3e2993a3	0.16560225
114	0xbd4ea702	-0.05045224
115	0x3f3a070b	0.72666997
116	0xc088d634	-4.276148
117	0xc02612cd	-2.5948975
118	0x41040f3d	8.25372
119	0xbee9efa1	-0.45690635
120	0xc01bbc54	-2.4333696
121	0x4107a5f0	8.478012
122	0x3ee41241	0.44545177
123	0x3d9d84cf	0.07691347
124	0xbe85e274	-0.26149333
125	0xbed2dce0	-0.4118414
126	0x3e3a7ccf	0.18211673
127	0xbd2e764c	-0.042593285
128	0x3fb11ee2	1.383755
129	0x4100046d	8.0010805
130	0x401077f6	2.2573218
131	0xbfa93fc1	-1.3222581
132	0xc00e738d	-2.2258027
133	0x4094079b	4.6259284
134	0xc15eeb04	-13.932377
135	0x3f8c7d2d	1.0975701
136	0xc02e1c7b	-2.7204883
137	0x402dea0d	2.7174103
138	0x3e9c4dbc	0.30528057
139	0x3f1d4af0	0.6144247
140	0x3e6cc0b7	0.2312039
141	0xbf1207a9	-0.5704294
142	0x3dbc71ee	0.09201418
143	0xbe6dca14	-0.23221618
144	0xbffc87b9	-1.9728919
145	0x3fe7c2a3	1.8106273
146	0x402af7c1	2.6713717
147	0xc018c4b4	-2.3870058
148	0xc0329cd1	-2.7908213
149	0x406a5196	3.6612296
150	0x4010911c	2.2588568
151	0x4045282c	3.080577
152	0xc03a7a87	-2.9137285
153	0xc0f714a7	-7.721271
154	0xbeb61fb2	-0.35571057
155	0xbef343f3	-0.4751278
156	0xbe766a61	-0.24064018
157	0xbdff294f	-0.12459051
158	0xbedc86ae	-0.43071502
159	0xbf63662c	-0.88827777
160	0x40b72d6d	5.724295
161	0xc01acac4	-2.4186258
162	0xbfe5b0ed	-1.7944618
163	0x3f0538d5	0.52039844
164	0x3eb09237	0.34486553
165	0xc01c7030	-2.4443474
166	0x40726203	3.7872322
167	0xbf6c6c12	-0.923524
168	0xbf9d8a7a	-1.2307885
169	0xbfed33fb	-1.8531488
170	0xbf3533e9	-0.70782334
171	0x3f88a0fe	1.0674131
172	0x3f3b9489	0.7327352
173	0xbf87d9a2	-1.0613291
174	0xbfabbf64	-1.3417783
175	0xbf272d4d	-0.653035
176	0x40899728	4.2997017
177	0xbffb33ce	-1.9625185
178	0x3f9f3265	1.2437254
179	0xc0474c80	-3.1140442
180	0xc0192a4b	-2.3932064
181	0xc0863816	-4.1943464
182	0xbf210197	-0.6289305
183	0x3fe0b021	1.755375
184	0xbf8c0081	-1.0937654
185	0x3fde4de7	1.7367524
186	0xbe95ac13	-0.29232845
187	0xbf737aa8	-0.95109034
188	0x3f0534db	0.52033776
189	0x3e0b17c3	0.13583283
190	0xbf33341e	-0.700014
191	0x3e058495	0.13038857
192	0xc073563a	-3.8021379
193	0x404e9960	3.2281113
194	0xc0365879	-2.84915
195	0x3fe0d8c3	1.756615
196	0xc0051c56	-2.0798545
197	0x3f4fae86	0.81125677
198	0xc00937b4	-2.1440248
199	0xbfd0f958	-1.6326094
200	0xc06d7f2e	-3.7108874
201	0xc0ab0e88	-5.345524
202	0x3e4d4bac	0.20048398
203	0x3ec89b1c	0.3918084
204	0x3d9f033e	0.0776429
205	0x3f08f3ea	0.53497183
206	0xbef27356	-0.4735362
207	0x3ebd673a	0.36992818
208	0xbfcd7887	-1.6052407
209	0xc009ba98	-2.1520138
210	0x3f006da0	0.50167274
211	0xc09f60d0	-4.980568
212	0xc030a88d	-2.7602875
213	0xbdf9f0c0	-0.122041225
214	0xc0d1193c	-6.5343304
215	0x4049187f	3.1421201
216	0xbfc2d77a	-1.5222008
217	0xc01bc298	-2.433752
218	0x3fb69ed5	1.4267222
219	0xbdd8775a	-0.105696395
220	0xbf0fc5c6	-0.56161153
221	0x40422bc5	3.0339215
222	0xbedc41a8	-0.43018842
223	0x3f59b731	0.8504515
224	0x4083bb82	4.116639
225	0x3ff42a8a	1.9075482
226	0xbf05b217	-0.5222487
227	0x40375d8b	2.8650844
228	0xbf8f5860	-1.1198845
229	0x3f8de2e1	1.1084863
230	0xbf36d12b	-0.71412915
231	0x401e375d	2.472129
232	0xc01878c2	-2.3823705
233	0x408f6699	4.481274
234	0x3ef82a57	0.48469803
235	0xba950479	-0.0011369131
236	0xbee18390	-0.44045687
237	0x3e4d75c0	0.2006445
238	0x3f175aef	0.5912313
239	0x3e73fb5e	0.23826358
240	0x3fa4f62a	1.2887623
241	0xbd47590b	-0.048668902
242	0xbfe33d08	-1.7753
243	0x3eee3302	0.4652329
244	0xbf8854f2	-1.0650923
245	0x40781ca0	3.8767471
246	0xc0c56cbf	-6.1695247
247	0xbf6d148e	-0.9260949
248	0xc05e0598	-3.4690914
249	0x40161dd4	2.3455706
250	0x3eefcdd2	0.46836716
251	0xbe546453	-0.20741396
252	0x3f547f47	0.8300671
253	0x3fae0486	1.359513
254	0x3d8b545c	0.068032
255	0x3f0cc6be	0.54990757

network.0.bias f4 [256]
0	0xbfa2b6cf	-1.2712039
1	0xbeeb23ed	-0.45925847
2	0x3f4f2c9f	0.8092746
3	0x3fa5959e	1.2936285
4	0xbf11cb27	-0.5695061
5	0xc041bdbe	-3.027206
6	0xc04efee5	-3.2343075
7	0xc0048912	-2.070866
8	0xc03183c1	-2.7736666
9	0xc03658a1	-2.8491595
10	0xbfae4814	-1.3615746
11	0xbf235361	-0.637991
12	0xc068cb62	-3.6374135
13	0xbff32723	-1.8996319
14	0xc00e3fb2	-2.2226377
15	0xc05631b8	-3.3467846
16	0xbfe08374	-1.7540116
17	0xc01bf427	-2.4367769
18	0x3ef63492	0.48086983
19	0xc07e4221	-3.9727862
20	0xc028264b	-2.6273372
21	0xbc827328	-0.015924051
22	0xc052650b	-3.2874172
23	0xbee9ee56	-0.45689648
24	0xbfd53f71	-1.6659986
25	0x3f5d1fb3	0.86376494
26	0xbfa5d366	-1.2955139
27	0xc0080afa	-2.12567
28	0xbd08af0f	-0.033370074
29	0xbf3d2622	-0.7388631
30	0xbf5145e7	-0.8174729
31	0xbf8448c4	-1.0334706
32	0xbfc08394	-1.5040154
33	0xbf8a4e64	-1.0805173
34	0xbfc3fbf4	-1.5311265
35	0xbf4a550d	-0.7903603
36	0xc03db68f	-2.9642675
37	0x3ecf830c	0.40529668
38	0xc04704cd	-3.109668
39	0xbf8edbaf	-1.1160792
40	0xc0094fdd	-2.1454995
41	0xc0851187	-4.1583896
42	0x3fd4e7ed	1.6633278
43	0xbff08a9d	-1.8792301
44	0xc0258195	-2.586034
45	0xc013aec4	-2.3075418
46	0x3e79f4aa	0.24409738
47	0x405257c0	3.2866058
48	0x3e0d8d19	0.13823356
49	0x4090c1ea	4.523671
50	0xc0401f60	-3.001915
51	0xc06a55c0	-3.6614838
52	0xbefed0f8	-0.49768806
53	0xbf4d8940	-0.8028755
54	0x3f197df9	0.59957844
55	0xbf8fe4f0	-1.1241741
56	0xc084fde4	-4.1559925
57	0x3f9c0dba	1.2191689
58	0x3f6ecc2d	0.932803
59	0xbfece1e3	-1.8506435
60	0x3fa1906b	1.2622198
61	0xc03f96c6	-2.9935775
62	0xc0a236ee	-5.0692053
63	0xc01364d6	-2.3030295
64	0x3f0ef573	0.55843276
65	0xc0387eff	-2.8827512
66	0xc0599c87	-3.4001787
67	0xc04e41fd	-3.2227776
68	0xbe4294d6	-0.19002089
69	0xbfa1b739	-1.263404
70	0xbf37a8f5	-0.7174218
71	0x3eab6746	0.3347723
72	0xbf989011	-1.1918966
73	0xc0079f7f	-2.1191099
74	0x40155ead	2.3339036
75	0xc07652e1	-3.8488085
76	0xc0a4b543	-5.1471267
77	0xc08982df	-4.2972255
78	0xbf8fefa7	-1.1245011
79	0xbea71a9e	-0.32637495
80	0xbff58099	-1.917987
81	0xc02ee589	-2.7327597
82	0xc00d7da6	-2.210794
83	0xc01b3423	-2.4250572
84	0xbfdde1ea	-1.7334569
85	0xbfd5b8d0	-1.6697025
86	0xbf446bee	-0.7672719
87	0xc03dd1fc	-2.9659414
88	0xc077885c	-3.8676977
89	0xc0946190	-4.6369095
90	0xc095bbc2	-4.6791697
91	0xbfd25572	-1.6432326
92	0x40306494	2.7561388
93	0xbfd2f86e	-1.6482065
94	0xc01cd67c	-2.450591
95	0xbf9c3cd2	-1.2206061
96	0xbf8aac81	-1.0833894
97	0x4016902a	2.352549
98	0xc00c68ed	-2.1939042
99	0x3f8d4f94	1.103991
100	0xbfefc30b	-1.8731397
101	0x3fe2dc4e	1.7723482
102	0xbfd7bdad	-1.685476
103	0xc00ad656	-2.169332
104	0x403ff281	2.9991763
105	0x3f2fc4f9	0.6865993
106	0xbe3952e7	-0.18098031
107	0xbec1873c	-0.37798488
108	0x3cb2dcad	0.021833742
109	0xbe5a2c69	-0.21306004
110	0x3f15be9f	0.5849399
111	0x3ef7a95d	0.483714
112	0xbfe2d39a	-1.7720826
113	0x3f79fec5	0.9765437
114	0xbd6c15fc	-0.057638153
115	0xc0a59090	-5.173897
116	0x3fb660a7	1.4248246
117	0xc0a8da15	-5.2766213
118	0xc046a091	-3.1035502
119	0xc061c160	-3.5274277
120	0xc01f59fe	-2.4898677
121	0xc08628d1	-4.1924825
122	0xbea151f6	-0.31507844
123	0xc03a3c8a	-2.909945
124	0xbf4d3c45	-0.8017009
125	0xc08eecca	-4.466405
126	0xc00241cb	-2.0352657
127	0xbfe179e5	-1.7615324
128	0x3f73b18f	0.9519281
129	0x3f80d092	1.0063651
130	0xbfbda838	-1.4816961
131	0x3f76c92d	0.9640072
132	0xbfcda1b1	-1.6064969
133	0x3fbacd54	1.4593911
134	0xbd4ab8fd	-0.049492825
135	0xc024d7a1	-2.575661
136	0x40800705	4.000857
137	0x40760026	3.843759
138	0x3f6b1736	0.9183229
139	0x3ff6d80b	1.9284681
140	0xc02c8268	-2.6954594
141	0x3f88b638	1.0680609
142	0xbfbbc1fd	-1.4668576
143	0xbde677ec	-0.11253342
144	0xc0130c65	-2.2976315
145	0x3c6ba7f4	0.014383305
146	0xc08b340b	-4.350103
147	0xbf9678c5	-1.1755606
148	0x4027becc	2.6210203
149	0xbf9bd00f	-1.217287
150	0xbf343b84	-0.70403314
151	0xc000de0e	-2.0135531
152	0xc000aeda	-2.010672
153	0xbf907ee1	-1.128872
154	0x3f82dbbe	1.022331
155	0xc092a91f	-4.5831447
156	0xc0733e24	-3.8006678
157	0xc088a914	-4.2706394
158	0xbfae2e4b	-1.3607877
159	0x3e060f99	0.13091888
160	0xbf7d3390	-0.98906803
161	0x3f5e6b60	0.8688259
162	0xbff5e384	-1.9210057
163	0xc010ecfa	-2.264464
164	0xc0984d48	-4.7594337
165	0xc084a8c3	-4.145601
166	0xbffa54bc	-1.9557109
167	0x3f04a7cc	0.5181854
168	0x3f602d52	0.87569153
169	0xc062d1e9	-3.544062
170	0xbf4efcb8	-0.8085437
171	0xbf7fb96b	-0.998923
172	0xbf88f218	-1.0698881
173	0xc079e444	-3.9045572
174	0xbfe42f93	-1.7827018
175	0xbf355564	-0.7083342
176	0x3e4b41a3	0.19849257
177	0xbfa81f86	-1.313462
178	0xbf4d416d	-0.80177957
179	0xc017ae6d	-2.370021
180	0xbfe3e3c4	-1.7803884
181	0xbff6e9f4	-1.9290147
182	0x3f994d2c	1.1976676
183	0xbf9f0d5b	-1.2425951
184	0xbece06e7	-0.4023964
185	0xc0247479	-2.569609
186	0xc031ff9b	-2.781226
187	0xc078e001	-3.888672
188	0x40191c58	2.392355
189	0xbf96edc4	-1.179131
190	0xc057c044	-3.37111
191	0xbfc93675	-1.5719744
192	0x3fdaee4b	1.7103971
193	0x40312aa4	2.7682276
194	0xc0a9a438	-5.301296
195	0xc08571ee	-4.1701574
196	0xbfe6cccd	-1.803125
197	0xbfbec67e	-1.4904325
198	0xc0284b9f	-2.6296155
199	0x3f8e233b	1.1104501
200	0xc017f89f	-2.3745496
201	0x3f971520	1.1803322
202	0xc0236504	-2.5530405
203	0xc01aae16	-2.4168754
204	0x3e6da106	0.23205957
205	0xbfd74ab2	-1.681967
206	0xc0540fb2	-3.313458
207	0xc06d5d25	-3.70881
208	0xbfca216f	-1.5791453
209	0xbf2da0cd	-0.6782349
210	0x4010c12f	2.261791
211	0xbfc026bc	-1.5011821
212	0x3e956ee1	0.29186156
213	0xc0319824	-2.774911
214	0xc0535b50	-3.3024483
215	0xc0029c0d	-2.0407746
216	0xbfd93d8f	-1.6971911
217	0x3e991054	0.2989527
218	0xbe32dfa1	-0.1746812
219	0xc051c9c7	-3.2779405
220	0xc0038bc3	-2.0554054
221	0xbf0f0b3c	-0.5587652
222	0x3e51ab59	0.2047552
223	0xbf2426b8	-0.6412158
224	0xbfaac362	-1.3340876
225	0xbff37ec8	-1.9023066
226	0xbf475971	-0.7787085
227	0xc00efd72	-2.234219
228	0xbed96910	-0.4246297
229	0xbd62b639	-0.055349562
230	0xc00306b8	-2.047285
231	0xc06eee82	-3.7333074
232	0xbf41bd29	-0.7567926
233	0xc08e23a0	-4.4418488
234	0xbd9e7f6d	-0.07739148
235	0xc01a35d7	-2.4095361
236	0xbff361a3	-1.9014171
237	0xc01e888f	-2.4770849
238	0xbf8cf260	-1.1011467
239	0x3f1b8cf1	0.60761935
240	0x407b7312	3.9288983
241	0x3ee60368	0.44924474
242	0xc0099b08	-2.1500874
243	0x3fb7847e	1.4337308
244	0xc0210149	-2.5157034
245	0xbd8fecf9	-0.07027621
246	0x3f2dbc4a	0.6786543
247	0xc043ccfd	-3.0593865
248	0xbfdc5b28	-1.7215319
249	0xc0923ae5	-4.5696893
250	0xbfccfa0d	-1.601381
251	0xc048f6ba	-3.140059
252	0xc08df84f	-4.436561
253	0xbfbe6c1b	-1.4876741
254	0xbffca062	-1.9736445
255	0xbf4a290f	-0.789689

network.2.weight f4 [256, 256]
0	0xbdec409f	-0.11535763
1	0x3d43921d	0.047746766
2	0xbdb548be	-0.08851765
3	0xbe349207	-0.1763383
4	0xbe439607	-0.191002
5	0xbe34b465	-0.1764694
6	0xbe1a3106	-0.15057763
7	0xbe120a3c	-0.14261717
8	0xbdfdfa62	-0.12401272
9	0xbe1eaf43	-0.15496545
10	0xbe2112ee	-0.15729877
11	0xbe1309ca	-0.14359203
12	0xbe241a5b	-0.16025679
13	0xbde8e28b	-0.11371335
14	0xbe28d7d6	-0.16488585
15	0xbe1ad13f	-0.15118884
16	0xbe4bd279	-0.19904508
17	0xbe123c26	-0.14280757
18	0xbe01f9a6	-0.1269289
19	0xbe3a625d	-0.18201585
20	0xbd599508	-0.053120643
21	0xbe0aafe6	-0.13543662
22	0xbe59e0fb	-0.2127723
23	0xbe08a9d0	-0.13346028
24	0xbdec87fc	-0.115493745
25	0xbdf16970	-0.11787689
26	0xbddda639	-0.1082272
27	0xbe2493c2	-0.1607199
28	0xbe00fb42	-0.12595847
29	0xbd57c8c0	-0.052681684
30	0xbe61548a	-0.22004905
31	0xbe17624b	-0.1478359
32	0xbe50ecc8	-0.20402825
33	0xbe25c506	-0.1618844
34	0x3e1289a9	0.14310326
35	0x3d5a935c	0.05336319
36	0xbe431a47	-0.19052993
37	0xbe59e706	-0.21279535
38	0xbdd9f73f	-0.106428616
39	0xbe367a42	-0.17820075
40	0xbe444653	-0.19167452
41	0xbdd4202e	-0.103577
42	0xbe58322a	-0.21112886
43	0xbe397f3b	-0.18114941
44	0x3d815708	0.06315428
45	0xbdcb4851	-0.09925903
46	0xbe5c5c4e	-0.21519586
47	0xbe195e8b	-0.14977472
48	0xbe0eefa1	-0.13958599
49	0x3d1cd834	0.038292125
50	0xbdc2119f	-0.09476017
51	0xbdc20fa7	-0.09475642
52	0xbe29d74e	-0.16586038
53	0xbd281517	-0.041035738
54	0xbe4b6a2b	-0.19864719
55	0xbe3466b6	-0.17617306
56	0xbe2a0714	-0.16604263
57	0xbe542251	-0.20716216
58	0xbdafb92f	-0.08580243
59	0xbe559126	-0.20856151
60	0xbdd99b11	-0.1062528
61	0xbe1e8fb4	-0.15484506
62	0xbe06128e	-0.13093016
63	0xbe4be906	-0.1991311
64	0xbe5a35fa	-0.21309653
65	0xbe188c26	-0.14897212
66	0xbe3b2079	-0.18274106
67	0xbdeda307	-0.116033606
68	0xbddd0585	-0.107920684
69	0xbdd7cf4f	-0.10537588
70	0xbdee662d	-0.11640582
71	0xbe008495	-0.12550576
72	0xbe03e66e	-0.1288087
73	0xbe41800d	-0.18896504
74	0xbe44eabb	-0.19230168
75	0xbdd46f73	-0.1037282
76	0xbccd1074	-0.02503226
77	0xbe1f6360	-0.15565252
78	0xbc280d88	-0.010257132
79	0xbe1e46d5	-0.15456708
80	0x3e018dbb	0.12651722
81	0xbe118e1b	-0.14214365
82	0xbcf23ce8	-0.029570058
83	0xbe09057d	-0.13381
84	0xbe1ea468	-0.15492404
85	0x3ce3f914	0.02782873
86	0xbdd31065	-0.103058614
87	0xbe0ba916	-0.1363872
88	0xbe2a2eed	-0.16619463
89	0xbe3ae008	-0.18249524
90	0xbe2bcb47	-0.16776763
91	0xbe1261cb	-0.14295118
92	0xbdee5579	-0.11637396
93	0x3c8f1958	0.01746814
94	0xbe57f2e7	-0.21088754
95	0x3d0d58d4	0.03450854
96	0xbdd181ed	-0.102298595
97	0xbdbdf102	-0.09274484
98	0xbde9a599	-0.11408538
99	0xbde22dc1	-0.11043883
100	0xbe318b5c	-0.17338318
101	0xbe1ed449	-0.15510668
102	0xbe5fa511	-0.21840312
103	0xbd0da492	-0.034580775
104	0xbe3d24f0	-0.18471122
105	0xbe630e74	-0.22173482
106	0xbe55325e	-0.20819995
107	0xbe19d714	-0.15023452
108	0xbe048a65	-0.12943418
109	0xbe159ca2	-0.14610532
110	0xbe3db02a	-0.18524233
111	0xbe3df163	-0.18549113
112	0xbe20022a	-0.15625826
113	0xbe00c10e	-0.12573645
114	0xbe2db77e	-0.16964528
115	0xbe10d908	-0.14145291
116	0xbe3ed7b6	-0.18636975
117	0xbde3e659	-0.1112792
118	0xbe4cc690	-0.1999762
119	0xbe20bfa4	-0.15698105
120	0xbe3940f1	-0.1809118
121	0xbdc22cdb	-0.09481212
122	0x38d50000	0.000101566315
123	0xbde77e4d	-0.11303387
124	0x3e296ab2	0.16544607
125	0xbe0a3cd0	-0.1349976
126	0xbe52d6ee	-0.20589802
127	0xbe31c2a2	-0.17359403
128	0xbe010ba2	-0.12602094
129	0xbe45eebd	-0.19329353
130	0xbe10b098	-0.14129865
131	0xbdeb7324	-0.11496571
132	0x3c998e37	0.018744571
133	0x3d23d6c4	0.03999974
134	0xbde06142	-0.109560505
135	0xbe640b00	-0.22269821
136	0xbe1a7cf1	-0.15086724
137	0xbe1493ba	-0.14509478
138	0xbdba56e6	-0.09098606
139	0xbe16da52	-0.1473172
140	0xbe599e68	-0.21251833
141	0xbe380a07	-0.17972575
142	0xbe461513	-0.19343977
143	0xbdbeed20	-0.09322572
144	0xbe3a45fb	-0.18190758
145	0xbe165a0a	-0.14682785
146	0x3d9b6829	0.07588226
147	0xbe12469d	-0.1428475
148	0x3e3a8640	0.18215275
149	0xbe364e52	-0.17803314
150	0xbe196398	-0.14979398
151	0xbe18549f	-0.1487603
152	0xbe27bc34	-0.16380388
153	0xbde195b9	-0.110148855
154	0xbe1fc26d	-0.15601511
155	0xbe3fc274	-0.18726522
156	0xbe4149da	-0.18875828
157	0xbdc849aa	-0.09779675
158	0xbc916e18	-0.017752692
159	0xbdec439b	-0.11536332
160	0xbe020e60	-0.12700796
161	0xbe2df709	-0.16988768
162	0xbe4c6ca7	-0.19963323
163	0xbe007a3f	-0.12546633
164	0xbe117c02	-0.14207461
165	0x3bf08e30	0.007341169
166	0xbdb42cf7	-0.08797639
167	0x3e16a5d0	0.1471169
168	0xbe4548a6	-0.19265994
169	0xbe39c7fa	-0.18142691
170	0x3cd20e24	0.025641508
171	0x3d737e4d	0.05944662
172	0xbdff03dd	-0.12451909
173	0xbe2bb03b	-0.16766445
174	0xb9680200	-0.00022125989
175	0xbe130849	-0.1435863
176	0x3d0d1e1e	0.03445255
177	0xbe02f8b1	-0.1279018
178	0xbdcd0efd	-0.100126244
179	0xbe2fa2ea	-0.1715199
180	0xbe5a3a22	-0.21311238
181	0xbe447d5b	-0.19188444
182	0xbe26b40e	-0.16279623
183	0xbe1cbd58	-0.15306604
184	0xbe2d9a30	-0.16953349
185	0xbe529d1d	-0.20567746
186	0xbe587bef	-0.21141027
187	0xbdb18ecb	-0.08669814
188	0xbe4f1b7f	-0.20225333
189	0xbe47a0cc	-0.19494933
190	0xbe31efbc	-0.17376608
191	0xbe1b1e64	-0.15148312
192	0xbd57d206	-0.05269053
193	0xbdf61aeb	-0.12016853
194	0xbe1483c5	-0.14503391
195	0xbe148d6d	-0.14507075
196	0xbe65d7f3	-0.2244566
197	0x3cfa67ac	0.030567013
198	0xbd523210	-0.051317275
199	0xbddeeeeb	-0.10885414
200	0xbe4bb230	-0.19892192
201	0xbd64d162	-0.055863746
202	0xbe3dc4ef	-0.18532155
203	0xbe3127ca	-0.17300335
204	0xbe1a553e	-0.1507158
205	0xbdfc7135	-0.1232628
206	0xbe4b5e56	-0.19860205
207	0xbdc1d282	-0.09463979
208	0xbe3ae213	-0.18250303
209	0xbe5435f0	-0.207237
210	0xbe27d77d	-0.16390796
211	0xbe44d06e	-0.19220135
212	0xbe13a2dc	-0.14417595
213	0xbdbb7a40	-0.09154177
214	0xbe4978f1	-0.19675042
215	0xbe039119	-0.12848319
216	0xbdf9eeec	-0.12203774
217	0xbe23645f	-0.15956257
218	0xbe470939	-0.19437112
219	0xbe20eb3b	-0.15714733
220	0xbd995470	-0.07486808
221	0xbde411ac	-0.11136183
222	0xbe30b796	-0.17257532
223	0xbdd75186	-0.10513596
224	0x3c3c5cc8	0.01149673
225	0xbe439d33	-0.19102935
226	0xbe427919	-0.18991508
227	0xbe5b3bb6	-0.21409497
228	0xbe5b8d32	-0.2144058
229	0xbd7a1cdc	-0.06106268
230	0xbd49007c	-0.049072728
231	0xbd85f93e	-0.0654168
232	0xbe366ba4	-0.17814499
233	0xbe5e2706	-0.21694574
234	0xbe56beae	-0.20971176
235	0xbd6acd66	-0.05732479
236	0xbe07b80e	-0.13253805
237	0xbdee7f82	-0.11645414
238	0xbe46d87c	-0.1941852
239	0xbe4f8590	-0.20265794
240	0xbe04b9c0	-0.12961483
241	0xbe1f7b5d	-0.15574403
242	0xbdecb091	-0.11557115
243	0xbe4e2caf	-0.20134233
244	0xbe2dba5e	-0.16965625
245	0xbe2567d2	-0.16152886
246	0xbe1163a6	-0.14198169
247	0xbe362905	-0.17789085
248	0x3d4ed5b2	0.050496764
249	0xbe47e083	-0.19519238
250	0xbdee4eaa	-0.11636098
251	0xbe38940c	-0.18025225
252	0xbe59863f	-0.21242617
253	0xbe0d0463	-0.13771205
254	0xbe4c5dc5	-0.19957645
255	0xbe26fe33	-0.16307907

network.2.bias f4 [256]
0	0xbe43567d	-0.19075961
1	0xbd0607a7	-0.03272214
2	0x3d561701	0.052268032
3	0xbdd7a44d	-0.10529385
4	0x3d5ecf89	0.05439714
5	0xbedcac94	-0.43100417
6	0xbdea5f70	-0.114439845
7	0xbc3139a6	-0.010816967
8	0xbdc068ee	-0.09395014
9	0xbd6ec071	-0.058288995
10	0xbd3e9d84	-0.046536937
11	0xbf1672fb	-0.58769196
12	0xbd844c6e	-0.0645989
13	0x3e19bf14	0.15014297
14	0xbcfd8df0	-0.03095147
15	0x3d2cb339	0.042163108
16	0xbd199579	-0.037496064
17	0x3ad42d23	0.0016187768
18	0x3d95e2f7	0.07318681
19	0x3c98a0c5	0.018631348
20	0xbdf8a499	-0.121407695
21	0xbe9e6e57	-0.30943558
22	0x3fd7b9c4	1.6853566
23	0xbdc2057d	-0.09473703
24	0xbdb66e59	-0.08907766
25	0xbcfb9f43	-0.03071559
26	0xbe401dc0	-0.18761349
27	0xbdc28cf3	-0.0949954
28	0xbeac12d1	-0.33608106
29	0x3e154f4c	0.1458103
30	0xbe57a1c0	-0.21057796
31	0xbef637b0	-0.4808936
32	0xbd8c7957	-0.06859081
33	0xbda6ce74	-0.081448466
34	0xbdcb4dc6	-0.099269435
35	0x3ef6489f	0.4810228
36	0xbdce0460	-0.10059428
37	0xbc8956e0	-0.016765058
38	0xbe3bb871	-0.18332078
39	0xbae53a99	-0.0017488777
40	0xbe5f9c87	-0.21837054
41	0xbd15ef9c	-0.036605462
42	0xbc1fc2a3	-0.009750995
43	0xbdd93b6e	-0.106070384
44	0xbc0244b0	-0.007950947
45	0xbd980978	-0.07423681
46	0xbdddd89b	-0.1083233
47	0xbed1ca31	-0.40974572
48	0xbc8cfd04	-0.017210491
49	0xbde796a6	-0.11308031
50	0xbee405a0	-0.44535542
51	0xbe8a784e	-0.2704491
52	0xbd209e42	-0.039213426
53	0xbd85aa29	-0.06526596
54	0xbdd82e75	-0.10555736
55	0xbea02308	-0.31276727
56	0x3fdf0eb9	1.7426368
57	0xbe0092a7	-0.12555943
58	0xbbf3cbb6	-0.0074400557
59	0xbdc50932	-0.096208945
60	0xbd96496f	-0.07338225
61	0xbde8b774	-0.11363116
62	0x3c96926c	0.018380366
63	0xbdf7eaf6	-0.12105362
64	0xbda796c6	-0.081830546
65	0xbd12a7f0	-0.03580469
66	0xbde319d5	-0.110889114
67	0xbded697b	-0.115923844
68	0xbdf18705	-0.11793331
69	0xbd95d740	-0.07316446
70	0xbddaf53a	-0.106913045
71	0xbb782dfb	-0.0037869203
72	0x3d1f4d4d	0.03889208
73	0xbbb7d468	-0.0056100376
74	0xbc6a7494	-0.014310021
75	0x3b06f529	0.0020592904
76	0xbc92bb5b	-0.017911604
77	0xbee58ee2	-0.44835573
78	0xbd40f09c	-0.047104463
79	0xbd2b1fdc	-0.04177843
80	0xbde9e3f0	-0.11420429
81	0xbdf08079	-0.11743254
82	0xbfa902bd	-1.3203961
83	0xbd6a4815	-0.05719765
84	0xbe0e2150	-0.13879895
85	0xbe0bd7de	-0.13656566
86	0xbd88de65	-0.066830434
87	0xbd5651bd	-0.052324045
88	0x3d7bcb1b	0.061472993
89	0xbda8f42b	-0.08249696
90	0x3cb0b878	0.021572337
91	0xbe6dc8c5	-0.23221119
92	0xbccc3684	-0.024928339
93	0xbcd5d787	-0.026103748
94	0xbe588674	-0.2114504
95	0xbd7e65ac	-0.06210868
96	0xbd6545a9	-0.055974636
97	0x3c256a24	0.010096107
98	0xbde82ccc	-0.11336669
99	0xbe65c90a	-0.22439972
100	0x3c8a52b7	0.016885145
101	0xbdd6c968	-0.10487634
102	0xbead49c5	-0.33845344
103	0x3ba2fe18	0.004974138
104	0xbcd09144	-0.025459893
105	0xbd5dd162	-0.05415476
106	0x3b8fc42f	0.0043874006
107	0xbbf9de11	-0.0076253493
108	0xbefd0c62	-0.4942351
109	0xbd16e40d	-0.03683858
110	0xbdf2faa1	-0.1186421
111	0xbd2ea6b7	-0.04263946
112	0xbe917c04	-0.2841493
113	0xbd142432	-0.03616733
114	0xbddda639	-0.1082272
115	0xbe1eaaa9	-0.15494789
116	0xbd4d3e86	-0.050108455
117	0x3f2cac6c	0.67450595
118	0xb96cc0f4	-0.00022578595
119	0xbda890db	-0.08230754
120	0xbeef7068	-0.46765447
121	0xbf1e99d2	-0.6195346
122	0xbc8fec68	-0.017568782
123	0xbd34d5f0	-0.04414934
124	0xbe89f459	-0.26944235
125	0xbdc73d73	-0.097285174
126	0xbdeaaa1c	-0.11458227
127	0xbb73cd2b	-0.0037201147
128	0xbe9d9999	-0.30781248
129	0x3d2911ff	0.041276928
130	0xbe0b6ebf	-0.13616465
131	0xbda54156	-0.080691025
132	0xbc93df76	-0.01805089
133	0xbd8f335b	-0.06992217
134	0xbdc36cba	-0.09542222
135	0xbddf6e76	-0.109097406
136	0x3fa8eae7	1.3196687
137	0xbcc9f660	-0.024653614
138	0xbc826a29	-0.015919762
139	0xbd9fdf10	-0.07806218
140	0xbc563fad	-0.013076705
141	0xbf594a5b	-0.8487908
142	0xbf11a7c9	-0.56896645
143	0x3e80b4a8	0.2513783
144	0xbc8d6f58	-0.017265007
145	0xbdddfd28	-0.10839301
146	0x3d646777	0.055762734
147	0xbc2c5f00	-0.010520697
148	0xbec401a4	-0.38282502
149	0xbb34c87e	-0.0027585323
150	0xba6cf13d	-0.0009038633
151	0xbce0bba3	-0.027433222
152	0xbd26a037	-0.040680137
153	0xbdbaf286	-0.09128289
154	0xbc9efdee	-0.019408192
155	0xbdbd3b53	-0.09239831
156	0xbe9dce0b	-0.3082126
157	0xbe04a442	-0.12953284
158	0xbe430c12	-0.19047573
159	0xbd8cd7a8	-0.06877071
160	0xbcd6f18a	-0.026238222
161	0xbddff6a1	-0.109357126
162	0xbe26dc79	-0.16295041
163	0x3bab26f4	0.0052231494
164	0xbdca75c9	-0.09885747
165	0xbd23218b	-0.03982691
166	0xbd53bc0d	-0.05169301
167	0xbd30a5f5	-0.04312702
168	0xbddee6e9	-0.10883886
169	0xbd812283	-0.06305411
170	0xbd989983	-0.07451155
171	0xbdaadf9a	-0.0834343
172	0xbdb0fdcf	-0.0864216
173	0xbbdee715	-0.0068024495
174	0xbc1f97db	-0.009740795
175	0xbdd6aac0	-0.10481787
176	0xbdbe85ac	-0.0930284
177	0xbcbc19de	-0.022961553
178	0xbd3f1b9c	-0.04665719
179	0xbe3229aa	-0.17398706
180	0x40981a1c	4.753187
181	0x3d978db5	0.07400075
182	0xbeabbbd0	-0.33541727
183	0x3ce3003a	0.027710069
184	0x3dc8626f	0.097844
185	0xbd4ecdd8	-0.050489277
186	0xbde63fc9	-0.11242635
187	0xbd01be8a	-0.031675853
188	0x3d2208d6	0.039559208
189	0xbc804b41	-0.015660884
190	0xbc3147b8	-0.010820322
191	0xbc46482e	-0.01210217
192	0x40062740	2.0961456
193	0xbdb8c28d	-0.090214826
194	0xbe3ff9ac	-0.18747586
195	0x3e91ec9c	0.2850083
196	0xbb8edab8	-0.0043595694
197	0xbd52d6ac	-0.05147426
198	0x3ca31670	0.01990816
199	0xbdfc4d64	-0.123194486
200	0xbd1293f5	-0.035785634
201	0xbe95caee	-0.29256386
202	0xbc9fcd44	-0.019507058
203	0xbe977244	-0.29579365
204	0xbdc8cd3a	-0.09804769
205	0xbe837428	-0.25674558
206	0xbe458b78	-0.19291484
207	0xbf8b2189	-1.0869609
208	0xbd0fec9b	-0.035137754
209	0xbd61e0f6	-0.05514618
210	0x408cde75	4.4021554
211	0xbe112905	-0.14175804
212	0xbdae88bc	-0.08522174
213	0xbe0f83d9	-0.1401514
214	0xbec8e5f2	-0.39237934
215	0xbef8b10b	-0.48572573
216	0xbe16999c	-0.14707035
217	0x401b8857	2.4301965
218	0xbde5b027	-0.11215239
219	0xbe86ce31	-0.26329187
220	0xbb9bf67f	-0.0047596092
221	0xbdd3c4e4	-0.10340288
222	0xbb72c029	-0.0037040806
223	0xbc0c826a	-0.008576015
224	0xbaff8a4a	-0.0019496169
225	0xbdc36036	-0.09539835
226	0xbd075da2	-0.03304828
227	0xbd230e32	-0.03980846
228	0xbdb13e37	-0.08654445
229	0xbdb5d339	-0.08878178
230	0xbdb0719f	-0.086154215
231	0xbd26ffba	-0.040771224
232	0xbd5a6703	-0.053320896
233	0x3c83101a	0.015998889
234	0x3b18927d	0.0023280673
235	0xbd24d347	-0.040240552
236	0xbbaabd7b	-0.005210576
237	0xbe320bc8	-0.17387307
238	0xbc6e25ea	-0.014535407
239	0x402bcb2f	2.6842763
240	0x3daa304a	0.08309992
241	0xbe790b22	-0.24320653
242	0xbeb7522c	-0.3580488
243	0xbe9904f7	-0.298866
244	0xbdb93342	-0.0904298
245	0xba7de1fa	-0.0009684857
246	0xbd9b40b1	-0.07580698
247	0xbdc7ca98	-0.097554386
248	0xbe9de91a	-0.30841905
249	0xbd0463be	-0.032321684
250	0xbcbe9528	-0.023264483
251	0xbdcd7a1c	-0.10033056
252	0xbf2ac3fc	-0.667053
253	0xbd22d500	-0.039753914
254	0xbcf07e3e	-0.029357072
255	0xbc9f799a	-0.019467164

network.4.weight f4 [1, 256]
0	0xbe13adf8	-0.14421833
1	0x3d5e8f67	0.054335978
2	0xbc343cdd	-0.011000839
3	0x3d4ee4a9	0.050511036
4	0xbc08f053	-0.008358079
5	0x3ddc59e9	0.107593365
6	0x3c541ac8	0.012945838
7	0x3d119fea	0.035552897
8	0x3cbc0741	0.022952678
9	0x3baca40a	0.0052685784
10	0x3d10a421	0.035312776
11	0xbe03fbe8	-0.12889063
12	0x3cedb7c4	0.02901829
13	0x3d4d0d12	0.050061293
14	0xba3b6e4d	-0.000714992
15	0xb6c2f2b3	-5.8099045e-06
16	0x3cf35564	0.029703803
17	0x3d1bf413	0.038074564
18	0xbcfc2bc9	-0.030782597
19	0x3d0542d3	0.03253443
20	0x3cb04550	0.021517426
21	0x3e939b6f	0.28829524
22	0xc15fef67	-13.995948
23	0x3d52d49f	0.051472303
24	0x3d145e53	0.036222767
25	0x3b7776f8	0.003776012
26	0xbe4420b8	-0.19153106
27	0x3d548218	0.05188188
28	0xbd6d804e	-0.05798369
29	0x39c46d84	0.0003746563
30	0x3d169c3e	0.036770098
31	0xbd654b05	-0.055979747
32	0x3cb96d26	0.022635054
33	0x3c533ead	0.012893361
34	0x3cc18fc6	0.023628127
35	0x40356415	2.8342335
36	0xba200f89	-0.00061058305
37	0x3b6029e6	0.003420466
38	0x3c89b27d	0.016808743
39	0x3d1fdc75	0.039028604
40	0xbd05d41a	-0.03267298
41	0x3b31f230	0.0027152412
42	0x3c823a01	0.015896799
43	0x3cb0d923	0.021587914
44	0x3c19fe18	0.00939896
45	0x3d6e57fe	0.058189385
46	0x3d570d16	0.052502714
47	0x3daba43c	0.083809346
48	0x3a2734ad	0.0006378394
49	0x3d3cc05a	0.04608188
50	0x3e4590cb	0.19293515
51	0xbda1b2f9	-0.078954645
52	0x3d462f56	0.048384987
53	0x3c47017a	0.012146348
54	0x3cf93c0c	0.03042414
55	0xbe3bbac4	-0.18332964
56	0x40531a1f	3.2984693
57	0xbca4a3c2	-0.020097617
58	0xbd1d972b	-0.038474243
59	0x3c2052ca	0.009785363
60	0x3cead0e5	0.028664062
61	0x3c3149a1	0.010820777
62	0x3caf77b8	0.021419391
63	0x3d66972a	0.056296505
64	0x3d2696aa	0.04067103
65	0x3cc3ae1a	0.023886729
66	0x3c84e751	0.016223582
67	0x3d4bd28e	0.049761347
68	0x3cb5299c	0.022114567
69	0x3c39a732	0.011331366
70	0x3b17a42b	0.0023138623
71	0x3b502ac2	0.0031763767
72	0xbe1be4fd	-0.15224071
73	0x3ca2e9cb	0.019886872
74	0xbc57cc96	-0.013171336
75	0x3c6336f6	0.013868084
76	0x3cbed175	0.023293236
77	0x3ed8d2b4	0.42348254
78	0x39dafa9e	0.00041766925
79	0x3d719146	0.058976434
80	0x3c35048b	0.011048446
81	0x3d73b178	0.05949542
82	0xc01245bf	-2.285507
83	0x3d3f4484	0.0466962
84	0x3d5f0ebf	0.054457422
85	0x3e2d5129	0.16925491
86	0x3c69675c	0.014245834
87	0xbd3e057e	-0.046391957
88	0xbc5c43c6	-0.013443893
89	0xbd10ad99	-0.035321806
90	0xbc938f36	-0.018012624
91	0x3b2cfc90	0.0026395656
92	0x3bb7ccc1	0.0056091254
93	0x372374bb	9.7427355e-06
94	0x3b76e32b	0.0037672024
95	0x3d324b0f	0.043528613
96	0x3cc6fa0c	0.024289154
97	0x3da107e8	0.07862836
98	0x3d3d4e8b	0.046217483
99	0x3dc05265	0.093907155
100	0xbcdbbcf4	-0.026823498
101	0x3cd10776	0.025516253
102	0xbe4e8840	-0.20169163
103	0xbc914452	-0.017732773
104	0x3d383aa9	0.044977818
105	0x3d1b46bf	0.037909266
106	0xc0e18925	-7.0479913
107	0x3d2c4d8f	0.042066153
108	0x3e5e2436	0.21693501
109	0xbc533abc	-0.012892421
110	0x3c975562	0.01847333
111	0x3b6e619e	0.0036374102
112	0xbe049a28	-0.12949431
113	0xbb094318	-0.0020944532
114	0x3c50705c	0.012722101
115	0x3e05ed77	0.13078867
116	0x3d1c156e	0.038106374
117	0xbfd3066e	-1.6486337
118	0x3a72538d	0.00092440174
119	0x3d1773f4	0.036975816
120	0xbe8fba51	-0.28071836
121	0x3e8f875b	0.28032956
122	0x3c9cc449	0.019136565
123	0x3d74b19a	0.059739687
124	0x3d81c66c	0.06336674
125	0x3d1d868b	0.03845839
126	0x3ccf6033	0.025314426
127	0x3d635c09	0.055507693
128	0x3db6c19b	0.08923646
129	0xbcbe1ac8	-0.02320613
130	0xbdcf4491	-0.101205
131	0x3ce50af5	0.027959326
132	0x3c0510dc	0.008121695
133	0x3d2946c1	0.04132724
134	0xbd12f8b7	-0.035881724
135	0x3c9189b6	0.017765861
136	0xbfb32e31	-1.3998471
137	0x3c9eadcf	0.019369988
138	0x3d1bd024	0.038040295
139	0x3d3fec1b	0.046856027
140	0x3a395a33	0.00070706307
141	0xc0b8e161	-5.777512
142	0xc10a181a	-8.630884
143	0x3cd00899	0.025394725
144	0x3ccf3f28	0.02529867
145	0x3baefc1f	0.005340114
146	0xbc20dcee	-0.009818299
147	0xbbc86738	-0.0061158203
148	0x3bc9ecf5	0.0061622807
149	0x3cbd2959	0.023091005
150	0x3b974450	0.004616298
151	0x3d6fb2f4	0.058520272
152	0x3caa98b4	0.020824768
153	0x3d62b78c	0.055350825
154	0x3d2ccdd3	0.042188477
155	0x3d4c8ee4	0.04994096
156	0x3fb27f99	1.394519
157	0x3d76e53a	0.0602772
158	0xbca4a0d8	-0.020096228
159	0x3c14c87d	0.009081003
160	0x3cdd4be4	0.027013727
161	0x3d750764	0.0598215
162	0xbcbc39ce	-0.022976782
163	0xbc9271c0	-0.017876506
164	0x3d3330ee	0.043747835
165	0xbcc0844f	-0.02350059
166	0x3d00dc8e	0.031460337
167	0x3d6855d3	0.056722473
168	0x3d37a1f7	0.044832196
169	0x3bec4d4d	0.0072113634
170	0xbd270390	-0.04077488
171	0x3d484878	0.048897237
172	0x3cebf71a	0.02880435
173	0xbd68e07b	-0.056854706
174	0xbbbf9716	-0.0058468683
175	0x3d21207f	0.03933763
176	0x3c9c4502	0.019075874
177	0x3d2d0288	0.042238742
178	0x3de00255	0.10937945
179	0x3e034709	0.12820067
180	0x403fe062	2.9980702
181	0xbc6d256a	-0.014474252
182	0xbe15e0e4	-0.1463657
183	0xbd4872c7	-0.048937585
184	0x3cc56869	0.024097638
185	0x3c077e3b	0.008269842
186	0x3d023472	0.031788297
187	0x3d033955	0.032037098
188	0xbc91786b	-0.017757615
189	0x3d5e8f68	0.05433598
190	0xbd079e2a	-0.03310982
191	0xbb04afc0	-0.0020246357
192	0xc06211c3	-3.532334
193	0x3d4a880a	0.049446143
194	0xbe0db684	-0.13839155
195	0x402c753b	2.6946552
196	0x3aec0d87	0.0018009403
197	0x3d316fa1	0.04331935
198	0xbb4de85c	-0.0031419015
199	0x3e415f0c	0.18883914
200	0x3d388e02	0.045057304
201	0xbdf1b5b4	-0.11802235
202	0x3d6a88ae	0.057259254
203	0x3e873a79	0.264118
204	0xbadb83f9	-0.0016747705
205	0x3e315853	0.1731885
206	0x3d8d7573	0.06907167
207	0xbc2558cf	-0.010091974
208	0x3d061188	0.032731563
209	0x3d2611cf	0.040544327
210	0x40198a38	2.3990612
211	0x3b3360d8	0.0027370956
212	0x3d399c5d	0.045315135
213	0xb8d6598f	-0.00010220997
214	0xbe1f5c90	-0.15562654
215	0xbd108a7c	-0.03528832
216	0x3e8f6c86	0.28012484
217	0x408529a8	4.161335
218	0x3d1e454e	0.038640313
219	0x3d003ff7	0.031311
220	0x3c731587	0.0148366755
221	0x3ca49246	0.02008928
222	0x3bc7e416	0.006100188
223	0x3c9060ce	0.017624285
224	0x3cc93464	0.024561115
225	0xc0b5513a	-5.6661654
226	0x3d919b00	0.07109642
227	0x3d6e54aa	0.05818621
228	0x3d06548c	0.032795474
229	0x3d46ebba	0.04856465
230	0x3dbcde01	0.092220314
231	0x3cfe020a	0.031006832
232	0x3d643940	0.05571866
233	0xbccbfaa6	-0.024899792
234	0x3c272020	0.01020053
235	0xbd2eaddd	-0.042646278
236	0x3d13bc36	0.036068164
237	0xbd20af46	-0.039229654
238	0x3c94ec10	0.01817897
239	0x4034b1e0	2.8233566
240	0x39d6d709	0.00040977474
241	0xbe43a337	-0.1910523
242	0xbe63f426	-0.22261104
243	0xbdeb2da2	-0.11483313
244	0x3cf83f07	0.030303491
245	0x3b5bd5b4	0.0033544125
246	0x3d457acf	0.048212823
247	0x3e242ba7	0.16032277
248	0xbe7afa6e	-0.24509594
249	0x3c4f91d4	0.0126690455
250	0xbc8a8de5	-0.016913364
251	0x3c015a57	0.007895074
252	0x3d845d97	0.06463163
253	0x3b536f27	0.0032262297
254	0x3d339373	0.04384179
255	0x3c47a777	0.012185923
