Training/Model/model_critic_robot_subset_joint0_01.pt (torch, 284215 bytes, 5 tensors)

network.0.weight f4 [256, 16]
0	0x3e8fd39c	0.28091133
1	0x3d256719	0.040381525
2	0xbdfb025f	-0.122563116
3	0x3dc14636	0.0943722
4	0xbd4f4219	-0.050600145
5	0xbe09617d	-0.13416095
6	0x3d86725b	0.0656478
7	0x3d6bf179	0.057603333
8	0xbecd1499	-0.40054777
9	0xbee631cb	-0.44959864
10	0xbc623932	-0.013807582
11	0x3d886dac	0.06661543
12	0x3d89c61a	0.06727238
13	0x3cc8ebb6	0.024526458
14	0xbdc42541	-0.09577418
15	0xbd6ca80b	-0.057777446
16	0x3f576765	0.8414214
17	0x409028b2	4.5049677
18	0xbf062000	-0.5239258
19	0xc047e013	-3.1230514
20	0xbf24d9be	-0.6439475
21	0xbf3164d9	-0.69294506
22	0xbf9dc0a6	-1.2324417
23	0x400653d1	2.0988657
24	0xbf1c62b0	-0.61088085
25	0x3f9cefbb	1.226066
26	0xbc32f8bb	-0.01092356
27	0x3d8b97f8	0.06816095
28	0xbdfe2026	-0.124084756
29	0xbde1403e	-0.10998581
30	0x3c141763	0.009038779
31	0xbe3f8744	-0.18703943
32	0xbe582796	-0.21108851
33	0x3e52dd05	0.20592125
34	0xbf3fc5c5	-0.7491115
35	0xc052b29a	-3.292151
36	0x3f8c422d	1.0957695
37	0x3faf1b32	1.3680174
38	0x3fb7a71b	1.4347872
39	0x3f97e420	1.1866493
40	0xc00cf584	-2.202485
41	0x3fc2d5e6	1.5221527
42	0xb9b3eb9a	-0.00034317077
43	0x3c1dc709	0.009629973
44	0xbdbf1a93	-0.093312405
45	0xbcd7002d	-0.026245201
46	0x3d144245	0.036196012
47	0xbcab0268	-0.02087517
48	0x3f9a4a10	1.2053852
49	0xbfc34f8e	-1.5258653
50	0xbf5ab945	-0.8543895
51	0x3f15ca7e	0.58512104
52	0x3f954ae0	1.1663475
53	0xc0387b3b	-2.8825214
54	0xc0178e2e	-2.368053
55	0x3f0a4764	0.54015183
56	0x3edb8b87	0.42879888
57	0x40299fa3	2.6503685
58	0x3dd8849c	0.10572168
59	0xbdb4faf3	-0.08836927
60	0xbd1f0d4d	-0.038831044
61	0x3dd96e99	0.10616798
62	0x3d655ad2	0.055994816
63	0xbd90cbe8	-0.07070142
64	0xbe68d341	-0.22736837
65	0xbf28bd2c	-0.65913653
66	0xbf2fea65	-0.6871703
67	0x403aef30	2.9208488
68	0xc00dd9b0	-2.2164116
69	0x3f8bf3fd	1.0933834
70	0x3fd03ffa	1.6269524
71	0x3fc298f1	1.5202924
72	0xc0089f61	-2.1347277
73	0x3fa02683	1.2511753
74	0xbd86c2d1	-0.06580127
75	0xbcccd211	-0.025002511
76	0x3bad4197	0.00528736
77	0xbcc2ce41	-0.02377999
78	0xbd7fb017	-0.06242379
79	0x3d8fe3ce	0.07025872
80	0xbf8f4372	-1.1192458
81	0x3f0ca1eb	0.5493457
82	0x3ecef686	0.40422457
83	0x3f6f1d81	0.93404394
84	0xbf3450d6	-0.70435846
85	0x4023c9b4	2.559186
86	0xbfa60395	-1.2969843
87	0xbf6966e8	-0.9117265
88	0xc03025e1	-2.752312
89	0x3f401f82	0.7504808
90	0x3d7df14a	0.06199769
91	0x3e3cc32e	0.1843383
92	0x3e0ec984	0.1394406
93	0xbe1d791e	-0.15378234
94	0xbdd68b49	-0.10475785
95	0x3e55e3ed	0.20887728
96	0xc01e57bd	-2.4741051
97	0xbfc03553	-1.5016273
98	0x3ed5e2ba	0.4177454
99	0xbf2134fd	-0.6297148
100	0x3f6f9cc8	0.93598604
101	0x3f17e51a	0.59333956
102	0x3fedbbe4	1.8572965
103	0x3d856db5	0.065150656
104	0xbc204027	-0.00978092
105	0xbf4e4dad	-0.80587274
106	0xbda01578	-0.07816595
107	0xbd42e541	-0.047581915
108	0xbd4ecf01	-0.050490383
109	0xbd002e73	-0.031294297
110	0xbd9dca4b	-0.077046
111	0xbdb76a1c	-0.08955786
112	0x3f6b93b5	0.9202226
113	0x3f05a5f9	0.5220638
114	0x3fa59421	1.293583
115	0x3f1fd4cf	0.62434095
116	0x3d20cd29	0.039258156
117	0xbea17360	-0.31533337
118	0xbc04b2c0	-0.008099258
119	0xbf86cb66	-1.0530822
120	0xbdc61f14	-0.096738964
121	0x40abe68e	5.371894
122	0xbbf1a0d0	-0.0073739067
123	0xbd7634a5	-0.0601088
124	0x3cf40cba	0.029791225
125	0x3d318e60	0.04334867
126	0x3c51d65e	0.012807457
127	0x3d696bb6	0.056987487
128	0x40021d14	2.0330248
129	0x3e381a6a	0.17978826
130	0xc0165887	-2.3491533
131	0x3fc9a2e6	1.5752838
132	0x3f4d5e50	0.80222034
133	0xbf2177db	-0.6307351
134	0x3e8a749a	0.27042085
135	0x3ec4d603	0.38444528
136	0xbff48bb6	-1.9105136
137	0xbe98038f	-0.29690215
138	0x3e5a4727	0.21316205
139	0x3f18e6fc	0.59727454
140	0xbec128d2	-0.37726456
141	0xbd86a372	-0.065741435
142	0x3ddea1e9	0.10870726
143	0x3f1b4725	0.6065543
144	0x3fbdf2bd	1.4839703
145	0xbdb752eb	-0.08951362
146	0x3f02a1ce	0.51028144
147	0x3e5bea6a	0.2147614
148	0xbeace704	-0.3377
149	0xc0231620	-2.5482254
150	0x40628b8d	3.5397675
151	0xbf30e865	-0.69104606
152	0xc01b287a	-2.4243455
153	0x3d175507	0.036946323
154	0xbd405572	-0.046956487
155	0xbf0d2699	-0.5513702
156	0xbdb22d14	-0.08700004
157	0x3f4b5df4	0.79440236
158	0x3d9fc59c	0.07801363
159	0xbe13d9c3	-0.14438538
160	0x3f31e0c7	0.6948361
161	0x3ebf1515	0.37320772
162	0xbfb50201	-1.4141237
163	0xbfab0216	-1.3360012
164	0x3ff3b43d	1.9039379
165	0x3e47b848	0.19503891
166	0xbfef0ca0	-1.8675728
167	0x3f5556ce	0.8333558
168	0xbf433e4f	-0.7626695
169	0x3e1125fa	0.14174643
170	0x3e196bc1	0.14982511
171	0xbe514ad5	-0.20438702
172	0xbdd25358	-0.10269803
173	0x3e2d4205	0.16919716
174	0x3e3d3927	0.18478833
175	0x3ebc18f3	0.36737785
176	0x3e81ef1e	0.25377744
177	0x3ea0784c	0.3134178
178	0xbdfe326e	-0.124119624
179	0xbcef4175	-0.029206017
180	0x3da1eda9	0.07906658
181	0x3d36baad	0.04461162
182	0x3ec01fbe	0.37524217
183	0x3dd6edb8	0.1049456
184	0xbf71b21f	-0.94412416
185	0xbd8e8b9e	-0.069602236
186	0x3c88810b	0.016663095
187	0xbd12a3f7	-0.0358009
188	0xbc338075	-0.0109559195
189	0xbe0a3ce3	-0.13499789
190	0xbe16f4a8	-0.14741766
191	0x3e582bc4	0.21110445
192	0x400d7e31	2.210827
193	0xbf39dd56	-0.72603357
194	0xc0220d7e	-2.5320735
195	0x3fc34b86	1.5257423
196	0xc03ebd29	-2.9802954
197	0x3ff9d6aa	1.9518635
198	0x3ac9a42b	0.0015384009
199	0xbded7791	-0.11595071
200	0xbfe1303c	-1.7592845
201	0xc008169e	-2.1263804
202	0x3c967ca7	0.018369986
203	0xbcbb7820	-0.022884429
204	0xbd3ee0ee	-0.04660123
205	0x3db41eb8	0.08794922
206	0xbd5f0130	-0.054444492
207	0x3dfabbdd	0.12242863
208	0x3fb880ef	1.4414347
209	0xbea1d31a	-0.3160637
210	0xc025b169	-2.5889533
211	0x4006673a	2.1000504
212	0x3fb710ec	1.4302039
213	0x40095221	2.1456378
214	0x3f572358	0.84038305
215	0xbdd63054	-0.104584366
216	0xbffc4acc	-1.9710326
217	0x3f727e52	0.94724
218	0xbdc83534	-0.09775773
219	0xbd756975	-0.059915025
220	0xbda8d425	-0.08243588
221	0x3e71682e	0.23574898
222	0x3debed9a	0.11519928
223	0x3daacf04	0.08340266
224	0xbb485d88	-0.0030573327
225	0x40034ea1	2.0516741
226	0xbf6610a6	-0.89869153
227	0xbfa959b6	-1.3230503
228	0xbedb1ffe	-0.42797846
229	0x40220e80	2.532135
230	0x3fe6cab5	1.8030611
231	0x3f62d02f	0.8859891
232	0xbf8787d3	-1.0588325
233	0xbf7694a6	-0.9632057
234	0xbdcb5ffc	-0.09930417
235	0x3e002353	0.12513475
236	0x3d1ba7ca	0.038001813
237	0xbc9c80c6	-0.019104373
238	0xbdd1baf5	-0.10240737
239	0x3d193ded	0.037412573
240	0xbd44caf8	-0.04804513
241	0x3fca8d18	1.5824308
242	0xc01182b2	-2.273602
243	0x3fa13688	1.2594767
244	0x3fc3b793	1.5290397
245	0xbf9a4158	-1.2051191
246	0xbff13861	-1.884533
247	0xbfe93068	-1.8217897
248	0xc007b2c6	-2.1202865
249	0x402a63bb	2.662337
250	0x3d1772ef	0.036974844
251	0x3da8514f	0.082186334
252	0xbddd7ca0	-0.10814786
253	0x3d7cdbfc	0.06173323
254	0xbd9fb87c	-0.077988595
255	0x3d4cc61e	0.049993627

network.0.bias f4 [256]
0	0xbf43b590	-0.7644892
1	0xbeb16402	-0.34646612
2	0xc0273cbd	-2.6130822
3	0x3f22848c	0.634835
4	0xbfe9da90	-1.8269825
5	0xc018b0a7	-2.385782
6	0xbe7861de	-0.24256083
7	0xbe6836f2	-0.2267721
8	0xbffa29a6	-1.954396
9	0xc0149fd4	-2.3222551
10	0xbf9e6053	-1.2373146
11	0xbf743b89	-0.95403343
12	0xbfd3b624	-1.653996
13	0xc012dc7a	-2.2947068
14	0xbf695084	-0.9113848
15	0xc0030590	-2.0472145
16	0xc04e3132	-3.2217526
17	0xbfd2aee2	-1.645962
18	0xbf5ea60b	-0.8697211
19	0xbffac703	-1.9591984
20	0xbeb385eb	-0.3506311
21	0xbf64fab9	-0.8944507
22	0xbfae19af	-1.3601588
23	0xbfe406e0	-1.7814598
24	0xbfb00ba1	-1.3753549
25	0xbfc8ba36	-1.5681827
26	0xbf5f7acf	-0.87296766
27	0xbea96ea5	-0.33092228
28	0xbfa6c1d5	-1.3027903
29	0xbe945827	-0.28973505
30	0xbec528fc	-0.3850783
31	0x3cbf0e4b	0.023322245
32	0xbf8b6798	-1.0890989
33	0xbf528aec	-0.8224323
34	0xc01bc07c	-2.4336233
35	0xbf9bbfb9	-1.2167884
36	0x3ea54c45	0.32284752
37	0xc0326e3d	-2.7879784
38	0xc041b069	-3.0263922
39	0xbeb6d2b6	-0.35707635
40	0xbf41fb85	-0.75774413
41	0xbf9467bc	-1.1594157
42	0xbf4a8145	-0.791035
43	0xbfa417a5	-1.2819716
44	0xbf82088b	-1.0158857
45	0xc00b3411	-2.175053
46	0xbe18244d	-0.14857598
47	0xbff761da	-1.9326737
48	0xbff6c800	-1.9279785
49	0xbf9385d1	-1.1525213
50	0xbffc872d	-1.9728752
51	0xbfd84109	-1.6894847
52	0xbf7fdaef	-0.9994344
53	0xbf89c96d	-1.0764595
54	0xbfb82022	-1.4384806
55	0xbfb2f12b	-1.3979849
56	0xc0044edf	-2.067314
57	0xbf57068e	-0.83994377
58	0xbfcef4a5	-1.616841
59	0xbfd20fa5	-1.6411024
60	0xc0233770	-2.5502586
61	0xbfcfec93	-1.6244072
62	0xbf51a7fd	-0.81896955
63	0xbfa082d6	-1.2539928
64	0xbfb162f2	-1.3858321
65	0xc00ef2e9	-2.233576
66	0x3dd78a0b	0.105243765
67	0xbf9b9d03	-1.2157291
68	0xbf93e8a5	-1.1555372
69	0xbf7901c2	-0.9726831
70	0xbfb206c8	-1.390832
71	0xbfffa821	-1.9973184
72	0xc01a234a	-2.4084039
73	0xbff432aa	-1.9077961
74	0xbf9718ca	-1.180444
75	0xbfed13d0	-1.8521671
76	0xc0064fcb	-2.0986202
77	0xbfd0957b	-1.6295618
78	0xbf9ba41c	-1.2159457
79	0xbedb3608	-0.4281466
80	0xc002acb4	-2.041791
81	0xbf89dc13	-1.0770286
82	0xc041a2da	-3.0255647
83	0x3dad3156	0.08456676
84	0xbf76d941	-0.96425253
85	0xbfaa4e95	-1.3305231
86	0xc003a543	-2.0569618
87	0xc003920d	-2.0557892
88	0x3ed48887	0.41510412
89	0xbf897725	-1.0739485
90	0xbf8ef62f	-1.1168879
91	0xbff4648d	-1.9093186
92	0xbf5a2af9	-0.8522182
93	0xbf9a1a0d	-1.20392
94	0xbf46c631	-0.77646166
95	0xbfd39ef5	-1.6532885
96	0xc00d56b8	-2.208418
97	0xbf9e040e	-1.2344987
98	0xbfee0769	-1.8596011
99	0xbfcfb9de	-1.6228597
100	0xc01c3c37	-2.4411752
101	0xbfdd0627	-1.7267503
102	0xbf8b3eee	-1.087858
103	0xbf861373	-1.0474685
104	0xbf999fd1	-1.2001897
105	0xbfed5c42	-1.854378
106	0xbfda9f64	-1.7079892
107	0xbee1f23c	-0.44130123
108	0xbff6ab78	-1.9271078
109	0xbd89591a	-0.06706448
110	0xbf958df7	-1.1683949
111	0xbf23db69	-0.6400667
112	0xc0185843	-2.380387
113	0xbf68868c	-0.908303
114	0xbf629f18	-0.8852401
115	0xbf8cea07	-1.100892
116	0xbf8b0a92	-1.0862601
117	0xbf5fd019	-0.87426907
118	0xbfeca4d0	-1.8487797
119	0xbf8a790f	-1.0818194
120	0xc00d4724	-2.207467
121	0xbf07cb12	-0.53044236
122	0xbf9c9d8d	-1.2235581
123	0xbff6dcd9	-1.9286147
124	0xbda86281	-0.08221913
125	0xbf836b99	-1.0267211
126	0xbf8346ca	-1.0255978
127	0xbf2dc66d	-0.678809
128	0xbfcb2334	-1.5870118
129	0xbd93ac85	-0.0721064
130	0xbfadcba9	-1.3577777
131	0xbfba91c9	-1.457574
132	0xbfb65557	-1.4244794
133	0xbf726757	-0.94688934
134	0xbfd55fc9	-1.6669856
135	0xc01b2ff0	-2.4248009
136	0x3e7153fc	0.23567194
137	0xbfc425f5	-1.5324084
138	0xbfc34dc2	-1.5258105
139	0xbfdc0d5b	-1.7191576
140	0xc005bad7	-2.0895288
141	0xbfe3ef34	-1.7807374
142	0xbf499d31	-0.7875548
143	0xc01da750	-2.463337
144	0xbef2498f	-0.47321746
145	0xc037ca3b	-2.8717182
146	0xc03af618	-2.9212704
147	0xbf599b9d	-0.8500307
148	0xc04c3b38	-3.1911144
149	0xbfd272e2	-1.644131
150	0xbfdec2aa	-1.7403157
151	0xc00efad9	-2.2340605
152	0xc006eded	-2.1082718
153	0xbf708fb8	-0.939693
154	0xbfc90778	-1.5705404
155	0xbfc49711	-1.5358602
156	0x3e233ef6	0.15941986
157	0xbf57197f	-0.8402328
158	0xc0448076	-3.0703406
159	0xc028b9d5	-2.6363423
160	0xc042a135	-3.0410893
161	0xbf7d18f4	-0.988662
162	0xbfca09e3	-1.5784267
163	0xbed9029c	-0.42384803
164	0x3f4111af	0.7541761
165	0xbfe3069f	-1.7736396
166	0xbfcc1269	-1.5943118
167	0x3eb110b4	0.34583056
168	0xbe3593e9	-0.17732204
169	0xbe9e169d	-0.30876628
170	0xbfcbc5ca	-1.5919735
171	0xbfa0f19a	-1.2573731
172	0xbea61334	-0.32436526
173	0xbe4de251	-0.20105864
174	0xbff24663	-1.892773
175	0xbf7878ed	-0.9705952
176	0xbf2bbf57	-0.67088836
177	0x3f80db83	1.006699
178	0xbfc55b0c	-1.541841
179	0x3e184a8f	0.14872192
180	0xc03d3076	-2.9560828
181	0xc02425c3	-2.5648048
182	0xc01ea3c5	-2.4787457
183	0x3e453d87	0.19261752
184	0xbfb4a2b2	-1.4112151
185	0xbf94a99c	-1.1614261
186	0xbfb4367c	-1.4079127
187	0xbf78847c	-0.97077155
188	0xbfa2b906	-1.2712715
189	0xbfb64fab	-1.4243063
190	0xbfc78af4	-1.558928
191	0xc016e561	-2.3577502
192	0xbf11dc42	-0.5697671
193	0xbfe272a5	-1.7691237
194	0xbe10fad8	-0.1415819
195	0xbfddebf3	-1.7337631
196	0x3de63107	0.1123982
197	0xbef2d1f4	-0.47425807
198	0xbf30fb7e	-0.69133747
199	0xbee2b3dc	-0.44277847
200	0xbeb4a636	-0.3528306
201	0xbf3c86db	-0.73643273
202	0xc00f0ce8	-2.2351627
203	0x3e002c56	0.12516913
204	0xbf44ee47	-0.7692608
205	0xbfe539c5	-1.7908255
206	0xbf8bcc90	-1.0921803
207	0xbfd6bd8b	-1.6776594
208	0xbf5408e6	-0.8282608
209	0xbfce14e5	-1.6100127
210	0xbf4521e6	-0.7700485
211	0xbfa1382f	-1.2595271
212	0xbf3a458e	-0.7276238
213	0xbf329dce	-0.6977204
214	0xc02eb419	-2.7297423
215	0xbefb39f9	-0.49067667
216	0xbf80ee67	-1.0072755
217	0xbedab30e	-0.42714733
218	0xbf5e2047	-0.86768
219	0x3e3ad2fa	0.18244544
220	0xbfa73285	-1.3062292
221	0xbfdc94c0	-1.7232895
222	0xbfb9c39f	-1.4512824
223	0xbfe71242	-1.8052447
224	0xbf8c7f62	-1.0976374
225	0xbf3e9c6f	-0.7445745
226	0xbec7d2f9	-0.39028147
227	0xbfef3eb9	-1.8691016
228	0xbfa190fd	-1.2622372
229	0xbf543698	-0.82895803
230	0xbf85a571	-1.0441114
231	0xc03a15a5	-2.907571
232	0xc04ebd8f	-3.2303197
233	0xbf6e4fc0	-0.9309044
234	0xc04135b1	-3.018902
235	0xc01ba888	-2.4321613
236	0xbf837d3c	-1.0272593
237	0xbe7a55fa	-0.2444686
238	0xbf9e0849	-1.2346278
239	0xbff179cd	-1.8865296
240	0xbfc974f6	-1.5738819
241	0x3d09c8bb	0.033638697
242	0xbf640305	-0.8906711
243	0xc010ee02	-2.2645268
244	0xbf4b4b88	-0.79412127
245	0xc05d3404	-3.4562998
246	0xbf7b05e0	-0.9805584
247	0xbd2c833c	-0.042117342
248	0xbf39abba	-0.7252766
249	0xbfb650ac	-1.4243369
250	0xbf5d700f	-0.8649911
251	0xbfe5c2b5	-1.7950045
252	0xbf32deca	-0.698712
253	0xc01a28a5	-2.4087307
254	0xbef3ce9b	-0.47618565
255	0x3f48f771	0.78502566

network.2.weight f4 [256, 256]
0	0xbcab5434	-0.020914175
1	0xbd679a9f	-0.056543943
2	0xbd660e52	-0.056166
3	0xbd9be5c7	-0.07612186
4	0xbd63b363	-0.055591
5	0xbd852e14	-0.06502929
6	0xbd9e1602	-0.077190414
7	0xbdc9a351	-0.09845603
8	0xbdb384ab	-0.08765539
9	0xbc91aee9	-0.017783599
10	0xbc8b53f0	-0.017007798
11	0xbd1d9df1	-0.038480703
12	0xbd89980e	-0.06718455
13	0xbdb6cadd	-0.08925412
14	0xbd0fc190	-0.035096705
15	0xbd303aad	-0.043024708
16	0xbdb55bd7	-0.08855408
17	0xbce33271	-0.027734013
18	0xbd2aac17	-0.041668024
19	0xbcff68d9	-0.031177925
20	0xbdf2fe50	-0.118649125
21	0xbdc3743d	-0.09543655
22	0xbce7da0f	-0.02830222
23	0xbdc9ee0e	-0.098598585
24	0xbde18367	-0.11011391
25	0xbb98c9cc	-0.004662728
26	0xbd0e71fa	-0.034776665
27	0xbd471eca	-0.048613347
28	0xbd349eb7	-0.044096675
29	0xbd41fac0	-0.047358274
30	0xba8ffb23	-0.0010984879
31	0xbd9e68f4	-0.07734862
32	0xbda4d306	-0.08048062
33	0xbdc9e560	-0.09858203
34	0xbd4e9fdf	-0.050445434
35	0xbdeb18be	-0.114793286
36	0xbda87d10	-0.08226979
37	0xbd8d0a0d	-0.06886683
38	0xbd41865b	-0.047247272
39	0xbd3211c7	-0.043473985
40	0xbddc2da9	-0.107508965
41	0xbd224a84	-0.039621845
42	0xbdd1cd04	-0.10244182
43	0xbdde05b4	-0.108409315
44	0xbd63a59c	-0.05557786
45	0xbdb6db5b	-0.089285575
46	0xbd720164	-0.059083357
47	0xbdeede20	-0.11663461
48	0xbdcddfd9	-0.10052461
49	0xbd199c7a	-0.037502743
50	0xbcb90553	-0.022585547
51	0xbda1c80e	-0.078994855
52	0xbc02d2bd	-0.007984814
53	0xbbad2880	-0.005284369
54	0xbc99ee7e	-0.01879048
55	0xbc974117	-0.018463654
56	0xbd86e17d	-0.06585977
57	0xbcfec315	-0.031098882
58	0xbdd05886	-0.101731345
59	0xbd3317d2	-0.04372389
60	0xbdd034e2	-0.101663366
61	0xbd8aedbf	-0.06783628
62	0xbd0b81b8	-0.034059256
63	0xbc8764c8	-0.016527548
64	0xbdad7db6	-0.08471243
65	0xbdd6def4	-0.10491744
66	0xbc1eec00	-0.0096998215
67	0xbde59b6b	-0.11211284
68	0xbdbf9eca	-0.093564585
69	0xbdb91233	-0.09036674
70	0xbd01d102	-0.031693466
71	0xbd86412b	-0.065553986
72	0xbcf6acd9	-0.030111717
73	0xbcc62a1d	-0.024190003
74	0xbdedd74c	-0.1161333
75	0xbdecdde7	-0.11565762
76	0xbd3a64a5	-0.04550614
77	0xba278338	-0.00063900976
78	0xbdb27a44	-0.087147266
79	0xbc948f72	-0.018134806
80	0xbd830968	-0.063982785
81	0xbd12c13f	-0.035828825
82	0xbdee96c3	-0.11649849
83	0xbd4c69d0	-0.0499056
84	0xbd172fad	-0.0369107
85	0xbdbc7c0a	-0.09203346
86	0xbd149e76	-0.036283933
87	0xbda82365	-0.08209876
88	0xbd84b7ee	-0.06480394
89	0xbd613c3e	-0.054989092
90	0xbd150e4d	-0.03639059
91	0xbd81130a	-0.063024595
92	0xbb2c3820	-0.002627857
93	0xbc13ab5f	-0.009013026
94	0xbde9c881	-0.11415196
95	0xbdb83ac0	-0.08995581
96	0xbd3fbda6	-0.046811722
97	0xbbaa7450	-0.005201854
98	0xbd1bd04b	-0.03804044
99	0xbdb0755d	-0.08616135
100	0xbc9a5062	-0.018837158
101	0xbd43750d	-0.04771905
102	0xbdd99a75	-0.106251635
103	0xbdf357d3	-0.118819855
104	0xbd8ae588	-0.06782061
105	0xbdbac706	-0.09119992
106	0xbdd4b4d2	-0.10386051
107	0xbdceccd9	-0.10097665
108	0xbd5f3c69	-0.05450097
109	0xbd4698c7	-0.048485544
110	0xbd47ad34	-0.048749164
111	0xbde1cafc	-0.11025044
112	0xbc24c568	-0.010056831
113	0xbd814fc2	-0.06314041
114	0xb95501ec	-0.00020313979
115	0xbd67bacd	-0.05657463
116	0xbcf327d3	-0.029682076
117	0xbddde316	-0.10834329
118	0xba2fc1db	-0.0006704607
119	0xbd37c90d	-0.04486947
120	0xbd50d0dc	-0.050980434
121	0xbde6d13b	-0.11270376
122	0xbda69315	-0.081335224
123	0xbd94b582	-0.07261182
124	0x3acc1c2d	0.0015572362
125	0xbc8b3c38	-0.016996488
126	0xbdf547e8	-0.11976606
127	0xbd585594	-0.05281599
128	0xbc8d6118	-0.017258212
129	0xbcd13458	-0.025537655
130	0xbd2492e5	-0.040179152
131	0xbd66b9fd	-0.056329716
132	0xbc423f28	-0.011855878
133	0xbdb9e41b	-0.09076711
134	0xbd848c93	-0.06472125
135	0xbdcf39bc	-0.10118434
136	0xbd9f257b	-0.07770821
137	0xbcd68cbd	-0.026190156
138	0xbd1a1a6b	-0.03762285
139	0xbd091792	-0.033469744
140	0xbdf3bcc7	-0.11901241
141	0xbbdf8f2c	-0.0068224873
142	0xbc535652	-0.012898998
143	0xbd94b3d3	-0.07260861
144	0xbdd37fd9	-0.103271194
145	0xbd7fae36	-0.062422
146	0xbde55d49	-0.11199433
147	0xbdced35f	-0.100989096
148	0xbdd35482	-0.10318853
149	0xbc6f8af4	-0.014620531
150	0xbd358edc	-0.044325694
151	0xbdb01f34	-0.085997015
152	0xbddfedc9	-0.10934026
153	0xbc2afdf3	-0.010436523
154	0xbb082a45	-0.0020777148
155	0xbc13f934	-0.009031583
156	0xbb72128d	-0.0036937327
157	0xbdf0f6c7	-0.11765819
158	0xbd770bf4	-0.060314134
159	0xbdd7057c	-0.10499093
160	0xbcd867b1	-0.026416631
161	0xbd5feb5a	-0.054667808
162	0xbdbb7c16	-0.09154527
163	0xbddc4749	-0.10755784
164	0xbd88ade9	-0.06673796
165	0xbcddfcb8	-0.027098045
166	0xbd56d373	-0.052447747
167	0xbb1bef0f	-0.0023793613
168	0xbaed5cdd	-0.001810934
169	0xbd13b660	-0.0360626
170	0xbd047546	-0.032338403
171	0xbd263546	-0.04057815
172	0xbbb399e5	-0.005480992
173	0xbd4be6e0	-0.049780726
174	0xbdcd3e24	-0.10021618
175	0xbd79812c	-0.060914204
176	0xbd546f5f	-0.051864024
177	0xbda3d2d6	-0.07999198
178	0xbdeae25f	-0.11468958
179	0xbb5901c3	-0.0033112622
180	0xbc9fa6a3	-0.019488638
181	0xbdd65af7	-0.10466569
182	0x3ab4e27e	0.001380041
183	0xbb9ade5a	-0.0047262134
184	0x3a5fd839	0.00085389946
185	0xbdeca18a	-0.11554249
186	0xbdee2361	-0.11627842
187	0xbd0bfaf1	-0.034174863
188	0xbd39f51a	-0.045399763
189	0xbd12493b	-0.03571437
190	0xbd6d8101	-0.057984356
191	0xbda983cd	-0.08277092
192	0xbdd798db	-0.10527202
193	0xbdcf6318	-0.101263225
194	0xbd8b2e44	-0.06795934
195	0xbde8bca1	-0.11364103
196	0xbc941efa	-0.018081177
197	0xba50855d	-0.0007954443
198	0xbc62f785	-0.013852959
199	0xbd97778d	-0.073958494
200	0xbda55cc0	-0.08074331
201	0xbd6e4389	-0.058169875
202	0xbd54c253	-0.051943135
203	0xbd9cdc24	-0.07659176
204	0xbd9518da	-0.07280131
205	0xbd9d796e	-0.076891765
206	0xbdefb1b0	-0.11703813
207	0xbda231ba	-0.07919641
208	0xbd422919	-0.047402475
209	0xbb0ab98f	-0.002116773
210	0xbba9a489	-0.005177085
211	0xbd708ab3	-0.058726024
212	0xbd5c1ee3	-0.053740393
213	0xba18cb0e	-0.00058285974
214	0xbd03bfbc	-0.032165274
215	0xbd07287b	-0.03299759
216	0xbc8d0016	-0.017211955
217	0xbd0733cf	-0.033008393
218	0xbcb54e7e	-0.022132155
219	0xbddaf3b7	-0.10691016
220	0xbdd53fd0	-0.10412562
221	0xbdb8c048	-0.0902105
222	0xbd22d229	-0.039751206
223	0xbd720811	-0.059089724
224	0xbdb7cfe6	-0.089752
225	0x3aeb15a2	0.0017935524
226	0xbdd8d880	-0.10588169
227	0xbc802069	-0.015640454
228	0xbc416923	-0.011804852
229	0xbd29721e	-0.041368596
230	0xbdeb049f	-0.11475491
231	0xbd569a9e	-0.05239355
232	0xbd06bd7e	-0.032895558
233	0xbd8cf457	-0.068825416
234	0xbd3abf07	-0.045592334
235	0xbde13a24	-0.109974176
236	0xbbf332a7	-0.0074218097
237	0xbcc4acde	-0.02400821
238	0xbc722efb	-0.014781709
239	0xbd8039d6	-0.06261031
240	0xbda3810c	-0.07983598
241	0xbd488802	-0.048957832
242	0xbce81828	-0.028331831
243	0xbdc06eab	-0.09396108
244	0xbcc2cee0	-0.023780286
245	0xbcf573b4	-0.029962398
246	0xbdf283e0	-0.118415594
247	0xbd8448ee	-0.06459223
248	0xbdc15af6	-0.094411775
249	0xbcffffb1	-0.031249853
250	0xbd90792f	-0.07054364
251	0xbde7f7ae	-0.11326538
252	0xbd220c52	-0.03956253
253	0xbd050b9e	-0.032481782
254	0xbdeb513c	-0.114901036
255	0xbd561e14	-0.05227478

network.2.bias f4 [256]
0	0xbdde9158	-0.10867566
1	0xbd310679	-0.043219063
2	0x3ea30d80	0.31846237
3	0xbd974acc	-0.07387313
4	0xbd86473b	-0.06556555
5	0xbd4e5f71	-0.05038399
6	0xbd98deb1	-0.0746435
7	0xbd91f112	-0.07126059
8	0xbce75158	-0.02823703
9	0xbf470d06	-0.7775425
10	0xbd48e504	-0.04904653
11	0xbd069966	-0.032861136
12	0x40069ba6	2.10325
13	0xbdd70816	-0.10499589
14	0xbdd9c865	-0.10633925
15	0x3e8b9e63	0.27269277
16	0xbd90779d	-0.070540644
17	0xbe8ec649	-0.27885655
18	0xbd43abb6	-0.04777118
19	0xbd1ed29a	-0.038775064
20	0xbdb98f48	-0.09060532
21	0xbd228eee	-0.03968709
22	0xbdef340a	-0.116798475
23	0x3dbb53b8	0.091468275
24	0xbe34763b	-0.17623226
25	0xbdc30042	-0.095215335
26	0x3f3269e3	0.6969282
27	0xbd97de8e	-0.07415496
28	0xbdc7cd28	-0.09755927
29	0xbd8fe7b9	-0.070266195
30	0xbd0ddbd8	-0.034633487
31	0xbd278639	-0.04089949
32	0xbe5c8ea7	-0.21538793
33	0xbd8863b2	-0.0665964
34	0xbdafbcb7	-0.085809164
35	0xbed58b7a	-0.41707975
36	0xbf08a984	-0.5338366
37	0x3e6157a8	0.22006094
38	0xbe109926	-0.14120921
39	0xbe30495c	-0.17215484
40	0xbd736a06	-0.059427284
41	0xbd5b95bb	-0.05360959
42	0xbd01eb2a	-0.03171841
43	0xbdd1aa42	-0.10237552
44	0xbd8b3925	-0.06798009
45	0xbd9378e7	-0.07200795
46	0xbcd418bc	-0.0258907
47	0xbd53e13b	-0.05172847
48	0x3f65ce5f	0.8976802
49	0xbcfe588d	-0.031048084
50	0xbdcf47f3	-0.10121145
51	0xbcf79073	-0.030220246
52	0xbdeefc82	-0.11669256
53	0xbd65c50c	-0.05609612
54	0xbecc802d	-0.3994154
55	0xbc9f0fd8	-0.019416735
56	0xbea31eb8	-0.31859374
57	0x3f0d5eb7	0.5522265
58	0xbd043294	-0.032274798
59	0xbd877b69	-0.066153355
60	0xbe831bf9	-0.2560728
61	0xbe4e21b9	-0.20130052
62	0x3e653cde	0.223865
63	0xbf390e20	-0.7228718
64	0xbdb0d708	-0.08634764
65	0xbd54c41e	-0.051944844
66	0xbd50781e	-0.050895803
67	0xbaa501a3	-0.0012588989
68	0xbdcc85c2	-0.0998645
69	0xbdea153f	-0.114298336
70	0xbd30b1b7	-0.043138232
71	0xbd971cbf	-0.0737853
72	0xbdae25e5	-0.085033216
73	0xbdf3c624	-0.11903027
74	0xbdac9252	-0.08426346
75	0xbdcd8807	-0.10035711
76	0xbca1ebab	-0.019765696
77	0xbd3317a3	-0.043723714
78	0x3f696450	0.9116869
79	0xbd646a11	-0.055765215
80	0xbe134056	-0.14380011
81	0xbd41af52	-0.04728634
82	0xbda4143d	-0.08011673
83	0xbdbd2414	-0.09235397
84	0xbfa4c13a	-1.2871468
85	0xbbf1af79	-0.0073756543
86	0x3fdcbd1a	1.7245209
87	0xbe9d8fec	-0.30773866
88	0xbdedd3a4	-0.11612633
89	0xbdb45a9b	-0.08806344
90	0xbd681303	-0.056658756
91	0x3dcbfaf8	0.09959978
92	0xbb7f64f2	-0.003897008
93	0xbaf05c16	-0.0018337991
94	0xbdaacc07	-0.083396964
95	0xbd3e2401	-0.046421055
96	0xbba15c31	-0.00492432
97	0xbf262cac	-0.64911914
98	0xbb6fb498	-0.0036576148
99	0xbceefdf0	-0.029173821
100	0xbd18ed59	-0.037335727
101	0xbea30f05	-0.31847396
102	0xbdc7dabf	-0.097585194
103	0xbc7ba4a3	-0.015359077
104	0xbcec197e	-0.02882075
105	0xbbb8cd88	-0.0056397356
106	0xbdd147ed	-0.10218797
107	0xbe9cefe7	-0.3065178
108	0xbd64b054	-0.055832222
109	0xbc864003	-0.016387945
110	0x3fa48499	1.2852966
111	0xbd52f06f	-0.051498827
112	0xbf416d34	-0.75557256
113	0x3f01d131	0.50709826
114	0xbee3070b	-0.4434131
115	0xbd9f0331	-0.077642806
116	0xbdcd3315	-0.10019509
117	0xbd80a94d	-0.062822916
118	0xbe49fd4a	-0.19725528
119	0xbdbab444	-0.09116414
120	0xbd459b1c	-0.048243627
121	0xbd5aa8b9	-0.053383563
122	0x3fd167fa	1.6359856
123	0xbdc9a9df	-0.098468535
124	0xbf863542	-1.0485003
125	0xbcbc8a80	-0.02301526
126	0xbc03ea09	-0.008051404
127	0xbe82af22	-0.2552424
128	0xbde7125d	-0.112827994
129	0xb9d5cca0	-0.00040778983
130	0xbe4788d4	-0.1948579
131	0xb919c723	-0.00014665401
132	0xbe7b0644	-0.24514109
133	0x3ce9abe2	0.028524343
134	0xbdc42a35	-0.09578363
135	0xbf91a53b	-1.1378549
136	0x3d626d86	0.05528023
137	0xbe394153	-0.18091325
138	0x3e55e900	0.20889664
139	0xbeca4136	-0.39502877
140	0xbd8d5568	-0.069010556
141	0xbd3132d4	-0.043261364
142	0xbceccc3f	-0.028905986
143	0xbebd7fae	-0.37011474
144	0x3f5dc2f3	0.86625594
145	0xbf11ef99	-0.5700622
146	0xbce1d67a	-0.02756809
147	0xbee06bb8	-0.43832183
148	0xbf612d03	-0.8795931
149	0xbe205dae	-0.15660736
150	0xbdf64bfa	-0.1202621
151	0xbe3a534d	-0.18195839
152	0xbd82a4e2	-0.06379105
153	0xbdd3b9e7	-0.103381924
154	0xbd05319e	-0.03251802
155	0xbdb69f89	-0.08917148
156	0xbeb16122	-0.3464442
157	0x3f129587	0.5725941
158	0xbd236ddb	-0.03989969
159	0xbdff837e	-0.12476252
160	0xbe7c6074	-0.24646169
161	0xbe886e4e	-0.26646656
162	0xbf8ea30e	-1.114351
163	0xbc93135f	-0.017953573
164	0xbd79dc10	-0.061000884
165	0x3d20d386	0.039264224
166	0xbdbfc8dc	-0.09364483
167	0xbd754535	-0.059880454
168	0xbb1472f6	-0.002265153
169	0xbe506e67	-0.20354615
170	0xbdd27806	-0.10276799
171	0xbd92dfdd	-0.07171605
172	0x3bd8e3b8	0.006618943
173	0xbebe392e	-0.37153
174	0xbd8bdc26	-0.06829099
175	0xbd148d1f	-0.036267396
176	0xbd3cbfc4	-0.04608132
177	0xbde4dba5	-0.11174706
178	0xbdc548ce	-0.09633027
179	0xbdd57806	-0.10423283
180	0xbdab8f95	-0.083769955
181	0xbe866bbd	-0.26254073
182	0xbe81c700	-0.25347137
183	0xbe3ba316	-0.18323931
184	0x3c36008d	0.01110853
185	0x3f341a57	0.7035269
186	0x3dc89dc9	0.0979572
187	0xbc7bd6c1	-0.015371026
188	0xbc8eb16a	-0.017418582
189	0xbdd39e2f	-0.103329055
190	0xbccb8344	-0.024842866
191	0x3f3055d7	0.6888098
192	0xbd72da78	-0.05929038
193	0x3e56a0ff	0.20959853
194	0xbd850609	-0.06495292
195	0xbdb4fade	-0.088369116
196	0xbd0c12fd	-0.034197796
197	0xbdaf68d4	-0.08564916
198	0x401f9a11	2.4937785
199	0x3a6b5bdc	0.00089782267
200	0x3e9b22d5	0.30300012
201	0x39c2a10f	0.00037122561
202	0xbda3e602	-0.08002855
203	0x3d4bfd0e	0.04980188
204	0xbd759d51	-0.05996448
205	0xbd955325	-0.07291249
206	0xbd37033a	-0.04468081
207	0xbd937c05	-0.07201389
208	0xbb8c234c	-0.0042766687
209	0xbdc9eb4c	-0.098593324
210	0xbe3328fa	-0.174961
211	0xbd9a0396	-0.07520215
212	0xbd1a3bc0	-0.03765464
213	0x3f7802bf	0.9687919
214	0xbef59654	-0.47966254
215	0xbde6bdbc	-0.11266658
216	0xbcbe74cb	-0.02324905
217	0xbd84b626	-0.064800546
218	0x3eed75f6	0.4637906
219	0xbdc9dbd7	-0.09856384
220	0xbb985052	-0.004648247
221	0xbe7d6cd6	-0.24748549
222	0xbd8a81d7	-0.06763046
223	0x3e919d63	0.2844039
224	0xbdf90423	-0.12158992
225	0x3f1f7170	0.62282467
226	0x3ee56128	0.44800687
227	0xbe328ae5	-0.17435797
228	0xbd8c8141	-0.06860591
229	0xbc4e8e65	-0.012607192
230	0xbcff8c23	-0.031194752
231	0xbcc7d5ef	-0.024394004
232	0xbdabcf86	-0.08389191
233	0xbdb0bc22	-0.086296335
234	0xbce8b1e0	-0.02840513
235	0xbc128d53	-0.008944827
236	0xbe81e168	-0.25367284
237	0xbdb367d8	-0.08760041
238	0xbd745b33	-0.059657287
239	0xbd4dd675	-0.05025335
240	0xbfa8c9ec	-1.3186622
241	0x3c024dd0	0.007953122
242	0xbd6bf5c4	-0.057607427
243	0xbad1fce3	-0.0016020801
244	0xbbdab02a	-0.0066738324
245	0xbf151b9b	-0.5824525
246	0x3c1175cb	0.008878182
247	0xbdca8d72	-0.0989026
248	0xbea88f7f	-0.3292198
249	0xbe9de18e	-0.30836147
250	0xbf12d3ef	-0.57354635
251	0x3ec8f1a1	0.39246848
252	0xbdd108d6	-0.102067634
253	0x3efce3d3	0.49392566
254	0x3f651dc2	0.8949853
255	0xbd15ae7a	-0.036543347

network.4.weight f4 [1, 256]
0	0x3d610b8a	0.054942645
1	0x3ce01277	0.027352555
2	0xbe319cf0	-0.17345023
3	0x3d6b4445	0.057438154
4	0x3c9427d2	0.018085394
5	0x3cd66a0f	0.02617362
6	0x3bd4a9aa	0.006489952
7	0xbcdff910	-0.027340442
8	0x3cccc207	0.024994863
9	0xbd14d70d	-0.0363379
10	0x3d60dbae	0.054897003
11	0x3d3b612e	0.045746975
12	0x3d49cec4	0.049269453
13	0x3d375f49	0.044768605
14	0x3cafb619	0.021449136
15	0xbe86bfe8	-0.26318288
16	0x3d57f0b1	0.052719776
17	0x3dea6c49	0.11446435
18	0xbe9f33fa	-0.31094342
19	0x3d65b89b	0.056084257
20	0x3d48cfd6	0.049026333
21	0x3b73cbe0	0.0037200376
22	0x3d44a988	0.04801324
23	0x3ceabda1	0.028654875
24	0xbcb7e32e	-0.022447195
25	0xbd0cfcc6	-0.03442075
26	0x3e2521cd	0.16126175
27	0x3be6790a	0.007033472
28	0xbddeb246	-0.10873847
29	0x3c6fd2fb	0.014637704
30	0x3cac6ef3	0.021048998
31	0x3cdc40f6	0.026886445
32	0x3d20d7f9	0.039268468
33	0xbd0ef506	-0.03490164
34	0xbd1c22d8	-0.038119167
35	0xbe9d999e	-0.30781263
36	0x3e241860	0.16024923
37	0x3ef3546e	0.47525352
38	0x3d5b233b	0.053500395
39	0x3e7643d5	0.24049313
40	0x3d123011	0.03569037
41	0x3d16883d	0.03675102
42	0x3d037fae	0.032104187
43	0x3c651bc9	0.013983675
44	0x3d3211a5	0.04347386
45	0x3d1e175f	0.038596507
46	0x3b49af3d	0.0030774616
47	0x3c47e691	0.012200967
48	0xbe621860	-0.22079611
49	0x3d47b360	0.04875505
50	0xbd3d357c	-0.046193585
51	0xb9a05ff7	-0.00030589078
52	0x3d685252	0.05671913
53	0x3c30f7c9	0.010801264
54	0xbcc43a55	-0.023953596
55	0x3b91c8f9	0.0044490066
56	0x3e5eae50	0.21746182
57	0x3e3f1743	0.18661217
58	0x39e9ec89	0.00044617456
59	0x3d163fb5	0.03668185
60	0x3c8c428b	0.017121574
61	0xbcf32e7d	-0.029685253
62	0x3e902a62	0.28157336
63	0xbe713df4	-0.2355879
64	0x3ddd7ce9	0.1081484
65	0xbd1a1c00	-0.03762436
66	0x3c2d1989	0.01056517
67	0x3b0fc56b	0.0021937739
68	0x3bf9c135	0.007621909
69	0x3c44225e	0.011971084
70	0x3cdfa257	0.02729909
71	0xbd1b0368	-0.037845045
72	0x3d6a94fc	0.05727099
73	0x3938ecfc	0.00017635891
74	0xbc2cd450	-0.010548666
75	0x3b73d492	0.003720556
76	0x3d055d80	0.03255987
77	0x3d4518ca	0.048119344
78	0xbe8ae572	-0.27128178
79	0x3e372fe6	0.17889366
80	0xbd080525	-0.03320803
81	0x3d0df338	0.03465578
82	0x3cda0a35	0.026616195
83	0x3d997e44	0.074947864
84	0x3d7f7128	0.062363774
85	0xbb494049	-0.0030708483
86	0xbe7abfdc	-0.24487251
87	0xbe5991a2	-0.21246961
88	0x3cef3450	0.02919975
89	0xbbe0d421	-0.0068612252
90	0x3c9ff8ec	0.019527875
91	0x3e439cd3	0.19102792
92	0x3d03117e	0.031999104
93	0x3cd7baac	0.02633413
94	0x3d15f171	0.03660721
95	0xba8d308d	-0.0010771916
96	0x3d411ed1	0.04714853
97	0xbdf6e6c7	-0.12055736
98	0x3d3c3c81	0.04595614
99	0x3c558cbb	0.013034041
100	0x3d745e9c	0.05966054
101	0xbdba1324	-0.09085682
102	0x3d2a3f25	0.041564126
103	0x3d6bf25e	0.057604186
104	0xbf085288	-0.5325093
105	0x3c966da8	0.018362835
106	0x3c7d2335	0.015450289
107	0xbe5884b9	-0.2114438
108	0x3d2327d5	0.03983291
109	0x3b867a22	0.004103915
110	0x3ea3263d	0.3186511
111	0x3950300d	0.00019854326
112	0xbe407a8a	-0.18796745
113	0x3f47d274	0.780555
114	0xbe280663	-0.16408686
115	0x3cc08198	0.023499295
116	0x3c69c4db	0.014268125
117	0x3ced612c	0.028977
118	0x3e12f2b8	0.14350402
119	0x3cd3ac93	0.025839126
120	0x3c790b6c	0.015200477
121	0x3d46c057	0.048523273
122	0xbe0142e1	-0.12623169
123	0xbd9166b9	-0.07099671
124	0xbe1a9e43	-0.15099435
125	0x3ca252c7	0.019814862
126	0xbf8f1ee2	-1.11813
127	0x3d40a7d2	0.047035046
128	0xbda4fef5	-0.08056442
129	0x3b80db28	0.0039323755
130	0x3e77e0ff	0.24206923
131	0x3cc184cd	0.023622895
132	0xbe289276	-0.1646212
133	0xbd186b3c	-0.03721164
134	0x3d5b89aa	0.053598084
135	0x3e86b65f	0.26311013
136	0x3ef11c6e	0.47092003
137	0x3e23a4ee	0.15980884
138	0x3d15763d	0.036489714
139	0x3e19f7ea	0.15035978
140	0x3cc846ca	0.024447817
141	0x3c3e2fe0	0.011608094
142	0x3d3aaddd	0.045575965
143	0x3d22c2c3	0.03973652
144	0xbe455e3f	-0.19274233
145	0xbd71b1b7	-0.059007373
146	0x3c89e537	0.016832931
147	0x3e0b02c1	0.1357527
148	0x3d9896ad	0.07450614
149	0xbe74cc4a	-0.23906055
150	0x3d160486	0.036625408
151	0x3e2423b4	0.16029245
152	0x3d699901	0.05703068
153	0x3d1e2972	0.038613744
154	0x3d198895	0.03748377
155	0x3d72b3ad	0.059253383
156	0xbcd3bcbb	-0.02584683
157	0x3e87c524	0.26517594
158	0x3c376e81	0.01119578
159	0xbe110606	-0.14162454
160	0xbd8266fd	-0.063673
161	0xbe22ad01	-0.15886308
162	0xbe5f76e7	-0.21822701
163	0x3ca93168	0.020653442
164	0x3cd4269a	0.025897313
165	0x3c220d98	0.009890936
166	0x3dd945a9	0.1060899
167	0xbc431a66	-0.011908149
168	0x3d12fc57	0.03588518
169	0xbcb118d8	-0.021618292
170	0x3c1f5226	0.009724176
171	0xbb246a75	-0.0025087867
172	0x3d19d151	0.037553135
173	0x3e6b839e	0.22999427
174	0x3d71f391	0.059070174
175	0x3c9e3e8e	0.019316938
176	0x3c562b0c	0.013071787
177	0x3c759600	0.014989376
178	0x3cdfaaec	0.027303182
179	0x3c98c863	0.01865024
180	0x3d4b6d81	0.049664978
181	0xbdb6b14a	-0.08920534
182	0x3ed8006f	0.4218783
183	0xbcf094ce	-0.02936783
184	0xbe84feab	-0.25975546
185	0xbe6b62b1	-0.22986867
186	0x3d4e9a18	0.050439924
187	0x3d67f159	0.05662665
188	0x3c516614	0.012780685
189	0x3cdb4398	0.02676563
190	0x3d0e5c14	0.03475578
191	0x3e6dbf9f	0.23217629
192	0x3d57d771	0.052695695
193	0xbfbd4d09	-1.4789134
194	0x3a64c225	0.00087264396
195	0x3cc4fc0f	0.024045972
196	0x3c2bec45	0.010493343
197	0xbc1e5d3b	-0.009665783
198	0x3e5bee1d	0.21477552
199	0x3ce11464	0.027475543
200	0x3fc37617	1.5270413
201	0x3b5e0fc0	0.00338839
202	0x3cf9fe8a	0.030516881
203	0xbdce2225	-0.10065106
204	0x3d62643c	0.055271372
205	0x3ca903e3	0.020631736
206	0x3c6d6d09	0.014491328
207	0x3ce63b50	0.028104454
208	0x3d6b6912	0.05747325
209	0xba7d0fd4	-0.00096535427
210	0xbe0537ac	-0.13009518
211	0x3d3f55ee	0.04671281
212	0xb958d900	-0.00020680204
213	0x3e3b4025	0.18286188
214	0xbfea4b1a	-1.8304169
215	0xbdb7e034	-0.0897831
216	0xbb579d15	-0.0032900025
217	0x3c96e958	0.018421814
218	0x3e2b701f	0.1674199
219	0x3b13ee43	0.0022572435
220	0x3c9f1431	0.019418808
221	0xbd1bacc5	-0.038006563
222	0x3cfdddf1	0.030989619
223	0x3dd82617	0.1055414
224	0x3d126915	0.035744745
225	0xbe581ea5	-0.2110544
226	0xbe398968	-0.18118823
227	0x3cfb7120	0.03069359
228	0x3cae0ce6	0.021246385
229	0x3d1bd310	0.03804308
230	0x3c06a1ac	0.0082172565
231	0x3cf61985	0.030041466
232	0x3e9ebcc5	0.31003395
233	0xbcb80ce1	-0.022467079
234	0x3d680da7	0.056653645
235	0x3d1d52f0	0.038409173
236	0x3d7703c8	0.06030634
237	0xbaaf00a5	-0.0013351633
238	0x3c3b6cdf	0.011439531
239	0x3b2d2b9b	0.0026423696
240	0xbe4c50aa	-0.19952646
241	0x3b46d00e	0.0030336413
242	0x3ce52049	0.027969496
243	0x3bba0a94	0.0056775305
244	0x3c866a73	0.01640818
245	0x3ec35786	0.38152713
246	0xbd075154	-0.033036545
247	0x3b6005d2	0.0034183157
248	0x3e26585f	0.16244648
249	0xbe84ee81	-0.25963214
250	0xbed35e1b	-0.41282734
251	0x3e6598d9	0.22421588
252	0x3d3d0883	0.046150696
253	0xbe5ffc4d	-0.21873589
254	0x3d9396bf	0.07206487
255	0x3d06ca1b	0.032907587
