Training/Model/model_actor_robot_subset_joint3_102.pt (torch, 283191 bytes, 6 tensors)

network.0.weight f4 [256, 10]
00000000: d914 753d d975 213f 802f 3cbf 25d2 ea3d
00000010: d4f0 bd3d 0126 fbbd 36c1 a73e b81d 17bc
00000020: 2494 dfbd ecfd 813e 49cc 8440 72ca f940
00000030: fdfc 1fc1 c642 743f c9a0 a5bf 78d5 653e
00000040: fb05 c23e b7ab efbf 6789 18bf 5edb 8ac0
00000050: a239 c83d bdda 6ebe 2652 323f aea9 f3bd
00000060: ce9d 543e a700 74be 122c 5cbe cace 8fbd
00000070: 33fa 58be 676d e8be 53e9 2bbe e23a 21bd
00000080: 2ce9 ff3d 2f0f 0b3e 8bf8 833c 053b bc3e
00000090: 7c0b a2be 8cc5 e53d 580b 6bbe 2753 103e
000000a0: e28a 35bd 10d5 9a3c 0c22 bfbe 0309 643e
000000b0: daee 0dbe 0f2b 233c e1f6 3cbe b806 d43d
000000c0: 71cb 08be 890e 763e 9fa9 a93e 5bc7 e1be
000000d0: 2d18 6b3f c189 023e 27d4 413e f802 15bd
000000e0: 468e 803e 09ba 4f3e 9b3f a5bc 1660 3cbe
000000f0: 50e6 343e 38d6 123d 3545 7bbd 5644 003e
00000100: 9438 56bc 62dd 56be a692 973e 7434 343e
00000110: 6ae2 5bbe 9310 adbe 483f 933c fef7 bbbe
00000120: 61ed cb3e 0d0b b5bd 2782 62be f85d 013e
00000130: b49e a9be a795 37be 274d 9fbe bff2 373e
00000140: 1c2c 6bbe 42a9 1b3e 01e8 e53c 0afa ecbe
00000150: 9fac 6abe 6dea 563d b82c 39be ec82 0fbf
00000160: 72de 4ebe ebc6 aebd 14ac 20be 61cf a2be
00000170: d401 b9bc 9a3c 39bd 2f34 bd3d 708f edba
00000180: 2d36 1b3e 9450 d73d 88b4 8fbe 90af d0be
00000190: c218 f4bd 3fca 9e3e 907e 7bbd c98c 18be
000001a0: aad3 2ebe 00f8 f6b9 fc88 e7bd 24e8 e63d
000001b0: 80d8 203c 366e 2dbe 19ca a03e 6e88 2e3f
000001c0: bdcd 0bbe ce2b 91be d266 abbc 4e2f 02be
000001d0: 9e41 97be 1bcc 2f3c ced1 6f3d 6b6e 833e
000001e0: 8cc3 233f 1d86 0cbc dc88 81be 7d97 fc3e
000001f0: d127 c8be 4a42 3a40 35d9 7f3e 2c36 b4bf
00000200: 281f 2abf 7f17 233e 904a 1dbd a170 34be
00000210: f18d 2d3e b8a1 ea3e 7e86 363e a9ee 143c
00000220: 6a4e c23e b406 023d 853a e7be f6d1 353f
00000230: 4a44 67be ac20 8e40 25ad a5c0 a1e7 0740
00000240: d1e6 d63f 6df3 e53f 1e89 7740 9990 0340
00000250: 123c 02ba 69b4 783f 62c2 193d dea9 e73d
00000260: 6bdc 8dbe 84bc 64bc 476c 92bd 325e 553c
00000270: 62f6 bd3e d024 bc3d f6e9 543d 1978 e0bc
00000280: ed9e 80be c14c c1be bffc 85be 9fca a8be
00000290: c8f4 083e 7235 13be fab6 513f d042 f93c
000002a0: ecfa e5be 4cd3 e13e aeea 25be 6cce 3bbe
000002b0: 30d5 203d f52b 363e e64e 4cbd 3de5 e53b
000002c0: ef23 a13e f376 08be 3a04 1d3d d8db c43e
000002d0: 1e90 5cbc 4189 813e ff51 83be 2c30 873d
000002e0: 3187 6f3e 9381 9dbe 79ba b53e 6951 a83d
000002f0: c5a2 c7bd 26a3 623e d66f f73d dfb5 fcbe
00000300: f5d2 8c3f 235e aa3d 89ef 293e 634f a23e
00000310: fad8 b93d 094f 1d3e 4ce6 91be cc0d f8be
00000320: 0fbe d73d c7be 91be ff68 7d3e 2ce9 153c
00000330: 4c5c 823e bf58 fabd e1d0 b23d ce10 9c3d
00000340: b896 16bf c6d6 4c3e 64d3 453f aa8a 9dbf
00000350: f91a c63f 37a5 453e 23a1 e83e 732b eebd
00000360: b43e 9dbe 778e 74bd 6aa3 2dbf c3a5 1fbf
00000370: bbc9 04be d4ca 0e3e 3582 653e d95b df3d
00000380: f0ac 93bd b755 9fbe 584c d63d 74c9 d33e
00000390: 15b3 2fbe 1964 d1be 71bf e5bd 3a9d b1bd
000003a0: 5133 d5be 6976 423e 2479 1e3d 0f75 29bd
000003b0: ab7e 0cbe acbd a13e d402 f8bd bb39 a5bd
000003c0: 0dda 10be 3afd 073e e5bf 063e fb33 33bd
000003d0: 15e6 9cbc dda2 c93c c527 0abe 1ab2 0bbd
000003e0: 6ac2 4e3d d6ec 603e 0df5 893e 15ba 043f
000003f0: 0c13 a33e 966d 7e3e 44a1 51bf b345 2dbd
0.059834335 0.63070446 -0.7350998 0.11465863 0.0927445 -0.12263108 0.32764596 -0.009223394
-0.109169275 0.2538904 4.149937 7.8059626 -9.999265 0.9541439 -1.2939693 0.22444713
0.37895188 -1.8724278 -0.5958466 -4.339278 0.097766176 -0.2332563 0.696566 -0.11897598
0.20763323 -0.23828374 -0.21501186 -0.07021864 -0.21189193 -0.45395967 -0.16788225 -0.039362796
0.12495646 0.13580011 0.016109725 0.36763778 -0.31649387 0.1121932 -0.22953546 0.1409422
-0.044321902 0.018900424 -0.37330663 0.22269063 -0.13860646 0.009958996 -0.18453552 0.10352844
-0.13358857 0.24028982 0.33137223 -0.4409741 0.91833764 0.12747861 0.18928586 -0.036379784
0.25108546 0.2028581 -0.020171931 -0.18396029 0.17665982 0.035848826 -0.061345298 0.12526068
-0.013075013 -0.20982888 0.2960407 0.17598134 -0.21473089 -0.33801708 0.01797451 -0.3671264
0.39829543 -0.088399984 -0.22119962 0.12633502 -0.33128893 -0.17928182 -0.3111355 0.17963694
-0.22966045 0.15201285 0.02806473 -0.46284515 -0.22917412 0.05246966 -0.18083465 -0.56059146
-0.20202044 -0.08534034 -0.15690643 -0.31798843 -0.02258388 -0.04522381 0.09238469 -0.0018124413
0.15157385 0.10513416 -0.28067422 -0.40758944 -0.11918785 0.31013677 -0.061399996 -0.14897455
-0.17072931 -0.0004710555 -0.113054246 0.11274746 0.009817243 -0.16936573 0.31404188 0.68176925
-0.13652702 -0.28353733 -0.020923052 -0.12713358 -0.2954225 0.010729815 0.058549695 0.2567018
0.63970256 -0.008576897 -0.25299728 0.49334326 -0.39092878 2.910296 0.24985202 -1.4079032
-0.6645379 0.15926932 -0.038401186 -0.1762109 0.16948678 0.45826507 0.17824742 0.009090104
0.3795045 0.031744674 -0.45161834 0.710235 -0.22584644 4.4414883 -5.177386 2.1235125
1.678919 1.7964913 3.867744 2.0557005 -0.00049680576 0.97150284 0.037538894 0.113116965
-0.27707228 -0.013960961 -0.071495585 0.013022946 0.37102038 0.09186709 0.051980935 -0.027401017
-0.2512125 -0.3775387 -0.26169392 -0.32967088 0.13374627 -0.14375857 0.81919825 0.030427366
-0.44918 0.4410652 -0.16202804 -0.18340462 0.03926581 0.17790206 -0.04987993 0.0070158527
0.31472728 -0.13326626 0.03833411 0.38448977 -0.013462095 0.2530003 -0.25648496 0.06600985
0.23391415 -0.3076292 0.3549383 0.08218653 -0.09747843 0.22132549 0.12081878 -0.49357507
1.1001879 0.083187364 0.16595282 0.31701192 0.09074588 0.15362181 -0.28496015 -0.48448026
0.10534298 -0.28465864 0.24747084 0.009149831 0.25461042 -0.12223958 0.08731247 0.07620393
-0.5882373 0.20003805 0.7727568 -1.2307942 1.5476981 0.19301306 0.45435438 -0.11629381
-0.307119 -0.059706178 -0.67827475 -0.6236231 -0.12967579 0.1394456 0.22412951 0.109061904
-0.072107196 -0.31120083 0.1046378 0.41364634 -0.17158158 -0.4089668 -0.11218155 -0.08672567
-0.41640714 0.18990482 0.038689747 -0.0413714 -0.13720195 0.3159002 -0.121099144 -0.08067652
-0.1414568 0.13280192 0.1315914 -0.043750744 -0.01915268 0.024613792 -0.13491733 -0.034105398
0.050478376 0.21965346 0.2694477 0.5184644 0.3185047 0.24846491 -0.81886697 -0.0423028

network.0.bias f4 [256]
00000000: 36b7 0cbe 321e 99be e3ce 77be a8ac c5be
00000010: 8943 14be c1fd 97be b1fe 14be 4ef8 2abe
00000020: 743f 0cbf 994b 01bf f152 85be 9f1c aabe
00000030: 29e5 45bf 1088 edbe 844c dc3d 5e59 2bbe
00000040: 3d03 52be 194a 74be ae7e a9be 4327 acbe
00000050: b85e 0dbe e633 90be c410 f6be 7de5 30be
00000060: b087 37be 2867 c7be 1b83 20bf cb80 d4bd
00000070: 964a 3abe 4489 99bd 9f99 31be cdc5 68be
00000080: f75c 0dbf f475 73be 4131 aabd 67f1 9abe
00000090: 7450 8ebe dbc7 24bf 5b1b 3a3e 12df 92b9
000000a0: 524d 81be e017 6fbe 9167 c2bc 3196 c9bd
000000b0: 0b00 dbbd 3fd2 9dbe cd5d f9be 26cd 9bbd
000000c0: b321 26be e5ce 00be 78e4 cabd 4738 4fbe
000000d0: b270 1fbe 8b04 21bc f34b 3fbe 809b c5be
000000e0: 2f60 ebbd 5d55 64be 3acd e9be f95d 2fbe
000000f0: d69c 51be 70b5 d8be 11fa aabe 1961 5abf
00000100: 9792 07bf 52eb 09be 6016 75be 9e96 72be
00000110: f241 60bf 8ae7 89be 18f0 e9be 6e69 c8bc
00000120: 6eeb abbe 102c a4be 26b9 88be 211b 23bf
00000130: 60e7 93bd 8c96 42bf 34df 8cbe cb21 65be
00000140: 226c 7abe 31b5 81bc 300f d0be 391a 71be
00000150: 9a1b acbb 28b2 7fbf 25ac 94be 9287 97be
00000160: 8a96 a3bd fee8 f7be 95cc 9ebe 3f40 2ebe
00000170: 6eac 12bd 25f6 8cbe a141 1bbf 1257 86be
00000180: 6f5b 2dbf ee4b d8be 404c 6ebf 09b1 cabe
00000190: a5f8 ffba 2829 abbe dce3 dabe 5e95 943c
000001a0: c1d5 a0bf d20d f7be 1450 6cbf 8400 a2bd
000001b0: d601 45be 703f 58be 889b 28bf 6394 d2be
000001c0: 306a d2be 407b bcbe 248e cfbe 1724 a1be
000001d0: 013d 74be a6f9 f2bd 1f22 d0be 9f11 64bd
000001e0: e7cd dabd bdc5 dbbe ab41 0fbe c192 60be
000001f0: e736 c0bd bc92 c4be 40b7 ddbd b4f8 d73a
00000200: a034 18be 45ee 41be 9bfe 9dbe 1e40 ce3e
00000210: 51cd 45be f838 0cbe 6ee3 85ba 3866 46bf
00000220: 6296 fdbe 72d2 c5be 4c2f 4fbe c136 ecbe
00000230: 0855 5bbe 4d7b 90be 9400 b5be 0a13 e8bd
00000240: 0dee 2ebe 7a93 9bbe 4d31 57bf 8b92 9ebe
00000250: b927 e1be 102e e9be 16df dabd 5952 7ebe
00000260: c26d 82be ef91 2abe 0e0a 91bd 65bb edbe
00000270: 3f8c a4be 02e4 d4bd 5c38 d4be 9922 01bf
00000280: 75df 9ebe ec24 bcbe e3d6 0cbf 55af b9be
00000290: 43cb 0fbf 2270 febe cc61 e3be 4638 6ebd
000002a0: 3755 f9be 1575 67be f798 06bf 71ed f03d
000002b0: 41d4 5abf 9a47 a7be eb42 9fbe 1745 06be
000002c0: 32c4 04bf 3fb5 7abe 0de2 89be 96d5 86be
000002d0: 3814 fdbd e238 abbf 4cde 9dbe 4065 aebe
000002e0: 8cb8 06be 63cd 363e a34a 64be 8586 f5be
000002f0: fb83 11bf 81cd bc3c 0adb a7be a094 debe
00000300: bc96 69bd 25a2 0f3d 6ac7 0cbf 6dc2 77be
00000310: 9cd4 d3bd 4618 e2be 5812 8dbe 81c6 a1be
00000320: f970 54be a10c 89bf e440 1bbe 60a7 e4be
00000330: 0097 cdbe f6ee 6abe 05b3 21be 6202 01bf
00000340: 14be b6be 7366 f4bc 7cac 89be ae6e a4be
00000350: 53d1 d7bd 7916 a2be 6f8c c6be fbb5 adbe
00000360: 138b 86be 1b1e 72be 9b5c 7abe 4e5e 403b
00000370: 2faf 86be 7c11 153c 54a3 f7be 7467 23be
00000380: d0f1 c1be 2588 94bf 8936 29bd 2124 ebbe
00000390: 9b35 d43e 7176 09bf 4659 5dbe 3fb3 eabe
000003a0: 13cd 30bf 712a ccbe 6888 d5bd 31e5 07bf
000003b0: 5bb0 20be bfb6 0cbe e2b8 8abe 5b3a e7bd
000003c0: 5e5c b1be 2100 01bf 8911 9dbe ff08 ccbe
000003d0: d57f f7bd cdb2 65be d570 b3be 69a5 aebd
000003e0: 64b4 6ebf a721 eabe 8e23 dbbd bf4d 7dbe
000003f0: 94f0 9bbe 334c cfbe 3e5d 90be 56a1 b4be
-0.13741764 -0.2990585 -0.24200015 -0.3860829 -0.14478888 -0.29685786 -0.14550282 -0.16696283
-0.5478432 -0.5050598 -0.26039842 -0.3322496 -0.77302796 -0.4639287 0.10756782 -0.1673331
-0.20509048 -0.23856391 -0.3310446 -0.33623704 -0.13805664 -0.28164595 -0.48059666 -0.17275043
-0.17922854 -0.3894589 -0.6270005 -0.10376128 -0.18192515 -0.074968845 -0.17343758 -0.22731705
-0.5521998 -0.23775464 -0.08310176 -0.302623 -0.27795756 -0.64367455 0.18174498 -0.0002801349
-0.25254303 -0.23348951 -0.023731025 -0.098431 -0.106933676 -0.30824468 -0.48704377 -0.07607488
-0.16223793 -0.12578924 -0.09906858 -0.20236312 -0.15570334 -0.009827743 -0.18681316 -0.385952
-0.11492955 -0.22298189 -0.45664388 -0.17125691 -0.20469984 -0.42325926 -0.3339391 -0.8530441
-0.52958053 -0.13468674 -0.23934317 -0.23690268 -0.87600625 -0.26934463 -0.4569099 -0.024464335
-0.33578056 -0.32064867 -0.26703757 -0.6371327 -0.07221866 -0.76010966 -0.2751404 -0.22376172
-0.24455312 -0.01583347 -0.40636587 -0.2354516 -0.005252314 -0.9988122 -0.29037586 -0.2959562
-0.079876974 -0.48419946 -0.3101546 -0.17016695 -0.035808973 -0.27531543 -0.60647017 -0.26238304
-0.6771764 -0.4224543 -0.930851 -0.39588192 -0.0019529058 -0.33429837 -0.42751968 0.01813763
-1.2565233 -0.48252732 -0.9230969 -0.079102546 -0.19238982 -0.2111795 -0.6586232 -0.41128835
-0.4109664 -0.36812782 -0.40538132 -0.31472847 -0.23851396 -0.11864023 -0.40651032 -0.055680867
-0.10683804 -0.429243 -0.13989894 -0.21930982 -0.09385472 -0.383932 -0.10825968 0.0016477318
-0.14863825 -0.18938549 -0.3085831 0.40283293 -0.19316603 -0.13693607 -0.0010214874 -0.77499723
-0.49528795 -0.3863712 -0.20232886 -0.46135524 -0.21419156 -0.2821907 -0.35352004 -0.113317564
-0.17082997 -0.30385953 -0.840596 -0.30971178 -0.43975618 -0.45542955 -0.106870815 -0.248361
-0.25474364 -0.16657232 -0.07081996 -0.46432033 -0.3213825 -0.103950515 -0.4144925 -0.50443417
-0.3102986 -0.3674692 -0.5501539 -0.3626658 -0.5616953 -0.49694926 -0.4441055 -0.058159135
-0.48697826 -0.22603257 -0.52577156 0.11764038 -0.85480124 -0.32671815 -0.31105742 -0.13112293
-0.5186187 -0.24483202 -0.26930276 -0.26334828 -0.12357372 -1.3376734 -0.30833662 -0.34061623
-0.13156337 0.17851786 -0.22294097 -0.47954193 -0.5684201 0.02304721 -0.327843 -0.43472767
-0.057028517 0.035066742 -0.5499178 -0.24195261 -0.103432864 -0.44159144 -0.27553058 -0.3159676
-0.2074622 -1.0706979 -0.15161473 -0.44658947 -0.40154266 -0.22942719 -0.15790947 -0.5039426
-0.35691893 -0.029834008 -0.26889408 -0.32115692 -0.10537972 -0.3165777 -0.38779017 -0.33927903
-0.2627798 -0.23644297 -0.24449389 0.0029353085 -0.2630553 0.009098407 -0.48366797 -0.15957433
-0.378798 -1.1604048 -0.041311774 -0.45926002 0.41447148 -0.5369635 -0.21616086 -0.4583988
-0.6906292 -0.3987613 -0.10426408 -0.53084093 -0.15692274 -0.13741587 -0.2709418 -0.11290427
-0.34640783 -0.5039082 -0.3067744 -0.39850613 -0.12084929 -0.22431488 -0.35047022 -0.08527643
-0.93244004 -0.457288 -0.10700141 -0.24736689 -0.30456984 -0.40487823 -0.28196138 -0.3527934

network.2.weight f4 [256, 256]
00000000: 0315 d03c 4d45 2b3f f9aa fbbc ccc4 65bd
00000010: 58cb b73c cbe4 0f3a fbf3 3f3c b615 00bd
00000020: f8f5 8e3c 3812 243c 4af1 2bbd 77a8 59bd
00000030: 04b5 bcbf 6323 8abe f376 133e 0dee 5fbc
00000040: a268 31bc 5b1d 8ebd c8c6 85bc 604a 1ebd
00000050: 26d9 a13d 034e a3bd 06c4 6a3d 6b95 1cbd
00000060: cdcd 94bc 02b2 62bd 6922 90bd ab02 83be
00000070: 94d2 99bc a796 c8bb 445f 913b 5051 5ebd
00000080: 4695 8dbf 26d1 153d b4d2 95bd a38e 2dbc
00000090: 18e5 6dbd edf4 99bd 7acf 9dbf 244d babd
000000a0: 5066 24bc cbe6 8abd 68eb 453b 42bc 63bd
000000b0: 287d 6cbd dce3 133c dd11 c9be af18 783b
000000c0: 3b67 b43b 465f d0bc a7ce 24bd 5ac9 59bd
000000d0: 00e8 f939 018a a8bc 34a8 da3c 30d3 cc3b
000000e0: acec c83d 9cbe aebd ea69 153d b4a1 febc
000000f0: abd5 a2bd 1703 2dbc 209f 123b b428 8fbc
00000100: 4058 9aba a0ac 143c ca81 2dbd c4fe 013d
00000110: 46e5 d0be 5691 3d3c 7bcb 68bd 2fa0 8fbf
00000120: f174 c8bd d69b debe ac21 39bd dcf6 21bd
00000130: 04b8 d8bc 390f 50bf 3751 68be fb9d 6abc
00000140: 823e 403d 6f01 d23c 8030 b43d c7e5 d2bc
00000150: b679 6bbd d2ea bdbf d0f4 ddbb f454 cb3e
00000160: 4ac2 75bd c0a1 86bd eab5 03bd a71f 4abd
00000170: eb32 7cbc 00d4 c6bc f573 0a3d fa33 723d
00000180: 1236 2dc0 98bf b83e 1f2a 7bbd 0029 18ba
00000190: 6443 74b9 e2cc 72be 1804 a83c 347c 8a3c
000001a0: 925f 5fc0 f409 b0bd 3bdc 6abf 0d16 5abd
000001b0: f659 5abc 380b 32bd 4c19 ecbe 606c 703d
000001c0: 596b bebe 8294 13bd 945f 9bbc 6476 643d
000001d0: acb3 d93a 75e5 903c b2ea 5c3e 6c23 a23c
000001e0: be13 1e3d 6ce6 e5bc fbe4 ecbc d6c6 513d
000001f0: 5cee 9dbd 8721 853c c652 a9bc a023 65bb
00000200: c8af 14bd 8025 75bd ee25 afbc 8a40 91bf
00000210: c491 26bc c4ff 84bd 0b6d 7c3b a399 da3d
00000220: cc5d 0c3d 0c39 b73e 308c 36bd 8027 6dba
00000230: a416 ba3c 283b 043d 08e4 83bd b511 e83c
00000240: e6f8 7a3d 8025 8b3b 2c9b a3bf 40eb 6fbc
00000250: f283 68bd 9e2e 7b3d 6c94 43bc e9e1 393d
00000260: 24e7 a2bc a851 acbb 0742 f23b d199 51c0
00000270: 2a1d d1b9 1ac7 8f3b 6c47 82bd 783f 7fbc
00000280: e045 cdbc 9804 2abc e1a5 4cbe 2fe2 db3c
00000290: a0bb 463c 0706 27bd ce3e 77bd 3b82 e23c
000002a0: 05c5 46bf d9b8 69bf 1456 80bc 8853 ba3c
000002b0: dd66 24c0 bd8d 153d e846 883c 6c81 37bd
000002c0: 5413 543d dbac 75bb b824 10bd 534b 06be
000002d0: fc91 29bd e70a 1fc0 fc60 b6bc a888 6b3d
000002e0: 66db 1fbb 6126 04bf fc24 f13c 92d7 ac3b
000002f0: fdc1 a1c0 80c6 88bc 349b 963f ee18 b13f
00000300: de4f 2e38 2afb 77bd 3251 68bd cc65 433d
00000310: f602 b4bd 660f 18bd eccd 783d 846c a13c
00000320: 930e acbc 5070 abbf 91e6 5fbc 9894 94bd
00000330: b2b6 32bd 9069 16bc 7dd6 d1bc bc6b a13c
00000340: ad03 733c 3ce7 2bbd 9052 8cbb d511 e03b
00000350: 00a0 fe3d 64ae 47bf 3448 963c 6042 b6bd
00000360: e834 5cbc c271 eabc ba55 44bd a29a d43d
00000370: 2ba3 fb3b 30e0 723e e863 673c b06a 903e
00000380: cbc1 5ebd 4c0e aebf 54f9 e1bc a325 95bf
00000390: f2c5 a23f eac6 5e3f 02bf 1ebd eb22 abbd
000003a0: 7aba 23bf bbd7 e43b 73a2 ffbc cb56 eb3f
000003b0: a6d4 53bc c2cd c8bc 08ff 203c 763e 67bd
000003c0: 5889 4dbc 9493 64bd fc1a 1f3d 3745 c5bb
000003d0: 3a8f a33a 4211 3f3d ddaf 2c3d 0b63 a6bd
000003e0: 422f 34bf 8022 aeba e8c5 f1bc 6f73 05bd
000003f0: 2ed7 5e3d 5f03 423f e4c5 c03c 30e6 453c
0.025400644 0.6690262 -0.030721175 -0.056095883 0.022435829 0.000548911 0.011715884 -0.031270705
0.017451271 0.010014109 -0.041978158 -0.053139176 -1.4742742 -0.26980123 0.14400844 -0.013667596
-0.010828169 -0.06939193 -0.016330138 -0.03864515 0.07902746 -0.07973864 0.05731585 -0.038228434
-0.01816454 -0.055345543 -0.07037813 -0.25587973 -0.01877717 -0.006121475 0.0044364054 -0.054276764
-1.106118 0.036576413 -0.07315579 -0.010593089 -0.05807981 -0.07517419 -1.2328942 -0.09096745
-0.010034159 -0.067823015 0.0030200128 -0.05559946 -0.057736546 0.009026494 -0.3927144 0.003785651
0.00550547 -0.025436055 -0.04023614 -0.05317054 0.00047665834 -0.020573618 0.026691534 0.0062507614
0.098107666 -0.085324496 0.03647796 -0.031082965 -0.0795091 -0.010559819 0.0022372678 -0.017475463
-0.0011775568 0.00907436 -0.042360105 0.031737104 -0.40799922 0.011570295 -0.05683468 -1.1220759
-0.0978793 -0.43478268 -0.045198128 -0.039542064 -0.026454933 -0.8127323 -0.22687231 -0.014319892
0.046934612 0.02563545 0.08798313 -0.025744332 -0.05748912 -1.4837286 -0.0067735687 0.39713252
-0.05999974 -0.0657382 -0.03215591 -0.049346592 -0.015392999 -0.024271011 0.03380199 0.0591316
-2.7064252 0.36083674 -0.061319467 -0.00058044493 -0.00023294758 -0.23710969 0.020509765 0.016904928
-3.4902081 -0.085956484 -0.91742295 -0.053243686 -0.013327112 -0.04346773 -0.4611305 0.058697104
-0.37191275 -0.0360303 -0.018966474 0.05577697 0.0016609333 0.017687539 0.21573904 0.019792281
0.038593046 -0.028063975 -0.02891778 0.051215015 -0.07711479 0.016251339 -0.020669352 -0.003496386
-0.03630045 -0.059850216 -0.021380391 -1.1347821 -0.010166589 -0.06494096 0.0038517143 0.10673835
0.03426914 0.3578571 -0.044567287 -0.00090467185 0.022715874 0.03228298 -0.06439978 0.028328756
0.061272524 0.0042464137 -1.278173 -0.01464349 -0.056766458 0.061323754 -0.011937242 0.04538146
-0.019885607 -0.0052587576 0.007393125 -3.2750132 -0.00039885315 0.0043877484 -0.06361279 -0.015579097
-0.025057733 -0.010377072 -0.19985153 0.026841251 0.012129694 -0.040777232 -0.06036263 0.02764999
-0.7764438 -0.9129768 -0.015666045 0.022744909 -2.5687783 0.036512125 0.016635373 -0.04480116
0.051776245 -0.0037487063 -0.035191268 -0.13114671 -0.041398987 -2.4850404 -0.022263043 0.057503372
-0.0024392246 -0.5162106 0.02943658 0.0052747214 -5.05493 -0.016696215 1.1766114 1.3835733
4.1559215e-05 -0.060542263 -0.05671806 0.047704503 -0.08789627 -0.03712406 0.060743257 0.019705065
-0.021003043 -1.339365 -0.013665811 -0.072549045 -0.043631263 -0.0091804415 -0.025614971 0.019704692
0.014832419 -0.04196857 -0.004282303 0.0068380632 0.12432861 -0.78000474 0.018344976 -0.08899379
-0.013440348 -0.028618697 -0.047933318 0.10381056 0.0076793632 0.23718333 0.014122941 0.28206396
-0.054384034 -1.3598113 -0.02758471 -1.1652111 1.2716658 0.8702227 -0.038756378 -0.083562694
-0.63956416 0.006983725 -0.031205392 1.8385862 -0.012929117 -0.024512175 0.009826429 -0.05645605
-0.012544952 -0.055804804 0.038844094 -0.006020214 0.0012478598 0.046647318 0.042159904 -0.0812436
-0.7038461 -0.0013285428 -0.029513314 -0.03258079 0.05440443 0.75786394 0.023531862 0.012078807

network.2.bias f4 [256]
00000000: 4329 fe3e e5db 79be de20 8abe d9ac d3bd
00000010: c708 babd 7bb2 c13e f0ff 9ebd a7cd 79be
00000020: b04f fcbc f942 6dbd 8895 c0be dc43 e1bd
00000030: 6c09 ccbe 50b2 c3bd 3ff8 febc 8d63 babd
00000040: 7521 33bd eb90 a7bd e550 e2be c3de 15be
00000050: 0bcf 5a3e acd6 d5bd c5bb 52be b03a 04be
00000060: 8195 dbbe 15e3 97bd 94af c5bd 2844 bdbe
00000070: 8094 61be 74f0 5bbd cbca 14be 513b d1bd
00000080: f367 9cbd e1af 9ebc ead0 68bd 918e 9ebe
00000090: 9102 8cbd a3dd b8be 2dd8 96be 5aa5 35bf
000000a0: 2eef 82be f510 00bf 4089 d5bd acfa 86bd
000000b0: 2454 a4bd a40e 29bc 1621 36be 29c6 84bd
000000c0: a1f8 cbbc 3b68 49bc e873 85bd 25aa 9dbd
000000d0: ffec ccbe d79c 45bd 0d25 05be 4720 98be
000000e0: 48c3 8cbe 5724 b1be 7414 0abf 6249 1f3f
000000f0: b0dd e6bd ef9e dfbe 6b93 44be 7505 d5bd
00000100: a888 49be 4616 a8bd 5352 673f 5347 e6bd
00000110: f69d 9fbe b086 9d3e 255f a0be 4375 8b3e
00000120: 8b9f 983f c4d7 8abc d6ec 5ebb 3e1c 18bf
00000130: 9d55 fbbc 5ae3 9cbe 0994 15be 5f73 acbd
00000140: dde8 60bc f580 e3be 2a48 63be a55c 0dbd
00000150: abe9 26bd 0fa9 c8bd a1f6 8bbb 89ca 2abd
00000160: 0576 a9bd ec0d a4bc 8399 8cbc aafb 5abf
00000170: b811 eebe 3057 95bd 0262 9d3f 8b90 f8be
00000180: 9404 94bd 954e a0bd 0245 9dbe c878 42bd
00000190: b153 cdbe af91 f3bd 8769 c7be db8b 44bd
000001a0: 8ad4 8fbd a704 31bb 7d45 58be 32c6 9fbc
000001b0: 38c8 efbc 105b 3bbe 84eb ebbc 537a 85bd
000001c0: 21e3 5abe f455 c6bd e319 69bd a168 5dbc
000001d0: ce45 e9be 07c4 79bd 791c 4fbc 7c86 7cbd
000001e0: a082 7cbd 3888 8bbe fa1b 94be 3116 9bbc
000001f0: 2a06 f3bd 9a65 38bd 4d1d 37bd 2584 dcbe
00000200: f895 02c0 fdcc d0bd 56a4 98be 976b 8bbc
00000210: ee57 18bf 26e1 89be a64b 92bc 4425 66be
00000220: 7b97 60bd 981f d1bd 6097 9ebd 898e 83bd
00000230: d8cb 21bd fe2b b5be 3527 37bd f5bd 92be
00000240: 9dfd 30bf da62 66bd 96db c2be e163 b9be
00000250: 8259 1ebd 909c 0dbf 05dc 88bd 85b9 21bd
00000260: d19a 87bd 6ca5 61bc a738 8abe e793 0dbe
00000270: a54d 9fbe cbb7 a0bd ecb7 b5bb 84ca e2be
00000280: 6f9d b7bd 4176 a8be 8697 edbd 80c5 fabe
00000290: 27bb 57ba e1f8 303f b86c 38bc b1e0 80bd
000002a0: cc6b 08bd a89d 38be 99c6 d2bc dd33 12bf
000002b0: cdd6 2abe 8ebf 12be 3505 85bc 1a73 97bd
000002c0: cb82 cdbc 79a6 5abd b08e 3bbd 99d9 a1be
000002d0: 511d 45bd c1c0 cebd fa0a bdbc 292d d6bd
000002e0: 0950 83bd 6a1b 54bd 3d10 d6be a99b 99bd
000002f0: e854 91bd f070 60bd e31a 59be 55cd 96bf
00000300: 549e 12bf 0a19 69bc 75c1 a5bd 3f63 85be
00000310: 18b4 9cbd 4622 e9bc a341 09be 389a ecbe
00000320: e831 e9bd 80a9 f5bc 86ee d2be 167a 1abe
00000330: b778 3ebd 685b f9bd 8422 16bf 3e0b b7bc
00000340: 30ff 96be ac06 a9bd 3fe3 08be 2c0f afbd
00000350: 3afd aabd 50fb 293f 1f98 a5be 528c f4bb
00000360: d076 cdbd 84bd bebd 7534 41be 928a 6ebe
00000370: f1a3 a0bc df8b 8abe df59 cabc a57a 95be
00000380: 5951 1dbf d349 03bd 4fac c0be 103b f9bd
00000390: 7f01 b5bd 190a 99bd 784e 57be 7644 89be
000003a0: df7b 20bd 07cc b5be 0a8b 5bbd be32 8fbd
000003b0: a817 73bd a87d 1ebd 187a 92be 8e59 91bd
000003c0: 0e40 a43f e8dc e8bd 6e26 e5bd 7a1f ddbc
000003d0: 3f9a eebe b979 6ebe c5c1 92be 52b0 babe
000003e0: 4fdc 85be 3a9a 67be 0428 5cba cb3c 9cbd
000003f0: 0741 a3be f1b8 78be 5de6 00be 524b fcbe
0.49640855 -0.2440029 -0.269782 -0.103357024 -0.090837054 0.37831482 -0.0776366 -0.24394856
-0.030799717 -0.0579252 -0.37614083 -0.10999271 -0.39850938 -0.09555495 -0.031124232 -0.09101019
-0.04373308 -0.08181938 -0.44202343 -0.14635758 0.21368043 -0.10441336 -0.20579441 -0.12913013
-0.428875 -0.07416359 -0.096526295 -0.36966062 -0.22029305 -0.05369611 -0.14530484 -0.10216392
-0.07637014 -0.019370975 -0.05683986 -0.30968145 -0.06836427 -0.36106595 -0.29461804 -0.7095543
-0.25573105 -0.50025874 -0.10426569 -0.065907806 -0.08023861 -0.010318432 -0.17786059 -0.064831086
-0.024898829 -0.012292917 -0.06516248 -0.07698468 -0.40024564 -0.048245277 -0.13002415 -0.29712126
-0.27492738 -0.34598038 -0.5393746 0.6222135 -0.11272752 -0.43675944 -0.1919686 -0.104014315
-0.19681036 -0.08207373 0.9035999 -0.11244073 -0.31175202 0.3076682 -0.3132259 0.272379
1.1923689 -0.016948588 -0.0034015677 -0.59418094 -0.030680472 -0.30642205 -0.14607252 -0.08420443
-0.013727394 -0.44434324 -0.22195497 -0.03451218 -0.040750187 -0.0979787 -0.004271344 -0.04169706
-0.082744636 -0.02002617 -0.017163044 -0.8554026 -0.46497893 -0.0729202 1.2295535 -0.48547778
-0.07227436 -0.07827488 -0.3071671 -0.047478467 -0.40102914 -0.11893021 -0.38947698 -0.04798494
-0.070229605 -0.002701083 -0.21120258 -0.019503687 -0.029270276 -0.18296456 -0.028798826 -0.06517472
-0.21375705 -0.09684363 -0.056909453 -0.013513715 -0.4556107 -0.060977962 -0.012641066 -0.06165169
-0.06164801 -0.27252364 -0.28927594 -0.01893148 -0.1186641 -0.04501877 -0.044705678 -0.43069568
-2.0404034 -0.101953484 -0.29812878 -0.017019076 -0.5950917 -0.26929587 -0.017858338 -0.22475153
-0.054831963 -0.10211104 -0.07743716 -0.06423671 -0.03950104 -0.35385126 -0.044715125 -0.2866055
-0.69136983 -0.056246616 -0.38058156 -0.36209014 -0.03865958 -0.5531702 -0.066825904 -0.039483566
-0.06621326 -0.01377235 -0.26996347 -0.13825952 -0.31113926 -0.07847556 -0.005545607 -0.44295132
-0.08965575 -0.3290272 -0.116011664 -0.48978806 -0.0008229487 0.6912976 -0.011256389 -0.062928565
-0.033305928 -0.18028891 -0.025729464 -0.5711039 -0.16683502 -0.14330885 -0.016237834 -0.07395001
-0.025086781 -0.053381417 -0.045790374 -0.31611326 -0.04812366 -0.10095359 -0.023076523 -0.10457832
-0.0641175 -0.051783957 -0.41809264 -0.07500393 -0.07096273 -0.054795206 -0.21201663 -1.1781412
-0.5727284 -0.014227161 -0.080935396 -0.2605228 -0.07651538 -0.028458726 -0.13403945 -0.4621141
-0.11386472 -0.02998805 -0.41197604 -0.15085635 -0.04650184 -0.121756375 -0.58646417 -0.022344228
-0.29491568 -0.08253226 -0.13367938 -0.08547816 -0.083490804 0.663991 -0.32342622 -0.0074630165
-0.10032427 -0.09313491 -0.18867667 -0.23295048 -0.019609423 -0.27059838 -0.024701057 -0.29195133
-0.6145225 -0.032052826 -0.3763146 -0.121694684 -0.08838176 -0.07472629 -0.21026027 -0.26810044
-0.039180633 -0.35507223 -0.053599395 -0.069921 -0.059348732 -0.038694054 -0.28608775 -0.07097159
1.2832048 -0.113702595 -0.111889705 -0.026992548 -0.46602055 -0.23288621 -0.2866346 -0.36462647
-0.26144645 -0.22617427 -0.0008398297 -0.07628783 -0.3188555 -0.242893 -0.12587877 -0.49276215

network.4.weight f4 [6, 256]
00000000: 381c a53f 16da 0a3e 7cd8 4fbe 1052 7bbc
00000010: 3de4 46bc 879f 8e3d cb1d 8b3d a321 87bd
00000020: 92ac b33c 3e24 443a 5e82 113e 72dd d93d
00000030: 4b44 ad3e cef7 f13c d6c2 68bd fd26 06bc
00000040: 31ef 7cbc c02a 103c 0df0 133e 9759 a2be
00000050: 6c16 10be ef1d 203c b68d 2cbe e31e c23d
00000060: f117 2dbe 9d7b 8c3d bac5 9e3d ddcb 4fbe
00000070: dd4b bf3b 6684 93bd 2f24 683d 4908 3739
00000080: 19ac 85bc c295 81bb ab19 9c3d 9db7 0abe
00000090: af76 0dbc f164 ecbe bb21 dd3d 1bce 0bbd
000000a0: c945 4dbe c976 16bd 6905 9abc fe76 533d
000000b0: df15 ae3b 3bc7 973d 25bf c1bd 72e6 28bd
000000c0: 3071 89bd 77f7 353b c8e3 6e3d e8e3 053c
000000d0: d303 48be 6549 b8bd 9799 573d b207 823e
000000e0: 32e5 8f3e b097 de3d cceb d53e 5bfe 59bf
000000f0: 5241 413a fd29 e33e 854a b0bd 1558 ce3c
00000100: 9c0d aebd f0e0 383d d10c b6bd df40 183d
00000110: 08b8 823e 7df4 8a3b a1ba 36be bf64 d43e
00000120: 329a d23f d2cb b1bb 4008 583c 0c05 fd3d
00000130: e2ae 41b9 9e21 833d ff94 dfbd cebf 24bc
00000140: 7334 e2bd 3eb9 c63e b14f 823e 6119 a83d
00000150: ebd5 fabc 87bd 5a3d 6cbe 39bb 073f 81bc
00000160: fddc 3e3d 8785 07bd 09e4 d8bb 002e 1ebf
00000170: f260 09be 9851 a5bd a429 963e 6833 853d
00000180: e0b0 21bd d817 8d3c b6e4 c9bd f925 abbc
00000190: 698b 66bc d790 8abb d15e 3ebe ed52 4a3d
000001a0: f48d 60bd b5d8 2c3d ee99 62be 0619 423d
000001b0: 4176 023d 0b05 c3bd 8493 85bd 2ab5 6bbd
000001c0: 93a2 5abe 0b21 3bbd 8ed4 db3d 6678 bf3c
000001d0: 21ce 4ebf 5f43 39bd 187c a93d ebb5 09bc
000001e0: 7ff7 bd3d d57e 3e3e 9eea 23be 75af b13d
000001f0: 5820 82bd 49f3 bcbd 353e 95bd 0b2d 6fbe
00000200: c0db 04c0 68ac a2bc 921a b33d 77c9 c43b
00000210: c6ac c03d 19f2 983d 0fe4 b3bc 5f7b e13e
00000220: 6d01 dc3b 2dd1 d73d d281 edbc 2553 ec3c
00000230: 872d 513c a580 c1be 9eed 5a3e d0f2 98bd
00000240: befd aebd 486c e63c cf99 bd3e a842 973e
00000250: 61e4 ac3d b2bb f4bd 81e1 e33a 4657 e6bc
00000260: 478f b2bc e403 0d3b 54eb 54bd ec66 ed3d
00000270: e7fb 78bd 635a 59bb 696f 4c3c 9f15 b33e
00000280: c46f 2d3c 708d 56bf 3dbb b23d aa85 373e
00000290: fc2c dcbb 4190 a23e cdcf 5b3d af27 3ebc
000002a0: 938f f93c bc4a 3cbe df92 993c a273 5c3e
000002b0: 2133 68bf 1a08 573f 8388 853d cbb0 b5bd
000002c0: 4e76 e43c e906 a8bc fb5e c3bd 97aa d9bd
000002d0: 70fa e2bd 54f7 d43c 35d7 753d 4a8c d0bd
000002e0: a9fe 7c3d e28c a73d 2368 19be c54e 23be
000002f0: 7c15 153c e6f1 c23c 20a4 4e3e 74da 6f3e
00000300: aa1b 593e 15c8 173c a401 1bbc 790c 89be
00000310: 7be6 bbbd 0c5a 9abb a75e 263e d30d ae3e
00000320: bdaa 87bd 812f b13d 68c9 fcbd 0dca 59be
00000330: b24e dcbd 60f9 983d 3f3a 0e3e aef7 df3c
00000340: 186f 8c3e 0dee b43d 2de8 1f3b 0837 c8bd
00000350: e043 4b3d 4eac 81bf c5fc 5dbe 2186 403c
00000360: 73a9 e4bb 4e37 bb3d bea4 bb3c 6004 6f3e
00000370: 339d b53d ef52 1a3e dd72 1bbd b47d 30be
00000380: 727b 263d 6c1b d03d 38fb f03e bce5 833d
00000390: bc5c fbbc 71b9 3cbb cacd 3d3e 06d7 d4bd
000003a0: 2324 84bc 6034 283f e109 b53d 569f ca3c
000003b0: 43ac d53d f9cd 7a3d 095b 1b3d e7ef 593d
000003c0: 202e 23be d347 c63b 264a bf3a 63e0 28bd
000003d0: dc98 10be 8dd7 49be c0f3 923e e9a7 88bd
000003e0: 08d5 583e 27b8 53be e474 b43d da07 f73a
000003f0: 60fd 85be 4ee5 843b 7a69 0b3b 0c5c 76bf
1.2899237 0.13559756 -0.20297426 -0.015339389 -0.012139377 0.06964021 0.06792792 -0.065982126
0.021932874 0.0007482207 0.14209887 0.106379405 0.33841166 0.029537108 -0.056826435 -0.0081880065
-0.015437887 0.008799255 0.14447041 -0.31708977 -0.14071053 0.009772762 -0.16850933 0.094785474
-0.16903664 0.06859515 0.07752557 -0.20292611 0.005837901 -0.072029874 0.056675132 0.00017455326
-0.016317414 -0.00395462 0.07622083 -0.13546605 -0.008634253 -0.46170762 0.10797449 -0.034132104
-0.20046152 -0.036734376 -0.018801408 0.05162715 0.005312666 0.07411047 -0.09460286 -0.041235395
-0.06711042 0.0027765909 0.058322698 0.008172013 -0.19532709 -0.08998374 0.05263671 0.25396496
0.2810455 0.10868776 0.4178146 -0.8515374 0.0007372099 0.44367972 -0.086079635 0.025188485
-0.084986895 0.045136392 -0.08889163 0.03717124 0.2553103 0.004240571 -0.17844631 0.41483113
1.6453307 -0.0054259086 0.013185561 0.12354478 -0.00018471063 0.06402896 -0.109170906 -0.010055495
-0.1104516 0.38813204 0.25451425 0.08207966 -0.030619582 0.053403404 -0.002834226 -0.015777124
0.04659747 -0.033086326 -0.006618981 -0.6178894 -0.13415888 -0.080722034 0.29328644 0.065039456
-0.03947532 0.017223284 -0.09858076 -0.02089213 -0.014071324 -0.004228692 -0.18590857 0.04939549
-0.054822877 0.042198855 -0.22129032 0.047387145 0.031851057 -0.09522446 -0.06522277 -0.05754582
-0.2135108 -0.04568581 0.10733901 0.02337284 -0.8078328 -0.045230266 0.08275622 -0.008405189
0.09275722 0.1860307 -0.16007468 0.08676044 -0.06353825 -0.092260905 -0.07287256 -0.23357026
-2.0759125 -0.0198576 0.08745302 0.006005462 0.09407954 0.074680515 -0.021959333 0.44039437
0.006714037 0.10537944 -0.028992567 0.02884824 0.012767202 -0.3779346 0.21379706 -0.07468188
-0.08544491 0.028127804 0.3703141 0.29543042 0.08441997 -0.119498625 0.0017385931 -0.028117787
-0.021796836 0.0021517212 -0.05198224 0.115918964 -0.060787108 -0.0033165447 0.012477734 0.34977433
0.010585729 -0.83809566 0.08727119 0.17922083 -0.0067192297 0.31750682 0.05366497 -0.011606141
0.03046397 -0.18387884 0.018746791 0.21528485 -0.90703017 0.83996737 0.06520178 -0.08871611
0.027888443 -0.020511108 -0.095396005 -0.106282406 -0.110829234 0.025996841 0.06001969 -0.10183008
0.0617663 0.08181168 -0.14981131 -0.15948017 0.009099361 0.023796987 0.20179796 0.23423177
0.21201959 0.009264012 -0.00946084 -0.26767328 -0.0917482 -0.0047104415 0.16247045 0.33994922
-0.066243626 0.08651639 -0.12343103 -0.21268483 -0.107571974 0.074694395 0.13889407 0.027339783
0.27428508 0.08834467 0.0024399862 -0.097761214 0.049625278 -1.0130708 -0.21678455 0.011750729
-0.0069782077 0.09141408 0.022905704 0.23341513 0.08867874 0.15070699 -0.03795134 -0.17235452
0.04064507 0.1016148 0.47066665 0.06440303 -0.030683868 -0.0028797055 0.18535534 -0.10392575
-0.016130513 0.6570492 0.08839775 0.02473418 0.10433247 0.061231587 0.037928615 0.053207304
-0.15935564 0.0060510426 0.0014594242 -0.041229617 -0.14120811 -0.19711132 0.28701591 -0.06672651
0.21175015 -0.20675717 0.088113576 0.0018846944 -0.26169872 0.0040556556 0.0021272586 -0.962342

network.4.bias f4 [6]
00000000: 50cf b23d 0aa3 ad3e 2e30 82bf 11a2 87bf
00000010: 65ad 98bf ffd5 63bf
0.08730948 0.3391345 -1.0170953 -1.0596334 -1.1927916 -0.8899841
