Training/Model/model_critic_robot_subset_joint4_03.pt (torch, 280119 bytes, 5 tensors)

network.0.weight f4 [256, 12]
0.27527517 1.2623826 0.5433876 -0.7534165 0.887872 0.39675012 0.14833347 -0.06688577
-0.2458322 -0.061441377 0.07349682 -0.77012384 0.25749433 0.99996865 0.5549833 0.8254655
-0.19423582 -0.21430412 0.65381247 -0.6244424 0.037805483 0.8967513 0.62288535 -0.1467496
0.47401506 0.09713874 0.36684963 -0.32523775 0.24445069 -1.6190943 0.45596594 0.3766608
-0.69786674 -0.12960395 0.12506041 -0.031215798 -0.9059304 0.17085092 0.54741 0.15509385
1.0620382 0.89197147 -0.048510462 0.29822132 0.4343975 0.59484094 -0.007095827 0.17638966
0.55291414 0.2458601 0.2644203 -0.666732 -1.1415687 -0.8342146 0.009302774 -0.4601349
-0.058118686 1.2695943 -0.45199385 -0.099427775 -0.12918553 -0.14923511 1.3795851 0.6117578
-0.96087056 -0.12631261 1.6265373 -0.12287369 -0.6042971 0.7332609 -0.0844634 -0.24006914
-0.9125308 0.72618765 -0.6408341 -1.1132518 1.0336381 0.32924533 -0.5539354 0.612306
0.06809181 -0.27041137 -0.25051662 0.029250246 0.550694 -0.61081517 -0.3414182 0.22897126
0.046868335 0.8181487 0.026371362 0.2537643 0.833687 -0.26037055 0.44607952 0.10256318
1.4578614 -2.5992594 -1.2505115 1.6857017 -0.6923587 -0.5130167 0.2871812 0.39004818
0.14046732 0.2117558 -0.055155523 0.023908917 -0.055913985 1.2699517 -0.11017663 0.0066768066
0.3287105 -0.50919265 1.1585037 -0.91043395 0.29611582 0.9209167 0.03217066 -0.051668297
-0.70219857 0.11821576 0.7113749 0.65160465 0.9495528 1.1450719 -0.16417076 0.4052058
0.23092894 -0.09608838 0.11562755 0.03419519 0.31556985 -0.63686806 -0.3889724 -0.2477905
0.2554423 0.54015553 -1.6093991 0.15418865 -0.43521088 -0.31351075 -0.97553205 0.15716828
0.47005686 -0.7646049 0.93058944 -0.5230979 0.6342654 -0.105216905 -0.44838682 0.27303424
-0.530692 -0.08246359 0.45247197 0.6563998 0.2891349 -0.057204507 0.23058721 0.75768316
0.86965287 -0.7867894 0.91370434 -0.15391226 -1.0625678 0.11960879 0.044040956 -0.7401012
-0.22688954 1.4729295 0.96493053 -0.24150002 0.03162047 1.1761831 0.2449617 -0.2027017
-0.3082679 0.04012143 -0.12727247 0.13911672 1.0436991 0.21993214 0.85649633 -0.08387735
0.21905069 -0.9325502 -0.31219763 0.38823038 -0.06257997 0.44185248 0.2292295 -0.5767665
0.83049715 -0.29165533 0.124353066 -0.45245892 0.77304673 0.49902245 -0.89358 -0.112278245
0.45998502 0.4068594 -0.41098183 -0.033681203 -0.36232555 1.0258796 -0.3730073 0.45683828
-0.11389905 1.0211985 0.25969577 0.0033559517 0.013175211 0.5928552 0.003023279 0.04201784
0.06336924 1.211444 -0.764879 1.2742195 -0.0732799 -0.4067909 -0.6672714 -0.28270295
0.40344763 1.4441522 -0.11407305 -0.0032317587 0.058486883 -0.09055762 -0.019164596 0.061920177
-0.08557684 -0.06475742 -0.10428135 -0.09506398 -0.055974126 0.36161613 0.23035243 0.06607554
-0.36138844 -1.5700933 -0.23101333 0.25279042 -0.22244546 0.3556513 -0.8646761 -0.019425943
0.208037 0.29297018 0.09768291 0.16953096 -0.55867404 0.0065392065 0.4078564 0.41280457
00000000: def0 8c3e c195 a13f 731b 0b3f e7df 40bf
00000010: 944b 633f d522 cb3e bbe4 173e 68fb 88bd
00000020: 70bb 7bbe f4a9 7bbd 8085 963d d626 45bf
00000030: 4cd6 833e f2fd 7f3f 6313 0e3f b551 533f
00000040: c1e5 46be 8a72 5bbe 4160 273f 75db 1fbf
00000050: ecd9 1a3d 7e91 653f 6a75 1f3f 8745 16be
00000060: 1ab2 f23e adf0 c63d b7d3 bb3e 9085 a6be
00000070: 4851 7a3e 7b3e cfbf 5e74 e93e afd9 c03e
00000080: 65a7 32bf e6b6 04be d60f 003e 46b8 ffbc
00000090: 0eeb 67bf 8bf3 2e3e 1023 0c3f ecd0 1e3e
000000a0: def0 873f 3e58 643f e8b2 46bd 77b0 983e
000000b0: 5969 de3e 7f47 183f 1c84 e8bb 7e9f 343e
000000c0: c88b 0d3f c0c2 7b3e 1962 873e f3ae 2abf
000000d0: ec1e 92bf 178f 55bf aa6a 183c cd96 ebbe
000000e0: dc0d 6ebd 1182 a23f bd6b e7be caa0 cbbd
000000f0: 3649 04be 17d1 18be 3f96 b03f 299c 1c3f
00000100: 9dfb 75bf 1858 01be 6032 d03f 34a5 fbbd
00000110: 37b3 1abf fdb6 3b3f 26fb acbd afd4 75be
00000120: 9e9b 69bf 6fe7 393f b40d 24bf 097f 8ebf
00000130: 414e 843f d892 a83e b6ce 0dbf 16c0 1c3f
00000140: b873 8b3d 5c73 8abe b743 80be 369e ef3c
00000150: 48fa 0c3f 625e 1cbf 5ece aebe 7177 6a3e
00000160: 03f9 3f3d 3172 513f c108 d83c 65ed 813e
00000170: 836c 553f 4a4f 85be 8964 e43e a50c d23d
00000180: 349b ba3f 445a 26c0 c310 a0bf 13c5 d73f
00000190: 6b3e 31bf 1055 03bf 6a09 933e 65b4 c73e
000001a0: aad6 0f3e 83d6 583e c2ea 61bd a2dc c33c
000001b0: 1006 65bd c78d a23f 49a4 e1bd 1dc9 da3b
000001c0: be4c a83e 735a 02bf d949 943f 3312 69bf
000001d0: 7e9c 973e 32c1 6b3f 62c5 033d 23a2 53bd
000001e0: 49c3 33bf 1b1b f23d aa1c 363f 90cf 263f
000001f0: e415 733f b791 923f 611c 28be 2277 cf3e
00000200: a378 6c3e fcc9 c4bd 23ce ec3d 4110 0c3d
00000210: 5f92 a13e c909 23bf 6427 c7be cbbc 7dbe
00000220: 55c9 823e a247 0a3f ca00 cebf a1e3 1d3e
00000230: f6d3 debe 7b84 a0be 78bc 79bf b9f0 203e
00000240: 4bab f03e 26bd 43bf 1c3b 6e3f bee9 05bf
00000250: 385f 223f f67b d7bd f592 e5be 25cb 8b3e
00000260: 6edb 07bf ace2 a8bd 68aa e73e d109 283f
00000270: 7d09 943e 464f 6abd 0e1f 6c3e 86f7 413f
00000280: 92a1 5e3f 086b 49bf 87e8 693f 2d9b 1dbe
00000290: 3902 88bf 74f5 f43d 4a64 343d 4677 3dbf
000002a0: bb55 68be f488 bc3f b005 773f c84b 77be
000002b0: 7784 013d 2b8d 963f 3dd7 7a3e 0991 4fbe
000002c0: 4ad5 9dbe 5e56 243d b753 02be 9d74 0e3e
000002d0: ef97 853f e435 613e 5843 5b3f e3c7 abbd
000002e0: d34e 603e 9cbb 6ebf 5ed8 9fbe 22c6 c63e
000002f0: ed29 80bd 7d3a e23e 23bb 6a3e f8a6 13bf
00000300: 769b 543f d953 95be d2ac fe3d b2a8 e7be
00000310: 64e6 453f df7f ff3e a9c1 64bf 23f2 e5bd
00000320: 2883 eb3e e04f d03e 366c d2be 4df5 09bd
00000330: bc82 b9be 0650 833f d0fa bebe b5e6 e93e
00000340: e843 e9bd a2b6 823f d8f6 843e 87ef 5b3b
00000350: d7dc 573c 5cc5 173f 3422 463b e61a 2c3d
00000360: bbc7 813d 9910 9b3f 1ccf 43bf a019 a33f
00000370: c613 96bd e646 d0be 4cd2 2abf 71be 90be
00000380: b090 ce3e fbd9 b83f 229f e9bd eacb 53bb
00000390: f18f 6f3d 4676 b9bd 12ff 9cbc 03a0 7d3d
000003a0: e942 afbd 8a9f 84bd 7691 d5bd e7b0 c2bd
000003b0: 2045 65bd c025 b93e 82e1 6b3e 9d52 873d
000003c0: e807 b9be d1f8 c8bf c28e 6cbe bf6d 813e
000003d0: bec8 63be ed17 b63e 6a5b 5dbf 2823 9fbc
000003e0: a707 553e 3000 963e fa0d c83d 8699 2d3e
000003f0: 4305 0fbf d746 d63b 8ed2 d03e 1f5b d33e

network.0.bias f4 [256]
-0.6108306 -0.50426507 -0.07277276 -0.73999745 -0.24741083 -0.020161325 -0.6469816 -0.0137666175
-0.12906261 -0.01947344 -0.18967597 -0.5720009 -0.74733275 -0.5361805 -0.4888677 -0.7501431
-0.11681277 -0.072892085 -0.17852753 -0.48024058 -0.10596589 -0.25146216 -0.8136942 -1.0326656
-0.14048561 -0.20264004 -0.8251437 0.2641648 -0.3048397 -0.5937709 -0.18295926 -0.29188082
-0.7374681 0.17546037 -0.30425486 -0.7421346 -0.9185662 -0.100547306 -0.19636087 -0.5281883
0.40371266 -0.15573022 -0.37963167 -0.25319952 -0.12987277 -0.37596217 0.3623765 0.28675914
-0.60454786 -0.29976982 -0.3539602 0.20701662 -0.57832515 0.04976833 -0.35487685 -0.8365893
-0.6267626 0.1962931 -0.13475567 -0.23633969 -0.50235134 -0.35088843 0.03733457 -0.0047480413
0.020898608 -0.10712429 -0.16450511 -0.4664933 -0.35741204 -0.027770393 -0.21574281 -0.1438486
-0.15423748 -0.3759774 0.013943296 -0.12060819 -0.57475275 -0.52965426 -0.33243772 -0.95412683
-1.0467088 -1.1050831 -0.36415258 -0.7113622 -0.56800294 -0.21288541 -0.51109457 -0.21784872
-0.10909232 0.09409613 -0.33654556 0.26706627 -0.65292686 -0.5562988 -0.46838728 -0.34417358
-0.56588423 -0.38046667 -0.44519553 -0.69115466 -0.11799757 -0.24759133 0.024012228 -0.3906954
0.051883813 -0.1671355 -0.24150878 -0.7598835 0.1718438 -0.5545443 -0.28357428 -0.5190972
-0.14008741 -0.32049924 -0.38529065 -0.5789558 -0.07275226 -0.2858048 -0.0031643112 -0.38491362
-0.33896092 0.21977109 0.15050335 -0.21595296 -0.34844798 -0.6616944 -0.13363412 -0.15263622
-0.513699 0.011627361 -0.10106738 -0.64344466 -0.33191103 -0.5671541 -0.07566425 -0.39896673
-0.18920812 -0.24718042 -0.0837045 -0.9276585 -0.22831278 -0.013434599 0.22268341 -0.23308751
0.017439945 -0.15223444 0.019574543 -0.5654851 0.15209684 -0.62763065 -0.054987095 -0.68481696
0.0033248959 0.10181012 -0.39846262 -0.10711876 -0.7380171 -0.9662423 0.039667923 -0.04436178
0.07212244 -0.09211366 -0.1745298 -0.6180483 0.1634309 0.3443744 -0.4796338 -0.73971874
-0.36511958 -0.11573832 -0.73425734 -0.54494673 0.3735381 0.08386541 -0.45073497 -0.46599188
-0.74795467 -0.66810405 -0.80498934 0.5531505 -0.07288551 0.07916654 -0.687112 -0.097703464
-0.7513215 -0.77861565 -0.69122773 -0.17484415 -0.105409525 0.409458 -0.0018308313 -0.046395317
-0.9 0.06930525 -0.36569434 0.00530574 -0.38548982 -0.32937893 0.10172927 -0.019582955
-0.6421338 -0.16808026 -0.36387667 -0.12629545 -0.6822778 -0.4396948 -0.40995282 -0.36472398
-0.24541225 0.15984334 -0.5090667 -0.2679269 -0.6458892 -0.27356356 -0.014676658 -0.80094385
-0.6404425 -0.8132105 -0.92662334 -0.061519597 -0.12590502 -0.302978 -0.5347171 -0.31875697
-0.39287257 -0.31864455 -0.1834815 0.20235957 -0.5604892 -0.99935514 -0.030977195 0.109359026
-0.52980584 -0.6032471 -0.7756847 -0.91681504 -0.28394797 0.123479925 -0.5051387 -0.17084272
-0.66729146 0.057344466 -0.13339329 -0.4222254 -0.3188368 -0.43626356 -0.006013639 -0.78395116
-0.17831698 -0.46652943 -0.17507222 -0.051366556 -0.31630802 -0.64297485 -1.0343004 -0.5655159
00000000: 655f 1cbf 8417 01bf e309 95bd 7970 3dbf
00000010: 4459 7dbe 5d29 a5bc 96a0 25bf 618d 61bc
00000020: fd28 04be c386 9fbc 6b3a 42be a76e 12bf
00000030: 3351 3fbf 2043 09bf de4c fabe 6109 40bf
00000040: 893b efbd 7248 95bd eccf 36be 18e2 f5be
00000050: a504 d9bd a6bf 80be 434e 50bf 632e 84bf
00000060: 76db 0fbe df80 4fbe 9e3c 53bf 9c40 873e
00000070: f313 9cbe 5f01 18bf ac59 3bbe 6771 95be
00000080: b6ca 3cbf e2ab 333e 4bc7 9bbe 88fc 3dbf
00000090: 2827 6bbf bfeb cdbd d312 49be 5937 07bf
000000a0: 6db3 ce3e be77 1fbe 155f c2be 5ea3 81be
000000b0: 5efd 04be 1d7e c0be 6a89 b93e 18d2 923e
000000c0: a6c3 1abf 6e7b 99be 453a b5be 2afc 533e
000000d0: 1e0d 14bf e0d9 4b3d 6bb2 b5be b72a 56bf
000000e0: 8473 20bf 0f01 493e 64fd 09be 0803 72be
000000f0: 199a 00bf a6a7 b3be 22ec 183d 7595 9bbb
00000100: 8f33 ab3c fb63 dbbd 0774 28be 36d8 eebe
00000110: b6fe b6be bc7e e3bc afeb 5cbe 0c4d 13be
00000120: 6ef0 1dbe 1c80 c0be 6c72 643c 6d01 f7bd
00000130: ff22 13bf 6c97 07bf 4735 aabe a841 74bf
00000140: 8efa 85bf 5d73 8dbf 3572 babe d51b 36bf
00000150: a468 11bf a2fe 59be 18d7 02bf bc13 5fbe
00000160: cb6b dfbd 79b5 c03d b34f acbe e9bc 883e
00000170: 3726 27bf 9969 0ebf 75d0 efbe 8537 b0be
00000180: cadd 10bf 87cc c2be abf0 e3be 83ef 30bf
00000190: b6a8 f1bd 9588 7dbe 4bb5 c43c 3a09 c8be
000001a0: 1f84 543d 9225 2bbe 144e 77be ba87 42bf
000001b0: d2f7 2f3e 9ef6 0dbf a630 91be 8ee3 04bf
000001c0: 1373 0fbe 7a18 a4be d144 c5be 7336 14bf
000001d0: 23ff 94bd 0255 92be 5560 4fbb 6613 c5be
000001e0: 498c adbe ac0b 613e 8d1d 1a3e c622 5dbe
000001f0: c667 b2be ce64 29bf 62d7 08be ab4c 1cbe
00000200: c781 03bf b080 3e3c 6afc cebd cab8 24bf
00000210: 3ef0 a9be 0331 11bf dcf5 9abd 5e45 ccbe
00000220: c6bf 41be dd1c 7dbe 446d abbd 077b 6dbf
00000230: d3ca 69be cb1c 5cbc 1f07 643e 7eae 6ebe
00000240: 37de 8e3c 58e3 1bbe cb5a a03c a2c3 10bf
00000250: 46bf 1b3e 67ac 20bf 263a 61bd 2a50 2fbf
00000260: 7fe6 593b d381 d03d 4b03 ccbe 1561 dbbd
00000270: b0ee 3cbf a85b 77bf d57a 223d b3b4 35bd
00000280: eeb4 933d 16a6 bcbd f1b7 32be 6a38 1ebf
00000290: 6e5a 273e d751 b03e 9092 f5be 355e 3dbf
000002a0: f4f0 babe 3608 edbd 4af8 3bbf a181 0bbf
000002b0: 6340 bf3e a1c1 ab3d bcc6 e6be 7d96 eebe
000002c0: f579 3fbf de08 2bbf c813 4ebf 459b 0d3f
000002d0: 0045 95bd 1122 a23d 92e6 2fbf c118 c8bd
000002e0: 9b56 40bf 5b53 47bf 4df4 30bf 580a 33be
000002f0: f3e0 d7bd 7ba4 d13e 81f8 efba 0409 3ebd
00000300: 6666 66bf e9ef 8d3d 4a3c bbbe c6db ad3b
00000310: ec5e c5be 5ba4 a8be 6f57 d03d 6f6c a0bc
00000320: e162 24bf 3b1d 2cbe 0b4e babe 9853 01be
00000330: c2a9 2ebf ad1f e1be 56e5 d1be 1abd babe
00000340: 594d 7bbe f9ad 233e 3252 02bf b72d 89be
00000350: ff58 25bf 8610 8cbe 5e76 70bc a80a 4dbf
00000360: 0af4 23bf 902e 50bf 3037 6dbf f9fb 7bbd
00000370: 3fed 00be ef1f 9bbe 38e3 08bf 1d34 a3be
00000380: 9826 c9be 6125 a3be 93e2 3bbe 5937 4f3e
00000390: 387c 0fbf bdd5 7fbf e3c3 fdbc a0f7 df3d
000003a0: 5ba1 07bf 676e 1abf 4693 46bf 64b4 6abf
000003b0: a161 91be 0be3 fc3d c550 01bf 65f1 2ebe
000003c0: 9dd3 2abf 08e2 6a3d 4098 08be ed2d d8be
000003d0: 943e a3be f05d dfbe 0f0e c5bb 06b1 48bf
000003e0: ba98 36be f2dc eebe 2246 33be bd65 52bd
000003f0: 20f3 a1be 009a 24bf f563 84bf a6c5 10bf

network.2.weight f4 [256, 256]
0.02376196 0.02381225 -0.016215341 -0.1337292 -0.07395675 -0.046560556 -0.13192348 -0.027923318
-0.010754227 0.015886543 -0.055162452 -0.06537022 -0.069822736 -0.1291576 -0.08322708 -0.010347439
-0.008747032 -0.08376446 -0.059166677 -0.006767601 -0.042294443 0.024596604 0.027260737 -0.0266747
-0.061617218 0.03970933 0.0077616507 -0.09847513 0.031138856 -0.1682838 -0.0440546 -0.026750645
-0.011625336 -0.004056906 -0.025373194 -0.028245244 -0.00706837 -0.051905572 -0.030622052 -0.0319784
-0.056981098 0.03237221 -0.04411742 -0.032941446 -0.053148646 0.039880797 -0.05454177 -0.107816935
-0.004447326 0.002335774 0.0077520926 -0.011786868 -0.006248402 -0.043522187 -0.15107529 0.056158617
-0.17066649 -0.02547852 -0.032064516 -0.08013605 -0.04107925 -0.0133190015 -0.067402765 -0.081156135
0.023870908 -0.051426854 -0.04516792 -0.06127021 -0.012865428 -0.044164214 -0.011021026 -0.0066991257
-0.05605728 -0.1132673 -0.08022908 -0.02272983 0.006418408 -0.07057403 -0.06888248 -0.06884192
0.042826936 -0.119012944 0.029805215 0.0021850448 -0.04412145 -0.13862254 -0.026745126 -0.11702659
-0.06883621 -0.07572688 -0.03990095 0.0031502235 -0.05742893 -0.03988118 -0.06515655 -0.061514538
0.037376214 -0.08934588 -0.005987935 0.011195842 -0.06675133 -0.054659702 0.027898734 -0.053808793
0.037229903 -0.0072933957 -0.008103378 0.012358077 -0.00259818 -0.09295749 -0.16221234 -0.07902322
0.041934155 0.021350872 0.027396152 -0.054759357 0.0050922437 -0.04421613 0.040273357 -0.043327753
0.0050759767 -0.0723279 -0.034815755 -0.0015396478 0.033479232 -0.15447378 -0.043841355 0.010642879
-0.08260769 -0.062114894 -0.062914535 -0.035434887 -0.061585072 -0.052531544 -0.15026662 -0.08030385
-0.061220013 -0.03937146 -0.021767518 -0.010136388 -0.071470015 0.009907048 0.03607692 -0.036163315
0.019545712 -0.049315076 -0.063503504 0.0369787 -0.11520177 -0.074741066 -0.07210836 0.024650306
0.029746791 0.017868007 -0.01922543 -0.12652786 -0.08027697 -0.00022447201 0.007578948 -0.06756545
-0.15771317 -0.031084944 0.0063458383 -0.09110308 -0.043581598 -0.042560965 -0.045435037 -0.1193447
-0.13568048 -0.13309984 -0.06703019 -0.0059613064 0.016969264 -0.08271142 -0.06753063 0.012859276
-0.027751982 -0.058717903 0.039984263 -0.07272794 0.008398389 -0.05693927 0.011679886 -0.05568871
-0.07639477 -0.048606332 -0.029657952 -0.03720612 -0.06323271 -0.07501993 0.037564863 -0.05398182
0.050027438 -0.03155049 -0.14665014 -0.05518183 -0.05349876 -0.006526504 -0.06366324 -0.06802146
0.021592243 -0.030711548 0.016972292 -0.08960767 -0.124984585 -0.07271223 -0.07535808 -0.099914484
-0.028556697 0.01856672 -0.011804432 -0.002380139 -0.03932548 -0.006846176 -0.07823398 0.0342666
-0.035321407 -0.0602088 -0.05496267 -0.01338613 0.050070874 -0.028509978 0.041687764 -0.07961144
0.035500158 -0.058040515 -0.06612905 -0.073247895 -0.04674338 0.02778067 -0.050987326 -0.011957816
0.029207073 -0.047871992 -0.054777946 -0.059727777 -0.08963188 -0.14082254 0.025810566 -0.034620848
0.050906025 -0.030456569 0.038518254 0.03075544 -0.022590868 0.023913523 -0.16298349 -0.020305617
0.030172182 -0.040151343 -0.16457503 -0.08914372 -0.032559596 0.029640175 -0.023239547 0.038809657
00000000: 71a8 c23c e811 c33c 09d6 84bc 4ff0 08be
00000010: a376 97bd 48b6 3ebd f316 07be 71bf e4bc
00000020: 7f32 30bc 7f24 823c 06f2 61bd d2e0 85bd
00000030: 39ff 8ebd e441 04be f672 aabd 4e88 29bc
00000040: b64f 0fbc b48c abbd c258 72bd c0c2 ddbb
00000050: f03c 2dbd d17e c93c e951 df3c e784 dabc
00000060: 5662 7cbd 40a6 223d 7255 fe3b 54ad c9bd
00000070: ea16 ff3c 9752 2cbe 9972 34bd 2b24 dbbc
00000080: 3178 3ebc cbef 84bb 72db cfbc 9262 e7bc
00000090: c99d e7bb f09a 54bd 19db fabc c8fb 02bd
000000a0: 0365 69bd b998 043d 78b4 34bd 9ced 06bd
000000b0: 65b2 59bd 0c5a 233d 3167 5fbd 20cf dcbd
000000c0: e0ba 91bb c913 193b 4405 fe3b b51d 41bc
000000d0: 65bf ccbb 5244 32bd 7bb3 1abe 9406 663d
000000e0: 32c3 2ebe 54b8 d0bc 1556 03bd 5f1e a4bd
000000f0: b742 28bd f137 5abc 760a 8abd 3035 a6bd
00000100: ec8c c33c f7a4 52bd ff01 39bd 79f6 7abd
00000110: 84c9 52bc 89e5 34bd 8991 34bc 5784 dbbb
00000120: 529c 65bd b0f8 e7bd 254f a4bd e933 babc
00000130: 8251 d23b 1e89 90bd 4212 8dbd fefc 8cbd
00000140: 4c6b 2f3d 0fbd f3bd 112a f43c f832 0f3b
00000150: b2b8 34bd 11f3 0dbe 9818 dbbc a3ab efbd
00000160: 00fa 8cbd b216 9bbd 2e6f 23bd fb73 4e3b
00000170: 993a 6bbd 735a 23bd cc70 85bd abf6 7bbd
00000180: cd17 193d f9fa b6bd 7036 c4bb c46e 373c
00000190: ecb4 88bd dae2 5fbd e38b e43c 9c66 5cbd
000001a0: 627e 183d 70fd eebb 08c4 04bc 8879 4a3c
000001b0: 3a46 2abb 7f60 bebd fe1a 26be edd6 a1bd
000001c0: 26c3 2b3d 06e8 ae3c e56d e03c 594b 60bd
000001d0: d6dc a63b f91b 35bd adf5 243d 7178 31bd
000001e0: 6154 a63b a620 94bd f79a 0ebd 02ce c9ba
000001f0: 8521 093d 602e 1ebe fe92 33bd 785f 2e3c
00000200: 382e a9bd 306c 7ebd 56d9 80bd 2c24 11bd
00000210: a140 7cbd 512b 57bd 7edf 19be 5876 a4bd
00000220: d6c1 7abd f843 21bd cb51 b2bc 1813 26bc
00000230: df5e 92bd 2c51 223c 64c5 133d fc1f 14bd
00000240: 541e a03c 9bfe 49bd 200e 82bd fa76 173d
00000250: e8ee ebbd d811 99bd 8cad 93bd 70ef c93c
00000260: 8baf f33c ed5f 923c a67e 9dbc 8590 01be
00000270: 4168 a4bd 3f60 6bb9 d358 f83b c15f 8abd
00000280: 907f 21be daa5 febc c0f0 cf3b 4094 babd
00000290: 9e82 32bd 6854 2ebd 171a 3abd fe6a f4bd
000002a0: d3ef 0abe 534b 08be 2047 89bd 1057 c3bb
000002b0: 2003 8b3c 9b64 a9bd 804d 8abd b6af 523c
000002c0: 2058 e3bc 2f82 70bd 8ac6 233d 63f2 94bd
000002d0: 6699 093c 2739 69bd fe5c 3f3c d819 64bd
000002e0: dc74 9cbd 6f17 47bd 3cf5 f2bc 7265 18bd
000002f0: 2780 81bd 0da4 99bd 9ddd 193d 0a1c 5dbd
00000300: 92e9 4c3d 163b 01bd 742b 16be 5806 62bd
00000310: 8421 5bbd 49dc d5bb df61 82bd d64e 8bbd
00000320: 37e2 b03c c996 fbbc 7a09 8b3c 3a84 b7bd
00000330: ebf7 ffbd 26ea 94bd 5655 9abd f79f ccbd
00000340: bcef e9bc 3c19 983c 6067 41bc 1bfc 1bbb
00000350: c113 21bd e355 e0bb 2339 a0bd 225b 0c3d
00000360: 2ead 10bd 819d 76bd 8920 61bd 8051 5bbc
00000370: 1e17 4d3d c28d e9bc cac0 2a3d 530b a3bd
00000380: 9d68 113d e4bb 6dbd ab6e 87bd fe02 96bd
00000390: fd75 3fbd 4a94 e33c 16d8 50bd b7ea 43bc
000003a0: ac43 ef3c 6c15 44bd d75e 60bd 1da5 74bd
000003b0: eb90 b7bd c933 10be ae70 d33c 97ce 0dbd
000003c0: d682 503d 0e80 f9bc 51c5 1d3d d5f2 fb3c
000003d0: 7c10 b9bc 4be6 c33c 25e5 26be f757 a6bc
000003e0: a72b f73c bc75 24bd 5b86 28be fc90 b6bd
000003f0: 365d 05bd f4cf f23c dd60 bebc e0f6 1e3d

network.2.bias f4 [256]
-0.025458906 -0.14205328 -0.045309424 -0.07555284 -0.05596626 -0.13553743 -0.010868362 -0.06023326
-0.06672974 -0.052592695 -0.12839997 0.334438 -0.06172949 0.02478578 0.030459162 0.016695028
-0.13286325 0.021087755 -0.033303197 -0.009523723 -0.060083706 -0.04741316 -0.03734498 -0.2393079
0.012527546 -0.029572008 -0.056212008 -0.056849934 -0.21969339 0.03645489 -0.051800348 -0.06289884
-0.47761682 -0.1477605 0.8314155 -0.1307518 -0.20500119 -0.033509962 0.018670967 -0.09050168
-0.08561591 -0.003311418 -0.13246854 -0.18757248 -0.059030537 -0.03813312 -0.03787741 -0.097159624
-0.15637395 0.23352553 0.026705384 -0.055521864 -0.14996639 -0.079063185 -0.1447386 -0.051190723
-0.14581898 -0.04406215 -0.098337 -0.1531594 -0.04454117 -0.026198747 0.028949259 -0.09642308
-0.052955884 0.0078035453 0.004970814 0.013876951 -0.2185575 0.0033641984 -0.22553463 -0.21039912
-0.034648206 -0.14376363 -0.07511499 -0.12108435 -0.114183724 -0.063069426 0.14132309 -0.08166444
0.06084692 -0.13115484 -0.07524628 0.14580384 -0.11513326 -0.08094441 -0.019320285 0.015186814
-0.14412273 -0.12887317 -0.076155774 -0.03806102 -0.09481847 -0.069574855 0.026742803 -0.0656058
-0.064444736 -0.11931421 -0.035919383 -0.0075696413 -0.048540093 -0.12698801 -0.059240833 0.083674245
-0.12850167 0.45488802 0.010640552 -0.05836279 -0.19683325 -0.03947054 -0.0057281377 -0.02860303
-0.14517252 0.0143243335 -0.05522216 0.27339616 -0.32345992 -0.04651496 0.8492447 0.036783952
-0.07826325 -0.14727569 -0.110090025 -0.09075772 -0.069081046 -0.13357963 -0.32073534 0.8746363
-0.09718508 -0.058928136 -0.004064942 -0.005222601 -0.07223423 -0.23407345 -0.033652652 -0.12631531
-0.0077402107 -0.035660114 -0.14634626 -0.03029175 -0.032344777 -0.066626675 -0.055627204 0.1589532
-0.05458575 0.23548289 0.002663404 0.6275688 0.0038526799 0.42021894 0.020934824 -0.09388291
-0.06905003 -0.0630725 -0.12230571 -0.06135829 0.030478172 0.3637068 -0.16962719 0.097111836
-0.025755655 0.20152418 -0.015727758 -0.16507514 -0.09027668 -0.082661726 -0.073771805 -0.36102504
-0.108639255 -0.050101515 -0.026480755 -0.056065015 -0.033658247 -0.14865957 -0.16838616 0.49009106
-0.10344137 -0.1438411 -0.05033806 -0.19163893 -0.064543545 0.3792401 -0.10755937 -0.0427639
-0.013902081 -0.06913793 -0.19883806 -0.14270064 -0.045721702 -0.11992288 -0.2659675 0.26274458
-0.10739941 -0.23323587 -0.007701727 -0.07560658 -0.091051765 -0.20818622 0.5761886 -0.12172585
0.024742918 -0.21110079 -0.13967836 -0.08389221 -0.072362065 -0.008764024 0.34303588 -0.07169888
-0.11247076 -0.029506722 0.5001471 -0.11931539 0.010271695 -0.034523975 -0.33545145 -0.10818653
-0.040429223 -0.06440347 -0.11854613 -0.22296315 -0.03877589 -0.016075473 -0.021546308 0.01856808
-0.16935718 0.009457544 0.030035676 -0.11182001 -0.07343186 -0.11932306 0.0924537 -0.17338373
-0.26432776 0.037581977 0.010029176 -0.08399311 -0.091799036 -0.08535146 -0.15441982 -0.12411391
-0.050729018 -0.064732805 -0.0627415 0.021067465 -0.057864584 0.00096371217 0.0038051722 -0.103966095
0.18281141 -0.0555322 0.023249883 0.39110622 -0.14522186 0.019941915 -0.07022742 -0.16757363
00000000: 328f d0bc 6a76 11be 6096 39bd 73bb 9abd
00000010: e13c 65bd 53ca 0abe 3711 32bc 27b7 76bd
00000020: 9aa9 88bd 706b 57bd 487b 03be 753b ab3e
00000030: 10d8 7cbd 8c0b cb3c 7e85 f93c 03c4 883c
00000040: 4e0d 08be 3ac0 ac3c ef68 08bd 6409 1cbc
00000050: 551a 76bd 4d34 42bd 0df7 18bd 210d 75be
00000060: 5640 4d3c ff40 f2bc 903e 66bd 7adb 68bd
00000070: 4ef7 60be b951 153d 9a2c 54bd 1bd1 80bd
00000080: 318a f4be 874e 17be a5d7 543f cde3 05be
00000090: d5eb 51be be41 09bd dbf3 983c f258 b9bd
000000a0: 6557 afbd 6004 59bb d5a5 07be 0013 40be
000000b0: 01ca 71bd 7931 1cbd 5825 1bbd a0fb c6bd
000000c0: 7e20 20be 5121 6f3e 40c5 da3c e56a 63bd
000000d0: ca90 19be e1eb a1bd 5b36 14be 5dad 51bd
000000e0: 9251 15be 837a 34bd e964 c9bd d1d5 1cbe
000000f0: cd70 36bd c19e d6bc ff26 ed3c 7779 c5bd
00000100: 45e8 58bd e2b4 ff3b 36e2 a23b 275c 633c
00000110: 8acd 5fbe e279 5c3b 8df2 66be de72 57be
00000120: 47eb 0dbd c636 13be e3d5 99bd 12fb f7bd
00000130: 28d9 e9bd 8b2a 81bd 00b7 103e b03f a7bd
00000140: 9f3a 793d 744d 06be b91a 9abd 9a4d 153e
00000150: fdca ebbd 2fc6 a5bd 9345 9ebc 1dd2 783c
00000160: e994 13be 54f7 03be 8ff7 9bbd dfe5 1bbd
00000170: 3030 c2bd 437d 8ebd b913 db3c 555c 86bd
00000180: 9afb 83bd 025b f4bd 3420 13bd c10a f8bb
00000190: fad1 46bd 2509 02be 84a6 72bd 675d ab3d
000001a0: f195 03be 15e7 e83e b655 2e3c d20d 6fbd
000001b0: a88e 49be dcab 21bd 1ab3 bbbb e750 eabc
000001c0: 1ba8 14be 9cb0 6a3c a230 62bd 95fa 8b3e
000001d0: 8a9c a5be 7886 3ebd 1a68 593f c5aa 163d
000001e0: 7c48 a0bd 70cf 16be e176 e1bd 2fdf b9bd
000001f0: 5d7a 8dbd 19c9 08be 6c37 a4be 2ae8 5f3f
00000200: f908 c7bd a15e 71bd 3433 85bb 5a22 abbb
00000210: 8aef 93bd f3b0 6fbe 5dd7 09bd cd58 01be
00000220: 98a1 fdbb 5710 12bd cbdb 15be 6726 f8bc
00000230: f57b 04bd 9173 88bd 5ad9 63bd a1c4 223e
00000240: 4f95 5fbd 6d22 713e 818c 2e3b 59a8 203f
00000250: 3e7d 7c3b f026 d73e 827f ab3c af45 c0bd
00000260: 1a6a 8dbd 282c 81bd 6b7b fabd d552 7bbd
00000270: 5cad f93c c737 ba3e c0b2 2dbe 92e2 c63d
00000280: 86fd d2bc 5b5c 4e3e 80d7 80bc 7509 29be
00000290: fbe2 b8bd 8d4a a9bd ac15 97bd 46d8 b8be
000002a0: 427e debd 3f37 4dbd 2bee d8bc 6ea4 65bd
000002b0: 3bdd 09bd 373a 18be 6c6d 2cbe 37ed fa3e
000002c0: 12d9 d3bd 154b 13be 482f 4ebd ff3c 44be
000002d0: 682f 84bd c22b c23e 1648 dcbd 3329 2fbd
000002e0: 8ec5 63bc 3098 8dbd 349c 4bbe 1e20 12be
000002f0: ae46 3bbd 209a f5bd e42c 88be 7586 863e
00000300: 39f4 dbbd 62d5 6ebe c55e fcbb 9fd7 9abd
00000310: 5979 babd c52e 55be 1981 133f 674b f9bd
00000320: a9b1 ca3c ce2a 58be d807 0fbe aecf abbd
00000330: 9032 94bd fb96 0fbc 66a2 af3e ddd6 92bd
00000340: 1257 e6bd 15b8 f1bc a409 003f a15b f4bd
00000350: 9d4a 283c 0369 0dbd 4bc0 abbe e690 ddbd
00000360: 1d99 25bd f7e5 83bd 50c8 f2bd 7450 64be
00000370: 78d3 1ebd b6b0 83bc e281 b0bc 161c 983c
00000380: f86b 2dbe d1f3 1a3c 610d f63c e401 e5bd
00000390: 7163 96bd a65f f4bd 5e58 bd3d 818b 31be
000003a0: f855 87be 8fef 193d 6a51 243c 9404 acbd
000003b0: 2201 bcbd bfcc aebd 3b20 1ebe 6f2f febd
000003c0: 3bc9 4fbd a292 84bd 9e7e 80bd ad95 ac3c
000003d0: 6a03 6dbd a1a1 7c3a 3260 793b 2dec d4bd
000003e0: ea32 3b3e bb75 63bd 8a76 be3c 133f c83e
000003f0: 0ab5 14be 3a5d a33c 65d3 8fbd 6c98 2bbe

network.4.weight f4 [1, 256]
0.0049170027 -0.043384574 -0.020527538 0.007265971 -0.008427814 -0.042517815 -0.025580259 -0.07495956
0.0057568704 0.020022055 0.066519774 -0.37892085 0.0018637998 -0.040399686 -0.00032623383 -0.03578461
-0.08358772 0.012543239 -0.057108887 0.014148457 0.07876478 -0.033731174 -0.007260665 -0.037058838
0.009452238 0.8534399 0.008060014 0.040864814 -0.0020784275 -0.02939435 -0.034281746 0.024753986
0.40864348 0.02210948 -0.37855503 -0.0653471 0.019148396 -0.015633225 -0.040724356 0.063586235
-0.016512377 0.0031778617 0.06629716 -0.51766837 -0.030936085 0.059462406 -0.021704858 -0.006322918
-0.0053957477 -0.70507914 -0.040455975 -0.011351166 -0.018181205 -0.03884414 -0.050388396 -0.038420048
0.0006947789 0.01318861 -0.04963863 -0.064982735 -0.052263435 -0.026919175 -0.037560944 -0.022203287
-0.04277925 -0.01396554 -0.0069894483 -0.0003100714 -0.004912871 -0.019034551 0.024179092 0.05725953
-0.034235273 0.047430605 -0.006461057 -0.0510598 -0.058569565 0.014248354 -0.29998007 -0.0011500285
-0.26390237 0.05167157 -0.02035718 -0.2826478 -0.082132004 -0.01489107 -0.0013307116 -0.019518847
0.007147631 0.009332897 -0.018779786 0.010584614 -0.10854206 0.04181024 -0.01824567 -0.0026830016
0.064015135 0.088144355 -0.020289477 -0.0035519039 0.03795439 -0.015368895 -0.028347582 -0.6811351
0.102108136 -0.3492221 0.029347982 -0.0024139679 0.40565944 -0.0044500465 -0.03771695 -0.0028892392
0.08880572 0.53154665 -0.04738182 -0.40484974 -0.009095129 0.019569512 -0.73113 -0.015191488
-0.064107805 -0.0072510815 -0.027622744 -0.028193118 -0.05954806 -0.059539128 0.07692812 -0.5157434
-0.022516176 -0.0066970354 -0.012377168 -0.041144863 -0.040501148 0.03479404 -0.036115665 -0.056353234
-0.56102 -0.04563728 0.046633765 -0.027065538 -0.038419235 0.022368481 0.019254914 -0.4036212
0.010102999 -0.29482052 -0.010555307 -0.34098408 -0.03947507 -0.7017931 -0.017683268 -0.07684261
0.084445104 -0.026213685 -0.04418331 -0.06405716 0.0150408745 -2.0636322 0.6564593 0.49504197
-0.018169291 -0.6134301 -0.027196988 -0.04598963 -0.08565702 0.007144631 -0.030884279 0.012538215
-0.1232532 -0.04805256 0.038147062 -0.061831273 0.019675598 -0.07724737 0.15467107 -0.29523912
-0.013661659 0.045428183 0.0822778 -0.009230112 0.02770373 -0.44980848 -0.02627152 -0.03890313
0.0133777745 -0.0024147746 0.058396414 -0.0036493852 0.013268975 -0.06067247 -0.019119667 -0.83717597
-0.007791048 0.02548376 0.0035263211 -0.006260723 -0.04688898 0.010024554 -0.24838415 -0.048984557
0.013836522 -0.043322902 0.075872935 -0.06398849 0.015456117 0.0095896805 -0.4570876 -0.020150261
-0.06337571 -0.04084405 -0.23927633 -0.04564096 0.009411849 -0.016968394 0.2713149 -0.08075865
-0.04128105 0.0012318164 -0.08485258 0.028589988 -0.06815819 -0.000555005 -0.007731576 -0.008035308
5.1875533e-05 -0.038512103 0.019576726 -0.044990685 0.027432622 -0.06020505 0.51754296 0.028999109
0.03507554 -0.03878294 -0.041083638 -0.07915481 0.032576542 0.027281268 0.08193627 0.08032452
0.029700028 0.014829055 -0.10432673 -0.03886512 -0.008450739 0.014744318 -0.027023934 1.5032358
-0.4260051 -0.023134783 0.014427738 -2.2090466 -0.07798254 -0.016651671 -0.07913331 -0.06126698
00000000: cf1e a13b 06b4 31bd 5e29 a8bc 6217 ee3b
00000010: d014 0abc 2927 2ebd b18d d1bc 6684 99bd
00000020: 21a4 bc3b 4b05 a43c 853b 883d ea01 c2be
00000030: be4a f43a 247a 25bd 5d0a abb9 e292 12bd
00000040: 0a30 abbd 2882 4d3c 02eb 69bd eece 673c
00000050: 6e4f a13d b329 0abd dfea edbb 02cb 17bd
00000060: 8fdd 1a3c 0a7b 5a3f 260e 043c dd61 273d
00000070: 3a36 08bb 6bcc f0bc 046b 0cbd dfc8 ca3c
00000080: b839 d13e f11e b53c f7d1 c1be b3d4 85bd
00000090: 19dd 9c3c 4011 80bc 95ce 26bd 8039 823d
000000a0: f744 87bc ac43 503b cec6 873d ea85 04bf
000000b0: ac6d fdbc da8e 733d 63ce b1bc 7b30 cfbb
000000c0: d0ce b0bb 1180 34bf 2ab5 25bd 3efa 39bc
000000d0: c0f0 94bc 081b 1fbd 1064 4ebd 575e 1dbd
000000e0: d321 363a 0a15 583c e051 4bbd ab15 85bd
000000f0: 2f12 56bd 9a85 dcbc 81d9 19bd abe3 b5bc
00000100: 4b39 2fbd b8cf 64bc be07 e5bb 1491 a2b9
00000110: 26fc a0bb 59ee 9bbc 3b13 c63c f888 6a3d
00000120: 493a 0cbd 9846 423d 46b7 d3bb 1524 51bd
00000130: a4e6 6fbd ee71 693c fd96 99be 8ebc 96ba
00000140: 361e 87be 91a5 533d 1ac4 a6bc 36b7 90be
00000150: d334 a8bd adf9 73bc 466b aeba fde5 9fbc
00000160: ad36 ea3b 02e9 183c 11d8 99bc 176b 2d3c
00000170: 4d4b debd 3741 2b3d f177 95bc 4cd5 2fbb
00000180: 5e1a 833d 0785 b43d 1e36 a6bc 0fc7 68bb
00000190: 1076 1b3d d1cd 7bbc 3039 e8bc df5e 2ebf
000001a0: 121e d13d 3dcd b2be 2e6b f03c a933 1ebb
000001b0: 98b2 cf3e b2d1 91bb 177d 1abd 6459 3dbb
000001c0: c6df b53d 7113 083f 7013 42bd 7748 cfbe
000001d0: bc03 15bc 3e50 a03c 562b 3bbf b8e5 78bc
000001e0: f44a 83bd 7b9a edbb 1849 e2bc 41f5 e6bc
000001f0: abe8 73bd 4ddf 73bd 7d8c 9d3d c207 04bf
00000200: d873 b8bc ce72 dbbb 9bc9 4abc 8487 28bd
00000210: 88e4 25bd 3284 0e3d 05ee 13bd a6d2 66bd
00000220: 029f 0fbf 28ee 3abd 0c03 3f3d 8cb8 ddbc
00000230: 7d5d 1dbd 1b3e b73c 7bbc 9d3c 70a7 cebe
00000240: 0d87 253c b7f2 96be 2bf0 2cbc 7795 aebe
00000250: 9cb0 21bd b6a8 33bf 80dc 90bc a95f 9dbd
00000260: 8ef1 ac3d 15be d6bc 8ff9 34bd 6630 83bd
00000270: 006e 763c 8d12 04c0 b70d 283f 2476 fd3e
00000280: c4d7 94bc c109 1dbf 38cc debc 9f5f 3cbd
00000290: f36c afbd 821d ea3b 0701 fdbc 166d 4d3c
000002a0: 2c6c fcbd c3d2 44bd 1840 1c3d ca42 7dbd
000002b0: b82e a13c de33 9ebd 1862 1e3e 9529 97be
000002c0: 27d5 5fbc e712 3a3d 4381 a83d e539 17bc
000002d0: eff2 e23c 4c4d e6be 5f37 d7bc e358 1fbd
000002e0: 742e 5b3c 3241 1ebb 1431 6f3d 862a 6fbb
000002f0: 1d66 593c b283 78bd d9a0 9cbc 2a51 56bf
00000300: 0c4c ffbb 51c3 d03c da19 673b c026 cdbb
00000310: a90e 40bd 073e 243c 6a58 7ebe 08a4 48bd
00000320: 94b2 623c 5b73 31bd 4563 9b3d 660c 83bd
00000330: a73b 7d3c 091e 1d3c 6307 eabe 2912 a5bc
00000340: 20cb 81bd 174c 27bd db04 75be 04f2 3abd
00000350: 2834 1a3c 4d01 8bbc c9e9 8a3e cb64 a5bd
00000360: 5116 29bd e674 a13a 31c7 adbd 8d35 ea3c
00000370: 8596 8bbd c17d 11ba 2959 fdbb 86a6 03bc
00000380: ee94 5938 debe 1dbd 5f5f a03c 2748 38bd
00000390: 61ba e03c 9299 76bd b27d 043f 8a8f ed3c
000003a0: 5fab 0f3d dcda 1ebd 5147 28bd eb1b a2bd
000003b0: fb6e 053d f77c df3c 34ce a73d 2f81 a43d
000003c0: 794d f33c 91f5 723c 41a9 d5bd 0831 1fbd
000003d0: f874 0abc 2792 713c 4c61 ddbc 086a c03f
000003e0: 571d dabe 2885 bdbc 5262 6c3c 0561 0dc0
000003f0: 4fb5 9fbd 1669 88bc a510 a2bd 16f3 7abd
