Training/Model/model_actor_robot_subset_joint0_101.pt (torch, 289399 bytes, 6 tensors)

network.0.weight f4 [256, 10]
-0.0933759 -0.046624176 -0.17895955 -0.08205642 0.35041457 0.0620534 -0.29833323 0.03937454
-1.1092516 0.12343188 0.001371478 -0.09461151 0.28711545 -0.23668814 0.38297185 -0.07355946
-0.091840476 0.055334873 -0.47263202 0.14244542 -0.1041245 0.66698253 0.43327996 1.1293539
-0.93530095 1.0436071 1.1345651 1.0526417 -0.3712299 -0.52099675 -0.70629096 -0.2588538
0.57688457 0.025107393 -0.056562763 0.5981036 0.7961958 0.06641739 -1.7057827 0.34669414
2.1056564 3.0875716 -3.3421733 -0.20647132 -1.2478652 0.5921873 -0.3381989 1.2350669
-2.4573646 -0.37976652 -0.08833173 0.0020821658 0.2601225 -0.07930854 0.09698218 0.008158603
-0.19673647 0.07670044 -0.67109805 -0.071958594 -0.11225695 -0.6775046 0.56577384 0.08534754
0.015228713 -0.24446441 0.10575687 0.3261475 -1.0463036 -0.25121987 -3.0230517 0.35270917
-2.7632737 1.7248801 1.900202 -0.5690829 -2.6966794 -0.9743848 -1.4817235 -0.77027565
-0.12660295 -0.012509628 -0.17914157 -0.013212182 0.16275361 0.25150597 -0.61325043 -0.2617167
-1.088243 0.29586175 0.07293878 0.069807895 0.19074745 -0.035085615 -0.2219302 0.079972036
0.28628013 -0.1303173 -0.10434434 -0.14777564 -1.2788619 1.7798603 0.001963855 -1.1088338
3.1372688 1.3913789 0.29763287 -1.2953744 -1.3102454 -0.75810826 0.043884125 -0.0070591895
-0.18318336 0.107845254 -0.16190882 -0.26163808 0.26003903 0.08176839 -0.8242329 -0.045840822
0.13615872 0.18112977 -0.13944979 0.24877554 -0.04813787 -0.23344344 0.02346706 -0.0069048605
-0.7668146 0.22393334 1.4096237 0.8486237 -0.07916537 -1.5313796 -0.2158672 -0.058196258
3.4085286 2.2278912 -2.8449879 -2.4648337 -0.23810792 0.08594642 -0.050662857 0.26881307
0.078087434 -0.09757381 -0.65783113 0.17557223 -0.8623094 0.048643872 0.104800195 0.12145467
-0.26342025 0.26958445 0.019189065 -0.14852405 0.5788499 0.09232712 -1.09016 -0.025285136
-0.34764886 -0.0519974 -0.17421986 0.038598146 0.06794097 0.14370504 0.35721272 0.16120996
-0.40758786 0.101986185 1.6456809 0.5810411 -1.8374318 -0.7284172 -0.43246597 0.46062583
0.65814096 1.4247282 -2.0220351 1.5798689 -0.48701727 0.5459545 -0.2910781 0.20088592
0.18232414 -0.31894705 -0.15517695 0.02662728 -1.0584885 0.15928356 -0.16930634 0.29723018
0.6861629 0.40210468 0.13390021 0.034146268 -0.097856365 0.17446531 -0.89419687 0.13295534
0.7775522 -0.44298813 -2.185239 -0.2242712 -0.34785542 -3.127021 0.971609 0.14516525
-2.3686464 -0.0031964574 -1.1345547 2.3560395 0.01401623 0.16125204 -0.47489992 -0.007597193
-1.7566664 -2.9653163 -2.1260574 2.21276 -0.76473 -1.3571194 -3.4314744 0.8798762
-1.8362713 0.014771331 -1.4176948 -0.48546666 -1.1442783 1.1849177 -0.25233907 0.035529263
-0.39101848 0.17702816 0.12028178 -0.42382225 0.8707573 -0.1496562 -1.1479955 -0.04793658
0.13855122 0.35263708 -0.09787513 -0.08067331 -0.35473335 0.2970359 -0.17008531 0.07041701
-1.2071316 0.04933997 -0.3844291 -0.15347533 0.24160519 0.0018864941 -0.08183632 0.11275351
00000000: dd3b bfbd fef8 3ebd 2c41 37be 320d a8bd
00000010: 8a69 b33e b52b 7e3d 22bf 98be 3347 213d
00000020: f5fb 8dbf dac9 fc3d 2ac3 b33a aec3 c1bd
00000030: cc00 933e 605e 72be e314 c43e 58a6 96bd
00000040: dc16 bcbd d2a6 623d d3fc f1be 36dd 113e
00000050: 3a3f d5bd 5ebf 2a3f dfd6 dd3e ab8e 903f
00000060: e26f 6fbf eb94 853f 6e39 913f f7bc 863f
00000070: d811 bebe 0b60 05bf 7ccf 34bf 7c88 84be
00000080: b5ae 133f 05ae cd3c 5bae 67bd 511d 193f
00000090: 7dd3 4b3f d705 883d 1657 dabf e581 b13e
000000a0: 13c3 0640 c69a 4540 2be6 55c0 386d 53be
000000b0: 0cba 9fbf 9699 173f 6828 adbe ac16 9e3f
000000c0: 7645 1dc0 c270 c2be 44e7 b4bd f274 083b
000000d0: c72e 853e 846c a2bd 989e c63d a9ab 053c
000000e0: 4975 49be 1f15 9d3d 15cd 2bbf 075f 93bd
000000f0: f9e6 e5bd f170 2dbf 8ed6 103f b1ca ae3d
00000100: da81 793c e154 7abe 0f97 d83d cefc a63e
00000110: 47ed 85bf e49f 80be ae79 41c0 4c96 b43e
00000120: 7ad9 30c0 dfc8 dc3f d239 f33f 6baf 11bf
00000130: 6596 2cc0 4871 79bf 1ea9 bdbf c930 45bf
00000140: 34a4 01be 2ff5 4cbc e370 37be e877 58bc
00000150: e2a8 263e 64c5 803e fbfd 1cbf bbff 85be
00000160: 8c4b 8bbf 317b 973e ed60 953d 71f7 8e3d
00000170: 4d53 433e efb5 0fbd ac41 63be 61c8 a33d
00000180: 4f93 923e e671 05be 7cb2 d5bd 7f52 17be
00000190: bfb1 a3bf 76d2 e33f 05b4 003b 44ee 8dbf
000001a0: 03c9 4840 b418 b23f 5663 983e d4ce a5bf
000001b0: 1fb6 a7bf 6213 42bf d7bf 333d c650 e7bb
000001c0: 6b94 3bbe f9dd dc3d 6dcb 25be 6df5 85be
000001d0: d623 853e 3076 a73d ed00 53bf 96c3 3bbd
000001e0: 316d 0b3e 157a 393e edcb 0ebe 04bf 7e3e
000001f0: 372c 45bd cc0b 6fbe fe3d c03c 2b42 e2bb
00000200: f64d 44bf c84e 653e 8d6e b43f 673f 593f
00000210: 7421 a2bd 3f04 c4bf 4b0c 5dbe 335f 6ebd
00000220: 5525 5a40 c595 0e40 4814 36c0 d6bf 1dc0
00000230: 90d2 73be ad04 b03d db83 4fbd dea1 893e
00000240: 4eec 9f3d c7d4 c7bd 9f67 28bf 35c9 333e
00000250: 4fc0 5cbf cc3e 473d 7ca1 d63d 3abd f83d
00000260: 05df 86be f906 8a3e 6332 9d3c b016 18be
00000270: 822f 143f 0016 bd3d 5d8a 8bbf c622 cfbc
00000280: 08ff b1be 3afb 54bd b166 32be 1719 1e3d
00000290: a324 8b3d 6a27 133e 96e4 b63e 3914 253e
000002a0: 5baf d0be 22de d03d aca5 d23f 1cbf 143f
000002b0: f730 ebbf 8d79 3abf 2e6c ddbe 26d7 eb3e
000002c0: ed7b 283f 7e5d b63f 0669 01c0 2539 ca3f
000002d0: 545a f9be adc3 0b3f 3008 95be 0ab5 4d3e
000002e0: 2eb3 3a3e 074d a3be b5e6 1ebe 7421 da3c
000002f0: 8d7c 87bf 3b1b 233e a45e 2dbe 8e2e 983e
00000300: 5fa8 2f3f aae0 cd3e 231d 093e f5dc 0b3d
00000310: eb68 c8bd 09a7 323e 16ea 64bf 7225 083e
00000320: a90d 473f 57cf e2be f5da 0bc0 59a7 65be
00000330: 1b1a b2be 1d21 48c0 5ebb 783f 33a6 143e
00000340: e797 17c0 a87b 51bb 1739 91bf 5ac9 1640
00000350: 54a4 653c 411f 253e 1526 f3be e0f1 f8bb
00000360: 72da e0bf bec7 3dc0 5311 08c0 dc9d 0d40
00000370: 58c5 43bf 17b6 adbf 479d 5bc0 913f 613f
00000380: f00a ebbf 7403 723c 0677 b5bf 168f f8be
00000390: b677 92bf 62ab 973f 9632 81be 2287 113d
000003a0: 9333 c8be df46 353e 4b56 f63d 3bff d8be
000003b0: f3e9 5e3f 7a3f 19be 84f1 92bf 2659 44bd
000003c0: 5fe0 0d3e d98c b43e c272 c8bd 0c38 a5bd
000003d0: 9c9f b5be 1715 983e d82a 2ebe cb36 903d
000003e0: 4a83 9abf b518 4a3d e4d3 c4be a328 1dbe
000003f0: 5a67 773e 3d44 f73a cd99 a7bd 50eb e63d

network.0.bias f4 [256]
-0.71582294 -0.70040137 -0.41972834 -1.1020544 -2.1146824 -0.6119381 -1.138063 -1.557216
-1.082842 -0.66597694 -0.9071272 -0.84316194 -0.9188676 -2.6373146 -0.65272653 -1.0833979
-0.6501254 -2.1516118 -1.1468487 -0.94623226 -2.023854 -1.8051269 -1.2477444 -0.97515476
-0.9878216 -0.7231724 -0.6156599 -0.9663455 -0.483537 -1.2107697 -0.7989438 -0.69504035
-1.1753275 -1.9952348 -0.89439434 -1.986695 -1.2187437 -2.2721283 -1.0210475 -2.3569527
-0.95461804 -0.93317986 -0.4134231 -1.0223976 -1.963977 -0.69314206 -1.0915205 -0.8349297
-1.124259 -1.6560926 -1.2116959 -1.8159732 -1.0208433 -1.1985928 -1.8785715 -1.8991323
-0.8070326 -0.36933142 -0.40066984 -0.21645212 -1.9148344 -0.8104415 -1.0590386 -0.33631447
-0.7034703 -0.93584514 -0.62394917 -0.8339906 0.4035259 -0.8405711 -0.7885653 -0.3280791
-0.75352883 -0.75200045 -1.0142671 -1.0923882 -1.0413047 -0.9258666 -1.257264 -1.2497844
-0.4541333 -0.8953322 -0.7948306 -0.28973767 -0.6073496 -1.585016 -0.88013285 -1.5084357
-0.8654215 -0.53407025 -0.94826496 -1.088625 -0.67142326 -0.8614895 -0.99917877 -1.3483679
-0.95506245 -0.7538544 -0.55970776 -1.2243599 -2.582613 -2.5873144 -0.8044557 -1.1885805
-1.4226635 -1.3769431 -2.1658928 -1.4731711 -0.7903761 -0.7308501 -0.78871316 -0.8678285
-1.1941648 -0.63999104 -0.789971 -0.4331749 -0.91661566 -0.8669299 -0.9857315 -0.75220096
-0.95334965 -0.44568342 -0.99145687 -0.9074973 -0.7936691 -0.7578524 -1.6831237 -1.4928613
-0.8161628 -3.192193 -0.68822086 -0.9806258 -1.3942455 -0.8649707 -1.4171885 -0.44741547
-0.26167005 -1.759615 -0.7835508 -2.0094938 -0.87239176 -0.89056957 -1.1348882 -2.067112
-0.96433836 -0.7052042 -0.8381916 -0.7641348 -0.8237962 -1.8166213 -0.74711436 -1.1352549
-0.6487756 -1.3574605 -1.3790673 -0.7536841 -0.88505274 -0.58168036 -1.4831874 -0.31145912
-0.89089847 -0.9399588 -1.1977135 -0.7096863 -1.775878 -0.89638007 -1.1201988 -1.2905812
-0.9271071 -1.0541973 -1.5931052 -2.0188558 -0.4367216 -1.8818521 -1.365022 -0.98797053
-1.0905579 -0.89447635 -1.0631614 -1.1206702 -2.160677 -1.6885518 -1.1684436 -1.0168891
-1.1063942 -0.81862354 -0.5689375 -1.6670547 -0.9301115 -0.79320186 -2.5042593 -1.2679764
-1.2903544 -1.6411401 -0.91647685 -0.8073039 -1.2682794 -1.572034 -1.7161778 -1.155923
-1.0005339 -0.82169545 -0.98593915 -0.9374462 -0.86123544 -2.1037946 -0.92228174 -0.8070428
-1.6525824 -1.4227309 -1.0724062 -0.92796355 -0.7792873 -0.6254596 -1.9485837 -0.35378858
-0.7407518 -0.55114347 -0.21538877 -0.84111726 -0.87488997 -2.3384316 -0.61754054 -0.9313401
-1.1799529 -0.47484586 -0.5807927 -1.4830427 -1.6839664 -0.727559 -0.2982541 -0.8545473
-1.2959883 -1.3735248 -0.7494088 -1.3377092 -1.6951326 -1.5688069 -0.63715345 -1.0083373
-1.9155682 -0.7444326 -1.1807034 -1.6499304 -1.3029064 -1.3543913 -1.5751339 -1.5910211
-1.5945662 -0.75414944 -0.96746147 -2.2563853 -2.2721992 -1.0869594 -0.73405844 -1.8039224
00000000: 2c40 37bf 814d 33bf a2e6 d6be 1e10 8dbf
00000010: f556 07c0 faa7 1cbf 0cac 91bf db52 c7bf
00000020: 919a 8abf 777d 2abf 7d39 68bf 76d9 57bf
00000030: e83a 6bbf c3c9 28c0 1619 27bf c8ac 8abf
00000040: 9e6e 26bf 02b4 09c0 f0cb 92bf 473c 72bf
00000050: d386 01c0 660e e7bf 17b6 9fbf bea3 79bf
00000060: e0e1 7cbf d421 39bf e39b 1dbf 6b62 77bf
00000070: 2992 f7be 80fa 9abf 9587 4cbf 2aee 31bf
00000080: 2271 96bf db63 ffbf 07f7 64bf 064c febf
00000090: cbff 9bbf 8d6a 11c0 afb1 82bf 50d8 16c0
000000a0: d961 74bf e0e4 6ebf 31ac d3be eddd 82bf
000000b0: 9963 fbbf c271 31bf f2b6 8bbf f4bd 55bf
000000c0: b8e7 8fbf d8fa d3bf da18 9bbf cf71 e8bf
000000d0: feaa 82bf 7d6b 99bf 0875 f0bf c416 f3bf
000000e0: b099 4ebf 0219 bdbe 9924 cdbe a0a5 5dbe
000000f0: 4b19 f5bf 1879 4fbf 948e 87bf 6931 acbe
00000100: a116 34bf 8c93 6fbf 22bb 1fbf 6880 55bf
00000110: f29a ce3e ab2f 57bf 6adf 49bf fcf9 a7be
00000120: 44e7 40bf 1a83 40bf 81d3 81bf 60d3 8bbf
00000130: 7949 85bf 9805 6dbf 07ee a0bf eff8 9fbf
00000140: 2984 e8be 7e34 65bf 057a 4bbf 7f58 94be
00000150: 437b 1bbf cee1 cabf 6350 61bf 6c14 c1bf
00000160: 438c 5dbf d4b8 08bf 7ec1 72bf 1058 8bbf
00000170: 65e2 2bbf 938a 5cbf 2eca 7fbf 5297 acbf
00000180: f97e 74bf 9afc 40bf 0249 0fbf d3b7 9cbf
00000190: 8849 25c0 8f96 25c0 cff0 4dbf 6823 98bf
000001a0: d619 b6bf ac3f b0bf fd9d 0ac0 df90 bcbf
000001b0: 1756 4abf fe18 3bbf 1be9 49bf 022a 5ebf
000001c0: 64da 98bf 74d6 23bf 8a3b 4abf 1ac9 ddbe
000001d0: 53a7 6abf 1eef 5dbf e658 7cbf 3e90 40bf
000001e0: b90e 74bf 9e30 e4be 1ed0 7dbf be51 68bf
000001f0: e62d 4bbf 9d02 42bf 9970 d7bf 1416 bfbf
00000200: 0cf0 50bf e44c 4cc0 3e2f 30bf 4b0a 7bbf
00000210: a376 b2bf b86e 5dbf 6f66 b5bf a413 e5be
00000220: 9ef9 85be 103b e1bf c996 48bf 8c9b 00c0
00000230: 1155 5fbf 5efc 63bf 0444 91bf 904b 04c0
00000240: e1de 76bf 4388 34bf ba93 56bf 579e 43bf
00000250: 4fe4 52bf 0c87 e8bf e342 3fbf 0850 91bf
00000260: 2816 26bf 44c1 adbf 4785 b0bf 71f1 40bf
00000270: d192 62bf 01e9 14bf 16d9 bdbf 9277 9fbe
00000280: ec11 64bf 24a1 70bf ad4e 99bf 00ae 35bf
00000290: f84f e3bf 2a79 65bf ad62 8fbf c431 a5bf
000002a0: e456 6dbf f0ef 86bf dfea cbbf ef34 01c0
000002b0: f999 dfbe 88e0 f0bf 0ab9 aebf a3eb 7cbf
000002c0: 6797 8bbf 67fc 64bf ac15 88bf 1f72 8fbf
000002d0: 8848 0ac0 7722 d8bf 8f8f 95bf 6c29 82bf
000002e0: 539e 8dbf 5091 51bf e3a5 11bf 0c62 d5bf
000002f0: ca1b 6ebf 470f 4bbf c945 20c0 0d4d a2bf
00000300: 552a a5bf e110 d2bf 3a9e 6abf 78ab 4ebf
00000310: fb56 a2bf 6938 c9bf b7ab dbbf 49f5 93bf
00000320: 7f11 80bf a25a 52bf 8266 7cbf 79fc 6fbf
00000330: ed79 5cbf 92a4 06c0 a81a 6cbf 5b9a 4ebf
00000340: d287 d3bf 0c1c b6bf 9b44 89bf 058f 6dbf
00000350: 5f7f 47bf 1f1e 20bf 316b f9bf c723 b5be
00000360: e9a1 3dbf bd17 0dbf e08e 5cbe 7653 57bf
00000370: caf8 5fbf dda8 15c0 2317 1ebf 4e6c 6ebf
00000380: b208 97bf ff1e f3be d5ae 14bf 58d4 bdbf
00000390: 368c d7bf 4e41 3abf c3b4 98be 9dc3 5abf
000003a0: f2e2 a5bf a9cf afbf 41d9 3fbf 0e3a abbf
000003b0: 1bfa d8bf aace c8bf 7d1c 23bf 3211 81bf
000003c0: 5731 f5bf 2393 3ebf 4a21 97bf eb30 d3bf
000003d0: a3c5 a6bf b25c adbf fd9d c9bf 94a6 cbbf
000003e0: bf1a ccbf f00f 41bf 8eab 77bf 9e68 10c0
000003f0: b66b 11c0 7c21 8bbf 41eb 3bbf eee6 e6bf

network.2.weight f4 [256, 256]
-0.087695695 -0.023748053 -0.0041594873 -0.06428024 -0.2106983 -0.01168948 0.009605444 -0.01240559
-0.0062830322 -0.007539615 -0.26223344 -0.030276965 -0.0028057918 -0.012237274 0.00798781 -0.05677402
0.019404128 -0.3554921 -0.1324349 0.0023792027 -0.025272127 -0.025013778 -0.04379024 0.018533273
0.035673257 0.10550236 -0.096144006 -0.04097336 -0.099178225 -0.06784046 -0.04367655 0.0029715027
0.017939154 -0.093325764 -0.014913631 -0.14179127 -0.13767579 -0.9116117 -0.33492446 0.01172611
0.0047914367 -0.009324843 -0.023367723 -0.09406309 0.018861206 0.03782864 -0.12232362 -0.056264877
0.0937528 -0.31756985 0.016883621 0.012831643 -0.09762435 0.015592905 -0.047941573 -0.041006036
-0.040375024 -0.114798196 -0.042210385 -0.09775307 -0.12142894 -0.044829406 -0.07480264 -0.05375275
-0.033093885 -0.06039639 0.056612767 -0.05643895 -0.18966804 -0.52822423 -0.088412076 -0.02946147
-0.029208701 -0.005498342 -0.016828684 -0.02555397 -0.09194786 -0.062179852 -0.04234242 -0.062145248
-0.063478634 -0.10975664 -0.1013365 -0.044223137 -0.021042185 -0.03266516 -0.07155635 -0.08122304
0.013074338 0.0433596 -0.04669637 -0.085009545 0.017727064 0.004558156 -0.8286368 0.08891737
-0.05722578 -0.010681648 -0.015234962 0.0469776 -0.25606918 -0.8324859 -0.029136242 -0.09088663
-0.07167353 -0.22315612 -0.25326723 -0.7346813 -0.037214745 -0.09611489 -0.010559362 0.02161604
-0.033506654 -0.04879371 -0.12833361 -0.05223755 0.020281022 0.025192136 -0.109333284 -0.07690083
-0.091551915 0.02912005 -0.008833349 -0.10332659 -0.11611623 -0.0476379 -0.063143134 -0.043462053
-0.06445646 -0.005406802 -0.041837763 0.04971376 -0.0067999884 0.055094592 -0.017062047 0.013734819
-0.06234615 -0.33772054 -0.021513501 -0.2874401 0.060704116 -0.018115982 0.35056207 0.008731128
0.05183506 -0.018234283 -0.01151666 -0.08919763 -0.026118679 -0.06290843 -0.05232902 -0.0021342074
-0.04856216 -0.021975676 -0.14013416 -0.07074674 0.005758734 0.014742131 -0.030867621 0.020675916
0.16092297 0.051128745 -0.9661365 -0.05774404 0.2364883 0.0017668875 -0.052143626 0.015794177
-0.06307696 0.03820452 0.013842324 -0.06604716 -0.031100923 0.016779898 -0.035111815 0.004349432
-0.04767983 -0.0808213 -0.07462273 0.03311988 -0.011677247 -0.3496937 0.025990479 -0.013769627
-0.096652284 -0.1468638 -0.057143133 -0.2712412 0.024282921 -1.2449454 -0.6309765 -0.0034067482
-0.040649485 -0.0009605532 0.057963938 -0.07963877 -0.09332009 -0.04590606 0.028446585 -0.012571662
-0.0980981 -0.38848484 -0.05933146 0.04436282 0.09396358 -0.26637912 0.007524793 0.015258833
-0.2073163 -0.02748312 -0.008323282 -0.02588755 -0.031219086 -0.077483535 -0.08741578 -0.046189055
0.024208037 -0.063890055 0.0045685754 -0.055882566 -0.020699099 -0.03992878 -0.12595315 -0.052951902
-0.0024687252 0.012848262 -0.028749064 -0.04256629 -0.63170743 -0.066191204 -0.073690616 -0.10017029
-0.009928353 -0.053803068 -0.14708924 -0.052457843 -0.017584795 0.001017423 -0.027037844 -0.1005221
-0.05178963 -0.07713092 -0.02474513 0.005279225 0.033180214 -0.055400718 0.011585803 -0.461579
-0.024884302 0.025431111 0.011539884 0.0070307916 0.00449943 -0.024089796 -0.028864438 -0.03478967
00000000: cd99 b3bd 478b c2bc 4f4c 88bb 5ca5 83bd
00000010: 4cc1 57be 3c85 3fbc 2760 1d3c d140 4bbc
00000020: e5e1 cdbb e00e f7bb 7643 86be 6607 f8bc
00000030: 60e1 37bb d97e 48bc 4edf 023c e08b 68bd
00000040: 68f5 9e3c 0f03 b6be 049d 07be 66ec 1b3b
00000050: 7e07 cfbc b2e9 ccbc 655d 33bd 17d3 973c
00000060: 1f1e 123d 9f11 d83d 26e7 c4bd afd3 27bd
00000070: f41d cbbd f0ef 8abd 2fe6 32bd 8bbd 423b
00000080: 22f5 923c 9421 bfbd 4d58 74bc bb31 11be
00000090: e2fa 0cbe 625f 69bf 387b abbe df1e 403c
000000a0: 7c01 9d3b 3ac7 18bc ab6d bfbc 26a4 c0bd
000000b0: d182 9a3c 34f2 1a3d ce84 fabd 0076 66bd
000000c0: 7801 c03d 8498 a2be 854f 8a3c d03b 523c
000000d0: 46ef c7bd 6279 7f3c 625e 44bd f2f5 27bd
000000e0: 4860 25bd 511b ebbd cce4 2cbd c332 c8bd
000000f0: bcaf f8bd 0a9f 37bd 2032 99bd d82b 5cbd
00000100: 748d 07bd 3462 77bd cae2 673d 872c 67bd
00000110: 5738 42be b439 07bf 6411 b5bd 2e59 f1bc
00000120: 1647 efbc 702b b4bb 4fdc 89bc 8f56 d1bc
00000130: 294f bcbd 4db0 7ebd 3f6f 2dbd 048c 7ebd
00000140: 1601 82bd 17c8 e0bd 8389 cfbd 5223 35bd
00000150: a960 acbc e7cb 05bd 238c 92bd 4458 a6bd
00000160: c035 563c d699 313d b144 3fbd 7c19 aebd
00000170: 5938 913c 955c 953b 8b21 54bf 4f1a b63d
00000180: 9465 6abd 1402 2fbc 109c 79bc 956b 403d
00000190: 801b 83be cc1d 55bf 21af eebc c522 babd
000001a0: 92c9 92bd 0a83 64be 3eac 81be 1314 3cbf
000001b0: 7d6e 18bd e2d7 c4bd 2d01 2dbc 1f14 b13c
000001c0: 463e 09bd eadb 47bd e369 03be 0bf7 55bd
000001d0: 6324 a63c bd5f ce3c 21ea dfbd 2f7e 9dbd
000001e0: 927f bbbd 2c8d ee3c c0b9 10bc e49c d3bd
000001f0: 59ce edbd f51f 43bd 3051 81bd 4405 32bd
00000200: c001 84bd 8b2b b1bb 135e 2bbd a8a0 4b3d
00000210: 70d2 debb deaa 613d b5c5 8bbc 0208 613c
00000220: ad5e 7fbd b5e9 acbe 153d b0bc 592b 93be
00000230: e1a4 783d f867 94bc df7c b33e 010d 0f3c
00000240: 0051 543d 1060 95bc 60b0 3cbc 3fad b6bd
00000250: d7f6 d5bc 23d6 80bd f456 56bd 0fde 0bbb
00000260: 1ee9 46bd 5506 b4bc 547f 0fbe abe3 90bd
00000270: c3b3 bc3b fb88 713c 18de fcbc 8a60 a93c
00000280: fec8 243e 606c 513d b954 77bf 0485 6cbd
00000290: fd29 723e e896 e73a 8e94 55bd ca62 813c
000002a0: 7e2e 81bd 587c 1c3d eaca 623c bc43 87bd
000002b0: 5dc7 febc ff75 893c 68d1 0fbd ae85 8e3b
000002c0: ed4b 43bd a385 a5bd cdd3 98bd b6a8 073d
000002d0: ec51 3fbc 0d0b b3be fce9 d43c 009a 61bc
000002e0: a2f1 c5bd 7763 16be eb0e 6abd 20e0 8abe
000002f0: faec c63c 5f5a 9fbf ad87 21bf c043 5fbb
00000300: 1380 26bd a2cd 7bba 986b 6d3d a719 a3bd
00000310: 9a1e bfbd fe07 3cbd d008 e93c 5ff9 4dbc
00000320: a8e7 c8bd 7ce7 c6be 8c05 73bd cab5 353d
00000330: fa6f c03d d862 88be 8a92 f63b 2f00 7a3c
00000340: b94a 54be 4824 e1bc 605e 08bc 2112 d4bc
00000350: 2bbf ffbc b0af 9ebd 0b07 b3bd bc30 3dbd
00000360: ef4f c63c cad8 82bd fdb3 953b 1ee5 64bd
00000370: 2891 a9bc 5c8c 23bd ddf9 00be 18e4 58bd
00000380: 56ca 21bb 8481 523c 2883 ebbc fd59 2ebd
00000390: 94b7 21bf 418f 87bd 1beb 96bd 1526 cdbd
000003a0: 88aa 22bc 9b60 5cbd 909e 16be 09de 56bd
000003b0: fd0d 90bc 0d5b 853a 787e ddbc 88de cdbd
000003c0: 5d21 54bd d1f6 9dbd 4db6 cabc 59fd ac3b
000003d0: fae7 073d ddeb 62bd 61d2 3d3c 1554 ecbe
000003e0: 2ada cbbc e854 d03c c811 3d3c 8e62 e63b
000003f0: f46f 933b f757 c5bc 1d75 ecbc 9d7f 0ebd

network.2.bias f4 [256]
-0.48441556 -0.35168946 -0.4423235 -0.5083201 -0.26318738 -0.16996743 0.79694194 -0.34372392
-0.3779395 -0.8496512 -0.30453163 -0.3762936 -0.34637088 -0.37013528 -0.040884342 -0.34523302
-0.44172418 1.3343554 -0.20111288 1.003741 -0.06209867 -0.20078109 -2.387612 -0.3515246
-0.5394153 -0.18437625 -0.5430531 -0.29672414 -0.45836094 -0.3663949 -0.43057173 -0.09869302
-0.5138029 -1.0304068 -0.6083667 -0.7483572 -0.52162856 0.5054497 1.0458814 -0.16691041
-0.13777217 -0.20951313 -0.0500539 0.2572579 -0.22051752 -0.3076789 -0.25642905 -0.25682527
-0.3974659 -0.07574913 -0.28301683 -0.0778567 -0.6865298 0.5273806 -0.4687193 -0.10349205
-0.48204356 -0.40527892 -0.3106025 -0.11535372 1.9041677 -0.6783052 -0.10601496 -0.08801913
-0.32882437 -1.5095849 -0.6478602 -0.36012346 -0.08156062 1.289775 -0.30828887 -0.11357962
-0.14801039 -0.5034603 -0.279237 -0.4959715 -1.1181837 -0.67821115 -0.2515634 -0.28257516
-0.15642029 -1.0555761 -1.3439009 -0.42895687 -1.35065 0.39774618 1.9265383 -0.07692754
-0.6462445 -0.34715965 -0.11668609 1.0620948 -0.8570177 0.6844096 -0.267976 -0.32995597
-0.2825952 -0.37707835 -0.3132986 -0.37355962 -0.12450345 -1.618774 -0.5139697 -0.27235684
-1.111872 -1.778694 -0.35544756 -0.2971855 -0.17130983 -0.14671147 -0.6769135 -1.0731643
-0.08365478 0.003225128 -0.9186889 -0.3675269 0.54173434 -0.79363805 -0.28338346 -0.09259452
-0.9522525 -0.18183821 1.4371083 -1.4258381 1.6330281 -0.4256568 -0.45403534 -0.47789258
-0.23547067 -0.33884525 -0.35224873 1.8214321 0.7027193 -0.66451156 -0.16629133 -0.14198892
-0.09122151 -0.34772688 -0.35190195 -0.16518359 -0.42232665 -0.5740403 -0.26133442 1.1171097
-0.59445786 -0.14415199 -1.2050302 -0.23592125 -0.22571512 0.4035411 -0.6683371 1.2242832
-1.980522 -1.0835259 -0.88063294 -2.1044328 -0.19138846 -0.3874548 -0.34724152 -0.549248
-0.10454568 -0.26896954 -0.42251948 -0.42944124 -0.3614018 -0.62375927 -0.32761824 -0.066315755
-0.8685106 -0.540542 -0.9743652 -1.8629892 -0.41130957 -0.29196087 -0.3744814 -0.3325067
-0.2904168 0.09083561 0.6181222 -0.73499537 -0.16427106 -0.34736973 -0.7974229 -0.45168453
-0.13244277 -0.4189059 -0.3404833 -0.69570285 -0.09668368 -0.35201806 -0.7367113 -0.70322406
-0.44726765 -0.09224914 -0.46664715 -1.0768538 -0.7894912 -0.41149968 -0.9693092 -1.4329224
0.8516905 -0.108941615 -0.8167002 -0.5189108 0.45020375 -0.29878616 -0.2847193 -0.5573057
-0.2044493 2.6252813 -0.78503406 -0.26605523 -1.2091025 -0.8468993 -1.1353029 -0.189666
-0.8470899 -0.38161793 -0.09054255 -0.5850432 -0.43447635 -0.62101805 -0.3308091 -0.32746956
-0.21592264 -0.45849213 -0.1483576 0.83156717 -0.057624284 -0.2715107 -0.48810568 -0.41982073
-0.20649318 -0.4633243 -0.84056383 -0.069105715 0.1269659 -0.15555009 -0.46119875 -0.37540022
0.06446893 1.2749103 -0.2873955 -0.34680507 -0.30186155 -0.37639585 -0.4991662 -0.40497205
-1.373767 -0.5027414 -0.21015283 -0.06609641 -0.49135634 -0.35552606 -0.3740332 -0.29090083
00000000: 5105 f8be a410 b4be 3a78 e2be 4421 02bf
00000010: 7fc0 86be f10b 2ebe 6304 4c3f 95fc afbe
00000020: 4981 c1be be82 59bf 92eb 9bbe 8ea9 c0be
00000030: 8657 b1be 5f82 bdbe 5776 27bd 62c2 b0be
00000040: ac29 e2be 28cc aa3f 89f0 4dbe 967a 803f
00000050: 2d5b 7ebd 8f99 4dbe a3ce 18c0 08fb b3be
00000060: 1f17 0abf 21cd 3cbe 8705 0bbf 3aec 97be
00000070: 49ae eabe 1d98 bbbe e673 dcbe 911f cabd
00000080: 9688 03bf 5fe4 83bf ecbd 1bbf 5694 3fbf
00000090: 7389 05bf 2765 013f 71df 853f 90ea 2abe
000000a0: 2614 0dbe 9c8a 56be 5105 4dbd 4fb7 833e
000000b0: 58cf 61be 1788 9dbe ab4a 83be 9a7e 83be
000000c0: a780 cbbe 5c22 9bbd 95e7 90be 5573 9fbd
000000d0: 6bc0 2fbf 6a02 073f fafb efbe a4f3 d3bd
000000e0: 6ace f6be b880 cfbe 4a07 9fbe 923e ecbd
000000f0: c4bb f33f 69a5 2dbf 5f1e d9bd 6043 b4bd
00000100: ab5b a8be 143a c1bf 2bda 25bf 1a62 b8be
00000110: 4109 a7bd 5917 a53f 0ad8 9dbe 6f9c e8bd
00000120: 0990 17be c6e2 00bf 27f8 8ebe faef fdbe
00000130: a520 8fbf 3f9f 2dbf ebcc 80be b1ad 90be
00000140: a42c 20be 1e1d 87bf f204 acbf 3ca0 dbbe
00000150: 19e2 acbf 63a5 cb3e cf98 f63f 308c 9dbd
00000160: 4870 25bf e9be b1be 1ef9 eebd b9f2 873f
00000170: 8365 5bbf 7835 2f3f 2634 89be fdef a8be
00000180: 51b0 90be 6a10 c1be ad68 a0be 3543 bfbe
00000190: aafb febd fd33 cfbf 8593 03bf 5b72 8bbe
000001a0: d251 8ebf 3fac e3bf 39fd b5be b328 98be
000001b0: d86b 2fbe 883b 16be 344a 2dbf 735d 89bf
000001c0: 3353 abbd ab5c 533b 322f 6bbf 7c2c bcbe
000001d0: 1aaf 0a3f dd2b 4bbf a317 91be 32a2 bdbd
000001e0: d2c6 73bf cc33 3abe 2af3 b73f dd81 b6bf
000001f0: 1107 d13f b0ef d9be 5277 e8be 56ae f4be
00000200: 391f 71be 207d adbe f259 b4be b024 e93f
00000210: 69e5 333f 6e1d 2abf 4648 2abe 8b65 11be
00000220: 58d2 babd 4209 b2be 7e2c b4be e325 29be
00000230: 333b d8be 4ef4 12bf a0cd 85be 73fd 8e3f
00000240: 642e 18bf 949c 13be 6e3e 9abf 5795 71be
00000250: dd21 67be f09c ce3e 2418 2bbf 50b5 9c3f
00000260: bf81 fdbf fab0 8abf 2971 61bf 07af 06c0
00000270: 56fb 43be 7a60 c6be a4c9 b1be 849b 0cbf
00000280: 0c1c d6bd 60b6 89be 7954 d8be b9df dbbe
00000290: a809 b9be b0ae 1fbf 94bd a7be 8ed0 87bd
000002a0: b656 5ebf f660 0abf ff6f 79bf 6e76 eebf
000002b0: 2b97 d2be e57b 95be 07bc bfbe 513e aabe
000002c0: 83b1 94be 0508 ba3d 423d 1e3f a828 3cbf
000002d0: ac36 28be 72da b1be e823 4cbf 3243 e7be
000002e0: 149f 07be d67a d6be d453 aebe 9519 32bf
000002f0: 1802 c6bd b63b b4be 1d99 3cbf 7e06 34bf
00000300: 4400 e5be 1eed bcbd 60ec eebe 58d6 89bf
00000310: 181c 4abf 16b0 d2be a624 78bf 006a b7bf
00000320: 6308 5a3f c81c dfbd 4413 51bf 57d7 04bf
00000330: 1b81 e63e 80fa 98be bac6 91be 96ab 0ebf
00000340: 285b 51be 9c04 2840 fef7 48bf 6438 88be
00000350: dfc3 9abf 64ce 58bf 9b51 91bf ce37 42be
00000360: e2da 58bf 6d63 c3be 5f6e b9bd 64c5 15bf
00000370: af73 debe 0afb 1ebf cf5f a9be 17aa a7be
00000380: d31a 5dbe 7bbf eabe 0eeb 17be 96e1 543f
00000390: 7107 6cbd 7303 8bbe fde8 f9be bef2 d6be
000003a0: f372 53be d838 edbe 312f 57bf 4c87 8dbd
000003b0: 5903 023e 8648 1fbe 3e22 ecbe 7534 c0be
000003c0: 4908 843d 4330 a33f 8125 93be 6f90 b1be
000003d0: 998d 9abe f5b6 c0be b692 ffbe 7f58 cfbe
000003e0: 99d7 afbf a9b3 00bf 4e32 57be 8e5d 87bd
000003f0: 0f93 fbbe 8307 b6be 4881 bfbe f4f0 94be

network.4.weight f4 [12, 256]
-0.07777452 0.1646222 0.4224808 -0.008987318 0.059908755 -0.08117351 0.3913873 -0.14070699
0.024417039 -0.13511138 0.01869601 -0.1259797 -0.23357268 0.13437384 0.059295192 0.1849784
0.34007648 -0.78984225 -0.051643457 -0.098035894 0.08474827 -0.4637312 -0.17707597 -0.2460895
-0.1480051 -0.39814404 -0.59512407 -0.02095625 -0.93721664 -0.12295076 0.19057463 0.0035504499
0.43763256 0.05516259 0.7764681 -0.0734181 0.31280118 0.92670214 -0.2085803 -0.12363727
0.1461216 -0.0413293 0.07592534 -0.21029735 0.24058014 0.45435825 0.120108716 0.01855431
-0.1505333 0.08240807 0.18124564 0.004650543 -0.12993583 -0.76391125 -0.22673635 -0.024842799
0.32822305 0.001610905 -0.06616382 0.04819729 -0.27548757 0.19960777 0.000930177 -0.045573577
0.8498243 -0.0017461223 0.28651744 -0.34370402 0.07267462 -0.02930524 -0.21701957 -0.051433507
-0.16154578 0.16653933 -0.138363 -0.25670284 -0.9255253 -0.27026865 0.1685265 0.09905644
-0.008414431 -0.56442434 0.6827283 0.14524974 -0.2911806 0.20307395 0.28487784 0.06152649
-0.12523834 0.026351348 -0.00955375 0.042438634 0.35901183 0.58999926 0.12822285 0.18754913
-0.068458706 -0.1630275 0.11845529 -0.06288188 0.028903592 -0.5858715 0.2673008 0.08388934
0.19876133 -0.25830835 0.0049552014 0.067204714 -0.044531025 0.15240934 -0.61595833 0.0025995001
0.113324985 -0.5779083 -0.17488208 -0.04994392 0.28459534 -0.046462003 -0.17323026 -0.03327389
-0.029372303 -0.20493059 0.2792699 -0.37921098 0.16045794 0.13955349 -0.4151 -0.08531463
0.121986404 0.51883394 0.027179971 -1.1658617 -0.6414792 0.5920514 0.04776443 0.18794468
0.098256804 0.22754255 0.17714734 0.1095395 0.23156355 0.5726868 0.024996087 0.3335278
-0.220297 -0.03831802 0.2937653 -0.101843 -0.06695519 -0.22808419 0.33410886 0.54782575
0.24391879 -0.2393038 -0.3159322 -0.69050425 -0.27059516 -0.021122761 -0.5948924 0.08037766
-0.0026436516 -0.08068634 -0.0033579087 -0.067780934 0.5923374 0.47013757 -0.06009708 0.107048005
0.4051398 -0.25710905 -0.2092697 0.015849862 0.080013156 -0.17487939 0.2048334 -0.1261079
-0.112161055 0.23464811 -0.24713404 -0.11708364 0.0069608684 0.19949523 0.29580492 -0.18602836
-0.07177354 -0.049198665 0.12599148 0.16149889 0.051845238 -0.14582478 0.4102861 0.49820113
0.30601692 -0.10540029 -0.13853544 -0.10033862 0.08257664 -0.18349347 0.7346602 0.55290425
0.01662136 0.0017527473 0.04371444 -0.086951606 -0.63357353 0.10494564 -0.5896019 0.20017965
0.05886507 -1.3176103 -0.2709246 -0.15967342 -0.26445976 -0.8468139 0.31230578 0.27334058
-0.5613834 0.053011466 -0.014057201 -0.07906808 -0.078248665 -0.08156629 -0.051756565 -0.02848321
0.16544355 -0.26330894 0.2640381 -0.17302689 0.0408078 -0.22803564 -0.25404438 -0.017689833
0.08058237 0.018976968 0.57351327 -0.023668867 -0.3818743 0.026174368 -0.5162406 0.037356015
-0.298199 0.30778462 0.13271122 0.08902769 -0.20945196 0.19142176 0.2349257 0.06410432
0.026420774 0.17751616 0.14927356 0.11364747 0.4601883 -0.2858817 -0.31838658 -0.10523981
00000000: 3f48 9fbd b992 283e 674f d83e 8b3f 13bc
00000010: e262 753d 4c3e a6bd eb63 c83e 7e15 10be
00000020: 3e06 c83c a35a 0abe 6028 993c d300 01be
00000030: ad2d 6fbe 4c99 093e 84df 723d fa6a 3d3e
00000040: 811e ae3e 1a33 4abf 1788 53bd 0bc7 c8bd
00000050: 8090 ad3d 2d6e edbe 6753 35be e3fe 7bbe
00000060: a68e 17be 89d9 cbbe 0d5a 18bf 71ac abbc
00000070: 6eed 6fbf 9ccd fbbd ff25 433e aaae 683b
00000080: 6011 e03e 2bf2 613d 9dc6 463f 3b5c 96bd
00000090: 7a27 a03e 5a3c 6d3f 1396 55be 8935 fdbd
000000a0: e7a0 153e e948 29bd bf7e 9b3d 3058 57be
000000b0: a45a 763e a5a1 e83e 8ffb f53d 35ff 973c
000000c0: 6725 1abe 90c5 a83d 7598 393e 9563 983b
000000d0: e60d 05be b08f 43bf 932d 68be 2083 cbbc
000000e0: da0c a83e 0125 d33a e680 87bd 866a 453d
000000f0: b50c 8dbe fb65 4c3e 1fd7 733a 5cab 3abd
00000100: 168e 593f 24de e4ba 6ab2 923e f9f9 afbe
00000110: 6ed6 943d 8b11 f0bc 613a 5ebe f1ab 52bd
00000120: 426c 25be 4989 2a3e 08af 0dbe 8e6e 83be
00000130: 3aef 6cbf a760 8abe 3692 2c3e 1ade ca3d
00000140: aedc 09bc 1d7e 10bf 48c7 2e3f 59bc 143e
00000150: a015 95be 9ef2 4f3e 82db 913e 3303 7c3d
00000160: 7b3e 00be c8de d73c 5587 1cbc 22d4 2d3d
00000170: 66d0 b73e 310a 173f da4c 033e e10c 403e
00000180: 1434 8cbd aef0 26be b098 f23d 37c8 80bd
00000190: 3ac7 ec3c adfb 15bf a7db 883e 2dce ab3d
000001a0: 1788 4b3e fe40 84be 3e5f a23b a0a2 893d
000001b0: 2a66 36bd 3211 1c3e 72af 1dbf 605c 2a3b
000001c0: ee16 e83d ccf1 13bf 4a14 33be ff91 4cbd
000001d0: 7bb6 913e f14e 3ebd 4663 31be 344a 08bd
000001e0: 2f9e f0bc 53d9 51be 77fc 8e3e f127 c2be
000001f0: 164f 243e 1ce7 0e3e fd87 d4be 70b9 aebd
00000200: 02d4 f93d 4dd2 043f 88a8 de3c f53a 95bf
00000210: fb37 24bf ae90 173f a3a4 433d 9274 403e
00000220: dd3a c93d ea00 693e 1d66 353e 3f56 e03d
00000230: ff1e 6d3e 9a9b 123f 98c4 cc3c 28c4 aa3e
00000240: 8995 61be 5bf3 1cbd 6868 963e 1093 d0bd
00000250: cd1f 89bd e78e 69be 5110 ab3e 4f3e 0c3f
00000260: d9c5 793e 0e0c 75be dec1 a1be e3c4 30bf
00000270: 738b 8abe a409 adbc de4a 18bf 0b9d a43d
00000280: 1d41 2dbb e13e a5bd 5c10 5cbb bbd0 8abd
00000290: 6da3 173f dfb5 f03e 5b28 76bd fc3b db3d
000002a0: 7c6e cf3e cca3 83be cc4a 56be 92d7 813c
000002b0: f0dd a33d 9513 33be d9bf 513e 6e22 01be
000002c0: b2b4 e5bd 9847 703e b510 7dbe 8cc9 efbd
000002d0: ff17 e43b 7a48 4c3e be73 973e 387e 3ebe
000002e0: 01fe 92bd 8a84 49bd e903 013e f75f 253e
000002f0: ac5b 543d 1753 15be 0511 d23e 3814 ff3e
00000300: 40ae 9c3e 1bdc d7bd 3cdc 0dbe 567e cdbd
00000310: f11d a93d b6e5 3bbe b112 3c3f 228b 0d3f
00000320: 8529 883c 71bc e53a ea0d 333d af13 b2bd
00000330: e031 22bf bded d63d 26f0 16bf e5fb 4c3e
00000340: 801c 713d 74a7 a8bf a1b6 8abe 6e81 23be
00000350: 4567 87be ccc8 58bf 8be6 9f3e 4cf3 8b3e
00000360: d3b6 0fbf 8d22 593d 2d50 66bc 72ee a1bd
00000370: d640 a0bd 3a0c a7bd b1fe 53bd 9f55 e9bc
00000380: 096a 293e 6ed0 86be 0030 873e f62d 31be
00000390: 1426 273d 2d82 69be 1b12 82be 45ea 90bc
000003a0: 5f08 a53d 9675 9b3c c4d1 123f 36e5 c1bc
000003b0: 0785 c3be a16b d63c 5828 04bf 9f02 193d
000003c0: 8aad 98be f295 9d3e 73e5 073e 2654 b63d
000003d0: 937a 56be 1104 443e 5d90 703e 2049 833d
000003e0: 6170 d83c ccc6 353e 2bdb 183e 01c0 e83d
000003f0: cd9d eb3e 165f 92be 9103 a3be f887 d7bd

network.4.bias f4 [12]
2.1840854 -0.7365536 -1.0214292 -0.2735983 -0.9020744 -2.0549564 -1.2160063 -1.3483478
-0.99002737 -1.1340532 -1.0615429 -0.8468781
00000000: 0ec8 0b40 c78e 3cbf 31be 82bf 1415 8cbe
00000010: 59ee 66bf 6884 03c0 18a6 9bbf a996 acbf
00000020: 6f72 7dbf a828 91bf a3e0 87bf 01cd 58bf
