Training/Model/model_actor_gym_InvertedPendulum_v4_01.pt (torch, 272343 bytes, 6 tensors)

network.0.weight f4 [256, 4]
0.3401502 0.4189564 -0.33090624 0.015407053 0.42322564 1.198649 0.20401947 0.13599168
0.011826918 -0.94347507 -0.30949837 0.15298356 -0.47450802 -0.07998677 -0.073963694 0.17056791
0.030654218 0.02805758 0.74309826 0.34113738 0.053159732 0.91301996 -0.13584909 0.22485232
-0.19333373 -1.475332 -0.47538725 -0.40687343 -0.5056964 -0.9819869 -0.5672034 -0.37800246
-0.3770824 -1.047251 -0.22948246 0.21811543 -0.092177615 0.58833677 -0.087915905 0.21688014
-0.7171181 1.4092513 -0.21151741 -0.115273915 0.35295787 -1.1415757 -0.48213914 -0.25363892
-1.2191144 -0.4795639 -0.05273015 -0.09115734 -0.12159409 0.72173077 0.5525009 0.25209352
-0.24986276 0.7306214 0.2176785 0.1590568 0.34413922 -0.9341109 -0.13418698 -0.043673288
-0.5204391 0.7974988 -0.33555576 0.3241599 -0.3589997 0.9191072 -0.18384878 0.013348939
-0.18269493 -1.3082404 0.0094121955 -0.23394372 0.26690724 1.2739103 -0.019470768 0.263137
0.42334336 1.2325324 -0.10100639 -0.21908902 -0.84155893 0.3041104 -0.31002638 -0.17293637
0.100423716 -1.2342066 -0.09578754 -0.18490317 0.38371953 1.2663263 0.5176961 0.22313693
0.15705064 1.518708 -0.19317792 0.051937167 -0.37449408 -0.36576253 0.20603615 0.08495072
0.21104446 -1.2384387 0.26969963 -0.12569585 -0.37906983 0.0022893953 -0.1183851 0.199246
0.31933552 -0.22586425 0.40187544 -0.45692745 -0.18439843 0.5052192 -0.08617804 -0.11127365
0.3518031 0.5941718 0.41007292 0.24543318 0.37599257 0.17397822 0.41850957 0.06793319
0.2639435 -1.352538 -0.23407078 -0.32489458 -0.060119726 -1.3690578 -0.28898674 -0.26042876
-0.8408347 -0.8962629 -0.37359777 -0.17028499 0.2177171 -1.0526534 -0.4254503 -0.28059712
0.62426263 0.55293036 0.18822612 -0.30315596 0.32906717 -0.9236906 0.008701396 0.169358
-0.5307737 -1.1247137 -0.37664822 -0.1386087 0.31230193 -1.3075165 -0.0066375406 -0.088224515
0.06526121 1.1432126 -0.19560677 -0.094372936 -0.25285298 0.27136776 0.3198263 0.34098485
0.19279331 1.30945 0.047437634 0.17141463 0.36474776 -0.1664279 0.48911464 0.2002134
0.4369688 0.9803162 0.5564135 0.12538591 -0.40484262 -1.4944518 -0.2405055 0.07987441
-0.102359906 0.8082586 0.41055942 0.23038748 0.44324282 -0.4059537 0.48278755 0.36395484
0.22287627 1.0142455 0.12747307 0.32652122 -0.25136095 0.84187376 0.3161105 -0.40017158
-0.20090348 -0.063067615 0.5060674 0.08743794 -0.46504813 0.9731433 0.26399383 0.18002893
-0.7675762 -0.18361339 -0.26850903 0.10424547 0.25927284 1.319996 -0.16198553 -0.17347561
0.015526981 0.1014308 -0.28503865 0.014728456 -0.36146104 -0.32236367 -0.15103579 0.37730882
0.34635156 -1.4973027 -0.012375242 -0.16032416 0.20337246 0.02643642 -0.17275506 -0.31392074
-0.2722187 -1.5702547 0.097542696 -0.10270422 -0.105021074 0.29543367 -0.5028383 -0.03179689
-0.014117098 -0.42892516 -0.40029728 -0.073684365 -0.05345874 1.3262017 -0.23829927 -0.32657826
0.24835846 -1.2862678 0.40278772 -0.13842186 -0.44175023 0.21691346 -0.44771886 -0.42204967
00000000: 2b28 ae3e 7481 d63e 8b6c a9be dd6d 7c3c
00000010: 08b1 d83e 556d 993f 7bea 503e 6741 0b3e
00000020: b1c5 413c 9587 71bf 9276 9ebe b9a7 1c3e
00000030: b7f2 f2be 1bd0 a3bd 477a 97bd 5ba9 2e3e
00000040: 8e1e fb3c 03d9 e53c b03b 3e3f 8fa9 ae3e
00000050: 05be 593d adbb 693f 061c 0bbe b03f 663e
00000060: 47f9 45be aed7 bcbf f565 f3be b751 d0be
00000070: 5275 01bf 7e63 7bbf 3e34 11bf 8a89 c1be
00000080: f210 c1be 520c 86bf 73fd 6abe a759 5f3e
00000090: 9ec7 bcbd 3d9d 163f 410d b4bd d415 5e3e
000000a0: 0d95 37bf 5962 b43f 0598 58be bb14 ecbd
000000b0: e5b6 b43e 271f 92bf f1da f6be f6dc 81be
000000c0: f10b 9cbf 6689 f5be 92fb 57bd b3b0 babd
000000d0: 5206 f9bd 59c3 383f b370 0d3f 6712 813e
000000e0: 06dc 7fbe 010a 3b3f 1de7 5e3e c9df 223e
000000f0: 0433 b03e e421 6fbf 5068 09be c3e2 32bd
00000100: 7f3b 05bf e228 4c3f f7cd abbe 49f8 a53e
00000110: cfce b7be 9c4a 6b3f db42 3cbe 82b5 5a3c
00000120: 6114 3bbe 6c74 a7bf 9c35 1a3c f18e 6fbe
00000130: 11a8 883e 7e0f a33f 2981 9fbc e5b9 863e
00000140: 76c0 d83e 9fc3 9d3f 70dc cebd df58 60be
00000150: 6870 57bf 5cb4 9b3e c7bb 9ebe 3b16 31be
00000160: f3aa cd3d 7bfa 9dbf 422c c4bd 4257 3dbe
00000170: e376 c43e fb16 a23f bb87 043f 027e 643e
00000180: e2d1 203e 0665 c23f 6fd0 45be 11bc 543d
00000190: b0bd bfbe 3a45 bbbe 24fb 523e a5fa ad3d
000001a0: 0a1c 583e 2985 9ebf 1216 8a3e 6ab6 00be
000001b0: 7115 c2be ae09 163b e373 f2bd 2507 4c3e
000001c0: f27f a33e f548 67be 9ec2 cd3e 65f2 e9be
000001d0: f1d2 3cbe 0c56 013f 1d7e b0bd 70e3 e3bd
000001e0: 891f b43e a51b 183f 14f5 d13e d652 7b3e
000001f0: 1982 c03e 5927 323e e346 d63e 8e20 8b3d
00000200: 9a23 873e f71f adbf 40b0 6fbe 9558 a6be
00000210: 1a40 76bd 493d afbf 12f6 93be eb56 85be
00000220: f140 57bf 7c71 65bf 3548 bfbe 305f 2ebe
00000230: 3bf1 5e3e 59bd 86bf 9fd4 d9be 6daa 8fbe
00000240: adcf 1f3f d88c 0d3f 59be 403e 4237 9bbe
00000250: 7e7b a83e fd76 6cbf 4d90 0e3c 2f6c 2d3e
00000260: c9e0 07bf 9ef6 8fbf 09d8 c0be 70ef 0dbe
00000270: 0ae6 9f3e b35c a7bf ba7f d9bb 0eaf b4bd
00000280: aba7 853d ca54 923f 244d 48be 9946 c1bd
00000290: f275 81be b7f0 8a3e 46c0 a33e 9195 ae3e
000002a0: 9c6b 453e 0f9c a73f f74d 423d 5187 2f3e
000002b0: 38c0 ba3e 136c 2abe 3c6d fa3e be04 4d3e
000002c0: 60ba df3e 01f6 7a3f 1d71 0e3f 2a65 003e
000002d0: 8847 cfbe 324a bfbf 1347 76be 3295 a33d
000002e0: 12a2 d1bd 09ea 4e3f d834 d23e b2ea 6b3e
000002f0: b9f0 e23e 2ad9 cfbe ee2f f73e 4a58 ba3e
00000300: ad39 643e ccd2 813f 4d88 023e ca2d a73e
00000310: 62b2 80be 0a85 573f 3cd9 a13e 4ae3 ccbe
00000320: a4b9 4dbe 9829 81bd a28d 013f aa12 b33d
00000330: ca1a eebe eb1f 793f 332a 873e 8159 383e
00000340: e07f 44bf 2605 3cbe 047a 89be a67e d53d
00000350: 69bf 843e a1f5 a83f 89df 25be 97a3 31be
00000360: e164 7e3c f4ba cf3d 96f0 91be 9f4f 713c
00000370: 6c11 b9be da0c a5be 20a9 1abe 9f2e c13e
00000380: fe54 b13e 9da7 bfbf 87c1 4abc 042c 24be
00000390: df40 503e 3191 d83c b4e6 30be 38ba a0be
000003a0: 4060 8bbe 1bfe c8bf 77c4 c73d 9756 d2bd
000003b0: 4a15 d7bd 1543 973e 03ba 00bf 753d 02bd
000003c0: 674b 67bc 149c dbbe c4f3 ccbe d4e7 96bd
000003d0: 8df7 5abd fac0 a93f b904 74be 4435 a7be
000003e0: ae51 7e3e 6ca4 a4bf 313a ce3e 76be 0dbe
000003f0: 162d e2be 901e 5e3e 683b e5be e516 d8be

network.0.bias f4 [256]
-0.308885 0.1426314 -0.021283435 -0.030464653 0.0059167524 -0.23039035 0.10081173 -0.21130273
0.005816861 -0.43748674 0.08070365 0.05453956 0.04784243 0.030490821 0.02829644 -0.020322034
-0.5230692 -0.08031819 0.06798752 0.29087904 0.022914179 0.04197713 0.28079307 0.027809858
0.25894517 -0.014526943 0.008857976 -0.41650367 -0.45339838 0.11240116 0.2571078 -0.24690793
0.10570507 0.06267006 0.042162895 0.022131333 -0.27555335 -0.00464165 0.029296262 -0.019101927
0.025861103 -0.029502036 -0.14277025 0.030082779 0.20594561 0.14289965 0.073582165 0.08753713
0.12889801 -0.37585646 -0.2157703 0.18621716 0.032547537 0.009016927 -0.08102699 -0.23706137
0.13059837 -0.34476215 0.15254772 -0.044311374 -0.21461815 0.09705463 -0.13417265 -0.5705451
-0.12933843 -0.21284182 -0.14934431 -0.13955498 0.17019862 0.17593305 -0.28754058 0.012560892
0.057133615 0.016086258 0.07144344 -0.3826482 0.1262717 0.08522718 0.049264796 -0.42553285
-0.016627539 0.16356552 -0.31981495 -0.39656058 -0.012175077 -0.08991873 0.013027392 0.24583948
0.14188337 0.009283281 0.01515015 0.122848846 -0.5374291 0.14784653 0.254625 0.060592823
-0.10609424 0.050844323 -0.3386414 0.092541195 -0.008515001 -0.4402578 -0.047783613 -0.50657374
0.022784054 -0.4905799 -0.41994867 -0.38322082 0.0991618 0.23214719 0.28318924 -0.013211987
0.002336209 -0.06093119 0.028044146 0.11809577 -0.23298943 0.11811329 0.07124468 -0.36503208
0.11566387 -0.3831301 -0.39884079 -0.46349496 0.14475836 -0.022114772 -0.16400522 0.13013138
-0.5342033 0.060269356 -0.02303021 -0.08114333 -0.4591423 -0.19367836 0.065480635 -0.22611585
-0.41847417 -0.26093888 0.114154704 -0.47403076 -0.25658786 0.024726396 0.05086213 -0.069608726
-0.016777704 -0.24723458 -0.3714843 -0.19333707 -0.061227713 0.13939613 -0.11298512 -0.031511854
-0.007856882 -0.100134015 0.09541127 0.33010077 0.042545814 0.019913815 -0.102250576 0.031172233
0.07339058 -0.14291814 0.23711692 -0.00467318 0.006472377 -0.106850855 0.22265697 0.031040056
-0.28937197 0.046462025 -0.003130568 0.02185108 -0.23389813 0.030858988 0.27656162 -0.015198595
-0.21396478 0.027496941 0.008133898 -0.10083279 0.05855498 -0.47867084 -0.08481509 0.26542145
-0.09219816 -0.13178147 -0.054544244 -0.33877197 -0.38565755 -0.11062167 0.07262392 -0.15758029
0.1674754 -0.31537133 -0.09799537 0.013357133 -0.33439365 -0.009871774 0.18695675 -0.41814363
0.07946661 -0.052114952 0.09357241 -0.26146805 0.011028272 0.13277182 0.14341232 0.023743235
0.04880768 -0.31569326 0.018652907 0.054066926 -0.03052572 0.17608978 -0.10405877 -0.36210248
0.04759707 -0.14506502 -0.31160238 -0.46577305 -0.1362721 -0.020054331 0.14669873 0.053958748
0.015396871 -0.13574158 0.049960375 0.3016433 0.23632915 -0.32946792 -0.3851288 -0.48657757
-0.47047415 0.037693318 -0.0027806726 0.26646832 0.024847455 -0.02342176 0.18201953 0.054091964
0.018787628 -0.41172987 0.17605643 -0.47690028 -0.51218164 0.07389834 -0.46486095 -0.06426414
-0.35114732 -0.37629294 -0.24816693 0.23654538 -0.005620716 -0.116436124 0.017105259 0.029103126
00000000: 2d26 9ebe f70d 123e 995a aebc 0291 f9bc
00000010: 51e1 c13b 73eb 6bbe 6176 ce3d be5f 58be
00000020: 5e9b be3b 43fe dfbe f547 a53d e064 5f3d
00000030: 6df6 433d e3c7 f93c f0cd e73c 657a a6bc
00000040: dde7 05bf dd7d a4bd 0a3d 8b3d 19ee 943e
00000050: 84b6 bb3c 36f0 2b3d 1cc4 8f3e 80d1 e33c
00000060: 7694 843e 6a02 6ebc 0b21 113c f83f d5be
00000070: d523 e8be 9432 e63d a2a3 833e 6fd5 7cbe
00000080: e67b d83d 2959 803d 00b3 2c3d c54c b53c
00000090: 5415 8dbe fb18 98bb b7fe ef3c a57b 9cbc
000000a0: aada d33c 41ae f1bc 5d32 12be 2970 f63c
000000b0: 68e3 523e 4954 123e 3fb2 963d ab46 b33d
000000c0: d7fd 033e 4270 c0be e4f2 5cbe b6af 3e3e
000000d0: 9150 053d bcbb 133c 7bf1 a5bd 37c0 72be
000000e0: 94bb 053e aa84 b0be 7835 1c3e d87f 35bd
000000f0: dcc4 5bbe 94c4 c63d 8e64 09be 3e0f 12bf
00000100: 4b71 04be 35f3 59be b7ed 18be 80e7 0ebe
00000110: 8c48 2e3e cb27 343e 8538 93be 33cc 4d3c
00000120: f004 6a3d 54c7 833c f050 923d 77ea c3be
00000130: 5e4d 013e 968b ae3d e2c9 493d 71df d9be
00000140: 7a36 88bc b87d 273e c9be a3be fd09 cbbe
00000150: f979 47bc 5027 b8bd d870 553c 58bd 7b3e
00000160: e049 113e e718 183c 5638 783c 2d98 fb3d
00000170: f494 09bf 1565 173e 355e 823e 2e30 783d
00000180: f047 d9bd 2342 503d 6862 adbe 3d86 bd3d
00000190: 8182 0bbc 7869 e1be c0b8 43bd d1ae 01bf
000001a0: a0a5 ba3c 4a2d fbbe 8303 d7be 8535 c4be
000001b0: 5815 cb3d feb7 6d3e 2efe 903e 1777 58bc
000001c0: 151b 193b fc92 79bd d6bc e53c 32dc f13d
000001d0: c894 6ebe 61e5 f13d bbe8 913d 7ce5 babe
000001e0: 2ee1 ec3d a129 c4be dc34 ccbe 364f edbe
000001f0: 893b 143e 0a2a b5bc fcf0 27be 2941 053e
00000200: 8cc1 08bf 00dd 763d daa9 bcbc 792e a6bd
00000210: b314 ebbe 9f53 46be b61a 863d ea8a 67be
00000220: 3f42 d6be c899 85be f1c9 e93d 29b4 f2be
00000230: 7c5f 83be 038f ca3c cf54 503d 058f 8ebd
00000240: 6571 89bc 102b 7dbe 3133 bebe 27fa 45be
00000250: e9c9 7abd dcbd 0e3e be64 e7bd 9312 01bd
00000260: 27ba 00bc 1013 cdbd fc66 c33d f802 a93e
00000270: 8544 2e3d 4c22 a33c c068 d1bd e95c ff3c
00000280: cd4d 963d 2259 12be c7ce 723e 7a21 99bb
00000290: 3c16 d43b 9fd4 dabd 3000 643e b747 fe3c
000002a0: 9028 94be f74e 3e3d 372a 4dbb 0901 b33c
000002b0: fe82 6fbe fdcb fc3c 7c99 8d3e 8703 79bc
000002c0: 9519 5bbe 4441 e13c 0a44 053c 6c81 cebd
000002d0: 59d7 6f3d 5814 f5be 89b3 adbd 52e5 873e
000002e0: 64d2 bcbd b9f1 06be c969 5fbd 8573 adbe
000002f0: e874 c5be 9d8d e2bd dabb 943d ba5c 21be
00000300: ac7e 2b3e 5a78 a1be ccb1 c8bd e0d7 5a3c
00000310: a535 abbe 39bd 21bc 9771 3f3e ec16 d6be
00000320: 64bf a23d 7d76 55bd e4a2 bf3d 24df 85be
00000330: edaf 343c 56f5 073e aeda 123e 2c81 c23c
00000340: 90ea 473d 8ca2 a1be fbcd 983c 4875 5d3d
00000350: 1311 fabc e150 343e c41c d5bd 7f65 b9be
00000360: 25f5 423d ed8b 14be 598a 9fbe ce79 eebe
00000370: ea8a 0bbe fb48 a4bc 3138 163e d903 5d3d
00000380: 2843 7c3c d7ff 0abe 40a3 4c3d fe70 9a3e
00000390: 4500 723e 05b0 a8be 9a2f c5be b220 f9be
000003a0: fde1 f0be 4f64 1a3d f23b 36bb 896e 883e
000003b0: e48c cb3c fede bfbc 5463 3a3e 898f 5d3d
000003c0: 83e8 993c 42ce d2be 2348 343e 462c f4be
000003d0: 561e 03bf 0358 973d 4102 eebe eb9c 83bd
000003e0: 95c9 b3be 78a9 c0be 791f 7ebe f438 723e
000003f0: fc2d b8bb 1076 eebd 5420 8c3c ae69 ee3c

network.2.weight f4 [256, 256]
0.00523519 0.09256249 -0.023989387 -0.13479134 -0.048585054 -0.08169972 -0.01682218 -0.06274235
-0.027283482 -0.121484056 0.19419235 -0.18538037 -0.30711365 -0.06292806 0.00291676 -0.02287791
0.0015440475 0.16626233 -0.021344906 0.038048655 0.16667314 0.085565634 -0.049280126 0.059495132
0.068023376 0.020253086 0.01555507 -0.011147525 0.033109084 0.04730982 0.05069207 0.12291497
-0.015918532 -0.021224076 -0.1738948 -0.08375575 -0.07391653 -0.062141735 -0.3435025 0.04358808
0.045606103 -0.16687737 -0.029175945 -0.016984554 -0.02200308 -0.110732935 0.0046113 -0.12103216
-0.04510456 0.18633047 -0.06567259 0.06753922 -0.11577873 0.04375487 -0.07276936 -0.040348195
-0.040796485 0.029781057 -0.070350505 -0.056940425 -0.18558621 0.10156209 -0.38287926 0.077287555
-0.07653282 0.13644458 -0.0045840675 -0.08286779 -0.014544144 0.026405802 0.09162314 0.29022008
-0.15936619 0.16277626 0.110426895 0.04566828 -0.03090637 0.2949731 0.02203724 0.07109964
0.063206114 0.05489906 0.024624143 -0.004780728 -0.017630482 -0.1126027 -0.1855784 -0.023844115
-0.16702737 0.107174344 -0.10352399 0.049519885 0.016807407 0.08113111 0.034523744 -0.034483597
-0.094921224 -0.03109511 0.054798394 0.046282627 -0.12497 -0.058201373 -0.4413155 0.055030253
0.06370554 -0.1652215 0.05353942 0.15622726 0.14731896 -0.015051802 -0.043202784 -0.1556188
0.20773222 -0.13933523 0.50690323 -0.002330393 0.07281724 -0.084628776 -0.12642242 -0.16688576
-0.14330459 0.09648327 -0.033315063 -0.18069215 0.10368563 0.010518197 -0.084869616 -0.09163537
-0.06012742 -0.05219174 -0.024809357 -0.07124828 -0.08964475 0.005327681 -0.36785278 -0.1403706
-0.01876968 0.0132602 0.026888886 -0.045560554 0.05651629 -0.11393462 -0.04213483 -0.39611676
0.028663961 0.024398187 0.12463611 0.09796027 -0.39316505 0.110063404 0.09232491 0.049838394
-0.040688746 -0.052404016 -0.026394999 0.06082778 0.21363458 0.04981693 -0.14444785 -0.3510147
0.007576801 -0.07679375 0.09000336 0.06336239 -0.033406083 -0.28537247 0.025247892 -0.6429745
-0.10542577 -0.36933485 -0.113661475 0.11289752 0.15410663 -0.23230964 0.00726144 -0.17579141
-0.021905767 -0.07591741 0.24737291 -0.16724339 -0.08435095 0.067448005 0.0021811253 -0.00064599747
-0.08860346 0.1135608 -0.57777613 0.019419877 -0.15893246 -0.11634503 0.15114754 -0.22532815
-0.015237423 0.09204159 -0.051406372 0.01581808 -0.031157687 -0.21141373 -0.047607582 -0.14068092
0.15160923 -0.16018231 -0.08959955 0.09735977 -0.02598721 -0.05675591 -0.118640475 0.030198528
-0.067584984 -0.005694302 0.111725815 -0.16132985 0.16538903 0.090964556 -0.113064654 0.042415738
-0.033881642 -0.04405916 -0.18797262 -0.03432355 -0.08383879 -0.035870083 0.03864321 -0.28182584
0.13838467 -0.06712394 0.07736355 -0.019702481 -0.013056527 0.008838687 -0.11160964 0.20691597
0.095074266 0.011115628 0.08533103 0.02134782 -0.4569201 0.02814144 -0.06005404 -0.05675201
-0.017172301 0.0710117 0.09546611 -0.007899309 -0.036360882 0.012387051 -0.037651118 -0.5379291
-0.22872637 0.09883317 -0.045269907 0.034500252 -0.08481465 -0.12782648 0.23295511 -0.06771524
00000000: f58b ab3b 6791 bd3d 6485 c4bc be06 0abe
00000010: 1f01 47bd 2f52 a7bd abce 89bc 107f 80bd
00000020: 9c81 dfbc a2cc f8bd 5cda 463e 5ad4 3dbe
00000030: 003e 9dbe 6de0 80bd 1d27 3f3b 746a bbbc
00000040: a361 ca3a ac40 2a3e 83db aebc e8d8 1b3d
00000050: 5dac 2a3e 093d af3d f5d9 49bd 2bb1 733d
00000060: d74f 8b3d cde9 a53c b1da 7e3c 1ca4 36bc
00000070: 649d 073d f1c7 413d 7da2 4f3d d8ba fb3d
00000080: 9567 82bc 1dde adbc 7a11 32be 2288 abbd
00000090: 8d61 97bd 5588 7ebd 8fdf afbe 6a89 323d
000000a0: 77cd 3a3d e7e1 2abe 6402 efbc 3123 8bbc
000000b0: ce3f b4bc f3c7 e2bd 631a 973b b6df f7bd
000000c0: 8fbf 38bd 6acd 3e3e 5a7f 86bd 0152 8a3d
000000d0: 661d edbd 4e38 333d 1a08 95bd 2644 25bd
000000e0: 371a 27bd 67f7 f33c ed13 90bd 5d3a 69bd
000000f0: 500a 3ebe c9ff cf3d c008 c4be f048 9e3d
00000100: 3dbd 9cbd 21b8 0b3e f235 96bb 96b6 a9bd
00000110: 904a 6ebc fb50 d83c eaa4 bb3d ba97 943e
00000120: e430 23be d2ae 263e 7f27 e23d aa0e 3b3d
00000130: 5b2f fdbc b706 973e 7187 b43c b09c 913d
00000140: 3572 813d d6dd 603d 92b8 c93c a7a7 9cbb
00000150: cd6d 90bc 3f9c e6bd 4408 3ebe bc54 c3bc
00000160: 3909 2bbe 397e db3d 6304 d4bd 5dd5 4a3d
00000170: b0af 893c 1128 a63d c568 0d3d ac3e 0dbd
00000180: 0f66 c2bd 2cbb febc 4874 603d da92 3d3d
00000190: 45f0 ffbd 9064 6ebd 1bf4 e1be 6767 613d
000001a0: 0d78 823d d32f 29be 274c 5b3d 0afa 1f3e
000001b0: c8da 163e d59b 76bc 67f5 30bd 895a 1fbe
000001c0: c1b7 543e e5ad 0ebe 69c4 013f 82b9 18bb
000001d0: 3521 953d da51 adbd e174 01be 1ae4 2abe
000001e0: 70be 12be 0599 c53d 6075 08bd 5d07 39be
000001f0: 2259 d43d 8454 2c3c 1fd0 adbd 53ab bbbd
00000200: 2b48 76bd 02c7 55bd fe3c cbbc 9eea 91bd
00000210: ab97 b7bd d493 ae3b 3357 bcbe 50bd 0fbe
00000220: dfc2 99bc 4f41 593c 1546 dc3c b49d 3abd
00000230: a07d 673d 8e56 e9bd 9295 2cbd d1cf cabe
00000240: afd0 ea3c b5de c73c 3841 ff3d 659f c83d
00000250: ee4c c9be ec68 e13d d814 bd3d 5823 4c3d
00000260: 3ea9 26bd 98a5 56bd 533a d8bc 8d26 793d
00000270: 06c3 5a3e d60c 4c3d 23ea 13be 33b8 b3be
00000280: d046 f83b 0b46 9dbd ae53 b83d 24c4 813d
00000290: d1d4 08bd 571c 92be abd4 ce3c fa99 24bf
000002a0: 77e9 d7bd 7519 bdbe 59c7 e8bd d136 e73d
000002b0: 21ce 1d3e 94e2 6dbe 60f1 ed3b aa02 34be
000002c0: b973 b3bc 967a 9bbd 534f 7d3e da41 2bbe
000002d0: 31c0 acbd 2e22 8a3d 36f1 0e3b 2858 29ba
000002e0: bb75 b5bd 9192 e83d 23e9 13bf 6f16 9f3c
000002f0: 31bf 22be 4e46 eebd 6cc6 1a3e 6cbc 66be
00000300: 62a6 79bc 4d80 bc3d 7d8f 52bd eb94 813c
00000310: 683e ffbc d77c 58be 2b00 43bd a90e 10be
00000320: 733f 1b3e d506 24be f87f b7bd 8f64 c73d
00000330: 21e3 d4bc e378 68bd c7f9 f2bd e762 f73c
00000340: ff69 8abd 4497 babb 81d0 e43d a733 25be
00000350: be5b 293e a04b ba3d 718e e7bd 20bc 2d3d
00000360: 7ac7 0abd 6177 34bd e57b 40be da96 0cbd
00000370: acb3 abbd 82ec 12bd 5848 1e3d 7a4b 90be
00000380: b6b4 0d3e 4778 89bd c870 9e3d 1967 a1bc
00000390: 0beb 55bc 24d0 103c 9893 e4bd c8e1 533e
000003a0: 4cb6 c23d 531e 363c 09c2 ae3d a0e1 ae3c
000003b0: 6ef1 e9be e188 e63c 3afb 75bd cc74 68bd
000003c0: edac 8cbc 956e 913d bc83 c33d 1a6c 01bc
000003d0: 26ef 14bd 0ff3 4a3c 0f38 1abd b9b5 09bf
000003e0: 3f37 6abe 0c69 ca3d f06c 39bd 2350 0d3d
000003f0: 4eb3 adbd f2e4 02be c98b 6e3e 4aae 8abd

network.2.bias f4 [256]
-0.06337853 0.042555593 -0.11886688 -0.09165887 0.021900618 -0.026301984 -0.008879629 0.012208751
0.054255534 0.01611778 0.01167122 -0.11575939 -0.056963556 0.0096711125 0.020570852 -0.012877157
0.003689303 -0.039297182 -0.002254223 -0.0029105924 -0.06510565 -0.06095848 -0.01834219 -0.0033140448
-0.05387569 -0.005711718 -0.052437235 -0.04364665 -0.041049607 0.018806044 -0.032253873 0.029696628
0.022413895 -0.04951384 -0.014880236 0.0076893875 -0.048129782 -0.024082221 -0.052042555 0.03251484
-0.051386125 0.004143937 -0.014956027 0.049663886 -0.061800726 0.026785787 -0.013035669 -0.05912277
-0.026821567 -0.021347893 -0.044775926 0.0027394404 -0.032475214 0.018606218 0.027380794 0.084958196
0.035915237 0.0143700475 -0.07044249 0.0068889936 -0.062251985 0.046588328 -0.07212333 0.042874746
0.010416106 0.08281043 -0.077282965 -0.052570466 0.008288815 -0.023062093 0.013748804 -0.0150338495
-0.011790677 -0.04157239 0.028017126 -0.04919052 0.009083275 -0.06469997 -0.039964683 -0.07606066
0.0065245316 0.002964135 -0.01125365 0.039628662 -0.026562827 -0.056053724 -0.007774139 0.013921407
-0.01670967 -0.039066486 0.050301086 0.04493817 -0.02395365 -0.021597706 -0.05182392 -0.052227896
-0.002291046 -0.041938223 0.015736505 -0.044356868 0.004786567 0.009063178 -0.051230468 0.00423024
-0.025586983 -0.053946108 -0.048968732 -0.042940754 0.028126325 0.065813504 -0.0027754318 0.023834176
-0.019029764 0.10229029 -0.008771045 -0.026247978 -0.027935976 -0.02093553 0.039918847 -0.039372634
-0.0761467 -0.056118786 0.01509328 0.036749363 -0.046883967 0.028414343 0.028456207 -0.05977662
0.035355624 -0.037614953 -0.044142842 0.019464217 0.05571006 0.00040883248 0.0076584127 -0.10201507
-0.065454595 -0.024691643 0.024557795 -0.029008029 0.044336252 -0.051685844 -0.044395357 -0.05811282
0.002214567 0.04918831 0.025456881 -0.028616494 0.0042092996 -0.013622501 0.0038275786 0.07735472
0.021160405 -0.044039406 -0.026131991 -0.021822238 -0.06680344 -0.003817504 0.051625557 0.08225759
0.0040918184 -0.018585458 -0.06268608 0.033641055 0.08509911 -0.009765367 0.046611525 -0.056759994
-0.0066281036 0.027153676 0.026709616 -0.0062885205 -0.025750378 1.568939e-05 0.081640705 -0.016462872
0.049167726 0.08535691 -0.03932978 0.00894867 -0.020707985 -0.012419827 -0.060184516 -0.013467923
-0.064299196 0.005608979 -0.028795058 -0.053044558 -0.0056242906 -0.06680084 -0.021546554 -0.06956032
-0.011585662 -0.008727348 0.12187071 -0.05866751 -0.011072564 0.0051859957 0.007148497 0.039684925
-0.040778134 0.016072523 -0.045117423 0.00038315382 -0.011867413 -0.03131182 -0.06204883 0.06523044
-0.040835366 0.021210918 0.00043600658 0.0145563735 -0.0076135355 0.00859349 0.066031195 -0.045718443
-0.05389794 -0.056398083 -0.04145501 -0.042153887 0.019368205 -0.071045816 0.022630572 0.010967731
-0.03265483 -0.0728218 -0.08730575 -0.060131457 -0.037567805 0.006760557 -0.00073339883 0.011281616
-0.055262204 0.05210922 0.02269173 -0.018885411 0.017480008 -0.060233373 -0.03741254 -0.06429143
0.021937095 -0.020289889 -0.051630694 -0.05819531 0.032539535 -0.027214952 -0.018799791 0.0057130964
-0.039464556 0.0061386838 -0.043421786 -0.008364844 0.023139978 0.029153422 -0.03363633 -0.011722481
00000000: 9acc 81bd c64e 2e3d 7b70 f3bd a5b7 bbbd
00000010: ed68 b33c 4277 d7bc dd7b 11bc 3707 483c
00000020: 0d3b 5e3d 6f09 843c a538 3f3c 4213 edbd
00000030: 9e52 69bd 9673 1e3c 3484 a83c b6fa 52bc
00000040: 3cc8 713b 15f6 20bd 96bb 13bb a3bf 3ebb
00000050: 1c56 85bd 99af 79bd 5c42 96bc 7230 59bb
00000060: c1ac 5cbd 5d29 bbbb 6dc8 56bd d4c6 32bd
00000070: a223 28bd 220f 9a3c a31c 04bd 5846 f33c
00000080: 589d b73c 06cf 4abd 3ccc 73bc 42f7 fb3b
00000090: bc23 45bd 1448 c5bc 932a 55bd 482e 053d
000000a0: 427a 52bd ddc9 873b 200a 75bc 5c6c 4b3d
000000b0: c222 7dbd de6d db3c 8f93 55bc b82a 72bd
000000c0: e7b8 dbbc c7e1 aebc f666 37bd 2f88 333b
000000d0: bb04 05bd 116c 983c b04d e03c 90fe ad3d
000000e0: db1b 133d 5970 6b3c 2744 90bd 11bd e13b
000000f0: f0fb 7ebd 67d3 3e3d 65b5 93bd 6e9d 2f3d
00000100: 51a8 2a3c 8498 a93d 8846 9ebd 2154 57bd
00000110: cfcd 073c b7ec bcbc aa42 613c 8950 76bc
00000120: af2d 41bc cf47 2abd 2c84 e53c 007c 49bd
00000130: 04d2 143c 6b81 84bd 02b2 23bd b1c5 9bbd
00000140: bdcb d53b ef41 423b 3b61 38bc aa51 223d
00000150: 499a d9bc 9798 65bd 34be febb 9d16 643c
00000160: b8e2 88bc 2e04 20bd 8308 4e3d 1611 383d
00000170: 723a c4bc aced b0bc 5245 54bd ebec 55bd
00000180: 6025 16bb 6ac7 2bbd d8e9 803c 8caf 35bd
00000190: a2d8 9c3b b97d 143c 0ad7 51bd d39d 8a3b
000001a0: cb9b d1bc 98f6 5cbd 7093 48bd a5e2 2fbd
000001b0: 2e69 e63c 3bc9 863d 05e4 35bb e43f c33c
000001c0: 4fe4 9bbc 927d d13d 6eb4 0fbc 0006 d7bc
000001d0: fdd9 e4bc fd80 abbc f281 233d 3345 21bd
000001e0: cdf2 9bbd d0dc 65bd ce49 773c 8086 163d
000001f0: 6709 40bd 32c5 e83c fe1c e93c 54d8 74bd
00000200: 0fd1 103d 2312 1abd 20cf 34bd 6c73 9f3c
00000210: 3b30 643d 9158 d639 6cf3 fa3b 47ed d0bd
00000220: 0f0d 86bd 2146 cabc 6e2d c93c 3fa2 edbc
00000230: ee99 353d 89b4 53bd e8d7 35bd b507 6ebd
00000240: 4522 113b ae79 493d f38a d03c 236d eabc
00000250: 2aee 893b e930 5fbc 1dd8 7a3b 276c 9e3d
00000260: 9658 ad3c aa62 34bd c212 d6bc 8dc4 b2bc
00000270: 3ed0 88bd 172f 7abb 5275 533d ab76 a83d
00000280: a914 863b 8840 98bc 8f61 80bd 34cb 093d
00000290: 7148 ae3d ebfe 1fbc baeb 3e3d 2b7d 68bd
000002a0: 9030 d9bb 6371 de3c 20ce da3c ef0f cebb
000002b0: 75f2 d2bc b59c 8337 3e33 a73d 25dd 86bc
000002c0: 1964 493d 9bcf ae3d 4318 21bd 719d 123c
000002d0: cba3 a9bc 887c 4bbc 0a84 76bd 90a8 5cbc
000002e0: 4caf 83bd 87cb b73b 9de3 ebbc 4045 59bd
000002f0: f84b b8bb e1ce 88bd 6682 b0bc a475 8ebd
00000300: cad1 3dbc 27fd 0ebc 5a97 f93d 584d 70bd
00000310: b369 35bc 49ef a93b f03d ea3b a98c 223d
00000320: f906 27bd 86aa 833c 0ccd 38bd 09e2 c839
00000330: 8a6f 42bc d340 00bd ea26 7ebd 8997 853d
00000340: fc42 27bd 85c2 ad3c d097 e439 db7d 6e3c
00000350: f77a f9bb b6cb 0c3c 5d3b 873d 4343 3bbd
00000360: 16c4 5cbd ad01 67bd bbcc 29bd 8ea9 2cbd
00000370: 12aa 9e3c 7880 91bd c063 b93c ffb1 333c
00000380: 12c1 05bd 9923 95bd 5bcd b2bd 674c 76bd
00000390: b3e0 19bd aa87 dd3b 9041 40ba 87d6 383c
000003a0: 9f5a 62bd 7a70 553d 02e4 b93c 94b5 9abc
000003b0: 3c32 8f3c 45b7 76bd e43d 19bd 3aab 83bd
000003c0: 6cb5 b33c fb36 a6bc b57a 53bd 355e 6ebd
000003d0: 2d48 053d e4f1 debc 0502 9abc ed34 bb3b
000003e0: 96a5 21bd 0327 c93b 0bdb 31bd b30c 09bc
000003f0: 0d90 bd3c 28d3 ee3c 40c6 09bd a60f 40bc

network.4.weight f4 [2, 256]
-0.004792042 -0.015327931 0.12891951 0.1350943 0.083289444 0.10015437 -0.0025477617 0.028352037
-0.05617961 -0.005191129 -0.048986614 -0.06807108 -0.03887655 0.004510124 -0.010331127 0.12239551
0.0037455026 0.0448834 0.038803637 0.0072053988 0.1332928 -0.049877856 0.20881155 0.17160046
-0.092521615 0.05140663 -0.13891675 -0.0016577523 0.054077312 0.037222367 -0.07213414 0.14640118
-0.00239861 0.002513659 0.051567964 0.14534664 -0.080804 -0.011125339 -0.07368022 -0.0005422775
0.058269985 0.016881661 0.03787547 -0.0032988144 0.06468376 0.10108863 0.008434919 -0.014876601
-0.13941315 -0.011514854 0.16530362 -0.014919471 -0.0075545516 0.012812044 -0.046994884 -0.04863052
0.32952103 0.06002322 0.042297915 0.040372737 0.2860302 -0.047457717 0.016459715 0.011147644
-0.011197327 -0.19752772 -0.04342167 0.11099413 0.059909925 0.0063932897 0.07140795 0.022138603
-0.3030528 0.012219421 0.011682034 -0.030916164 0.11553174 0.14793916 0.096320316 0.069304556
-0.025127029 0.04305475 -0.07754058 0.026010009 0.028168209 0.0016769207 0.13521717 -0.04347598
-0.27342615 -0.0754579 -0.0013448716 -0.0027008578 -0.0011390005 0.17840862 -0.004869346 0.109673426
0.06130732 0.013191039 0.004109565 0.09250948 0.04056903 0.0039336267 0.017405203 0.012804298
0.1911923 0.009690984 0.02264324 -0.057326995 -0.052799642 0.025051067 -0.2477991 0.0408884
0.01002865 0.08323955 0.16258481 0.00791129 -0.0889539 0.16232842 -0.017656568 -0.038715363
-0.07593323 -0.05611965 0.12311898 -0.32450604 0.0029911473 0.048581887 0.07018347 -0.059740826
0.0064404425 0.040549263 -0.0047173724 0.02143643 -0.013957887 0.045856923 -0.0002510789 0.15949467
-0.022288293 0.024889199 -0.057545476 -0.17888771 0.0076417965 -0.0012086091 -0.014154144 -0.025714794
-0.048850697 -0.29999658 0.0011173119 0.025920564 0.078881696 -0.08353242 -0.06865506 -0.0113050975
-0.12039759 0.015144551 0.020182313 0.024406869 -0.008005091 0.118616976 0.0134151345 0.07946351
0.0035985124 -0.08061978 -0.038647 -0.096296996 -0.015036383 0.09791241 -0.07301146 -0.14042303
-0.35172084 -0.029974755 -0.016566947 -0.03341529 -0.0015320077 -0.046034485 -0.12419088 0.00080739305
0.058724985 0.009597017 -0.07681567 -0.0141618885 -0.008144844 0.017526597 0.04917222 0.008581566
-0.091509394 0.17545252 0.027628252 -0.054904863 0.0325039 0.03630931 0.021686342 0.06230601
-0.13159715 0.082658105 -0.007675775 0.036147024 -0.12496718 0.0008241235 -0.011985037 0.13402025
-0.29289445 -0.0024114181 -0.039954204 -0.24859169 -0.010378229 0.0002797812 -0.055958744 -0.16637799
-0.042287722 0.0020667757 0.11595207 -0.116493404 -0.060360104 -0.23146015 -0.004301754 0.0055859224
0.019932205 -0.010313648 -0.04826545 -0.14852835 -0.0056457357 -0.015037353 -0.07025818 0.07481471
0.0025803593 0.11059936 0.08936124 -0.029546762 0.030221414 0.049085315 -0.07331003 0.040414464
-0.28310773 0.036793537 -0.03242953 -0.05287431 0.11806509 6.721078e-05 0.029610429 0.0696132
-0.00033031838 -0.0042756977 -7.8753576e-05 0.009856702 -0.0042451886 0.05342251 -0.036948252 -0.01228545
-0.025815677 0.10773953 0.105293915 -0.17052771 0.050442986 0.04984661 0.1570187 -0.026237147
00000000: 9006 9dbb 0122 7bbc 7a03 043e 2956 0a3e
00000010: a893 aa3d bc1d cd3d 59f8 26bb 8842 e83c
00000020: 971c 66bd 591a aabb 30a6 48bd da68 8bbd
00000030: 043d 1fbd aac9 933b e343 29bc 7faa fa3d
00000040: 1b77 753b a8d7 373d 90f0 1e3d 441b ec3b
00000050: e87d 083e b94c 4cbd b2d2 553e 08b8 2f3e
00000060: f97b bdbd c28f 523d 3140 0ebe f048 d9ba
00000070: 2c80 5d3d 7b76 183d 10bb 93bd 31ea 153e
00000080: 0032 1dbb 33bc 243b ee38 533d c0d5 143e
00000090: 917c a5bd 0e47 36bc a8e5 96bd a127 0eba
000000a0: 82ac 6e3d 694b 8a3c 4f23 1b3d ec30 58bb
000000b0: eb78 843d 8e07 cf3d 9d32 0a3c fdbc 73bc
000000c0: 52c2 0ebe cca8 3cbc 5a45 293e cc70 74bc
000000d0: 2c8c f7bb 9be9 513c b57d 40bd cc30 47bd
000000e0: fbb6 a83e e8da 753d 9440 2d3d e25d 253d
000000f0: 8d72 923e 0663 42bd 86d6 863c 9ca4 363c
00000100: fe74 37bc b544 4abe ecda 31bd e450 e33d
00000110: 1c64 753d cd7e d13b 553e 923d 045c b53c
00000120: bd29 9bbe f733 483c 0066 3f3c e543 fdbc
00000130: e89b ec3d 5d7d 173e 9643 c53d 8cef 8d3d
00000140: 33d7 cdbc 2d5a 303d 98cd 9ebd f112 d53c
00000150: 04c1 e63c 1fcc db3a 5f76 0a3e df13 32bd
00000160: 83fe 8bbe ac89 9abd 6746 b0ba e000 31bb
00000170: 844a 95ba c0b0 363e 098f 9fbb 769c e03d
00000180: 621d 7b3d 3a1f 583c 88a9 863b 9c75 bd3d
00000190: b62b 263d a7e5 803b 5b95 8e3c 1ec9 513c
000001a0: eac7 433e efc6 1e3c 517e b93c b6cf 6abd
000001b0: 7044 58bd e537 cd3c 0cbf 7dbe 987a 273d
000001c0: 354f 243c 7f79 aa3d a27c 263e 5b9e 013c
000001d0: 762d b6bd 6c39 263e 82a4 90bc 0094 1ebd
000001e0: e282 9bbd b8dd 65bd ce25 fc3d a825 a6be
000001f0: 2007 443b cdfd 463d 5abc 8f3d ccb2 74bd
00000200: 590a d33b fc16 263d 3094 9abb 749b af3c
00000210: 9faf 64bc 78d4 3b3d 3da3 83b9 9252 233e
00000220: f095 b6bc 6fe4 cb3c ceb4 6bbd 572e 37be
00000230: 0968 fa3b 316a 9eba c8e6 67bc d5a7 d2bc
00000240: ab17 48bd 2799 99be c472 923a 5d57 d43c
00000250: ba8c a13d 0c13 abbd 069b 8cbd 0439 39bc
00000260: 0393 f6bd da20 783c 6155 a53c eaf0 c73c
00000270: c927 03bc 75ed f23d 27cb 5b3c c4bd a23d
00000280: 05d5 6b3b fc1b a5bd 514c 1ebd 5c37 c5bd
00000290: 295b 76bc 4d86 c83d 0887 95bd 0ecb 0fbe
000002a0: c114 b4be 9e8d f5bc 68b7 87bc 79de 08bd
000002b0: a6cd c8ba a88e 3cbd ca57 febd 3ba7 533a
000002c0: 9c89 703d cf3c 1d3c 8951 9dbd 4407 68bc
000002d0: f471 05bc f093 8f3c cf68 493d b299 0c3c
000002e0: 4769 bbbd d3a9 333e a554 e23c ece3 60bd
000002f0: cf22 053d 12b9 143d 8ea7 b13c 9634 7f3d
00000300: 67c1 06be a748 a93d 1185 fbbb e70e 143d
00000310: cbee ffbd fe09 583a e35c 44bc 9b3c 093e
00000320: 43f6 95be e208 1ebb 05a7 23bd d28e 7ebe
00000330: 7309 2abc 99af 9239 ff34 65bd fe5e 2abe
00000340: e435 2dbd be72 073b 4778 ed3d 1894 eebd
00000350: 283c 77bd e403 6dbe baf5 8cbb 1d0a b73b
00000360: dd48 a33c 93fa 28bc feb1 45bd d117 18be
00000370: ddff b8bb 3b5f 76bc 85e3 8fbd 7438 993d
00000380: 3f1b 293b eb81 e23d 0703 b73d 0d0c f2bc
00000390: e692 f73c af0d 493d 9223 96bd a389 253d
000003a0: 7ff3 90be d2b4 163d d4d4 04bd bc92 58bd
000003b0: 1ccc f13d 83f3 8c38 9291 f23c 5e91 8e3d
000003c0: 952e adb9 271b 8cbb 8128 a5b8 017e 213c
000003d0: 391b 8bbb 90d1 5a3d 0d57 17bd e948 49bc
000003e0: 667b d3bc 8ba6 dc3d 56a4 d73d d19e 2ebe
000003f0: 4e9d 4e3d f52b 4c3d 83c9 203e 49ef d6bc

network.4.bias f4 [2]
0.020524507 -0.34085545
00000000: 0323 a83c 9b84 aebe
