Training/Model/model_critic_robot_subset_joint4_05.pt (torch, 280119 bytes, 5 tensors)

network.0.weight f4 [256, 12]
00000000: fa80 123f 6c3e 703e b0b7 273e 430a 653f
00000010: aae2 8e3e c59b 1d3d f1b8 7b3e b725 a2be
00000020: d861 14be d123 693d 263b 89bd 382a 09be
00000030: 221b cfbe b6f8 0bbe 074a 30bf 659c 6ebf
00000040: 003f 023f 7e12 5cbe a471 38bf 09d9 9c3e
00000050: f638 42bf 6aa6 74be de2f 90bc 9f39 313a
00000060: 45bd 72be f48c c3bc b8db 2dbe 1eec be3d
00000070: a1e2 803f 56f3 4c3e 0ef9 16be 748b 863f
00000080: ab8b 7ebf 55dd c0be 4da8 023d 51ca 14bd
00000090: a2f8 023d 1c78 78bc 786a 973e 23a8 8f3d
000000a0: 1207 aebd a985 223e 0936 63bc 2932 66be
000000b0: a8b3 9b3c 9aa2 f1bc b24e 84bd 99a7 03bd
000000c0: 9ca2 963e b9d3 bc3e 1ae1 9d3e 04fd 1abf
000000d0: c268 8a3c 9b95 1c3f b98a 52bf 6714 13bf
000000e0: 33c1 30bf 7aae 0b3f b51c 7dbe bb18 6bbd
000000f0: 947b fd3c a2e1 993d 1716 4fbe c246 f03d
00000100: 328f 3e3d 3e59 7e3e 1f28 abbd f05d 39be
00000110: 82f0 86be d292 4f3d 58e4 dbbd 2806 45be
00000120: b994 033f 8d27 2e3f 3aea 743d 8f73 f03e
00000130: ccc9 893f 6e54 523f 46e2 70bf 6953 2fbe
00000140: fa81 643f 616e 413e 279e 393d 7977 5f3c
00000150: 0425 e33e e7d8 c0be ecb8 833e cee4 9bbe
00000160: 6471 fcbc 9704 70bd 13a8 e23f 4e4e 65bf
00000170: 62d2 70be 08be 09ba 0a75 d3bd ead1 1a3d
00000180: 5568 063f 1700 8d3e 6cf2 bd3d 7705 0f3f
00000190: f144 633e 350e 643d 4bfd 843f b347 64be
000001a0: 4290 19be 10cc 963e d967 5d3c fa89 db3c
000001b0: 7994 90bd 88fa 783e f8b3 313e 87b7 1c3e
000001c0: 3c57 7bbe c4a8 3e3e 6ea3 973e 3020 9fbd
000001d0: 9b50 66bc cbec 853e fbc1 8c3d c5df 5bbd
000001e0: 0a5d aebc 06b5 d63d c5aa a43e 5b05 e33e
000001f0: dd35 033e 14e2 77be 3a29 7f3e 5c2e e2bd
00000200: 6e68 cfbe 72ff bd3e d5c4 cc3b c7a3 85bd
00000210: 0644 85be 5571 73be 6bd9 ffbd ec54 ed3e
00000220: fa90 d5bc 792b 58bf 92ed 063f 5607 62be
00000230: b917 933e 5bac 283e 5266 bcbc d20a bdbd
00000240: e738 483c 7071 ed3e 8591 78bd d02f 413f
00000250: d99c a5bd f2ba d7be d8d2 ff3e b16c 06be
00000260: 02a0 dc3e f622 0f3f 9eb7 5e3c c48b 20bc
00000270: 3391 743e 65da c63d 55b9 a03e ee98 403e
00000280: d9d1 86bd e548 2fbe 8785 dd3d eb17 41be
00000290: 358f c6bd 8a66 67bd 7a28 ed3d 26b1 2a3d
000002a0: 212e 1e3e ff3c 7a3f c510 4dbe 62b4 743f
000002b0: a3fa babe 5c7e 963f 3fb2 8a3f 8db6 f43e
000002c0: c3f4 5cbf 213c 1b3f a706 40be 72b3 fabd
000002d0: 9814 13bd 7644 d63e d5ff 713e a71b d03e
000002e0: 3f81 533e 3ae2 9bbe 041a 103f 5915 893d
000002f0: 2c50 9abe 3019 ec3d 1fc7 603d 0fdc 61bc
00000300: 1f46 b53e 9505 1a3f b0b1 343e bbe4 c33e
00000310: 1c86 40bd 4333 483c 5ba5 053e 43e2 65be
00000320: 4f86 a6be 0225 d13e 8153 6d3d bd4a 72be
00000330: 160e 3dbe 4e53 f03c 2964 2abe b6cb 523d
00000340: 5ef4 a8bd 4143 163d ff55 5b3e b056 8ebd
00000350: 5be9 6dbc 046b 333e f500 d83c 94e0 e33d
00000360: 37b8 d73d 5f34 c93e 54dd 433d 5250 f13d
00000370: bdbd ad3e 4c75 343e f8ad 263d 471d 97bd
00000380: 996c fbbd d4e3 cf3d 5356 48be 7ae4 ecbd
00000390: 8bdf c0be 5e12 6e3f c29c 13bf 6b77 e23d
000003a0: e79a 6f3f 8061 783f c938 80bf fafc 5b3e
000003b0: 530f ecbd cb7e 133f e4d5 8b3d 6cc2 ecbc
000003c0: 4a74 dc3d a50a 9abd 9f32 2e3e 9030 f73f
000003d0: 970b 08bf 86b3 b23f 14a7 41be 293f 5dbf
000003e0: 3a5b 99bd 24fb 16bd 57d2 37bd fbda 2f3d
000003f0: d6d2 3a3e e9dc 083e 5118 cfbd 7282 0e40
0.5722805 0.23461312 0.16378665 0.89468783 0.27907306 0.03847863 0.24582268 -0.316694
-0.1449045 0.056918923 -0.06700735 -0.13395011 -0.40450388 -0.13669094 -0.68862957 -0.9320739
0.5087738 -0.21491429 -0.720484 0.30634335 -0.75868165 -0.23891607 -0.01760095 0.00067606004
-0.23705013 -0.023870923 -0.16978347 0.093223795 1.0069162 0.200147 -0.14743444 1.0511308
-0.99431866 -0.37668863 0.031898785 -0.036325756 0.031975396 -0.015165355 0.29573417 0.070144914
-0.08497442 0.158713 -0.013867863 -0.22480072 0.019006565 -0.02949648 -0.064603224 -0.032142255
0.29420936 0.36880282 0.308358 -0.6054232 0.016895656 0.6116578 -0.82242924 -0.57453007
-0.690448 0.54563105 -0.24717982 -0.05739663 0.030942716 0.07513739 -0.2022327 0.11732246
0.04652328 0.2483873 -0.08357262 -0.1810224 -0.26355368 0.050677128 -0.107369125 -0.1924063
0.5139881 0.680291 0.05979369 0.46963164 1.0764709 0.8216008 -0.94095266 -0.17121662
0.8926083 0.18889762 0.04531684 0.013639324 0.44364178 -0.37665483 0.25727022 -0.30448002
-0.030815788 -0.058598127 1.7707542 -0.8957261 -0.23517755 -0.0005254452 -0.10325058 0.037797846
0.5250295 0.2753913 0.09274754 0.55867714 0.22194268 0.05567761 1.0389799 -0.22292976
-0.14996436 0.29452562 0.013513529 0.02679919 -0.07059569 0.2431432 0.17353809 0.15304385
-0.24544996 0.18619066 0.29616874 -0.07769811 -0.014057304 0.2615722 0.06872936 -0.0536802
-0.021284599 0.10483746 0.32161537 0.44340023 0.12813516 -0.24207336 0.2491807 -0.110439986
-0.4050936 0.37108952 0.00624905 -0.06525379 -0.2602846 -0.23773701 -0.12492641 0.46353853
-0.026070107 -0.84441334 0.52706254 -0.22073111 0.28729036 0.16471998 -0.022998009 -0.092305794
0.012220598 0.46375608 -0.060685653 0.7546358 -0.08086557 -0.42134815 0.4996555 -0.131274
0.43090826 0.5591272 0.013593582 -0.009798948 0.23883514 0.09709624 0.31391397 0.18808338
-0.06582994 -0.17117651 0.10816484 -0.1885678 -0.09695283 -0.056494273 0.11579986 0.04167285
0.15447284 0.9774932 -0.20025928 0.9558774 -0.36519346 1.1757312 1.0835646 0.47795525
-0.86310977 0.60638624 -0.18752538 -0.12241258 -0.03590831 0.41849107 0.23632748 0.40646097
0.20654772 -0.30446035 0.56289697 0.06693525 -0.3013929 0.11528242 0.054877397 -0.013785376
0.3540506 0.6016477 0.17645907 0.38260445 -0.047002897 0.012219253 0.1305136 -0.22449593
-0.32524344 0.40848547 0.057940964 -0.23661323 -0.18462405 0.029336598 -0.1663977 0.051463805
-0.08249734 0.036685232 0.21419524 -0.06950128 -0.014520968 0.17521292 0.026367644 0.11126819
0.10533183 0.39297768 0.047818497 0.11782898 0.3393382 0.1762287 0.040693253 -0.07378631
-0.12276573 0.10150877 -0.1956418 -0.11567016 -0.3767055 0.92996776 -0.5766107 0.110579334
0.9359574 0.97023773 -1.001733 0.21483222 -0.1152636 0.57615346 0.06827906 -0.028901301
0.10764368 -0.075215615 0.17011498 1.9311695 -0.53142685 1.3961036 -0.18911391 -0.864245
-0.07488103 -0.0368606 -0.04487833 0.042933445 0.1824449 0.1336552 -0.1011206 2.2267118

network.0.bias f4 [256]
00000000: b006 f2be 791a db3e 578f f83e c635 75be
00000010: a1e1 52be 0c0b 9dbe 14bd debe 48c7 d73c
00000020: b593 c93c d69b a4be 7e28 29be 8206 6dbd
00000030: 762b 96be 8f72 84be 2c35 61be 2809 adbe
00000040: 8cb2 09bf f46a 9fbe 61cb d2be bfd9 cfbd
00000050: 2743 c4be 475b f0be c259 1fbe ce89 9b3e
00000060: 2058 81be 02ab f7be bcff f0bd 2dd8 57bd
00000070: 195f 543e c812 073e 7bcb ba3c fddc 8fbe
00000080: 4492 a8bd 95f8 94be ae4c 6cbe 96c8 51be
00000090: e387 03be 97a7 adbe 47d9 273e dd39 25be
000000a0: 7722 b6bd 5c08 8d3c 6877 a9be f205 b1be
000000b0: bb9a 2cbd c874 66be bbe4 91be 35be 92be
000000c0: c94e 44bd 8176 cabc 7d70 82be ce73 4cbd
000000d0: 5d8c 7cbc d246 a83e 0a3a 85be d6de f9be
000000e0: fced 9fbe 18b6 43bf 0bd3 9abe 2978 07bf
000000f0: a32d c9bd 314b 39be a2a1 a33c dc31 4a3e
00000100: 6afe 9cbe f392 8cbe 8a28 9cbd 0c88 69be
00000110: d05f aebe 7c42 d0be b805 9dbe 4a9b 963e
00000120: dc57 14bf c7d6 2cbe 2763 893e f210 e7bc
00000130: 2197 673e cbc9 19be f518 5ebe b4ca 65be
00000140: cad9 8ebe 676e e4be 2bff b2be 8598 73be
00000150: cb89 2bbd f209 5ebf 544c 713c e371 8dbe
00000160: 70e2 03be 8c76 e73c a47a 4cbe a469 2cbe
00000170: bb2b 09be d232 5dbe 1ae5 d83d 1820 6a3e
00000180: fe82 edbe 7f05 7fbe 3d7e 0fbe 2dce b2bd
00000190: 0e7c 01bf 5abb 5cbf 9ae1 3bbe 6910 31be
000001a0: ece2 1ebe a146 04be bc01 64be 0ce3 2dbe
000001b0: 13a8 b2bc 4cf6 f9be 3d29 613e 7c35 77be
000001c0: 68c2 a9be cee4 bb3e dc7e 31bd 30af dcbd
000001d0: fca8 babd f09a 92be 4e7c a3be feaf 96be
000001e0: e9ab 28be 19f2 80be 9c02 acbe 8900 c6be
000001f0: b8c1 a3be 8bc8 bdbe b1b6 afbe c486 2fbe
00000200: a100 a93d d31a 2abf b641 61be 6273 73be
00000210: 6a80 95bd ac91 5ebe f443 0dbe d086 863e
00000220: 0f06 493d 8f93 8abc 2e99 97bd 57af a73e
00000230: 08f8 21be 614f 4dbf 23f8 d4bd ef5d 343c
00000240: 71e5 4fbe 7bfb 68be 0e6e 0dbe f337 cabe
00000250: 62fb 08bf 5a63 bcbe c6b0 cfbd a60d 6ebe
00000260: 9855 a2be 07e1 c7be 9b25 16bc bbaa ffbd
00000270: 9db8 ddbe d26f a4be b936 32be aa03 cbbe
00000280: a768 5ebe 173e b43e 7199 3dbe 619e 48be
00000290: e6ae 4fbe f532 a8be 3849 a1be 8519 383c
000002a0: d0b2 3fbd c44b 21be ca5b bbbe a853 cabe
000002b0: 0a0f 48be 931b a0be 4af6 86be 5f6f d1be
000002c0: 9dd6 423d 2700 3e3e 9672 b4be 0564 2ebd
000002d0: 08b8 23be 2cbc 90be aa99 37bd ec3c 3bbe
000002e0: 7b32 87be c487 79be 7a17 6fbe cd34 06bf
000002f0: 67f9 9abe b2e7 8c3d 0d7c b0be 7601 aabe
00000300: 7e98 1bbe ec7d 4c3d b0fe 9e3d 61dc 02bf
00000310: 8f2b 7cbe 5308 98be 7708 07be 9e99 7fbe
00000320: 907c e2be 4509 d83d 3a3f debd 484c 83be
00000330: 483e ba3c f64a 3f3d 1a39 88bd 2c6f 8fbe
00000340: b93f 88be 04f9 44be e0f1 92be b40e 2cbd
00000350: 114a 813c 8dbc ebbd f470 6ebe 9286 e7bb
00000360: 6233 95bd 637a d8bc 5f27 d2bd 9a16 bbbd
00000370: 6c16 473e fc38 8abe 6c96 abbe a9cb 1b3c
00000380: 3a7b 5bbe 6fdb 40be eb6c 17bf e0a7 74be
00000390: 38f1 8bbe a194 76bd a26a 45be 1908 55bd
000003a0: 82d4 9cbd d17a 8dbe 1a65 cabe 6c90 89be
000003b0: bfea 253e 307b 2cbe 07f3 bdbd ce78 69be
000003c0: cd01 b0be 6620 66be d16d b0be 3a66 41bd
000003d0: 6bad 1cbe 75c3 16be 67ba 4e3e ae42 62be
000003e0: d8a3 01be 4416 4b3d 28f9 86be 1f23 983e
000003f0: 1b54 9ebe 5745 223f 07a1 0fbe 1c91 74be
-0.47270727 0.42793635 0.4854686 -0.23946294 -0.20593883 -0.3067249 -0.4350363 0.026340142
0.024606565 -0.32150143 -0.16519353 -0.057867534 -0.29330033 -0.2586865 -0.2199294 -0.33796048
-0.53788066 -0.31136286 -0.4117079 -0.10148954 -0.38332483 -0.4694464 -0.15561584 0.30378574
-0.25262547 -0.48372656 -0.117675275 -0.052696396 0.20739402 0.13190758 0.022802105 -0.28098288
-0.08231023 -0.29095903 -0.23076126 -0.20486674 -0.12844805 -0.33916923 0.16391478 -0.16135354
-0.088932924 0.0172159 -0.33098912 -0.34574848 -0.04213975 -0.22505486 -0.2849482 -0.2866074
-0.047926698 -0.02471471 -0.25476447 -0.049915127 -0.015414325 0.32866532 -0.26020843 -0.48802823
-0.31236255 -0.7644973 -0.30239138 -0.52917725 -0.09823158 -0.1809509 0.019974533 0.19745582
-0.30662853 -0.27455863 -0.0762492 -0.22805804 -0.34057474 -0.40675724 -0.30668426 0.2941535
-0.5794656 -0.16878806 0.2683346 -0.028206322 0.22616245 -0.15018384 -0.21689208 -0.22440606
-0.27900535 -0.4461548 -0.34960303 -0.2378865 -0.041879456 -0.86733925 0.014727671 -0.2762595
-0.12879348 0.02825477 -0.19968659 -0.16837174 -0.13395588 -0.21601418 0.10590573 0.22863805
-0.46389002 -0.2490444 -0.14013 -0.08730731 -0.5057992 -0.86223376 -0.18347779 -0.17291416
-0.15516251 -0.12917568 -0.22266287 -0.16981143 -0.02180866 -0.48820722 0.21988387 -0.24141496
-0.33156133 0.36698002 -0.043333873 -0.10775602 -0.091142625 -0.28633833 -0.31930774 -0.29431146
-0.16471829 -0.25184706 -0.3359574 -0.38672283 -0.31983733 -0.37067065 -0.3431907 -0.17141253
0.08252073 -0.6644718 -0.21997723 -0.23774484 -0.07299884 -0.21735257 -0.13795453 0.2627473
0.049078044 -0.016916065 -0.074022636 0.3275096 -0.15817273 -0.8019925 -0.10398891 0.011008724
-0.20302369 -0.22752182 -0.13811514 -0.3949581 -0.5350858 -0.3679455 -0.10141139 -0.23247394
-0.31705928 -0.3903887 -0.009164239 -0.12483736 -0.4330491 -0.32116562 -0.17403688 -0.39651233
-0.21719609 0.3520362 -0.18515565 -0.19591667 -0.20281562 -0.32851377 -0.31501174 0.011236553
-0.04680139 -0.15751559 -0.36593467 -0.3951695 -0.19536987 -0.31271037 -0.2635978 -0.40905282
0.047567952 0.18554746 -0.35243672 -0.042575855 -0.15988171 -0.28268564 -0.04482428 -0.18284959
-0.264057 -0.24368197 -0.233488 -0.5242432 -0.30268404 0.0688013 -0.34469643 -0.3320424
-0.1519489 0.049924776 0.077634215 -0.5111752 -0.24625991 -0.2969385 -0.13186823 -0.24960944
-0.4423566 0.10548643 -0.10851903 -0.25644135 0.022734776 0.046702348 -0.06651516 -0.28014505
-0.26611117 -0.19235617 -0.2870016 -0.04200621 0.015782388 -0.115105726 -0.23285276 -0.0070656026
-0.07285191 -0.026425546 -0.10261416 -0.0913517 0.19442147 -0.269966 -0.335132 0.009509006
-0.21433726 -0.18833707 -0.5915057 -0.23892164 -0.27332473 -0.060200337 -0.19278958 -0.052009676
-0.0765772 -0.27632764 -0.3953026 -0.26867998 0.1620283 -0.16843867 -0.092748694 -0.2279999
-0.34376374 -0.22473297 -0.34458783 -0.04721663 -0.15300529 -0.14722998 0.20188294 -0.22095749
-0.12660158 0.04958178 -0.26361966 0.29714295 -0.30923542 0.63387054 -0.14026271 -0.2388348

network.2.weight f4 [256, 256]
00000000: e233 96bd 2fce c6bd 41da 05bd aa39 f5bd
00000010: 6a0c c7bd 900a fd3c e3f2 aabd 03ea 72bd
00000020: b48c 36bd be60 3f3d a11b 3dbb 4739 2ebd
00000030: 3a7e 21bc cb25 d3bd 8350 83bd 92c0 5cbd
00000040: 2e89 0dbd 9458 a2bc de7e 033d c19c e5bb
00000050: de1e ccbc 9a2a 3ebd c773 57bd 021c f2bd
00000060: 90f3 c83b 7855 f1bd 42dd fdbc be71 cbbd
00000070: 45e4 b3bd f627 30bd 160f b7bd da32 21bd
00000080: 6c30 66bd d7f6 37bd 287c e6bd a8ac 4fbd
00000090: d328 94bd d309 c7bd 9ad7 b5bd a61e e5bd
000000a0: 8f0e 03bd 856a 2cbc ea3f d2bd 4dd5 5dbb
000000b0: 439e dcbd 3c69 c5bc cf8d d7bd add8 60bb
000000c0: fe4b 87ba 1f2b 89bd cadd 503d 8638 9cbd
000000d0: 45ab b9bd eaae 4dbb b771 8abc 93aa e2bd
000000e0: ad14 e7bc 05bd e1bd 7948 7ebd e107 d3bd
000000f0: a004 d9bd 4231 e5bd ad17 94bd a21e 7bbc
00000100: 6557 e4bd 3d54 19bd 4603 d8bd 023b 80bd
00000110: 0ce4 dfbd baa6 1dbc 9849 80bd b905 85bc
00000120: 2177 edbc a136 b8bd 1055 89bd 4b77 14bd
00000130: 805b dcbd f0e6 3fbd 9e32 2dbd 7cc9 86bd
00000140: b883 56bd a626 11bd 8490 b9bd 672d d1bd
00000150: 504b b4bd 628f dfbd 0ebb debd ba22 403d
00000160: 2751 aebd 03ad 6fbc 73db 94bd 3255 edbc
00000170: 032d 57bd 2cb5 dfbd 36fa a2bd 82d6 9abc
00000180: 687d f8bc 19c4 b8bd 5648 71ba e4b4 c2bd
00000190: c495 c3bd cceb 23bd b5d7 93bd 3467 273d
000001a0: 69dd 1bbc 8a22 8abd 7487 4fbd 203f 63bd
000001b0: 3f8b e8bc 4c18 4abc f264 97bd 6042 75bd
000001c0: acc1 abbd c904 dbbc eb91 01bd 0330 eebd
000001d0: f7fa ecbc f0c4 f9bd fc31 eabd c6af dbbd
000001e0: 2f3c 57bc 865d eebd 190d b8bc 97a2 86bd
000001f0: 93f6 89bd 6a0d 16bd 14e2 dabd 2227 cebd
00000200: c98e f9bd 8cb2 7fbd c206 8fbc 60c1 503c
00000210: 6ad3 a7bd 808d b73a c81a b8bd 3f22 b5bd
00000220: d88b f9bd 959c 8ebb e5f4 ddbd 181b 89bd
00000230: df4e 5ebd 35a7 adbd 68f7 e2bd bd33 1dbd
00000240: 1bc6 aebd 2075 9dbb 4f4c 02bd b7ef fcbb
00000250: f1bd 80bd ac3b 17bd 7c9d c6bc ea1d b6bc
00000260: a2b8 7fbd 5e8c 5bbc 1d21 97bb deaf a1bc
00000270: 0cb2 b0bd 1807 c6bd e0c8 2abb 60a2 ecbd
00000280: 5011 5ebd d4ab d2bd 321e 6fbd 3048 96bc
00000290: 62bf 24bd 0833 9fbd e2a9 1fbd 8492 a6bd
000002a0: c3d9 93bd 4bfa ef3a 20ea 33bd 2a77 50bd
000002b0: c469 bfbd cad2 0dbc b330 dfbb 6efe a9bd
000002c0: d9b1 4dbc e47b 4eba 36c0 c8bd c369 29bc
000002d0: 5660 debc 1ca0 50bd 87cd d5bc bcf5 9bbd
000002e0: 5303 e1bb 90ec 78bd 7b1e bbbd 9c29 c5bd
000002f0: e4ff f7bd a50c dfbc 87c6 e3bc 323f a1bd
00000300: dff6 dabd 9585 8ebc d40e ebbd c7ea 24bd
00000310: 081e f7bd 9a18 cfbd 7e08 f9bd 3dd4 8cbd
00000320: 710a dcbd 5c24 70bb 03f2 04bd 7c67 97bc
00000330: 759e 13bd 07ec 91bd 009d aebd c388 9a3a
00000340: 2045 e1bd 304b 64bc d042 40bd 2757 b4bd
00000350: a0bd 56bd 7aa4 c8bc c592 fbbb d1b9 49bd
00000360: 808d c8bd 0f0b 2cbd 7ce0 b3bd fc21 e23a
00000370: f88b 8ebb d511 9abd 4835 61bc d100 f7bd
00000380: 961f 86bc c4c3 9abd becb e4bd c9ae a6bc
00000390: 1a8f aabd 3bcd 8cbd 2db1 f6bd 7edb 3ebd
000003a0: 83be c4bc c4a0 47bd 45d4 aebd 6251 f9bd
000003b0: a532 91bc e5d0 eebd c3b9 a6bd f12b 9fbc
000003c0: 0ce1 7ebd 6f02 bbbd 351c bdbd 2b8d 71bc
000003d0: f492 84bd ee3e 9cbd 2b7b 69bd 2591 babd
000003e0: cfb6 aebb 6b86 e7bd 7338 a1ba ecf5 4fbc
000003f0: 9c48 d6bd 9a69 27bd 6922 6fbc 0b86 a2bd
-0.073341146 -0.09707295 -0.032678846 -0.11973889 -0.09719165 0.030888826 -0.08347108 -0.059305202
-0.04456778 0.04672312 -0.002885558 -0.042535093 -0.009856755 -0.10309943 -0.06411841 -0.053894587
-0.034554653 -0.019817628 0.03210341 -0.007007212 -0.024917062 -0.046427347 -0.05260065 -0.11821748
0.0061325505 -0.1178388 -0.030989293 -0.09933804 -0.08783773 -0.04300686 -0.08938424 -0.039355136
-0.056198522 -0.04491314 -0.1125415 -0.050701767 -0.07234349 -0.09718671 -0.08879013 -0.11187486
-0.031996306 -0.010523443 -0.10266097 -0.003384906 -0.107723735 -0.024098031 -0.10525095 -0.0034308836
-0.001032233 -0.06697678 0.050992765 -0.076279685 -0.0906587 -0.0031384774 -0.016899927 -0.11067691
-0.028208101 -0.11022381 -0.062080834 -0.10304237 -0.10596585 -0.11191036 -0.07231078 -0.015327128
-0.11149482 -0.03743385 -0.10547499 -0.06261255 -0.10932168 -0.00962227 -0.06264037 -0.01623808
-0.02898747 -0.08994795 -0.067056775 -0.03624658 -0.1075964 -0.0468511 -0.0422846 -0.06581399
-0.05237171 -0.03543725 -0.09060767 -0.10213738 -0.08803427 -0.1091602 -0.108755216 0.046908118
-0.08511572 -0.014628652 -0.07268419 -0.028971288 -0.05253316 -0.10923228 -0.0795788 -0.018901113
-0.030333236 -0.09021778 -0.00092041993 -0.095071584 -0.0955005 -0.040019795 -0.07218877 0.040869907
-0.0095132375 -0.06744869 -0.050666288 -0.055480123 -0.02838671 -0.012334894 -0.07392301 -0.059877753
-0.08386549 -0.02673568 -0.0316333 -0.11630251 -0.028928263 -0.12195766 -0.11435315 -0.107268855
-0.0131369075 -0.11638932 -0.022467183 -0.0657398 -0.067364834 -0.036633886 -0.10687652 -0.10066058
-0.12185437 -0.062426135 -0.017459277 0.012741417 -0.08194621 0.0014003962 -0.08989483 -0.088444225
-0.12184876 -0.004352162 -0.108377255 -0.06694621 -0.054274436 -0.08479158 -0.11082345 -0.03837942
-0.08533879 -0.004805222 -0.031811055 -0.007719006 -0.062862284 -0.036922142 -0.024245016 -0.022231061
-0.06243194 -0.013400165 -0.0046121017 -0.01973718 -0.0862771 -0.09669322 -0.0026059672 -0.11554408
-0.05421573 -0.1028668 -0.058378406 -0.018344969 -0.04022158 -0.07773405 -0.038980372 -0.081334144
-0.07219269 0.0018308846 -0.04392445 -0.050894894 -0.09346345 -0.008656213 -0.0068112253 -0.08300482
-0.012554609 -0.00078767375 -0.09802286 -0.010340157 -0.027145546 -0.050933942 -0.02609898 -0.076152295
-0.0068668514 -0.06077248 -0.09136673 -0.09627077 -0.12109354 -0.02722771 -0.027804626 -0.07873382
-0.10691618 -0.017397681 -0.114774376 -0.040262964 -0.12066275 -0.10112114 -0.12159823 -0.06876419
-0.10744179 -0.0036642766 -0.032457363 -0.018481962 -0.03603979 -0.07125097 -0.08526039 0.0011790026
-0.10999513 -0.013933942 -0.046938717 -0.088056855 -0.052426934 -0.024492491 -0.0076774084 -0.049249474
-0.09792614 -0.042002734 -0.08783051 0.001725256 -0.0043501817 -0.075229324 -0.013745613 -0.120607026
-0.016372483 -0.075568706 -0.11171673 -0.020347016 -0.08328076 -0.06875082 -0.12045512 -0.046596043
-0.024016624 -0.048737302 -0.08536581 -0.12173726 -0.017724345 -0.11660937 -0.081409 -0.019430133
-0.06222634 -0.091313235 -0.09233896 -0.01474313 -0.064733416 -0.076291904 -0.057002228 -0.09109715
-0.005331851 -0.11304935 -0.0012300148 -0.01269291 -0.10463068 -0.040872194 -0.014595606 -0.07935723

network.2.bias f4 [256]
00000000: 2b76 00bc 0c00 723d a151 a2bd 8d93 2c3d
00000010: 6b68 123e 863d 6a3e 78ee 72bd b2e9 3a3d
00000020: a849 8b3e e52e a33d f439 f3bd 8124 8ebe
00000030: 7b80 483d 241f 84bc 7fe2 383d 182e 0cbd
00000040: 17b5 35bd a779 30bd cb9c 63bc 0bc4 5dbd
00000050: 9867 afbd f727 8cbd 2902 bcbc e67c c0bd
00000060: 2721 41bd 9884 bbbc a4f0 9dbd 4d24 a1be
00000070: 0558 dabc 236e 343e 2148 b23d 1ae4 b7bd
00000080: ce7b 97be c24c b1bd ab44 13bc 2448 8b3b
00000090: 9aad f2bd 82a9 98bd ccf2 50bd 23a5 8b3e
000000a0: 4ebb 51bb d1a8 e13a 405f 24bd 622a 6dbd
000000b0: 40de 5cbd 9633 bebd ed71 81bd 6625 4dbe
000000c0: 8010 42bd 2e39 42bd 567b a7bd 8a10 e4bd
000000d0: c1d4 62bd 6562 543e 2f7b b1bd 6b76 55bd
000000e0: 92f2 833e 1077 5dbd 80c7 e1bc 0124 4d3d
000000f0: ea6e 683d 23fb 9abd c0ac 88be fbe5 9dbd
00000100: d025 0cbd c688 d5bc 1174 a2bb de84 c5bd
00000110: 17e2 5bbd 7bf4 a5bd 61ec 9abc d99b 103c
00000120: 4a3b 713e e444 c9bd 95ab 1abc ab2c bfbc
00000130: 2986 9ebd 8f83 a4be c8c4 90bd c285 8fbd
00000140: 30b9 953d 602a 9fbd a4b7 8cbd 8eb3 6839
00000150: a68c efbb 7c56 1abd 91db b4bd f294 b6bd
00000160: 703f d0bd 88e3 d7bb 53f0 87bd a177 77be
00000170: 2ed7 9bbe 4fbb 92bd 665f 18bd 830f 05bd
00000180: b310 a0bd 45ea 4bbe b94e 26bc bf61 30bc
00000190: 9975 443e b8c0 cfbd 8593 963b 6190 adbd
000001a0: cf57 ddbc 957a 373d cd83 553e 24a8 abbd
000001b0: d83e 1d3e efb5 3bbc ae1d 9ebc 6fe5 f9bd
000001c0: b0a2 d3bd 46f0 54bd e4f8 053e 0ea2 f9bc
000001d0: f862 9fbd afe4 a6bd c4c8 4ebd d135 d3bd
000001e0: b6f9 b8bc 11ec 89bd 66b8 2a3c 189e c1bd
000001f0: b44b 173f 89ab 42bd 3a91 5ebd 75f3 b23b
00000200: b5b2 c7bc 88a7 f83d f2c5 bbbd 604c c03d
00000210: 8232 b63d 86b4 35be 1281 f6bd 02fc 303e
00000220: 3c46 e6bb 230b cd3e 3ced b8b8 987e 14bd
00000230: f31e 0dbd 7eb3 7abd bcb4 96bd 6a0e e5bd
00000240: f0a6 afbd fe99 123d 4235 5abc ee59 8cbd
00000250: 30d1 3f3e bce6 173d 427b 963e 1494 debd
00000260: c7af 8dbd 9370 6dbe 4caf 1abd 9e8f 52bd
00000270: e640 ba3e ab58 713e 8f0b 74bd 1f30 303e
00000280: a979 ebbd 35a1 173b 6d12 e53e 23dc 89be
00000290: a49f 0cbc d291 cf38 aa46 8e3e 0314 b3bc
000002a0: bf66 02bd c037 67be 8a29 b5bd a9d3 9a3e
000002b0: 5f4d 17bd 2673 aabd c610 39bc d94c 2fbd
000002c0: 0db5 1ebd aa11 e5bd 49e3 eebd 7cf2 97be
000002d0: 245b 22be 4230 29bd c201 a93d 9674 d6bd
000002e0: ab60 0c3e 1c86 68bd d3e0 313d 1daf 393e
000002f0: 0cbe 293c 664d dabc 17a5 efbe 0ab0 82bc
00000300: 5b5f 803e 168b 6ebd f64b cbbe 3062 75bc
00000310: 8b62 cabc 1746 3e3e 0799 503e 94af ffbc
00000320: 40d9 16bd f401 003e 1c61 e2bc 808f 64bd
00000330: 3255 78bd 88a3 67bd a621 75bd 53cb 4f3e
00000340: fe07 373e f7d7 d8bd 5f07 93bd 89af f2bd
00000350: b30f dcbc 714f 0d3d c1ab 76be b125 a3be
00000360: ba60 92bd 5f0b ccbd 6931 18bc cffe 63be
00000370: c9b1 e8bd 1a2b 23bd 488a fdbc 398f e43d
00000380: 7ae0 e9bd f3a7 3ebe 76f2 373e f79f c23a
00000390: 6b62 70be 4241 6abd 7c1a d1bd e7ae f6bc
000003a0: b40e 23bd 0f52 17bd 2ee5 21bd a3e5 52bd
000003b0: 71ee 9cba 1a3c e5bd 8dde e93d dda9 7ebb
000003c0: 43e6 b1bd 20d0 60bd bec9 85bd 9010 aabc
000003d0: 73c2 d1bb 7d9f 31be 320b 87be 8b02 dc3d
000003e0: c7b0 78bd bc57 0bbd 0592 99bc 36fa 86be
000003f0: b6f1 d3bd 4134 d0bd 4fab 54bc e156 aa3e
-0.007840673 0.059082076 -0.07925726 0.042132903 0.14297645 0.22875032 -0.059309453 0.045633025
0.27204633 0.07967929 -0.11876288 -0.27762225 0.048950654 -0.01612813 0.04513788 -0.034223646
-0.044362154 -0.043084767 -0.013892363 -0.05414204 -0.08564681 -0.0684356 -0.022950249 -0.093988225
-0.047150757 -0.022890374 -0.07711914 -0.31473008 -0.0266533 0.17620139 0.08705164 -0.08979054
-0.29586643 -0.086572185 -0.00898854 0.004250543 -0.11849518 -0.07454206 -0.0510128 0.27274427
-0.0032002511 0.0017216449 -0.0401299 -0.057901748 -0.05392289 -0.09287183 -0.06320558 -0.20033798
-0.047379017 -0.047417812 -0.08177821 -0.11135967 -0.05537868 0.2074066 -0.086660735 -0.052114885
0.25771004 -0.054068625 -0.02756095 0.050083164 0.0567464 -0.07567432 -0.26694298 -0.07709881
-0.03421575 -0.026066195 -0.004957684 -0.09644483 -0.053682413 -0.081032716 -0.018911542 0.0088262195
0.23557773 -0.09827593 -0.009440322 -0.023336729 -0.07740433 -0.3213162 -0.07068783 -0.07007934
0.07310712 -0.07771754 -0.06870964 0.00022192133 -0.007310468 -0.037680134 -0.088309415 -0.08915128
-0.1016835 -0.006588403 -0.06637635 -0.24166729 -0.30437607 -0.071646325 -0.037200354 -0.032485496
-0.07815685 -0.19913585 -0.010150605 -0.010765492 0.19185485 -0.1014418 0.0045952224 -0.08474804
-0.02701941 0.044794638 0.2085106 -0.0838168 0.15356004 -0.011456951 -0.019301262 -0.12201964
-0.103337646 -0.051986955 0.13083225 -0.030472782 -0.07782549 -0.08149087 -0.050484434 -0.10312999
-0.022580009 -0.06734479 0.010419941 -0.09453982 0.5909989 -0.04752687 -0.054337718 0.0054611512
-0.024377206 0.12141329 -0.091686144 0.093895674 0.08896352 -0.17744645 -0.12036337 0.17283633
-0.0070274156 0.4004756 -8.817992e-05 -0.03625354 -0.034453344 -0.061206333 -0.07358691 -0.1118439
-0.08576763 0.03579139 -0.013318362 -0.0685309 0.18732142 0.03708528 0.29390913 -0.108680874
-0.069182925 -0.23187475 -0.037764832 -0.051406495 0.3637764 0.2356898 -0.059581336 0.17205857
-0.11497814 0.0023136858 0.4474062 -0.26925763 -0.008582983 9.89769e-05 0.27788287 -0.021860128
-0.031836268 -0.2257986 -0.088458136 0.3023961 -0.03693902 -0.08322744 -0.011295503 -0.042797897
-0.038746882 -0.1118501 -0.11664445 -0.29677188 -0.1585508 -0.041305788 0.082522884 -0.10471456
0.13708751 -0.05676852 0.0434273 0.18133207 0.010360252 -0.026648235 -0.4680564 -0.015953083
0.2507275 -0.05823811 -0.3970639 -0.014977023 -0.024705192 0.18581425 0.20370875 -0.031211652
-0.03682828 0.12500745 -0.027634196 -0.055800915 -0.060628124 -0.05655244 -0.059846543 0.20292406
0.17874143 -0.10588067 -0.0717914 -0.11849887 -0.026862955 0.03449959 -0.24088956 -0.31864694
-0.071473554 -0.09963106 -0.009289124 -0.2226517 -0.11362035 -0.039836027 -0.030949727 0.1116013
-0.11419769 -0.18618755 0.17963585 0.0014848699 -0.23475043 -0.05719114 -0.102101296 -0.030112697
-0.039808944 -0.03694349 -0.039525203 -0.05148853 -0.0011972917 -0.11193104 0.11419401 -0.003885857
-0.08686497 -0.054885983 -0.0653262 -0.02075985 -0.006401354 -0.17345996 -0.2637573 0.107426725
-0.060715463 -0.034019217 -0.018746385 -0.2636277 -0.10348837 -0.10166217 -0.012980296 0.33269408

network.4.weight f4 [1, 256]
00000000: af4f 0d3c dc4a 95be 565c a2bd 6d86 b53c
00000010: f346 0a3e 07de 573d 4f8d 713d 149a 463e
00000020: 92d9 6e3d 167b 4d3e db62 c33c 0e30 65be
00000030: 03c0 3d3d 9ec2 a23c 53c0 a03c 11f0 883c
00000040: c8f2 3d3c f89a 823c cc0d e43c a1ba 92bc
00000050: 3def 353c 1906 b9bc 2ca4 953c d55b 16bd
00000060: 88b0 143d cf0d 6c3c c639 3c3d 14c2 773e
00000070: 73d1 4e3c 311b fb3c 05ed ce3d 9ca1 2a3b
00000080: d2f1 40be 4b7e 013c 26d6 693b 16d6 233d
00000090: a07c 503c cda8 9ebc 286d 3b3c 56a6 aa3e
000000a0: 3b8e 883c 722a 163d 7a74 843c e1d0 0b3c
000000b0: 08ee 4f3d e7d5 563d 286c 153d 0df1 6e3e
000000c0: d679 103d 2e70 3b3d 422c a33b a167 94bb
000000d0: 4a6c 6d3d 4ea6 4e3b 6cda f23c ee85 b73c
000000e0: 5a3b 3b3e d21e 09bd 2cf6 ab3b 4c12 183d
000000f0: c0a3 2c3e f124 1dbd caa1 23be 0964 523d
00000100: f2b3 513d 6655 1d3d 11b3 fa38 02b2 203c
00000110: 8fb1 f83b 7681 383d 01e4 b2bc 7a0a eebc
00000120: aca5 3f3d bf76 363d f720 943b 4261 743c
00000130: 52f8 233b c0fc ad3d 285b 2d3d 80ef b73c
00000140: 57d6 3fbe 1379 173d 157e d33c d987 d53c
00000150: 6ea2 c6bd 8f32 763c 417b 033d a0e9 403a
00000160: f8b6 2c3d b6bd a8bc 5265 4e3d 62d0 a8bc
00000170: f494 72be c2b4 d43c ca47 003d 94ac 463d
00000180: 8ab5 b23c ec23 1ebd 05f4 123b 171c a23c
00000190: 8c7c 123d 0ae8 a83c 6e31 20be c31c 463c
000001a0: 87f7 5a3d 9153 e5bd baa9 563d bdff 0e3d
000001b0: 590a 9fbe 652e 3b3d 1273 ac3c b3e4 573d
000001c0: 227d 613d f108 023d 4dad 823e a521 2e3d
000001d0: 1d17 f83b 9e9b 85bc 28d4 eb3c 8000 833c
000001e0: 6e92 3b3c f7fb 303c 3f25 51be 6122 3c3c
000001f0: 011d 32bf f5d6 053e e8b8 4b3d 730a 933d
00000200: ca75 233c 564c 8b3d 788d 523d 00fd 42bc
00000210: 1c0b 183e cdc1 bfbe c4cd a03c d105 80be
00000220: 35af 5c3d 497a 3e3e 068d 023d b0b9 293d
00000230: c8e4 b9bb b7f0 ba3a 2e64 20bd cdb3 643d
00000240: 0954 8b3c f9f3 c63c dee7 80bb 245e 29bd
00000250: 450a 9f3c 2907 013d 21e8 573d c940 293d
00000260: 7994 423d 0027 7cbe aac3 ee3b 93a9 f23c
00000270: 3913 74be b5f9 94be 48e4 4a3d 63a6 ebbd
00000280: 8536 503c 2ee9 023d 9a4e 4e3e 253c 0bbc
00000290: bb6e 803c d2ba cf3c 6952 4a3d 19bd f4bc
000002a0: 41a2 2b3c 6b3d 273e 745f 1a3d f61a 123e
000002b0: 8ac8 273c e10c f63b d1f3 223c c5e9 0d3d
000002c0: cd6c 743d 7bd4 573d c421 683e 2fa4 bd3e
000002d0: e8fd 81bb 1b7b 503d 3e5a babe ec29 a03c
000002e0: f0ad 173f 6f5f 15bd ac47 76bd 4145 1a3d
000002f0: 0672 9abc 5d28 9b3b 54d2 5b3e 1c42 613c
00000300: d144 173d e941 983c 9d2c 383e e69a 2f3d
00000310: 8529 313c 8417 6a3d 8e24 623e c53d ba3c
00000320: 1b73 053c 1309 293d 814e db3b 0a94 f3bc
00000330: 2575 933b bbd0 6d3c b8b8 9c3c c2ab 5b3d
00000340: 8cb0 463d dc12 773b 9dff 7e3a 2e0e 033d
00000350: c406 643d 2017 ffbd f5f2 543e ecb1 643e
00000360: aeee a43b 38a5 023d 87cd 51bc 808a 6ebe
00000370: 0694 bc3c 6e93 3b3c 22e5 0f3d bc73 563d
00000380: 4805 c03c e045 d13e fbfa 3a3d 467d 433c
00000390: ef7d 72be cc7e 2b3d f1d2 12bc ca1a 963b
000003a0: 70bc f0bc 8895 4c3d 52b5 1c3d 94e3 593d
000003b0: e85c 1e3d fd01 fb3c ceea 0c3e 5e84 513d
000003c0: c03c 24bc 9a4e 473d b686 bd3c ef76 373c
000003d0: 4e91 c93b b812 873d 3064 38be 1994 a83c
000003e0: aa21 e03c 50d0 263d 2bec 213d 7d10 5a3e
000003f0: 2924 493d 22f8 c83c 894a 6c3c 7d7e 693d
0.008624955 -0.29158676 -0.07927768 0.022158826 0.13503627 0.052701976 0.058972653 0.19394714
0.05831296 0.20066485 0.023850849 -0.22381613 0.046325695 0.019868191 0.019622957 0.016716035
0.011593528 0.015943035 0.02783861 -0.017911257 0.011104402 -0.022585915 0.01826676 -0.03670867
0.036301166 0.014407589 0.045953535 0.24195129 0.012623179 0.030652614 0.10103802 0.0026036268
-0.18842247 0.007903646 0.003568062 0.03999909 0.012725025 -0.0193676 0.011439599 0.3333003
0.016669383 0.036661573 0.016168822 0.008533687 0.050764114 0.052450087 0.0364801 0.23334141
0.03527244 0.04576128 0.004979641 -0.004528955 0.0579646 0.003153223 0.029645167 0.02240273
0.1828436 -0.03347666 0.005247852 0.037126824 0.1685934 -0.03836531 -0.15979686 0.051364932
0.051197 0.03841152 0.00011954283 0.009808065 0.007589526 0.04504534 -0.021837236 -0.02905773
0.046788856 0.04454684 0.0045205313 0.014915766 0.0025019837 0.08495474 0.04232326 0.02245307
-0.18734108 0.0369807 0.025816957 0.026065754 -0.0969895 0.015026703 0.032099966 0.00073590316
0.04216668 -0.020598274 0.050389595 -0.020607177 -0.23689634 0.025965098 0.031318463 0.048504427
0.02181508 -0.038608477 0.002242328 0.019788785 0.03576331 0.020618457 -0.15643856 0.012091818
0.053458717 -0.1119758 0.052407958 0.03491186 -0.31062582 0.045698542 0.021050964 0.05270834
0.055050977 0.03174681 0.25522843 0.042512555 0.0075711147 -0.016309556 0.028787687 0.01599145
0.011448486 0.010802261 -0.20424365 0.011482806 -0.69575506 0.13070281 0.049736887 0.071797274
0.009976814 0.06801669 0.051404446 -0.01190114 0.14847988 -0.37452546 0.019629367 -0.25004438
0.053878028 0.18601336 0.03187277 0.04143685 -0.005673025 0.0014262412 -0.03915804 0.055835534
0.017007845 0.024286257 -0.0039338907 -0.041349545 0.019414077 0.03150097 0.05271161 0.04132155
0.047504876 -0.24624252 0.0072865086 0.029621875 -0.23835458 -0.2909676 0.049534112 -0.11506345
0.012708311 0.03196066 0.20147172 -0.008498226 0.0156778 0.025357638 0.049395 -0.029875325
0.010475696 0.16332023 0.037688687 0.14268097 0.010240683 0.0075088595 0.009945826 0.034646768
0.059674073 0.05269287 0.2266913 0.37039325 -0.0039670356 0.050898653 -0.36396974 0.01955124
0.5924978 -0.036467966 -0.060126945 0.037663702 -0.018853199 0.0047350363 0.21466953 0.013748672
0.036930863 0.018586116 0.17985769 0.042872332 0.010813122 0.057151332 0.22084257 0.022734532
0.008145119 0.04126842 0.006692708 -0.029733676 0.0045000487 0.014515097 0.01913105 0.053630598
0.048508212 0.003770045 0.00097274204 0.031995945 0.055670515 -0.124555826 0.20795806 0.22333497
0.0050333356 0.031895846 -0.012805349 -0.23295021 0.023019802 0.011448724 0.035130627 0.052356467
0.023440018 0.40873623 0.04564951 0.011931723 -0.23680852 0.04186897 -0.008961425 0.00458083
-0.029386729 0.04994729 0.038258858 0.05319555 0.03866282 0.030640597 0.13761446 0.051151626
-0.01002425 0.048658945 0.023135524 0.01119779 0.006151355 0.06595367 -0.18006968 0.020578431
0.027359802 0.040726006 0.039531868 0.21295352 0.04910675 0.024532381 0.014422067 0.057005394
