Training/Model/model_actor_robot_subset_joint2_02.pt (torch, 285231 bytes, 6 tensors)

network.0.weight f4 [256, 10]
00000000: 385f ea3e 3e17 ef3e df0d 793d 6b8e d9bd
00000010: fa40 5a3e 1933 643d 23ed 7e3e 9126 18be
00000020: 3b85 c0be bf0f 053d 729a af3e 2ef7 0a3f
00000030: e6f4 4cbd 4b53 aa3e 01bd 9dbb d08d c9bc
00000040: 5b26 bd3e f530 0a3d 8f18 b7be c21b 273d
00000050: 89d8 8d3e 8fa7 163f d3b6 de3e 7470 6d3e
00000060: 73db d53e 32bb 5a3e d917 143f f80f bf3e
00000070: d85d d5be 878c 9c3e c696 863e e4cc 683e
00000080: 86de 703d 21fc 93bc 7d8f b83c 00f2 2cbe
00000090: b196 b6bb 7670 bf3c 6036 95be 9234 2abe
000000a0: 96b6 e93e 23da 193f 9d43 3a3e 1275 c63e
000000b0: 6bf4 083e 1e68 4dbe 4af6 003e b82f 103e
000000c0: 8c56 eabe 27f6 16be 1f56 903d 3a45 b53e
000000d0: 4614 bb3c 70dd 6fbe 527e 41be 3641 cd3e
000000e0: 98dd b63e d729 f4bd cdf0 0abf 07aa d53e
000000f0: 6f9c 80bd eb20 783d 0135 26be 2c24 2e3c
00000100: 8074 f0bd dcaf 2f3e 7a11 2ebe 9dc0 cebe
00000110: 4858 0ebe 20dd e63c d79e 863e c219 a13e
00000120: ecbe 7cbe 93b4 b83e 6bf0 a0be 83ae 4c3d
00000130: 6521 773e 95ce bb3d a99c 96be cd88 57bd
00000140: ca81 8b3d 71db 553e 222b 813e 210f 5c3e
00000150: e256 a2bc 2cf3 84bd b8a7 0c3c 7c71 e13b
00000160: fe52 0dbf 4ab2 9bbe e08e 583f 8e47 1c3f
00000170: 09ee c23e 9dbf b73e 00dc 8b3c f06a 013d
00000180: 6452 dd3e 968a 29be 5c44 20bf 045f 96be
00000190: 5d8a 78be 5fde f43d 60c1 88bd 6096 5bbb
000001a0: a523 573e 3df5 94bc 70ae 3b3e 70a6 663d
000001b0: 1e3f dfbd 51f0 0abe 98fc e33e 8783 81bd
000001c0: 0ca0 d1be 27ac 6a3e 4910 92be 56b7 79bc
000001d0: ae03 8f3d 1522 d3bd dda2 c1be e7da b83d
000001e0: d425 e53e 88fc b53e 6e4d 8ebe 350b 0a3d
000001f0: f39f 7dbd f2a2 c2be fb6d fe3c 3cee 193f
00000200: 74d1 6dbf 077f f7be baf2 573e 7824 18bd
00000210: daf2 753e 003d 62bc aa40 793e 2088 e53d
00000220: 922d 35be 2ed5 1d3e 8ccd 0cbe e01e 94bc
00000230: bf6f 9a3d 5866 be3e 8351 1bbe 93fe a3be
00000240: 8e1e c93c 17be 773e 415e 343e 30b9 1cbd
00000250: 7296 d2be 3f75 b9bd 5a72 e83e de8b f13e
00000260: c3cb 6abe 37a7 183e 388b d83d 3048 ed3c
00000270: 0b1a 833e 7c07 fcbd 0004 97be 6ecb 083e
00000280: e059 323e ef1a ef3e 85d0 573d f207 e23e
00000290: 903a 81be 78b6 f9b9 cf3b 363f c0af 843c
000002a0: 08da a1be 5e26 503e 231b 993e f8c9 9d3e
000002b0: 1c0d a2bd db1b 933d aca1 04bf eff0 8fbd
000002c0: e40e c13e 91fc 1fbd d763 bbbe bd7e 2abe
000002d0: efa1 8c3e 201d e73e e081 113e 33ea 3e3d
000002e0: ad3b 27be 3262 54bd e1f0 a83e eda7 103e
000002f0: 1bc3 6fbe fa8d 363c 98fc e33e f829 2c3e
00000300: 2461 663e 26e9 e03d e8f5 86bc bbe4 29bd
00000310: 2c11 9f3e 15c9 363d 8c60 433b 3620 3e3e
00000320: fada 4e3e c899 0e3f 4834 3bbf 3bd8 ec3e
00000330: eea8 13be 6472 713c 14da e73e 2e63 c6bd
00000340: c898 d1be a8e9 c93e ab4d 043f ad51 2f3f
00000350: a5e3 e1be 2c60 733f 55be 01bf 2cba 743e
00000360: 8345 bb3c 615d 07bf 64af e5be ae64 29be
00000370: 3941 253e 5152 9ebd 3124 07be 2783 8ebd
00000380: 6b17 be3d 1769 033e 95af 9d3c 57c0 393c
00000390: 16f0 0c3e d31e ffbd cda9 393f 3950 033f
000003a0: 67e6 883e 8de3 0c3d 8c79 0dbe 1e94 ac3e
000003b0: 8c60 053f d570 243d 0ad8 0bbf 175d 8cbe
000003c0: 8039 e33c ca64 2b3e 7426 62be ef1a d73d
000003d0: d560 2fbe a571 52bc d1d3 003e dac7 a9be
000003e0: b982 e7bd 7e50 ae3d bc6e 0d40 fda9 4f40
000003f0: 94a8 c4bf 4214 7c40 4be8 873e 390f ec3e
0.4577577 0.4669742 0.060804244 -0.10622867 0.21313849 0.055712793 0.24895148 -0.14858462
-0.37601647 0.03248572 0.3429752 0.54283416 -0.05003824 0.33266672 -0.004813791 -0.024603754
0.36943325 0.033738095 -0.35760924 0.040797956 0.27704266 0.58849424 0.4349886 0.23187429
0.4176899 0.21360472 0.5784889 0.3731687 -0.4167316 0.30575964 0.26286906 0.2273441
0.058805965 -0.01806456 0.022529358 -0.1688919 -0.005572163 0.023369055 -0.29143047 -0.16621616
0.45647115 0.60098475 0.18189855 0.38761193 0.13374488 -0.20059249 0.12593952 0.14080703
-0.45769155 -0.14742337 0.07047676 0.35404378 0.022836816 -0.23424315 -0.18895844 0.40088814
0.35715938 -0.11922043 -0.5427368 0.41731283 -0.06279837 0.060578268 -0.16231157 0.010628741
-0.117409706 0.17156929 -0.16998854 -0.40381327 -0.13900864 0.028181612 0.2629306 0.31464964
-0.24682206 0.36075267 -0.31433424 0.049971115 0.24133833 0.09170262 -0.29416397 -0.052620698
0.06811865 0.20884492 0.2522822 0.21490146 -0.01981682 -0.06491694 0.008584909 0.0068799835
-0.5520476 -0.3040946 0.8459301 0.61046684 0.3807223 0.35888377 0.017072678 0.031596124
0.43226922 -0.16556773 -0.6260431 -0.29369366 -0.24271531 0.119564764 -0.06677508 -0.0033506379
0.21009691 -0.018183345 0.18328261 0.05631107 -0.109007105 -0.13568236 0.4452865 -0.06323915
-0.4094242 0.22917233 -0.2852805 -0.015241465 0.06983124 -0.10309235 -0.37819567 0.09026127
0.44755423 0.3554423 -0.2779345 0.033702094 -0.061920118 -0.38014942 0.031058302 0.6012914
-0.92897725 -0.48339102 0.21088687 -0.037144154 0.24018422 -0.013808489 0.24341074 0.112076044
-0.17693165 0.15413353 -0.13750285 -0.018081129 0.07540845 0.37187457 -0.15167813 -0.32030162
0.024550702 0.24193607 0.1761408 -0.038262546 -0.41130406 -0.09055566 0.45399743 0.47177023
-0.22929291 0.14907537 0.10573429 0.028965086 0.25605807 -0.12306115 -0.2949524 0.13358852
0.17417097 0.46700236 0.052689094 0.44146687 -0.25239992 -0.0004762893 0.7118501 0.016197085
-0.31611657 0.20327136 0.29903516 0.30818152 -0.07912657 0.071830474 -0.5180919 -0.07028376
0.37706673 -0.039059225 -0.3659961 -0.1664991 0.27467296 0.45139408 0.142097 0.04661007
-0.16331358 -0.05185146 0.32996276 0.14126559 -0.2341427 0.011142248 0.4452865 0.16812885
0.22497994 0.109819695 -0.01647468 -0.0414779 0.3106779 0.04462536 0.0029812185 0.18566975
0.2020072 0.557034 -0.7312665 0.4625872 -0.1441991 0.0147367455 0.45283568 -0.09686886
-0.40936875 0.39436078 0.5168101 0.68484 -0.44118991 0.9506862 -0.5068105 0.23899144
0.022860294 -0.5287686 -0.44860375 -0.16542313 0.16138162 -0.07730544 -0.131974 -0.06958609
0.092818104 0.12833057 0.019248763 0.011337361 0.1376346 -0.12457051 0.7252472 0.51294285
0.26738283 0.034396697 -0.13815898 0.33706754 0.52100444 0.040146668 -0.54626524 -0.27414772
0.02773738 0.16737667 -0.22084981 0.10503184 -0.17126782 -0.012844478 0.12580802 -0.33160287
-0.1130423 0.085114464 2.2098837 3.2447503 -1.5363946 3.9387364 0.26544413 0.46105364

network.0.bias f4 [256]
00000000: 2f40 36bf 2e83 c5be 70d3 eabe e9db 55be
00000010: eb72 edbe e90d ccbe 40f5 12bf 345e b3be
00000020: ffd5 efbe 604f 2abf 716b eabe e644 41be
00000030: e785 37bf 659e 8bbe e661 cfbe 5947 9bbd
00000040: 77f9 09bf c84c 06bf 0612 9bbd 4cef a9be
00000050: 46a3 57bf ea77 04bf 4784 e4be 2fc6 8abe
00000060: be15 f6be ee74 93bf 46ca d7be b4b5 c63d
00000070: f690 9abd 2ea0 dbbe 93c8 07be d1c4 b0bf
00000080: 23a7 6fbf b167 f7be 5727 f2be 6b32 553e
00000090: bdb2 d3be 3912 7bbe 83f7 4abf 17b7 33bf
000000a0: 8b5e 62bc 0475 e3be 5bd4 1dbf 6619 f5be
000000b0: 8269 8fbe b6d1 f1be 4297 dabe c853 6abe
000000c0: 2d53 67bf 3133 64be 9617 fbbd c565 d0be
000000d0: b353 ccbe d840 35bf 2891 233f 7ec3 d0be
000000e0: 039e 76be aad9 71be 9f4f 89be 1238 acbf
000000f0: 0ec7 19bf a69e 12bf 0197 2cbf 698c e2be
00000100: 753e 85be ca67 ccbe 1f1e 77be 85f8 1fbd
00000110: cf90 a4be 68c5 d9be 091f d7be ed79 f1be
00000120: 0efa a2bd 4d11 74be 2f61 12bf b6af f3be
00000130: 492e b4bd c478 b6be a433 fdbe 8c78 06bf
00000140: a355 94be 46f0 1abf 5fa4 98be 7532 9fbd
00000150: 32a3 c3bb 58f8 5dbf 02a7 49bf d9b6 dfbe
00000160: e7f9 883d a3a5 f9be 2027 16bf 5d93 aabf
00000170: 69fc 8abe 2c0c 4fbf 0472 d3be d388 fcbe
00000180: 421d 1fbe 64c4 b6be dac9 8bbc c9d4 cbbe
00000190: 59c7 bfbd 621c 9fbe 05d5 4bbf c5d4 eabe
000001a0: 7f8a f5be d72c 45bf 2a6b 0fbf 02f6 23bf
000001b0: e8bc d7be 5514 04bf 5243 a1be 9af5 9ebe
000001c0: 18fd 80be 886a 89be 46c5 85be f74f c6be
000001d0: 8d81 f4bd d9a1 46be 338b 15be 9c7c 16bf
000001e0: b41a 133d 86f6 dbbe a580 febe 36bb 64bf
000001f0: a8df ffbe 289b 8cbd a0a3 56be a688 1fbf
00000200: abc0 76bf e3a1 41bf 32d0 cabd f4c6 b3be
00000210: 747d 26be 45d3 18bf 3624 dcbe 2a24 23bf
00000220: 608f 79be 23e2 c7be 5636 07bf af89 84be
00000230: f03a 38bf a8db 06bf a1ac bbbe 8e13 78bf
00000240: 7eb4 a2be 687b 88be fae4 1dbf bd2b a5be
00000250: 5edd e2be 18af 0cbf 8d84 55bf 7687 c6be
00000260: 031c ebbe 0477 d4be 0feb ecbe a6c6 13bf
00000270: 7d3a 0dbf 6e26 27bf 6f33 2cbf d8d3 35bf
00000280: 089a d4be 92f8 03bf 7718 73bf adc7 39bf
00000290: 0ff2 32bf f560 3ebf 7561 05bf 2fa4 7f3d
000002a0: 4e1e a1be f8de 55be fa22 a43d 017d 22bf
000002b0: 32a9 e4be 82cc 66bf d1ce 8ebe 307b 55be
000002c0: 28ac 593d 8ab0 58be d5ce 92bd 1dc8 91be
000002d0: e9bd 16bf b729 dbbe 46db 03bf 550b 0abf
000002e0: 6dd6 21be 8904 19bf 05ae 25be fbab 0fbf
000002f0: 5f09 e7bd aed8 2ebf 03d0 61bf ae04 98be
00000300: acd3 19bf 5a03 24bf 3dc9 bcbe 84f8 12be
00000310: 66d6 81bf e71f 42be f9c9 86be c365 89be
00000320: c00b 19be c629 d4bd 640b 9cbe 198f 27bf
00000330: ce8a f8be 7693 84be 1c96 adbe a88f c3be
00000340: fb36 babe 08d3 94be 0084 3abe 8b9a 9bbe
00000350: 9ca1 a7be c7a9 cabe 8534 8abf a62e efbe
00000360: 8c73 b3be 2348 41bf 30da 26bf e57f 12bf
00000370: 51a3 893d 8d9d 10bf dbd7 27bf ce22 32be
00000380: cc38 a1be 51dc a7be 6013 f2be 62ea 14bf
00000390: e3e7 2ebf 4c69 26bf fa81 17bf 13e9 a0be
000003a0: cc90 15bf f1ba 73be 0337 dfbe d04c 84be
000003b0: 7bd4 d3be d721 1bbf 79c0 2cbf ec49 a1be
000003c0: 333d 91be 68c2 04bf 91c7 9dbe a695 d7be
000003d0: 990b c6be 96bd 3fbe 93bd 41be c3c6 dcbe
000003e0: 20b7 17bf cd48 d1bb e5cd 9bbf 7270 91be
000003f0: 3e1a 87be 3d6b efbe d6ce 3dbe b2d8 14bf
-0.71191686 -0.38576645 -0.4586444 -0.2088467 -0.46376738 -0.39854363 -0.5740547 -0.3503281
-0.46842954 -0.66527367 -0.45785096 -0.18873939 -0.71688694 -0.27269283 -0.40504378 -0.07581968
-0.5389628 -0.5246091 -0.07571797 -0.33190382 -0.8423351 -0.51745474 -0.4463217 -0.27104327
-0.48063463 -1.1520059 -0.4214651 0.09702626 -0.0754718 -0.42895645 -0.13260107 -1.3810064
-0.93614405 -0.48321298 -0.4729564 0.20820014 -0.41347304 -0.2451867 -0.7928392 -0.7020125
-0.013816486 -0.44425213 -0.61652154 -0.4787094 -0.28010184 -0.4723031 -0.42693526 -0.22883523
-0.9036129 -0.22285153 -0.12260358 -0.40702644 -0.39907607 -0.7080207 0.63893366 -0.4077415
-0.24083714 -0.23618189 -0.2681856 -1.3454611 -0.6006936 -0.5727333 -0.67417914 -0.4424775
-0.26024213 -0.39922935 -0.24132584 -0.039055366 -0.3214173 -0.42533422 -0.42015865 -0.47163334
-0.079578504 -0.23834725 -0.5717954 -0.47594994 -0.08797891 -0.35639012 -0.4945346 -0.5252769
-0.28971586 -0.6052288 -0.29812905 -0.07773296 -0.005970382 -0.8670707 -0.7877046 -0.4369419
0.0668829 -0.48759183 -0.5865345 -1.3326222 -0.271457 -0.8087795 -0.41297925 -0.4932314
-0.15538505 -0.3569671 -0.017064024 -0.3981078 -0.093641944 -0.31076342 -0.79621917 -0.45865455
-0.47957227 -0.77021545 -0.56022894 -0.64047253 -0.42136312 -0.51593524 -0.31496674 -0.31046754
-0.25193095 -0.2683909 -0.2612707 -0.38732883 -0.11938772 -0.19397677 -0.14603882 -0.5878389
0.035914138 -0.4296152 -0.49707523 -0.8934816 -0.49975324 -0.06865531 -0.20960855 -0.62317884
-0.9638774 -0.75637645 -0.09902991 -0.35112727 -0.16258794 -0.5969737 -0.42996377 -0.63727057
-0.243711 -0.39039716 -0.52817285 -0.25886294 -0.7196493 -0.5267892 -0.36655143 -0.9690484
-0.3177833 -0.26656651 -0.61677516 -0.32259932 -0.44309515 -0.5495467 -0.8340538 -0.38775223
-0.4591981 -0.41497052 -0.46273085 -0.5772499 -0.5516737 -0.65293014 -0.6726598 -0.7102637
-0.41523767 -0.51551163 -0.94959205 -0.72570306 -0.699006 -0.74366695 -0.5210183 0.062412437
-0.31468433 -0.20885837 0.08014484 -0.6347199 -0.44660336 -0.90155804 -0.27892163 -0.20847774
0.053142697 -0.21161094 -0.07168356 -0.28472987 -0.5888353 -0.42805263 -0.5150646 -0.5392354
-0.15804453 -0.59772545 -0.16179664 -0.56121796 -0.11281084 -0.68299377 -0.88208026 -0.2969107
-0.6008861 -0.64067614 -0.36872283 -0.14352614 -1.0143554 -0.18957482 -0.26325968 -0.2683545
-0.14945889 -0.1035953 -0.3047744 -0.65452725 -0.485434 -0.25893754 -0.33903587 -0.3819554
-0.36370072 -0.29067254 -0.18214417 -0.30391344 -0.32740486 -0.39582655 -1.0797278 -0.46715277
-0.35049093 -0.75500697 -0.6517668 -0.572264 0.06720603 -0.56490403 -0.65563744 -0.1739609
-0.31488645 -0.32785276 -0.47280407 -0.5817014 -0.6832258 -0.6500442 -0.59182703 -0.31427822
-0.5842407 -0.23801781 -0.43596658 -0.25839853 -0.41373047 -0.6059851 -0.6748119 -0.3150171
-0.28367004 -0.5185914 -0.3081632 -0.4210636 -0.38680723 -0.18724665 -0.18919973 -0.43120393
-0.592638 -0.0063868524 -1.2172209 -0.284061 -0.2638721 -0.46761504 -0.18535933 -0.5814315

network.2.weight f4 [256, 256]
00000000: 1b98 4fbd 28c5 06bc 42e2 3dbd e641 53bd
00000010: 3b37 11bd 74ce 87bc 0b9c 8bbd 2048 e23c
00000020: e8a5 16bd 4afc 38bd 20c4 f13c 17b2 6abd
00000030: 70e7 67bc 7c85 d73c dc44 f6bd 2ba7 f6bc
00000040: e016 63bb 283a 813c 0952 9bbd 4eef 33bd
00000050: 5eb5 573d 11da 9ebc 8afa 1fbd 03ad 64bd
00000060: fc89 4c3b 355c 9cbd 2ae3 67bc 4aa4 55bd
00000070: 5b7c 0fbd a39c c2bd 948a f3bd 42ec 35b9
00000080: f8a3 b5bb cb4e f6bd db8c f4bc b200 bcbd
00000090: 7443 b9bd da55 1cbd 2f2b 7cbd a085 dfbd
000000a0: 7444 90bd cf90 b33a c22d 2fbd a654 b8bd
000000b0: f636 f7bb d947 5ebd ecd1 babd 4dc5 ae3d
000000c0: e9dc 10bd d4ee eb3c 07b9 66bd 6dee e5bc
000000d0: 4058 a5bc c695 e7bd 41c8 d2bd 5a21 e9bd
000000e0: 4139 9abd 736c 15bb 96be 7b3d c40f 54bd
000000f0: 462b 32bd 6b16 82bd b124 e5bd df73 1abd
00000100: f5ff e23d 4e6b 533d 40ec b2bd 1a8b e4bd
00000110: b7d3 fabd 9a3b cbbd c0c4 bbbc a9db 7abd
00000120: caed b9bd 0d04 88bc 8f08 d1bd 4ba9 e6bd
00000130: f6cb 28bd c5ba 4bbc ae5c 4dbc 2552 80bc
00000140: a620 0b3d 68d8 98bc 6766 d73d fa8c 7bbd
00000150: 653c 0fbc eec4 c4bd 7bc3 c8bd 9926 b1bc
00000160: 3ae6 bcbc 2376 c2bc f298 01bd f1ab 8abd
00000170: 6f9f debd 2c71 f0bc 1071 57bd 28f7 1b3c
00000180: 1a3e 15bc ca21 0d3d ac5e 20bd 939a aabc
00000190: 3d18 d0bd 2cd5 cbbd b4e1 4b3d 3eb0 2ebd
000001a0: deca a8bd 22eb 6cbd 9591 c5bd 5a6d 9abc
000001b0: 1cab 53bd d5cb 7cbd 495b b1bd ecb8 cc3c
000001c0: 221f 703d 88d7 9e3c 45fd eebd 9cdb 40bc
000001d0: 7b75 66bd 3995 9cbd ac81 f6bd b50a 1dbd
000001e0: 5566 b1bd a4be 3d3d de5c f8bd fe65 1f3d
000001f0: 38e7 3a3d 385e c9bd 8060 6b3d 7e42 bcbd
00000200: b7e1 66bc f3c8 b7bc d8d8 bf3c 45f3 c7bc
00000210: ff56 a5bd a002 adbd daa7 23bd 9754 c1bc
00000220: 625f 6ebd 06e9 1abd 60f7 ba3c 92a0 b8bc
00000230: 941d 86bd 406e b93b b9e4 00bc 1ba9 873d
00000240: aa84 cdbc 629a c7bb c67f 1bbd 0a73 e4bc
00000250: e764 f6bd f4ee 65bd d629 edbd 60ab f8bc
00000260: bae1 48bd a754 93bd a119 80bd bfda c6bd
00000270: a97c e8bd d3f8 86bd 32fb e7bd 082c 413c
00000280: e0da 39bc fecc 7b3d e046 0bbb 4b56 9cbd
00000290: ac20 983c 38d6 583c a52a f1bd 8065 33bd
000002a0: 40e7 45bc 5970 f3bc 6a35 65bd 3b37 eabd
000002b0: 6ac8 353d 7c6d bbbd 79b8 e6bd 2dd6 b3bd
000002c0: 8ce7 82bd 4afa edbd e4de 8fbd d0e3 5abd
000002d0: 8152 7abd d827 e4bb 0ea6 db39 606f babd
000002e0: 7741 0bbc 4b9f 8cbc 4852 483d 6193 823d
000002f0: 6c09 a3bd a8a6 0fbc 2b44 cfbd d412 b53c
00000300: f48d 92bd 5d46 dcbd 75f1 a2bc a156 babd
00000310: d3a8 9bbd d444 00bd 4ae8 163d 3c6a cfbd
00000320: f8a8 ddbc 1283 d33d 68b1 28bc 325e 6dbd
00000330: d8cc babc 507c 9fbd aade 7abb 8643 bcbd
00000340: fed7 b3bd 84bb b3bd 3826 f13b 5dd0 babd
00000350: ca7b d8bc 0c66 23bd 9187 00bd 4092 88bc
00000360: 6079 b93c 63e9 8cbc f345 71bc 6b60 91bc
00000370: e9c0 babc 90d8 ed3c af21 83bd a3ac 9bbc
00000380: a208 013d fa0c 98bd b019 13b9 2425 ee3c
00000390: 819b efbd e5bf b4bd 2aaa d6bd 3a55 223d
000003a0: 6003 d63b 7e71 5a3d d0be dabd 2013 b03b
000003b0: d3da 223d 6124 47bc 2802 68bd 6ce5 14bd
000003c0: 1719 c2bc 14e1 143d 6d10 0fbd 8069 80bd
000003d0: afac ccbc a1ec 85bc cdd1 19bd cce8 3dbd
000003e0: 3bd9 2abd 36a4 a3bd 03c5 b23c 7a5c 30bd
000003f0: 3124 c13b 8a3d c2bd 608e 85bd 2956 d6bd
-0.05068217 -0.008225717 -0.046358354 -0.051576518 -0.035453063 -0.016577937 -0.06816872 0.027622283
-0.036779314 -0.045162477 0.029512465 -0.057298746 -0.0141543 0.026308767 -0.12024853 -0.030109009
-0.0034651086 0.015774801 -0.07584006 -0.04392939 0.0526632 -0.019391092 -0.039057292 -0.05582906
0.0031210175 -0.076347746 -0.014153281 -0.05215863 -0.035030704 -0.09502532 -0.11891666 -0.00017349518
-0.0055432282 -0.12026747 -0.029852321 -0.0917982 -0.09046069 -0.038167812 -0.06156462 -0.10914159
-0.070443064 0.0013699773 -0.042768247 -0.090005204 -0.0075443937 -0.054267738 -0.09122071 0.08533726
-0.035366926 0.028800406 -0.0563288 -0.028067792 -0.020183682 -0.11307864 -0.10292102 -0.113833144
-0.075304516 -0.0022800236 0.061461054 -0.051772848 -0.0434983 -0.06351932 -0.11188639 -0.03770816
0.11083976 0.051616006 -0.08736467 -0.11159344 -0.12247413 -0.099234775 -0.022920966 -0.06124464
-0.09078558 -0.016603494 -0.102067105 -0.11262759 -0.041210137 -0.012434666 -0.012534304 -0.01566417
0.033966683 -0.018657878 0.105175786 -0.061413743 -0.0087424265 -0.09607874 -0.0980291 -0.02162485
-0.023059 -0.023737973 -0.03164 -0.067710765 -0.10870253 -0.02935084 -0.05259806 0.009519376
-0.009109044 0.034456052 -0.039152786 -0.02082566 -0.10160873 -0.09952769 0.049775794 -0.042648546
-0.08241819 -0.057841428 -0.09646908 -0.018850971 -0.051676854 -0.061717827 -0.086599894 0.024990521
0.05862344 0.019389883 -0.11669401 -0.011771109 -0.05626438 -0.076456495 -0.12036452 -0.03834029
-0.086620964 0.046324387 -0.12127088 0.038915627 0.045630664 -0.09832424 0.057465076 -0.0919237
-0.014091901 -0.022434687 0.023418829 -0.024407992 -0.08073234 -0.08447766 -0.039954998 -0.023599906
-0.058196433 -0.037819885 0.022823036 -0.022537503 -0.0654861 0.005658895 -0.007867032 0.06624051
-0.025087673 -0.006091402 -0.03796365 -0.027886886 -0.12030964 -0.056136087 -0.11580245 -0.030355155
-0.049043395 -0.071938805 -0.06254888 -0.09709691 -0.11351902 -0.06590428 -0.113272086 0.011790283
-0.011343688 0.061474793 -0.0021251962 -0.076336466 0.018570267 0.0132346675 -0.11775712 -0.04379797
-0.01207906 -0.029716657 -0.055959143 -0.114363156 0.044380583 -0.09151742 -0.11265654 -0.08781085
-0.0639182 -0.116200045 -0.07024935 -0.053439915 -0.061113838 -0.0069627576 0.00041894655 -0.09103274
-0.008499495 -0.0171658 0.048906595 0.063757665 -0.079607815 -0.008767761 -0.10120424 0.022103705
-0.07155982 -0.10755608 -0.019890526 -0.090985544 -0.0760056 -0.03131564 0.036842622 -0.101276845
-0.02705811 0.10327734 -0.010296203 -0.05795116 -0.022802755 -0.077873826 -0.003827969 -0.091925666
-0.087814316 -0.08776 0.0073592924 -0.091217734 -0.026426215 -0.03989224 -0.031379286 -0.0166713
0.022640884 -0.017201131 -0.01472615 -0.017746171 -0.022797065 0.02903393 -0.06402909 -0.019003218
0.031502374 -0.0742435 -0.00014028582 0.029070444 -0.11699582 -0.088256635 -0.10481675 0.03963206
0.006531164 0.05333089 -0.10680926 0.0053733736 0.03975947 -0.0121546695 -0.05664268 -0.036351606
-0.023693604 0.036347464 -0.034927774 -0.062701225 -0.024984686 -0.016348185 -0.037553597 -0.04636459
-0.041711073 -0.07990305 0.021822458 -0.043056943 0.005894207 -0.09484394 -0.065212965 -0.104656525

network.2.bias f4 [256]
00000000: ce40 8bbd 25cb bfbe a549 d2bd 45f9 9ebe
00000010: 8c4f 2abf 2d8c 88be 0ef8 2dbf 3671 f9bd
00000020: 1a0e bfbd 2c8d 90be 3e68 b0be 73c0 3fbe
00000030: 61fa d9be 52e1 d3be 5943 08bf 11a3 9bbe
00000040: b7ae 403f 6b8f d6bd e5d5 c5be bd83 09bf
00000050: a8be 06bf 64bd a7be f07b 8fbd c1e5 60bf
00000060: c73d 9ebe 7cc5 5dbd 9bd7 66be 6b24 b5bd
00000070: e9e0 f0be 0117 fcbe 9dff 44bf b070 92bf
00000080: 7753 ffbe 0281 53bf 96ab edbe 2e4c afbe
00000090: 9f69 90be 7f7f abbe 4a32 83bd 81ab f0be
000000a0: 768e 2dbf bcf6 b7be e314 94be edd1 d9be
000000b0: a1a6 9bbe baca ccbe 84f9 8ebd 5294 95be
000000c0: 5516 9bbe 2427 62be fcd0 60be b540 30be
000000d0: 884a 22bf b082 b0bd 35ff 2bbf cafc 99be
000000e0: ca21 a4be 0c91 fcbd df83 20be 201a 37bf
000000f0: 6336 64be 8c61 1fbf c294 dabd d50b dabe
00000100: 73a0 3cbf 516f d0be cec4 c9be eb3c 3dbe
00000110: f0aa 2abf 57bb bdbf e12a 0fbf f6de e6be
00000120: 80f9 bfbe 4b1d 75c0 f6dd 90bf d927 43be
00000130: d443 e2bd 7a59 23c0 c92e babe bd70 a4be
00000140: a7f5 923f b899 a5be 801b 88bd 5fc9 6ebe
00000150: c9bb 51be c249 44be 12b2 c3be 0ce4 a1be
00000160: 2e67 99be 648c 16bf 20e5 323f a7ad b4be
00000170: b21f 15bf e7c6 3e40 dac4 d4be 6e90 83be
00000180: 66c5 49bd 4b20 3ebe a7b0 c7be 9723 d4be
00000190: 3d6b 28be 9089 0ebf 7923 72bf cf43 ffbe
000001a0: 8719 53bf 27a3 1abf 05b9 d6be be47 d3bd
000001b0: 3ff8 debd c70b babe e33b 50be e5e1 c9bd
000001c0: 800e d5be a7a7 9ebe 1655 b6be 9935 f5bd
000001d0: 108e 68bf e28c b13f de9d efbd 096d a9be
000001e0: f623 dbbd 8824 b4be d0ed 60bf d5d0 c6be
000001f0: e00f 1bbf 2889 2bbe dda1 5a3f 3fe5 52be
00000200: 62d3 56bf bfa4 c1be 1bc6 62bf 1212 3cbf
00000210: fe0a cfbe 0987 e6be c754 5ebf 2ebc c1be
00000220: 0cce 64be 4e61 febe e8c6 04bf 0025 2ebe
00000230: 3487 b8be 1989 e2be 73a3 96be 48cb eabd
00000240: 0b58 32bf e686 0abf 9fd1 46bf 7877 29bf
00000250: db42 b4be 2488 21be 50d0 16bf 9150 e7be
00000260: d07f 22bf 5d32 043f c524 a2be 9b4f 34be
00000270: db4a 86be 70f5 1fbf 3bc7 60be 0cfc a3be
00000280: 059c cabd 5c42 a2be 4a54 dfbf de7b 1ebf
00000290: fc60 aebe 9037 5cbe 104d 9bbe d865 b0be
000002a0: 09f8 84be 186c b5be 70c7 b2be 0c85 b2be
000002b0: 8b85 7ebf e616 c2bd e225 bfbd 0d60 8cbe
000002c0: 61d1 66bf ad60 40bf 6f7b 5fbd 556b 963f
000002d0: d1d2 c5bd f1ed 01bf 480d 06bf d4f0 1cbf
000002e0: da9f aabd 93ad 1bbe 2c48 84be f9f4 34be
000002f0: 8b6e e4bd a537 443f ed26 93be 905c d9bd
00000300: 351a 24bf f424 d3be a058 95be 7dce 6abe
00000310: 559f 0fbe 4729 38be dfc4 b2bd c0e9 60c0
00000320: 3488 a1be 2c83 aebe e49d fcbe 6f70 35bd
00000330: 6830 09bf 21e7 43be ce7d b9bd 4682 87be
00000340: 6c88 94bd 2dd7 9dbe 6e1f c6be 3378 aebf
00000350: 4530 30bd 7104 a9be 80d6 eebd f1e3 2cbf
00000360: 1556 cfbe 8333 693f fe72 e2bd 8f39 acbd
00000370: e3c3 92be 5fad b9be 4e20 48bf e510 d53f
00000380: ce05 12bf 682e c2bd 26e8 81be 3dd3 abbd
00000390: 4d68 d9be 3677 35be d41c 9bbe e2df babe
000003a0: e8e1 5fbe d149 4cbe 0de2 c0be 21cf 12bf
000003b0: 96cc 9ebe ac40 90be 354b c3be 81c2 c4be
000003c0: bb2c 7bbe f9b4 89be 10cf 20bf b800 c83f
000003d0: 001f 18be b8f6 c8be 2a2e b0bd 3e45 60be
000003e0: df64 c33e feef b9bd d059 90be 9171 73be
000003f0: 0885 51bf 7c3d c2be b4a1 08bf 2e37 a7be
-0.0679947 -0.37459674 -0.10267953 -0.31049553 -0.6652763 -0.26669446 -0.67956626 -0.121797964
-0.093288615 -0.28232706 -0.3445453 -0.18725757 -0.42573836 -0.41382843 -0.53227764 -0.30397847
0.75266594 -0.104765736 -0.3863975 -0.5371664 -0.5263467 -0.3276168 -0.07006061 -0.87850577
-0.30906507 -0.054143414 -0.22543184 -0.08844837 -0.47046593 -0.492363 -0.76952535 -1.144064
-0.49868366 -0.82618725 -0.46419972 -0.34237808 -0.28205582 -0.3349571 -0.06406076 -0.47005847
-0.67795503 -0.3593043 -0.28922185 -0.42542973 -0.30400565 -0.39998418 -0.06981185 -0.29214722
-0.30290475 -0.22085243 -0.21954721 -0.17212184 -0.63394976 -0.08618677 -0.6718629 -0.30075675
-0.3205703 -0.12332353 -0.15675305 -0.7152424 -0.22286372 -0.6225822 -0.106729046 -0.42587152
-0.73682326 -0.40709928 -0.39407963 -0.1848027 -0.6666708 -1.4822797 -0.55924803 -0.4509198
-0.3749504 -3.829913 -1.1317737 -0.1905817 -0.110480934 -2.5523362 -0.3636382 -0.32117262
1.1481217 -0.3234384 -0.0664587 -0.23319004 -0.2048179 -0.19168761 -0.38221794 -0.31619298
-0.29961532 -0.5880797 0.69880867 -0.35288736 -0.5825149 2.98089 -0.41556436 -0.2569613
-0.04926052 -0.18567006 -0.39001963 -0.41433403 -0.16447158 -0.55678654 -0.94585377 -0.4985642
-0.82460827 -0.604052 -0.41938034 -0.10316418 -0.10887193 -0.3633711 -0.20335345 -0.09857539
-0.41612625 -0.30987284 -0.3561179 -0.119731136 -0.9084177 1.3871119 -0.11700033 -0.33091
-0.107002184 -0.3518412 -0.87862873 -0.388312 -0.605711 -0.1675154 0.85403234 -0.20595263
-0.83916295 -0.37821004 -0.88583535 -0.73465073 -0.40438074 -0.450249 -0.8684811 -0.37838882
-0.22344226 -0.49683613 -0.51866007 -0.17006302 -0.36040652 -0.44245222 -0.29421577 -0.11464554
-0.6966559 -0.5411209 -0.77663606 -0.6619792 -0.35207257 -0.1577459 -0.5891161 -0.45178655
-0.63476276 0.5163935 -0.31668678 -0.17608492 -0.26228985 -0.6248388 -0.21951 -0.32028234
-0.098930396 -0.31691253 -1.7447598 -0.61907756 -0.34058368 -0.2150557 -0.30332232 -0.344527
-0.25970486 -0.3543403 -0.34917784 -0.34867132 -0.9942252 -0.09477024 -0.093333974 -0.2741703
-0.90163237 -0.75147516 -0.054561075 1.1751505 -0.09659351 -0.50753695 -0.52364016 -0.61304975
-0.083312705 -0.15202932 -0.25836313 -0.17671575 -0.11153897 0.76647407 -0.28740636 -0.10613358
-0.6410249 -0.4123913 -0.29169178 -0.22930332 -0.14025624 -0.17984496 -0.087289564 -3.514267
-0.31549227 -0.3408445 -0.4933921 -0.04429668 -0.5358949 -0.19131137 -0.090571985 -0.26466578
-0.07252583 -0.3082823 -0.38695854 -1.3630432 -0.043014783 -0.330112 -0.116620064 -0.6753531
-0.40495363 0.91094226 -0.11057089 -0.08409416 -0.28665075 -0.36265084 -0.78174293 1.6645781
-0.5704011 -0.094815075 -0.25372428 -0.083899 -0.42462388 -0.17721257 -0.30295432 -0.36498934
-0.2186352 -0.19950034 -0.37672463 -0.57347304 -0.31015462 -0.2817434 -0.38143316 -0.38429645
-0.24528782 -0.26895884 -0.6281595 1.5625219 -0.14855576 -0.3925073 -0.08602555 -0.21901414
0.38162896 -0.09078978 -0.28193521 -0.23773791 -0.81843615 -0.37937534 -0.5337174 -0.32659286

network.4.weight f4 [8, 256]
00000000: ad93 fc3c c463 4bbe 619b b13d cb9f 793e
00000010: e9b0 02be 229f c23d de26 ce3c 15a6 a6bd
00000020: 0143 65bd 8c4a ea3d 791c 42be bcd7 fabb
00000030: 7bcc 89bd 5542 6fbd 765e 03be 6a5f 593e
00000040: 5107 92bd fa98 3c3d b6d2 233e 94b6 243e
00000050: a56e 473f a562 1abd 4dd0 88bd c8df 943c
00000060: 6b1f e13b 6ac9 a0bd bd35 2c3e 71ae 853c
00000070: 8f7c cbbd dca3 a93e 9435 c4bd 56c3 2b3d
00000080: c626 6abe e710 5f3e 0688 16bf f514 93be
00000090: e367 44bd 9413 72be 38ea 693c 0cf9 81be
000000a0: 1052 00be 6220 cb3e a945 47be 6147 79bd
000000b0: 167b 0bbe 4cfb e0bd 74ec 673c f131 c53b
000000c0: 9240 96be 1a68 013e e6e4 9c3d cfdd a7bc
000000d0: dfe0 1a3e 2ab8 b7bd ff23 c6be 584e 65be
000000e0: 4b8d f8bb 803f 92be b4c6 ff3c 948f aa3e
000000f0: c6e7 06be 736a 7a3c d4ae 60bd ab07 03bc
00000100: 0d3b 973f 056e 9ebe 6bc8 183e 49dc efbb
00000110: 4f3e 403f 0ebe fb3d 2b55 cfbe 5562 b73d
00000120: 7ae4 283e c81e 0fbf 92fb ffbe 4d22 d3bd
00000130: 21d9 3b3d 8da9 47be 0b1d ecbe ba4c bbbe
00000140: 508c d6be 3d13 2cbe 6f29 9c3d b8ca 24be
00000150: fe17 8f3d 3b79 bf3c 8cba 883e 2b8c 9e3e
00000160: eab0 30be 0dc4 8bbe 1d16 bb3f cbee 813e
00000170: 2116 973d 84c4 a0bf a967 0c3e a21c 47be
00000180: 50aa 87bd 25fb 063e aa8b 283f c7b8 b23e
00000190: a185 af3e 74cf a5be 2e6e 29bf 06b5 9abe
000001a0: b264 f93d 8037 c93c e032 18bd b75d dfbd
000001b0: c7a2 593b d071 ef3d 30c4 41be 01c2 37bd
000001c0: 2020 8d3d 7793 b3bd 9753 06bf e23d 34bd
000001d0: 7164 ca3d a4cb 83be 3902 6ebd 9e3d b3bd
000001e0: 87a8 8b3c c012 763a 9fec 9dbe e14e 843e
000001f0: 94ee 4cbf 2ecf d83d 7be6 b1be f681 2a3e
00000200: ed64 24be 61dd 4dbe 54d9 a9be ebaa 233e
00000210: b9d2 d43e 4953 433f 50da 4bbe d934 00bf
00000220: a5ed fa3e 1ad1 0cbf 1048 393e e5fa a03c
00000230: 8646 d43e 26ea ba3e fda0 fbbd 9a1b e03d
00000240: 9393 04bf 80b6 c73e 238c 94bd 9ad2 9a3e
00000250: 60af f8bd 1423 d5bd 862d de3d 8d45 5a3e
00000260: 213b 8e3b 39b6 503e fb2a 68be 2841 883c
00000270: 944d f03d 0522 b13e bc2c 8cbc 2466 9dbd
00000280: 8b02 d7bb 2a28 cbbe f5ba 28bf 4f4d 28be
00000290: 03ee 19be b58f 5fbd 5cef 8dbc 5808 82bd
000002a0: 578f 5a3e 9320 a53e a539 003e c217 833c
000002b0: 056a 51be 8480 853c 6cc7 e93d 96e7 393e
000002c0: cc5a 8ebe 4081 c93d 96ff 0f3c b088 42bd
000002d0: f75e 263c d4c1 023f eb2e 923d c4de c33e
000002e0: 201a ccbc d9f2 ffbd 4d93 5f3e c5ce 96be
000002f0: bf96 7ebd 8201 913f 5d3e 943e aa96 91bd
00000300: e586 26bf cdd1 f13d 43d4 b5be 1625 0dbd
00000310: f86e 223f 1866 973c 9db6 6f3d 069b 123e
00000320: 65cf 69bc 77ae 643b aac6 eabc c5d5 a2bd
00000330: f9ed 963e 833f 823e fc10 1a3d 3303 2a3f
00000340: 6d6f 43bd bdaa 48bd 549d a7bc 55c6 0d3f
00000350: 66c0 0ebd f27d 1d3e 65c2 cd3d 515a b93e
00000360: 008a a83d 7ba0 a5be 6442 803d 5cbc 9bbb
00000370: 64db 6dbe de83 aa3d 6ea3 8dbf a025 fdbe
00000380: 639c 96be a40b 3c3c 08a6 20bd b71a 4a3c
00000390: 612b 693e 8b34 27be 416d 67be 4db6 04bd
000003a0: a6f3 e5bd c1e5 423d 3654 36bf af8c 5bbc
000003b0: f7a7 76be ec1b 8c3e 12f5 9abe 995f d63d
000003c0: 8f09 57be c3d6 0cbe 7d3b c13d c2ed 3ebf
000003d0: 8953 70bd 6447 8dbd f1c7 99bd 96d4 b53d
000003e0: c58b 363e f0ed d63c 9c0e d93c 3765 393e
000003f0: aa04 9bbe 6040 07bc 62dd 373d b759 7a3c
0.030832136 -0.19862276 0.08672214 0.24377362 -0.12762798 0.095030084 0.025165018 -0.081371464
-0.055972103 0.1144 -0.18956174 -0.007655112 -0.06728455 -0.05841287 -0.12829003 0.21227804
-0.07130302 0.046044327 0.15998349 0.16085273 0.77903205 -0.03769173 -0.06680355 0.018173113
0.0068702004 -0.07850917 0.16817375 0.016318532 -0.09935867 0.33132827 -0.09580532 0.041934334
-0.22866353 0.21783791 -0.58801305 -0.28726926 -0.047950637 -0.23640281 0.0142770335 -0.2538532
-0.12531304 0.39673144 -0.19460167 -0.060859088 -0.13621172 -0.10985431 0.014155496 0.0060179164
-0.29346138 0.12637368 0.076608464 -0.020491509 0.15124844 -0.089706734 -0.38699338 -0.22393167
-0.007585203 -0.28564072 0.031222679 0.33312666 -0.13174352 0.0152841685 -0.05485423 -0.007997434
1.1814896 -0.30943313 0.14920203 -0.007319961 0.75095075 0.122921094 -0.40494666 0.08954302
0.16493407 -0.55906343 -0.4999662 -0.10309277 0.045861367 -0.19498272 -0.46115908 -0.36581975
-0.41903925 -0.16804214 0.0762509 -0.16092956 0.06986998 0.023373237 0.26704824 0.30966315
-0.17254987 -0.27298012 1.4616123 0.25377497 0.07377268 -1.2559972 0.13711418 -0.19444516
-0.066242814 0.13181742 0.6583811 0.349066 0.34281638 -0.32384837 -0.66183746 -0.30216235
0.12177409 0.024562597 -0.037157893 -0.109065466 0.0033208595 0.1169163 -0.18922496 -0.04486275
0.06890893 -0.08768361 -0.524713 -0.04400433 0.09882439 -0.25741303 -0.05810759 -0.08751987
0.017048134 0.0009386949 -0.3084459 0.2584143 -0.8005154 0.105863914 -0.34746155 0.16651139
-0.16054125 -0.2010398 -0.3317362 0.15983169 0.4156702 0.7629896 -0.19907498 -0.5008064
0.49009433 -0.55006564 0.18093896 0.019650886 0.41460055 0.36506766 -0.122865655 0.109427646
-0.5178768 0.39006424 -0.072532915 0.302388 -0.12142825 -0.10407081 0.10848527 0.21315594
0.004340545 0.20382012 -0.22672646 0.016632631 0.11733547 0.34596267 -0.017111175 -0.076854974
-0.0065615824 -0.3967908 -0.65910274 -0.16435741 -0.150322 -0.05458041 -0.01732605 -0.06349248
0.21343742 0.32251415 0.1252199 0.01600254 -0.204506 0.016296633 0.1141499 0.1815475
-0.27803648 0.098391056 0.008788964 -0.047493637 0.010154477 0.5107701 0.07137855 0.38255894
-0.024914801 -0.124974914 0.21833535 -0.29454628 -0.06215548 1.1328585 0.2895383 -0.07108815
-0.6504958 0.118075944 -0.35513505 -0.034459196 0.63450575 0.0184813 0.058523763 0.14316949
-0.014270638 0.0034894028 -0.028659184 -0.079509296 0.29478434 0.2543908 0.037613854 0.6641113
-0.047713686 -0.048990954 -0.020460762 0.55380756 -0.034851454 0.15380076 0.100468434 0.36201718
0.082294464 -0.32349 0.06262663 -0.004752679 -0.23228222 0.08325933 -1.10655 -0.49442768
-0.2941619 0.011477385 -0.03922084 0.012335471 0.22770454 -0.16328637 -0.22600271 -0.032400418
-0.11228113 0.04758239 -0.71222246 -0.013400241 -0.24087511 0.27365053 -0.302651 0.104674526
-0.2099974 -0.137538 0.094351746 -0.7458154 -0.058673415 -0.06898382 -0.07508839 0.08878438
0.17826755 0.026236504 0.026496224 0.18105017 -0.30276996 -0.008255094 0.04488886 0.015280179

network.4.bias f4 [8]
00000000: 70b8 1840 f562 18bf c0be fabf 3dd9 9abf
00000010: 7a31 51bf 2a32 7cbf 70e7 50bf 158e 56bf
2.3862572 -0.59525996 -1.9589462 -1.2097546 -0.8171612 -0.98514044 -0.81603146 -0.8381055
