Training/Model/model_critic_robot_subset_joint0_103.pt (torch, 284223 bytes, 5 tensors)

network.0.weight f4 [256, 16]
000000 16 ee 86 40 b2 d4 dc 3e 99 da 14 40 c7 6d 00 3f
       4.216563 0.43131024 2.3258421 0.50167507
000010 e0 cd 8c bf 74 3e f6 bd f8 10 8b 3f 1c d8 99 3f
       -1.1000328 -0.12023631 1.0864553 1.2019076
000020 6c b2 a7 be f4 27 b0 3f df 42 3a 3e 9d 9f 1c 3d
       -0.32753313 1.3762193 0.18189572 0.038238157
000030 af 65 50 bc 72 a9 02 3e e2 c4 30 3d 55 a7 78 3d
       -0.012719556 0.12759951 0.043156512 0.060706455
000040 a4 eb 3c bf 19 c9 d2 bf 30 7c 03 3f 6a 3e ad 3e
       -0.7379706 -1.646762 0.5136137 0.3383668
000050 77 d7 95 bf 6b 42 40 3f c5 d0 51 3f 54 9d a7 bc
       -1.170638 0.75101346 0.8195918 -0.020460762
000060 58 3f c9 bf ad 77 32 3f 21 67 58 3f c4 50 7f be
       -1.5722456 0.6971386 0.8453236 -0.24933153
000070 e6 71 ce 3e 41 ed 80 3f e9 17 9b 3d f4 09 b3 3e
       0.40321273 1.0072404 0.0757292 0.3496853
000080 c6 c9 4a bf 44 10 0d c0 f6 b2 38 40 6e ff 5f 3f
       -0.7921413 -2.2041178 2.885923 0.8749913
000090 0e 2c 97 3f 5a e6 2e 3f c3 b8 3c c0 54 97 5b c0
       1.181032 0.6832024 -2.948777 -3.4311113
0000a0 d2 58 ab bf de b2 7a 40 a2 7d 94 bd f4 6f 40 3e
       -1.3386481 3.9171672 -0.07250525 0.18792707
0000b0 d0 60 18 3e c1 4e 0f be da e9 5d bd d9 ed 2d bd
       0.14880681 -0.13994886 -0.054178096 -0.042463157
0000c0 33 c9 9a bf ea a7 ee 3f e4 f3 2d 40 04 99 6f 40
       -1.2092651 1.8644993 2.718011 3.7437143
0000d0 36 aa 66 bf b8 27 2b bf 9c ec 25 3f fa 78 c0 bf
       -0.9010347 -0.6685748 0.6481416 -1.5036919
0000e0 18 35 92 bf 65 5a d3 be c3 c9 4d be 07 09 0a bd
       -1.1422453 -0.41279903 -0.20096497 -0.033700015
0000f0 0b 18 0f 3e 39 6f 0d 3d 3d f9 9b bd fb be ad bd
       0.13974015 0.0345299 -0.07615898 -0.08483692
000100 f4 c5 82 be 51 a5 6f be 89 2d f7 3d d3 28 27 3e
       -0.2554165 -0.23402907 0.12069232 0.16324167
000110 ba fb 04 be ae 11 13 be a7 d9 17 be 40 a0 6d 3e
       -0.12986651 -0.14362213 -0.14829122 0.23205662
000120 02 da 3e bf 54 13 af be 42 cc fb 3d 36 5b 40 3d
       -0.74551404 -0.34194434 0.122948185 0.046961986
000130 0b da 04 be 4b b1 df 3d 11 a3 7d 3e 5d 5c 64 3d
       -0.12973802 0.10922488 0.24769236 0.055752147
000140 37 d5 1b bf a5 f1 ca be 72 48 f4 bf 03 c8 22 be
       -0.60872215 -0.39637485 -1.9084609 -0.15896611
000150 be ba 6c c0 d4 2a 48 bf a0 b7 94 40 b9 18 2b c0
       -3.6988978 -0.7819035 4.647415 -2.673384
000160 0f 46 6d bf 93 dc a5 be 66 73 47 bb 21 b4 e8 3d
       -0.92685026 -0.32394847 -0.0030433773 0.11362482
000170 82 50 65 3e a4 f1 19 bc 3a 0e 18 be ef 01 81 bd
       0.22393993 -0.0093959905 -0.14849177 -0.06299197
000180 27 aa 93 bf 76 36 7c bf 99 34 db bf c6 63 18 40
       -1.1536301 -0.985206 -1.7125427 2.3810897
000190 05 40 b1 bf dc 3f 73 40 26 0b 26 be 96 78 fc 3e
       -1.3847662 3.8007727 -0.1621519 0.4931075
0001a0 67 18 1d c0 78 af 18 40 f3 74 9d 3d 86 e2 57 bc
       -2.4546144 2.3857098 0.07688322 -0.013176566
0001b0 51 92 2b be 79 c4 ca 3d ba 41 b1 bd a9 6c 46 3e
       -0.16755034 0.099007554 -0.086551145 0.19377388
0001c0 ef 19 61 3f d6 e5 fb be 71 44 61 3f 08 5c 23 c0
       0.87930197 -0.49198788 0.8799506 -2.5524921
0001d0 40 e3 e9 3f bf 44 5e 3f e5 57 80 40 c0 03 a9 3f
       1.8272476 0.8682365 4.0107293 1.320427
0001e0 c8 44 ec be 86 f7 aa bf 22 47 80 3e 02 c2 83 3e
       -0.46146226 -1.3356788 0.2505427 0.25733954
0001f0 08 59 12 bc cb a7 f9 bd 61 09 ac 3e d2 10 19 3d
       -0.0089323595 -0.12190207 0.33600906 0.037369557
000200 94 d3 27 c0 4a 19 1f c0 dc 38 15 40 f4 12 6d 40
       -2.6222887 -2.4859185 2.3315954 3.7042818
000210 f3 b1 1a 3f 14 6c eb 3f 81 9d 8c 40 30 f9 16 bf
       0.6042778 1.8392358 4.3942266 -0.5897398
000220 c5 8c 3a bf 0d c6 0a 40 95 38 ed 3d 48 6e 37 bc
       -0.7287105 2.168338 0.11583058 -0.011195727
000230 9c 29 3c 3d 1a 9f 38 3d 6c 10 b4 bd b8 dd a1 bc
       0.04593812 0.045073606 -0.08792195 -0.019759044
000240 d8 5d 33 bf d3 ce 6c c0 30 16 a8 be 1f fd 47 c0
       -0.7006507 -3.7001235 -0.32829428 -3.1248243
000250 d9 0c 03 c0 92 d7 24 c0 7f 5e f4 bf 79 41 97 bf
       -2.0476592 -2.5756574 -1.9091338 -1.1816856
000260 0b 8e 18 c0 24 55 31 3e 2a 7d d2 3e 0a 2f 5d bd
       -2.3836696 0.17317635 0.41111118 -0.053999938
000270 03 a1 56 3d 4f b5 63 bd d2 c7 02 3f 2e 5d 3b be
       0.052399646 -0.05559283 0.5108615 -0.18297264
000280 63 e5 74 be e2 79 20 bf 0a c7 aa 3e 06 9b 61 3d
       -0.23915629 -0.6268598 0.3335498 0.055079482
000290 95 11 a2 3d 32 e1 a8 3c b1 49 e8 3f 8a cd 86 bd
       0.0791351 0.020615194 1.8147489 -0.06582172
0002a0 e1 cf 29 bf 6a d1 a2 bd ed 36 da bc 90 51 19 be
       -0.66332823 -0.07950099 -0.026637519 -0.1497252
0002b0 f9 39 83 bd 6a dc 45 bd 56 07 14 be e1 df 1e 3e
       -0.06407542 -0.048305906 -0.14455923 0.1551509
0002c0 7e 50 b9 3f 46 64 fb bd e7 f4 5c c0 c1 ab 42 bf
       1.4477689 -0.12274985 -3.4524477 -0.76043326
0002d0 46 96 82 c0 a8 8c bb bd e4 58 35 40 ab 3f fc bf
       -4.080844 -0.091576874 2.8335505 -1.970693
0002e0 47 10 db bf f3 f0 9c 3e 50 64 3a 3d d2 d9 14 3c
       -1.7114342 0.3065258 0.04550582 0.009085136
0002f0 bf c1 4b be da 76 e5 3c e3 89 46 be 56 7d c3 bc
       -0.19898127 0.028010774 -0.19388537 -0.023863476
000300 69 6e ee 3e 31 77 08 40 f1 a6 05 3f 68 0d 22 bd
       0.4656861 2.1322749 0.5220786 -0.039563566
000310 76 1e 82 3f 5b 62 97 c0 5d c0 40 bf 9f fb 89 3d
       1.0165546 -4.7307563 -0.75293523 0.06737446
000320 2c ec 04 c0 20 b1 6a bf 66 22 14 3b b6 ec 2f 3e
       -2.0769148 -0.9167652 0.002260351 0.17180142
000330 1f 91 a5 bd cc 98 91 3d 1a d3 0e bd 4f 54 10 be
       -0.0808432 0.07109222 -0.03486929 -0.14094661
000340 45 04 01 c0 44 58 5b 40 84 df 16 be b9 ad 3e 3f
       -2.0158856 3.4272623 -0.14733702 0.7448383
000350 3f 1d e9 be b4 40 0d c0 8d f4 25 3f 6a a4 69 bf
       -0.45530125 -2.2070742 0.6482628 -0.912665
000360 9c f3 3e c0 f0 b5 86 3e da 5b 8e be 34 2a 02 c0
       -2.9836187 0.26310682 -0.27804452 -2.0338259
000370 91 fb 27 3f 95 ec 15 bf 8b 2f 4b ba 94 8a 55 bf
       0.65618235 -0.5856412 -0.000775092 -0.8341458
000380 06 32 3b bf 62 c0 e2 3f 10 6a 16 3f 52 c8 85 c0
       -0.73123205 1.771496 0.5875559 -4.180703
000390 dd de 29 bf 5b d9 13 40 cd 1a 7e 3e b1 40 a3 3f
       -0.6635569 2.3101413 0.24814911 1.2754117
0003a0 26 4c 00 c0 2c eb 56 bf 32 03 5b 3e f0 48 4c 3e
       -2.0046477 -0.83952594 0.21387938 0.19949698
0003b0 28 9c 82 bc 69 31 80 bd c9 60 69 be 19 7b 44 3d
       -0.015943602 -0.06259424 -0.22790827 0.047968958
0003c0 47 3c fb 3f b3 6e 8d be 0d e5 ea 3c b2 f9 92 3f
       1.962777 -0.2762352 0.028673673 1.1482451
0003d0 95 6c 1a 40 0e c5 9a 3f 86 71 92 bf 70 29 17 3e
       2.4128773 1.2091386 -1.1440895 0.14761901
0003e0 98 b9 15 c0 d2 1d 8c c0 58 f1 a4 3d d2 d5 20 3e
       -2.3394527 -4.37864 0.08053845 0.15706566
0003f0 13 9e 51 3d bd 17 9d bc b8 f2 3d 3d 8a b7 69 3d
       0.051176142 -0.019176358 0.046374053 0.057059802

network.0.bias f4 [256]
000000 59 62 21 bf ad 04 e3 bf 22 d5 93 bf 11 36 64 bf
       -0.6304069 -1.7735802 -1.1549418 -0.89145
000010 52 87 60 bf 84 8b 94 bf 40 26 15 c0 b4 e4 eb be
       -0.8770648 -1.1605077 -2.3304596 -0.46072924
000020 44 48 2d bf f4 44 2d c0 af 69 47 bf 09 b5 be bf
       -0.67688394 -2.7073336 -0.77895635 -1.4898998
000030 b7 cd fd bf 3c aa 36 c0 fc c4 0f c0 7d 44 f9 bf
       -1.9828404 -2.8541403 -2.246398 -1.9474026
000040 f6 08 04 c0 6c f6 7f bf bc c0 84 bf ed aa 5e bf
       -2.063047 -0.99985385 -1.0371318 -0.8697956
000050 af ce b4 3e 0a 48 d6 bf 2a 72 16 c0 bf e8 52 bf
       0.35313937 -1.6740735 -2.350718 -0.8238639
000060 5f aa 1f c0 bc 6e 10 c0 c3 61 9c bf 12 ce be bf
       -2.4947736 -2.2567587 -1.2217335 -1.4906638
000070 23 c7 00 c0 88 fa 20 c0 d5 fa 6c bf 7c 3d 95 bf
       -2.0121543 -2.5152912 -0.9257024 -1.1659389
000080 63 cc 7f bf be 2e 60 be 97 e9 0e c0 34 e5 05 c0
       -0.99921244 -0.2189283 -2.2330072 -2.0921144
000090 d7 92 11 bf 39 e8 93 bf 08 6a 52 bf fb f3 b4 be
       -0.56864685 -1.1555244 -0.8219304 -0.35342392
0000a0 85 e0 50 bf 52 0f 2a bf bd 98 de bf 13 40 c0 bf
       -0.8159259 -0.66429627 -1.7390362 -1.5019554
0000b0 e0 1a e0 bf b7 80 15 bf 23 fc 3e c0 65 a1 89 bf
       -1.7508202 -0.5839953 -2.9841392 -1.0752379
0000c0 dc 54 5a bf 37 e7 34 c0 e1 be d8 bf f0 34 41 bf
       -0.85285735 -2.8266122 -1.6933252 -0.754714
0000d0 47 d7 5f c0 eb 3e 48 c0 52 8f bc bd b8 af 9d bf
       -3.4975145 -3.1288402 -0.09207024 -1.231925
0000e0 76 91 ea bf de c0 fd be 24 37 96 bf 41 b6 3c c0
       -1.8325641 -0.49561208 -1.1735578 -2.948624
0000f0 12 85 bb bf bc 83 8f bf 19 9d 27 c0 6f ba b2 bf
       -1.4649985 -1.1212077 -2.6189635 -1.3963145
000100 e7 f2 30 c0 40 21 c2 bf d0 6b 46 c0 46 7a 11 c0
       -2.7648256 -1.5166397 -3.1003304 -2.273088
000110 5c 59 25 c0 c7 db 3c bf 58 1e c7 bf cd 31 b0 bf
       -2.583579 -0.73772854 -1.5556135 -1.3765198
000120 75 7e 5b bf 26 97 c8 bf 7c 9a be be 9a bb b0 bf
       -0.85739833 -1.5671127 -0.37227237 -1.3807251
000130 1e 80 c8 bf ee d7 3e c0 a4 ce 12 c0 5f 50 2d c0
       -1.5664098 -2.9819293 -2.2938623 -2.7080305
000140 df 10 80 bf dd a7 82 bf 04 d9 d7 bf 81 f8 eb bf
       -1.0005149 -1.0207478 -1.6863103 -1.8435212
000150 8c 52 4b bf ca c9 a7 bf 80 32 04 c0 1b 7b 56 3d
       -0.7942283 -1.3108456 -2.0655823 0.052363496
000160 32 41 e5 bf bb b2 05 c0 99 55 fd bf 17 83 86 bf
       -1.7910521 -2.0890338 -1.9791747 -1.0508755
000170 bb 50 40 bf 82 04 c3 bf 36 11 5c c0 ef 2f e3 bf
       -0.75123185 -1.5235751 -3.4385505 -1.7749003
000180 70 35 52 c0 b3 bf 22 c0 7b 8e 81 bf fe f3 9e bf
       -3.2845116 -2.5429504 -1.0121607 -1.241821
000190 76 d5 de bf a1 cf 29 bf 2f b2 8b be 24 9f bf bf
       -1.7408893 -0.6633244 -0.2728438 -1.4970441
0001a0 6e c4 77 bf 0d bd 0e bf 78 0e a6 bf 0c 27 1a bf
       -0.967841 -0.5575722 -1.2973166 -0.6021583
0001b0 d5 ef 25 bf c0 59 aa bd 22 0c a6 bf 54 8f fa 3e
       -0.6481908 -0.083179 -1.2972453 0.48937476
0001c0 fe a4 6e bf ee 8f 13 c0 c2 fb b5 bf 5e 3b ad bf
       -0.9322051 -2.3056598 -1.4217455 -1.3533742
0001d0 7d 3c 96 3f d1 32 a8 bf 79 c1 63 bf 96 0a eb bf
       1.173721 -1.3140508 -0.8896709 -1.8362606
0001e0 e1 9e 85 bf c7 3f 10 3c 32 df e2 be 25 63 ed bf
       -1.0439111 0.008804268 -0.4431091 -1.8545882
0001f0 e0 b5 58 c0 f1 26 c7 bf 3a ff 4c 3f 98 38 0b c0
       -3.3861008 -1.5558759 0.80076945 -2.1753292
000200 42 03 16 c0 52 fb 97 3d 37 08 5f bf 7e dd 1d bf
       -2.3439488 0.074209824 -0.8712191 -0.61666095
000210 0f 10 22 c0 5f a2 48 bf c4 2d b2 bf 83 0f b8 bf
       -2.5322301 -0.7837276 -1.3920217 -1.4379734
000220 20 09 e3 be ae b7 a3 bf f6 51 75 bf 6f 1f 2d c0
       -0.443429 -1.279043 -0.9582819 -2.7050436
000230 19 55 43 bf 98 1b e8 bf bf 7a 0d c0 80 8f 92 bf
       -0.76301724 -1.8133421 -2.2106168 -1.1450043
000240 d2 2e 2e c0 06 ce 3a c0 06 74 12 c0 e0 4a 25 c0
       -2.7216077 -2.9188247 -2.2883315 -2.582695
000250 2a 4d 34 c0 c7 0c c7 bf 38 ef a9 bf 39 f1 b5 bf
       -2.8172097 -1.5550774 -1.3276129 -1.421424
000260 f8 31 0d c0 ba f1 0b c0 7d 25 e2 bf b1 82 17 c0
       -2.2061749 -2.1866288 -1.766769 -2.3673518
000270 b0 90 7e bf a8 76 a0 bf 63 95 55 c0 79 fc e0 bf
       -0.99439526 -1.2536211 -3.3372428 -1.7577049
000280 fa aa 0c c0 1c 66 01 c0 f0 3a e9 bf 25 ec cd bf
       -2.1979356 -2.0218573 -1.8221111 -1.608769
000290 98 ca 9d bf 6c 6f 39 c0 b0 4f 3d 3f b2 8e 83 c0
       -1.2327452 -2.8974257 0.7394972 -4.111169
0002a0 da f0 87 bf 94 80 17 bf 75 af 6f be 99 29 cb bf
       -1.0620377 -0.5918057 -0.23406775 -1.587207
0002b0 3e ea ec bf 8c 63 75 bf 10 89 bd bf 62 7d 9d bf
       -1.8508985 -0.9585502 -1.4807453 -1.2303889
0002c0 a6 ef fe bf 5f 44 0b c0 1f bd 12 bf 0e b6 d4 bf
       -1.9916885 -2.176048 -0.57319826 -1.6618059
0002d0 c0 27 32 bf 8c 52 13 c0 29 a7 ed bf a5 f9 e9 be
       -0.69591904 -2.3019133 -1.8566638 -0.45698276
0002e0 9e ab a3 be 84 5d 24 c0 91 4c 6f bf e4 fb a1 bf
       -0.3196687 -2.5682077 -0.93476206 -1.2654996
0002f0 f8 51 ed bf 4c b7 8e bf 79 be 69 3e 8e 94 33 bf
       -1.854064 -1.1149688 0.22826566 -0.7014855
000300 0b c6 05 c0 61 51 dc bf a3 e5 14 c0 a4 5e 59 bf
       -2.0902126 -1.7212335 -2.326516 -0.84910035
000310 61 9c 8a bf e4 2a 85 bf 0e 4f c1 bf cd 49 a7 bf
       -1.0828973 -1.0403714 -1.510225 -1.3069397
000320 1c e2 d4 bf 5c 47 c3 3f ee 6a 26 c0 6d c6 a8 bf
       -1.6631503 1.5256152 -2.6002765 -1.3185555
000330 e9 88 39 c0 16 01 d5 bf 68 fe bf bf 82 2e a5 bf
       -2.8989813 -1.6640956 -1.4999514 -1.2904818
000340 40 32 53 c0 3c be c4 bf ec 89 7b bf 5b c9 99 bf
       -3.299942 -1.5370555 -0.9825733 -1.2014574
000350 f0 e2 a3 3e 0e f5 95 bf c4 58 0c bf 77 30 40 bf
       0.32009077 -1.171541 -0.54822946 -0.7507395
000360 56 0f 87 bf 8a 6d 04 3f ee 1d 89 bf 48 51 2b 3e
       -1.0551555 0.51729643 -1.0712259 0.16730225
000370 1c 8f cf bf 5b 43 b4 bf 1a 57 08 bf ef 9e 8c bf
       -1.6215549 -1.4083055 -0.53257906 -1.0986003
000380 0d 0e 5c bf 47 5c bd bf 2c 75 d2 bf 51 f5 87 bf
       -0.8595894 -1.4793786 -1.6442008 -1.062174
000390 08 16 0f c0 27 ff 45 c0 36 b1 be 3e 50 74 a8 bf
       -2.2357197 -3.0936983 0.37244576 -1.3160496
0003a0 5f fe 49 c0 d0 86 d1 bf e5 eb 66 bd 65 c0 19 c0
       -3.1561506 -1.6369267 -0.05637731 -2.4023678
0003b0 a4 d9 ca bf b2 74 36 c0 00 64 28 3e d0 d1 8b bf
       -1.5847669 -2.8508725 0.16444397 -1.0923405
0003c0 7d 4d ad bf 82 b5 e6 bf 1c f1 6d bf 5f 6f e8 bf
       -1.3539273 -1.8024142 -0.9294603 -1.8158988
0003d0 22 f2 3a bf 74 28 1f be 87 7d 82 bf 6a d5 23 c0
       -0.73025715 -0.15542775 -1.0194558 -2.5599008
0003e0 e2 d6 61 bf d4 05 88 bf 99 8e 16 bf 7c 51 1c bf
       -0.8821851 -1.0626779 -0.58811337 -0.61061835
0003f0 54 5c 1d bf b7 4f 37 c0 ec 16 15 c0 b2 b9 12 c0
       -0.61469007 -2.8642404 -2.329524 -2.292584

network.2.weight f4 [256, 256]
000000 2e 24 e4 bd 9d 63 c7 bd 8c d3 17 bd 32 26 be bd
       -0.11139713 -0.097357966 -0.03706698 -0.09284629
000010 64 98 d2 3c 3f 72 16 bd f6 b8 13 bd e2 e9 d6 bd
       0.025707431 -0.036730047 -0.036065064 -0.10493828
000020 8c 5b a6 bd d0 ef 89 bd 4e 1f 60 bd d7 f8 5a bb
       -0.0812293 -0.06735194 -0.054717354 -0.003341248
000030 b5 a8 b8 bd d1 15 c3 bd ff aa f2 bd 43 e0 3f bd
       -0.09016553 -0.095256455 -0.11849021 -0.046844732
000040 0c 21 7b bd 4d 62 67 bc b4 3e 5f bc 7a 80 85 bd
       -0.061310813 -0.014122558 -0.013625789 -0.065186456
000050 0c f6 ab bc 1e bc c7 bc e9 8b 5a bc 0a 09 6c bb
       -0.020991348 -0.024381693 -0.013339021 -0.003601613
000060 7a 41 3c bd 94 80 8d bd 2c 49 66 bd 58 e1 bb bc
       -0.04596088 -0.0690929 -0.056222126 -0.0229346
000070 b8 ba be bc 08 5f 1a bc 9a 40 8a bb 92 f9 22 bc
       -0.023282394 -0.009422071 -0.004219127 -0.0099471975
000080 de b0 c9 bd 8c c4 93 bd 0e 61 73 bd c4 25 86 bd
       -0.09848188 -0.07215223 -0.05941873 -0.06550172
000090 00 19 11 bc 81 ff bb bd d8 db 83 bc 64 eb 11 bd
       -0.008856058 -0.09179593 -0.01609604 -0.035624877
0000a0 ed 6a 91 bd 7a 1f 30 bd 5d ca 9a bc 7d 7a d2 bd
       -0.071004726 -0.04299877 -0.018895322 -0.10277269
0000b0 11 a0 25 bc 54 41 87 bc 61 87 f7 bd 8d b0 30 bd
       -0.010108964 -0.016510643 -0.12086368 -0.043137122
0000c0 27 5d b0 bc f7 28 25 bd 58 c2 11 bd 1f 62 d8 bd
       -0.021528793 -0.04032227 -0.03558573 -0.1056559
0000d0 db 84 48 bd 9f 0b 7b bb 77 39 08 bd fd 01 1f bd
       -0.048954826 -0.0038306487 -0.033257928 -0.038820256
0000e0 4c 7d bd bd 6c 26 aa bd 71 38 2b bd 3a 07 3b bd
       -0.09252414 -0.0830811 -0.041801874 -0.04566119
0000f0 41 cc 28 bd e6 c5 8d bd 2b e1 e5 bd 0a df ce bd
       -0.041210417 -0.06922512 -0.11224588 -0.10101135
000100 7f c1 23 bc 17 c2 28 bd 23 73 c7 bd b7 4e f8 bd
       -0.0099948635 -0.041200723 -0.097387575 -0.12124389
000110 68 f4 fa bd 22 7d 4a bd d4 e9 11 bd f7 8b a1 bd
       -0.12253648 -0.049435742 -0.035623387 -0.07888024
000120 06 20 77 bd 08 cc ec bd e9 d5 da bd 5a 2c 26 bd
       -0.060333274 -0.115623534 -0.106853314 -0.04056964
000130 a3 29 90 bc fc 20 b6 bd 87 8d e9 bd 26 6a 9c bd
       -0.017597979 -0.0889301 -0.11403947 -0.07637434
000140 fb 91 a2 39 00 64 b8 bd 33 46 a6 bd fd c7 86 bc
       0.00031007812 -0.090034485 -0.08118858 -0.016452784
000150 d7 ad f9 bd 52 62 91 bd a3 6b c5 3a d7 85 ec bd
       -0.121913604 -0.07098831 0.0015061985 -0.115489654
000160 82 e0 c8 bd 83 45 f7 bd 2f 50 f4 bd bc c4 08 bd
       -0.098084465 -0.12073805 -0.11929356 -0.033390746
000170 b2 a5 c0 bd 78 00 26 bd 40 5e 2a bd 7a 97 ba bd
       -0.09406604 -0.04052779 -0.04159379 -0.09110923
000180 0f 3a d6 bd b6 6b d2 bd 8a 42 a4 bc 14 2b 34 bd
       -0.104602925 -0.102744505 -0.02005126 -0.043986395
000190 a3 a4 9e bd d0 61 29 bd b1 5a c2 bd 97 9f e0 bd
       -0.07746246 -0.041353047 -0.09489954 -0.10967939
0001a0 c8 10 e6 bb fd 5e 8c bc 0a 50 91 bd 0c db 10 bd
       -0.0070210434 -0.017135138 -0.07095344 -0.03536515
0001b0 dc 78 f1 bd 9b 52 f5 bc 30 e1 53 bd 0f e7 e0 bd
       -0.1179063 -0.029946616 -0.051728427 -0.10981571
0001c0 ed 4b 7b bd 61 1e d1 bd 11 1e d2 bc de 11 b1 bd
       -0.061351705 -0.102108724 -0.025649102 -0.08645986
0001d0 ff 8d 2d bd e4 79 c5 bc fb 92 b0 bd 86 96 f2 bd
       -0.042371746 -0.024105974 -0.08621784 -0.11845116
0001e0 37 c8 b6 3a 40 37 0a bd e0 50 ad bc 5e 83 b9 bd
       0.0013945167 -0.033744097 -0.021156728 -0.090582594
0001f0 e3 21 6b bd e4 ce 60 bd 9c 98 4d bc 71 b4 4f bd
       -0.057405364 -0.054884806 -0.012548592 -0.05070919
000200 38 5f a1 bd 7c a1 ac bc ba 87 cb bd e8 b2 a3 bd
       -0.0787949 -0.021073096 -0.09937997 -0.07993108
000210 94 a5 c8 bd 8f 17 b3 bd 6b 96 f8 bd fc 29 2a bd
       -0.097972065 -0.08744728 -0.12138065 -0.041543946
000220 77 4b f7 bd 3e 28 42 bd df 3d 58 bc ee fe ae bd
       -0.12074941 -0.04740166 -0.013198345 -0.08544718
000230 28 59 4b bd ea ca 5d bd fc 42 04 bc e0 4f 66 bb
       -0.049645573 -0.054148592 -0.008072611 -0.0035142824
000240 68 6b 7c bd 69 90 84 bd c7 e2 c6 bd f4 51 12 bd
       -0.061625868 -0.064728566 -0.09711223 -0.035722688
000250 05 52 8e bd fb 21 e6 bd ec 45 96 bc fc 13 4c 3d
       -0.06949238 -0.1123695 -0.018343888 0.049823746
000260 7d 10 e1 bd 22 cb 74 bd 9f e3 5f bd 41 b1 9e bd
       -0.10989473 -0.059764035 -0.054660436 -0.07748652
000270 d7 a0 fa bc e0 16 95 bd 58 95 5e bd 6e 9c c1 bd
       -0.030594273 -0.07279754 -0.054341644 -0.09453665
000280 7b 14 cd bd 64 98 f3 bd 0c 76 8f bd 1e dd be bd
       -0.10013672 -0.118943006 -0.070049375 -0.093195185
000290 55 b5 af bd 2f 8c d4 bd b1 13 a5 bc 4d 67 79 bc
       -0.08579508 -0.103783004 -0.020150991 -0.015222383
0002a0 c2 17 b0 3a 52 3b 31 bd 75 20 3e bc d0 86 7c bc
       0.0013434815 -0.043269463 -0.011604418 -0.015413001
0002b0 a2 02 1c bc 5f 83 91 bd 55 79 aa bd 54 07 b9 3a
       -0.009522112 -0.07105135 -0.083239235 0.0014116564
0002c0 1f 61 3c bb 12 c8 22 bd d6 2f 8c bc a1 b6 4c bd
       -0.0028744412 -0.039741583 -0.017112654 -0.049978856
0002d0 aa 72 90 bd 62 02 c1 bd 96 4f b3 bd 25 c9 18 bd
       -0.070531204 -0.094242826 -0.08755414 -0.0373012
0002e0 f7 a3 96 bc 79 12 84 bd 2f 37 ad bd fd de 38 bd
       -0.018388731 -0.06448836 -0.08457791 -0.045134533
0002f0 41 b7 8f bd 6e 41 b8 bd 53 f9 d2 bc 55 76 d3 bd
       -0.07017375 -0.08996855 -0.025753653 -0.103253044
000300 15 bd 00 bc 3b b2 0f bc d3 9c 39 bd 9a af 26 bd
       -0.007857581 -0.008770521 -0.045315575 -0.04069481
000310 91 77 db bd 58 5c d6 bd ac c9 5d 3d 89 e7 f4 bd
       -0.10716165 -0.10466832 0.054147407 -0.11958224
000320 06 ff 54 3d 3c c1 98 bd cf 66 2c bd a6 b7 60 bd
       0.05200102 -0.074587315 -0.042090233 -0.05486264
000330 83 9a 54 bd fd 26 8a bd 75 de 13 bd e4 74 f5 bd
       -0.051905166 -0.06745718 -0.036100823 -0.11985186
000340 48 12 ab bd 33 cf 11 bd 5a 52 ae bd bd 83 2d bc
       -0.08353096 -0.03559799 -0.08511801 -0.010590491
000350 db 66 99 bd 54 a4 c0 bd 05 f5 0b bd 6c 81 90 bd
       -0.07490321 -0.09406343 -0.034169216 -0.07055935
000360 e9 2d 64 bd 3b b3 c0 bd 35 63 cf bd f1 cc a7 bd
       -0.055707846 -0.094091855 -0.10126344 -0.08193386
000370 31 85 d6 bd 3f d3 97 bd 0f a5 e0 bd 08 9d a6 bd
       -0.10474623 -0.07413339 -0.109689824 -0.0813542
000380 4e 18 a6 bc a1 ca e4 bd 5d 48 f7 bd 27 16 6e bd
       -0.020275261 -0.11171461 -0.12074349 -0.058126595
000390 82 c2 9e bd 76 ea 49 bd 9c 3e 44 bd 60 c7 35 bd
       -0.07751943 -0.049295865 -0.04791127 -0.044379592
0003a0 e8 6c 47 bc c4 c2 ce bd 80 02 0f bd 37 ce 34 bd
       -0.012171961 -0.10095742 -0.034914494 -0.044141974
0003b0 1b 9e fd ba be e6 3a bc 3e 84 e5 bd 36 c5 cb bd
       -0.0019349487 -0.011407552 -0.11206864 -0.099497244
0003c0 ba 93 81 bd 8e 17 e3 bc 92 40 a4 bd c8 a6 f9 bd
       -0.06327005 -0.027721193 -0.08020128 -0.12190014
0003d0 41 9b 88 bc 6e da 4f bd 8d 01 18 bd 7a fe e3 bd
       -0.016675593 -0.05074542 -0.037110854 -0.11132522
0003e0 c1 d6 14 bd 09 3c 97 bd 93 02 d9 bc 9c 10 a2 bb
       -0.036337618 -0.07384498 -0.026490485 -0.0049458276
0003f0 13 6f 9e bd e7 a8 cc bd a9 21 b7 bd 51 d2 d9 bd
       -0.077360295 -0.09993153 -0.08941967 -0.10635818

network.2.bias f4 [256]
000000 1a 28 8b bd a8 0e bc bd ce 47 bb be ad 63 e8 be
       -0.06794758 -0.09182483 -0.3657822 -0.45388547
000010 e8 df 0f 3f db f0 cc bd d3 44 c7 be e5 99 cb bd
       0.5620103 -0.10006877 -0.38919696 -0.099414624
000020 56 8d de bc ea ab 76 be 1a 03 d7 bc 60 33 77 bc
       -0.027167004 -0.24089018 -0.026246596 -0.015087932
000030 fe 2e 87 be 88 36 4a be 0c 49 00 bd f7 ea b3 be
       -0.2640304 -0.19747365 -0.031319663 -0.351402
000040 e3 09 66 bf 60 44 df bd 29 11 a1 bd a6 95 bd bc
       -0.89858836 -0.10901713 -0.07864601 -0.023142647
000050 f0 4f d3 be fb 23 06 bd 95 64 75 be aa 3e e7 bd
       -0.41271925 -0.032749157 -0.2396415 -0.11291249
000060 dc 5f 77 3f 5a 3e fd bb 13 fc a5 bd 55 2f 96 be
       0.96630645 -0.00772838 -0.0810472 -0.29332986
000070 13 94 b1 bd 09 b0 76 be ba c9 93 be 6e d8 cd bd
       -0.08670821 -0.2409059 -0.28864843 -0.10051046
000080 5f 62 bb bd 2b b4 84 bd a7 e2 a8 3c 98 6f af 3f
       -0.09149622 -0.06479677 0.020615889 1.3705931
000090 fc 5c 9c 3f 48 da a1 bd 8d 41 97 3f 25 98 66 be
       1.2215877 -0.07902962 1.181688 -0.22518976
0000a0 66 fd 70 bd 04 0b 67 bc f7 30 aa 3d cf 71 1d bd
       -0.05883541 -0.014101747 0.083101206 -0.038438614
0000b0 82 3a 83 be dd 63 46 bd 6b e5 1e bf 6c c8 10 40
       -0.25630575 -0.04843508 -0.62068814 2.2622328
0000c0 5b 1d e0 bd 82 ac 00 bf b6 92 ec bd fe 69 29 bd
       -0.10943099 -0.50263226 -0.115514204 -0.041360848
0000d0 d8 72 93 bd ac 16 47 bd e7 4d a4 3f 2a 70 02 bd
       -0.07199639 -0.048605606 1.2836274 -0.03184525
0000e0 fc 2d a2 be 0a 62 a6 bd 93 8c bc bd 6f d3 cd bd
       -0.31675708 -0.08124168 -0.092065 -0.100500934
0000f0 92 f0 22 be 55 83 66 3e 2f 07 09 bc b1 4b a6 bd
       -0.15912083 0.22511037 -0.008363529 -0.08119906
000100 3e 2d ad 3d 21 43 ba bb ab 9c 07 be 60 7d 58 bc
       0.08455895 -0.005684272 -0.13243358 -0.0132134855
000110 d4 d4 ed bf a7 4f 19 be 2e f9 92 be fc da 08 3d
       -1.8580575 -0.14971791 -0.28705734 0.033411965
000120 f9 ad c3 be 30 e0 06 be b9 b4 8c bd d7 8d 5f bd
       -0.38218668 -0.13171458 -0.068704076 -0.05457863
000130 32 02 a0 bb 3c 43 c8 bd e3 ac f2 3f ff ba 30 bd
       -0.004883074 -0.09778449 1.8959011 -0.043147083
000140 ae 86 38 be b2 0e f0 bd 79 9d f5 bd d0 86 04 bd
       -0.18020126 -0.11721553 -0.11992926 -0.03235513
000150 a4 79 44 3f 87 0c 2f bd 12 9a 11 be 35 8b 2b bb
       0.7674811 -0.042736556 -0.1421893 -0.0026175503
000160 c4 8c db 3c a0 39 88 bb ab 92 8b be c9 fb a8 bd
       0.02680052 -0.00415726 -0.27260336 -0.08251149
000170 55 49 db bc 28 6e 75 be 7a 10 9c bd cd e8 c2 bc
       -0.026768366 -0.23967803 -0.0762033 -0.023792649
000180 e7 ac c9 3f 51 bb 03 bf 38 00 a0 3c 15 52 b7 bd
       1.5755891 -0.514577 0.019531354 -0.08951203
000190 de a6 da be ee f3 a2 3f a3 a9 ba bd bb c0 42 bd
       -0.42705435 1.2730691 -0.09114387 -0.047547083
0001a0 4e 15 74 bd b0 e5 9a 3d 6c ba 53 bd 5a fd bb be
       -0.05959063 0.07563341 -0.051691458 -0.3671673
0001b0 30 12 12 40 0c 6b 3a bd 6a 68 ec bd 90 57 83 be
       2.28236 -0.045512244 -0.11543353 -0.25652742
0001c0 cb fb 88 be 89 30 b4 3f 83 83 d3 bd a5 07 c8 be
       -0.26754603 1.4077312 -0.10327818 -0.39068332
0001d0 81 ec a7 be 1a 9d 3f bc 5c b6 2e bd 56 e5 d4 bd
       -0.32797626 -0.011695171 -0.04265438 -0.10395305
0001e0 0b 7e d8 be 0c 57 d9 bd 96 f4 86 bd b5 77 07 bd
       -0.42283663 -0.10612306 -0.0658962 -0.033073146
0001f0 77 f0 cc bd aa 87 0e 3b c8 5e 92 bd 04 15 e3 3f
       -0.100068025 0.0021748343 -0.07146984 1.7740788
000200 d4 ef 61 bd 1b 51 1c 3a ca 5a 90 bd 0a 43 3a bd
       -0.05516036 0.00059630134 -0.07048567 -0.04547409
000210 a1 29 59 be ad 20 31 bd 63 43 4a 3d 26 f9 95 be
       -0.21207286 -0.043244053 0.04938067 -0.29291648
000220 3b 5f a7 bd 25 35 ae 3f 0d 3e dd be a4 85 2d bd
       -0.08172461 1.3609968 -0.43211403 -0.042363778
000230 be 8d c9 bc f7 fb c3 bd 07 49 cd bc 7c 1b 18 bf
       -0.02460372 -0.09569543 -0.025059236 -0.5941694
000240 2d ec 3d be 12 36 b3 bb 7d a1 b5 bc e5 c0 0d bd
       -0.18547125 -0.005469092 -0.02217173 -0.034607787
000250 f9 ff be bd 4c c0 87 be f9 6b 9f bc 07 1a c2 bd
       -0.09326167 -0.26513898 -0.019460665 -0.094776206
000260 e0 8e 6c be 38 75 f7 bd 58 69 90 be 9d ab a0 bd
       -0.23101377 -0.120829046 -0.2820537 -0.07845233
000270 fc e5 e1 3f 4f ef 46 be 79 57 be bd 4c 64 c3 bd
       1.7648311 -0.19427226 -0.09294028 -0.095406145
000280 5a 39 33 bd a1 6b 31 3f 8d 57 d0 3f 7a f6 84 bd
       -0.043755867 0.69304854 1.6276718 -0.06492324
000290 52 02 6a be 42 c5 26 bd c0 b7 32 bd 06 22 bf 3f
       -0.22852448 -0.040715463 -0.04363227 1.4932258
0002a0 f5 a6 23 bf 7a a2 9a bd 57 dd 74 be 7a 11 dd bc
       -0.6392663 -0.07550521 -0.2391256 -0.026985873
0002b0 ae 26 31 bc c0 40 3d bd 51 6d 51 bd d6 59 19 be
       -0.010812445 -0.04620433 -0.051129643 -0.14975676
0002c0 26 39 ae 3e d7 31 70 bd f3 e8 75 bc 81 9e dc 3f
       0.34027976 -0.05864128 -0.015009153 1.7235872
0002d0 a3 e6 97 be 9b 36 0f bd ca db 61 bd ff f4 ba bd
       -0.2966815 -0.034964185 -0.055141248 -0.091287605
0002e0 25 00 b8 bc ca 97 01 be cf 62 6f bc 03 05 b9 bd
       -0.022461006 -0.12655559 -0.01461096 -0.09034159
0002f0 bc 58 93 bd 1a 60 60 bc 3e 66 ae be 82 62 95 3c
       -0.07194659 -0.013694787 -0.3406238 0.018235449
000300 8d 01 30 bc ae 09 4a 3e 6d 68 5b bd 98 c9 aa be
       -0.010742557 0.19730255 -0.053566385 -0.3335693
000310 ff f7 7e bc e6 58 ca bc 34 33 d1 bd 70 bf 7e bb
       -0.015562057 -0.024700593 -0.10214844 -0.003887143
000320 50 6e 66 bd 32 91 d7 bd a1 bf 78 3c a4 28 fd be
       -0.056257546 -0.10525741 0.015182407 -0.4944507
000330 62 16 40 bd eb c1 74 bd 2e 42 86 bd 33 a7 cb bd
       -0.046896346 -0.059755247 -0.065555915 -0.09944
000340 0f a5 ac 3f b9 7c 2d bd 44 1e b8 bd 90 c8 8d bd
       1.3487872 -0.042355273 -0.08990148 -0.0692302
000350 02 7b 62 be 9a f7 9f bd 4e 96 cc bb 7b 4a 4f 3f
       -0.22117236 -0.07810898 -0.0062435037 0.80973023
000360 5a 6f 5b 3c 9c a5 8a 3d d8 95 3c 40 59 81 f7 3a
       0.0133932475 0.06769869 2.9466457 0.0018883153
000370 2d b8 f4 be a1 de 88 be 01 48 24 bc ab db b0 bd
       -0.47796765 -0.26732352 -0.010026933 -0.08635648
000380 af da 4d 3d b9 af e8 bb 88 57 4a ba 25 65 dd bd
       0.05025738 -0.007101026 -0.00077187316 -0.108103074
000390 fd ad e6 bd 14 df 5d bd 3c 88 59 be 3c 32 ad 3c
       -0.112636544 -0.054167822 -0.21243376 0.021142118
0003a0 53 f0 31 bd d4 6e 04 bf d3 13 9d bc b7 34 91 be
       -0.04344208 -0.5173161 -0.019174492 -0.2836053
0003b0 39 55 b1 bc e6 95 ef bd ff 3b f7 bd 19 35 a1 3f
       -0.021647083 -0.11698513 -0.1207199 1.2594329
0003c0 15 71 8b be da bf ad bc 2b a6 37 bd 77 55 4c bc
       -0.27234712 -0.021209646 -0.044836204 -0.012471548
0003d0 2f 71 79 bd 9f e4 02 bd 22 98 38 bd 97 1b c9 bd
       -0.060898956 -0.03195631 -0.04506696 -0.098197155
0003e0 38 19 f0 bd 23 d5 c5 bd 62 c2 5a 3f b5 f5 88 bb
       -0.1172356 -0.09659793 0.85452855 -0.004179681
0003f0 44 b6 58 be 7b df 4e bd 18 bb d2 be 6f 7e b3 3d
       -0.21163279 -0.050506096 -0.41158366 0.0876435

network.4.weight f4 [1, 256]
000000 a4 20 4f 3d fb 95 62 3d 8d 3d b7 3d 23 88 3b be
       0.050568238 0.055318814 0.08947287 -0.18313651
000010 87 62 f0 be da 2d 14 3d 06 81 6d 3f e5 aa 92 3b
       -0.4695017 0.03617654 0.92775 0.0044759386
000020 c4 4a 6f 3d 68 79 3a be d6 f0 5d 3c f8 22 52 3d
       0.05842091 -0.18210375 0.013546189 0.05130288
000030 6c 4a 08 3e 25 50 c2 bd 1c 8a 2a 3d e1 af 8e be
       0.1330964 -0.094879426 0.041635618 -0.2786856
000040 4a 44 d9 be 13 46 bc 3a 62 44 1c 3b 12 43 a2 3c
       -0.42434913 0.0014364145 0.002384447 0.019807372
000050 07 90 71 bd ef 51 21 3a 4b cc e2 bd 29 fd 9e 3c
       -0.058975246 0.00061538717 -0.11074122 0.019407826
000060 33 fd bc 3f 0d cb 61 3d 60 8e 69 3d fc d3 53 3e
       1.476477 0.055125285 0.057020545 0.20686334
000070 94 f9 04 3c c7 b8 2b bb be 78 9a bb 3d ed da bc
       0.008116145 -0.0026202665 -0.0047141006 -0.026724452
000080 ab 9e 35 3d c4 39 30 3c 1b 64 85 bc a3 52 4e 3f
       0.04434077 0.01075596 -0.016283086 0.80594844
000090 d3 22 1c 3f 7f f3 4e 3d 29 73 33 3f d2 32 eb bd
       0.6099064 0.050525185 0.70097595 -0.114843026
0000a0 dd 43 5c 3d 74 11 b8 3c e5 71 fb bb 64 ef 4b 3d
       0.053775657 0.02246926 -0.0076734894 0.049788848
0000b0 b2 f7 0d 3e b0 43 9c 3d 91 d4 ad bf 38 0f a3 3d
       0.1386402 0.07630098 -1.3580495 0.07961887
0000c0 d8 95 2b 3d bd c3 cd 3d 85 1b 32 b9 67 59 6e 3d
       0.04189095 0.100471 -0.00016985655 0.05819073
0000d0 84 a4 09 bd 50 26 52 3d 89 be f5 3e 8e 17 e0 3c
       -0.03360416 0.05130607 0.4799693 0.027354982
0000e0 04 47 6e bd 43 0b 90 bf c7 3c 48 3d 8d 3b 6f 3d
       -0.058173195 -1.1253437 0.048886087 0.0584064
0000f0 16 b8 44 be 51 00 ae be 08 f5 19 3d ea d3 ae 3c
       -0.19210848 -0.33984616 0.037587196 0.021341283
000100 dc 0e 4f 3c e2 67 e3 3c 1c 23 06 3e 5f f1 50 3a
       0.01263782 0.027759496 0.1309933 0.00079705374
000110 2e e8 8d be c7 bf db bd 83 3d 80 be 02 41 84 ba
       -0.27716202 -0.10729938 -0.2504693 -0.0010090175
000120 6a 2f a2 be 80 29 4a bf 0f b5 5a 3d 26 af 58 3d
       -0.316768 -0.78969574 0.053395327 0.05290141
000130 14 83 69 3d 71 cc 5b 3c 90 7d 4e 3f 95 c0 31 3d
       0.05700977 0.013415442 0.80660343 0.04339655
000140 79 dd 6e 3d 6f f5 1c 3c 77 bc 2d 3d f9 ce 67 3c
       0.05831668 0.00958 0.042416062 0.014148467
000150 7d 9f e7 3f ce d3 ce 3c 32 fa 30 3d 1b 36 58 3d
       1.8095547 0.02524748 0.043207355 0.052785974
000160 1a f6 d4 b9 d1 d4 5f 3b d5 86 4c 3e 1e 0d 1d 3d
       -0.0004061915 0.0034153948 0.1997331 0.038342588
000170 35 dc 45 3d 82 58 4b bd e6 0f d8 ba bb 7f 03 3d
       0.04830571 -0.049644955 -0.001648423 0.032104235
000180 e8 c1 4f bf 29 71 d1 be f1 47 cb 3b eb ca 59 3d
       -0.8115525 -0.40906647 0.0062036444 0.053172033
000190 bd 89 52 bf 4d dc 00 3f 60 c6 c6 3d 51 b7 21 3c
       -0.8224142 0.5033615 0.09705806 0.009870366
0001a0 ee 5c 76 3c 71 f7 6f bb 76 8e 66 3d 0c e6 22 3d
       0.015036805 -0.0036615992 0.056288205 0.03977017
0001b0 43 8e a7 3e e0 1b eb 3c 69 2f ef ba 12 85 eb bd
       0.32725725 0.028699815 -0.0018248382 -0.114999905
0001c0 77 9a 3c be 28 3f 5a 3f ac 09 15 bb 44 41 e1 be
       -0.18418299 0.8525262 -0.002274136 -0.43995106
0001d0 67 bd 04 3e 68 11 28 3c 9e 4a 2d 3d 1d e8 0b 3d
       0.12962876 0.010258056 0.04230749 0.034156907
0001e0 21 a3 08 be 70 e6 2f 3d 22 7f 03 3c bd 4b 54 3c
       -0.13343479 0.04294437 0.008025916 0.012957511
0001f0 97 0d 67 3d 6a 0b 29 3c 75 42 3c 3d 6f 0a 05 3f
       0.056409445 0.010317663 0.045961816 0.51969045
000200 c0 41 61 3d 33 27 19 3d 32 33 18 3d 6b 89 70 3d
       0.054994345 0.0373909 0.0371582 0.058724802
000210 fc ba c0 bd 5c 4a 23 3d c7 73 86 bc 59 5f 3d be
       -0.094106644 0.039865837 -0.016412629 -0.18493403
000220 38 64 c4 3c de 41 42 3e a2 8e fa 3c f5 84 43 3d
       0.02397357 0.18970439 0.03058559 0.04773422
000230 a8 3f 92 3c 06 f1 da 3c 10 02 55 3d cc 53 ec 3e
       0.01785262 0.026726257 0.05200392 0.46157682
000240 04 f9 97 bd 1e 82 1d 3c f6 28 51 3d 09 e4 51 3b
       -0.07420543 0.009613542 0.051064454 0.0032026789
000250 10 c4 c8 3c e6 6b 1b be ca f1 f7 3c eb 02 94 bd
       0.024507552 -0.15177879 0.030266661 -0.07227119
000260 6b 6b 30 3e 1c 44 2c 3d d6 90 64 3d b0 98 47 3b
       0.17228477 0.04205714 0.05580219 0.0030456
000270 96 5a 4c 3f 32 d0 3a b9 6f e0 68 3b e2 8b 36 3d
       0.79825723 -0.00017815901 0.0035534163 0.044566996
000280 15 7d ca 3c 61 f9 52 3f 16 67 d0 3e 84 d7 1e 3d
       0.024717847 0.8241177 0.40703648 0.03877975
000290 8d ad 0d bb 05 05 21 3c cf 44 86 3b b4 d8 d7 3e
       -0.0021618337 0.009827857 0.004097558 0.4215752
0002a0 99 34 93 bd ca e8 72 3d cc ad a6 bb be 81 44 3d
       -0.071877666 0.059304036 -0.005086636 0.047975294
0002b0 28 93 30 3d 82 ff 0a 3c bd 37 30 3d 7f 03 2b 3d
       0.04310909 0.008483769 0.043021906 0.04175138
0002c0 0e e4 63 be db ef 27 3d 1a d6 37 3d 5d ee 9c 3e
       -0.22254965 0.04100023 0.044881918 0.30650607
0002d0 f2 dd 74 3d cb 99 8c 3c 2d 5c 0c 3c ba 61 5e 3c
       0.059781976 0.017163178 0.008566898 0.0135731045
0002e0 70 08 36 3d fc 46 ea 3d 69 08 89 3c 61 b1 7d 3c
       0.04444164 0.114393204 0.016727643 0.015484185
0002f0 91 4c f7 ba 04 aa d5 3c b1 b4 46 3e 36 ba 52 bd
       -0.0018867423 0.026082046 0.19404866 -0.051447116
000300 86 a4 86 3b 8c 57 b1 3f 32 18 09 3d f6 e3 e3 bd
       0.004108968 1.3854842 0.03347034 -0.111274645
000310 d1 e6 59 3d 49 45 5e 3c 9c ff 4a 3d 29 f9 3a 3d
       0.05319864 0.013566324 0.049560174 0.045647774
000320 00 28 21 3d 0c bf 54 3d 46 43 6c bd 6d d9 2b be
       0.039344788 0.05194001 -0.057681344 -0.1678216
000330 07 c4 8d 3c 63 1c 64 3d df 63 ca 3c 9e f5 06 3d
       0.017305387 0.055691134 0.024705825 0.032949083
000340 1b 33 20 3e 2e da 15 3d a8 26 4c 3d 06 96 8d 3c
       0.15644495 0.036585025 0.049841553 0.01728345
000350 7c 5c 24 be 66 a4 a6 bb 56 97 0c 3d 0d ab e6 3e
       -0.16050905 -0.005085516 0.034324013 0.45052376
000360 35 21 10 3b 4b d0 ae bd 85 15 dc 3e 29 b5 23 3c
       0.002199245 -0.085358225 0.42985168 0.009991922
000370 7a 6c 07 be 75 cd 56 3e 94 e7 05 3d 55 40 d2 3b
       -0.13224974 0.20976813 0.032691553 0.0064163604
000380 1f 80 ce b9 3c 15 4a 3d 7f 43 02 3c 19 5e 94 ba
       -0.0003938684 0.049336657 0.007950663 -0.0011319547
000390 c3 7b 4d 3d 71 87 df 3b a1 1a 3e bd e0 18 ab bb
       0.050166856 0.006821566 -0.046412114 -0.005221471
0003a0 72 8f 6f 3b fb e7 b5 3d d3 c4 3f bc 81 eb 20 3e
       0.0036554006 0.088821374 -0.011704641 0.15714838
0003b0 22 ff 61 3d 83 73 5b 3c ff 69 ad 3b 33 d3 a0 be
       0.055174954 0.013394239 0.0052921767 -0.31411132
0003c0 36 2b 4c bd 1d c3 29 3c 3b 23 5f 3d eb 0a 13 bb
       -0.049845897 0.01036146 0.054476958 -0.0022436928
0003d0 e4 b4 3c 3d ca f0 2b 3d 14 58 c0 3a e8 1d 6e 3d
       0.04607095 0.04197768 0.0014674687 0.05813399
0003e0 e7 4d 28 3d 6d f3 29 3e f4 c9 0a bf 37 23 23 3d
       0.04108992 0.16596766 -0.54214406 0.039828505
0003f0 7c ce fe 3f ad bb de bc 30 f1 47 3d 0f 60 5a bb
       1.9906764 -0.0271891 0.048814 -0.0033321416
