Training/Model/model_actor_gym_Reacher_v4_301.pt (torch, 295959 bytes, 6 tensors)

network.0.weight f4 [256, 11]
0	0x3e2c46fb	0.16823952
1	0x3e4c42d0	0.19947362
2	0x3e0f978b	0.14022653
3	0xbe140b58	-0.14457452
4	0x3d7927e1	0.060829047
5	0x3cb24ee9	0.021766143
6	0x3df616b3	0.12016048
7	0xbe94dc0c	-0.29074132
8	0x3e3333a8	0.17500174
9	0x3dcd823c	0.10034606
10	0xbce41400	-0.027841568
11	0xbcf37dd7	-0.029723091
12	0x3d1040f8	0.03521821
13	0x3da1fc07	0.079093985
14	0x3de4130e	0.11136447
15	0x3e591c68	0.21202242
16	0xbe195051	-0.14972045
17	0x3ea18d34	0.31553042
18	0x3e2d43b3	0.16920356
19	0x3df61485	0.120156325
20	0x3c807048	0.01567854
21	0xbdfe72ee	-0.12424265
22	0x3e4c0379	0.199232
23	0xbabbf423	-0.0014339726
24	0xbbd2cb93	-0.0064329593
25	0xbde8e731	-0.11372221
26	0xbc2492a6	-0.010044729
27	0xbd3fe73d	-0.046851385
28	0x3ebbeaa2	0.36702448
29	0xbdff121f	-0.12454628
30	0x3e3ca810	0.18423486
31	0xbdc00cb7	-0.09377425
32	0x3e8e31e2	0.27772433
33	0x3d98b94c	0.074572176
34	0x3dfac1a0	0.12243962
35	0xbd9cb619	-0.0765192
36	0xbd5f64e1	-0.054539565
37	0xbe9eb94b	-0.31000742
38	0x3dc2015c	0.094729155
39	0x3eb3844d	0.35061875
40	0xbe0d57b3	-0.13802986
41	0x3dd8d6c6	0.1058784
42	0x3e644eb8	0.22295654
43	0xbdc7880e	-0.09742747
44	0x3db0386a	0.0860451
45	0x3ddaba17	0.10680025
46	0x3da73ebd	0.08166263
47	0xbe462566	-0.19350204
48	0xbcfb55f2	-0.03068063
49	0xbdc604eb	-0.09668907
50	0x3ebcb57a	0.36857206
51	0xbdef7d23	-0.1169379
52	0xbcbe7746	-0.023250233
53	0xbc2603c2	-0.010132732
54	0x3d145950	0.036217988
55	0xbd322c1a	-0.04349909
56	0x3d621705	0.055197734
57	0x3dfa9ec6	0.12237315
58	0x3df686c7	0.120374255
59	0x3d0ff852	0.035148926
60	0xbe8a7a06	-0.27046221
61	0x3e8ba91b	0.27277455
62	0x3ea7d132	0.3277679
63	0x3cf8eff3	0.030387854
64	0x3d50013d	0.05078243
65	0x3e988ccc	0.2979492
66	0x3dda99b2	0.10673846
67	0xbcb15661	-0.021647634
68	0xbd10b1b3	-0.035325717
69	0xbdbd4510	-0.09241688
70	0xbe4abf87	-0.19799624
71	0xbdf87aac	-0.12132773
72	0xbe44c1ed	-0.19214602
73	0x3e275784	0.16341978
74	0xbc250d08	-0.010073908
75	0xbda1cd16	-0.07900445
76	0xbd01bd48	-0.031674653
77	0x3e5f7e49	0.21825518
78	0x3cf67633	0.030085659
79	0xbc8e305a	-0.01735704
80	0xbdd35ab5	-0.10320035
81	0xbe033d6c	-0.128164
82	0x3e2b1536	0.1670731
83	0xbd6ac2ab	-0.057314556
84	0xbeabe440	-0.33572578
85	0x3d863e87	0.06554895
86	0x3d058cf4	0.032605127
87	0xbe1ac724	-0.15115029
88	0xbd3e6719	-0.04648504
89	0x3cf505d4	0.029910006
90	0xbd8b60bc	-0.0680556
91	0x3d8cf2d3	0.068822525
92	0x3e580a48	0.21097672
93	0x3e2fa63c	0.17153257
94	0xbe380781	-0.17971613
95	0x3d9f740d	0.07785807
96	0x3dc37c39	0.09545178
97	0x3dfcadde	0.1233785
98	0x3e830cc4	0.25595677
99	0xbd873b52	-0.06603111
100	0x3ea50716	0.3223197
101	0x3d4c8d04	0.04993917
102	0xbe452c26	-0.19255123
103	0x3d39ec9e	0.04539167
104	0xbe3cdd53	-0.18443803
105	0x3e78ce64	0.24297482
106	0xbce1110f	-0.027473954
107	0x3ee23165	0.4417831
108	0xbe1cdfb7	-0.15319715
109	0xbd6476f0	-0.05577749
110	0x3e75f5b0	0.24019504
111	0xbe826780	-0.2546959
112	0xbdc0d921	-0.09416414
113	0x3e1cd34b	0.15314977
114	0xbe614310	-0.21998239
115	0x3cc85b80	0.024457693
116	0x3dab0787	0.08351045
117	0x3e914169	0.28370216
118	0x3e0447b0	0.12917972
119	0x3df8067c	0.12110612
120	0xbe93d2d6	-0.28871793
121	0xbd161a0a	-0.036645927
122	0x3db10575	0.08643619
123	0xbe77a709	-0.24184813
124	0x3de294ee	0.11063562
125	0xbe349505	-0.17634971
126	0x3e37fd8e	0.17967817
127	0xbe53ebda	-0.20695439
128	0xbc071e84	-0.008247022
129	0x3e2b6295	0.16736825
130	0x3e488290	0.19581056
131	0xbe82c950	-0.25544214
132	0xbc613517	-0.013745568
133	0x3e06e7c5	0.1317435
134	0xbbdc5b5e	-0.006724759
135	0x3db18629	0.08668167
136	0xbdad9f29	-0.08477623
137	0xbcfbfb4f	-0.030759482
138	0xbe5d5d3d	-0.21617599
139	0x3e18576f	0.14877103
140	0xbcd63924	-0.026150294
141	0xbd89c0ff	-0.06726264
142	0xbe7ba1f5	-0.245735
143	0x3df0c83c	0.11756942
144	0xbda8f51a	-0.082498744
145	0x3cd30678	0.02575992
146	0x3dadc5db	0.084850036
147	0xbe255fc2	-0.1614981
148	0x3e838811	0.25689748
149	0xbbf0be47	-0.0073469016
150	0x3eaeace1	0.3411627
151	0x3dfb4b40	0.12270212
152	0x3e02b899	0.12765731
153	0x3e0657de	0.13119456
154	0xbddfbe10	-0.109249234
155	0xbe37fc6a	-0.17967382
156	0xbd098d97	-0.033582296
157	0x3c624b4e	0.013811899
158	0x3e08e45d	0.13368364
159	0x3e51b509	0.20479216
160	0x3c00a1ad	0.0078510465
161	0x3e804c00	0.25057983
162	0xbdd4508b	-0.10366925
163	0x3e3f148f	0.18660186
164	0x3d96c17c	0.07361123
165	0x3e581399	0.21101226
166	0xbdd7f471	-0.105446704
167	0xbd486630	-0.04892558
168	0x3dd4b025	0.103851594
169	0xbb6e208b	-0.0036335315
170	0xbe4abf69	-0.1979958
171	0x3e67e76d	0.22646876
172	0x3e5262ca	0.20545498
173	0x3e414ff5	0.18878157
174	0xbd9b858a	-0.0759383
175	0xbd997aa4	-0.07494095
176	0x3e1e8014	0.15478545
177	0xbdf6821d	-0.12036536
178	0x3d9781f8	0.073978364
179	0xbd857991	-0.065173276
180	0x3e96d978	0.2946279
181	0xbdf10102	-0.1176777
182	0xbe0ad8b2	-0.13559225
183	0xbd700869	-0.05860177
184	0x3e32c64c	0.17458457
185	0xbd8feb3b	-0.070272885
186	0xbe8b2858	-0.27179217
187	0x3e09deec	0.13463944
188	0x3e1e502c	0.1546027
189	0x3d9cbd5e	0.076533064
190	0xbe04b3f5	-0.12959273
191	0xbe206798	-0.15664518
192	0xbe1781d7	-0.14795624
193	0x3e70e347	0.235242
194	0xbe84f6d2	-0.2596956
195	0x3e903200	0.28163147
196	0xbe829e92	-0.25511605
197	0x3e913262	0.28358752
198	0xbd4ba842	-0.04972101
199	0xbe194a2a	-0.14969698
200	0x3d0102a6	0.031496666
201	0x3d4dcf5c	0.05024658
202	0xbe0ee2d8	-0.13953722
203	0x3e1ca2de	0.15296504
204	0x3e715481	0.23567392
205	0x3e4ac154	0.19800311
206	0xbca7bc95	-0.020475665
207	0xbe2e4978	-0.17020214
208	0x3d961540	0.07328272
209	0x3e12392e	0.14279625
210	0x3e0e7d2c	0.13914937
211	0x3cd720c5	0.026260743
212	0xbe548435	-0.20753558
213	0x3d789379	0.060687516
214	0xbe479742	-0.19491294
215	0x3d9e5e00	0.07732773
216	0xbe89fca0	-0.2695055
217	0xbbffb7c7	-0.0078038904
218	0xbe86d145	-0.26331535
219	0xbe180e61	-0.14849235
220	0x3e36f7c7	0.17867957
221	0x3d69dc90	0.05709511
222	0xbdb206d7	-0.08692711
223	0xbe35c816	-0.17752108
224	0xbe0e5a50	-0.13901639
225	0xbca2c9ed	-0.019871676
226	0x3e9a0d27	0.3008816
227	0xbda68916	-0.08131616
228	0x3e98d0fe	0.29846948
229	0x3d9bfaf9	0.076162286
230	0x3d3b7d88	0.045774013
231	0x3e10e120	0.14148378
232	0x3e4b284d	0.19839592
233	0xbd007f0d	-0.031371165
234	0x3d9ad50a	0.07560165
235	0xbe3643f4	-0.1779936
236	0xbe219784	-0.15780455
237	0x3b8d0ac7	0.0043042633
238	0x3e1a93bb	0.15095417
239	0x3e2167d6	0.15762267
240	0xbdab70fd	-0.0837116
241	0x3d2f51c0	0.042802572
242	0x3df93964	0.121691495
243	0xbda444da	-0.08020945
244	0xbdea0863	-0.11427381
245	0xbd7b58a6	-0.06136384
246	0xbc97b9b3	-0.018521165
247	0x3c562b7d	0.013071892
248	0xbe0f8cc1	-0.14018537
249	0xbe233db4	-0.15941507
250	0x3cdf9e5b	0.02729719
251	0xbdacbdb9	-0.08434624
252	0x3d86e198	0.06585997
253	0xbd040f21	-0.03224099
254	0xbdc5c546	-0.096567675
255	0x3cb10b24	0.021611758

network.0.bias f4 [256]
0	0xbdc93cf8	-0.09826082
1	0x3dc8d22e	0.098057136
2	0xbdbc5a1e	-0.09196876
3	0xbddb76d5	-0.10716025
4	0x3cccc1ab	0.024994692
5	0xbda8ebab	-0.08248075
6	0x3e802ee1	0.25035766
7	0x3e1a197f	0.15048788
8	0x3eab88c8	0.33502793
9	0x3e579e68	0.21056521
10	0x3de93d64	0.113886625
11	0x3b8461fc	0.004040001
12	0xbb374834	-0.002796662
13	0x3e24b416	0.16084322
14	0xbd9005fa	-0.0703239
15	0xbdacf67c	-0.08445451
16	0x3ef6e6af	0.48222873
17	0xbddc4de3	-0.10757043
18	0x3e348870	0.17630172
19	0x3eca7f99	0.39550474
20	0x3b1db6db	0.002406529
21	0x3cd73d1b	0.026274255
22	0xba88324b	-0.0010390965
23	0x3da7b3b7	0.08188575
24	0x3e02efb3	0.1278675
25	0x3e5cdde8	0.21569026
26	0xbd3b27ec	-0.04569237
27	0x3ee3c055	0.44482675
28	0x3d5900a9	0.052979145
29	0x3c6234ce	0.013806535
30	0xbe42976a	-0.19003072
31	0x3d7119a4	0.058862343
32	0x3dd33b97	0.103141
33	0xbd0d0d97	-0.03443679
34	0x3ed3565f	0.41276833
35	0xbc45a5a1	-0.012063415
36	0x3ea38acd	0.31941834
37	0xbca80e5a	-0.020514656
38	0xbd9145a7	-0.07093363
39	0xbddd95bc	-0.10819575
40	0xbdf084bb	-0.11744066
41	0x3edf4c0f	0.43612716
42	0x3eb76f08	0.35826898
43	0x3eb43e12	0.35203606
44	0x3e6362c6	0.22205648
45	0x3e26e0e9	0.16296734
46	0x3d078f55	0.033095676
47	0x3d6b6dd4	0.057477787
48	0x3e7582ea	0.23975721
49	0x3eb0d66a	0.34538585
50	0x3ce7d670	0.028300494
51	0x3e85e989	0.26154736
52	0x3e653f03	0.22387318
53	0x3e4cddbe	0.20006463
54	0x3ee767f2	0.4519649
55	0x3ea73fbe	0.3266582
56	0x3dd27102	0.10275461
57	0x3dbfa21f	0.09357094
58	0x3d4197b1	0.047263805
59	0x3ee75675	0.4518315
60	0x3e281a47	0.16416274
61	0x3df8be1b	0.12145635
62	0x3e9387b9	0.28814486
63	0x3e0de87f	0.13858221
64	0xbd989d7b	-0.07451912
65	0x3e619f73	0.22033481
66	0x3db9762d	0.09055743
67	0x3e37a686	0.17934617
68	0xbe007976	-0.12546334
69	0x3d89d2f2	0.06729688
70	0x3e27d2b0	0.16388965
71	0x3e1d037c	0.1533336
72	0x3ed34b30	0.412683
73	0x3df772ed	0.12082467
74	0x3dcb123d	0.09915588
75	0x3ead168f	0.33806273
76	0xbcd25437	-0.025674922
77	0x3ea18e53	0.31553897
78	0x3e7fa9ed	0.24967165
79	0x3d2915df	0.041280624
80	0x3e282f81	0.16424371
81	0xbd61f14c	-0.05516176
82	0xbaa92c73	-0.0012906924
83	0x3e3324b5	0.17494471
84	0x3dab2cde	0.08358167
85	0x3e83254f	0.25614402
86	0x3de5dcad	0.11223731
87	0x3e5c6e64	0.21526486
88	0x3c9f757a	0.019465197
89	0xbe48d56a	-0.19612661
90	0x3e3ddd70	0.18541503
91	0xbcb5fd45	-0.022215495
92	0x3e0ffdc6	0.1406165
93	0xbbfeb0f3	-0.007772559
94	0xbdb35470	-0.087563396
95	0x3d9f87fe	0.0778961
96	0x3e4755db	0.19466345
97	0x3d53d676	0.051718198
98	0x3e7ea020	0.2486577
99	0x3dc649c1	0.09682036
100	0x3e5a8198	0.21338499
101	0xbd93e608	-0.07221609
102	0x3e3032f7	0.17206942
103	0xbdf62f2c	-0.12020716
104	0x3ea3cd54	0.3199259
105	0x3e787da1	0.24266674
106	0x3eabf831	0.33587793
107	0xbe109083	-0.14117627
108	0x3ecf8bcf	0.40536353
109	0xbdcd6f24	-0.10030964
110	0x3d4e25f1	0.050329152
111	0x3da550f7	0.080720834
112	0x3c9c0c83	0.019048935
113	0x3ee3aaee	0.44466347
114	0xbe02e716	-0.12783465
115	0x3e07d900	0.13266373
116	0xbe0fb1ae	-0.14032623
117	0xbde1afd2	-0.11019863
118	0x3e1f01bb	0.15528004
119	0xbda07e32	-0.0783657
120	0x3eaa0f3a	0.33214742
121	0xbd3171bf	-0.043321367
122	0x3ed4d2f8	0.41567206
123	0x3e7dc80b	0.24783342
124	0x3e6afdc8	0.22948372
125	0x3deff89b	0.117173396
126	0x3e123cde	0.14281031
127	0x3e564669	0.20925297
128	0xba92da2b	-0.0011203935
129	0x3e71eb90	0.23625016
130	0x3e92af60	0.28649426
131	0x3e8bd306	0.27309436
132	0x3e1a7ead	0.15087385
133	0x3e80d532	0.25162655
134	0xbe095189	-0.1341001
135	0xbcf0f842	-0.029415254
136	0xbda94d09	-0.082666464
137	0xbdc3da7f	-0.09563159
138	0x3de36cb1	0.111047156
139	0x3e663cb8	0.224841
140	0xbd7cd057	-0.061722126
141	0x3e62a087	0.22131549
142	0x3ea9d973	0.33173713
143	0x3e09b7ba	0.13448992
144	0x3e225b5d	0.15855165
145	0x3ead90e4	0.33899605
146	0x3ea153e6	0.31509322
147	0x3ea828ae	0.32843536
148	0x3e545090	0.20733857
149	0xbe26ef73	-0.1630228
150	0x3cc341e1	0.023835124
151	0xbcedb938	-0.029018983
152	0x3de8cfdd	0.11367772
153	0x3d911caf	0.07085549
154	0x3e901633	0.28141937
155	0x3e79179e	0.24325415
156	0x3ca7912e	0.02045497
157	0x3e1b8d00	0.15190506
158	0x3d79448c	0.060856387
159	0x3d9413f7	0.072303705
160	0xbb80473f	-0.003914743
161	0x3e5354a1	0.20637752
162	0x3e8c789c	0.27435768
163	0xbe300c7f	-0.17192267
164	0xbdddaf24	-0.10824421
165	0xbe4ad587	-0.19808017
166	0xbd6dc825	-0.0580522
167	0xbe90b53f	-0.2826328
168	0x3ec8fdab	0.39256033
169	0x3e921a34	0.28535616
170	0x3eb103a0	0.34573078
171	0x3d9d2840	0.07673693
172	0x3c77191b	0.015081669
173	0x3e84f511	0.2596822
174	0x3e7273fc	0.23677057
175	0xbdecbc0b	-0.11559304
176	0x3e2cf53d	0.16890426
177	0x3d6c1831	0.05764026
178	0x3ed57db8	0.41697478
179	0x3ead288e	0.33820003
180	0xbc2545c5	-0.010087435
181	0xbd4b2c3e	-0.04960274
182	0x3e968b2e	0.2940306
183	0x3e399a6b	0.18125312
184	0x3e414bc1	0.18876554
185	0xbdc89c88	-0.09795481
186	0x3deb8bee	0.11501299
187	0x3e5bddaf	0.21471284
188	0xbe0d9f22	-0.13830236
189	0xbd9250a9	-0.07144291
190	0xbc47d221	-0.012196095
191	0x3efe9dbd	0.4972972
192	0x3cec2e40	0.028830647
193	0x3e8c7854	0.27435553
194	0x3ed4b290	0.41542482
195	0x3d9b2432	0.07575263
196	0xbdee1cf2	-0.11626615
197	0xba6ea779	-0.0009103935
198	0x3d82dcfc	0.06389806
199	0x3eb8d29b	0.3609818
200	0x3cc4d543	0.024027472
201	0xbc750035	-0.014953663
202	0x3ec954ee	0.3932261
203	0x3d8f9fac	0.07012877
204	0x3cc5dc6f	0.024152962
205	0x3d703780	0.05864668
206	0x3e4e70f4	0.20160276
207	0x3e7a36d2	0.24434975
208	0x3e4f9116	0.2027019
209	0x3d97eba8	0.07417995
210	0xbe9886ef	-0.29790446
211	0x3ea5628c	0.32301748
212	0x3e0f1a9e	0.13974997
213	0x3edf30e6	0.43591994
214	0xbea7f520	-0.32804203
215	0xbd109615	-0.03529938
216	0xbdb067a5	-0.086135186
217	0x3ea24117	0.31690285
218	0x3e838f1b	0.25695118
219	0x3daafc3f	0.083488934
220	0x3e48125b	0.19538252
221	0x3e40a956	0.18814597
222	0x3de5c736	0.11219637
223	0xbc0f476d	-0.008745057
224	0x3dbb135d	0.09134553
225	0xbc8765e3	-0.016528076
226	0x3d48a794	0.04898794
227	0x3ed5c2e8	0.41750264
228	0x3c8c965c	0.01716154
229	0x3e06fbc1	0.13181974
230	0x3eab7645	0.3348867
231	0x3e102b53	0.14079027
232	0x3e6778d9	0.22604693
233	0x3dfdabe8	0.12386304
234	0xbdfeb3a3	-0.12436607
235	0x3ead1f29	0.33812836
236	0x3e1c3372	0.15254
237	0x3e4ddf30	0.2010467
238	0x3eec3598	0.4613464
239	0x3d612c48	0.05497387
240	0xbd88141c	-0.066444606
241	0xbd690d9b	-0.05689774
242	0x3c64d744	0.013967339
243	0x3d84f209	0.06491477
244	0x3e6096bc	0.219325
245	0x3e4f49de	0.20243022
246	0x3e9f4129	0.311044
247	0x3eb52f22	0.35387522
248	0x3e3dcfdc	0.18536323
249	0x3ecfc833	0.40582427
250	0x3ede38fd	0.43402854
251	0xbd766309	-0.06015304
252	0x3e9ec23e	0.3100757
253	0x3ebb3386	0.36562747
254	0x3d985f18	0.07440013
255	0x3ec72424	0.3889476

network.2.weight f4 [256, 256]
0	0xbc99d7f8	-0.01877974
1	0x3cfd6ca6	0.030935597
2	0x3cfe2b1b	0.031026414
3	0x3d09a25a	0.033602096
4	0x3d601633	0.05470867
5	0x3cbf5e81	0.023360493
6	0x3d0f1e5d	0.034941066
7	0x3d4cbe12	0.049985953
8	0xbd897757	-0.067122154
9	0xbd03d086	-0.032181285
10	0x3ce0e2d7	0.027451916
11	0xbcd78ce5	-0.026312301
12	0x3c1d1e96	0.009589812
13	0x3d3c1bf0	0.04592508
14	0xbc977e31	-0.01849279
15	0x3cc6258f	0.024187831
16	0xbd1b0b45	-0.037852544
17	0x3b62ee78	0.0034627002
18	0x3cd1a94a	0.025593419
19	0xbd2c92b9	-0.042132113
20	0x3b7140ba	0.0036812262
21	0x3ccfbb55	0.025357882
22	0xbd94a563	-0.072581075
23	0xbd0e7b94	-0.034785822
24	0x3c5d1d3b	0.013495739
25	0x3d61c078	0.055115193
26	0xbcd2ff6a	-0.025756557
27	0xbd39f65d	-0.045400966
28	0xbc766118	-0.015037797
29	0x3d1bc2ef	0.0380277
30	0x3bd5e9ac	0.0065281
31	0xbd6dc1e7	-0.058046248
32	0xbcd3c8aa	-0.02585252
33	0xbcf41a0d	-0.029797578
34	0x3c9e8b14	0.019353427
35	0x3cc9288b	0.024555465
36	0x3c7df36e	0.015499933
37	0xbd707b5e	-0.058711402
38	0xbb66ba12	-0.0035206121
39	0xbd03a4b5	-0.0321395
40	0x3c97f1f2	0.018547986
41	0x3c91c55e	0.017794307
42	0xbc96ac6d	-0.018392766
43	0xbd92112c	-0.071321815
44	0x3a64c9b1	0.0008727564
45	0xba3a752e	-0.0007112798
46	0x3d31a396	0.0433689
47	0x3cce7653	0.025202906
48	0xbd5b8cb5	-0.053600986
49	0xbca77526	-0.020441603
50	0xbcf5df20	-0.03001362
51	0xbd055b8e	-0.032558016
52	0xbc16556a	-0.009175638
53	0xbd74aa44	-0.05973269
54	0xbd27abe8	-0.040935427
55	0x3bb129fd	0.0054066167
56	0xbd6ad6f5	-0.057333905
57	0xbd30b78b	-0.04314379
58	0xbd7b4647	-0.06134632
59	0x3d55428b	0.052065413
60	0x3cd6a6cd	0.026202584
61	0xbd56dbc0	-0.052455664
62	0x3d51b917	0.051201906
63	0x3cd5941f	0.026071606
64	0xbd3521f7	-0.044221845
65	0x3c5ddec8	0.013541885
66	0xbbe33fff	-0.006935119
67	0xbc3f80cb	-0.0116884215
68	0xbd81b109	-0.06332595
69	0xbd162b43	-0.03666235
70	0xbbf9d103	-0.007623793
71	0xbcba2301	-0.02272177
72	0x3d22cbc3	0.039745104
73	0xbd1e500b	-0.038650554
74	0x3d0da5c3	0.03458191
75	0xbd122014	-0.035675123
76	0xbd373b50	-0.0447343
77	0x3ca813ed	0.020517314
78	0xbd4b30c1	-0.049607042
79	0xbd9a3d4a	-0.07531221
80	0xbc63df19	-0.013908171
81	0x3c408c22	0.01175216
82	0x3d13f639	0.036123488
83	0xbbd21def	-0.00641226
84	0x3d237385	0.03990509
85	0xbd1fade1	-0.038984183
86	0xbd478d29	-0.048718605
87	0x3c148531	0.009064958
88	0xbd81dd45	-0.06341032
89	0xbcd1cb59	-0.025609659
90	0xbd9fe57b	-0.07807442
91	0xbd306f97	-0.04307517
92	0xbcd059f7	-0.025433524
93	0xbd52ae69	-0.05143586
94	0x3d0f7a5e	0.035028808
95	0x3d2145df	0.039373275
96	0xbd5ef01c	-0.054428205
97	0x3d0dd834	0.034630015
98	0x3c4cfff2	0.012512194
99	0x3c35fcab	0.011107604
100	0xbcb0a6fd	-0.021564001
101	0xbc3c1477	-0.011479489
102	0xbd248ded	-0.040174413
103	0xbc4a2e26	-0.012340104
104	0x3c136d2f	0.008998199
105	0xbd6f189d	-0.058373082
106	0xbcc5a9cf	-0.024128823
107	0x3c75f735	0.015012552
108	0xbcb14ed0	-0.021644026
109	0xbbce5e0b	-0.006297832
110	0x3c86b1b2	0.016442154
111	0xb9649642	-0.0002179975
112	0xbc5f48fb	-0.01362824
113	0x3b265bb9	0.002538426
114	0xbc78aa14	-0.015177269
115	0xbd0c0b40	-0.034190416
116	0x3d3864ad	0.045017887
117	0x3d390718	0.04517278
118	0xbd6ff146	-0.058579706
119	0xbd8ff0ce	-0.07028352
120	0xba04b7e7	-0.0005062804
121	0x3a9de2e2	0.0012045766
122	0xbce21a3f	-0.027600406
123	0x3a7acf4b	0.0009567632
124	0xbd81c82f	-0.0633701
125	0x3c65e414	0.014031429
126	0xbbf57014	-0.0074901674
127	0xbd6bb4b9	-0.057545397
128	0xbccc17f4	-0.024913765
129	0x3d2786a8	0.040899903
130	0xbcdc7d13	-0.026915109
131	0xbd628972	-0.05530686
132	0x3bc2a9b0	0.0059406385
133	0xbd64c12f	-0.055848297
134	0x3ca22952	0.019795094
135	0xbd8b83f8	-0.068122804
136	0x3c8c0d77	0.017096264
137	0xbd91a834	-0.0711216
138	0x3c264ebc	0.010150608
139	0x3d2b1db9	0.041776393
140	0xbd673644	-0.056448236
141	0xbc641c2f	-0.013922735
142	0x3d2baeed	0.04191487
143	0x3d12dd7a	0.035855748
144	0xbcfb2c18	-0.030660674
145	0x3d5306b2	0.051520057
146	0xbbe9694a	-0.007123147
147	0xbd11e89d	-0.035622228
148	0xbcbe0f6f	-0.023200719
149	0xbc55dfe2	-0.013053866
150	0x3c0f0ab3	0.008730578
151	0x3cf3b973	0.029751515
152	0x3bc58824	0.006028192
153	0x3b6c1b68	0.0036027078
154	0xbd9f1334	-0.077673346
155	0xbd153a50	-0.036432564
156	0xbd920c49	-0.071312495
157	0xbd1e8d1e	-0.0387088
158	0xbc124d01	-0.008929492
159	0xbd8562b0	-0.06512964
160	0xbd872cf2	-0.066003695
161	0xbd16018c	-0.03662257
162	0x3d65a4b4	0.056065276
163	0xbc84ede7	-0.016226722
164	0x3d38e0a8	0.045136124
165	0xbc785251	-0.0151563445
166	0x3cd0ba24	0.025479384
167	0xbd34a467	-0.0441021
168	0xbd314b2f	-0.04328459
169	0xbd0fc63e	-0.035101168
170	0x39821d78	0.00024817488
171	0x3ce76bc9	0.028249638
172	0x3d46dfcb	0.04855327
173	0x3d3bb35f	0.04582536
174	0xbd6bf895	-0.057610113
175	0xbd21c069	-0.039490137
176	0xbd3cb7b0	-0.046073616
177	0xbc92286b	-0.017841538
178	0xbd69bdb8	-0.057065696
179	0xbcf4c976	-0.02988122
180	0xbd175e7f	-0.036955353
181	0x3c42c398	0.0118874535
182	0xbd9b84af	-0.07593667
183	0xbd5ca71c	-0.053870305
184	0xbd7ff303	-0.062487613
185	0x3baf7704	0.005354764
186	0x3b8c9cfe	0.004291176
187	0xbcc74c66	-0.024328422
188	0xbd3d35ce	-0.04619389
189	0xbcce6b1b	-0.025197556
190	0xbd8feb87	-0.07027345
191	0x3d8fba48	0.07017952
192	0xb92fb10d	-0.00016755257
193	0x3ccdc583	0.025118595
194	0xbb952e41	-0.004552633
195	0xbcc6e54d	-0.024279261
196	0xbbd272a3	-0.006422357
197	0x3ae1f798	0.0017239926
198	0x3c9720bd	0.018448228
199	0xbd89ea90	-0.06734192
200	0x3cafbd8d	0.02145269
201	0x3bca39ad	0.0061714263
202	0xbd3979d0	-0.045282185
203	0xbd9a5069	-0.07534868
204	0xbd5e0d0b	-0.054211657
205	0x3caad442	0.020853166
206	0x3d14a40f	0.03628927
207	0x3b18e6cf	0.0023330932
208	0xbd8300c7	-0.06396633
209	0x3d7e3a9c	0.062067613
210	0x3c295251	0.010334567
211	0xbcebacaf	-0.028768865
212	0x3c27ae6f	0.010234459
213	0xbb9d7a1a	-0.0048058154
214	0xbd4ccacb	-0.049998086
215	0x39887a06	0.00026030856
216	0xbd49bf32	-0.049254604
217	0x3d1bc7c9	0.038032327
218	0x3d2b237d	0.04178189
219	0x3d22b9da	0.039728023
220	0xbc826b87	-0.015920414
221	0x3bb0d601	0.005396605
222	0x3d064bf5	0.032787282
223	0xbc0d3d1c	-0.008620527
224	0x3d5543a2	0.052066453
225	0xbc50b671	-0.01273881
226	0x3d42fe68	0.047605902
227	0xbd4d3292	-0.050097056
228	0x3c5707ce	0.013124419
229	0x3d59ea29	0.05320183
230	0xbd13e740	-0.03610921
231	0x3cff2d0a	0.031149406
232	0xbc0b318b	-0.008495699
233	0xbca882e9	-0.020570235
234	0x3b2cdd17	0.0026376897
235	0xbc7a81d7	-0.015289745
236	0x3c73e1a6	0.014885342
237	0x3c5f5fd7	0.01363369
238	0xbd886a5a	-0.0666091
239	0x3d4f9753	0.050681423
240	0xbd75b503	-0.05998708
241	0x3ce1c794	0.027560987
242	0x3d2f1e19	0.042753313
243	0xbcfbdc49	-0.030744689
244	0xbc4d8660	-0.0125442445
245	0x3cfaba4c	0.030606411
246	0x3d509afb	0.05092905
247	0xbcdf982d	-0.027294243
248	0x3d0bc657	0.0341247
249	0x3b8331ac	0.004003724
250	0xbd30acdb	-0.043133598
251	0x3c3a87c4	0.011384908
252	0x3c8ed846	0.017437112
253	0x3cd6346b	0.026148042
254	0x3c2b8d4f	0.010470702
255	0xbb8a1137	-0.004213478

network.2.bias f4 [256]
0	0x3c20b275	0.0098081725
1	0xbd0b670a	-0.034033813
2	0x3d030d39	0.031995032
3	0x3c6e706c	0.014553171
4	0x3cfb30bb	0.030662885
5	0xbce350c3	-0.027748471
6	0x3b97197a	0.0046111913
7	0x3e630c3f	0.2217264
8	0x3e779dfe	0.24181363
9	0xbba042fc	-0.0048907977
10	0xbbaf7db4	-0.005355561
11	0x3cea3f65	0.028594682
12	0xbd91e366	-0.07123451
13	0x3e01494f	0.12625621
14	0xbc7139f1	-0.014723287
15	0x3d1959c1	0.03743911
16	0xbc0c4331	-0.008560942
17	0x3c2d4d22	0.010577472
18	0x3e380842	0.179719
19	0xbd4c6531	-0.04990119
20	0x3c76cbc3	0.015063229
21	0x3e155882	0.14584544
22	0xb9448f7a	-0.00018745466
23	0xbcd04519	-0.025423573
24	0x3c227aad	0.0099169435
25	0xbc4b9244	-0.012425009
26	0x3d0f5b70	0.03499931
27	0x3e809a5c	0.25117767
28	0xbc9ab906	-0.018887054
29	0xbc2ab396	-0.010418793
30	0xbb95d1fa	-0.0045721503
31	0x3ce21f1f	0.02760273
32	0x3c91b4e3	0.017786449
33	0xbca47421	-0.020074906
34	0xbc5470bb	-0.01296633
35	0xbd2d7722	-0.042349942
36	0xbb956cc8	-0.004560087
37	0xbd3bb2d1	-0.04582483
38	0xbd08ebc5	-0.033427972
39	0xbd2f51ba	-0.04280255
40	0xbd544987	-0.051827934
41	0xbb73bbe4	-0.003719085
42	0xbd2691c2	-0.04066635
43	0xbd662745	-0.056189794
44	0xbd8ff619	-0.07029361
45	0xbce8cbca	-0.028417487
46	0x3c9a4d36	0.018835645
47	0x3c43ec35	0.011958172
48	0x3b984829	0.004647274
49	0x3b99cb50	0.004693426
50	0xbaf7f105	-0.0018916434
51	0xbb2a9cec	-0.0026033474
52	0x3d509dab	0.050931614
53	0xbd1f0617	-0.038824167
54	0xbc4f6a30	-0.012659594
55	0xbd8a397c	-0.067492455
56	0xbd971fe6	-0.07379131
57	0xbd71a15e	-0.058991782
58	0xbd09fc6d	-0.033687998
59	0xbcda0b4c	-0.026616715
60	0xbd9b3362	-0.0757816
61	0x3c8e1236	0.017342668
62	0x3c182e54	0.009288389
63	0x3c4d4306	0.012528187
64	0x3bb4c07b	0.0055161095
65	0x3c3f9f9f	0.0116957715
66	0x3ca8b1de	0.020592626
67	0xbd581987	-0.05275872
68	0x3caf2eb6	0.021384578
69	0x3c71dd12	0.01476218
70	0xbc8c8de0	-0.017157495
71	0xbd60c5da	-0.054876186
72	0xbcf44404	-0.029817589
73	0x3d089646	0.033346437
74	0x3b986ff2	0.004652017
75	0x3d07ce1c	0.033155546
76	0x3d1d4546	0.038396142
77	0x3d44c177	0.048036065
78	0x3e6f47a9	0.2336718
79	0xbd3c1f4b	-0.04592828
80	0xbccfa6f7	-0.02534817
81	0x3e2c6a9c	0.16837543
82	0xbce2a611	-0.027667077
83	0x3d162659	0.036657665
84	0xbd169d72	-0.036771245
85	0x3d878a14	0.06618133
86	0x3cd03ed9	0.025420593
87	0xbc8911b1	-0.016732069
88	0x3e1cc279	0.1530856
89	0xbc98af32	-0.018638227
90	0xbd037e54	-0.032102898
91	0xbcff5e3f	-0.03117287
92	0x3c8c7791	0.017146857
93	0xbc2b214c	-0.01044495
94	0x3c887c69	0.016660886
95	0x3cbea903	0.02327395
96	0xbd5cd4a6	-0.053913735
97	0xbc8d9080	-0.017280817
98	0xbd062d05	-0.032757778
99	0xbd4fc09e	-0.050720803
100	0xbd5b6b08	-0.05356887
101	0xbd904aae	-0.07045494
102	0xbb3c879d	-0.0028767355
103	0x3c0e1620	0.008672267
104	0x3e84c6af	0.25932834
105	0x3bc1757a	0.005903897
106	0xbbc31825	-0.005953806
107	0xbbb88002	-0.005630494
108	0xbc5683d1	-0.013092951
109	0x3e58c2ce	0.21168062
110	0xbd9c5de4	-0.07635096
111	0xbb06a84e	-0.0020547095
112	0x3e5031b7	0.20331465
113	0x3d1402bc	0.03613542
114	0x3cae8999	0.021305846
115	0x3d5a9457	0.053364124
116	0x3e945aa0	0.2897539
117	0xbd8a00a0	-0.067384005
118	0x3c6c45d8	0.014420949
119	0x3d596ac9	0.053080354
120	0x3d348b7f	0.044078346
121	0xbc1205db	-0.008912529
122	0x3cd35a9b	0.02580004
123	0x3c2e2cf0	0.010630831
124	0x3cd01b1b	0.02540355
125	0x3ab6a8da	0.001393582
126	0xbd77b474	-0.060474828
127	0xbce6d426	-0.028177332
128	0xbd4940cf	-0.049134072
129	0xbd11a829	-0.03556076
130	0xbcf75d4d	-0.030195856
131	0xbd03db39	-0.03219149
132	0x3b96aca3	0.0045982166
133	0x3c4c70d7	0.012478075
134	0x3c3adb1e	0.011404781
135	0xbdd15dce	-0.1022297
136	0xbd10a44b	-0.035312932
137	0xbd2faa8a	-0.042887248
138	0xbc4fd9e0	-0.012686223
139	0x3e100f08	0.14068234
140	0x3ce11fff	0.027481077
141	0xbd76fe3b	-0.060301047
142	0xbd3b2d59	-0.045697544
143	0x3e8f428e	0.27980465
144	0x3da4717a	0.080294564
145	0x3d01a7f5	0.031654317
146	0xbd325708	-0.04354003
147	0x3e09d07f	0.13458441
148	0x3e694055	0.22778447
149	0xbc0a5e69	-0.008445361
150	0x3c2b1405	0.010441785
151	0xbcd790dc	-0.026314192
152	0xbd1fb1be	-0.038987868
153	0xbc63be9d	-0.013900426
154	0x3d4a87f8	0.049446076
155	0xbb4404b7	-0.0029910037
156	0xbca03287	-0.019555343
157	0x3cfbefad	0.030753935
158	0x3cf31fb9	0.029678212
159	0x3e55ea98	0.20890272
160	0xbd5c7b5a	-0.053828575
161	0xbc54de06	-0.012992388
162	0x3bba8a57	0.005692761
163	0xbcaa1e0b	-0.020766279
164	0xbd271c30	-0.040798366
165	0xbcbb94c1	-0.02289808
166	0xbcddc408	-0.027071014
167	0xbd506cd2	-0.05088503
168	0x3c18ce8c	0.009326588
169	0xbcf40221	-0.029786171
170	0x3ca58769	0.02020617
171	0x3bafed9a	0.0053689005
172	0x3e79eea0	0.24407434
173	0xbbe448bc	-0.0069666784
174	0xbd9880dc	-0.07446453
175	0x3d11545e	0.03548085
176	0xbd70288c	-0.05863242
177	0x3e390c0c	0.18071002
178	0x3d2b6ce6	0.0418519
179	0x3c819d56	0.015822094
180	0xbc57094e	-0.013124777
181	0xbc912a20	-0.017720282
182	0xbd265289	-0.040606055
183	0xbd760cbe	-0.060070746
184	0x3d8eaa6f	0.069661014
185	0xbd337d0f	-0.043820437
186	0x3c08e0fa	0.00835442
187	0xbcf78c8f	-0.03021839
188	0xbcc2d889	-0.023784893
189	0x3e6cacd3	0.23112802
190	0xbd802041	-0.06256152
191	0xbd81742e	-0.06320988
192	0xbd5fbaf7	-0.054621663
193	0xbc9d6b38	-0.019216165
194	0x3bb3536a	0.00547259
195	0xbd6c00fd	-0.05761813
196	0xbcfaae11	-0.03060058
197	0xbd36c1ab	-0.04461829
198	0x3c9ae84c	0.018909596
199	0xbcd59178	-0.026070341
200	0x3d14ca95	0.03632601
201	0xbd0ff37f	-0.035144325
202	0xbd265312	-0.040606566
203	0xbd5c07b6	-0.05371829
204	0xbcae1a10	-0.021252662
205	0x3d2ab901	0.04168034
206	0xbd12da62	-0.035852797
207	0x3d04cb5b	0.032420497
208	0xbcdc57e5	-0.02689738
209	0x3ba965ee	0.0051696217
210	0xbd0af608	-0.03392604
211	0xbd2c1a01	-0.042016987
212	0xbd66d655	-0.056356747
213	0xbbb3b2e1	-0.0054839705
214	0x3be109f7	0.006867643
215	0x3cf130ba	0.02944218
216	0x3d0afde9	0.033933554
217	0xbc5375e9	-0.01290653
218	0x3d16f2e1	0.03685272
219	0x3c2af210	0.010433689
220	0xbd740890	-0.05957848
221	0x3ce43cc0	0.027861
222	0xbc302cb6	-0.010752847
223	0xbccd0fda	-0.025031973
224	0xbd65fe5d	-0.056150783
225	0x3c6d4b2c	0.014483254
226	0xbd2aca7b	-0.041697007
227	0x3e8982df	0.2685766
228	0xbc5ca4eb	-0.013467054
229	0x3e3bba9c	0.18332905
230	0x3c60e3d2	0.013726192
231	0x3bcc2adc	0.006230695
232	0x3cc4ff15	0.024047414
233	0x3daf135d	0.08548615
234	0x3c3fd817	0.011709235
235	0x3cbb2eff	0.022849558
236	0xbc3659c9	-0.011129805
237	0x3cc000ac	0.02343782
238	0x3c795660	0.015218347
239	0xbd92dcbd	-0.07171009
240	0xbc185a71	-0.009298907
241	0xbbbba399	-0.0057262895
242	0xbceab979	-0.028652893
243	0x3c2f6f1d	0.010707644
244	0x3e697502	0.22798541
245	0xbd0c137d	-0.034198273
246	0xbd261d4c	-0.040555283
247	0xbd8314d3	-0.06400456
248	0xbcc591c2	-0.024117354
249	0x3c2b1260	0.010441393
250	0x3e5a912e	0.21344444
251	0xbcc03f87	-0.023467792
252	0xbd63d8e3	-0.05562676
253	0x3ce3566f	0.027751176
254	0xbcb3ccbc	-0.02194821
255	0xbd0806b2	-0.03320951

network.4.weight f4 [18, 256]
0	0x3c15feae	0.009154959
1	0x3d000ea0	0.031263947
2	0xbc7bdaae	-0.0153719615
3	0xbb47c9b0	-0.0030485205
4	0x3cc71679	0.024302708
5	0xbb97f22c	-0.0046370234
6	0xbc9fbf14	-0.019500293
7	0x3e669951	0.22519423
8	0x3e713dba	0.23558703
9	0x3c36eb98	0.011164568
10	0xbb585135	-0.0033007388
11	0xbbc27388	-0.0059341826
12	0x3d4978c8	0.04918745
13	0x3e819093	0.25305614
14	0x3b7fbe53	0.0039023354
15	0x3cff38ce	0.031155016
16	0x3cd6161f	0.026133595
17	0x3bf0ddff	0.0073506827
18	0x3e77788b	0.24167077
19	0x3d090df5	0.033460576
20	0xbca3c323	-0.01999051
21	0x3e880339	0.2656496
22	0x3bd12a74	0.0063832346
23	0x3c65a953	0.014017421
24	0xbd0dd4f5	-0.03462692
25	0xba3c499e	-0.00071826007
26	0xbc4cb146	-0.012493437
27	0x3e6ac42c	0.22926396
28	0xbcd2c45b	-0.025728395
29	0xbc3c931c	-0.011509683
30	0xbc2041fe	-0.009781359
31	0xbc5c7ac3	-0.013457003
32	0x3ca525f5	0.0201597
33	0x3cbc329e	0.022973355
34	0x3b9c89d7	0.004777174
35	0xbc550d42	-0.013003649
36	0x3b7537b9	0.0037417246
37	0xbca47a40	-0.020077825
38	0x3a8aa659	0.001057814
39	0xbc8959b0	-0.0167664
40	0xbd3b16dc	-0.045676097
41	0xbc218391	-0.009858028
42	0xbd27dcff	-0.040982243
43	0xbd93ceff	-0.07217216
44	0x3d15027e	0.03637933
45	0x3c9f2294	0.019425668
46	0x3c96df56	0.018417042
47	0xbc0df941	-0.008665384
48	0xbd09ed2d	-0.033673454
49	0x3c0e8125	0.008697783
50	0x3cd1ba40	0.025601506
51	0xbc6ecab2	-0.0145746935
52	0x3a98d638	0.0011660522
53	0xbcbe1ca7	-0.023207022
54	0x3c6fbb04	0.01463199
55	0xbd3652fd	-0.044512738
56	0xbcb5cdc9	-0.022192853
57	0x3c319afa	0.010840172
58	0xbbb9c9df	-0.005669817
59	0x3cf66984	0.03007961
60	0xbbcbd786	-0.0062207608
61	0x3c5205ff	0.012818812
62	0x3bfb119b	0.007662011
63	0xbb87250b	-0.004124289
64	0xbc487bfa	-0.01223659
65	0x3ced4229	0.028962212
66	0xbc2828c7	-0.010263628
67	0xbce0444a	-0.027376313
68	0x3d08a104	0.03335668
69	0x3d32bf63	0.04363955
70	0x3cccada1	0.024985136
71	0xbcc71cb5	-0.02430568
72	0xbc980dfa	-0.018561352
73	0xbd016c66	-0.031597517
74	0xbbf4887b	-0.007462559
75	0xbc9fa5a4	-0.019488163
76	0xbc975819	-0.018474625
77	0x3ac80e80	0.001526311
78	0x3e7690a5	0.24078615
79	0xbd16ce2d	-0.03681772
80	0x3b8a2dd2	0.004216888
81	0x3e5745cb	0.21022718
82	0xbcc481ed	-0.023987735
83	0xbc9ab6b0	-0.01888594
84	0x3cc8a945	0.024494777
85	0x3d6bf621	0.057607774
86	0x3ce9c025	0.028534004
87	0xbb96b8a2	-0.0045996467
88	0x3e7f5fdb	0.2493891
89	0x3b95992f	0.00456538
90	0x3be21acc	0.006900167
91	0x3bac9bd2	0.0052675987
92	0xbc8abb10	-0.016934901
93	0x38995784	7.3119096e-05
94	0xbcf197a8	-0.02949126
95	0xbc322b18	-0.010874532
96	0x3be059ab	0.0068466268
97	0xbd4ba296	-0.0497156
98	0xbc024e18	-0.007953189
99	0xbc93da76	-0.018048506
100	0x3c133d84	0.008986834
101	0x3d38ed5c	0.04514824
102	0x3af9a0fb	0.0019045168
103	0x3c03c67a	0.008042926
104	0x3e8c2e20	0.2737894
105	0xbd078c70	-0.033092916
106	0x3d0469f2	0.0323276
107	0xbccf67c5	-0.025318036
108	0x3d5527f5	0.05204006
109	0x3e5090e4	0.20367771
110	0x3d423d3e	0.047421686
111	0xba843906	-0.0010087795
112	0x3e63c7ba	0.22244158
113	0x3cea0375	0.028566102
114	0x3c385c13	0.011252421
115	0x3c1ef169	0.009701111
116	0x3e6b6819	0.22988929
117	0xbd6beb1f	-0.057597276
118	0xbc4056e1	-0.011739464
119	0x3b9ee1ec	0.0048487093
120	0xbb1d26be	-0.002397939
121	0xbcaf74be	-0.021417972
122	0xbb08d088	-0.0020876247
123	0x3ca9c8d0	0.020725638
124	0xbc65aba7	-0.014017976
125	0x3ccc58a0	0.024944603
126	0xbd1f6b18	-0.038920492
127	0xbcef7177	-0.029228909
128	0x3b967dd9	0.004592639
129	0xbcd35989	-0.02579953
130	0xbcff22ce	-0.031144526
131	0xbc9a5ae7	-0.018842174
132	0x3cf01e73	0.029311394
133	0x3cdd29ef	0.026997535
134	0xbd49baba	-0.049250342
135	0xbd37b40a	-0.044849433
136	0x3ca845e8	0.020541146
137	0x3cca9da2	0.024733368
138	0x3c46f67d	0.012143728
139	0x3e6e4efe	0.2327232
140	0xbce0ff59	-0.02746551
141	0x3c8eb44c	0.017419957
142	0x3d1144e6	0.035466097
143	0x3e45daab	0.19321696
144	0x3cb2afec	0.021812402
145	0x3d239bca	0.039943494
146	0x3cb664d2	0.022264872
147	0x3e3aebf6	0.18254074
148	0x3e567abb	0.20945255
149	0x3d172600	0.036901474
150	0x3c915274	0.017739512
151	0x3d03b8eb	0.032158773
152	0xbcb8fd42	-0.0225817
153	0xbc01a197	-0.007912061
154	0x3cfaee8a	0.030631322
155	0x3d186694	0.0372072
156	0x3bfb404d	0.0076675774
157	0x3baabc01	0.0052104
158	0x3c225a89	0.009909281
159	0x3e6731f1	0.22577645
160	0xbd40c44c	-0.047062203
161	0xbd029cb8	-0.03188774
162	0xbc6d03f0	-0.014466271
163	0xbbee94e8	-0.0072809346
164	0x3d0453c0	0.032306433
165	0x3b73a10d	0.0037174851
166	0x3c49fc67	0.012328244
167	0x3c468793	0.012117284
168	0x3afc15e6	0.00192326
169	0xbca4d0cd	-0.020119095
170	0xbb83c2bb	-0.0040210164
171	0x3d6d0db7	0.057874408
172	0x3e4654d2	0.19368294
173	0xbc8fefff	-0.017570494
174	0x3ca8207a	0.020523299
175	0x3d1f34f8	0.038868874
176	0xbb0ad5f4	-0.0021184655
177	0x3e5f8caf	0.2183101
178	0x3cff10ee	0.031136002
179	0xbcefb333	-0.029260254
180	0x3c3b05bf	0.011414944
181	0xbd0f1795	-0.0349346
182	0x3d54c886	0.051949047
183	0x3d3d241e	0.046177022
184	0x3c4c0068	0.012451269
185	0x3bd5e5bd	0.006527631
186	0xbcc0de21	-0.02354342
187	0x3ce1bbdf	0.027555404
188	0x3c34ba7a	0.011030788
189	0x3e5b685c	0.21426529
190	0x3cf9b31a	0.03048091
191	0xbcc277c1	-0.023738744
192	0x3cff7d93	0.031187808
193	0x3cb16771	0.02165577
194	0x3b966912	0.004590162
195	0x3d177075	0.03697248
196	0x3c2156e3	0.009847376
197	0x3cbe54ac	0.023233734
198	0x3cab7fc0	0.02093494
199	0xbca97214	-0.02068428
200	0xbc9d5a6a	-0.019208152
201	0x3b656f8d	0.0035009116
202	0xbc1896ee	-0.009313328
203	0xbcd43bb2	-0.025907371
204	0xbc65dd7f	-0.01402986
205	0x3d076b31	0.03306121
206	0x3bf45571	0.0074564745
207	0xbcb44614	-0.022006072
208	0xbc5473a4	-0.012967024
209	0xbca7641d	-0.02043348
210	0xbcdb198a	-0.026745576
211	0x3d1e181b	0.038597208
212	0x3bcd85a7	0.006272036
213	0x3bd69f98	0.006549787
214	0x399068c5	0.0002754388
215	0xbc341ba6	-0.01099292
216	0xbc2769ab	-0.010218064
217	0x3c14d4df	0.009083956
218	0x3c91d502	0.017801765
219	0x3c8ec0fa	0.017426003
220	0x3c801711	0.015635999
221	0xbcb059b1	-0.021527143
222	0xbd1de6cf	-0.038550194
223	0xbc6b3c30	-0.014357612
224	0xbba75634	-0.0051067118
225	0x3ba94793	0.005166003
226	0x3c823a2c	0.01589688
227	0x3e4a4e68	0.19756472
228	0x3cbfb3de	0.023401197
229	0x3e50f2bc	0.20405096
230	0xbc9b7d3a	-0.018980611
231	0xbc0e98b2	-0.008703398
232	0xbc37c6c6	-0.011216825
233	0x3e19e2ef	0.15027975
234	0xbd264146	-0.040589593
235	0xbc1a3f31	-0.00941448
236	0xbc856415	-0.016283074
237	0x3c77945d	0.015111056
238	0x3c82ba97	0.015958114
239	0x3ca30b52	0.019902859
240	0x3ac08f2b	0.0014691105
241	0xbc1b022a	-0.009460965
242	0xbb879600	-0.0041377544
243	0xbb1abcbb	-0.0023611027
244	0x3e892f81	0.26794055
245	0xbb842e50	-0.004033841
246	0x3bb2677c	0.005444465
247	0xbbe4deea	-0.0069845812
248	0xbcba0b6a	-0.02271052
249	0xbcd88c91	-0.026434215
250	0x3e7defd8	0.24798524
251	0x3ce74016	0.0282288
252	0x3c76b7cf	0.015058472
253	0x3c66f3ac	0.014096182
254	0xbc3b8a90	-0.01144661
255	0xbc4993d8	-0.012303315

network.4.bias f4 [18]
0	0x3e567d7c	0.20946306
1	0x3d19fd8c	0.037595317
2	0x3d0e3440	0.0347178
3	0x3d834818	0.06410235
4	0x3d3ebe7a	0.04656837
5	0x3d0ce4ed	0.03439801
6	0x3d4a1464	0.049335852
7	0x3d8bb4c7	0.0682159
8	0x3d558d0d	0.05213647
9	0xbc4a7867	-0.012357808
10	0x3dc10105	0.094240226
11	0xbc1499db	-0.009069885
12	0xba1e1eef	-0.0006031831
13	0xbc8239c0	-0.015896678
14	0xbb71d19f	-0.0036898626
15	0x3bcdb032	0.0062771076
16	0xbb0bc2a4	-0.0021325732
17	0xbc3d26f2	-0.01154493
