Training/Model/model_critic_robot_subset_joint1_102.pt (torch, 283199 bytes, 5 tensors)

network.0.weight f4 [256, 15]
00000000: c4aa e23f 64ed 3cbf a568 9abf 7c6a 29be
00000010: d771 2bbd 48df b4bf 4d0c 2840 bd7b c5bf
00000020: 3f91 a8c0 618c d83f 7883 d4bc 9e18 0cbd
00000030: 0398 acbd c271 afbc 85e0 3c3b cf89 aec0
00000040: a747 1c40 f67b d53f 69ee da3f 8bc4 243f
00000050: 2de8 cebe fd5c f1c0 5af2 17bf 23ec 3ec0
00000060: c4a6 cb3f 6d92 03bf 7fa2 02bf 13c4 1dbf
00000070: 19eb 0cbe 3eb1 c73e 550f 3240 af7d a5bd
00000080: b308 373f 8fd9 8c3d 9a50 debe 2fa9 af3e
00000090: 20bf b7bf 4ff5 30be 94fd d9bf f3bd 973f
000000a0: 060b bf3d 5b40 bf3e 13be 22bd 573a 003f
000000b0: 3034 403e 9d09 993f 4089 863f 1cf6 2c40
000000c0: b581 d83e 6451 863f 8f54 1abe 9e3b 65c1
000000d0: d1d4 903f c8c4 4dc0 a2c0 0040 3e4e efbb
000000e0: 515a 433e 2bcc 693e 98ca 583d 6c11 8bbc
000000f0: 95a8 fb40 ce0a 0fc0 6dc0 4b3f 481c 33bf
00000100: 6d74 a23e d41f 92bf 2e04 49c0 859d bcbf
00000110: 041d c0bf a379 e93f e7cf 07bf dbde 0b3f
00000120: cebd e73e 8f84 09be ca76 e8bc 033a d13e
00000130: e358 b23f db26 e33f 589a 8e3f 129b b1bf
00000140: a9bd ed3f 2935 96be 9a8b d0bf 21b8 2ac0
00000150: db4f 4dbe 969d 843d 4771 4abb 99ab bfbd
00000160: cd59 093d 711c 08bb 02ab 1a40 105a 8ebe
00000170: 964e 9c3f df35 e73f 5b43 92bf 5397 b3bf
00000180: d1a3 3bc0 7aee 20be 60a6 93bf 9bde da3f
00000190: 0e30 c83d c9b9 303c b587 bcbc de40 853b
000001a0: 1311 c13b 27ad ca40 152d 7f3f 7062 8d3f
000001b0: 5721 443d 6dd2 b63f 39cf f03f a9c7 0cc0
000001c0: aee6 bdbf 0778 70bf b014 f6bd 5150 f1bc
000001d0: e2b2 e93c 31e3 fdbc 472f cc3d 6342 493e
000001e0: 63d2 fc3f 3d59 be3f 26e4 5b40 eba2 2f3f
000001f0: 40c0 79bf 914f 0abf 5744 51bf 0ae7 6cbf
00000200: 875b 06bf 64f4 3e40 91a6 2ebe 1fa3 1abd
00000210: dc50 fabb 80ec 4cbe 74c5 713e 6568 3d3d
00000220: 2c0d f93e 4369 0d3e 0e3b 87bd db90 9d3d
00000230: 54d9 a83d ebd3 473f efe8 b4bd aa40 dabe
00000240: e113 163f 23be 813c 142a 5d3d 7838 193d
00000250: e4fd 163d d33c 893b 24e3 b640 c7d4 533f
00000260: 5d33 d13e 8be3 553f 3744 6c3f 130b 843f
00000270: 0e9e c5bd ca21 4740 b4c9 03c0 371e 0240
00000280: 9a7d 29bd a01f 6abc 619d 90bc dac7 223d
00000290: 3fa0 5f3c 1c75 71bf fa7e 06c0 60a0 0abf
000002a0: db4c b6bc f10e 043d 929b 583f 95e1 10c0
000002b0: 0a8d a6bd ad96 33c0 4202 ed3f 5ed8 d4be
000002c0: d0ac b0bd 19bb 1ebe ba00 1e3e 2617 dabd
000002d0: 02c0 c4bf 3c29 b93e 9f10 533e b411 9cbe
000002e0: 26d1 2c3e 4a7a 39be 2005 e9be 3c71 473e
000002f0: 9a69 83bf 95c1 ab3f 0420 87be 6b5a 49be
00000300: 4bed 243d f217 303e a2a4 8f3e 097f 2341
00000310: 1128 993e f9f0 2440 0e76 92be 513b 863e
00000320: 1307 2e3f 89ad 26c0 36b8 16c0 5986 dabe
00000330: 15cc 2d3e 66ee b93c 5b8e f73c b492 e33c
00000340: 4cd1 79bd cf0e 093d efa5 0a3f 6bde c33d
00000350: 6341 7c3e 585f c13a b496 2c3d 1e15 283e
00000360: 5d6f ddbe 82a3 22be 2fad a9be 4d2f 073f
00000370: 3468 b3bd fbd1 f23d 946d 64bd ae11 9b3d
00000380: 9c36 bb3d 1357 64be 6efd 123e 2fa0 be3e
00000390: 17da 9cbc b10c 103e e816 65be 0863 18be
000003a0: 702c 213e 8a1c b4be a71c 283e a2a5 d4bd
000003b0: 1c1d 113e 8efa a33d 135c 9d3d 991c c33d
000003c0: e2a6 a840 a013 fe3e 0fee 5e3f 8f0c 67bf
000003d0: e2d9 18bf 504c 203e aa49 74c0 0655 04bf
000003e0: 769e 57c0 756e 5d3f a571 363f a44f 7abe
000003f0: f8ee 0e3e 509a 9c3e a6de 003f 5abd 4cbf
1.7708364 -0.7379973 -1.2063185 -0.16544527 -0.041856613 -1.413064 2.6257508 -1.5428387
-5.26773 1.691784 -0.025941595 -0.034203164 -0.084274314 -0.021416549 0.0028820348 -5.4543223
2.4418733 1.6678455 1.7104007 0.643624 -0.4041151 -7.542601 -0.59354174 -2.9831626
1.5910268 -0.51395303 -0.510292 -0.6162731 -0.13761558 0.39002413 2.7821858 -0.08080613
0.7149765 0.068774335 -0.4342087 0.34308764 -1.4355202 -0.17281078 -1.7030511 1.1854843
0.093282744 0.37353787 -0.03973205 0.5008902 0.18769908 1.1956059 1.0510635 2.7025213
0.4228646 1.0493588 -0.15071319 -14.327055 1.1314946 -3.2151356 2.0117574 -0.0073030284
0.19077422 0.2283179 0.052927583 -0.01697608 7.864329 -2.2350345 0.79590493 -0.6996503
0.3172945 -1.1415963 -3.14088 -1.4735571 -1.5008855 1.8240246 -0.5305161 0.54636925
0.45261997 -0.13429473 -0.028376956 0.40864572 1.3933376 1.7746233 1.1140852 -1.3875449
1.8573505 -0.29337433 -1.6292603 -2.6674883 -0.20049994 0.0647537 -0.0030890272 -0.093589015
0.033532906 -0.0020768906 2.4166875 -0.27803087 1.2211483 1.8063315 -1.1426805 -1.4030555
-2.9318736 -0.15715972 -1.1535149 1.7099184 0.09774791 0.010786482 -0.023013929 0.0040665707
0.005891928 6.3336368 0.99678165 1.1045666 0.047883358 1.4282967 1.8813239 -2.1996863
-1.4836023 -0.9393315 -0.120156646 -0.029457243 0.02852768 -0.030992122 0.09969955 0.19654231
1.9751705 1.4870983 3.4358 0.6860797 -0.97558975 -0.5402766 -0.81744903 -0.9254004
-0.5248341 2.9836664 -0.17055728 -0.03775322 -0.0076390337 -0.20012093 0.23610479 0.046242137
0.48642862 0.13809685 -0.06603061 0.076936446 0.08244577 0.78057736 -0.08833491 -0.4262746
0.5862408 0.015837735 0.053995207 0.03740737 0.036863223 0.004188159 5.715227 0.8274655
0.408595 0.8355033 0.9229159 1.031588 -0.09649287 3.1114373 -2.059186 2.0330942
-0.04137955 -0.014289767 -0.01765317 0.039741375 0.0136490455 -0.9431932 -2.1015 -0.5415096
-0.022253444 0.03224081 0.8461238 -2.2637684 -0.0813237 -2.8060715 1.8516314 -0.41571325
-0.08626711 -0.1550106 0.15429965 -0.106489465 -1.5371096 0.36164272 0.20611809 -0.30482256
0.16876659 -0.18113056 -0.45511723 0.19476789 -1.0266602 1.3418452 -0.26391613 -0.19663398
0.040265363 0.17196634 0.28055292 10.218514 0.2991338 2.5772078 -0.28605694 0.2621713
0.67979544 -2.6043417 -2.3549933 -0.42680624 0.16972382 0.022696685 0.030219248 0.027779914
-0.060990617 0.03346139 0.54159445 0.09563907 0.24634318 0.0014753146 0.04213591 0.16414306
-0.43249026 -0.15882686 -0.3313994 0.5280655 -0.087601095 0.11856457 -0.055768564 0.075717315
0.09141275 -0.22298841 0.14354488 0.37231585 -0.019146962 0.14067341 -0.2237202 -0.14881527
0.15739608 -0.35178024 0.1641718 -0.103831545 0.1417126 0.08006774 0.076835774 0.09526939
5.2703714 0.49624348 0.87082 -0.9025354 -0.5970746 0.15654111 -3.816996 -0.51692235
-3.3690467 0.8649667 0.7126716 -0.24444443 0.13958347 0.3058648 0.50339735 -0.7997643

network.0.bias f4 [256]
00000000: 8734 53bf ad99 f6bf 329d abbf 7654 dabf
00000010: 270a fcbf 3109 5f3e 1fb3 b8bf 29af e93d
00000020: e4c9 d9bf 73ad afbe 7c73 e9be 5d26 ecbf
00000030: e48f 93bf 4e6b adbe 3eb5 15bf 8cbb 17bf
00000040: 9d37 0bc0 df1d f3bf 4cfc 15bf 1d45 a5bf
00000050: ea0a c6bf 2c36 17bf d769 f4be 3ffa 0dc0
00000060: 2095 41bf 2925 77bf f793 4c3d 6ef3 98bf
00000070: 00f7 c7be 2b01 89bf f35e 46bf b74f f5bf
00000080: 4743 38bf 914b 4bbf aac0 74bf cc56 32bf
00000090: 4b0c a9be cc3f 6abe 351e 08bc 5b89 663e
000000a0: 13f5 90bf 67d6 29bf 4578 1ac0 2b69 47bf
000000b0: 5268 2fbf 4629 abbf 1ce2 b4bf 2897 803e
000000c0: 948c 08bf b036 b6bf 076e bdbf 6d30 ebbf
000000d0: 36fd e7be 1d78 2bbf 6d2f ebbf 6846 02bf
000000e0: 0843 46bf f246 143f f49d 63bf 8f37 cbbe
000000f0: 1ec8 0dc0 e3c6 a9bf dacd 83bf 1064 893e
00000100: 867f 60bf d509 a1bf 4a89 0b3f 9f68 61bf
00000110: a34f 46be da7f bcbf a4f0 3ebf e73d 06c0
00000120: a503 49bf 19ef e5be 27ea 26bf bd8c dfbe
00000130: fe20 45bf 77ee ebbe 8bdf e1bf 68c5 c03e
00000140: 4a21 98be dc6d 37bf 662d 6cbf 84f0 a7be
00000150: 15d4 e9bf 31c8 d0be 599e 8b3e f23e 42bf
00000160: e197 883e 1549 303f 042a 6ebf f0bd 043f
00000170: 42fa 1fbf e204 a5bf 36c5 e3bf 3bd2 85bf
00000180: 1101 38bf 72a3 59be a2db 42bf 89e7 67bf
00000190: 48c1 403f f244 20bf 117d b6be f7eb 82bf
000001a0: d60c 0cbe 366b 1ebf cccf 11c0 86af 0abf
000001b0: d1f7 9fbf 8f29 473d eac3 13c0 5efc 70bf
000001c0: c169 42bf 3b14 e2bf 2148 5fbf af99 4dbf
000001d0: 2c8d 36bf 798f 87bf d5b2 04bf 1458 08bf
000001e0: f23b b2bf e892 a2bf e1f8 c5bf a829 61be
000001f0: 49ea 55bf d715 a0bf 6e89 97be d0e9 f5be
00000200: c755 273e b650 6ebf bd51 41bf c0f5 04bf
00000210: 0cc4 17bf 6b96 d4bf 1bdd 04bf 067c 4fbf
00000220: d7f4 92bf 9245 f6bf ef87 54bf 0d54 99bf
00000230: e5f4 d2be 2d9b 38bf 144f 41be 92a9 e4be
00000240: 4bf3 08bf 439e 54bf fbf4 42bf 669c 273e
00000250: 44ea 123f 1694 cebf 086a bbbf 59e1 5cbe
00000260: 11ed 42bf d42e 25bf 12a8 85bf a9c6 b9bf
00000270: 0bde d0bf 012e b43d 6661 f6bf 5dcf 5dbf
00000280: b412 81bf 8640 61bf 3f9f b3be 29cf 6e3f
00000290: f579 05c0 c89c 92bf dd7f 4abf 2a15 b2bf
000002a0: f521 6b3e 7640 f7bf d1f4 3ebf 939a dfbe
000002b0: 41ce 63be 4e3d 17c0 06e8 e8bf 5b3d 1ac0
000002c0: 955e ca3e eba4 1cbf 8543 adbf 8a9d 66bf
000002d0: ca81 26bf 706d f1bf 5bd6 fdbf 0322 8ebf
000002e0: deb7 87bf e28a d4bf 77f8 cdbf 22c3 15bf
000002f0: a316 dabe 489c a7bf 9493 17bf 4075 cdbf
00000300: ed9e 67be a126 63bf 40d5 0bbf 362e 29bf
00000310: a15a 81bf d10d 5dbf 7d7a 86bf bd04 09bf
00000320: be94 5bbf 0f97 10bf 40d7 50bf 95d4 45be
00000330: ee98 8dbf 77ff 3fbe f253 b3bf 7c5b 3dbf
00000340: 652d c1bf f1d3 94bf 0297 9cbe 373e 46bf
00000350: 1744 1bbf 1373 073d 4ece 04bf d5a0 cbbf
00000360: ac75 7fbf 0820 3e3e 2b31 a6be c590 37bf
00000370: 2eb5 aebf eb7b 28bf c7a2 82bf 72e4 acbf
00000380: a4db 80bf 2f52 2bbf aac4 f1be 95e8 f3be
00000390: aea8 a3bf 042e 0cbf 9962 a8be 7579 17bf
000003a0: a25f 22bf fc44 47bf 8e91 a5bf 32f0 d3be
000003b0: 7af6 943f d5ef 94be 2a9f 79bf 376b 1abf
000003c0: 47ed 83be c316 f9bf 33e4 99bf 6a3a 05bf
000003d0: 8bc3 63bf 5afa 44bf d447 8abf 316a d2be
000003e0: e975 15bf bdbe 46bf 9b57 3fbf 61d1 d1be
000003f0: 21d9 1ebf 8a1c e8be 6b71 3fbf e930 a4bf
-0.82502025 -1.9265648 -1.3407347 -1.7057025 -1.9690598 0.2178085 -1.4429663 0.11410362
-1.7014737 -0.3431202 -0.4559592 -1.8449208 -1.1528287 -0.3387093 -0.5847968 -0.5927055
-2.1752694 -1.8993491 -0.585881 -1.2911717 -1.5472081 -0.59067035 -0.47737 -2.2183988
-0.7561817 -0.96541077 0.049945798 -1.1949289 -0.39055634 -1.0703481 -0.7748863 -1.9164952
-0.7197766 -0.7941218 -0.9560648 -0.6966369 -0.3301719 -0.22875899 -0.008307983 0.22513334
-1.1324791 -0.66342777 -2.4135907 -0.7789485 -0.68518555 -1.3371971 -1.4131503 0.25115323
-0.53339505 -1.4235439 -1.4799203 -1.8374153 -0.45310372 -0.66980153 -1.8373848 -0.5088868
-0.7744603 0.57920754 -0.8891289 -0.39690825 -2.2153392 -1.326382 -1.0297196 0.26834154
-0.87694585 -1.2581125 0.5450636 -0.88050264 -0.19366316 -1.4726517 -0.7458594 -2.0975282
-0.78521186 -0.4490898 -0.6520104 -0.43662062 -0.7700347 -0.46080372 -1.7646345 0.3765061
-0.29712898 -0.7165201 -0.9225677 -0.32800686 -1.8267847 -0.40777734 0.27269247 -0.75877297
0.26678374 0.68861514 -0.9303286 0.5185232 -0.6249124 -1.2892115 -1.7794559 -1.0454782
-0.7187663 -0.21253756 -0.76116383 -0.9058767 0.75294924 -0.626052 -0.35642293 -1.0228261
-0.13676772 -0.6188234 -2.278308 -0.5417408 -1.2497503 0.048623618 -2.3088326 -0.9413508
-0.7594262 -1.7662424 -0.87219435 -0.8031263 -0.7130916 -1.0590659 -0.51835376 -0.53259397
-1.3924544 -1.2701082 -1.5466577 -0.21988547 -0.83560616 -1.2506665 -0.29597038 -0.48029947
0.16341315 -0.93091905 -0.7551535 -0.51937485 -0.5928352 -1.6608404 -0.5189988 -0.8104862
-1.1480969 -1.9239981 -0.8301992 -1.1978775 -0.41202465 -0.7211178 -0.18877822 -0.44660622
-0.53496236 -0.8305399 -0.7615506 0.16368255 0.5738871 -1.6138942 -1.4641733 -0.21570338
-0.76142985 -0.6452458 -1.0441916 -1.4513751 -1.6317762 0.08797837 -1.9248474 -0.86644536
-1.0083833 -0.8798908 -0.35082433 0.9328485 -2.0855687 -1.1454096 -0.79101354 -1.3912709
0.22962172 -1.9316547 -0.7459231 -0.43672618 -0.22246648 -2.3631167 -1.8195808 -2.4099948
0.39525285 -0.61189145 -1.353623 -0.90084136 -0.6504179 -1.8861523 -1.9831041 -1.110413
-1.0602987 -1.6604884 -1.609145 -0.58500874 -0.42595395 -1.3094568 -0.5920956 -1.6051407
-0.22619219 -0.8873082 -0.5462227 -0.6608614 -1.0105783 -0.8634921 -1.050613 -0.53522855
-0.8577384 -0.564805 -0.81578445 -0.19319375 -1.1062295 -0.18749796 -1.4009993 -0.7396772
-1.5091978 -1.1627179 -0.3058396 -0.7743868 -0.6065077 0.033068728 -0.51877296 -1.5908457
-0.9978893 0.18566906 -0.32459387 -0.71705276 -1.3649042 -0.65814084 -1.0205926 -1.3507216
-1.0067029 -0.6692228 -0.47220355 -0.47638384 -1.2785852 -0.54757714 -0.32887724 -0.59169704
-0.63427174 -0.77839637 -1.2935045 -0.41394192 1.1637719 -0.29089227 -0.9750849 -0.60319847
-0.25766966 -1.9460071 -1.2022766 -0.5204226 -0.8897025 -0.76944506 -1.080317 -0.41096643
-0.5838304 -0.77634794 -0.7474305 -0.40980056 -0.6205006 -0.45334274 -0.7478244 -1.2827426

network.2.weight f4 [256, 256]
00000000: 9509 f13e fbf5 823f bbaa 71be 689b 183e
00000010: f119 1fbe a3bd b23e 49e4 e9bf 8441 e13d
00000020: c39e 923e c3c3 693d e529 04c0 7997 9cbe
00000030: b0e0 21bf 8f82 043f 2af7 e5be 8418 5f3e
00000040: 2eac e8be 835d b13f ac5e b3bd 30eb 9cbf
00000050: d976 c8bd 24da d9be 3ea6 953d 480e d5be
00000060: ca33 54bd 48ba a43e 31ca 973f 0bbf b93f
00000070: 68a2 233e 3bc8 4bbf 65b5 13be 33d6 48be
00000080: 7ae3 c73c 869f 9c3f ed41 a0bc f7f5 04bf
00000090: 361e d7bd a1c4 653d 30a0 57bf 96f7 a6bf
000000a0: e2e0 d63e 23b8 3d3e a5fc ce3f 46fc b9be
000000b0: 9852 2f3e dd4c a9bc 64b9 093f 7160 fdbc
000000c0: f3be 01be c93f 8abf 3f9c 10bf db8a 113f
000000d0: a044 5fbd 4ec0 acbf b28e 89bd 625d c53d
000000e0: 035f 3a3f 39a5 8b3e 3b0b b1be ea6d eebe
000000f0: 8997 d13e 4968 043f e058 c2bf 5abb 583d
00000100: 8036 d23e 20a8 aa3d 8b1d 1dbf 4e1f d43e
00000110: b15c 0f3f f709 47bf e8c2 b53f 45fb d13f
00000120: b6a5 193e 5ca6 e23e b3db c83d ab09 6fbd
00000130: 53d2 4c3d cf4e 7ebe 8ece 213f 4d54 d53e
00000140: abe6 393f 5ef3 84bb b33d 50bf 3e08 183e
00000150: 3f83 163f 2154 67bf 3283 f4bf 21a6 3abe
00000160: fad0 e33e 6312 95be 59ba 81bf c4a2 8dc0
00000170: ef36 a0be 262a 84bf 0327 38bf e35e a3bf
00000180: b17f 293f f982 4a3f 3797 85be cff1 703d
00000190: 53cb 543f 105b 363f 42c8 55bf e15f 83bf
000001a0: 0cee b63e 3f67 55be 496a 64bf f71a d9be
000001b0: 6778 f0be b712 703d c21f b1bf 751b 02bf
000001c0: 018e d2be c044 173d b14c 12bf c4a0 3a3f
000001d0: 39be dabf 6d86 15bf 5640 c43d 5a3c 86c0
000001e0: ae71 953f 60cb 9f3d 794e 82be 5df6 90bf
000001f0: 682e 8fbe 7d44 2ebf 1d28 41be 9f4a 6fbf
00000200: 361e d0bf c37d 44bf f4f8 8fbe 560c ed3d
00000210: 7b01 ecbe ae76 6f3f 38df abbf f34a 09be
00000220: cdeb 8e3e 8371 eebf 0c02 55be fb9d ef3f
00000230: 162f 693e ddb4 a7be 3d75 39bf 075e 233e
00000240: 1bd6 e53a 0fb9 fa3d db35 debe 26ad 05c0
00000250: 2e37 273f 5dc4 073f 8b1d 69bd b006 a43d
00000260: 2674 8fbf 184f 9dbd d41c 04c0 4a01 48be
00000270: d36d 40bf 4d17 0b3f cbf2 6bbe ddab d8be
00000280: 4582 9c3f 725f 553f 7f19 f9bd 5537 2d3f
00000290: 63a2 d83f 2a37 0bbf 8c99 6f3d cdc6 35bd
000002a0: 9be2 5fbf 6d72 8f3f a167 a3bd 23a4 a0be
000002b0: 8af4 d4be 0358 85be 7073 f63f dcf7 01bf
000002c0: 97c8 4cbf 7f78 8cbe b721 023f 002d 813f
000002d0: 62b9 943e 000d ac3e a517 bc3f 887a 863f
000002e0: 2be8 2dbf 2984 c1bf 0554 743f 8259 1c3e
000002f0: 53e9 5fbf 084c 95bf e993 dd3c e6c8 173e
00000300: 8284 2ebe bbac e4be 8779 683d 725f 38bf
00000310: 5722 923c 06ed 08bf 1627 0abf 5512 4dbd
00000320: 043f d9bf 3a34 4fbe ae73 06bc 0dd5 bf3e
00000330: dab2 dabe 65fb 6bbb 586f 84bd 8660 b3bf
00000340: 8bdd a13f 8524 d1be 1652 3bc0 3515 b6be
00000350: 3f89 8dbf 2343 84bd 22e0 243f 59b3 42be
00000360: ce09 0d3e 2846 9bbe cb94 23be 1ecf f33d
00000370: 13c0 9ebf b9c6 c6bf 91a8 a23f b6d6 43bf
00000380: 2fce f73e fb99 c0be 4f4c 74bd ffca 01be
00000390: 1523 95bc 6dea 13bf 085d 233c 1b8a e4be
000003a0: 9b2c e3bf 67a1 423f 2c42 2cbf 5fe8 36be
000003b0: 1800 26bf 1c5c 1a40 0e60 343d 4121 89be
000003c0: 1d4d 6d3f 2375 aebe 6894 9bbf cc72 bbbc
000003d0: 9c85 8b3e 700c cebc 03ed e3be 0d16 92bf
000003e0: f054 15bf c916 f13d 97f5 453d 7436 37be
000003f0: 51b2 4ebe 602e 8c3d 23b6 3cbf c1b5 12bf
0.47077623 1.0231317 -0.23600285 0.14903033 -0.1553724 0.34910306 -1.8272792 0.10998824
0.2863675 0.05707146 -2.065057 -0.30584314 -0.6323347 0.51761717 -0.44915134 0.21786696
-0.45443863 1.3856663 -0.087582916 -1.2259274 -0.097882934 -0.4254924 0.07307099 -0.41612458
-0.051807202 0.3217337 1.1858579 1.4511427 0.15979922 -0.796024 -0.14424665 -0.1961296
0.024400461 1.2236183 -0.019562686 -0.5193781 -0.10503809 0.056095723 -0.842288 -1.3044307
0.41968447 0.18527274 1.6170851 -0.36325282 0.17121351 -0.020666534 0.5379851 -0.030929776
-0.12670498 -1.0800716 -0.5648841 0.568525 -0.054508805 -1.3496187 -0.0671667 0.09636952
0.72801226 0.27274492 -0.3457888 -0.46568233 0.40935925 0.51721627 -1.5183372 0.052913047
0.41057205 0.083328485 -0.61373204 0.41430134 0.5600081 -0.7774958 1.4200106 1.6404806
0.1500462 0.44267547 0.09807529 -0.05835883 0.05000527 -0.2483475 0.632058 0.4166588
0.72617596 -0.004057332 -0.81344146 0.14846894 0.58794016 -0.90362746 -1.9102538 -0.18227436
0.44495374 -0.2911559 -1.0134994 -4.426119 -0.3129191 -1.0325363 -0.7193453 -1.2763332
0.66210467 0.791061 -0.2609193 0.058824357 0.8312275 0.712327 -0.83508694 -1.0263635
0.3572849 -0.20840167 -0.8922468 -0.42403385 -0.4696686 0.058611598 -1.3837817 -0.50823146
-0.41123965 0.0369308 -0.5714827 0.7290156 -1.7089301 -0.5840824 0.095825836 -4.194867
1.1675317 0.078024626 -0.25450495 -1.1325184 -0.27965093 -0.68073255 -0.18862958 -0.9347324
-1.625922 -0.767544 -0.28119624 0.115746185 -0.4609488 0.93540466 -1.3427496 -0.13407497
0.27914277 -1.8628391 -0.20801562 1.8720087 0.22771868 -0.32755175 -0.72444516 0.15953837
0.0017535122 0.122423284 -0.43400463 -2.0886931 0.6531857 0.53034 -0.05691294 0.08009088
-1.1207321 -0.076811016 -2.0642595 -0.19531742 -0.7516758 0.5433243 -0.23041837 -0.4231862
1.2227255 0.83348763 -0.12163066 0.67662555 1.6924556 -0.5438105 0.058496043 -0.044379044
-0.8745515 1.1206795 -0.0797875 -0.31375226 -0.41592818 -0.2604371 1.9253979 -0.5076883
-0.79993576 -0.2743568 0.50832695 1.0091858 0.29047686 0.33603668 1.4694716 1.0506144
-0.67932385 -1.5118457 0.95440704 0.1526852 -0.874654 -1.1663828 0.027048068 0.1482273
-0.17042735 -0.44663033 0.056756523 -0.7202064 0.01783864 -0.5348667 -0.5396589 -0.05006631
-1.6972356 -0.20234767 -0.008206291 0.37467232 -0.42714578 -0.0036007997 -0.0646655 -1.4013832
1.2645735 -0.40848175 -2.9268851 -0.35563055 -1.1057509 -0.06458118 0.644045 -0.19013728
0.13773271 -0.30326962 -0.15974729 0.11904739 -1.2402366 -1.5529395 1.2707692 -0.764995
0.48399493 -0.37617478 -0.059643086 -0.12675093 -0.018205205 -0.5777958 0.009970911 -0.44636616
-1.7747988 0.7602753 -0.6728847 -0.1786208 -0.64843893 2.411872 0.044036917 -0.26783183
0.9269579 -0.34073743 -1.2154665 -0.022881888 0.27250373 -0.025152415 -0.44516763 -1.1412979
-0.5833273 0.11771924 0.048329916 -0.17891866 -0.2018521 0.06844783 -0.7371542 -0.57308584

network.2.bias f4 [256]
00000000: 8948 933f af67 5dbe 5e2c b9bd 4def 883f
00000010: 7e83 fabe a1db 19bb cb97 ecbd 03aa 25be
00000020: f688 bbbd b2b3 d0bc 2487 3cbf 4723 3bbd
00000030: 3155 6e3d 9516 45be 7b03 d3be 7a63 67bd
00000040: 1f00 69ba 938d cabc b5f8 c4bd bee2 5ebd
00000050: efd8 e8bd 3f28 263f 10d5 69bf 5335 a3bd
00000060: 5da4 b2bc db86 54be 795c b0bd 7ce5 a2bd
00000070: 122d 4dbd 8324 a5be a7d4 e2b9 4638 a13f
00000080: 6e1f d1be 407c 30bd 4c53 0f3e 9465 2f3b
00000090: 3f1c 8bbd 57f7 393f 21f0 9fbd 24e9 b5bd
000000a0: 8148 cdbd b7fe 3bbd 2aff 85bd f0e9 8fbe
000000b0: 42ee 64bc 9a2e d93e 6e0b edbd 9973 60bd
000000c0: f991 53be 5f68 b7bc a35c 00bf c4f6 36bd
000000d0: d613 b9bc 643b 0dbc c648 22bd eeb5 b6be
000000e0: 03ff 5dbe 4463 debc 881d 8c3e acef 8abd
000000f0: 3198 9dbd f413 15bf 3db8 a9be 0e27 fcbc
00000100: bae8 14bd f3cf 98bd 1b8c afbe 2703 81bc
00000110: a3f3 2cbe c55f e0be 0b90 14bc 6d61 8ebe
00000120: 794e e0bd cf94 ae3e ec82 81be 7ba2 d0be
00000130: ded5 38be fd67 0ebd b48b 473f 31a8 8e3d
00000140: db11 e8bd 5bed 4ebd 450a 4fbd f451 c2bc
00000150: 15c9 74bd 28f1 05bf 0e99 30bd 9ec4 5abe
00000160: db0c e1be f18e 293f 1675 183f ed10 37bc
00000170: 9c74 33bc 5262 84be 0e06 f4bd 0505 74bc
00000180: fd3c d2be a349 b9be b078 a2bf 03aa 6d3c
00000190: 0b6b b9bd 8b74 cebd ed2e aabd ccaf 22be
000001a0: a50c 86be 63f8 26bd d416 fdbd cb95 0f3f
000001b0: b713 47bf 2018 7fbd a282 0d3f 73f8 0e3f
000001c0: 58a8 8dbd ac06 8fbb 1208 323e 09df 93bd
000001d0: 5512 fabe d7af 9cbd e575 5abd 0c78 a4bd
000001e0: cf4c a8be 6212 723f fa35 6a3f 9705 9bbd
000001f0: d12b 02bd 5789 a8bd c032 d8be 72c9 9bbd
00000200: bc2f 193f 1637 88bc 5dc6 333e cb73 ddbc
00000210: eb6a 76be 8f5a 373f fb8e b0bd db87 57bf
00000220: 6406 89be 6a01 02bf b295 0c3f 4537 8cbd
00000230: 8e6a b6bd fe64 a5bd 09a6 a4be b09d 4cbd
00000240: e874 463f 7214 8abb 291c 71bd 6c1b f4bc
00000250: 21be 25bd 5436 97bc 9e23 b5be dce2 cbbd
00000260: dedb e1bd 08d5 a2be 3082 9c3f 228c f8bc
00000270: 081a 13bf 8051 d7bd 05db ddbd faf7 74bd
00000280: 0408 2fbd ca3a 9b3e 9535 a9bd 8ecb a4be
00000290: 0379 19bd e64c d6be 5c8d 99bc c941 82be
000002a0: 9182 b9be 0825 093f 4d25 843e b1fd 3dbd
000002b0: 231e b4bd ad27 a63e 6285 f1bd c56a d6bc
000002c0: eac4 e83e dff4 3b3f b946 2fbd a1b6 c8bd
000002d0: 1f2a e4bd f825 b2bd 7250 b93d 9e8e 02bf
000002e0: fa7e 4bbe 76ba 8abd 3823 dcbd b4df 663e
000002f0: 6c5d aabe 9187 90bd 5185 35bd 5185 84ba
00000300: eb6c f2bd 4e59 d1bd 2f2e e7bd fb59 d4bd
00000310: 494c 81bf dd44 e9bd f376 84bd 50c2 21bd
00000320: ad03 0abc d585 e0bc 0af8 bbbc 0717 0abd
00000330: 613b 8fbd b427 cb3d 9467 2ebd 1341 aabd
00000340: c7bd 5ebe d9fb 37bd 3eb0 653c 0101 99bd
00000350: aa03 cfbd 0873 f5bd ae09 923b 8254 01bf
00000360: 67bc 47be 9323 c43e 0601 80bf 51f1 0ebb
00000370: 58cf 17bd aac0 903d 4bb6 9abd 0f30 99bc
00000380: b1eb edbd e3c2 0cbf 2b58 d03e 0f28 c6bd
00000390: 542b 65bd 4865 8bbc bc4c 41bf 763e 41bf
000003a0: dedd 3dbd 2943 adbd 2a01 d3bd 73c6 b1bd
000003b0: 1345 41be 1c1a 31bf 0c05 0dba 0409 a5bf
000003c0: 67d8 50be ee41 40bf acd3 1cbd 5be7 abbd
000003d0: a50f 983e 63e4 f7bd 777d e2bd 7303 e7be
000003e0: 6406 b4bd 3b11 4e3e 8c6d 87be 9b77 5dbd
000003f0: 8c66 fcbd 7c5f bdbd 160d 963c 7932 89bd
1.1506511 -0.21621583 -0.090416655 1.0698029 -0.48928446 -0.0023476856 -0.1155239 -0.16178136
-0.091569826 -0.02547631 -0.7364371 -0.04568794 0.058186714 -0.19246896 -0.41213593 -0.056491353
-0.00088882627 -0.024725711 -0.096177496 -0.054415457 -0.11369502 0.6490516 -0.9134073 -0.07969155
-0.02180689 -0.20754568 -0.08611388 -0.07953927 -0.05009181 -0.3225442 -0.00043264517 1.2595298
-0.4084429 -0.043087244 0.13996619 0.0026763426 -0.06792497 0.72643036 -0.07809473 -0.08882359
-0.10023595 -0.045897212 -0.06542809 -0.28108168 -0.013972821 0.42418367 -0.11574446 -0.054797743
-0.20661153 -0.022388635 -0.5014135 -0.044668928 -0.022592466 -0.008620117 -0.039620183 -0.35685676
-0.2167931 -0.027146943 0.2736628 -0.06783995 -0.07695044 -0.5823357 -0.33148375 -0.030780341
-0.036354758 -0.07461538 -0.3428658 -0.015748573 -0.16889815 -0.43823066 -0.009067546 -0.27808705
-0.109524675 0.34097907 -0.25295198 -0.40748963 -0.18050334 -0.03476714 0.77947545 0.06965674
-0.11331531 -0.05051933 -0.050546903 -0.023720719 -0.05976208 -0.523211 -0.043114714 -0.21364066
-0.4395512 0.66233736 0.5955366 -0.011173469 -0.010953095 -0.25856262 -0.11915217 -0.014893775
-0.41062155 -0.36188993 -1.2693081 0.014505866 -0.0905362 -0.100808226 -0.08309732 -0.15887374
-0.26181522 -0.040764224 -0.1235787 0.5608794 -0.7776446 -0.062278867 0.55277455 0.55847853
-0.06916875 -0.004364809 0.17385891 -0.07220275 -0.4884211 -0.07650726 -0.05333509 -0.080307096
-0.328711 0.945593 0.9148861 -0.075694256 -0.031780068 -0.082293205 -0.4222622 -0.07606782
0.5983846 -0.01662783 0.17556138 -0.027032753 -0.24064223 0.71622556 -0.08621021 -0.84191674
-0.26762688 -0.5078341 0.54915917 -0.06846479 -0.089070424 -0.08075903 -0.32157925 -0.04995507
0.77522135 -0.004213863 -0.058864746 -0.029798232 -0.040464524 -0.018458523 -0.35378736 -0.09955379
-0.110282645 -0.31803155 1.222723 -0.030340258 -0.57461596 -0.10513592 -0.1083279 -0.0598068
-0.042732254 0.3031829 -0.08262173 -0.3218655 -0.03746892 -0.41855544 -0.018744163 -0.25440815
-0.36232427 0.5357213 0.25809708 -0.046384517 -0.087948106 0.32452145 -0.11793019 -0.026173959
0.45462734 0.7342052 -0.042792056 -0.09800459 -0.111408465 -0.08698648 0.09048547 -0.50998867
-0.19872656 -0.06773846 -0.10748905 0.22546273 -0.332744 -0.07057107 -0.044316594 -0.0010110532
-0.11837181 -0.10222112 -0.11288106 -0.10368725 -1.0101405 -0.11390088 -0.06468 -0.03949195
-0.008423728 -0.027407566 -0.022945423 -0.033713367 -0.069937475 0.09919682 -0.04257925 -0.08313193
-0.21752082 -0.044917915 0.01401907 -0.074708946 -0.10108121 -0.11984831 0.0044567203 -0.50519574
-0.19505464 0.3830839 -1.0000312 -0.0021811316 -0.037062973 0.07067998 -0.07554301 -0.018699674
-0.1161722 -0.54984874 0.40692267 -0.09675609 -0.055949524 -0.017016068 -0.7550771 -0.7548593
-0.046354167 -0.084600754 -0.103029564 -0.08680429 -0.18874006 -0.69180465 -0.0005379475 -1.2893376
-0.20395051 -0.751006 -0.038287804 -0.08393737 0.29699436 -0.12104108 -0.11059087 -0.4511982
-0.087902814 0.2012376 -0.26450765 -0.054069143 -0.12324247 -0.09246728 0.018316787 -0.0669908

network.4.weight f4 [1, 256]
00000000: d185 ebbe 5ab7 0a3d 3845 2d3b d6b9 86be
00000010: 369d bebd 7f52 de3c ae77 753d 8663 3b3c
00000020: c761 283d 7fe1 193d b625 ac3d 5f07 603d
00000030: f68c c93d 2d67 263f 74bf 9abe fd57 383d
00000040: b998 463c 0213 f73c 4644 bd3c 14d2 0e3d
00000050: 4b27 723d 073c 90be 28cc a5be 0811 f23a
00000060: ee77 e13f c5cd 0a3e 5c55 6a3d 565c 383b
00000070: 0523 493d 350f 6ebd f198 4d3d 7919 73be
00000080: 2547 6f3c ce0a 8f3c cc3d e4be b534 0a3c
00000090: f627 a23c a31c 3dbe 4dfc 0d3d 959e c83c
000000a0: 7e22 6a3c 5611 343d 10e5 103c 9f69 1d3e
000000b0: b0dd f83c c41d a13e c0ff 4c3d 860c ce3a
000000c0: 619c babe 142e df3c 142e a53d bf3b 383d
000000d0: 5d0f 31ba b9ce 7e3c 6d57 623d 7262 cc3a
000000e0: 8906 2f3c 149c b1ba c4e7 1f3e 0c94 f43c
000000f0: 6a93 cb3c 654b 87be 5210 393d d288 fc3c
00000100: ea1e 093c 0fcd f03b 297d 083e cf18 573c
00000110: 8216 ef3d 096d cd3e 8f2a 583d 46a8 a6bd
00000120: a110 62bc 3710 ae3e eb40 ecbd 391a 77bd
00000130: b2e8 74bf da4b 633e e932 b8be e818 03bf
00000140: 7e05 fa3b 6732 343d 9155 0c3d 85b9 2b3b
00000150: 5313 e9bc 6726 edbe 202f 043d 3698 42bd
00000160: ff63 873e 6500 9dbe 8384 383e cd8c 99bc
00000170: c62c 723c 1864 b23d a898 133c a128 3bbc
00000180: f126 56be 7d03 393d 8888 4d3f 4658 023d
00000190: 092a a83b 2812 003c 89f4 bb3c 97f6 20bc
000001a0: f52c 1e3c 5a3b 733d 4a12 7cbd 3cfa bfbe
000001b0: 75fb 0a3f 2516 9e3c aca3 5dbe 52fa 3ebe
000001c0: 48a0 3c3d fb1b f53c 2bc7 483e 7e2f 313d
000001d0: 49ef 4fbd 0624 513d 0ab0 9cba 74ec 693d
000001e0: 4d85 66bd c505 f93d 8a72 b43e d94c 093d
000001f0: 7c06 593c b352 3b3d b46c d93e b395 523d
00000200: a808 abbe dd9f 493c d324 90be e7d4 4a3d
00000210: 9cac c23c 3d42 3bbf 4ebf 703d d9d7 bdbe
00000220: cebc 24be 7ef2 7f3e d9a2 b53e 5463 6a3d
00000230: bf4e 9f3c 84b0 373d a9e8 083d 9ef4 5c3b
00000240: fe98 f43d 0085 363d 84ec 92bc 9b3c 9e3c
00000250: cf1e 44bc fb27 a1bc 7560 ba3c a775 003d
00000260: 51a1 a03c b132 87bd a09f bbbe 9e72 713d
00000270: 3db6 413e 63b4 353d 45d0 b23b 04e8 7abc
00000280: 33f4 753d 4307 783e 5546 25bd c176 c7bc
00000290: 3916 243d 03ae 2e3e c407 a33b 58bd e2bd
000002a0: 200c c23d f6f9 02bf cb6f 9cbe 36e5 0a3c
000002b0: d09f 6a3d 4828 dfbe 6dda f43d bfc1 3bbc
000002c0: 774a 803e a33f d03e 30d5 293b 984c 663d
000002d0: 8334 853c 78cd a63b d6c6 7e3f 3197 37be
000002e0: 130b dbbb bfdd 2a3d 3fcf 133c 5be3 c1be
000002f0: cf01 cc3d c9a1 5e3d ae8c c23c 9171 6e3d
00000300: 676b 363d 60f0 553d b863 733d 69af 4f3d
00000310: 913f 59be a351 da3c 5b17 203d f65d 783c
00000320: 1702 72bd 1f91 c63b 47d8 293d 153c 70ba
00000330: 27ad cd3c abad 463f 8343 653d be2c fb3c
00000340: 928c 10bd c102 f33c 8329 87bd 5fe6 52bd
00000350: b7be 303c 7e0b e43c 7bf3 203a 4f15 8ebe
00000360: 6dc5 3ebc ae3c 70be be3a 3f3f 97fc 9b3c
00000370: 4add 193c d722 82be aefb 33bd c3ed e63c
00000380: 83fe 113c d6b7 033c 2659 96be 67e8 123b
00000390: 55f5 253d 2b17 8ebb 723b 36be 1e5b 903e
000003a0: 4f72 0f3d b16a 513d a014 f33b 6c59 bcbc
000003b0: 3ec4 62bd 4bce 983d 835d 3e3d 5756 89be
000003c0: 1d41 1e3f fb82 213c abe9 c63a 0390 6e3c
000003d0: 4093 973e 2fb9 c63c 6c5b 4f3d 07a4 68bc
000003e0: 3d63 973c 3664 23be 2867 bc3c ab74 06bb
000003f0: b696 a4be 051a ca3c 57b5 1f3e afa7 3339
-0.4600053 0.033866264 0.0026438963 -0.26313657 -0.09307329 0.027138947 0.05992859 0.011437302
0.041108873 0.037568565 0.0840563 0.05469453 0.09841339 0.65001184 -0.30224192 0.045005787
0.012121373 0.03016043 0.023103844 0.034868315 0.059119504 -0.28170797 -0.3238232 0.001846821
1.7614725 0.13555057 0.05721031 0.0028131208 0.049105663 -0.05811997 0.050194684 -0.23740186
0.0146043645 0.017461207 -0.44578397 0.008435418 0.019794445 -0.18467955 0.03466444 0.02448968
0.01429045 0.043961845 0.008843675 0.15372322 0.030379146 0.31468022 0.05004859 0.0015720285
-0.36447433 0.027243651 0.08065429 0.044978853 -0.00067543035 0.015552216 0.055259157 0.0015593304
0.01068271 -0.0013550543 0.15615755 0.02985575 0.024850566 -0.2642471 0.04518158 0.03082696
0.008369187 0.0073486636 0.13328995 0.013128473 0.11674215 0.4012225 0.052774962 -0.08137564
-0.01379791 0.33996746 -0.115358196 -0.060327742 -0.95667565 0.22196904 -0.3597634 -0.5120988
0.0076300493 0.04399338 0.03426129 0.0026203108 -0.028451597 -0.4631836 0.032271504 -0.04750844
0.26443478 -0.30664364 0.18019299 -0.018743897 0.014781183 0.087104976 0.009008564 -0.011423261
-0.20913292 0.045169342 0.80286455 0.031822465 0.005131964 0.007816829 0.022943752 -0.009824417
0.009654273 0.059382774 -0.06154088 -0.374956 0.5428994 0.019297669 -0.21644467 -0.18650177
0.046051294 0.029920569 0.19607227 0.043258183 -0.05076531 0.051059745 -0.0011954319 0.057110265
-0.05627947 0.121593036 0.35243636 0.033520553 0.013246175 0.045733165 0.42465746 0.051412296
-0.33405042 0.012306181 -0.28153095 0.049519446 0.023763947 -0.73147947 0.058776192 -0.3707874
-0.16087648 0.24994847 0.35475805 0.057223633 0.019446729 0.044846073 0.033425007 0.003371514
0.119432434 0.044560432 -0.017935045 0.019316008 -0.011970236 -0.019672384 0.022751072 0.031362202
0.019608172 -0.066014655 -0.36645222 0.058947198 0.18917175 0.044361483 0.0054569566 -0.015314106
0.06004734 0.2422152 -0.040350277 -0.024348618 0.040060256 0.17058568 0.004975291 -0.11071271
0.09474969 -0.5116266 -0.3055404 0.0084775 0.057281315 -0.4358542 0.11955724 -0.011459767
0.25056812 0.4067355 0.0025914423 0.05622539 0.016260391 0.0050904118 0.9952215 -0.17928769
-0.0066846698 0.04171538 0.009021579 -0.3786877 0.099612825 0.05435351 0.023748722 0.058213774
0.04453602 0.052231193 0.05942127 0.050704394 -0.21215655 0.026650256 0.039084774 0.015159121
-0.059084024 0.0060597803 0.041466024 -0.00091642264 0.02510698 0.77608746 0.055972587 0.030660983
-0.03529031 0.0296644 -0.065997146 -0.05148923 0.010787657 0.027837511 0.0006139797 -0.27750632
-0.01164375 -0.23460647 0.7469901 0.019041343 0.009391138 -0.25417206 -0.043941192 0.028189545
0.008910778 0.008039435 -0.2936489 0.0022416355 0.04051717 -0.004336258 -0.17796114 0.28194517
0.035021123 0.05112714 0.00741823 -0.022991858 -0.055362932 0.07461222 0.0464759 -0.26823685
0.61818105 0.009857888 0.001517584 0.014560702 0.2960453 0.024258224 0.050624296 -0.014199263
0.018479938 -0.15956196 0.022998407 -0.0020516317 -0.32146233 0.02467061 0.1559652 0.00017133237
