Training/Model/model_actor_gym_Reacher_v4_304.pt (torch, 295959 bytes, 6 tensors)

network.0.weight f4 [256, 11]
00000000: ec6c 14bd a0df bdbd 00ab 2f3c b959 86bd
00000010: cfb8 093e 2a9c 783b f718 0abd 3062 713e
00000020: 091d ae3d dec7 abbb 5cc5 9b3d c479 03be
00000030: 3d4e e8bd b814 23be f262 e53d 519e 863d
00000040: bb24 9b3d 7a49 623e 9dc0 7f3d 121f e03d
00000050: e4c5 0a3d 4553 17be 0c05 e4bc 4854 a23d
00000060: acf6 023e 083a 3f3d b4a4 a5be f1e4 a33d
00000070: 5b8f 72be be55 a7bd 6543 90be 8a77 1e3e
00000080: f052 f63c 098d 9e3d 52fe 94bd 8974 9fba
00000090: 924b a8bd 8ae2 e6bd 1596 da3c e4cf f7bc
000000a0: bd15 51be 8c86 843c 2e0e 0e3e e4eb 7a3e
000000b0: 66ab ccbc b002 a9bc bd70 083d 8db5 343b
000000c0: 2159 43be 5bf4 5dbd d236 61be cb24 b73c
000000d0: d3cd 6dbe b004 12be 962f 973e 1e6a 24be
000000e0: e80b 88bd 440a 20be f454 edbd 590c adbc
000000f0: 61c1 28be 0a93 323e 813c 183e f375 733b
00000100: 70e4 f9bd 935f 29be 62ea c4bd 2dc3 ba3a
00000110: 0329 35bd a668 13be e0d1 b6bc 866f 1c3e
00000120: 4af2 51be 0259 5e3e 0fba 3a3d 5c07 553e
00000130: 4c6c 7f3e db1f d1bc 6249 e03d d7fe 6b3d
00000140: aab5 4a3e 1848 3ebe 424e 98bd 9bbf 95bd
00000150: ae9f 04bd 5c16 5fbe f736 32be c625 8ebe
00000160: 3435 21be eeba 07be f143 443c fb5a bf3c
00000170: 8626 8bbc 1a16 ef3d 4616 2e3e 05e0 98bd
00000180: 11e3 de3d 3d16 823d 684e 443e 794c fe3d
00000190: 172d 6fbd 6bc2 be3d 56df 1e3d 6130 bd3d
000001a0: 1e23 babd 6e32 633d 9327 683d baa8 183e
000001b0: d7be 2ebe 34e0 423e be34 3c3d 3516 3d3e
000001c0: 6f9c f3bd 14f8 22be a928 8a3d 8ec3 8cbd
000001d0: 4bca 843e b34d 263d b66d 46bd cb44 8d3d
000001e0: b8a6 363d d1cb f9bd 0c2e e63c c559 eabd
000001f0: bb9a 99bd 086d 093e afcd ca3d ea18 423d
00000200: dbe4 72be 842d 853d 5bda fd3d b0fd 2bbd
00000210: 13ac 0e3d e6d7 f83b 3a03 dabc 87f3 97bd
00000220: 1361 863d fca2 84bd faeb 4f3e 52d9 d7bd
00000230: 4f86 ef3b 5692 62bc 403b 44bc 630e 653d
00000240: a3d4 5dbd 9fea 82bc aa03 fd3d a745 9ebb
00000250: fb84 cd3d c1f8 633e 0ca6 783d b0fc d03b
00000260: ebb5 183e 30c9 0bbd 334f 5ebd 1896 07be
00000270: 6144 14bd 6738 bc3d 31a1 89bd 6b52 a7bd
00000280: 4c36 5a3e f3a3 7ebd 20a1 16bb f1d7 c9bd
00000290: 80a0 843e 192f 0cbe cf0b f4bd 00c4 8d3c
000002a0: 9e9f 80bd a022 0abe 4488 23ba cf9a 66be
000002b0: 88dd 5c3e e4a1 25bd 62d8 8b3d 787b 7abd
000002c0: cd41 01be 85ce 2a3d cd98 9b3b 0863 53bd
000002d0: 16e0 dabd 1116 91bd 7cde ce3c 15ca 233e
000002e0: 5239 fabd aba5 7fbd bc24 a33d 2803 31be
000002f0: 1b16 20be 91e1 2abd c2a8 613d 7cc1 963c
00000300: 5e90 1d3d 4b46 ce3d fcb9 3d3d 041e f03d
00000310: 566c 53bc b4d5 8d3e 2eb6 103d b524 9fbb
00000320: a514 143e a095 ef3c ecfe 61be 0d37 45bc
00000330: 0eb0 503e d79c 21be f3fe ddbd 0da3 4cbd
00000340: 14e2 8ebe dcce 43bd 5b4f 4dbd bc3e 9ebd
00000350: f066 903c e427 913a 8357 cf3c 64d9 e8bb
00000360: c5f0 e33d 0ad8 80bc 47b9 023d 00ff 3a3b
00000370: be41 0ebe fdbb bd3c 1f65 1c3e 9fff efbd
00000380: 8d6f 33be 4316 40bd b81e 54be 4dac 4ebe
00000390: 2a69 0abd f895 11bd a049 193d ffc7 99bc
000003a0: a1cd 2dbd 12ce 093e 52fa 3ebd 9c1e 04be
000003b0: 49a1 713d ff80 dbbd 5772 34bc e01f 17ba
000003c0: 796e 02bd f80c 483e 923a 803d c0ec cbbd
000003d0: a8dc e63d 6ba9 863b 0572 76ba 56eb 893d
000003e0: c28e 57be 6762 2e3e df01 98bd dbbb 7ebd
000003f0: daba 2fbe 4a65 3d3d 4b75 61bd d982 ce3d
-0.03623669 -0.09271169 0.010721922 -0.06560082 0.13449405 0.0037934878 -0.033715215 0.23572612
0.08501632 -0.005242332 0.07606003 -0.12839419 -0.11343048 -0.15925872 0.11200513 0.06573165
0.07575365 0.22098342 0.06243955 0.10943426 0.03388013 -0.14777859 -0.027834438 0.079262316
0.1278941 0.046686202 -0.3235222 0.080026515 -0.23687498 -0.08170651 -0.28176418 0.15475288
0.030068845 0.07741744 -0.0727507 -0.0012165467 -0.08217539 -0.11273678 0.026682893 -0.030250497
-0.20418449 0.016177438 0.13872597 0.24504048 -0.024984073 -0.020631164 0.03331064 0.0027574033
-0.19076969 -0.054188114 -0.21993569 0.022356411 -0.23223047 -0.142596 0.29528493 -0.16056105
-0.06642896 -0.15628916 -0.11588469 -0.021124052 -0.16480018 0.17438903 0.1486683 0.003714916
-0.12201774 -0.16540365 -0.096150175 0.0014248841 -0.044228565 -0.14395389 -0.022316873 0.15276918
-0.20502582 0.21713641 0.045587596 0.20803589 0.24943656 -0.025527885 0.10951497 0.05761608
0.19795862 -0.18582189 -0.074368015 -0.073119365 -0.032378845 -0.21785873 -0.1740378 -0.27763194
-0.15742952 -0.13254902 0.011979089 0.023358813 -0.016986143 0.116741374 0.17000684 -0.07464603
0.10883153 0.06351898 0.19170535 0.1241693 -0.05839261 0.09314426 0.03878721 0.09237743
-0.09088729 0.055468015 0.056678366 0.14908114 -0.17064987 0.19030839 0.045948736 0.18465503
-0.11895072 -0.15914947 0.067460366 -0.068732366 0.25935587 0.040601443 -0.048444472 0.06897887
0.04459259 -0.12197078 0.028098129 -0.114429034 -0.075002156 0.13420498 0.09902512 0.04738704
-0.23720114 0.06502822 0.123951636 -0.041989982 0.03483207 0.0075940965 -0.026612867 -0.07419496
0.06561484 -0.06476399 0.20304862 -0.105394974 0.007309712 -0.0138288345 -0.011977017 0.055921923
-0.054157864 -0.015981017 0.123542145 -0.0048300806 0.1003513 0.22262861 0.06070523 0.006377779
0.14913146 -0.034127414 -0.05427475 -0.1324085 -0.036198024 0.091904454 -0.06720198 -0.08170017
0.21309775 -0.062168073 -0.0022984222 -0.09855641 0.25903702 -0.13689841 -0.11916315 0.017305374
-0.062804446 -0.13489771 -0.00062382617 -0.22519992 0.21568882 -0.040437594 0.06828381 -0.061152905
-0.12622757 0.04170086 0.00474844 -0.051608115 -0.10687272 -0.07084287 0.025252573 0.15995057
-0.12217964 -0.062413853 0.07965991 -0.1728636 -0.15633433 -0.041719023 0.05509258 0.018402807
0.038467757 0.10072001 0.046319947 0.11724475 -0.012904247 0.27702105 0.03532999 -0.0048566707
0.14461 0.029246151 -0.22069901 -0.012037051 0.2037966 -0.15782486 -0.10839643 -0.049960185
-0.2790686 -0.0478047 -0.050124507 -0.077268094 0.01762721 0.001107451 0.025310284 -0.007105993
0.111299075 -0.015728015 0.031914975 0.002853334 -0.13892266 0.023160929 0.1527295 -0.11718678
-0.17523022 -0.04689623 -0.20714843 -0.20182915 -0.0337917 -0.035543412 0.03742373 -0.018772123
-0.04243243 0.13457516 -0.046625443 -0.12902302 0.058991704 -0.107179634 -0.011013589 -0.00057649426
-0.031843636 0.19536197 0.062611714 -0.09957266 0.112725556 0.0041095517 -0.00094011455 0.0673434
-0.21050552 0.17029725 -0.07422232 -0.06219087 -0.17161122 0.046239175 -0.0550435 0.10083551

network.0.bias f4 [256]
00000000: f09b 45be e721 80be bc35 8ebd 706d 89be
00000010: fe98 933d 7ea0 e43d 5140 2fbc cd32 1a3e
00000020: a558 e63d 309b 653d 918f 133e ed97 763d
00000030: 0144 153e 7cc3 97bd 2a53 03be 710b 27be
00000040: 005c eb3d 3265 443d 03cd 5e3e 96f9 d43d
00000050: 2dc8 7abd 2018 cabd 8b86 303e f134 593e
00000060: bde1 8fbd 28a2 463e f675 81bd 4c9d 81be
00000070: 3d6e 903b 1bbc febd e5b6 4ebe 78d6 0bbd
00000080: 032c 2b3e 08ae 11be 8524 45be cd0a fcbd
00000090: a96d ba3d 1dd9 bb3d 0a5b 393d 2edc 09be
000000a0: 3e89 fa3c 25ed ce3d da3a 13be 1a01 a33d
000000b0: fd0d 663e dd9a ebbd b6a6 1fbd 2c06 343e
000000c0: 66a9 73be ad73 123e 6118 8abe 741a e3bc
000000d0: cb10 86be a8a8 6dbe 18f5 403e 8e1d d3bd
000000e0: d9c3 793d ff29 1c3e dd44 37be f9bb 0dbd
000000f0: acfd 2e3e 6668 8fbe 44ea e73d 4547 e13d
00000100: bb7f aa3d e710 68bd 3bd4 2fbe 274e a33d
00000110: c52f c8bd 8376 873d 46eb aabd 47a3 1a3e
00000120: ab67 ebbd 0bce e33c 9fc3 2fbe d10e c83c
00000130: 8c56 19be 254f 0f3e 8c2d 4b3d 149c 053e
00000140: f6c7 88bd 0d0a 62be 0aeb 3abd c811 343e
00000150: 3a10 03be dc33 89be 1c81 76be 3e70 2bbe
00000160: 95bf 57bd 4568 73be 5f99 1bbe f055 13be
00000170: 5e26 d53d 221b 45be 1cc7 063d 6658 c93c
00000180: 493d 503e a9d6 6cbd e354 033e 5414 0b3d
00000190: ca60 053e 9a61 613e a04b 92bd 2996 e0bd
000001a0: 7337 60be caf6 6abd e564 20be 907b eebd
000001b0: bcd5 fe3c f29f 19bd 05cd 033c 1527 b6bd
000001c0: f049 573d d3bd 23be cbfe 243e 30f7 e7bd
000001d0: b079 a3bd 88b6 56be 7a1d 97bd 73f0 4dbe
000001e0: d904 423c 62c5 053d c84b 503e 6672 fabd
000001f0: df70 56be 55ca 5bbe d4cf 873d ff95 41bd
00000200: ba8d 37be ad8e 13bd d690 5ebc 8753 24be
00000210: 50a2 873e 8639 b8bd 9fc0 dd3d 177a 90be
00000220: 8436 d53d a493 ad3c 0f03 46be 6cac d53d
00000230: 7c99 36bd a57e 4b3e b252 2cbd 7681 64be
00000240: 466e d2bc d1f9 9fbc ef0f 553d 0d7c 61be
00000250: 4afb 443d 68b1 ec3c 8ad4 503d b215 b2bd
00000260: 27b0 e6bd 899a 3f3c 8b95 14bd 6009 423e
00000270: 8d88 c2bd a614 f83c 1434 47be 86a3 0f3e
00000280: d49a 2a3e 6b45 7e3d 1cf0 35be 218c 1cbe
00000290: cc4c 8a3d fdc9 19bd fbd4 8fbe 54d9 03be
000002a0: 6f8c 4d3e 2896 473e e719 92bd 1ffe f1bd
000002b0: c67d 413d b378 e4bd fa60 6b3e 38d5 91bd
000002c0: 7fa6 a53d 70a9 20be dda4 ecbc 090b 04be
000002d0: 5202 143e fbcb 97be 0a73 6fbe d1ea 7d3d
000002e0: 6988 cf3d ab4c 3d3d 347c 6ebc 73ab aebd
000002f0: 4f85 39be e124 1ebe 4762 7abd abf5 623e
00000300: 49b8 0fbd 0874 e43d 8dc6 efbd 3eda 0bbe
00000310: 2b59 86bc a732 543e 1b60 89bd 2386 003e
00000320: e9a3 37be 2037 51be 64b8 6e3e a5da 32bd
00000330: aec2 423d 7c2e d0bc f120 36be a4b1 bcbd
00000340: 6a67 4dbe cd3e 653e 5f6d a8bd 40aa 5a3e
00000350: d97f 51be c6ee ecbd 76a7 dabd 0e22 5cbe
00000360: 7086 e93d fafc 39bc 61ab 46be b5c3 453c
00000370: 0bc4 83be f03d 503e ed50 323d e01f 32b9
00000380: b870 fc3d f8ce 713e 1f42 1fbc 67f7 e9bd
00000390: b5a4 423d aa4f de3d a1bc 67bd fada 0e3e
000003a0: eec5 283e a0e6 563e a8c1 523d 6519 4cbe
000003b0: 8e70 e63d 261a 673e 7189 c3bd 9ed7 a33d
000003c0: 7fce e23d 1e6e 293e 6b3e 483e ec3b 39be
000003d0: 4db4 cabd fc54 f03d 2ff3 5abc 7d06 cbbd
000003e0: 1034 65bd eb68 c03d cdcb e73d 3655 b3bc
000003f0: aa48 d43d a053 80bd a053 01be 8b1c 37be
-0.19297767 -0.25025865 -0.06943843 -0.26841307 0.07206915 0.11163424 -0.010696487 0.15058441
0.11247376 0.0560562 0.14410235 0.06020348 0.14576723 -0.074103326 -0.12824693 -0.16312958
0.11492157 0.04794807 0.21757893 0.10399167 -0.06122606 -0.09867883 0.17238824 0.21211602
-0.07025478 0.19397795 -0.063213274 -0.2531532 0.0044076727 -0.12438222 -0.20186956 -0.03414008
0.16716008 -0.14226544 -0.19252212 -0.123067476 0.09102947 0.091722704 0.045252837 -0.13462898
0.03058302 0.101038255 -0.14377919 0.079591945 0.22466274 -0.11504147 -0.038977347 0.1758048
-0.23795089 0.1430194 -0.26971725 -0.027722575 -0.26184687 -0.23208869 0.18843496 -0.103083715
0.06097779 0.15250395 -0.17897363 -0.034603093 0.17088956 -0.28009337 0.113239795 0.10999922
0.08325144 -0.056656744 -0.17170803 0.07973891 -0.09774736 0.06614401 -0.08345656 0.15101348
-0.114943825 0.02780821 -0.17164467 0.024421128 -0.14974421 0.13995035 0.049603984 0.1304782
-0.066787645 -0.22074147 -0.045634307 0.17584908 -0.12799159 -0.26797378 -0.24072689 -0.16742036
-0.05267294 -0.23770244 -0.15195225 -0.14388251 0.104077086 -0.19248632 0.03290473 0.024578284
0.20335878 -0.057821903 0.1282535 0.033954933 0.13025203 0.22009888 -0.071433306 -0.10966141
-0.21896152 -0.057364263 -0.15663488 -0.116446614 0.031107776 -0.03750605 0.008044486 -0.08894173
0.052560747 -0.15990381 0.16112821 -0.11326444 -0.079821944 -0.20968068 -0.07378669 -0.20111255
0.011841976 0.032658942 0.20341408 -0.12228851 -0.20941494 -0.21463902 0.06631437 -0.047262188
-0.17925158 -0.036024738 -0.013584336 -0.16047488 0.26491022 -0.08995347 0.10827755 -0.28218147
0.10410789 0.021188565 -0.19337104 0.104332775 -0.044579968 0.1987253 -0.042071052 -0.2231501
-0.025687348 -0.019528301 0.05201715 -0.22019978 0.04809121 0.028893188 0.050983943 -0.08695544
-0.11264067 0.011694559 -0.036275428 0.18948889 -0.09498701 0.030283283 -0.1945346 0.14027223
0.16660625 0.06207792 -0.17767376 -0.1528783 0.06752929 -0.037546147 -0.2809218 -0.12875873
0.20073102 0.19490874 -0.07133847 -0.11816048 0.047239088 -0.11155834 0.22986212 -0.071207464
0.08088397 -0.15689635 -0.028887207 -0.12894835 0.1445401 -0.29647812 -0.23383728 0.061991517
0.1013344 0.046215694 -0.0145559795 -0.08528795 -0.1811726 -0.15443756 -0.06112888 0.22164027
-0.035087857 0.11154944 -0.117077924 -0.13657472 -0.01639994 0.20722447 -0.06707784 0.12551169
-0.1793362 -0.20431185 0.23312527 -0.043665547 0.047548942 -0.02541279 -0.17786004 -0.0921357
-0.2005898 0.22387238 -0.08223986 0.21354008 -0.20458926 -0.1156898 -0.10676472 -0.21497366
0.11402595 -0.011351818 -0.19401313 0.012070586 -0.25735506 0.20336127 0.043534208 -0.00016987277
0.12326187 0.23614109 -0.009720354 -0.114241414 0.047520358 0.108550385 -0.056576375 0.1395072
0.16481754 0.20986414 0.051454216 -0.19931562 0.11251937 0.22568569 -0.09547699 0.0800011
0.11074542 0.16545913 0.1955506 -0.18089265 -0.09897671 0.117349595 -0.013363644 -0.09913347
-0.055957854 0.093950115 0.11318169 -0.021891218 0.10365422 -0.0626595 -0.12629557 -0.17881982

network.2.weight f4 [256, 256]
00000000: 6bc2 8bbd 9ecd 383a 1fab 503c 1bea 1abd
00000010: 483f 74b8 4778 91bc e73e cf3c 694b c13c
00000020: d097 593c 108c 253c 0e3b 65bc 31fb 55bd
00000030: 0fcf 743b 9f89 97ba 737d 4f3b 6c8b 33bd
00000040: 1842 4d3c fbf9 8c3c c09b 16bd 56f3 b5bc
00000050: 4e64 d9bc e946 71bd 8906 65bd 0163 8e3c
00000060: 2c5e ca3c 54d7 5b3d 4771 0e3d c240 1c3d
00000070: 4422 50bd dc63 6dbd f75c 5a39 c2da 00bd
00000080: d5ff 34bd d11f e33b 38c7 06bd e8a3 193d
00000090: c0e2 78bd a94e 78bd 5e31 db3b 15b4 c83c
000000a0: f02c 2dbb f9bd 18bd 70a5 ccbc 7d24 4b3c
000000b0: 9127 65bc 0149 f63b 1d7b 1bbd d324 3b3d
000000c0: 8778 123c 518f 39bd 0032 91bc cd82 45bd
000000d0: 3d81 453b f2a6 a53b 23c2 5a3c aa47 4a3b
000000e0: 5102 1f3d 9267 13bd 421d 4bbd 68f6 843d
000000f0: b9c1 0dbc 5954 b8bc 4283 03bd d31f b23b
00000100: b631 e0bc cc83 2b3d 5d22 513c 7537 48bd
00000110: 463c 0f3d 902e 0abd db35 3e3d 972f 50bd
00000120: c8e6 e8bb 7704 4b3c 5e73 443c a980 593c
00000130: e0e6 29bd 2ee9 f53b f3cd 463c f401 303a
00000140: 04a2 133d 2549 643b 14be 1abd 933d 91bc
00000150: 88d8 ab38 de62 5ebd 3d8d 6cbc 85f4 473d
00000160: ab82 a63b 87a4 923c ec3c f639 6d3a 74bd
00000170: a30d 20bd 20a8 453d 129a 733d ec8c 0cbd
00000180: 0e52 603c 3d42 563d 5f80 2dbd 0aad 2dbd
00000190: aa0e 01bc a25b 713d 4230 02bd 0065 493d
000001a0: 0b8a 9f3b 19d1 24bd a13e b3bc b333 1e3d
000001b0: 3e4c 283d 6f22 e3bc c5e9 053b 687c 573d
000001c0: 1f19 20bd 5f6b 4bbd d8d4 82bc b3ce 313d
000001d0: 089c 703c 8b4a 043c afa9 1abd c3a5 89bc
000001e0: 77d4 0d3d 0873 22bd 0349 77bd 1455 fd3c
000001f0: 47cf 1d3d 167b 063d 2baa 11bd 5b84 933c
00000200: 1f7d 15bd 34b3 cb3c eec9 9b3c b85f 2b3d
00000210: 6c1b 0fbd 0a27 b1bb 4108 00bc c174 d8bc
00000220: 3181 4d3d 20db 55bd 4cfe 17bd f0a7 123d
00000230: cec8 3c3d 1e66 65bd d106 9a3c 5ab2 bf3c
00000240: e283 ddbb e1d6 bdbb 9645 67bc 44ac 0c3b
00000250: 84c9 473d 50dc ef3b 18e6 74bc 1d64 363a
00000260: d355 a7bb 1ca0 89bd 6702 5d3d 080c 20b9
00000270: 9c42 cbbc 672d 36bd 119e ea3c 652f 813d
00000280: 06fc e73c a09b f23b c26c 453d 39f4 023d
00000290: 4946 4dbc c46d 483d 10c0 bfbc d0da 71bc
000002a0: d0c2 183c 379b 4fbc 9ec6 f3bb 4cee 97bc
000002b0: a18f 1a3d 4dc1 ebbc 7cd5 013d 9915 a73c
000002c0: 01c3 aabc c83f 12bd 3ba3 a7bb 9949 9e3d
000002d0: 5604 8abd f036 a6bc 119f dabc 02ea ba3c
000002e0: 905f 333d e0cf 2b3d c4c8 69bc 4261 80bc
000002f0: 5fe6 363c a721 51bb cceb 80bd 70ab 5b3d
00000300: 42ec 86bd f925 523d c534 5abc 7c12 f5bc
00000310: 390f 02bd 96da 883c d6e7 1c3d 8c60 c33b
00000320: 0503 873c 67d9 e1bc ad5d a0bc 1e87 05bd
00000330: 7513 60bd 930b 1d3d ed92 5fbb 30f2 24bb
00000340: e146 84bd 5578 0e3c 4800 9bbc 24b4 da3c
00000350: 8b88 56bd f997 e73c 4238 1c3d 402f cb3c
00000360: 625a cfbc 71b7 263d cf71 a93c f801 6fbd
00000370: cf01 f33c 8a0c 443d ba22 85bd ec5c c9bc
00000380: 68fe 4d3d ccb4 7fbd a20c 29bd 9b07 013c
00000390: 1747 5fbd b437 713d eac8 ea3b 9a6f 0a3c
000003a0: 161b febc 6b88 14bb 11a5 223d 5aa8 d4bb
000003b0: 31f8 a6bc 29e1 0cbd abc3 183d 17a5 733d
000003c0: 2469 cf3c 8acd b6bc 6dba 09bd b41c b5bb
000003d0: 9d57 643b 34b0 83bd 19bb 623d d091 7abc
000003e0: 2a89 3e3d b01b a7bc ad21 73bc 0bd8 3b3d
000003f0: 4eb4 db3c 1ec7 9bbc 8e0b acbc 1579 5dbc
-0.06824192 0.00070496823 0.012736111 -0.037820917 -5.823307e-05 -0.017757548 0.025298549 0.023595529
0.013280824 0.010104194 -0.0139911305 -0.052241508 0.0037354862 -0.00115614 0.0031660467 -0.043834135
0.012527965 0.017209044 -0.03676963 -0.022210758 -0.026537087 -0.058905516 -0.055914436 0.017381193
0.024703108 0.05367215 0.034776 0.038147695 -0.05081393 -0.05795656 0.00020824732 -0.031458624
-0.044189293 0.006931283 -0.032904834 0.03750983 -0.06076312 -0.06062189 0.0066892346 0.024499932
-0.002642449 -0.037290547 -0.02498123 0.012398836 -0.013986484 0.007516027 -0.037959207 0.045689415
0.008939869 -0.045302693 -0.017724037 -0.048220444 0.0030136846 0.005055302 0.01335195 0.003086547
0.03882057 -0.035987444 -0.04958845 0.06492311 -0.008652144 -0.022501158 -0.0321076 0.0054359226
-0.027367454 0.04187374 0.0127645405 -0.048881013 0.03496959 -0.03373581 0.04643808 -0.050826635
-0.0071075894 0.012391201 0.011990396 0.013275304 -0.041479945 0.007504604 0.012134063 0.0006714158
0.036043182 0.0034833637 -0.03777893 -0.017729556 8.1942475e-05 -0.054293506 -0.014437971 0.048817176
0.005081495 0.017900718 0.00046966167 -0.05962603 -0.039075505 0.04825604 0.059473105 -0.03431408
0.013691438 0.052309263 -0.042358752 -0.04240135 -0.007877031 0.05892528 -0.031784303 0.049168587
0.004868751 -0.040238474 -0.02188045 0.038623523 0.041088335 -0.02772638 0.0020433527 0.052608877
-0.039086457 -0.049662944 -0.015970632 0.043410014 0.014685638 0.008074413 -0.03775948 -0.016802674
0.03462645 -0.039660484 -0.060372364 0.030924357 0.038527753 0.032832228 -0.035562675 0.018007448
-0.036496278 0.024865724 0.019017186 0.04183933 -0.03493826 -0.005406265 -0.007814468 -0.02642286
0.050172035 -0.052210927 -0.03710775 0.03580469 0.04608994 -0.05600559 0.018802078 0.023400474
-0.0067601064 -0.005793438 -0.014115712 0.0021464983 0.048776165 0.0073199645 -0.014947437 0.0006957667
-0.0051066666 -0.067199916 0.05395737 -0.00015263271 -0.024812035 -0.044476893 0.028639825 0.06307868
0.028318416 0.007403806 0.048199423 0.03197119 -0.012528964 0.048932806 -0.023407012 -0.014761642
0.009323791 -0.012671283 -0.0074394485 -0.018546246 0.03773463 -0.028778696 0.031697735 0.02039604
-0.020844938 -0.035705358 -0.005115894 0.077288814 -0.06739108 -0.020289868 -0.026687177 0.022816662
0.043792307 0.041946292 -0.014269058 -0.015671376 0.011163323 -0.0031910928 -0.06294975 0.053630292
-0.06588031 0.051305745 -0.013318245 -0.02991604 -0.0317528 0.016705792 0.038307033 0.005962437
0.016480932 -0.027569486 -0.019575918 -0.03259956 -0.054706056 0.038341116 -0.0034114674 -0.002516877
-0.064588316 0.008695682 -0.018921033 0.026697226 -0.05237631 0.028270708 0.03813959 0.024802804
-0.025311653 0.040702287 0.020684151 -0.058351487 0.029663948 0.04786352 -0.06500764 -0.024580441
0.05029145 -0.06242828 -0.041271813 0.007875348 -0.054511156 0.058891013 0.007165064 0.008449459
-0.031018775 -0.002266432 0.0397082 -0.0064897956 -0.020382019 -0.034394417 0.03729598 0.059483614
0.02531869 -0.022314806 -0.033625055 -0.0055271033 0.003484226 -0.064300925 0.05535421 -0.0152935535
0.04651753 -0.020398945 -0.014839572 0.04586033 0.026819374 -0.019015845 -0.021001603 -0.013517638

network.2.bias f4 [256]
00000000: dbaf a83b 9a6f b53b e0b8 bd3c be87 22bd
00000010: ef4b e4ba 20fc ebbc 0ef6 b6bb f70e 9d3c
00000020: 452b 0cbd 59d8 a93c 076e 08bd 8d2b 20bd
00000030: fd37 c9bc 8a81 873c b241 42bc 74cc 12bd
00000040: 04f6 bb3c d7cd 19bc 0e99 8ebc 0407 12bc
00000050: b7f8 e8bb 9fe1 46bd a618 b0bc 071b 19bd
00000060: 2fb3 ee3c e241 a03c 9fbe 103d 7736 093d
00000070: 6d64 04bd c36a 70bc 473e 4fbc 3a95 553c
00000080: 6b8d 803c 85a7 0c3d 2f3a 97bc f09d fd3c
00000090: 3688 dc3c 1fcc a73c 6f19 65bd 310b f2bc
000000a0: 9612 b3bc 222f 4cbd 9cf7 4bbd d010 433d
000000b0: beed ac3b 3193 653d ed0e 27bd 7eae 06bd
000000c0: d987 74bd 6f7b ac3c 66bf 0abc 1bab aebb
000000d0: b177 a5bc fb45 52bc 275a 54bd b741 063d
000000e0: d0f6 42bd be4c 52bd c6c2 06bd b3f4 0c3d
000000f0: a591 833c 3f9d 033d 9437 b03c cb3d 9c3c
00000100: b550 323d e6df 86bb 9381 c53c c93f 6e3c
00000110: 7882 faba 2385 be3a a4dc b33c 38aa 2ebd
00000120: cc87 123c 091f 4e3d 1850 403c 4260 473a
00000130: e327 8dba 6c36 203c efdc 5bbd 5664 723d
00000140: b4ec a13b 0a1a b63a 4b0e 68bc c304 3fbd
00000150: 2a32 a5bb 48a0 09bd 4b97 8eba a113 d43c
00000160: 89a8 f03c 3d76 fcbc acac 01bd 8df0 00bd
00000170: aaf6 81bd 3712 f6bc 3c9d 26bd 8870 9d3c
00000180: e431 293d 39d9 903c 26f9 3fbd 8f84 0c3b
00000190: 8b0a 41bd f36d c63c de95 2bbd 4c27 21bd
000001a0: 857d a63c 563d 183d dfcf 59bd 4c42 14bc
000001b0: 7970 3f3d 72cf 143d b644 ccbc e3c2 46bd
000001c0: 0771 443c 04db 2fbd 8122 723c c164 87bc
000001d0: 4731 e5bc 9847 d73c b9fb ac3b faff 67bd
000001e0: b799 413b e42e 4cbd 3f0a 0ebd d46f 7dbd
000001f0: e19c 24bd 04bb 7bbc 85a6 973c e3b0 093d
00000200: d9e1 023d e3b0 8b3c 6c77 39bc 272b 54bc
00000210: 6194 bfbc 27bf d53c 3896 db3c 61d5 2abd
00000220: 143d 713c 812d a23b 3cb5 f03c ba83 4b3c
00000230: 7217 b73c 4ec8 3e3d ce24 7abc 126c 893c
00000240: 6f3d 74bc 527c 49bb afc2 3dbc 2a89 4bbd
00000250: bc35 38bc b94c cabc e28f 63bc 1701 d0bc
00000260: 16ac 003d e043 483c bcf7 0b3d 8ed9 493b
00000270: 8f38 dbbb 2061 3a3c 393f efbb 5d6b 1e3d
00000280: edb1 ec3c b66e 79bc a7f7 adbc fb37 98bc
00000290: d0e1 4dbd 3005 283c 5418 2cbc a46d 59bd
000002a0: e8f7 5d3d 739f 3dbc 5431 2dbc cf3f 953c
000002b0: 7e08 64bd b77a e2bc 868a 4e3d 50df c53b
000002c0: acc3 8d3c d064 503c 8b0b 34bc 2e43 05bd
000002d0: 43b6 f3bc 8d8e 5cbd 1d60 34bd 49eb 39bd
000002e0: 63e2 87bc 5d40 22bd 6231 38bb e3c0 6f3c
000002f0: 0b84 7dbd 62f4 79bd 49c7 73bc c1c4 56bd
00000300: 0c5f 553c 3509 febc 7e83 11bd 1096 51bc
00000310: bb05 09bd fef0 b53c bc93 163a a844 acbc
00000320: 15bb 3bbd a49e d1bc 24d1 953b 0619 2cbd
00000330: dda7 0fba aa1e 0c3d 9a41 0f3d 8d4c f13c
00000340: cc16 273d fde7 903c 062b 0ebc e286 30bd
00000350: a776 57bd 283c 343d 886e 26bd d0a7 21bd
00000360: d606 ee3c 2e7b 7d3c 34d3 623d dd7d 0dbc
00000370: 3a98 47bd b053 233d 5cdf d0bc 622b 24bd
00000380: bd54 fe3c a2f7 5d3d 5a12 8dbc 594d 42bd
00000390: 8a5e 743c 560c 1f3d 8793 c2bc f6d5 48bc
000003a0: 6ea6 98bc 27b8 f83b 188c d9bc 9fc2 c3bc
000003b0: 13ec 3ebd b521 3b3d 8929 9cbd ad00 06bd
000003c0: f18e 0f3d 3631 4b3d e31e e7bb 596c ab3c
000003d0: ef8f 33bd 31da 49bd 6963 42bd ee67 0c3d
000003e0: f3be 963c 72d6 42bd a1c1 1a3c c7a8 203d
000003f0: d947 40bd 89f2 953c 2666 ddb9 41ec 80bd
0.0051479167 0.0055369856 0.023159444 -0.039680235 -0.001741765 -0.028806746 -0.005583531 0.019172175
-0.034220953 0.020733045 -0.033308055 -0.039104033 -0.02456283 0.016541261 -0.011856483 -0.035839513
0.022944458 -0.009387455 -0.017406967 -0.0089128055 -0.0071097272 -0.048555013 -0.021496128 -0.03737929
0.029138176 0.019562665 0.03533804 0.033499207 -0.032322336 -0.0146738915 -0.012649125 0.013036067
0.015692433 0.034339447 -0.018460361 0.0309591 0.02692042 0.020483075 -0.05593246 -0.029546352
-0.021859448 -0.049849637 -0.049796686 0.047623456 0.0052773645 0.056048576 -0.04078572 -0.032881252
-0.059699867 0.021054951 -0.0084684845 -0.005330456 -0.020198675 -0.012834067 -0.05184379 0.032777514
-0.04759866 -0.05134272 -0.032900594 0.03441305 0.01606066 0.032132383 0.021510877 0.019072434
0.043534 -0.0041160462 0.024109637 0.014541575 -0.0019112369 0.0014535527 0.021955796 -0.042642802
0.008943509 0.050322566 0.011737846 0.0007605591 -0.0010769333 0.0097786 -0.053677496 0.05917772
0.0049415473 0.0013893258 -0.014163564 -0.0466354 -0.0050413804 -0.03360012 -0.0010878829 0.025888266
0.029377239 -0.0308181 -0.031658813 -0.031479407 -0.063458756 -0.030037982 -0.040677294 0.019218698
0.041307345 0.017681705 -0.046868466 0.0021441316 -0.047129195 0.02422235 -0.04189097 -0.039344117
0.020323524 0.03716787 -0.053176757 -0.0090490095 0.04673812 0.036330648 -0.024935108 -0.048525702
0.011989838 -0.04293348 0.014778734 -0.016527535 -0.027977599 0.026279256 0.005279031 -0.056640603
0.0029541084 -0.049849406 -0.03467774 -0.061874226 -0.040188674 -0.015364412 0.01851202 0.033615958
0.031953666 0.01705212 -0.011319976 -0.012949741 -0.023386182 0.026092125 0.026805028 -0.0417074
0.014724035 0.004949272 0.029383294 0.012421543 0.022350047 0.046577744 -0.015267564 0.016775165
-0.014907225 -0.0030744267 -0.011582061 -0.049691357 -0.01124328 -0.024694787 -0.013889285 -0.025391145
0.031414114 0.012223214 0.034171805 0.0030799839 -0.006690092 0.0113756955 -0.007301238 0.03867661
0.028893435 -0.015224149 -0.021236254 -0.018581381 -0.05026418 0.010255143 -0.010503847 -0.053083077
0.0541915 -0.01157366 -0.010570843 0.018218903 -0.05567216 -0.027646406 0.050425075 0.006038584
0.017305218 0.012719348 -0.01098908 -0.03253477 -0.029749995 -0.053846885 -0.044036973 -0.0453904
-0.016587442 -0.039612163 -0.0028105606 0.01463339 -0.061893504 -0.061024077 -0.014879056 -0.052433733
0.013023149 -0.03101025 -0.03552579 -0.012792125 -0.03345273 0.02220964 0.000574406 -0.021028832
-0.045832712 -0.025588341 0.0045720506 -0.04201605 -0.00054800307 0.03420893 0.034974672 0.029455448
0.040793225 0.017688746 -0.00867725 -0.043097384 -0.05260339 0.044002682 -0.040632755 -0.03946668
0.029055994 0.015471263 0.0553772 -0.008635965 -0.04872916 0.039874732 -0.025497131 -0.040080436
0.031046266 0.05419124 -0.017220665 -0.047437046 0.014915118 0.038830124 -0.023751987 -0.0122580435
-0.018634047 0.007590312 -0.02655606 -0.023896514 -0.046611857 0.045686442 -0.0762511 -0.03271549
0.03504843 0.049607478 -0.0070532425 0.020925688 -0.043838438 -0.04928035 -0.047458086 0.034278803
0.018401599 -0.047567792 0.009445579 0.03922346 -0.04694352 0.018304126 -0.0004222851 -0.06295062

network.4.weight f4 [18, 256]
00000000: 469e 02bc 970f 0a3c 4b35 b93a bb5a d03a
00000010: 87bd e43b 6839 a33c facd 913c 07d8 9b3b
00000020: 5692 073a f217 193c 8185 153c 2035 243b
00000030: 9462 2b38 71c1 2ebd 9724 c1bc f1e5 9cbb
00000040: 1f4b 58bb 6507 883c ad8a 543c 5cbb 2c3b
00000050: 62d0 063d 9b0b d63c e842 383b 8846 4c3c
00000060: d6f7 bdbb c30b 4aba 243f 6e3b bec1 753c
00000070: 3501 fb3b e133 a0b9 00c9 723c 827a 92bc
00000080: 65ec c73c 5b8d 70ba 08be 9dbb 733b fe3c
00000090: 87fe df3b 8762 af3c e73d eb3b 045d a9bc
000000a0: 69e4 1ebc 7fc9 143d 9201 3e3c 54ba 35bc
000000b0: 4386 48bb 54ee 2dbb a12b 2dbd 6e70 5cbb
000000c0: 2533 18bc d008 a7bb eb32 e3bb ec1d 963c
000000d0: 0d8b f53b 054f 7b3a 013e 34bc bc2a af3b
000000e0: e2b9 0c3b ab87 4f3c 67f2 503d b873 af3c
000000f0: 152e 323c 0c73 f03c b367 cbbb aa70 003c
00000100: 750f e83c de64 c33b 03a6 843c 2954 7ebc
00000110: 1d39 0a3c 087f ddbc c908 efbc 9691 b83c
00000120: ae07 91bc 001e 923c 4853 49bc e096 3e3c
00000130: 8232 fc3c dfaf 9b3b d54b a2bb ba52 7cbc
00000140: 5dd1 13bc a764 f23b ae34 023c 72a8 29bc
00000150: 0cf2 c43c b7dc a43c c0f6 b73c 1863 cebc
00000160: f76d f5ba c295 6e3c a13c 0e3c cd5d 66bc
00000170: 9b85 b93c 67b6 0c3d 7188 79bc c8db ea3b
00000180: d682 093b 2bef 6b3b 29c1 32bb d95e 2b3c
00000190: fa4a 493b f04f 36bc 4b1a d7bc 0772 a43c
000001a0: a19d 873c 8660 3b3c aa1c 833a 98b6 e9bb
000001b0: 0b62 883b e7c9 cc3b 0ae1 bb3c e177 32bd
000001c0: 4aa9 d6bc 5266 1fbc c45d 59bd 8bc5 033b
000001d0: 4559 bd3c baa7 1a3d 3016 8d3c dcb2 a1bc
000001e0: e495 2abd 4d46 b33c c373 023d 8926 82bb
000001f0: a1f4 283c 8744 03bc 207e 743b 1f4e d13c
00000200: 9e65 e73c a6dd d53c 8356 ebbc 353c 453b
00000210: 5bf2 b3bc c069 2dbd 8f4f 4f3c 9d3f 033a
00000220: 3d44 c93b a389 5bbd 0fd7 9f3b 0447 1a3c
00000230: 999d a2bc 4ae1 e93b a9d5 63bc 75b9 62bc
00000240: 793c 88bb fc82 4b3d 02d7 34bc 593a bf3b
00000250: d70c bebc dc6e 9d3b 8bcf 6b3c fcf7 573c
00000260: bf37 613c 3bc0 fe3c 7d42 8abc bd0a 963c
00000270: 2107 bfbc 95be 91ba 3563 313c d71b 50b9
00000280: ae66 8dbc 2e6c 88ba 2216 793c 947e 023d
00000290: 75f1 ef3a b4c1 b7ba 32b3 93bc 9729 813d
000002a0: a6e5 e8ba b767 dd3c 6f85 f7bb 2bff 33bc
000002b0: 8fde 853c 11a8 993b 12f2 0b3d 38e2 483d
000002c0: 1c9b 69bc 0655 acbb a8ab 67bb 7910 bbbc
000002d0: 9aef d5bb a075 843b f103 3c3c e2b9 88ba
000002e0: f80a 45bb 4656 97b7 a715 f03b 466d aebb
000002f0: ca0b f83b 464f 3a3b f733 503c e08a a1bb
00000300: 2424 2f3c 3738 b83b 93bf 903b 998d 553c
00000310: 1a66 86b9 e7c0 8bbc d01c f13b 54e3 9c3b
00000320: 0418 363c ffac 013c cb0a f13c 9a22 59bb
00000330: 1a9f db39 9856 4c39 d9f9 a9bc d231 643c
00000340: 0863 f3bb 7eba 94bb 5bda e93c 18af ef3b
00000350: 96ef d73b 913b c2bc c535 46bb 9e3f b93c
00000360: d226 03bc 778b 2b3c 3e16 97bc ff2a bf3c
00000370: ad51 623c cab5 3b3c 8574 95bc ba96 a03c
00000380: ee6e e03b 8343 a9bb 2f11 a23c 665c 30bd
00000390: 27a9 913c 5005 6c3c b51f aebc 162d 92bc
000003a0: a9b3 58bc ef5d 293b a2f4 a1bc a471 debc
000003b0: 6712 4ebc 288d fe3b a70f 103c e10c 33bc
000003c0: c5f4 eb3b 8006 f8bb f4dc cc3c 9f1d 4abc
000003d0: e381 efbc 3831 1a3b b67f 973c 6355 bc3b
000003e0: 0c1e d63b 67c1 9cbb 93e6 0b3c f8da 5d3c
000003f0: 7099 c5bb 1070 50bd 0a0e 64bc 9b18 6fbc
-0.007972306 0.0084265685 0.0014130262 0.001589618 0.006980601 0.019924834 0.017798413 0.004755977
0.0005171647 0.009344088 0.009126068 0.002505608 4.0861385e-05 -0.04266495 -0.023577018 -0.0047881533
-0.003300376 0.016605088 0.012972516 0.0026356792 0.032913573 0.02612858 0.002811605 0.012467988
-0.0057973666 -0.0007707441 0.0036353553 0.014999805 0.007660056 -0.0003055623 0.01481843 -0.017880682
0.024404714 -0.0009176337 -0.0048139133 0.031034207 0.006835762 0.021409286 0.00717901 -0.020674236
-0.009698012 0.036324974 0.011597054 -0.011091787 -0.0030597604 -0.002653976 -0.042277936 -0.003363635
-0.009289538 -0.005097486 -0.00693356 0.018324815 0.007493383 0.0009586665 -0.011001111 0.0053456705
0.00214731 0.012666623 0.051012423 0.021417484 0.010875245 0.029351734 -0.0062074303 0.007839361
0.028327683 0.005962952 0.016192442 -0.015522995 0.008436468 -0.027038112 -0.029178994 0.022530358
-0.017703857 0.01783657 -0.012287922 0.011632651 0.030785803 0.00475119 -0.0049528875 -0.015400583
-0.009022084 0.0073972526 0.00794713 -0.010355102 0.024041198 0.020124776 0.022456527 -0.025193736
-0.0018724789 0.014562072 0.008681447 -0.01406045 0.022646716 0.03435364 -0.015230284 0.0071673132
0.0020982525 0.003600071 -0.0027275777 0.010459625 0.0030714856 -0.011127457 -0.026257655 0.020073904
0.016554656 0.011436587 0.0010003049 -0.0071323626 0.0041620783 0.0062496546 0.022934455 -0.043571357
-0.02620377 -0.009728985 -0.053067937 0.0020106758 0.023113856 0.037757613 0.017222494 -0.019738607
-0.041646853 0.021884108 0.03184868 -0.003971879 0.01031223 -0.008011944 0.0037306622 0.025549946
0.028246697 0.026106667 -0.028727775 0.00300957 -0.02196615 -0.04233718 0.012653246 0.00050067325
0.006142168 -0.053598057 0.004877932 0.0094163455 -0.019850539 0.0071374523 -0.013905921 -0.013838162
-0.0041575995 0.049685463 -0.01103759 0.005835813 -0.023199482 0.0048044752 0.014392744 0.013181683
0.013746201 0.031097522 -0.016877407 0.018315667 -0.023318829 -0.001111942 0.010826875 -0.00019846797
-0.017260876 -0.0010408217 0.015203031 0.031858996 0.0018306213 -0.001401952 -0.018029783 0.06306761
-0.0017768636 0.027026994 -0.0075537483 -0.01098613 0.016341476 0.0046892245 0.034166403 0.049043864
-0.014258172 -0.005259159 -0.0035350118 -0.022835003 -0.006528807 0.0040423423 0.011475549 -0.0010431374
-0.0030066352 -1.8040777e-05 0.0073268 -0.005323085 0.0075697647 0.0028428598 0.012707702 -0.0049298853
0.010689769 0.0056219357 0.0044173687 0.013034248 -0.00025634543 -0.017059756 0.007358171 0.004787842
0.011114124 0.007914781 0.029424092 -0.0033132196 0.00041889475 0.00019487215 -0.02074902 0.013927894
-0.007427577 -0.004538833 0.028546503 0.007314574 0.00658984 -0.023710044 -0.0030244451 0.022613343
-0.008004861 0.010470263 -0.018443223 0.023335932 0.013813418 0.011456916 -0.018244037 0.019603122
0.0068491613 -0.0051655187 0.019783584 -0.043056868 0.017780853 0.0144055635 -0.021255353 -0.017843764
-0.013226428 0.0025843342 -0.01976997 -0.027153797 -0.01257763 0.007768292 0.008792794 -0.010928364
0.0072008097 -0.0075691342 0.025007702 -0.012336164 -0.02923674 0.0023527872 0.018493515 0.0057474836
0.0065343436 -0.0047837975 0.00853886 0.013540976 -0.006030254 -0.05088812 -0.013919363 -0.014593269

network.4.bias f4 [18]
00000000: 4b74 ce3b d4f5 ce3b 4cda cd3b b01e c83b
00000010: e2e1 cc3b 819b ca3b ada2 cf3b 0b41 cd3b
00000020: c0ac c73b 75e6 68bb 3444 72bb 3896 68bb
00000030: f8c0 6dbb 5f71 75bb ecd0 6cbb 8706 6dbb
00000040: efc8 75bb 56ca 6abb
0.0063004843 0.006315926 0.0062821265 0.006107174 0.0062525133 0.0061830883 0.006336531 0.0062638572
0.0060935915 -0.0035537754 -0.0036966922 -0.0035489928 -0.0036278348 -0.0037451608 -0.003613527 -0.003616722
-0.00375038 -0.0035826168
