Training/Model/model_critic_robot_subset01.pt (torch, 279031 bytes, 5 tensors)

network.0.weight f4 [256, 11]
000000 53 62 11 bf f3 2a e8 be 6a 97 05 bf 7d 03 19 be
       -0.56790656 -0.45345268 -0.52184165 -0.14942737
000010 54 40 3f bf fb bf a9 be 3e 44 10 3e e6 7a 0b 3f
       -0.7470753 -0.33154282 0.14088532 0.54484403
000020 72 21 d6 bd 5b 2a 7b be 51 28 d4 3d af a0 04 3f
       -0.10455598 -0.24527876 0.10359252 0.51807684
000030 f0 5f ac 3e 43 61 2a 3f 83 d1 59 3e 6f 06 09 3f
       0.33666945 0.6655466 0.21271329 0.5352544
000040 8e 5d 6e bd 0e 22 3b bf 81 4c 15 3f 24 02 50 be
       -0.05819469 -0.7309884 0.5831986 -0.20313317
000050 d1 d6 19 be ff a2 4c be c6 6f 8c be 59 4d 1d 3d
       -0.15023352 -0.19984053 -0.27429026 0.038403843
000060 4f 85 4c bc 1f a4 00 bf f7 bc 46 3c 4f b6 bf 3e
       -0.012482955 -0.5025043 0.012130014 0.37443778
000070 0e 16 93 3e b6 4f 84 bc 15 6e 69 3e 95 7e 91 be
       0.28727764 -0.01615129 0.22795899 -0.28416887
000080 ed ea 22 be 04 7e f0 3e ac 43 d4 3e 23 d9 ef 3e
       -0.1590993 0.46971142 0.4145788 0.4684535
000090 89 7c 02 3e 01 6d 65 3e 12 d5 4f 3e 82 63 c8 be
       0.12742819 0.22404863 0.20296124 -0.39138418
0000a0 d9 4e 9c 3e 49 e9 94 3d fc de 38 3e c3 42 2f be
       0.30528906 0.07271058 0.18053812 -0.17115311
0000b0 9d 01 5d bd a7 68 ef be 55 77 a4 be 12 90 95 bd
       -0.053956617 -0.4675953 -0.32122293 -0.0730287
0000c0 d1 78 7f be 13 17 81 3e 94 67 08 3f bd 58 a5 be
       -0.24948432 0.25212917 0.5328305 -0.32294264
0000d0 2d c9 01 3b 73 cd b1 3e c6 c6 44 be 75 e6 b4 be
       0.0019803748 0.34727058 -0.19216451 -0.35332075
0000e0 df a4 f6 be 66 f2 23 bf 63 38 d3 be 48 f4 55 bf
       -0.48172662 -0.64041746 -0.41253957 -0.8357587
0000f0 bb cb 91 be 3b 3c 06 3f ae 7c a5 3d 0a f6 08 3e
       -0.28475747 0.52435654 0.080804214 0.13375106
000100 52 23 87 be 94 6e 5c be 94 81 5b bd ea df 3b 3e
       -0.26394135 -0.21526557 -0.053590372 0.18347135
000110 c0 70 51 3c b2 20 66 be 5e ef 76 be a8 f5 62 bd
       0.012783229 -0.2247341 -0.24114749 -0.055410057
000120 a4 ac 85 be 38 d8 86 be c4 35 57 be 78 b1 01 3e
       -0.26108277 -0.26336837 -0.21016604 0.12665355
000130 c0 01 2b 3c f9 da cf 3d b4 8b fe 3d a2 d2 d2 3e
       0.010437429 0.101491876 0.1242899 0.41176325
000140 39 c5 59 be 7e fc a9 3e e4 39 cf 3d fc 04 db 3d
       -0.2126664 0.3320045 0.10118464 0.1069431
000150 5b b4 9b 3d 10 cd 40 3e 2e 69 d7 3e e5 0f 9f 3e
       0.076027595 0.18828225 0.42072433 0.31066814
000160 95 6b 41 3d 42 b0 b4 3d bd de b0 be 16 f1 47 be
       0.04722174 0.08822681 -0.34544936 -0.1952556
000170 8b 9b f4 bd 24 9e 5c be 7e b6 88 3e a5 b1 89 be
       -0.1194373 -0.21544701 0.2670173 -0.26893345
000180 5c 6d ab bd 8e 3a 91 3e 83 d5 07 3e 06 33 a2 be
       -0.08370468 0.28364986 0.13265042 -0.31679553
000190 4b e8 78 3e c8 4f 5d bd e2 17 c7 be 33 c0 bc 3b
       0.24307363 -0.054031163 -0.3888541 0.0057602166
0001a0 87 62 5b be c7 ed 10 be 39 4a 12 be 33 71 23 be
       -0.21424304 -0.14153205 -0.14286126 -0.15961151
0001b0 5e 98 82 bd 90 6b d6 bb 51 3c c0 be ca 7f eb be
       -0.06376718 -0.006543584 -0.37546018 -0.45995933
0001c0 9e 44 00 be 36 c9 97 be 0c 68 48 be b4 7b 93 3e
       -0.12526175 -0.296457 -0.1957094 0.28805315
0001d0 0a 11 0d 3f d8 b0 f9 be 50 3b 80 3e 99 0f dc 3c
       0.55104125 -0.48767734 0.25045252 0.026862906
0001e0 c7 b8 dc 3c 25 0a 8e be 55 3b 83 bd 54 6c 95 3d
       0.026943577 -0.27742115 -0.06407801 0.072960526
0001f0 4b 80 a2 bd 63 bd 26 bc 0c 02 d1 3e 07 df 9f 3e
       -0.07934626 -0.010176989 0.40821874 0.31224844
000200 d9 32 b4 be f6 85 47 be 45 73 5e be 85 75 f6 3c
       -0.35195044 -0.19484696 -0.2172366 0.030085335
000210 3e a8 35 3f a9 6e da 3e 8c f4 7b bd 83 d3 4d 3f
       0.7095984 0.42662552 -0.061512515 0.80400866
000220 cc 89 88 3e 9c 65 95 be 6e 00 33 3e d1 ce f6 3e
       0.2666763 -0.29179084 0.17480633 0.48204663
000230 b2 d4 ab bd 22 c9 72 bd de 2d 3f 3d fd ad 07 3e
       -0.08390178 -0.059273846 0.0466746 0.13249965
000240 a5 c0 95 be 92 b5 0b be 54 bd 39 3e 30 02 50 be
       -0.2924854 -0.13643482 0.18138629 -0.20313334
000250 4e 8d 5f be c5 d6 93 3d 62 b1 5a be e5 be 8c bb
       -0.21831247 0.072186984 -0.21356729 -0.0042952173
000260 a1 fd cf 3e 60 e6 8e be e2 56 13 bd 52 64 4a bc
       0.4062319 -0.27910137 -0.03597153 -0.01235302
000270 82 ed 67 be 27 b5 1b 3e aa 25 e3 bd 1e 18 90 3e
       -0.22649196 0.15205823 -0.11091168 0.281434
000280 62 ca db bd 07 c4 10 3e 4a 8f b9 bd b7 ae c6 be
       -0.10731961 0.14137278 -0.09060533 -0.38805172
000290 37 8d 7d 3e 5c a6 10 3e c8 0b 27 bd 34 cf 36 be
       0.247609 0.14125961 -0.04078272 -0.17852479
0002a0 8c 21 89 3d 34 dc d1 b9 5c be d4 3e e1 b6 d7 bd
       0.06695852 -0.0004002765 0.41551483 -0.10532928
0002b0 df 30 3e be 61 71 f3 3d 68 89 9d 3d 00 71 74 be
       -0.1857333 0.1188686 0.07692224 -0.23871231
0002c0 58 d1 dc be 9c 09 8f 3e 4f a9 99 be 24 70 c9 be
       -0.43128467 0.2793702 -0.30011985 -0.3934337
0002d0 1a 9e e1 bd ab c8 8b 3e 84 46 a6 be 1d 5a 15 3f
       -0.110164836 0.27301535 -0.32475674 0.58340627
0002e0 0b 8b 9e 3e 79 21 96 bb bc 2d 84 3c 6a 58 22 be
       0.30965456 -0.004581627 0.01613509 -0.1585404
0002f0 9b 62 13 bf 38 d4 7e bd 29 2c 3b bf 4e da 79 be
       -0.57572335 -0.062214106 -0.7311426 -0.24399683
000300 a0 ff 0b be f1 68 11 3e a8 e8 c5 be 72 fc 13 3e
       -0.13671732 0.14200188 -0.38654065 0.14451769
000310 a4 ac d3 3d 01 5b a9 3d dd a9 8d be 88 ec ef be
       0.10335663 0.08269311 -0.27668658 -0.46860147
000320 f2 49 9b be ea 46 89 be b3 89 15 be 0b 69 02 3e
       -0.30329853 -0.26811916 -0.1460331 0.12735383
000330 42 67 97 3e d4 f2 b4 3d df b0 8d 3e 42 e7 e2 bd
       0.29570967 0.08835378 0.27674004 -0.11079265
000340 21 d4 e6 bc db 8f 1c bf 1c ee 5d bf d4 15 db be
       -0.028177323 -0.61157006 -0.8669145 -0.4279009
000350 45 38 7a be 26 49 85 be 44 28 4e be c5 7e 03 3f
       -0.24435528 -0.2603237 -0.20132548 0.5136531
000360 e6 11 cb bd d4 ee 68 3e 6d 59 03 be f6 3c 18 be
       -0.09915523 0.22747356 -0.12827082 -0.14867005
000370 3a 52 d6 be 3c 25 96 be 2e ad c7 bd 92 ab 1e bf
       -0.4185961 -0.29325283 -0.09749828 -0.61980546
000380 88 d7 31 be 31 0c 4e be 6b e7 6f 3e 0b ed 7e be
       -0.17367375 -0.20121838 0.23428123 -0.24895112
000390 d8 02 59 3e 33 2c 5c 3e a3 5f 54 3b d0 cb 11 bf
       0.21192491 0.21501236 0.0032405637 -0.5695162
0003a0 23 f4 c8 be cc d4 7c bd de 32 d4 be e2 18 27 be
       -0.39248762 -0.061726376 -0.4144506 -0.16318086
0003b0 2d 58 04 bd 9d 55 ff 3e 4f f9 c8 3d e7 12 8f bd
       -0.032310653 0.49870005 0.09813177 -0.06986027
0003c0 cb e8 8b 3e a6 b0 00 3e 99 b9 ec bd 3c 62 34 bf
       0.27326044 0.12567386 -0.115588374 -0.70462394
0003d0 58 e5 19 be 8a 3b 26 bf cb 59 e9 bd 5c 06 ac be
       -0.15028894 -0.649346 -0.1139408 -0.33598602
0003e0 f6 09 d3 3e 6c 90 2c be 9b c8 36 3e 0a 04 1a bd
       0.41218537 -0.16851968 0.17849962 -0.03760151
0003f0 5e 79 d4 bd 9d 83 2a be 53 f1 8c be 95 12 24 be
       -0.103747115 -0.16651769 -0.27527866 -0.16022713

network.0.bias f4 [256]
000000 fa 77 7f 3e 3d 1c 42 3e 4d 0b 8b bd d1 3a 54 bc
       0.24948111 0.18956085 -0.06789265 -0.012953476
000010 54 0d 5e 3e 80 37 79 3e 38 9b 95 bd 25 16 e6 bd
       0.21684772 0.24337578 -0.07304996 -0.112346925
000020 12 f2 5a 3d 11 96 16 39 23 1e a4 bc eb 38 57 3e
       0.053453512 0.00014361019 -0.020033902 0.21017806
000030 83 f2 1b 3e 36 18 7d be dd 06 fc 3c f6 43 db 3d
       0.1522923 -0.24716267 0.030764991 0.10706322
000040 a4 53 27 be c1 c7 71 3d 47 13 3e 3e 60 5d 87 3d
       -0.163405 0.05902839 0.18562041 0.06609607
000050 5e 07 81 3d e5 92 80 3e 45 b6 2f bc b0 ad 82 3e
       0.06300233 0.25112072 -0.010724609 0.25523138
000060 01 98 cc bd 11 64 81 be 62 a8 27 be 17 d5 05 be
       -0.0998993 -0.25271657 -0.16372827 -0.13069569
000070 75 96 e2 3d d0 b7 99 bd a4 3e 39 3e ca 03 c1 bc
       0.11063854 -0.075057626 0.18090302 -0.023561377
000080 2f 99 d5 3d df 16 23 be bd 82 ed bd 65 7e 86 3e
       0.10429608 -0.15926693 -0.11597202 0.26268306
000090 84 c6 c1 bd df 14 34 3e b0 58 1c be 7f 4e 87 3e
       -0.09461692 0.17586087 -0.15268207 0.26427075
0000a0 48 71 14 be d5 1c ab 3e 0f da 8c 3e 57 f1 8f be
       -0.14496338 0.33420435 0.27510116 -0.28113815
0000b0 d8 2b 7a 3e ee 77 3f be 5b 76 37 3e 55 83 98 3e
       0.24430788 -0.18698093 0.17916243 0.29787698
0000c0 ec 78 82 3e 77 a4 a7 be 7b c2 7d be 0f c2 0d 3e
       0.2548288 -0.32742664 -0.2478122 0.13843559
0000d0 99 fe 22 be 06 f2 21 bd 52 8f 3e be f6 c5 55 3e
       -0.15917434 -0.039537452 -0.1860936 0.20876297
0000e0 40 a7 95 3a d6 64 60 be c1 79 74 3e c6 08 4d 3e
       0.0011417642 -0.21913466 0.2387457 0.20022878
0000f0 d7 bd 45 3e b2 f5 fb bd eb 48 ce 37 bc 95 e2 bd
       0.193107 -0.12302722 2.4591069e-05 -0.11063716
000100 45 ab 2f be 8e 3e eb bd 40 b6 b7 bc 05 7d cf bc
       -0.17155178 -0.11486541 -0.02242577 -0.025328169
000110 69 01 ad ba 13 a7 8a be b3 92 92 3e 0b 94 32 bd
       -0.0013199273 -0.27080593 0.28627548 -0.043598216
000120 28 78 3d be ca 68 3f be a7 22 12 3e 60 12 96 be
       -0.18502867 -0.18692318 0.14271031 -0.29310894
000130 71 7f dd 3d 10 d3 65 3e 15 09 eb 3d 82 22 ae 3d
       0.10815323 0.22443795 0.11476342 0.085026756
000140 d0 c1 12 be 4e 9f 4a be bc 61 8c be 03 54 8c be
       -0.14331746 -0.19787332 -0.27418315 -0.27407846
000150 68 f8 3f 3e 89 4b 47 be 2e 0c 40 3d ef 83 91 3e
       0.18747103 -0.19462408 0.046886615 0.2842097
000160 72 fc 74 be 36 c0 81 be 00 2e 95 be 9b d6 39 be
       -0.23924425 -0.25341958 -0.29136658 -0.18148272
000170 91 eb 59 be fd c3 69 3c c0 c2 2c 3d 3e f9 97 3e
       -0.21281268 0.014267919 0.042177916 0.29682344
000180 8c 10 71 bd 74 6c 85 3d 36 33 a5 bc e3 59 10 3d
       -0.05885367 0.065148264 -0.02016602 0.035241973
000190 68 77 b5 bd 47 21 50 3d 8a d6 1d be 42 14 42 3c
       -0.088606656 0.050812986 -0.15413871 0.01184565
0001a0 9c d6 1d 3e c8 3a 7a 3e e0 c4 76 3d 9c 84 6c 3e
       0.15413898 0.24436486 0.06024635 0.23097461
0001b0 00 a5 51 be 0b 19 8a be 94 d3 85 be 6c 91 42 be
       -0.20473099 -0.2697223 -0.26137984 -0.19000787
0001c0 45 3c e2 3d 4e b8 bb 3c 19 36 80 3e cc e6 08 be
       0.11046652 0.022915032 0.25041273 -0.13369292
0001d0 de 6c 6b 3e d9 e5 84 be d5 44 8b 3e 00 32 a3 bc
       0.22990748 -0.2595661 0.27200952 -0.019921303
0001e0 f2 99 4b be 84 18 99 3d b8 5e 3b bd 11 0b c6 bd
       -0.19882944 0.07475379 -0.045744628 -0.096700795
0001f0 af 4c 06 3e 97 f0 48 3e c6 91 e2 bd 5c 3f 19 3e
       0.1311519 0.19623028 -0.1106296 0.14965576
000200 d2 1e f5 3d 03 99 b8 bc f4 54 0d bc 42 fd af 3d
       0.11968769 -0.0225339 -0.008626211 0.08593227
000210 10 0b a4 3d 98 89 0e 3e 6f 18 7c 3e 01 cf e7 3d
       0.080099225 0.13919675 0.24618696 0.1131878
000220 d9 6a 80 be 76 3e fd bd 0c 3b 97 be 04 6b 67 3e
       -0.25081518 -0.12365429 -0.29537237 0.22599417
000230 c2 49 80 3e a9 00 00 be 97 62 58 3e 53 ae a0 3e
       0.25056273 -0.12500252 0.21131359 0.31383
000240 50 99 91 be 25 f3 04 3e 5b ab 92 be a1 d8 0d 3e
       -0.2843728 0.12983377 -0.2864636 0.13852169
000250 80 9d 2e 3e b0 57 87 3e a3 bc f7 3d 78 7d a1 3e
       0.17052269 0.26434088 0.120965265 0.31541038
000260 24 dc 06 be 2f 3f 80 3e aa 46 44 be 42 db 8a 3e
       -0.13169914 0.25048205 -0.19167581 0.27120405
000270 d7 2c 71 3e 10 cf 01 3e bb b6 8b be 78 99 8c 3c
       0.23552261 0.12676644 -0.2728785 0.017163023
000280 af 70 36 3e f3 db 3d 3e 53 fb 85 3b 84 f3 90 3d
       0.17816423 0.18540935 0.004088798 0.07077697
000290 a6 4c 0e 3e 06 67 e0 bd c3 bd 68 3a b1 3d 89 3e
       0.13896427 -0.1095715 0.00088783744 0.2680488
0002a0 02 b3 46 3e 53 1d a5 3e 88 bf 70 3e 7f 21 69 be
       0.19404224 0.32248935 0.23510563 -0.22766684
0002b0 b0 7e 74 3e 1f b5 99 3d 5f 49 98 3d f9 e5 8c 3e
       0.23876452 0.07505249 0.074358694 0.27519205
0002c0 c0 8c 0d bd 82 6b 79 be 35 d3 04 bd bb 97 55 be
       -0.034558058 -0.24357417 -0.032427985 -0.20858662
0002d0 be db bd 3d 9f 3c 7f 3e 66 29 26 3e 02 42 79 bd
       0.09270428 0.24925469 0.1622673 -0.060853966
0002e0 b6 8c 97 bc a8 8e 07 3e 83 f9 75 3e 87 5f 99 3e
       -0.018499713 0.13238013 0.24020962 0.29955694
0002f0 09 b6 83 3e a8 cc 3c 3e dd 18 01 be 5e de 1e be
       0.2572482 0.18437445 -0.12607141 -0.15514514
000300 93 6b 89 bd 08 09 4a be 67 d8 9e 3d 5e 91 6b be
       -0.06709971 -0.19730008 0.07756119 -0.23004672
000310 db ff 55 3e 15 da cc 3d 90 be a3 bd e8 14 83 be
       0.20898382 0.10002533 -0.07995331 -0.25601888
000320 87 b3 88 be 50 47 1f 3d bf 5e 86 3e d5 a7 53 be
       -0.26699468 0.03888637 0.2624416 -0.20669492
000330 ee c4 af bd 89 c6 12 be ff 79 80 3e fd 9e e7 3c
       -0.08582483 -0.14333548 0.25093076 0.028274054
000340 88 20 77 be 2b 48 83 3e 0e 01 b9 3e a3 f0 7e be
       -0.24133503 0.25640997 0.36133617 -0.24896483
000350 36 b0 d7 3c 2f 17 72 3e 8c ae b2 bc 71 64 5e be
       0.026329141 0.23641656 -0.021811746 -0.21718003
000360 af a9 12 be ef 94 c8 3d be e6 1e 3e 62 1f 82 3c
       -0.14322542 0.09794032 0.15517709 0.015884105
000370 34 93 09 3e f4 b0 7c 3e d2 bd 8a be a7 99 16 be
       0.1343506 0.24676877 -0.27097946 -0.14707051
000380 81 e2 24 be 72 c2 76 be 42 0f 8f be 39 0b 80 3e
       -0.1610203 -0.24097613 -0.27941328 0.25008562
000390 7c 4d f2 bd 5d 23 b8 bc 87 f3 55 3d 53 ea f5 3d
       -0.11831185 -0.0224778 0.0522342 0.120075844
0003a0 b4 53 bb bd bc 91 66 be d6 4c 5d 3e b5 93 78 3e
       -0.091468245 -0.22516531 0.21611342 0.24275096
0003b0 9b 6d 09 be e8 bc 0a bd 09 d3 50 3e 68 07 1c bd
       -0.13420717 -0.03387156 0.20393004 -0.038093
0003c0 20 e2 97 be 6b 31 0a 3e 53 58 2a 3c 6a 14 31 be
       -0.29664707 0.13495414 0.010397035 -0.17292944
0003d0 ed e1 34 be 38 49 82 be c2 d4 62 be 0d 4d ae 3e
       -0.17664309 -0.25446486 -0.22151473 0.3404316
0003e0 4f eb 40 be d3 29 54 3e 8f 8b 38 3e 63 7b 81 be
       -0.18839763 0.2071908 0.18021987 -0.2528945
0003f0 dd 1a 14 3e a9 ae 65 be 46 b7 5a 3c ee f2 37 bd
       0.14463373 -0.22429909 0.01334936 -0.04490941

network.2.weight f4 [256, 256]
000000 59 f2 de 3c 97 e2 46 bd 89 59 00 3d 0a e4 1c 3d
       0.02721517 -0.048555937 0.031335387 0.038303412
000010 bb d2 3b bd 5e bb 4f bb 88 b1 44 3c 88 36 0a bd
       -0.045855265 -0.0031697373 0.012005217 -0.03374341
000020 9f 6b 14 3c 5c fb 40 bd 24 9a b4 bc 83 df 2e bd
       0.009058862 -0.047114715 -0.022046156 -0.042693626
000030 38 46 20 3d 28 c8 25 3c 94 d4 4c bd ee 4b c9 bc
       0.039129466 0.010118522 -0.050007418 -0.024572339
000040 41 b1 f5 bc 8a f8 32 3d 52 83 6a bc a8 aa 42 3d
       -0.029991748 0.043694057 -0.014313536 0.04752603
000050 5b 5e 73 bd a0 63 5e bc 15 02 32 bd 4c 4c 2e bd
       -0.059416156 -0.013573557 -0.043459017 -0.04255323
000060 97 41 98 3c 95 69 60 3c a8 fe ef bc 48 a9 2c 3c
       0.018585963 0.013697048 -0.029296234 0.010538407
000070 37 4c f6 bc 30 31 55 3c a2 ce d7 3c 29 bd b9 3c
       -0.030065639 0.0130122155 0.026343647 0.022673206
000080 bd 08 68 bc ba 6d 35 bd 09 95 55 bd 7d e1 11 bd
       -0.01416224 -0.044294097 -0.052144084 -0.035615433
000090 90 28 2d 3c 61 81 f3 3c c0 8b 8e 3a 1a 0b 33 ba
       0.010568753 0.029724779 0.0010875389 -0.00068299624
0000a0 d4 d1 20 bd b8 b2 e6 bc 5a cc 73 bc 94 85 39 bd
       -0.039262608 -0.028161392 -0.014880264 -0.045293406
0000b0 cc 03 14 3d be 3c 13 3d 11 dc f0 bc 8f e7 62 bd
       0.036136433 0.0359466 -0.02940181 -0.055396613
0000c0 bd cd 0d 3c c0 ca ab 3b df 9b d8 bc 80 c8 45 3d
       0.008655009 0.0052426755 -0.026441513 0.048286915
0000d0 9c 03 ad bc 51 d5 1a bd 54 d4 8e bd 2d 6c 37 3d
       -0.021119885 -0.03780109 -0.06974092 0.0447809
0000e0 29 e7 cc bc d0 68 e7 3c fb a6 ff ba a0 af ba 3c
       -0.02501257 0.02824822 -0.001950472 0.022788823
0000f0 e3 f8 72 bc 75 ff 42 3d 7e a8 66 bd 3c ed ef bc
       -0.014829847 0.047606904 -0.05631303 -0.029287927
000100 67 fa ad 3c d0 5f 90 3c e2 98 35 3d f0 66 e3 3c
       0.021237565 0.017623812 0.044335254 0.027759045
000110 ea 71 ca bc d0 34 63 3c 6e 95 02 3d 1a bc 58 3d
       -0.024712522 0.013867572 0.03188079 0.052913763
000120 10 f3 f7 bb 56 09 6c 3d 77 72 74 bb 30 9d b2 bb
       -0.007566817 0.05762609 -0.0037299672 -0.005450867
000130 ce 0d 94 3b 9c 1b 6f bd b6 de 66 bc 04 5e 24 bd
       0.004518247 -0.05837594 -0.014091184 -0.040128723
000140 cf b0 2b bd 1c fc e5 3c 4b cb 19 bd a0 04 6f bb
       -0.041916665 0.028074317 -0.03754739 -0.0036471263
000150 58 9c 84 3c 97 d4 27 bc d0 5d a0 3c 16 65 c0 bc
       0.016187832 -0.010243556 0.019575983 -0.023485702
000160 74 7d 69 3d d0 6e dc bb 16 51 15 bd 53 bb 8b bc
       0.057004407 -0.006727077 -0.036454283 -0.017057097
000170 33 29 97 bc 37 aa 86 bc a7 cf 6c bd 01 7b b2 bb
       -0.018452263 -0.016438587 -0.05781522 -0.005446792
000180 60 cd 24 bc fb d5 04 3d 0c 70 a0 bc e9 72 95 bc
       -0.010058731 0.03243063 -0.019584678 -0.01824327
000190 f3 fe 80 bd 93 4e 96 bc 21 6e 57 3d ca c0 8b bd
       -0.06298628 -0.018348014 0.05259526 -0.06823881
0001a0 84 08 36 3d fb 34 fd bc e0 c5 bf 3c 28 3c a0 3b
       0.044441715 -0.030909052 0.023409784 0.0048899837
0001b0 77 62 47 bc 5c 8c d1 3c e5 b9 7b bd e6 63 38 bd
       -0.012169472 0.025579624 -0.06145658 -0.045017146
0001c0 e4 c1 a8 bc 63 e8 99 bc 13 46 bd 3a 7e 1e a4 bc
       -0.020600267 -0.018787568 0.0014440439 -0.020034071
0001d0 55 3d 14 3d 10 71 1f 3c 85 bb 48 bc ae 46 1b 3d
       0.036191303 0.009731546 -0.012251739 0.037909202
0001e0 10 26 5e 3c 3b 01 45 3a 44 08 48 3d 96 31 60 3d
       0.0135588795 0.0007515137 0.048836008 0.05473479
0001f0 98 96 33 3d 17 39 53 3c b0 8d ba 3b 22 b2 17 3d
       0.04384479 0.012892029 0.00569316 0.037035115
000200 d5 d6 b7 3c e2 ca 02 3d d0 32 ec bc c6 85 fc 3c
       0.022441307 0.031931765 -0.028832823 0.030825507
000210 26 bc 67 bd 42 89 88 3b 5e 91 ca 3c c4 91 5b bd
       -0.056575917 0.004166753 0.02472752 -0.05360581
000220 76 f1 2e 3d a2 fc d1 39 c0 77 f1 3b a4 91 09 bd
       0.042710744 0.00040051813 0.0073690116 -0.03358616
000230 df 32 84 bd 99 e1 a9 3c 0e 85 16 bd 93 7d d6 3c
       -0.064550154 0.020737456 -0.036747985 0.026182925
000240 b8 7e 73 bd 30 0a 5a 3d ec 98 eb bc 87 31 9a 3b
       -0.05944702 0.05323237 -0.028759442 0.004705611
000250 ea bd e3 bc d5 e6 ad 3c d7 03 3c 3d f3 10 0f 3d
       -0.027800519 0.021228233 0.0459021 0.034928273
000260 d8 9d f2 bc ff b6 3b bd d1 cf 7c 3b 42 11 4a 3d
       -0.029616281 -0.045828816 0.0038576017 0.049332865
000270 de a2 c3 3c d3 b9 e6 bc bc 99 2b 3d a8 a6 6a bd
       0.023881372 -0.02816478 0.04189466 -0.057287842
000280 f8 25 5a bd 15 4a 3b 3c eb 68 18 bd 5b 52 80 bc
       -0.053258866 0.011431237 -0.037209433 -0.01566427
000290 2f 90 57 bd b7 86 41 3d 90 2b 52 bb 01 e9 37 3d
       -0.05262774 0.047247615 -0.0032069422 0.044899944
0002a0 64 4a a5 3c 18 39 bc 3c 90 dc b9 3c a2 c9 48 3d
       0.020177074 0.022976443 0.02268818 0.049020417
0002b0 30 c7 e8 bc 60 1d 34 bc 2b 5c 0d 3b 5f 8a c2 3c
       -0.028415293 -0.010993332 0.002156983 0.023747621
0002c0 54 52 d3 bc 52 1e 79 bd 87 6f 2f 3d 8e 4e 9f bb
       -0.025796093 -0.06081993 0.04283097 -0.0048616594
0002d0 f3 d4 cb 3a 5d d6 5c bd 86 30 26 3d 08 7e 10 bd
       0.0015551135 -0.05391537 0.04057362 -0.035276443
0002e0 ef 6d 02 bd fe e6 51 3c fd 53 e2 bc b3 5d 6e ba
       -0.031843122 0.0128114205 -0.02762794 -0.0009092942
0002f0 86 ba 3c 3d 3a 11 5e bc 4a 51 e2 bc 53 1e 32 bd
       0.04607632 -0.013553912 -0.027626652 -0.04348595
000300 b6 e7 ba 3b 20 d2 86 3c 62 4c e4 3c 4c 9b 7a 3d
       0.0057038916 0.016457617 0.027868453 0.06118326
000310 da fd 8e bd 71 a5 c5 bc f8 3e 53 bd f6 b6 6f bd
       -0.06982012 -0.02412674 -0.051573724 -0.058524095
000320 10 a2 8d bc 85 42 a5 3c 23 e4 0f bd 04 80 f4 bc
       -0.017289191 0.02017332 -0.035129678 -0.029846199
000330 b0 43 82 bb 16 f9 32 3d aa 58 46 3d f5 79 77 3c
       -0.003975354 0.043694578 0.0484244 0.01510476
000340 84 ad 83 bc f9 90 3f bd b9 fd 67 bd 45 3c 3f 3d
       -0.01607395 -0.046769116 -0.056638453 0.046688337
000350 d0 29 58 bd c4 0c 69 bb e5 be bf 3b 64 6b b8 bc
       -0.05277425 -0.0035560587 0.005851614 -0.022512145
000360 2e ae 88 bd 0f 8c 59 bd e1 72 9e 3c f4 ad 9a 3b
       -0.06673847 -0.053112086 0.019341888 0.004720444
000370 ba 39 9e 3c 18 ef 93 bd f3 f0 79 bc 38 9a 3c bd
       0.019314636 -0.07223338 -0.015255201 -0.046045512
000380 c8 a2 5d bc 40 37 5e 3c 7e 5c 6c 3d 48 19 e0 bc
       -0.01352758 0.013562977 0.057705395 -0.027355805
000390 c1 4f 3d 3c 69 64 49 3d 96 70 08 3d 77 e3 3c bd
       0.011554659 0.049168024 0.033310495 -0.046115365
0003a0 6c d6 ae bc e4 89 ae 3c 40 66 2b bc e9 d6 6d bc
       -0.021342479 0.021305986 -0.01046139 -0.014516571
0003b0 08 23 46 3d 2e 64 80 bc b8 8b 40 bd a7 e6 50 bd
       0.048373252 -0.01567277 -0.047008246 -0.051001217
0003c0 86 87 14 bd c8 39 b6 3c f5 d3 12 bd 78 c7 5e bd
       -0.036262058 0.02224435 -0.03584667 -0.054389447
0003d0 dd 4a 4b bd 16 ef 5a bd 60 74 a4 3c b4 0f 21 3d
       -0.049631942 -0.053450666 0.020075023 0.039321616
0003e0 ba da bb bc 2b a6 30 3d 65 76 e2 3c c7 f5 1f bd
       -0.022931445 0.04312722 0.027644346 -0.03905275
0003f0 90 fa 1a bc e0 43 1c 3b f2 92 50 bd c6 be 7b bd
       -0.009459153 0.0023844168 -0.050921388 -0.061461233

network.2.bias f4 [256]
000000 0d 6b 6b bc 72 b0 cb bc 23 b9 ba bc de c5 33 3b
       -0.014368785 -0.02486441 -0.022793358 0.002743117
000010 b7 43 f6 3c cb 84 4d bc cb 9b 5e 3d f9 99 28 bd
       0.030061586 -0.012543867 0.054347795 -0.041162465
000020 50 bb 73 bd a0 c8 aa bc 94 4b 69 bd 2f 9c ad 38
       -0.059504807 -0.020847619 -0.056956843 8.278374e-05
000030 58 d2 e4 3c f5 bf 90 3c d5 20 13 bd 26 74 39 bd
       0.027932331 0.017669657 -0.035919983 -0.045276783
000040 a0 e4 06 bb 45 d7 7f bd 64 b5 5b bb f3 a9 3e bd
       -0.0020583048 -0.062461156 -0.0033524865 -0.046548795
000050 a6 d9 25 bd 52 62 05 3d 90 5d a7 3d 6d 84 d2 bc
       -0.04049077 0.03256447 0.081721425 -0.025697911
000060 9a 95 33 bd 61 86 24 bd 5e 14 71 bd 24 0f 8b bd
       -0.043843843 -0.040167216 -0.058857314 -0.06789997
000070 cc ac b0 bc b2 98 3a 3c 20 e7 99 bc 72 9e 34 bd
       -0.021566771 0.011388944 -0.018786967 -0.044096418
000080 cf f4 3e bc ff 08 1c bd 82 1d 79 bd 90 94 ee 38
       -0.011655047 -0.038094517 -0.060819156 0.00011376396
000090 4a 46 f7 bc ba 2a 4a bd e5 0a b2 3c 2d c6 2e 3c
       -0.030184884 -0.049357153 0.02173371 0.010667366
0000a0 19 c6 37 3c 06 02 a4 3c 44 53 b3 bc d0 34 e4 3c
       0.011216664 0.020020496 -0.02189029 0.027857214
0000b0 fb a0 38 bd 62 b1 35 bd 3c c1 17 3d d0 57 4c bd
       -0.045075398 -0.04435862 0.037049517 -0.049888432
0000c0 ca c5 1d 3d 4d 4c 0f 3d e1 93 38 bd 18 b5 46 bc
       0.038518704 0.034984875 -0.045062903 -0.012128137
0000d0 45 8e 26 3d cc 23 a4 3c 87 91 3c bd 6d dc cd bc
       0.040663023 0.0200366 -0.046037223 -0.025129521
0000e0 98 f9 e4 bc 96 ef 07 bd 32 cb b6 3c 59 a9 28 3d
       -0.027951047 -0.03318747 0.022313688 0.041177128
0000f0 f8 0a 64 bd cf 35 01 bd fa 86 25 bd 2b 42 8b b9
       -0.055674523 -0.031545456 -0.040411927 -0.00026561445
000100 bb dc 38 bd 4b ae 1a 3d 76 71 3d bd be 44 2a 3d
       -0.04513238 0.037763875 -0.046250783 0.041569464
000110 28 2d ca bc 8f 18 ff 3c 01 b4 35 3d 47 7c 32 bd
       -0.024679735 0.03113964 0.04436112 -0.04357555
000120 5c 90 d7 bc d5 c3 3f 3b cd 8c 4f 3c 81 6f c7 bc
       -0.026313953 0.0029261012 0.012667847 -0.024345161
000130 e6 a7 85 ba d7 34 83 bd fe fa 37 bc ff 68 cc bc
       -0.0010197132 -0.06406563 -0.011229275 -0.02495241
000140 0d 24 a3 3c 2c 75 22 3c ff d0 31 3d 72 2d 3c bd
       0.019914651 0.009915631 0.043412205 -0.045941778
000150 ab f8 5f bb b8 9b 13 3d 6f f2 41 3d f0 41 8e bc
       -0.0034175317 0.036037177 0.047350343 -0.017365426
000160 fb dd 3e bd ba bd 23 bd 8b 48 33 bd ee a4 2c bd
       -0.046598416 -0.03997586 -0.043770354 -0.042149477
000170 ee 75 63 bd 52 96 62 bd e8 ec 69 bd b2 c4 8f 3a
       -0.05553239 -0.055319138 -0.057110697 0.0010968654
000180 4a 3d 22 3d a7 91 9f bc e4 d4 4a bd 36 ff 1f bd
       0.03960923 -0.019478632 -0.049519435 -0.039061747
000190 3b 6c 27 3d 02 de b4 ba 3d 04 bc 3b 73 9b 26 bd
       0.0408747 -0.0013799074 0.00573781 -0.04067559
0001a0 9b c1 4c 3d 88 30 56 bc 5f 8b 2d 3d d7 1a 4d bd
       0.049989324 -0.013073094 0.042369243 -0.050074425
0001b0 26 e1 17 bd a8 b4 13 3d f9 d3 83 3b 48 d4 96 3c
       -0.037079953 0.03606096 0.004023072 0.01841177
0001c0 ff cc 32 3d 58 c9 89 bd 45 fa 25 3d 51 87 fc 3c
       0.04365253 -0.067278564 0.04052188 0.030826243
0001d0 e9 78 7e 3c 41 06 94 bd cd db 09 3d 14 43 91 3c
       0.015531757 -0.07227755 0.033656884 0.01773218
0001e0 cf 45 1c 3c 24 df 3d 3c e8 1e 62 bd 76 8b bd 3b
       0.009538128 0.011588845 -0.055205256 0.0057844473
0001f0 b0 40 00 bd b2 38 76 3b 1b ca 29 bd a2 70 5d 3c
       -0.03131169 0.0037570414 -0.04145251 0.013515623
000200 68 f4 ea bc 4b 6a c5 bc 05 31 19 bd 23 eb 88 3a
       -0.028680995 -0.024098536 -0.037400264 0.0010446053
000210 77 ec 40 bd 43 d2 33 bb d2 60 f4 ba 70 4b 28 3c
       -0.04710051 -0.0027438558 -0.0018644577 0.010271892
000220 d1 70 bd bc 3b e9 69 3d 6f 1f de bc 2a 74 43 bc
       -0.023125084 0.05710719 -0.027114598 -0.011929551
000230 aa 80 5c 3d a9 e4 09 bc be 00 8e 3c 88 67 2b bd
       0.05383364 -0.008416333 0.017334338 -0.041846782
000240 0a f8 2b bd f9 c0 9b 39 50 7f 75 bd 44 45 8e bd
       -0.041984595 0.0002970768 -0.059935868 -0.06946805
000250 4f 20 30 bd ca aa 79 bd 58 7a 17 bd 6a 4c 27 bd
       -0.042999562 -0.060953893 -0.03698191 -0.04084436
000260 64 9e 47 bd 6a 98 81 3c 36 13 e2 bc 98 a9 6f 3c
       -0.048735037 0.015819747 -0.027597051 0.014627837
000270 35 89 d6 3c 3b bf 37 3d cb d9 e4 bc 26 04 69 3d
       0.026188472 0.044860106 -0.027935883 0.056888722
000280 08 bd 42 3c 11 91 05 bd ee 5c 7a 3a a2 c9 0a bd
       0.011885889 -0.03260905 0.0009550591 -0.0338837
000290 78 da e4 bb 94 35 a9 3b b9 a1 6a 3d d6 b8 9c 3c
       -0.0069840513 0.0051638577 0.057283137 0.019131105
0002a0 31 0b 68 3d b7 95 96 bc 46 f4 31 bb f4 cd fd bc
       0.056651298 -0.018381936 -0.0027153655 -0.030981995
0002b0 9c 0d 69 bd 62 55 62 bd 90 19 24 3c 2a e0 be bc
       -0.056897745 -0.05525721 0.01001586 -0.02330025
0002c0 f8 67 79 3c 00 14 d7 bc af 35 e4 3c c5 e3 52 3d
       0.015222542 -0.026254654 0.02785763 0.05148675
0002d0 db de 06 ba 40 ca 92 ba 31 1f cd bc a8 86 c6 bc
       -0.00051449024 -0.0011199191 -0.025039287 -0.024234131
0002e0 6d 19 94 3c ea 00 8c bc 5d 77 3f 3d 1d c3 3d 3d
       0.01807853 -0.01709028 0.046744693 0.046328653
0002f0 5c ab 30 bc 2e f9 76 bd a0 f8 22 3d 30 84 33 3d
       -0.010783043 -0.06029623 0.03978789 0.043827236
000300 bb d6 99 bd 91 dd 28 3d 70 82 1f 3d f0 8d 1e 3d
       -0.0751166 0.041226927 0.038942754 0.03870958
000310 00 b4 35 39 05 ae 9b 3b 28 6d 32 bd 45 9d 98 bc
       0.0001732856 0.0047509694 -0.04356113 -0.01862968
000320 f1 c7 37 bc 58 26 81 bd 05 29 10 3d 35 76 58 3d
       -0.011217103 -0.063061416 0.03519537 0.052847106
000330 a5 a5 24 3c c7 c4 29 bd ae 3f 3c bd c2 53 54 bd
       0.010049258 -0.041447427 -0.045959167 -0.05183769
000340 4a 80 73 3d 68 8f c3 bc 5e 2b 69 bd 8e b1 ef bc
       0.059448518 -0.023872092 -0.056926124 -0.02925947
000350 94 01 8e 3c 00 a9 f8 3c 90 51 dd bb aa 05 c1 bc
       0.017334737 0.030354023 -0.006754108 -0.023562271
000360 4b ca 78 b9 b7 1b ca bb b9 53 30 bd fc 39 b9 3b
       -0.00023726483 -0.0061678546 -0.043048594 0.005652664
000370 41 7d 8a bd 98 c3 88 bd 17 04 2a 3d ec e4 6d bd
       -0.067621715 -0.066779315 0.041507807 -0.058079645
000380 57 c0 80 bd 02 67 d4 3c f5 dd 88 bd fa d8 79 bc
       -0.06286686 0.025928024 -0.0668296 -0.015249485
000390 8e c3 b1 b8 b0 04 04 bd e8 f9 73 bd d4 20 a8 bb
       -8.4764426e-05 -0.032231033 -0.0595645 -0.0051308665
0003a0 20 de ee bc 72 3b 3e bd 6e 3c 44 3d 2e 2e 29 bd
       -0.029158652 -0.04644341 0.047909193 -0.041303806
0003b0 4a 8d 51 3d 5b da 99 3c fe e0 2a 3d d3 5e 27 3d
       0.051160134 0.018780878 0.041718476 0.040861916
0003c0 90 2e af 3c 58 c0 64 bd ef a6 68 3c fa 26 c0 bc
       0.021384507 -0.055847496 0.014199956 -0.023456085
0003d0 a4 f3 f5 bc c9 de 82 bb af 11 71 bd 57 7f 99 3c
       -0.030023403 -0.003993843 -0.058854755 0.018737478
0003e0 a7 83 be 3c a0 06 66 bc f2 02 74 bd a3 ac fb bc
       0.023256136 -0.014039665 -0.05957312 -0.030721968
0003f0 04 5a 75 bb 31 86 1f bd db c4 0e bc 47 e5 01 3d
       -0.0037437687 -0.038946334 -0.008713926 0.031712797

network.4.weight f4 [1, 256]
000000 af 8e 4c bc 62 38 62 bd 8f cb 3a bc 4f c6 28 bd
       -0.01248519 -0.055229552 -0.011401071 -0.041204747
000010 72 2e 46 bd 69 8a ca bc 86 65 3e bd ed 50 66 bb
       -0.048384137 -0.024724202 -0.04648354 -0.003514345
000020 0b dd 0f 3e c4 6c 5e 3d c0 ff 54 3d 22 09 82 3d
       0.14049165 0.054302946 0.052001715 0.06349398
000030 2a 06 37 3d df 21 1c bf a4 5d d6 3c 4e 1e 69 3d
       0.044683613 -0.60989183 0.026167698 0.056913666
000040 4b 9d a7 3d 19 b8 ed 3c 19 95 8d 3d 9a 77 15 bd
       0.08184298 0.029018449 0.06913204 -0.036491014
000050 80 38 23 3d 3e 89 ea bd 0f f3 5f 3e 1b 62 8c 3d
       0.039848804 -0.11451958 0.21870063 0.0685465
000060 7e 34 29 bd a7 c0 4c 3e 37 c5 d7 39 00 e9 2d 3d
       -0.041309826 0.19995366 0.00041154932 0.042458534
000070 49 42 58 3d 05 af eb bc 73 ed 96 3d f6 23 03 bd
       0.05279759 -0.02876998 0.073695086 -0.032016717
000080 32 12 de bc 56 3e bb 3d 97 b4 22 3e 38 53 f8 3c
       -0.027108286 0.09142749 0.15889202 0.03031312
000090 c9 1c 1b bd fb 4a 24 bc 20 47 c9 be b2 f3 0d 3c
       -0.03786925 -0.010027642 -0.39312077 0.0086640585
0000a0 c4 5a 22 3e 2d 66 2d 3e fe 03 8b bc f1 63 32 3d
       0.15854937 0.16933508 -0.016969677 0.043552343
0000b0 f5 01 b2 3d 53 22 bc be c4 8b f2 bc 5d 74 a0 3d
       0.086917795 -0.36744937 -0.029607661 0.078346945
0000c0 80 b2 96 3d 55 8d 1c bf 08 0e d2 bb ec c5 72 3d
       0.07358265 -0.61153156 -0.006410364 0.059270784
0000d0 ab db 8a 3d 41 03 c9 3c b5 42 ea bc 44 e4 c4 bc
       0.067801796 0.024537684 -0.028596262 -0.024034627
0000e0 90 7a 94 3b 15 20 75 bc 62 fd 0c bc 07 c5 f2 ba
       0.004531212 -0.014961262 -0.008605333 -0.0018521853
0000f0 44 de 9d 3c 2a 99 a8 bb a4 93 a7 bc 27 f3 ba bc
       0.019271024 -0.0051452117 -0.020456143 -0.022821022
000100 b5 fa 4f bd 6a fd 11 bd 3f e4 93 bc c0 f6 94 3b
       -0.050776202 -0.035642065 -0.018053172 0.0045460165
000110 f8 b1 d4 bc 9e 4a 8f 3d ba d2 52 bd 1b 45 47 bd
       -0.025963768 0.06996654 -0.051470496 -0.04864989
000120 10 27 fc 3b f3 95 18 3e 41 58 6c 3d 37 a1 5b bd
       0.0076950863 0.14900951 0.057701353 -0.053620543
000130 66 98 03 bd 86 5b 92 3b 90 11 af 3d e6 52 8e 3d
       -0.03212776 0.004466477 0.08548272 0.06949405
000140 4c c8 cd 3c e0 3c 77 bd d7 b1 df 3c 5d b4 61 3d
       0.025119923 -0.06036079 0.02730648 0.05510365
000150 f5 f9 03 bd 2a d1 16 3d 2d 3c cf bc a2 1b 04 bb
       -0.0322208 0.03682057 -0.025297249 -0.0020158072
000160 6d f6 17 ba 08 06 c1 3c 96 62 5b 3d f2 a8 60 3e
       -0.0005796913 0.023562446 0.053560816 0.21939448
000170 16 63 ed bc d2 a2 46 bd 88 76 5d 3d 67 6b 4d 3e
       -0.028977912 -0.04849512 0.05406812 0.20060502
000180 31 0f f3 ba 2b 06 d9 3c 60 77 28 bd c5 29 16 3d
       -0.0018543956 0.026492199 -0.04112947 0.03666093
000190 40 13 5f 3d 9f 68 b2 3c ea a6 3c 3d da 00 89 3d
       0.054461718 0.021778403 0.04605762 0.066896155
0001a0 e9 3f c1 bc b8 7e 27 3d 12 32 2b bd b5 c4 8a bc
       -0.023590045 0.040892333 -0.041795798 -0.0169395
0001b0 43 ce 9e 3d 78 d4 0e 3e c1 8f 39 3e 70 45 9b bc
       0.07754185 0.13948238 0.18121244 -0.018954009
0001c0 f5 45 06 39 12 d4 62 3d 52 0d 38 3c 82 ff 16 bd
       0.00012805297 0.055378027 0.011233645 -0.036864765
0001d0 64 d8 99 3d 47 59 9f 3d d4 ea d2 3c d8 29 7a bd
       0.07511976 0.077807 0.02574674 -0.06107506
0001e0 d2 3f 09 bd 05 44 0d bd 5a 13 c7 3b 19 b8 1c bc
       -0.03350813 -0.034488697 0.006075305 -0.009565377
0001f0 f6 e5 3c 3d c0 3d 63 bd d2 08 da 3d be 6a 2b bd
       0.046117745 -0.05547881 0.106462136 -0.041849844
000200 3c 2f c1 bc f5 52 07 bd cb 10 59 bd 25 b7 3c 3d
       -0.023582093 -0.0330381 -0.05299453 0.046073098
000210 de 38 a6 3d ec bd ed bc 3c 2a 10 bd 26 ba 6c 3d
       0.08116315 -0.029021226 -0.035196528 0.057794712
000220 12 eb 30 bd 52 3f 06 be 1d 15 97 3d d9 16 49 bc
       -0.04319293 -0.13110092 0.07377074 -0.012273514
000230 68 01 f9 bc 15 4d 21 bf 33 3f 54 bd 3b 9b 45 3e
       -0.030396178 -0.6300824 -0.051818084 0.19297497
000240 55 90 1c bd 5c bd 27 bd 7f ca 24 bd c9 a6 56 bc
       -0.038223583 -0.04095207 -0.040232178 -0.013101288
000250 a2 ba 16 bc 5a e2 1a bd 0b 7e 8a 3b 57 ff 2a bd
       -0.00919977 -0.037813522 0.0042264513 -0.041747417
000260 6c c3 9b 3d 7e 25 81 3d f4 cd 51 3e 8e 72 f3 3c
       0.07605633 0.06305979 0.20488721 0.02971771
000270 ee 05 9d 3d e9 fa 8c ba 2e 8f 58 be 4c b5 99 3c
       0.076671466 -0.0010755929 -0.21148369 0.018763207
000280 9f e7 24 3d 5a ed 28 3d 01 a3 18 be c7 3f 45 bd
       0.040259954 0.04124198 -0.14905931 -0.048156526
000290 35 de 10 bd b9 ae 5a bd 04 64 1b bd 6d 77 55 3d
       -0.035368163 -0.053389285 -0.03793718 0.052115846
0002a0 fe ac b4 be d5 fb 66 3e 66 6d 4d bd aa 94 35 bf
       -0.35288233 0.22557004 -0.05015316 -0.7092997
0002b0 57 bd 13 3e 91 c0 ba bc 89 1a 3e bc 1e 67 57 bd
       0.14427696 -0.022796901 -0.011603006 -0.052588575
0002c0 0b 9a 89 3d 23 7f fb bc 68 93 cb 3c bc 46 9c 3c
       0.067188345 -0.030700272 0.024850562 0.019076698
0002d0 ff 25 ff bc f4 10 3a bd d4 0a d2 3b 9a 48 cd 3d
       -0.031146048 -0.045426324 0.006409982 0.10023613
0002e0 94 db ad bc 39 88 32 3e 4a 91 f4 bc 58 4e ef bc
       -0.021222867 0.17434777 -0.029854435 -0.029212162
0002f0 c6 43 09 3d 42 b5 70 bd 57 35 a9 bb 16 05 57 3d
       0.0335119 -0.05876661 -0.0051638293 0.052495085
000300 c8 4d 69 3d 04 62 fa bc 1a 07 42 3e 0e e0 e2 3c
       0.056958944 -0.030564316 0.18948022 0.027694728
000310 10 1b 9b 3b cf 1b fa bc c9 d9 96 3d 32 96 f8 bc
       0.0047334507 -0.030530838 0.07365758 -0.030345056
000320 f7 f3 37 bd 09 a7 91 3d ff 03 6a bd b5 89 34 bd
       -0.044910397 0.071119376 -0.057132717 -0.04407664
000330 bf de 0d bd 6d 28 24 3e 13 73 63 3d 5c 3f ac 3d
       -0.034636255 0.16031046 0.055529665 0.08410522
000340 14 85 24 3e 2e c3 7b bd 9b e6 a5 bc 1c 90 b2 3d
       0.1606639 -0.061465435 -0.020251563 0.08718893
000350 6f 6b 4e bc 3c 3f 9f bb 7e 70 6b bd c7 be 1e bc
       -0.012598856 -0.004859833 -0.057480328 -0.00968904
000360 cd f6 bf be 4c 05 dc bc 40 76 60 bc 83 db 9d 3d
       -0.37492982 -0.026857994 -0.013700068 0.07707884
000370 aa 98 d2 3c f8 99 b7 3d fe 6c 16 bd 30 e8 8d bc
       0.025707562 0.08964914 -0.036725037 -0.01732263
000380 8d 0a 0a bb 08 6a 0c be 78 c0 7a 3d eb 81 d2 bc
       -0.0021063418 -0.13712323 0.06121871 -0.025696715
000390 59 7c 79 be 52 f6 57 3d 08 dd 63 3d 95 37 85 3d
       -0.24363841 0.052725144 0.055630714 0.06504742
0003a0 34 1e 4a bd 4d 76 4d 3d 1f 3e c5 3b a2 54 10 bd
       -0.04934521 0.05016165 0.0060193683 -0.035236962
0003b0 de 70 d8 3b 53 f6 52 bd ca c4 38 bd 7c 67 42 3d
       0.0066052517 -0.051504444 -0.045109548 0.04746197
0003c0 00 69 9a 3d c3 64 16 bc 74 be 02 be 43 41 31 bd
       0.075395584 -0.009179297 -0.12767965 -0.04327513
0003d0 d8 07 11 3c 83 e9 2f bf 71 25 cb 3a 4c 32 31 bd
       0.008851968 -0.68715686 0.0015498829 -0.043260857
0003e0 df ec 54 bd eb 8f 3d bd 48 47 dd 3c 09 47 96 3d
       -0.05198371 -0.04627983 0.027011529 0.07337768
0003f0 e0 81 7e 3d ce 3f 22 3e bb 16 0d 3e 96 07 56 bd
       0.062135577 0.15844652 0.13778202 -0.05225333
