Training/Model/model_multidqn03.pt (torch, 162291 bytes, 42 tensors)

weight f4 [64, 10]
000000 76 7e cc 3e b5 2f 10 3f f2 89 2c 3e bd c6 fb 3e
       0.39940232 0.56322795 0.16849497 0.49175063
000010 ee c9 e9 be 67 45 f1 be bb 46 e2 bd ee 7c 93 3f
       -0.45661873 -0.47123262 -0.11048647 1.15225
000020 60 3a f9 be d4 80 85 bf 80 09 9c 3f 71 ac f6 be
       -0.4867735 -1.042994 1.2190399 -0.48178437
000030 5b ed af 3f 51 3b eb 3e d8 29 87 3e 8c c0 7d bd
       1.374431 0.45943692 0.26399112 -0.061951205
000040 7b 92 46 3e a8 46 9f 3e 78 7b d7 be 19 e7 80 3e
       0.19391815 0.31108594 -0.42086387 0.25176314
000050 4f b2 52 be b6 1e 58 3f 45 f3 ab 3f 0e ab 0a 3f
       -0.20575832 0.8442186 1.3433615 0.5416726
000060 b4 32 bd be e3 c3 f2 be 8d 04 25 3f a8 c9 19 3d
       -0.36952746 -0.47415075 0.6446007 0.03754583
000070 4e 33 84 bd 8c b1 4a 3f 12 aa 23 3e 89 54 a9 bd
       -0.06455098 0.79177165 0.15982845 -0.08268077
000080 81 34 55 bf 99 59 01 3f 51 52 a0 3e 76 e1 06 bf
       -0.8328324 0.5052734 0.31312802 -0.52687776
000090 83 32 04 3f 81 1b 5c bd d9 7f a3 bf c0 b9 9e 3f
       0.51639575 -0.053737167 -1.2773391 1.2400436
0000a0 b8 87 10 bf 46 b7 51 3f 99 7b ec 3e e4 55 0a 3f
       -0.5645709 0.8192028 0.46188048 0.5403731
0000b0 fa f8 45 3f ac 1b be 3f a1 c2 d1 3d 9a 46 dc 3e
       0.77333033 1.4852195 0.10242201 0.43022615
0000c0 6b 7b 26 bf 39 ad 98 3d bf 14 52 3c 8a d1 7d bf
       -0.6503207 0.074549146 0.012822329 -0.99147856
0000d0 55 e3 1f be 0e 9f 3e bf 8c 0e 0d 3f d8 03 4a bf
       -0.15614064 -0.7446145 0.5510032 -0.78912115
0000e0 7d 7a c7 bd 32 eb c2 3e ca f6 76 3f d9 06 03 bf
       -0.0974016 0.38070065 0.9647032 -0.51182324
0000f0 5e bb 4f bf cb 46 8e bf d8 68 22 bf dd 31 04 c0
       -0.81145275 -1.1115354 -0.6344123 -2.0655434
000100 28 2e 69 3f 71 0a bb bd 74 88 2d 3e 0c 2f 2c 3f
       0.91086054 -0.09132851 0.16946584 0.6725929
000110 b5 e3 c0 be 4f 8a d7 3e 80 49 84 3f b1 91 4e bf
       -0.37673727 0.4209771 1.033493 -0.8069106
000120 90 95 3b 3f 48 df d5 be af 91 af 3e 36 f6 97 3e
       0.7327509 -0.41771913 0.34290835 0.29680032
000130 43 ea 12 bf ab 48 fd 3e 9f 12 9b bf d0 c7 b8 3e
       -0.57388705 0.49469504 -1.2115058 0.36089945
000140 cc a5 95 3f 0c a4 7c 3e 31 35 ea 3e 29 3c df be
       1.1691222 0.24671954 0.45743707 -0.43600586
000150 6b 3d 00 be 34 8d 1e 3f 4f b2 97 3d ef 51 86 bd
       -0.12523429 0.6193421 0.074070565 -0.06558596
000160 cc 7e 00 3f 22 25 33 3f a5 ad db 3e bc 6b 1b 3f
       0.50193477 0.69978535 0.42905918 0.60711265
000170 07 ca 29 3f 4f 33 39 3f fd d9 15 be ac c2 86 be
       0.66323894 0.72343916 -0.14633937 -0.26320398
000180 be e4 fb be db c5 93 3e 84 ec 2d bf 43 c1 9f bf
       -0.49197954 0.2886189 -0.6793902 -1.2480854
000190 3b 9c 55 3f e7 4e b5 3f e5 24 96 3f f1 f4 2b 3f
       0.83441514 1.4164704 1.1730009 0.67170626
0001a0 5f 53 83 be f1 4f db be 95 10 e1 be 15 2e 86 3f
       -0.25649545 -0.42834428 -0.43957964 1.0482813
0001b0 41 6b 4c bf a3 b9 ba be d3 09 22 3d 8f ad 44 3e
       -0.79851156 -0.36469755 0.03956015 0.19206832
0001c0 95 27 4f bf 1c 5f 57 bd dc 26 b6 3f 87 a3 f9 3e
       -0.8091977 -0.052580938 1.4230609 0.48757574
0001d0 27 ce 3b 3f d4 d0 59 3e a4 60 79 be 00 a3 38 bf
       0.7336144 0.21271068 -0.24353272 -0.7212372
0001e0 94 2f bd be 2a e7 b8 3f ab d5 b6 bf cd 48 fb 3e
       -0.36950362 1.4445546 -1.4283956 0.4907898
0001f0 be 53 87 bf 49 77 31 3e e3 0e d7 3e c3 c0 bd 3d
       -1.0572431 0.1733066 0.42003545 0.09265282
000200 ba 2f 91 be ba a9 75 3e 87 51 77 bf 74 84 2a 3f
       -0.28356725 0.23990527 -0.96608776 0.6660836
000210 c6 5e 2a bf 04 e6 f6 3e f6 57 19 bf 81 90 3d bf
       -0.6655086 0.48222363 -0.5989984 -0.7404862
000220 b2 34 9c 3d 81 9d 4a 3e 76 c5 98 bd e1 bf f1 3e
       0.07627238 0.19786645 -0.07459538 0.47216704
000230 de 0e 10 3e 7f 6f c1 3f 41 6e 96 bf a0 37 01 3e
       0.14068171 1.5112151 -1.1752397 0.12618876
000240 ed cf 40 3e b2 9d 7d 3f f2 9f d2 be 96 24 70 bf
       0.18829317 0.9906875 -0.41137654 -0.93805826
000250 92 90 f5 be ae d7 23 3f 59 92 b7 be a2 1f 30 3d
       -0.4796186 0.64000976 -0.35853842 0.042998917
000260 8d 45 71 bf 67 97 d0 bf 50 ab 64 be 2d f8 4a bf
       -0.9424675 -1.6296204 -0.22330976 -0.79284936
000270 74 94 24 be 38 a9 44 bd 35 3c d7 bd 48 1b f6 be
       -0.16072255 -0.048012942 -0.105095305 -0.4806769
000280 bc 4d ca 3e 10 fd bf 3f fd b6 af 3f 49 a8 d2 3e
       0.39512432 1.4999104 1.3727719 0.41144016
000290 74 7a e3 bf 63 10 bd 3d 58 d7 c8 3d 0f 4b 01 3d
       -1.7771745 0.09231641 0.098066986 0.031565722
0002a0 57 61 32 bd 94 8b 85 3e 09 13 0a 3e d6 e9 4b 3f
       -0.04354986 0.26083052 0.13483824 0.7965368
0002b0 54 ad 73 3f c0 2a b1 bd ae e5 50 be 4b 90 03 be
       0.9518635 -0.08650732 -0.20400116 -0.12848012
0002c0 f2 8f 0b bf fc 6a 93 bf 5c 7b ae be 79 9e 7e bf
       -0.5451652 -1.1517024 -0.3407849 -0.9946056
0002d0 c9 a3 3d bf fc 24 f8 be 56 47 de 3c f7 1e 3e 3e
       -0.7407804 -0.48465717 0.027133625 0.185665
0002e0 b8 58 e6 3d 93 63 30 3f 15 62 53 3f 5d 5a 6d be
       0.112473905 0.6890194 0.82571536 -0.23179002
0002f0 52 99 42 bf e9 7d be 3f 53 c4 ce be 68 5c 3b 3f
       -0.760152 1.4882175 -0.40384158 0.73187876
000300 f6 b7 d6 3f e2 55 10 bf 0b f8 f7 be 3c 13 a8 bd
       1.677489 -0.56381047 -0.4843143 -0.08206794
000310 e4 f7 81 3e 7a 10 53 be 0b 97 c0 3e 50 98 d0 bf
       0.25384438 -0.20611754 0.37615237 -1.6296482
000320 72 7d 81 3e da e0 0e be 4f 05 ec bf 0b 9c f1 be
       0.2529102 -0.13952962 -1.843912 -0.47189364
000330 d5 65 f6 be 33 bc f5 3c de df f3 3d fb dc 9f bd
       -0.48124567 0.029996967 0.11907934 -0.078058206
000340 ab 17 d2 3e 46 f1 cd 3e ad 80 59 3f 64 50 be 3e
       0.41033682 0.4022314 0.8496197 0.37170708
000350 63 e4 b8 3e ef 85 27 bf 57 7a 93 3f 07 d9 17 3f
       0.36111745 -0.6543874 1.152171 0.5931553
000360 3a 96 62 3e 61 c9 25 bf af 06 82 bf 6e cb 24 3f
       0.2212762 -0.64760405 -1.015829 0.6437291
000370 0b 0c a4 3e 1b 74 52 3e 09 6f 7a 3f a1 4b c5 3e
       0.32040438 0.20552103 0.97825676 0.38534263
000380 c7 99 43 bf 87 03 e9 be 27 b5 4e bf 0e 7f cf be
       -0.7640652 -0.45510504 -0.80745167 -0.40526623
000390 7e 57 46 3e dc fe 8d bd f2 ba be be cc 62 46 bf
       0.19369313 -0.06933376 -0.37252003 -0.774945
0003a0 54 6b a5 be 5b 37 8a 3f 08 38 a2 be 26 74 78 bf
       -0.32308447 1.0798143 -0.31683373 -0.9705223
0003b0 c5 35 8e 3e e3 7c a0 bd 60 7e 13 bf 98 18 96 be
       0.27775398 -0.0783632 -0.5761471 -0.2931564
0003c0 57 d9 20 3f 96 13 27 3f 90 bc 67 3f 2a 01 c3 3e
       0.62831634 0.6526426 0.905221 0.38086826
0003d0 41 fc 11 3e b5 ec db 3b 64 6c 05 bf ae e7 42 3e
       0.14256383 0.0067115673 -0.52118516 0.19033691
0003e0 a6 ca c8 3d 5e af 61 3f 1a fe 21 be 99 82 7d bf
       0.09804277 0.88158214 -0.15819588 -0.990274
0003f0 2f 80 c4 3f 87 81 b6 3e 74 fc 1a bf 51 b5 c1 bd
       1.5351619 0.35645697 -0.6054146 -0.094584115

bias f4 [64]
000000 21 3a 86 be f2 85 d0 3d 8b e3 13 3c b5 6a cb 3e
       -0.26216224 0.10181798 0.009026418 0.39729849
000010 8a f4 e5 bc 1b 75 d2 3e 56 87 00 bf ed e4 a5 be
       -0.028070707 0.4110497 -0.50206506 -0.3240122
000020 7e ee ff 3c ba 86 2c 3e 51 e5 de be 7d 54 7a bf
       0.031241652 0.16848269 -0.4353433 -0.9778517
000030 e2 0a 0c bf 00 ad 36 bf 1a 8e a1 be 1f c9 19 bf
       -0.54704106 -0.7135773 -0.31553727 -0.6007251
000040 8e 1f 55 bf 5d 72 8c 3c 46 9c 66 be ef 01 72 3e
       -0.83251274 0.017144376 -0.22520551 0.2363355
000050 8c 38 36 be 79 0e ad be bd 83 85 be 60 71 0c bf
       -0.17795008 -0.33800104 -0.2607707 -0.54860497
000060 02 3a dc bd 4c c5 c0 be cd 53 93 bd 3a cf 56 bf
       -0.107532516 -0.37650526 -0.07193718 -0.8390995
000070 33 0c c0 be ae e6 2a bf d1 1b 17 be d7 b9 75 be
       -0.37509307 -0.6675824 -0.14756705 -0.23996674
000080 16 9f 6f be 7b f4 e8 3c 40 5e b1 be 53 e0 fa be
       -0.2340053 0.02843689 -0.3464222 -0.4899927
000090 05 5d dc be c3 19 fb 3e b0 43 c2 be 2e 8b 9a be
       -0.43039718 0.49043092 -0.37942266 -0.3018431
0000a0 f6 86 0f bf fd 9e 52 bf 56 65 ca be 69 ad ef bc
       -0.5606531 -0.82273847 -0.39530438 -0.029257493
0000b0 40 38 8a be 82 36 31 3d 2e f9 b2 be e1 24 ab be
       -0.2699604 0.043264873 -0.34955734 -0.33426574
0000c0 e1 6e 51 be 42 50 e2 bd 8f a8 78 bd 14 55 e0 be
       -0.20452453 -0.11050464 -0.060707625 -0.4381491
0000d0 2a 89 56 be 5b a7 04 bf af ef 14 bf a4 02 59 bf
       -0.20950761 -0.51817864 -0.5817823 -0.84769654
0000e0 b3 41 22 bf af 9d 29 bf 38 fc 41 be 6d bc fa be
       -0.633815 -0.6625623 -0.1894387 -0.48971882
0000f0 73 12 25 be 7e 77 1d 3e 91 ac 9d be 45 3b b4 3d
       -0.16120319 0.15377614 -0.3079572 0.08800367

weight f4 [64, 64]
000000 9f 30 46 bd c7 ea db bd 97 08 37 3d f0 3b 61 bd
       -0.048386212 -0.107381396 0.044685926 -0.0549888
000010 4c 8e 0d be b5 8a 30 be 12 83 25 bd 01 ce 8d bd
       -0.13823813 -0.17240413 -0.0404082 -0.06924058
000020 e9 64 0a be 9b fe 3c bd fd 90 a6 3d 40 57 18 3c
       -0.13515057 -0.04614125 0.08133123 0.009298146
000030 47 44 9a bc 59 75 6b bd d9 ce 2e 3c 1f 1a 07 bd
       -0.018831385 -0.05748496 0.0106694335 -0.032983895
000040 e5 80 1e 3d b3 e4 61 3d a0 c6 c5 bd 95 33 83 bd
       0.038697142 0.055149745 -0.09657025 -0.06406323
000050 a3 dd c0 bc 37 37 40 3d 36 89 e2 bd bb 2b e9 bc
       -0.023543185 0.046927657 -0.11061327 -0.028463235
000060 bd 8b e5 bc 98 75 43 bd 88 94 1d be 56 c3 53 bd
       -0.028020734 -0.047719568 -0.15388691 -0.05169996
000070 7f cf 03 3e 33 1b b6 bc 58 20 26 bd 52 41 47 bd
       0.12872122 -0.022229766 -0.04055819 -0.04864628
000080 26 58 6f bd f0 51 77 3b 23 51 81 3d 41 7b 0d be
       -0.058433674 0.0037738048 0.06314304 -0.13816549
000090 80 ed e8 3b a1 a7 b7 bd 88 d9 57 3d 79 3b 43 bd
       0.0071083903 -0.089675196 0.05269769 -0.04766414
0000a0 95 97 bd 39 1c 2d e9 bd 70 1d 20 bc 10 ec 02 be
       0.00036161827 -0.11385557 -0.009772643 -0.12785363
0000b0 6d 20 a3 bd 24 21 6e 3d c1 8a e3 bc f1 86 02 be
       -0.07965169 0.058137074 -0.027776124 -0.12746789
0000c0 f7 99 c6 3c 0d 4c c3 bd f1 9c 9e bd fe 66 c0 3d
       0.024243338 -0.0953599 -0.07744778 0.09394644
0000d0 81 95 1f be 55 f6 0d bd 8f d5 cf bd ec 3b 92 3d
       -0.15584375 -0.03465875 -0.10148155 0.071403354
0000e0 9b 36 24 be 8b b4 10 be 19 b3 b3 bc aa 53 b0 bd
       -0.16036455 -0.14131372 -0.021935986 -0.08609708
0000f0 db 30 d1 bd 99 70 32 3c 77 09 f3 bd 71 9f 35 be
       -0.102143966 0.010891103 -0.1186704 -0.17736603
000100 04 b8 55 bf e1 f9 1c bf 36 6f 0c bf 26 82 d2 be
       -0.8348391 -0.61318785 -0.54857194 -0.4111492
000110 df 9d 39 3f 86 21 2b 3e f8 43 c8 bd 7d 7c 82 be
       0.7250652 0.16712007 -0.09778589 -0.25485602
000120 dd 08 90 bf 9f 7b bd bd ab a3 52 3e fa 66 1f bf
       -1.1252705 -0.092520945 0.20570247 -0.62266505
000130 5c 65 e4 bd 56 58 0d bf a8 2f 38 bd dd 5d 72 3e
       -0.11152145 -0.55212915 -0.044967324 0.23668619
000140 fc 9a 42 bf b2 fb 0d c0 2f 9b c1 bf 29 db 5b be
       -0.7601774 -2.2184873 -1.5125483 -0.21470322
000150 77 c3 a2 3e 7e c8 32 3f 48 f9 a6 3d fa 63 47 3e
       0.31789753 0.69837177 0.081530154 0.19471732
000160 cc 59 5b bf cd 92 c6 3e 92 3d a5 3e 04 bf d1 bf
       -0.85683894 0.38783875 0.32273537 -1.6386418
000170 68 57 8e bf 4e dd 9b bf 63 b3 d8 bd e9 00 59 3d
       -1.1120424 -1.2176912 -0.1058109 0.052979384
000180 da cd 78 bf e6 93 61 bf 22 4c de bf ca 89 3a 3e
       -0.97189105 -0.881163 -1.7366984 0.18216625
000190 c4 17 8a bd 75 15 26 bf e5 2e d2 bf c6 79 a8 3e
       -0.06742814 -0.6487649 -1.6420561 0.32905406
0001a0 5a 5e 40 bf f4 3e c3 be 62 5f 25 bf c6 9f 3a bf
       -0.7514397 -0.38133967 -0.6459867 -0.72900045
0001b0 e7 c6 04 bf e1 71 9c be 89 2b 91 bf 5e a8 55 bf
       -0.51866 -0.30555633 -1.1341411 -0.8346003
0001c0 c9 34 4e be cf 65 92 bd 97 d8 2c be 5b bc 35 bf
       -0.20137323 -0.07148325 -0.16879497 -0.7099053
0001d0 0e 4f 02 3f 4d 59 16 3e 2c 03 c5 3e 88 fd ec be
       0.5090188 0.14682503 0.38478982 -0.4628718
0001e0 83 ce 04 3e 0e 19 9e bb b5 19 ea bf 06 b7 a7 3e
       0.12969403 -0.004824764 -1.8289095 0.32756823
0001f0 7f 81 29 bf dc e8 2d bf 5e 3d 0c 3f f2 74 9f bf
       -0.6621322 -0.6793344 0.5478114 -1.2457564
000200 a1 df 43 bf 02 9c 64 bf 94 0c c6 3e a2 69 41 3d
       -0.76513106 -0.8930055 0.3868147 0.04721988
000210 4f b5 ad be e6 04 36 3e 95 f2 c2 be 7b 3f 4e be
       -0.3392739 0.17775306 -0.380757 -0.20141403
000220 5d 8a 4d 3e 25 a4 f8 bd e0 1a e6 bc 5c 2b 26 bf
       0.20072313 -0.12140683 -0.028088987 -0.6490991
000230 5a 0f f0 be ca f2 1b be 94 76 02 bf cc fd e9 bd
       -0.46886712 -0.15229335 -0.50962186 -0.11425361
000240 9a cd 34 bf 3e 4f 82 3d 6c fa 57 bf 9c 12 7a 3e
       -0.70626223 0.063627705 -0.8436649 0.24421161
000250 49 ce e3 bc 27 d6 9d bf 68 88 f3 be 78 ae fc 3e
       -0.027808325 -1.2330979 -0.47565007 0.4935186
000260 74 e0 cc bc fe 44 18 be 13 a9 5d bf 6b c8 84 3e
       -0.025009371 -0.14870068 -0.8658611 0.25934157
000270 c2 15 5e 3e 1e 62 53 3f 03 58 10 3e 51 95 6d 3e
       0.21687987 0.8257159 0.14096074 0.23201491
000280 f8 c9 7b be c0 59 b1 3e ec ce e8 3e ff 98 4f 3e
       -0.24588764 0.34638786 0.4547037 0.20273207
000290 73 96 0a 3e e2 83 30 bf fd ea ae bd 91 b9 b1 be
       0.13533954 -0.6895124 -0.08540914 -0.34711888
0002a0 f4 8a 75 bf 2b e6 1e bf 36 6b 9c bd bf 14 de be
       -0.9591515 -0.6206996 -0.07637636 -0.43375203
0002b0 2f fc 33 bf ff 36 94 3e 42 c7 94 bf 61 7f 8e bf
       -0.70306677 0.2894821 -1.1623309 -1.1132623
0002c0 49 42 59 bf d4 ce a8 3d 7c 26 c5 be 73 9e 27 bf
       -0.8486677 0.08242574 -0.38505924 -0.6547615
0002d0 9c 87 fa bf 1c 89 83 bf 65 cd 49 bf 6d 3f 3e 3e
       -1.9572635 -1.0276217 -0.7882903 0.18578883
0002e0 df eb 49 bf 34 bc 39 bf 57 0d 11 c0 b7 62 98 bc
       -0.78875536 -0.725528 -2.2664392 -0.018601758
0002f0 69 87 d4 bf 41 21 62 bf 77 29 9f be ed 6e 56 3e
       -1.6603824 -0.8833199 -0.31086323 0.20940752
000300 b8 14 35 bf bb aa 7b bf b0 bf 02 3e e4 4d 13 be
       -0.7073474 -0.9830739 0.12768435 -0.14385182
000310 59 ee 19 3e 0c 4e 40 bf a3 85 fe 3c 7c e1 82 3d
       0.15032329 -0.7511909 0.031069582 0.06390664
000320 5d 47 19 bf 2a 47 92 be 2c 41 ea be 46 31 9f bf
       -0.59874517 -0.2856992 -0.45752847 -1.2436912
000330 97 3b 75 be 2b e4 1c bf 60 75 8f bd fd 02 0c be
       -0.23948513 -0.61285657 -0.070048094 -0.13673015
000340 f6 b0 9c bf 0e ba 84 3e 75 54 9c 3d 85 c8 ca 3d
       -1.2241504 0.25923198 0.076332964 0.09901527
000350 74 aa 57 3c f3 7a ee bd 3c 44 9b be 11 7a ac be
       0.013163198 -0.116445445 -0.30325496 -0.3368688
000360 fa 1c f4 be 4c f3 63 be f4 08 9c 3d 03 51 a7 be
       -0.47678357 -0.22260779 0.07618895 -0.32678995
000370 f6 5d 7c be da 8d b1 bf 2a ef 65 3b 9e 5f 04 3c
       -0.24645218 -1.3871415 0.003508518 0.008079438
000380 7c 87 98 bf 00 18 2d bf fc 7e 0b be 2b 39 35 3e
       -1.1916347 -0.67614746 -0.1362266 0.17697589
000390 54 ce b0 bd d2 37 29 be b0 ed 03 3e 34 c1 3c 3e
       -0.08633104 -0.165252 0.1288364 0.18433076
0003a0 7a 60 75 be ab 0f 97 be 63 7b 8a 3e 3c de 85 3b
       -0.23962584 -0.2950414 0.27047262 0.0040853303
0003b0 e6 eb f1 bd a6 c0 e1 bd ef 3a 6b be d1 db cb be
       -0.11812572 -0.11023073 -0.229717 -0.39816144
0003c0 96 b6 b8 be 5b 2d 17 bc 57 5e ce bd 81 fb 07 3e
       -0.36076802 -0.009227122 -0.10076588 0.13279535
0003d0 a7 6a f1 be 24 e7 50 be a0 e8 07 bf cb 66 d3 bd
       -0.47151682 -0.20400673 -0.5308933 -0.103223406
0003e0 1e 32 98 be 82 a8 52 bd ea 0a ed be a6 ce 50 bf
       -0.29725736 -0.051430233 -0.4629739 -0.8156532
0003f0 09 5e cb be 86 6e 56 bd d1 6e 3d bf f7 eb 8e bf
       -0.3972018 -0.052351497 -0.7399722 -1.1165761

bias f4 [64]
000000 6f 9b 55 be 0c 5b d3 bd 39 0c 7d bd 52 40 f2 3b
       -0.20860074 -0.103201 -0.061779235 0.0073929215
000010 be 86 8c be d3 45 4c be 5d 3c e6 bd fd 52 30 bd
       -0.2744655 -0.19948511 -0.11241982 -0.043047894
000020 ad 5c bc be ce 70 f7 bd fc 7f 34 be 7a b1 1b be
       -0.36789456 -0.12082063 -0.17626947 -0.1520442
000030 41 be 2c be 15 e8 91 be ff 18 be be 99 a5 6c be
       -0.16869451 -0.28497377 -0.37128446 -0.23110045
000040 99 75 90 bd 26 3b bd be 70 c5 02 be be e5 8e be
       -0.0705368 -0.3695919 -0.12770629 -0.27909654
000050 aa 48 12 bd 94 31 fe bd c8 92 bd be 0e 93 bf be
       -0.03571383 -0.124118 -0.37026048 -0.3741688
000060 d9 dc 67 be 92 76 86 be 2e 72 e8 bd 99 bd 15 be
       -0.2264284 -0.26262337 -0.11349903 -0.14623107
000070 15 ed a2 be 66 b0 a4 be b2 db 92 be 4b a5 6b be
       -0.31821504 -0.3216583 -0.2868324 -0.23012273
000080 76 7b cf be a9 97 57 be 49 40 ac be 3d aa b6 bd
       -0.4052388 -0.21053948 -0.33642796 -0.08919189
000090 82 62 67 3e 01 99 0b be 7e 52 bd be ab 0c 24 be
       0.22596171 -0.13632585 -0.36977 -0.16020457
0000a0 c2 93 5c be 56 25 75 be 02 cb c2 bd b5 72 3d be
       -0.2154074 -0.23940024 -0.09511377 -0.18500789
0000b0 2f 45 d0 be 67 f0 90 be 65 15 a3 be b8 28 25 be
       -0.40677783 -0.28308412 -0.3185226 -0.16128814
0000c0 cb 46 df bd ac b6 5a be db c3 a7 be 90 2f b4 be
       -0.109021746 -0.21358746 -0.32766613 -0.35192537
0000d0 f4 ad 93 be a8 c5 0e bd 9b 0e e9 bd f6 3b 92 3d
       -0.28843653 -0.03485647 -0.11379739 0.07140343
0000e0 31 60 4e be 63 57 aa 3d 80 92 7a be 8a b1 0a be
       -0.20153882 0.08317449 -0.24469948 -0.13544288
0000f0 f6 be 56 be 3e d2 38 bd 57 7c 94 be 48 5b a5 be
       -0.20971283 -0.045122378 -0.29001114 -0.32296205

weight f4 [3, 64]
000000 73 c5 20 bc dd 8a 01 3f c5 a1 f0 3d 79 64 81 3e
       -0.009812701 0.50602514 0.11749605 0.25271967
000010 4c e7 89 3e 94 57 fc be 45 fb 1d 3e a0 aa 05 3f
       0.26934278 -0.49285567 0.15427883 0.5221348
000020 1f c1 d1 3e 70 da 9e 3e 3d 4a c4 be fc b1 16 3f
       0.40967652 0.3102603 -0.3833789 0.5886533
000030 4a a6 de be 2d d6 ad 3e f5 19 c5 be 4b 8c 51 3e
       -0.43486243 0.33952466 -0.38496366 0.20463674
000040 ce 3f cc 3e fe 26 ac 3e 3b 22 f8 3e fd d6 3f bf
       0.3989243 0.336235 0.48463616 -0.7493742
000050 23 62 92 3e 43 93 b3 be b1 a6 68 3e 92 21 97 3e
       0.28590497 -0.3507329 0.22719838 0.295178
000060 1b bb 0a 3f d0 c4 4a 3e 54 be 69 3e ef ac 03 bc
       0.5419175 0.1980164 0.2282651 -0.008036836
000070 12 19 4a 3e fc e3 fd 3e 32 f1 11 3f fb fa 12 3f
       0.19736126 0.49588 0.5700866 0.57414216
000080 11 1f 52 3e 21 b9 49 bf cd ae a4 3e 04 67 48 bf
       0.20519663 -0.7879811 0.32164612 -0.7828219
000090 79 ee e0 bd 11 78 a1 3e 4c 28 b3 be 9c a1 b5 3e
       -0.10982985 0.31536916 -0.34991682 0.3547486
0000a0 88 92 86 3e ee 4c ed be 7a a1 72 3e e7 0b 7c 3f
       0.2628367 -0.46347755 0.23694411 0.9845566
0000b0 73 3e 9b 3e f5 42 40 bf f7 5f 2c bf 6d d2 fc be
       0.30321082 -0.7510217 -0.6733393 -0.49379292
0000c0 28 2d cb 3d 37 04 9e bf fb c5 b2 3e 8c f1 58 3e
       0.09920722 -1.2345036 0.34916672 0.21185893
0000d0 45 7f 2c 3f 27 a6 bd be 95 5e 05 3f db d8 eb 3e
       0.673817 -0.37040827 0.52097446 0.46063885
0000e0 d5 6f 05 3c f9 5c ef be 2c 07 92 3e 2e 9f 69 3c
       0.008144339 -0.4675062 0.28521097 0.014259143
0000f0 b2 4a 9b bd b6 57 97 3e cc f2 9f 3e 2b a1 cc 3e
       -0.075826064 0.29559106 0.31239927 0.3996671
000100 7f ba bf 3c e6 5c 98 3e 42 1d 06 bf 99 8b 55 bf
       0.023404358 0.29758376 -0.52388394 -0.83416134
000110 9d cf c9 3e fd 3b bf 3e b3 7f 27 bf c8 3a 9c 3e
       0.3941621 0.37350455 -0.6542923 0.30513597
000120 d1 cc f8 3e b4 59 13 bf f4 d8 c0 3e 6a 8c 91 be
       0.48593763 -0.5755875 0.37665522 -0.2842744
000130 b4 df 83 be 56 c7 06 bf 53 bd 88 3f 00 c5 a6 3e
       -0.2575661 -0.5264791 1.0682777 0.32572174
000140 85 14 cb be 78 2e 96 be 49 72 39 bf 6b 70 61 3f
       -0.39664093 -0.29332328 -0.7244001 0.8806216
000150 e8 b5 b8 3e 8b f8 a1 3e 51 21 aa be ad d3 c7 be
       0.36076283 0.31634936 -0.33228543 -0.39028683
000160 b6 4e f6 be 67 c7 22 bf ad 3c dc be d2 ca 4a bd
       -0.48106927 -0.63585514 -0.43015042 -0.04950983
000170 11 44 8a 3e 37 ba 4f bf b8 5b a0 bf f4 16 ed 3e
       0.27005056 -0.81143516 -1.252799 0.46306574
000180 98 3b f0 be ec f5 bb 3e 61 78 b3 be 22 47 eb 3e
       -0.46920466 0.3671106 -0.3505278 0.45952708
000190 3b 93 bf 3e 30 bd d8 be 5e 49 82 3e 8a 9f be be
       0.37417015 -0.4233184 0.254466 -0.37231094
0001a0 96 76 56 3e 79 25 da 3e 5e 06 df 3e ec 36 66 3e
       0.20943674 0.42606714 0.43559545 0.22481889
0001b0 ea a4 9e be a8 51 03 3f da df 31 3f 57 3b fc 3e
       -0.30985194 0.5129647 0.69482195 0.49264023
0001c0 d1 27 3a 3e 3b 28 3f 3f b6 0b 03 bf 16 e4 9c 3e
       0.18179251 0.7467076 -0.51189744 0.30642766
0001d0 7e 3d a8 bd 0c 08 19 3e b9 4b 07 bf 5a 88 c8 3d
       -0.08214854 0.14944476 -0.5284992 0.09791632
0001e0 7a f8 27 3b 55 b5 d7 3e 0e 20 b8 3e 51 a9 ad bc
       0.0025630281 0.42130533 0.35961956 -0.0211989
0001f0 41 9a 80 bd 64 d8 76 be 1d 12 9f be 8c c3 e7 be
       -0.062794216 -0.24105984 -0.31068507 -0.45266378
000200 a7 88 50 bc 82 10 15 bd f5 72 0b 3e 5b 03 5d 3f
       -0.012727893 -0.036392696 0.13618071 0.86333245
000210 30 13 30 bf 32 a8 ba 3e a8 ca 05 3e 4f 68 0e bf
       -0.6877928 0.36456448 0.13065588 -0.5562791
000220 90 ae f5 be e2 0d b6 3e 93 d6 ac 3e 92 67 8e be
       -0.47984743 0.35557467 0.33757457 -0.27813393
000230 9e 44 ad 3e 2e 94 ef 3e 89 f3 96 be 58 ec 22 bf
       0.33841413 0.4679274 -0.29482678 -0.6364188
000240 7c 08 e4 3e e1 f7 69 3e 12 df fe 3e 73 96 f9 3c
       0.44537723 0.22848465 0.49779564 0.030467248
000250 cd 34 bc be b1 f5 a7 3e e1 33 a2 3e b0 1b 87 3e
       -0.36759034 0.32804635 0.31680205 0.2638831
000260 b2 28 b9 3e 5c 2d 52 3f c8 3e e5 3e ee 47 01 3d
       0.3616386 0.8210046 0.4477446 0.031562738
000270 ae 20 5f be 68 5e e9 3e e6 80 28 3f 52 f7 0f bf
       -0.2178981 0.4557984 0.65821683 -0.56236756
000280 fa e7 3d 3e 35 d4 bd 3e 3e cc f9 3e e4 bf 01 3f
       0.18545523 0.37075964 0.48788637 0.50683427
000290 34 f3 ca 3e e5 9d 9a 3e b1 3f 7a 3e 27 ae 00 3f
       0.39638674 0.3019859 0.24438359 0.50265735
0002a0 4e 42 dc bd 99 05 07 3f e0 15 03 bf 5a 43 54 bf
       -0.10754834 0.52742916 -0.51205254 -0.8291527
0002b0 01 23 c5 3e 1d 2b 0a 3f dd bb 07 3e 93 ad fb 3e
       0.38503268 0.53972036 0.13255258 0.49155864
0002c0 ea 55 6e be c2 f5 3c 3f cf bd bf 3e d3 84 cd be
       -0.23274961 0.73812497 0.374495 -0.401404
0002d0 18 4a 8e bd 94 b5 ed 3d 01 d3 2b bd 4b 8f 09 bf
       -0.06947726 0.11606899 -0.041949276 -0.5373427
0002e0 f0 6e 58 bd 15 98 0c 3f 97 e8 86 be 3f 9e d5 3d
       -0.052840173 0.5491956 -0.26349327 0.10430574
0002f0 16 a5 8e bc 29 fc aa 3e 26 a3 f4 3e 7b a0 a6 3e
       -0.017412703 0.33395508 0.47780722 0.32544312

bias f4 [3]
000000 90 a3 69 3d 0c 38 56 3d 4e 1b 7c 3d
       0.05704075 0.052299544 0.061549477

weight f4 [64, 10]
000000 cc 8a 98 bc 47 5c 9f 3f 6a 20 2c bf 0b 0c 85 3d
       -0.018620871 1.2450036 -0.6723696 0.06496438
000010 08 65 a4 3f a9 51 e6 3e bb 33 26 3f bb f9 d5 bf
       1.2843332 0.44984177 0.64922684 -1.6716837
000020 c8 b6 5e 3e c7 12 24 3f 04 02 4c bf 1e e9 97 be
       0.21749413 0.6409115 -0.79690576 -0.29670042
000030 66 0d e9 3f 58 48 ed 3e 33 69 41 bf 26 68 09 3f
       1.8207214 0.46344256 -0.75551146 0.5367454
000040 ad 1e 29 bf 34 60 0c bf ff 1f 1e bf ef fe 78 bf
       -0.6606243 -0.54834294 -0.6176757 -0.97264
000050 30 a5 54 3e c1 42 bd 3f a8 fe 32 3f 5f 40 ca be
       0.20766139 1.4785997 0.69919825 -0.39502236
000060 1b af 27 bf a5 7a a3 be 83 e1 9d 3d a2 da be bf
       -0.65501565 -0.31929508 0.077090286 -1.4910471
000070 fb e8 07 bf f5 d9 b3 be 81 91 66 3f 98 62 68 3f
       -0.53089875 -0.35127226 0.9006577 0.9077544
000080 36 90 4c 3f dd 04 f5 be c2 3a 02 3f c7 1e 24 3e
       0.7990755 -0.47855273 0.5087091 0.16027366
000090 ba e7 85 3f 1f c0 aa bd 41 1e cc be c2 78 bc be
       1.0461342 -0.083374254 -0.39866832 -0.3681088
0000a0 bb ba 13 3e b5 4e 68 bf 11 ec 97 3f a7 2c ba bd
       0.14426701 -0.907451 1.1868917 -0.09090548
0000b0 27 5f 92 bf ae 0e 39 3f 65 cc 30 bf 5f d9 7a 3e
       -1.1435288 0.72288024 -0.6906188 0.24496983
0000c0 01 d4 89 be 18 d7 2a bf 3b 32 a2 3d e1 e4 1f 3f
       -0.2691956 -0.66734457 0.07919737 0.62458616
0000d0 b6 81 22 3f 1c b1 af bd d6 a3 5e be d8 94 8e bc
       0.63479173 -0.08578703 -0.21742186 -0.017404959
0000e0 63 ac 3f bf 07 01 36 be 07 8c a9 bf 19 ba 21 3f
       -0.74872416 -0.1777383 -1.3245858 0.6317459
0000f0 31 4c 36 bf 14 bb 9f 3f eb a9 88 bf 30 cf b7 bd
       -0.7121001 1.2478967 -1.0676855 -0.08975065
000100 62 60 c8 be 04 e4 43 bd 9e 65 0d be eb e7 b0 3d
       -0.39136034 -0.047824875 -0.13808295 0.08637985
000110 07 29 e7 bf 1e 88 d7 3d f5 85 80 3f 3c c0 cc bf
       -1.8059396 0.10524009 1.004088 -1.5996165
000120 31 93 29 bf 1f 7d 58 bf 25 30 76 3f ff 4d 34 bf
       -0.6624022 -0.8456592 0.9616721 -0.7043151
000130 e2 8e a6 bd 11 50 bc 3f c7 f3 b7 3e 17 a3 17 3f
       -0.081327215 1.4711934 0.35928175 0.5923323
000140 3e 15 b8 be 36 9e ee bf 77 47 a2 bf e0 71 80 be
       -0.35953707 -1.8642032 -1.2678059 -0.2508688
000150 df 0b 28 3f 7e 90 56 bf b6 23 e1 be 18 3e 16 be
       0.65643114 -0.8381423 -0.43972558 -0.14672124
000160 86 d6 57 3f ec 32 49 bf ff ed b4 be 73 66 aa 3d
       0.8431171 -0.78593326 -0.35337827 0.08320322
000170 64 a2 aa 3e fa 71 99 3f ff 22 bb 3e 97 c3 54 3f
       0.3332702 1.1987908 0.36550137 0.83110946
000180 87 67 00 3f 55 ee cd be 49 5a fc bf b9 c0 82 bf
       0.5015797 -0.40220895 -1.9715053 -1.0215064
000190 e9 5d fa be 20 e1 40 c0 10 b5 f3 3f c4 bd 70 3f
       -0.48899773 -3.0137405 1.9039631 0.9403956
0001a0 a9 05 b3 be 87 c9 b9 3e 9b 2d 21 3f c7 0c 0f 3f
       -0.34965256 0.36286566 0.62960213 0.5587887
0001b0 0c 94 d6 be 4b 39 3c be b4 28 5d 3f 44 6e c6 bf
       -0.41909826 -0.1838123 0.86390233 -1.55024
0001c0 b5 be de be f7 00 c1 bd a9 c1 bb 3e 05 f1 b4 3f
       -0.43504873 -0.09424012 0.36671188 1.4136053
0001d0 4e ad b4 3e d5 73 6f bf 1a 36 4b bf 15 c9 4b be
       0.3528847 -0.9353612 -0.7937943 -0.19900925
0001e0 e9 d2 f1 3f 9f a7 de 3e e5 0b 03 bf 08 29 78 3e
       1.889249 0.4348726 -0.51190025 0.24234402
0001f0 7c 4b 91 3f ae 89 2a 3d 3e 17 3b 3e 2f 63 f4 bc
       1.1351161 0.041635208 0.18270585 -0.02983245
000200 0c ce d6 bf f2 eb 6b bf a8 0c 44 bf 5d a5 1b bf
       -1.678163 -0.921569 -0.7658181 -0.607992
000210 0a 72 95 be 95 b3 6f 3f e2 d5 4d 3f 4d cd 6c bf
       -0.29188567 0.93633395 0.80404484 -0.92500764
000220 f9 b7 24 be 9e bf ba bf 15 5b c0 bf 69 ce 86 3e
       -0.16085805 -1.4589727 -1.5027796 0.26329353
000230 1e 4a 30 3d 51 6d ee bf 36 15 43 3f c9 58 33 3d
       0.043039434 -1.8627111 0.7620424 0.043785844
000240 78 63 80 3f 28 c6 94 bd 46 2d 2b 3f b2 3b 52 3f
       1.0030355 -0.07264358 0.66865957 0.8212234
000250 6c d3 ae bf 50 2f a6 3e ee 30 8b be 5e 92 a5 3e
       -1.3658271 0.32457972 -0.27185768 0.32338232
000260 11 25 9f 3e c4 b2 cb 3e 7a 37 80 bf fa 2f ee 3d
       0.31082967 0.39784825 -1.001693 0.116302446
000270 10 4c dc bd 29 4c 2b 3f 90 25 5c 3f 27 b3 27 bf
       -0.10756695 0.66913086 0.85994816 -0.6550774
000280 c3 d6 50 bc 72 68 26 bf 73 26 bf bf 80 0f 98 be
       -0.012746516 -0.6500312 -1.4933609 -0.29699326
000290 a0 32 82 3e a5 d7 61 be 3d 8b 1a 3d af 38 16 3f
       0.2542925 -0.22054918 0.037730444 0.5868024
0002a0 2e b8 27 bf 36 8c 0d 3f 26 2c 9d 3e 96 07 da 3f
       -0.6551541 0.5529207 0.30697745 1.7033565
0002b0 68 44 ee bf d5 dd ad bd f9 be 1a be fa ae 36 3f
       -1.8614626 -0.08489577 -0.15111913 0.71360743
0002c0 e2 ac d7 bd 8e 4e d9 be 60 de 53 bf 0e 9e 8a be
       -0.10531022 -0.42442745 -0.8276119 -0.2707371
0002d0 28 31 e6 be 6c 37 88 3e 19 a4 b6 3f f1 f0 07 3f
       -0.44959378 0.26604784 1.4268829 0.5310202
0002e0 3c 91 b0 be 60 74 83 bf 73 ae e8 3e 3b b4 44 bf
       -0.34485805 -1.026989 0.45445594 -0.7683751
0002f0 fa 1b 8a 3d c9 6f 6e 3f 86 3b 40 3f c6 28 12 bf
       0.06743617 0.9313932 0.75090826 -0.57093465
000300 36 8e af be 0a 30 49 bf c3 51 68 3f 9f e9 1d 3f
       -0.34288186 -0.78588927 0.9074976 0.616846
000310 95 a1 9d 3d 04 32 91 bf 51 53 e0 3d b6 a3 4f bf
       0.07696835 -1.1343389 0.10953391 -0.8110918
000320 c6 54 4e 3e 11 a9 71 bd d0 8f aa bf 2f 76 00 be
       0.20149526 -0.058999125 -1.3325138 -0.12545083
000330 76 85 a2 be 0e 08 38 3f 7a a2 8c 3f e2 fc 3c bf
       -0.31742448 0.7188729 1.0987084 -0.7382337
000340 fb 13 d4 be 21 33 1d 3f 47 9a 2f bf ea 5f 8a 3e
       -0.41421494 0.6140614 -0.68594784 0.27026302
000350 5f 42 8c bf 83 6b 35 3f 70 06 dc 3e fb 82 6f bf
       -1.0957755 0.70867175 0.4297366 -0.93559235
000360 2d 33 d9 be 6f 18 d7 3f 49 ed 20 bf 7f 7a 00 bf
       -0.42421857 1.6804332 -0.6286207 -0.50186914
000370 96 6d a5 be d2 d1 a8 3e d2 d8 93 3f c2 6a f4 be
       -0.3231017 0.3297258 1.1550543 -0.477377
000380 0d cb 18 bf 7f 8e 52 bf 9f cf 36 be 15 8d e8 bf
       -0.5968483 -0.8224868 -0.17852639 -1.8168055
000390 5d 7e b7 be 22 6a 49 3f 23 f8 56 3f bc e1 4d bf
       -0.35838595 0.7867757 0.83972377 -0.8042257
0003a0 dc 62 06 c0 02 3c 1e bf a1 84 f1 be 0e 70 45 bf
       -2.099784 -0.61810315 -0.471715 -0.77124107
0003b0 fb c4 89 be 13 be b0 3e 7f d6 c0 3e d8 c8 00 3f
       -0.26908097 0.34520015 0.37663648 0.50306463
0003c0 46 c7 9c bd 91 5d 20 3e 8f 2d d3 3f a6 34 83 be
       -0.07655196 0.15660693 1.6498278 -0.25626105
0003d0 8b d7 15 bf 55 4f 8a bf 8c f0 cd bc 9f 3a 43 3f
       -0.5853202 -1.080546 -0.025139116 0.76261324
0003e0 2a 1a cf bf 06 0b 38 bf f4 5b 9e 3f 68 ff 15 bf
       -1.617986 -0.7189182 1.2371812 -0.58592844
0003f0 6a be 5d bf e7 a0 6a 3f 98 f1 01 bf ba a6 57 bf
       -0.86618674 0.9165177 -0.5075927 -0.8423878

bias f4 [64]
000000 87 46 1e be c5 3e bb be 48 41 07 bf 16 ad 1d 3e
       -0.15456592 -0.36571327 -0.52833986 0.15398058
000010 b5 22 53 be 34 ca ad bf 1a b5 9c bf 44 d1 43 be
       -0.20618708 -1.3577332 -1.2242768 -0.19122797
000020 c8 00 1d 3f c3 8a 24 bf 08 3e 1e be 58 d4 0d bf
       0.6132932 -0.64274234 -0.1545335 -0.55402136
000030 00 bf 0e bf 48 31 48 bf 65 0f 1b bf b0 2c 62 3e
       -0.5576019 -0.782002 -0.60570365 0.2208736
000040 4c 3f 90 bf 72 b5 a3 bf 93 da d0 3e da 82 25 bf
       -1.1269317 -1.2789748 0.4079176 -0.6465279
000050 51 b4 99 bf 50 e9 02 bf 2a d4 90 bd 89 63 b1 3c
       -1.2008153 -0.51137257 -0.07071717 0.021653907
000060 50 e9 9d bf 9b a6 9a be e0 09 45 be d9 65 17 bf
       -1.2336826 -0.30205235 -0.19242048 -0.5913978
000070 c6 ea 23 bf f4 ff 4b 3e 43 d8 a6 be ab 1d 56 bf
       -0.6403011 0.19921857 -0.3258687 -0.8363902
000080 0f 18 50 be dc c9 8d be 0c e8 8c 3e 27 b3 ce bd
       -0.20321678 -0.2769307 0.27520788 -0.10092764
000090 b4 7c 67 be bc b3 dd be 7a 15 57 3e 39 a5 17 bf
       -0.22606164 -0.4330119 0.21004286 -0.59236485
0000a0 c4 82 8f be e0 7e 88 be e8 31 d3 be 53 bf 0d bf
       -0.28029454 -0.26659298 -0.41249013 -0.5537006
0000b0 ad 9a eb be b1 5e c1 be 43 7d 85 3e 88 de 3b 3e
       -0.46016446 -0.37767556 0.2607213 0.18346608
0000c0 5c 06 5a bf a2 12 d6 3d 99 82 d8 be 2c 14 7f bf
       -0.85165954 0.10452773 -0.42287138 -0.99640155
0000d0 85 0b af be 96 06 b4 3d 68 05 0e bf fe cd f6 3d
       -0.34188476 0.08790319 -0.55477 0.12051009
0000e0 ea fd b7 be ec b0 f5 be f6 03 2f bf 8d 65 a7 be
       -0.3593591 -0.47986543 -0.6836542 -0.32694665
0000f0 b5 5f 84 bf b0 94 88 bf 21 31 60 be 88 7c 69 3e
       -1.0341707 -1.0670376 -0.21893741 0.22801411

weight f4 [64, 64]
000000 53 71 fd be 1e f9 55 be 71 9e 1d bf d1 d8 3c 3e
       -0.49500522 -0.20895812 -0.6156989 0.18442084
000010 7c 23 3d bf e8 0e 09 be 46 36 9f be 0b b0 10 bc
       -0.7388227 -0.13384593 -0.31096095 -0.008831034
000020 18 d7 5f bf 86 2b fb 3d 78 de 41 3e fc 79 38 bf
       -0.8743758 0.12264161 0.18932521 -0.72061133
000030 05 33 87 be c2 f0 33 3f a4 97 6c bf f7 37 e2 be
       -0.26406112 0.7028924 -0.92418885 -0.44183323
000040 65 2b 53 bf 82 5c d2 be 95 f2 13 bf e0 0d 06 bf
       -0.8248809 -0.41086203 -0.57792026 -0.5236492
000050 7f a2 f1 be 5f 82 f3 bd 4e 99 43 3e f5 3c 22 3f
       -0.47194287 -0.11890101 0.1910145 0.63374263
000060 82 af 42 bf cb 2b 22 bf e4 56 6d be 3b c7 60 be
       -0.76049054 -0.6334807 -0.23177677 -0.21951
000070 b4 27 c3 be f6 c6 e9 3e ca 70 b5 3d c2 30 b5 bd
       -0.3811623 0.45659608 0.088594034 -0.088471904
000080 0a f6 2b 3b e1 88 4f bf c5 78 72 be 39 e3 95 bd
       0.002623918 -0.81068236 -0.23678882 -0.0731873
000090 49 e8 b6 bc 88 8a aa bd 02 e6 f2 bd f6 31 b3 bf
       -0.02232756 -0.08327204 -0.11860277 -1.3999622
0000a0 3e 21 b4 be 3b d8 d5 be 0b 27 8a be c4 52 23 3e
       -0.35181612 -0.41766533 -0.26982912 0.15949541
0000b0 8f 56 91 bd 48 b6 7b 3e 7e 35 0c be 45 18 88 bf
       -0.07096588 0.24581254 -0.1369228 -1.0632406
0000c0 57 b2 a4 be ef 90 bb bf 98 41 17 bf 14 8e 0e 3e
       -0.32167313 -1.4653605 -0.59084463 0.13921386
0000d0 1f ee 7c bf 01 72 a4 be ea d2 72 bf 33 a7 d0 3e
       -0.98800844 -0.32118228 -0.9485308 0.40752563
0000e0 1c f2 ab be df df dc bd 07 66 5c be 57 4e 1b 3d
       -0.33583152 -0.107848875 -0.21523295 0.037916508
0000f0 c3 a3 b0 3c 6a fd 55 bd c2 8e 28 bd 36 bd ce be
       0.021562463 -0.052243628 -0.04115177 -0.4037873
000100 29 af e1 be 73 74 c7 be f1 ce 1c bf ed 0a e3 bd
       -0.4407895 -0.3895603 -0.6125327 -0.11086068
000110 f2 ae 52 bf 5f 75 27 3f 50 d2 c1 3e 77 00 72 bf
       -0.82298195 0.6541347 0.37855768 -0.9453196
000120 40 01 05 3f 6a 23 c7 bf 26 19 b0 bf 0b 3f 02 bf
       0.5195503 -1.5557683 -1.3757675 -0.50877446
000130 51 74 c6 be 64 b3 a9 bf 29 ed fd 3e b7 ad a6 3e
       -0.38760617 -1.3257871 0.49595 0.3255441
000140 b7 95 29 3e ea a8 c0 3e ad ca 7e be 50 bb 08 3e
       0.16561018 0.3762887 -0.24882002 0.13352704
000150 0f 3e 84 bf 21 fa a9 bf 99 17 bc be db 02 ef be
       -1.0331439 -1.3279458 -0.36736754 -0.46681866
000160 46 a4 6c bf 1f 06 3b bf 35 b4 2f 3d 57 11 fa be
       -0.9243816 -0.73056215 0.04289647 -0.48841354
000170 2a 57 05 bf ef 4b b0 bf 3e d1 ec be d5 92 01 3f
       -0.52086127 -1.3773173 -0.4625339 0.5061467
000180 fb 5b 58 bf 9c e6 9e be c4 9a db 3d 30 f6 bd bf
       -0.8451535 -0.31035316 0.107228786 -1.4840755
000190 fa 52 09 bf 5d 33 43 3d 0f 8d 18 c0 5b d4 21 be
       -0.5364224 0.047656406 -2.3836095 -0.15803663
0001a0 64 e1 3e 3e 19 8f 99 3e a0 6f 78 bf 08 85 c2 bf
       0.18640667 0.29991987 -0.97045326 -1.5196848
0001b0 eb e3 48 bf 91 84 5f bf a9 d3 55 bf 53 f3 59 bf
       -0.78472775 -0.87311655 -0.8352609 -0.8513691
0001c0 57 7e 97 bf 19 38 4f bf 86 bb 9c 3e 13 93 b9 3d
       -1.1835431 -0.80944973 0.3061182 0.09061255
0001d0 77 65 8c 3e e6 32 50 3e 9d 18 95 3f f5 e2 43 3f
       0.27421162 0.20331916 1.1648136 0.76518184
0001e0 ff 05 6d be 07 cb 17 be cf 9a e8 be 65 78 14 be
       -0.23146819 -0.14823543 -0.4543061 -0.14499052
0001f0 92 77 a9 bf 12 49 b4 3f d3 6a 5b 3d a5 25 04 c0
       -1.3239615 1.4084799 0.053568672 -2.0647976
000200 31 47 17 3e ce 93 92 bf ef a6 e7 bf d1 8f e9 3c
       0.14773251 -1.1451356 -1.8097819 0.02851096
000210 6f 39 69 be f8 10 35 3e ee 36 d2 bf 66 7e d7 3e
       -0.22775815 0.17682254 -1.6423013 0.42088622
000220 c1 fc a7 be 7f be a5 be 57 4b a4 be 4e cc 5a be
       -0.32810023 -0.323719 -0.3208873 -0.21366999
000230 d6 79 04 bf f5 2b 16 bf 4c 9e 81 be 32 48 fb bd
       -0.51748407 -0.58660823 -0.25316083 -0.122696295
000240 15 a2 44 bf 2f fb 3a be f1 57 8b be d8 e5 5c bf
       -0.7680982 -0.18259881 -0.2721553 -0.86288214
000250 51 38 15 bf 27 01 1d bd 26 08 6f be a6 b0 eb be
       -0.58289057 -0.038331177 -0.23342952 -0.4603321
000260 41 cd 0f bf 36 7b 1d bf 28 a1 5c be 91 98 6f 3e
       -0.5617257 -0.6151613 -0.21545851 0.23398043
000270 f8 30 d4 be 6f 79 45 3d 3a ac 97 bd 1b 20 07 3d
       -0.4144361 0.04821151 -0.074058965 0.032989603
000280 86 06 c1 bf f9 f6 df 3a fd 05 8b be c6 da ea be
       -1.5080116 0.0017087153 -0.27153006 -0.45870036
000290 58 74 0b bf 8a c2 d3 be 1d 19 27 bd 74 4e 4a bf
       -0.544744 -0.4135936 -0.040795434 -0.7902596
0002a0 d1 71 e9 bf 6a ab ce be da 55 11 bf 36 df de 3e
       -1.8237859 -0.40365154 -0.56771624 0.4352967
0002b0 33 de b1 3e 6b 36 20 3e 4b fd 59 be 41 bc 83 be
       0.34739837 0.15645759 -0.2128803 -0.25729564
0002c0 33 9c cc be 6d 4b 28 be b1 33 89 be 24 8d c6 3d
       -0.3996292 -0.16435023 -0.2679725 0.09694889
0002d0 92 05 8b bc a3 6d cd 3e 82 9d c2 be d0 f6 4f 3b
       -0.01697043 0.4012271 -0.38010794 0.0031732805
0002e0 7d 9e a2 3d c6 47 af bf b2 70 3e bf 1d e5 b5 bd
       0.079403855 -1.3693779 -0.7439071 -0.088815905
0002f0 72 04 aa bf a9 d8 d0 bf 44 c5 54 be c4 ba 89 bf
       -1.3282607 -1.631612 -0.20778376 -1.0760121
000300 b6 f7 97 bd 50 fd 34 3c f0 fa 08 bf e4 e4 95 3d
       -0.07420294 0.0110467225 -0.535079 0.07319048
000310 c8 31 71 be 5d 06 b6 3d d4 44 3f 3f 55 d5 67 be
       -0.23554146 0.088879324 0.747144 -0.22639973
000320 21 a8 f5 bd 10 b1 9f bd 12 9e f6 be c5 e5 04 be
       -0.11994959 -0.07797444 -0.48167473 -0.12978275
000330 be ac 32 bf 83 a1 5d bf 23 c8 3c bf d2 e6 a5 3d
       -0.69794834 -0.8657457 -0.73742884 0.08100666
000340 8d dc 05 3e 2a f1 df be 70 37 53 bd 8e 8d 9b bd
       0.13072415 -0.4373868 -0.05156654 -0.07595359
000350 74 80 e7 bd d5 64 f1 bf 7d 77 81 3e 6b b8 b5 3d
       -0.11303797 -1.8858896 0.25286475 0.088730656
000360 2c cd da bf 8c dd 8f 3d 1e 36 ae 3e 1c ca 07 c0
       -1.7093863 0.070246786 0.34025663 -2.1217108
000370 f3 d7 99 bf e0 44 2e bf d5 d6 cd be c7 11 22 3e
       -1.2019027 -0.68073845 -0.40202966 0.15827094
000380 3f d2 08 bf e4 87 46 3f 85 7b dd bf 3f 00 12 bf
       -0.5344581 0.775511 -1.730332 -0.57031626
000390 a4 f2 2c bf de 76 87 bf 6a 20 49 3c 68 99 f3 be
       -0.6755774 -1.058315 0.0122757945 -0.47577977
0003a0 2e 70 92 3d 77 99 ed 3d 8e 71 4f 3e 6b c6 2c bd
       0.07150303 0.11601537 0.20258161 -0.042181414
0003b0 97 0e 63 bf 86 0e ab 3e f7 8e 93 bf 4e 50 d0 be
       -0.8869414 0.33409518 -1.1528004 -0.40686268
0003c0 50 f3 18 bc a1 99 11 be 3d 9d 05 3e e2 36 02 bf
       -0.009335354 -0.14218761 0.13048263 -0.50864995
0003d0 04 aa a8 3e dc 73 10 bf 6c a6 77 bf 02 c9 d9 be
       0.32942212 -0.5642679 -0.96738315 -0.4253617
0003e0 c3 03 2b bf 0a e1 73 bf 08 0a b7 bc 04 04 ba bf
       -0.66802615 -0.9526526 -0.02234365 -1.4532475
0003f0 89 18 6f bd 22 03 18 ba 0f ce b1 bd d3 6c 46 3e
       -0.058373008 -0.00057988067 -0.08681881 0.1937745

bias f4 [64]
000000 57 51 02 be 23 d6 b7 be 00 25 df be 85 62 8a be
       -0.12726341 -0.3590556 -0.43582916 -0.2702829
000010 46 19 5f be bf 45 a9 be 62 6a a1 be d0 a2 09 be
       -0.21786985 -0.33061025 -0.31526476 -0.13441014
000020 2d 77 cf be c0 8b 0c be a5 ee 90 bd 7e 5c 8c be
       -0.4052061 -0.13725185 -0.07076768 -0.27414316
000030 66 0d 9a be e5 95 bb be 6d 95 a0 be 83 4e 85 be
       -0.30088347 -0.36637798 -0.31364003 -0.26036462
000040 c0 f9 37 be ce 4e 40 bf d0 8c 49 be ad 59 56 be
       -0.17966366 -0.75120246 -0.19682622 -0.20932646
000050 23 b4 6c be e1 7f 1f bf 53 7a f0 bd 3a c9 6a be
       -0.23115592 -0.623045 -0.117420815 -0.22928324
000060 f4 47 b7 be 7a 3d da bd 5e 2f da be dd 42 23 bf
       -0.35797083 -0.10656257 -0.42614263 -0.637739
000070 c6 71 00 bf 00 88 e8 be 18 3e 32 be a4 f2 ff bd
       -0.50173604 -0.4541626 -0.174065 -0.12497452
000080 b7 d5 0b bf 43 79 14 bc e5 ea 83 be f9 68 83 bd
       -0.5462298 -0.009062114 -0.25765148 -0.06416506
000090 85 e1 ce bb da 93 38 be 4c 65 39 3e e1 15 13 be
       -0.006313505 -0.18025151 0.18105048 -0.14363815
0000a0 54 b7 5a be ee 14 c6 be d9 28 3b be 8e 3b a5 be
       -0.21358997 -0.38687843 -0.18277301 -0.32272
0000b0 43 11 33 3d 11 57 99 be fb 50 88 be 57 de 24 be
       0.043717634 -0.2994924 -0.26624283 -0.16100441
0000c0 89 d8 54 be 74 29 c3 bd 07 17 9f 3d 2f 74 2c be
       -0.20785727 -0.09529391 0.07768064 -0.16841196
0000d0 76 bf 81 be 16 bd db be f8 0b 24 3d 06 a3 4b be
       -0.25341386 -0.429177 0.040050477 -0.19886407
0000e0 46 87 a5 be 6b 8f 9d be 55 7b 95 bd 24 58 e3 be
       -0.32329768 -0.30773482 -0.07298914 -0.44403183
0000f0 20 47 bd bd 90 e9 87 be f4 cd 0a be cd 40 af bb
       -0.09242082 -0.26545382 -0.13555127 -0.005348301

weight f4 [3, 64]
000000 f0 a8 11 bf 26 7c 20 3f 2e 1d 96 be d1 ce b9 3e
       -0.56898403 0.62689435 -0.29319137 0.362906
000010 a1 31 d8 3e 9d 4a ba 3e dc 6f ea 3d 1c 6f 39 3f
       0.42225364 0.3638505 0.11447117 0.72435164
000020 df 16 14 3f 7e a2 bc 3e 5b f3 35 be 37 90 76 3e
       0.578474 0.36842722 -0.17768614 0.24078451
000030 6c 82 1c bf f2 aa 3b 3e 64 78 a6 3e 05 59 dd 3e
       -0.6113651 0.18326929 0.32513726 0.4323198
000040 33 7c db 3e 91 87 d9 3d 41 a9 e5 3e 20 30 c8 3e
       0.42868194 0.1062156 0.44855693 0.39099216
000050 c7 86 ab 3e 42 e2 08 3f c3 1b fc 3e 0c 5b 18 3e
       0.33501264 0.5347024 0.4923993 0.14878482
000060 be ad bd 3e 52 eb e0 3e 14 3f 63 bf 63 d4 d3 3d
       0.37046617 0.43929535 -0.88768125 0.10343244
000070 4a 78 e6 3d a1 dc a4 3e ae c5 56 be a3 29 85 be
       0.11253412 0.32199576 -0.20973846 -0.2600833
000080 ee c7 04 3f da a5 9b 3c 8a 55 ec 3e f8 e3 d7 be
       0.5186757 0.018999983 0.4615901 -0.42166114
000090 69 0a 82 3e 67 77 fd 3e 17 5a a3 3e 6e 07 05 3f
       0.25398567 0.4950516 0.3190467 0.5196446
0000a0 ff a3 21 3f 4d 94 67 3e 7d e7 ba 3e 1a 4e e7 be
       0.63140863 0.22615166 0.36504737 -0.45176774
0000b0 c2 96 04 3f ac 64 c6 3e 7c b6 cf 3e f4 e3 43 bf
       0.5179254 0.38748682 0.40568912 -0.76519704
0000c0 e8 76 2d 3f c8 f6 bc 3e dc 43 47 3f 99 36 21 3e
       0.6775956 0.3690703 0.7783792 0.15743484
0000d0 42 8a 61 3e 16 09 ba 3e d3 58 a1 bf 73 42 9a 3d
       0.22025397 0.36335057 -1.2605232 0.075322054
0000e0 aa b4 c8 3e d3 c5 8c 3e 25 07 c6 3e 15 06 ac 3e
       0.39200336 0.27494678 0.38677326 0.3359839
0000f0 61 e4 85 3c 81 74 fb be 92 71 2b 3f b1 45 46 bc
       0.016344251 -0.49112323 0.6697017 -0.012101577
000100 4d ed 0a 3f 2c 3e e3 be 37 21 9a 3e 2d 7a 94 3e
       0.5426834 -0.4438337 0.30103466 0.28999463
000110 cd 16 02 bf 49 2c fe be da be 61 be bb 1f b8 bd
       -0.5081604 -0.49643162 -0.2204546 -0.08990427
000120 0a a9 2a bf a1 8a cb bd 19 48 69 3e 56 d0 ba 3e
       -0.66664183 -0.09938551 0.2278141 0.36487073
000130 8c d9 8f 3e 24 03 65 3e bb 6c 5c bf a6 0d 02 3f
       0.28095663 0.2236448 -0.8610341 0.50802076
000140 d3 82 19 bf 72 98 34 3e 68 0c 0f 3f 46 42 16 bf
       -0.59965247 0.17636278 0.55878305 -0.58694875
000150 c2 f6 17 bf c6 fd ce 3e 26 e9 50 bf 4a 15 a1 3c
       -0.593609 0.4042799 -0.81605756 0.019663472
000160 ba 0a cf be d7 cd 32 3f e5 a7 f9 3e b1 b3 8d 3b
       -0.4043787 0.69845337 0.48760906 0.0043243994
000170 5b 64 31 3f 9f 3c 44 3f bc b0 9f 3e ec 0b 46 3e
       0.69293755 0.76655 0.31189525 0.19340485
000180 01 26 4a bf 77 2e 85 3d 50 6d 0e bf 14 bb d0 3e
       -0.7896424 0.06503003 -0.5563555 0.4076773
000190 e5 c5 1e bf 41 e6 3f bf 78 bb b2 3e 2a 30 21 bf
       -0.62020713 -0.74960715 0.34908652 -0.6296412
0001a0 68 12 0e bf 7a 4f 4c be c9 b8 8e 3e 8c e5 5a 3f
       -0.55496836 -0.19952193 0.27875355 0.8550651
0001b0 3c 57 e7 be 8a 54 bb be 70 28 ed 3e 00 9b 5c 3f
       -0.45183742 -0.36587936 0.46319914 0.8617401
0001c0 49 ae 51 3f 13 22 f1 be 41 3e 19 bf 04 69 02 bf
       0.81906563 -0.4709631 -0.59860617 -0.5094149
0001d0 ab 16 0c 3f d4 88 bd 3e 0a cb 38 3f 0e 01 09 3d
       0.5472209 0.37018454 0.72184813 0.03344827
0001e0 64 fb 1b bf 7c f3 e8 be 50 bd d9 3e d9 01 8b be
       -0.60930467 -0.45498264 0.42527246 -0.27149847
0001f0 45 c6 42 bd 99 86 6e 3e 47 07 89 bf be 9c d0 3c
       -0.047552366 0.23293532 -1.0705346 0.025465365
000200 0c c4 79 3e ac 8d 18 3f 37 78 72 3e fb a7 11 bf
       0.24391192 0.59591174 0.23678671 -0.5689694
000210 d5 b7 b2 3e ae 30 8a 3e d5 43 33 3e dd 07 82 be
       0.34905878 0.26990265 0.17506345 -0.25396624
000220 a9 ea 0c 3f 39 30 dd bc 92 e9 57 3e a1 25 d1 be
       0.55045563 -0.027000533 0.21085194 -0.4084902
000230 8f ca 08 3f 05 22 e8 be 15 80 0f 3f a0 90 19 bf
       0.5343408 -0.45338455 0.5605481 -0.59986305
000240 7d ef d3 3e e7 41 85 3e 0e 85 ba be fe 70 bb 3e
       0.41393653 0.26026842 -0.36429638 0.36609644
000250 1d 9e 11 3f 1a ac 1f bf 77 25 f1 3e 59 b6 53 3d
       0.56881887 -0.6237198 0.47098896 0.051687572
000260 37 79 86 3e 7d c8 30 bf 25 40 b5 3e 08 88 d7 bd
       0.26264355 -0.6905592 0.354005 -0.10523993
000270 fc ea 3a bf 79 93 0d bf 2a 4d 48 3e 0c 65 6f 3e
       -0.7301481 -0.5530315 0.19560686 0.2337839
000280 88 e9 1f 3f 81 cf 06 bd f0 b9 e6 3e 0d 60 4f 3e
       0.62465715 -0.032912735 0.45063734 0.20251484
000290 be 83 5a 3e bf 4d 11 3f 73 87 22 be a9 fd a6 3e
       0.21339318 0.56759256 -0.15871982 0.32615402
0002a0 3e 0a b1 3e 97 25 98 3e 7a a8 ed be e0 54 b8 3e
       0.34578127 0.2971618 -0.464176 0.36002254
0002b0 e2 ff 1e 3f 7f 59 b2 3e 45 70 ee be 62 55 23 3e
       0.62109196 0.34833905 -0.4657003 0.1595054
0002c0 71 16 9e bf 1d 18 8a 3e d2 a5 3b 3e 46 4b 75 3e
       -1.2350599 0.26971522 0.18324974 0.23954496
0002d0 a0 d0 05 bf 4c 0f 10 bf f1 54 26 3f 9f 12 ea 3c
       -0.5227146 -0.5627334 0.6497336 0.028573332
0002e0 af 16 71 3e 5b 4d 58 3e 76 96 f4 be 05 ee af 3e
       0.2354381 0.21123259 -0.47771043 0.34361282
0002f0 de 26 ec 3d 61 fd fa 3e 45 e5 15 3f 0e f4 75 bc
       0.11530851 0.49021438 0.5855296 -0.0150118

bias f4 [3]
000000 71 33 a1 b8 4f ac 1e bc bd 1c ed bb
       -7.68666e-05 -0.009684636 -0.007236092
