Training/Model/model_actor_robot_subset_joint1_104.pt (torch, 287351 bytes, 6 tensors)

network.0.weight f4 [256, 10]
0	0x3f2fbe9c	0.6865022
1	0xbeb23296	-0.3480422
2	0x3e501d22	0.20323613
3	0xbe168c2a	-0.14701906
4	0xbedc6d5e	-0.4305219
5	0xbe07af03	-0.13250355
6	0x3f3eeb5c	0.7457788
7	0xbd5046c9	-0.050848756
8	0xbee67c48	-0.45016694
9	0x3f0cc764	0.54991746
10	0x3cbbc120	0.022919238
11	0xbe9bd66d	-0.3043703
12	0x3f580084	0.84375787
13	0xbdb0a6bc	-0.08625552
14	0x3cd8bd87	0.026457561
15	0xbc4b0278	-0.012390725
16	0xbec3b83d	-0.382265
17	0xbc512b48	-0.012766667
18	0xbebe1c29	-0.3713086
19	0x3f018580	0.5059433
20	0x3e07f1c2	0.13275817
21	0xbef74dee	-0.48301643
22	0x3e5bae5e	0.21453235
23	0x3e315b3b	0.17319958
24	0xbe86041b	-0.26175007
25	0x3f090517	0.5352339
26	0xbf6124a1	-0.87946516
27	0xbeb1331d	-0.3460931
28	0xbfd92145	-1.6963278
29	0x3f8bc1ea	1.0918553
30	0xbecf0f42	-0.40441328
31	0xbf382a8e	-0.71939933
32	0x3f30d12b	0.69069165
33	0xbec6d8f6	-0.38837403
34	0xbf3767ed	-0.71642953
35	0x3e9aa71c	0.3020562
36	0x3f8d5dc2	1.1044238
37	0xbebc265f	-0.36748025
38	0xc010d05b	-2.262717
39	0x3fcf568d	1.6198288
40	0x3e22b560	0.15889502
41	0x3dc19903	0.09453013
42	0xbe812713	-0.25225124
43	0xbcc91518	-0.024546191
44	0xbd8b1c91	-0.06792558
45	0xbd2016b4	-0.03908415
46	0x3e6e8adf	0.23295163
47	0xbe7e0ad0	-0.24808812
48	0xbe8ff62b	-0.281175
49	0x3eac79ee	0.33686775
50	0x3fb500aa	1.4140828
51	0xbf04e969	-0.51918656
52	0x3e83c709	0.2573779
53	0x3cc3f216	0.023919147
54	0xbe4f688d	-0.20254727
55	0xbde27347	-0.11057144
56	0x3eda1abc	0.42598522
57	0xbe2f7868	-0.17135775
58	0xbf1342ea	-0.5752398
59	0x3f3d5356	0.73955286
60	0xbf054b4c	-0.5206802
61	0x3d0628d5	0.032753784
62	0x3da8f61e	0.08250068
63	0xbd968822	-0.07350184
64	0xbcc4a93f	-0.024006484
65	0x3dc17d03	0.09447672
66	0x3e02d9b1	0.12778355
67	0xbdf2ee42	-0.1186185
68	0xbed67b89	-0.41891125
69	0x3ea333be	0.31875414
70	0x3dcf9913	0.101366185
71	0x3e12d642	0.14339545
72	0x3e7a90a8	0.24469244
73	0xbe6eb614	-0.23311645
74	0xbd29d248	-0.041460305
75	0xbf297cfb	-0.6620633
76	0xbf23250a	-0.6372839
77	0xbe9e7cbb	-0.30954537
78	0xbf9b5f68	-1.2138491
79	0x3f4b34a4	0.793772
80	0xc02fc0ef	-2.7461507
81	0x3fde1d82	1.7352755
82	0x3db0bf03	0.086301826
83	0x3f15c63c	0.58505607
84	0x3f4159f2	0.7552787
85	0x3fa5d2a6	1.295491
86	0xc01a9eaf	-2.4159353
87	0x3e8139b1	0.25239328
88	0xc046af45	-3.1044476
89	0x3fb7cbcf	1.4359072
90	0x4033d9f0	2.8101768
91	0xbf2a83e3	-0.66607493
92	0xc006b98f	-2.1050756
93	0x3f85823c	1.0430369
94	0x3ecdf8e5	0.40228954
95	0x3f4585d9	0.7715736
96	0xbf01e247	-0.50735897
97	0x3f3ae36e	0.7300328
98	0x3a50c8a8	0.00079644704
99	0x3fbcdc41	1.4754716
100	0xbdf5a5fd	-0.119945504
101	0xbde328c0	-0.11091757
102	0x3e1d15e5	0.15340383
103	0x3e757dcd	0.2397377
104	0xbdd86ee4	-0.10568026
105	0x3e02aeaf	0.12761949
106	0xbdc5ef7f	-0.09664821
107	0xbde4195e	-0.11137651
108	0xbefe92d1	-0.49721387
109	0x3ec30bfd	0.38095084
110	0x3e9f8c35	0.31161657
111	0xbebcf2e8	-0.36904073
112	0x3f0082dd	0.5019968
113	0x3e3aa98d	0.18228741
114	0xbdf24c6a	-0.11830981
115	0x3e51b132	0.20477751
116	0x3f049b30	0.517993
117	0x3ecceccf	0.4002442
118	0xbf2697eb	-0.6507556
119	0x3f2c18de	0.67225444
120	0xbf6b7474	-0.9197457
121	0xbf037a0b	-0.513581
122	0x3f651279	0.8948131
123	0xbf1203a8	-0.5703683
124	0x3db651da	0.08902331
125	0x3df4d55b	0.11954757
126	0xbf87c3d3	-1.0606636
127	0x3e8cff36	0.2753846
128	0xbfe91321	-1.8208963
129	0x3fa5404b	1.2910246
130	0xbe494dac	-0.19658536
131	0x3f36b88f	0.71375364
132	0x3f8e2e2d	1.1107842
133	0xc0288629	-2.6331885
134	0xbf9b9bcb	-1.2156919
135	0x3fd1d12f	1.6391963
136	0x3fb75f8b	1.4326032
137	0xbf310c6e	-0.6915959
138	0xbf0a5b53	-0.540456
139	0x3fcb9e21	1.5907632
140	0x40af0d95	5.470408
141	0xbf62c3fe	-0.8858031
142	0x401ecc9d	2.4812386
143	0x3f5846db	0.84483117
144	0x3f6a7c14	0.9159558
145	0xbfd4cfe1	-1.662594
146	0x404fe83c	3.2485495
147	0xc016dc3d	-2.3571923
148	0x3ecc2b0c	0.39876592
149	0x40a58f12	5.1737146
150	0x3eea78b3	0.4579521
151	0xbe06e138	-0.13171852
152	0x3d7660dd	0.06015097
153	0xbcd98322	-0.026551787
154	0xbdbbb14f	-0.09164678
155	0x3ed0ff8c	0.40819967
156	0xbef23380	-0.47304916
157	0x3b44d0ba	0.0030031637
158	0xbf19aedc	-0.6003244
159	0x3f532397	0.8247618
160	0xbcb0b7b7	-0.021571977
161	0xbef12cde	-0.47104543
162	0x3e963e3d	0.2934436
163	0xbcdc6503	-0.026903635
164	0xbce0ab17	-0.027425332
165	0xbc1f651a	-0.009728694
166	0xbe03d6b9	-0.12874879
167	0xbea9df7d	-0.3317832
168	0x3df6f8ce	0.120591745
169	0x3f0fe5ea	0.56210196
170	0xbe9dcc2c	-0.30819833
171	0x3d9d1ab6	0.0767111
172	0xbcca2bc3	-0.02467907
173	0x3ebbee58	0.3670528
174	0xbed7ebf4	-0.42172205
175	0x3e9a6dee	0.30161995
176	0x3ee14d23	0.44004163
177	0x3c017777	0.007902018
178	0x3c4fd495	0.012684961
179	0x3f4dae34	0.8034394
180	0x3eb5d741	0.35515788
181	0x3e9dbed8	0.30809665
182	0x3f585093	0.84497947
183	0x3d9cd5a2	0.07657935
184	0xbe56ea82	-0.20987895
185	0x3e3900bd	0.18066688
186	0xbf18f83b	-0.5975377
187	0x3e05d322	0.13068822
188	0xbf5c691f	-0.860979
189	0x3f2cc6c0	0.6749077
190	0x3dcba8ab	0.0994428
191	0x3e0c15a2	0.13680127
192	0x3eb27710	0.34856462
193	0xbcab13d0	-0.02088347
194	0xbeb1fd78	-0.34763694
195	0x3cd71a82	0.026257757
196	0x3e8ab248	0.27089143
197	0xbda0b4b3	-0.07846966
198	0xbf340be1	-0.70330626
199	0x3e51bda7	0.20482503
200	0xbc285465	-0.0102740275
201	0x3e46fc11	0.19432093
202	0x3ea8457f	0.3286552
203	0xbd669128	-0.056290776
204	0x3d9c7b28	0.07640678
205	0x3e0047cc	0.12527388
206	0x3ed88f33	0.42296752
207	0xbd3f5961	-0.046716098
208	0xbeced154	-0.4039408
209	0x3eeaa660	0.4583006
210	0x3c5342ed	0.012894374
211	0xbd7f1b6b	-0.062282007
212	0x3e2924ee	0.16517994
213	0xbd2ed6eb	-0.04268543
214	0xbe5e4fb9	-0.217101
215	0xbebabbd9	-0.3647144
216	0xbe3933b8	-0.18086135
217	0xbdc3d446	-0.09561972
218	0xbf375075	-0.7160714
219	0x3f714246	0.9424175
220	0x3f2fc4e4	0.68659806
221	0x3d9e5564	0.07731131
222	0x3ee472ca	0.44618827
223	0xbea68708	-0.32524896
224	0xbd023266	-0.031786345
225	0x3d472015	0.04861458
226	0x3f4efdf1	0.80856234
227	0xbd85608b	-0.06512555
228	0xbe03712a	-0.12836137
229	0x3f1147d3	0.5675022
230	0x3b8168e1	0.00394927
231	0x3d828fd6	0.06375091
232	0xbd9ee277	-0.077580385
233	0xbcc08292	-0.02349976
234	0xbd12ddbf	-0.035856005
235	0x3cb86560	0.022509277
236	0xbe84f342	-0.2596684
237	0x3d48f5a2	0.04906238
238	0xbe169905	-0.1470681
239	0x3e9b9700	0.3038864
240	0xc027ee9e	-2.623939
241	0x40013489	2.0188315
242	0x3f3d07c3	0.7383997
243	0xbf061b51	-0.5238543
244	0xbfcfb4a9	-1.6227008
245	0x3eab22ac	0.3342489
246	0x3f1b2a2e	0.60611236
247	0xbf4655fe	-0.77474964
248	0xc06e6d45	-3.7254193
249	0xbdd4fcf1	-0.10399807
250	0x3e4d9230	0.20075297
251	0xbf1e425e	-0.6182002
252	0xbd46d1fd	-0.048540104
253	0x3ccfdd14	0.025373973
254	0x3e2c7585	0.16841705
255	0xbdc937ea	-0.09825118

network.0.bias f4 [256]
0	0xbf1d18e5	-0.6136611
1	0xbee30eda	-0.44347268
2	0xbf54e526	-0.8316215
3	0xbfb46f4c	-1.4096465
4	0xbe956de7	-0.2918541
5	0xbf515ff1	-0.8178702
6	0xbed903c7	-0.42385694
7	0xbf4305c2	-0.7618066
8	0x3e9fa3b4	0.31179583
9	0xbf21f429	-0.63263184
10	0xbf204197	-0.6260008
11	0xbf58ad99	-0.8463989
12	0xbf921f0f	-1.1415728
13	0xbf8b88e5	-1.0901152
14	0xbff3f318	-1.9058561
15	0xbf1c4bd6	-0.61053216
16	0xbef5814f	-0.47950217
17	0xbf781f7f	-0.9692306
18	0xbf3ec66d	-0.74521524
19	0xbf362266	-0.7114624
20	0xbef80477	-0.48440906
21	0xbf097924	-0.5370047
22	0xbf1750c0	-0.5910759
23	0xbe366c7e	-0.17814824
24	0xbdcec266	-0.10095672
25	0xbf2f3a65	-0.6844848
26	0xbf133f74	-0.57518697
27	0xbf6c535c	-0.92314696
28	0xbf195ece	-0.59910285
29	0xbf018776	-0.5059732
30	0xbfa1badb	-1.2635149
31	0xbf392d7d	-0.72335035
32	0xbf7a00e8	-0.9765763
33	0xbecea926	-0.40363425
34	0xbf19cf2a	-0.6008173
35	0xbec15ced	-0.3776621
36	0xbf01bcc9	-0.5067869
37	0xbf15dfc7	-0.5854458
38	0x3dd8848f	0.105721585
39	0xbf40adca	-0.7526518
40	0xbf2d1701	-0.67613226
41	0xbee715ce	-0.45133823
42	0xbef56bbb	-0.47933754
43	0xbf23e9c7	-0.6402859
44	0xbb8a66da	-0.0042236866
45	0xbf2510b4	-0.6447861
46	0xbf5c1593	-0.8597042
47	0xbeb42157	-0.35181686
48	0xbeebbf93	-0.46044597
49	0xbf2a03d2	-0.6641208
50	0xbf2e3955	-0.6805623
51	0xbf902e7e	-1.1264188
52	0xbf17e0f0	-0.593276
53	0xbfb69b5e	-1.4266164
54	0xbe18bbf2	-0.14915445
55	0xbbe9e92b	-0.0071383915
56	0xbedddd36	-0.43332833
57	0xbf1141ba	-0.56740916
58	0xbe669810	-0.22518945
59	0xbf13ba6f	-0.5770635
60	0xbe69fa49	-0.22849382
61	0xbf93d23d	-1.1548535
62	0xbf5e5aa0	-0.8685703
63	0xbfbed7e6	-1.4909637
64	0xbe8aea84	-0.27132046
65	0xbd4bc0e3	-0.049744498
66	0xbf56189d	-0.83631307
67	0xbf4c0ec8	-0.79710054
68	0x3e85476b	0.2603105
69	0xbf203ed1	-0.6259585
70	0x3d25df60	0.04049623
71	0xbf104b64	-0.56365037
72	0xbf1607a1	-0.5860539
73	0xbe37ff0b	-0.17968385
74	0xbe8bc336	-0.27297372
75	0xbe70176b	-0.23446433
76	0xbe677731	-0.22604062
77	0xbf1873ee	-0.59551895
78	0xbf3845a2	-0.7198125
79	0xbf2bbfb8	-0.67089415
80	0xbed44022	-0.4145518
81	0xbfa35634	-1.2760682
82	0xbf9f824f	-1.2461642
83	0xbeeb7ec7	-0.4599516
84	0xbec0a5fd	-0.3762664
85	0x3e229541	0.15877248
86	0xbdc1a0bd	-0.094544865
87	0xbf390a52	-0.7228137
88	0xbf1990d4	-0.59986615
89	0xbf232262	-0.6372434
90	0xbf5455bf	-0.8294334
91	0xbf018393	-0.5059139
92	0xbf4501a5	-0.76955634
93	0xbe0a352f	-0.1349685
94	0x3ef7fe37	0.48436138
95	0xbf179699	-0.5921417
96	0xbf6ab77a	-0.91686213
97	0xbf1ddb23	-0.616625
98	0xbfa4e25d	-1.288158
99	0xbe71b53d	-0.23604293
100	0xbeda96a3	-0.42693052
101	0xbf425ca8	-0.7592263
102	0xbf8cf716	-1.1012905
103	0xbf3aca3a	-0.72964823
104	0xbdb22659	-0.086987205
105	0xbefe0c7d	-0.49618903
106	0xbf00cd61	-0.50313383
107	0x3d0aef92	0.03391988
108	0xbf00e4c8	-0.5034909
109	0xbf1bd9f4	-0.60879445
110	0xbeeb075d	-0.45904055
111	0xbef8d1d8	-0.48597598
112	0xbfa342a3	-1.2754711
113	0xbf3f4132	-0.74708855
114	0xbf1e1f3f	-0.6176643
115	0xbf00bd05	-0.5028842
116	0xbf4c7a30	-0.79873943
117	0xbeaee0b8	-0.34155822
118	0xbe4bd3a6	-0.19904956
119	0xbf2d2e38	-0.6764865
120	0x3e0a262a	0.13491121
121	0xbf2bb4a1	-0.6707249
122	0xbefbb6c8	-0.4916289
123	0xbfb3a3cc	-1.4034362
124	0xbe868659	-0.26274374
125	0xbf48f734	-0.785022
126	0xbf662b2f	-0.8990964
127	0xbf1cbf47	-0.61229366
128	0xbf355b29	-0.70842224
129	0xbf2be283	-0.67142504
130	0xbea586b1	-0.32329324
131	0xbf5d0447	-0.8633465
132	0xbe3f14a7	-0.18660222
133	0xbf8a3cc8	-1.0799799
134	0xbf28b77f	-0.6590499
135	0xbee95e5e	-0.4557981
136	0xbefc5e45	-0.49290672
137	0xbf592dca	-0.84835494
138	0xbfa3f0ac	-1.2807822
139	0xbe941094	-0.28918898
140	0xbf25da22	-0.6478597
141	0xbe69a012	-0.22814968
142	0xbe498ec8	-0.19683373
143	0xbf121ca6	-0.57074964
144	0xbfd92009	-1.6962901
145	0xbf327b48	-0.6971936
146	0xbf120d92	-0.57051957
147	0xbe5a4e55	-0.21318944
148	0xbf010f65	-0.50414115
149	0xbf16258e	-0.58651054
150	0x3e28e248	0.1649257
151	0xbf07b2da	-0.5300728
152	0xbf0d79bd	-0.5526388
153	0xbeeb2aba	-0.45931035
154	0x3eca6d2e	0.39536422
155	0xbeb3ee98	-0.3514297
156	0xbeb7f0cc	-0.359259
157	0xbf3ab5bc	-0.72933555
158	0x3d23e71b	0.04001532
159	0xbf1816a0	-0.59409523
160	0xbeee4014	-0.46533263
161	0xbeee4c79	-0.4654272
162	0xbee8c019	-0.4545906
163	0xbecfd78e	-0.40594143
164	0xbf2e9448	-0.6819501
165	0xbf4e58ae	-0.80604064
166	0xbf30cbb7	-0.69060844
167	0xbf2a87de	-0.66613567
168	0xbf9be4b5	-1.2179171
169	0xbe911fa7	-0.2834446
170	0xbf85652c	-1.04215
171	0xbfd98185	-1.6992651
172	0xbed05caa	-0.40695697
173	0xbe5a1018	-0.21295202
174	0xbf03167b	-0.5120618
175	0xbe93c017	-0.2885749
176	0xbf40014a	-0.75001967
177	0xbf045bfe	-0.5170287
178	0xbede10b4	-0.43372118
179	0xbf377d29	-0.71675354
180	0xbf0983d0	-0.53716755
181	0xbe59b859	-0.2126173
182	0xbde82740	-0.11335611
183	0xbebc0051	-0.3671899
184	0xbf13e31c	-0.57768416
185	0xbef590a9	-0.4796193
186	0xbee9d90c	-0.45673406
187	0xbe9d5cb7	-0.30734798
188	0xbf5bcef4	-0.8586266
189	0xbebf1cb4	-0.37326586
190	0xbe75feb0	-0.24022937
191	0xbf5a8b4c	-0.853688
192	0xbf86ee46	-1.0541465
193	0xbf04b5f0	-0.51840115
194	0xbf258e93	-0.64670676
195	0xbf0c2515	-0.5474408
196	0xbf057636	-0.521335
197	0xbef0ce01	-0.47032169
198	0xbebe4ec0	-0.37169456
199	0xbf5c3173	-0.86012954
200	0xbf0ebe1a	-0.5575882
201	0xbf0bcb22	-0.5460683
202	0xbf0a532a	-0.5403315
203	0xbea39873	-0.31952247
204	0xc0361d12	-2.8455243
205	0xbf1d560d	-0.6145943
206	0xbeef5bbc	-0.46749675
207	0xbebb9158	-0.36634326
208	0xbef07396	-0.46963185
209	0xbf07aabb	-0.5299489
210	0xbfa06b4a	-1.2532742
211	0xbf1141ab	-0.56740826
212	0xbe8a7e5e	-0.27049536
213	0xbf954510	-1.1661701
214	0xbf191368	-0.59795237
215	0xbeda8198	-0.42676997
216	0xbee937cc	-0.45550382
217	0xbeff5f1f	-0.4987726
218	0xbefe737a	-0.49697477
219	0xbf35be4d	-0.709935
220	0xbf484862	-0.7823545
221	0xbf01d219	-0.5071121
222	0xbea4d104	-0.32190716
223	0xbef12131	-0.47095636
224	0xbf02ea05	-0.51138335
225	0xbebaae85	-0.36461273
226	0xbf07be10	-0.5302439
227	0xbef8a2f2	-0.48561817
228	0xbe42cb6f	-0.19022916
229	0xbf2f3edc	-0.6845529
230	0xbf0e01f8	-0.55471754
231	0xbf639d37	-0.88911766
232	0x3eef75e3	0.46769628
233	0xbf011e8e	-0.5043725
234	0xbf1f7c4b	-0.6229903
235	0xbf9fccfa	-1.2484429
236	0xbf13659b	-0.5757691
237	0xbe8eb6e3	-0.27873906
238	0x3f05a299	0.5220123
239	0xbe7bf995	-0.24606927
240	0xbfb60bb2	-1.4222319
241	0xbf0f3493	-0.55939597
242	0xbf0234a2	-0.5086156
243	0xbf3daa75	-0.7408822
244	0xbef52827	-0.47882196
245	0xbe90eec8	-0.28307176
246	0xbebd7ee1	-0.37010863
247	0xbf3df347	-0.74199337
248	0xbf397d3d	-0.72456723
249	0xbf013780	-0.5047531
250	0xbea1cfc9	-0.3160384
251	0xbf2de3e5	-0.67925864
252	0xbeaf60cf	-0.34253547
253	0xbf1f4748	-0.6221814
254	0xbfa20bda	-1.2659867
255	0xbf82e306	-1.0225532

network.2.weight f4 [256, 256]
0	0xbde7d4db	-0.11319896
1	0xbcbd45b6	-0.02310453
2	0xbd888bb5	-0.06667272
3	0xbd50b8fa	-0.050957657
4	0xbd61aa87	-0.05509427
5	0xbddd8813	-0.1081697
6	0xbd1b0ab3	-0.037852
7	0xbc86b6ab	-0.016444525
8	0xbdb192e4	-0.08670595
9	0xbc6d869f	-0.014497428
10	0x3b4973c0	0.0030739158
11	0x3cb776ec	0.022395574
12	0xbd0a573f	-0.03377461
13	0xbbe415e7	-0.006960619
14	0x3c396db0	0.011317655
15	0xbd5424db	-0.05179296
16	0xbcaeb010	-0.021324188
17	0x3d29fe02	0.041502006
18	0xbd5316f8	-0.051535577
19	0xbd108b90	-0.035289347
20	0x3cfef180	0.031121016
21	0xbd2e4c9e	-0.042553537
22	0xbdb3b315	-0.087743916
23	0xbd3f6846	-0.046730302
24	0xbbd1f638	-0.0064075254
25	0xbde9b129	-0.11410744
26	0x3d3197ba	0.04335759
27	0xbbcf2a8d	-0.006322211
28	0x3cc4798c	0.02398374
29	0x3d488d86	0.048963092
30	0xbd0455ae	-0.032308273
31	0xbb9bbe20	-0.0047528893
32	0xbdb058fc	-0.086107224
33	0xbd14713e	-0.03624081
34	0xbc9451fd	-0.018105501
35	0xbdd7e298	-0.10541266
36	0xbba3216d	-0.00497835
37	0xbd0b8f9b	-0.0340725
38	0xbbbfe482	-0.0058560977
39	0xbdf7204b	-0.12066706
40	0x3b994b00	0.00467813
41	0xbdf90097	-0.12158316
42	0xbcd5d484	-0.026102312
43	0xbdf81895	-0.12114064
44	0xbdd86971	-0.10566986
45	0x3d7d5676	0.061850034
46	0xbd3cff9f	-0.046142217
47	0xbcc35494	-0.02384404
48	0xbd11bdae	-0.035581283
49	0xbd9ed035	-0.07754556
50	0xbcc1cd1c	-0.023657374
51	0xbac0ed40	-0.0014719144
52	0xbd3f0d0b	-0.046643298
53	0xbd3e2b91	-0.046428267
54	0xbc9cd16d	-0.01914283
55	0xbcffec77	-0.031240685
56	0x3d3f4fb4	0.04670687
57	0xbdd99c07	-0.10625463
58	0xbda7c722	-0.081922784
59	0xbd700677	-0.058599915
60	0xbbe859e0	-0.007090792
61	0xbd4a236a	-0.04935018
62	0x3d2a631e	0.04159843
63	0xbb82f6fa	-0.003996727
64	0xbd2cb143	-0.042161237
65	0xbdd7fc8f	-0.105462186
66	0xbd884659	-0.06654043
67	0x3b0af793	0.0021204695
68	0xbdf1e193	-0.11810603
69	0xbdaacbac	-0.083396286
70	0x3aa52fc3	0.0012602735
71	0x3d2abd5c	0.041684493
72	0xbc968194	-0.018372335
73	0xbd992d25	-0.07479314
74	0x3afb509d	0.0019173805
75	0xbcbbb0df	-0.022911487
76	0xbd801ad4	-0.06255117
77	0xbda86692	-0.08222689
78	0xbb150631	-0.0022739286
79	0x3d89f06c	0.0673531
80	0xbd8d36fe	-0.068952546
81	0xbcac3574	-0.021021582
82	0xbde7cf1a	-0.11318798
83	0xbde70b8f	-0.112815015
84	0xbd1b5bdb	-0.037929397
85	0xbdbfd4fd	-0.09366796
86	0xbdd7a7f6	-0.10530083
87	0xbda8e4ef	-0.082467906
88	0xbd9051f7	-0.070468836
89	0xbd98f467	-0.07468491
90	0xbde09133	-0.109651946
91	0xbc94ccd2	-0.018164072
92	0x3c05f618	0.008176349
93	0xbd2826bc	-0.041052565
94	0xba1799db	-0.0005783119
95	0xbd651a62	-0.055933364
96	0xbd3f0e83	-0.0466447
97	0x3cf39af4	0.029736973
98	0xbcb17e3e	-0.021666642
99	0xbbdbd8b4	-0.0067091826
100	0xbd487256	-0.048937164
101	0xbdf6af01	-0.12045098
102	0xbd81a0c7	-0.06329494
103	0x3d1bd100	0.038041115
104	0xbdcf36ef	-0.101178996
105	0xbd38ed17	-0.04514798
106	0xbd2c05d1	-0.041997734
107	0xbd95cf5b	-0.073149405
108	0xbd446c54	-0.047954872
109	0xbadf8600	-0.0017053485
110	0xbdbc1067	-0.09182816
111	0xbd368af8	-0.044566125
112	0xbddcbd89	-0.107783385
113	0xbda9d677	-0.08292859
114	0xbd434694	-0.04767473
115	0xbca76f0b	-0.020438692
116	0xbb84d680	-0.0040538907
117	0xbd4e0547	-0.050298
118	0xbdb20d89	-0.08693988
119	0xbd47bc2a	-0.04876343
120	0xbd3e5748	-0.046469957
121	0xbdd18df0	-0.102321506
122	0xbd26e5f3	-0.04074664
123	0xbd1ae17c	-0.037812695
124	0xbd8bc227	-0.06824141
125	0x3d3e73e6	0.046497248
126	0xbbb191ef	-0.005419008
127	0x3a8e7240	0.0010867789
128	0xbde8fb69	-0.11376078
129	0x3c9264dc	0.01787036
130	0xbc032d8b	-0.008006464
131	0xbd9ee439	-0.07758374
132	0xbc304be0	-0.0107602775
133	0xbd848a85	-0.06471733
134	0xbd1f80ff	-0.03894138
135	0xbc53182f	-0.012884184
136	0xbde8e55f	-0.11371874
137	0xbc81b638	-0.015833959
138	0xbc04e76e	-0.008111818
139	0xbd172e28	-0.036909252
140	0xbd94221d	-0.07233069
141	0xbd4668b4	-0.048439696
142	0xbcf9e236	-0.030503374
143	0x3d2356be	0.039877646
144	0xbdd0b7f8	-0.10191339
145	0x3bc902e0	0.006134376
146	0xbd30bec2	-0.04315067
147	0xbc88826b	-0.01666375
148	0xbd21b55b	-0.039479595
149	0xbca45187	-0.020058407
150	0xbda694cd	-0.0813385
151	0xbbf31dd8	-0.007419329
152	0xbd9df5d8	-0.077129066
153	0xbdeeca8e	-0.11659728
154	0xbbc11ed8	-0.0058935694
155	0xbb284486	-0.0025675609
156	0xbd327571	-0.043569032
157	0x3d02d022	0.031936772
158	0xbd8b2fa7	-0.06796198
159	0x3d54684a	0.05185727
160	0xbdd4dec2	-0.1039405
161	0xbd0c5445	-0.034260053
162	0xbdb8c435	-0.090217985
163	0xbdad66c0	-0.08466864
164	0xbd71a71a	-0.05899725
165	0xbdd7c32f	-0.10535275
166	0xbdc0ab3d	-0.09407661
167	0xbce7c9f0	-0.028294533
168	0xbdca6a84	-0.098835975
169	0xbdd66708	-0.104688704
170	0xbca00601	-0.019534113
171	0xbdac16b6	-0.08402769
172	0xbd78cf31	-0.060744468
173	0xbd10f6c1	-0.035391573
174	0xbcdfe9c5	-0.02733315
175	0xbdd94275	-0.10608379
176	0xbdb397fa	-0.087692216
177	0xbc78e558	-0.015191399
178	0xbc94d858	-0.018169567
179	0xbd6040d5	-0.05474933
180	0xbdf24fd3	-0.118316315
181	0xba21f8b3	-0.00061787217
182	0xbdc1b9b5	-0.09459249
183	0xbd9fafe3	-0.077972196
184	0x3d474cc2	0.048657186
185	0xbd90a376	-0.07062428
186	0xbc9a0d1d	-0.018805081
187	0xbde77bdd	-0.11302922
188	0xbddd284f	-0.10798704
189	0xbb85702d	-0.0040722103
190	0xbca3bb2f	-0.019986717
191	0xbd0e0a2f	-0.03467768
192	0xbd62e614	-0.0553952
193	0xbd1019ec	-0.03518097
194	0xbc9a6011	-0.018844636
195	0xbc1b2628	-0.009469546
196	0xbc96bc0f	-0.01840022
197	0xbab73e00	-0.001398027
198	0x3d3554dc	0.04427038
199	0xbde71b97	-0.11284559
200	0xbd1959b4	-0.037439063
201	0xbd6bbff2	-0.0575561
202	0xbc30d4fe	-0.010792969
203	0xbd22254c	-0.03958635
204	0xbdddc0cf	-0.10827791
205	0xbde9264f	-0.1138426
206	0x3ace25c0	0.0015727803
207	0xbd309dfe	-0.043119423
208	0xbd5f1cda	-0.054470874
209	0x3ca06f40	0.019584298
210	0xbc98aae8	-0.018636182
211	0x3cea1e38	0.028578863
212	0xbd9e93ec	-0.077430576
213	0xbd66d901	-0.056359295
214	0xbd69910e	-0.0570231
215	0x3cf6757c	0.030085318
216	0xbc5b8458	-0.013398252
217	0xbd6e3f02	-0.058165558
218	0xbda84122	-0.08215548
219	0xbdd77ede	-0.10522245
220	0x3c9858ec	0.018597089
221	0x3c0c73d0	0.008572534
222	0xbdea3b66	-0.114371106
223	0xbd47dec6	-0.048796438
224	0xbd1d4be1	-0.038402442
225	0xbd7e928f	-0.062151488
226	0xbc449465	-0.011998271
227	0xbd74f03e	-0.059799425
228	0xbdabd05a	-0.08389349
229	0xbd56289c	-0.052284822
230	0xbde6a923	-0.11262729
231	0xbcb73389	-0.022363441
232	0xbc8a5fb4	-0.016891338
233	0x3cc40fc0	0.023933291
234	0xbde4083d	-0.11134384
235	0xbd1867ca	-0.037208356
236	0x3c4b43e8	0.012406327
237	0xbc886bff	-0.016653059
238	0xbc82d51f	-0.015970765
239	0xbc046ded	-0.008082849
240	0x3d020b84	0.031749263
241	0xbd0940f3	-0.033509206
242	0xbcf68030	-0.030090421
243	0xbd5c9075	-0.053848702
244	0x3d06ab94	0.032878473
245	0xbd946a35	-0.0724682
246	0xbd969957	-0.07353466
247	0xbcbd80dd	-0.023132736
248	0xbd811c85	-0.06304268
249	0xbd31ae5b	-0.04337917
250	0xbdaeb5c8	-0.08530766
251	0xbcd296b8	-0.025706634
252	0xb9f9951e	-0.00047604082
253	0xbd7ab8ce	-0.0612114
254	0xbc2c15f0	-0.010503277
255	0xbdb73ba5	-0.08946923

network.2.bias f4 [256]
0	0xbda1aaa5	-0.07893876
1	0xbed1fbf0	-0.41012526
2	0xbdca8963	-0.09889486
3	0xbd969566	-0.07352714
4	0xbe83a2f3	-0.25710258
5	0xbd2d8480	-0.04236269
6	0xbe41ed16	-0.18938097
7	0x3defbae6	0.1170557
8	0xbe4adee7	-0.19811593
9	0xbe007add	-0.12546869
10	0xbd9eab63	-0.07747533
11	0xbe3c717b	-0.18402664
12	0xbec0631b	-0.3757561
13	0xbe606414	-0.21913177
14	0xbde3c8b1	-0.11122263
15	0xbe10409d	-0.14087148
16	0x3f17ef6e	0.59349716
17	0xbec923bf	-0.39285085
18	0xbed6eac1	-0.41975978
19	0xbde72830	-0.11286962
20	0xbcb11516	-0.0216165
21	0xbda3adce	-0.07992135
22	0xbe62bea8	-0.22143042
23	0xbea4ea87	-0.3221018
24	0xbe157262	-0.14594415
25	0xbd5fb841	-0.054619078
26	0xbd5f2913	-0.05448253
27	0xbe920767	-0.28521273
28	0xbec57589	-0.38566235
29	0xbe076e2a	-0.13225618
30	0xbdfb3812	-0.12266554
31	0xbdaf5ce8	-0.08562642
32	0xbf836659	-1.0265609
33	0xbf7b2c91	-0.9811488
34	0xbdc6af43	-0.09701397
35	0xbe44d781	-0.19222833
36	0x3bbf6d64	0.005841898
37	0xbe0e588e	-0.13900968
38	0xbe9138b5	-0.28363577
39	0x3e5be78c	0.21475047
40	0xbdbd8eed	-0.092557766
41	0xbe34b8e1	-0.1764865
42	0xbda525ae	-0.080638275
43	0xbe8b1893	-0.27167186
44	0xbe1b94df	-0.15193509
45	0xbf592e7a	-0.8483654
46	0xbdc712dd	-0.09720395
47	0xbeb0a1f1	-0.3449855
48	0xbde01bf4	-0.10942832
49	0xbe79d7ce	-0.24398729
50	0xbe495ca8	-0.19664252
51	0xbdcfdb70	-0.10149276
52	0xbd573667	-0.052542116
53	0xbf37769a	-0.71665347
54	0xbe18ca0e	-0.14920828
55	0xbddfe0f7	-0.109315805
56	0xbeba0e7a	-0.3633917
57	0x3f86348f	1.048479
58	0xbe0a434e	-0.13502237
59	0xbf5cf54b	-0.8631179
60	0xbdd445be	-0.10364865
61	0xbe0b8a3b	-0.1362695
62	0xbe8ca085	-0.27466217
63	0xbdf94b8e	-0.12172614
64	0x3fca5d47	1.5809716
65	0xbe5eb57d	-0.2174892
66	0x3f1c9074	0.6115792
67	0xbdf7f45c	-0.12107155
68	0xbe70497e	-0.23465535
69	0xbe923070	-0.2855258
70	0x3e8f6401	0.28005984
71	0xbe0dcd8a	-0.13847938
72	0xbf111f34	-0.5668824
73	0xbe98752a	-0.2977689
74	0xbed38506	-0.41312426
75	0xbf524a72	-0.82144845
76	0xbed7213d	-0.42017546
77	0x3f9e0390	1.2344837
78	0x3fc5b397	1.5445431
79	0x3ee4b99f	0.44672868
80	0xbd99c999	-0.07509155
81	0xbe362fa2	-0.17791608
82	0xbe482571	-0.19545533
83	0xbede709e	-0.43445295
84	0xbd186650	-0.037206948
85	0xbea5d688	-0.32390237
86	0xbe0afa72	-0.135721
87	0xbf12662f	-0.5718717
88	0xbe8fab9a	-0.2806061
89	0xbdb2f009	-0.08737189
90	0xbdafbf5c	-0.08581421
91	0xbde63d18	-0.112421215
92	0xbd8dd4ab	-0.06925329
93	0x3a7f6746	0.0009742867
94	0xbdd588e4	-0.104265004
95	0xbdb850b6	-0.089997694
96	0xbd20149e	-0.039082162
97	0xbe9d3494	-0.30704176
98	0xbed1cdf6	-0.40977448
99	0xbeea714b	-0.4578956
100	0xbd9014af	-0.07035195
101	0xbf2dec03	-0.6793825
102	0xbdc56c7b	-0.09639832
103	0xbe33c58b	-0.17555825
104	0xbdb98d39	-0.09060139
105	0xbe6d7974	-0.23190862
106	0xbe6c7f7e	-0.2309551
107	0x3e1d1b65	0.15342481
108	0xbe4f9553	-0.20271806
109	0xbe36d30d	-0.17853947
110	0xbec5753e	-0.3856601
111	0xbece8798	-0.40337825
112	0xbeb77f6f	-0.35839412
113	0x3facd343	1.3501972
114	0x3eda0733	0.42583618
115	0xbf87bb15	-1.0603968
116	0x3f11f73c	0.57017875
117	0xbff0a56f	-1.8800486
118	0xbec04192	-0.37550026
119	0xbe6c4791	-0.23074175
120	0xbed399c8	-0.41328263
121	0xbf6c999f	-0.9242191
122	0xbe67c8f9	-0.22635259
123	0xbd9a9e8d	-0.075497724
124	0xbe77e76c	-0.24209374
125	0xbd911574	-0.0708417
126	0xbf8c5716	-1.0964077
127	0xbe4f0b5f	-0.20219181
128	0xbd0c7735	-0.034293372
129	0xbdb88468	-0.090096295
130	0xbeac8801	-0.33697513
131	0xbe7f2643	-0.2491694
132	0xbf3047df	-0.68859667
133	0xbf828b35	-1.0198733
134	0xbdef8285	-0.116948165
135	0x3e66612c	0.22498006
136	0xbde77db1	-0.113032706
137	0xbd98d3dc	-0.07462284
138	0xbecbe8d1	-0.39826062
139	0xbe9f4c1e	-0.3111276
140	0x3f4dd6bd	0.8040579
141	0xbd48a382	-0.04898406
142	0xbde34d93	-0.110987805
143	0xbe4f75e2	-0.20259812
144	0xbde9aef1	-0.114103206
145	0xbeab56db	-0.33464703
146	0xbe46b6bb	-0.19405644
147	0xbd17bb2d	-0.03704374
148	0xbe1d2861	-0.15347435
149	0xbd997ef8	-0.074949205
150	0xbec9bf32	-0.39403683
151	0xbed97132	-0.42469174
152	0xbe6a29c2	-0.22867492
153	0xbe770f8f	-0.24127029
154	0xbd817841	-0.06321765
155	0xbf248e4d	-0.64279634
156	0xbea61c27	-0.32443354
157	0xbec21022	-0.37902933
158	0xbeb30e6c	-0.3497194
159	0xbdccad0e	-0.09993945
160	0xbd51c6e8	-0.051215082
161	0xbd92273d	-0.0713639
162	0xbde167f7	-0.11006158
163	0xbdf562da	-0.11981745
164	0xbf32afb5	-0.6979936
165	0xbdb3dfb3	-0.087829016
166	0xbeb56222	-0.35426432
167	0xbea0e1d0	-0.3142228
168	0xbec0a4d5	-0.37625757
169	0xbe78115d	-0.24225374
170	0xbdb970fa	-0.09054752
171	0xbe588629	-0.21144928
172	0xbdd38516	-0.103281185
173	0xbf9f5fb5	-1.2451082
174	0xbe347b5c	-0.17625183
175	0x3fd16071	1.6357557
176	0xbf12ce75	-0.5734628
177	0x3f483581	0.7820664
178	0xbe1ce511	-0.15321757
179	0xbdcc2b11	-0.09969152
180	0x3fbe9f40	1.4892349
181	0xbd73f470	-0.059559286
182	0xbe5a5441	-0.21321203
183	0xbe826dd3	-0.25474414
184	0xbcdb6ec3	-0.026786214
185	0xbecd74a7	-0.4012806
186	0xbd9016db	-0.07035609
187	0xbba71fdd	-0.005100234
188	0xbf6b01ad	-0.9179943
189	0xbdb6d275	-0.0892686
190	0xbe0ab610	-0.13546014
191	0xbd7825ba	-0.060582854
192	0xbe2c769f	-0.16842125
193	0xbd51a465	-0.05118217
194	0xbf0bedb6	-0.54659593
195	0xbe8884bf	-0.26663777
196	0xbeb491e5	-0.3526756
197	0xbcf00e60	-0.02930373
198	0xbf23907d	-0.63892347
199	0xbf4539da	-0.770414
200	0xbedfca18	-0.43708873
201	0xbf1b3a29	-0.6063562
202	0xbe585097	-0.21124493
203	0xbf385ebf	-0.7201957
204	0xbdb4633b	-0.08807989
205	0xbe201b50	-0.15635419
206	0xbd7e4656	-0.062078796
207	0xbeda4cd3	-0.42636737
208	0xbdcff4bb	-0.101541005
209	0xc00899b3	-2.134381
210	0xbf101670	-0.56284237
211	0xbddafce0	-0.10692763
212	0xbd17517e	-0.03694295
213	0x3fa0d100	1.2563782
214	0xbe8cb9fd	-0.27485648
215	0xbcc1f3bc	-0.023675792
216	0xbed65306	-0.41860217
217	0xbd3a37f3	-0.045463514
218	0xbdcdd500	-0.10050392
219	0xbf379717	-0.7171492
220	0xbd7e7e9f	-0.062132474
221	0xbdcd5cfd	-0.10027502
222	0xbf093127	-0.53590626
223	0xbd2960d1	-0.041352097
224	0xbee70d57	-0.45127365
225	0xbe980aaa	-0.29695636
226	0xbd84c063	-0.06482007
227	0xbdc17caa	-0.09447606
228	0x3f56145c	0.83624816
229	0xbe862278	-0.26198173
230	0xbece0275	-0.4023625
231	0xbf78933b	-0.97099656
232	0xbdf3d94f	-0.11906683
233	0xbf7c6313	-0.98588675
234	0xbdb7bb08	-0.0897122
235	0xbdeb86ae	-0.115002975
236	0xbf001869	-0.50037247
237	0xbf4d4dde	-0.8019694
238	0xbe9b1556	-0.30289716
239	0xbf4e3508	-0.8054967
240	0xbee4ddce	-0.44700474
241	0xbe103f84	-0.1408673
242	0xbe374fbf	-0.17901514
243	0xbee69ee8	-0.4504311
244	0xbe19ed0d	-0.15031834
245	0xbe31413f	-0.17310046
246	0xbdbfe7f9	-0.09370417
247	0x3faacdb9	1.3344032
248	0x3ea45f48	0.32103944
249	0xbf18065a	-0.5938469
250	0xbcfd9f27	-0.030959679
251	0xbe898cd7	-0.26865265
252	0xbe834409	-0.25637844
253	0xbefbb776	-0.49163407
254	0xbfd22891	-1.641863
255	0xbda77d26	-0.08178167

network.4.weight f4 [10, 256]
0	0xbd2ffb59	-0.042964313
1	0x3e3d1b42	0.1846743
2	0xbcf1aecb	-0.029502293
3	0x3e1dde95	0.1541694
4	0xbe346bb1	-0.17619206
5	0xbc9a5e9f	-0.018843947
6	0x3de312c6	0.11087565
7	0x3e955f89	0.2917445
8	0x3cda032f	0.026612846
9	0xbd0abb87	-0.033870246
10	0xbd42a0cd	-0.047516633
11	0x3d3a16a7	0.04543176
12	0x3dc57766	0.09641914
13	0xbca2eead	-0.0198892
14	0xbd86d55b	-0.06583663
15	0x3dcafba5	0.09911279
16	0x3ecf283c	0.40460384
17	0x3e89392b	0.26801428
18	0x3e8f439d	0.27981272
19	0x3da2f25a	0.07956381
20	0xbd4ca5b4	-0.049962714
21	0xbd8b08d8	-0.06788796
22	0xbd8b82bb	-0.06812044
23	0x3b9c7228	0.0047743507
24	0x3de588e9	0.11207754
25	0x3ad052a5	0.0015893771
26	0x3d64fd93	0.05590589
27	0xbe85e0c1	-0.26148036
28	0xbe4d02fd	-0.20020671
29	0xbd3ae799	-0.045631025
30	0x3e5fc365	0.21851881
31	0x3d074c55	0.03303178
32	0x3f1c8f54	0.611562
33	0x3ead7621	0.33879188
34	0x3dbb3cfd	0.09142492
35	0x3c935de5	0.017989108
36	0xbf2609eb	-0.64858884
37	0xbd6be138	-0.057587832
38	0x3ddc5593	0.107585095
39	0x3e20c75a	0.15701047
40	0xbbaab96e	-0.005210093
41	0x3db67a5e	0.089100584
42	0x3dbb3188	0.09140307
43	0xbd03a158	-0.03213629
44	0x3e27768a	0.16353813
45	0xbdd2fd13	-0.10302176
46	0x3c49b71d	0.012311724
47	0x3da00c7a	0.0781488
48	0x3cfb8362	0.030702297
49	0x3e8e5e15	0.27806154
50	0xbe13a0bc	-0.14416784
51	0x3c669a69	0.0140749
52	0xbdf8c8fd	-0.121477105
53	0x3d402d60	0.046918273
54	0xbdb0d07b	-0.086335145
55	0x3caed1ce	0.021340277
56	0xbde826a3	-0.11335494
57	0xbf0938cc	-0.5360229
58	0xbd822ce0	-0.063562155
59	0x3dc51940	0.09623957
60	0x3d452c40	0.048137903
61	0x3c51c3ee	0.012803061
62	0x3e61e9f3	0.22061901
63	0x3e4d30ea	0.2003819
64	0xbf3e5430	-0.7434721
65	0x3d980d09	0.07424361
66	0xbe019867	-0.12655793
67	0xbd64837d	-0.05578946
68	0xbdcb8f54	-0.09939447
69	0xbe8831ca	-0.26600486
70	0x3f7e3208	0.9929509
71	0x3dcc7f87	0.099852614
72	0x3d5262c7	0.051363733
73	0x3e80a4b0	0.25125647
74	0xbe0ef50c	-0.13960665
75	0xbcc7cfb1	-0.024391027
76	0xbe58e41f	-0.21180771
77	0xbccd4660	-0.025057971
78	0xbf22e35a	-0.6362816
79	0xbec637fb	-0.38714585
80	0x3d0f9046	0.0350497
81	0xbcdb2c4d	-0.026754523
82	0x3b90f9c0	0.004424304
83	0x3e5ea154	0.2174123
84	0xbcdec959	-0.02719562
85	0xbe3bafe3	-0.18328814
86	0xbd8f547a	-0.069985345
87	0x3f453b27	0.77043384
88	0x3e0803dc	0.13282722
89	0x3d147995	0.036248762
90	0x3d13336c	0.03593771
91	0xbd9d582f	-0.07682835
92	0xbdc83425	-0.09775571
93	0x3e43867a	0.19094267
94	0x3c8e2e70	0.017356128
95	0xbd65cc72	-0.056103177
96	0xbd20aafb	-0.03922556
97	0x3ccfa193	0.0253456
98	0xbf5429ec	-0.8287647
99	0x3ebc3552	0.3675943
100	0xbd7f0867	-0.062263872
101	0xbea9cf7f	-0.3316612
102	0x3edb020d	0.42775002
103	0xbd83f38f	-0.064429395
104	0xbc12f6ae	-0.008969946
105	0xbcf135d6	-0.029444616
106	0xbde145b2	-0.109996215
107	0x3efa79e5	0.48921123
108	0xbebb2eaa	-0.3655904
109	0xbce14cad	-0.027502382
110	0xbeafd5ac	-0.34342706
111	0x3f045c61	0.5170346
112	0xbc14a8af	-0.00907342
113	0xbe01b387	-0.1266614
114	0xbf3ee7c2	-0.74572384
115	0xbf113dbf	-0.5673484
116	0x3f2fffc5	0.6874965
117	0x3dd4a941	0.10383845
118	0x3e67cdcf	0.22637103
119	0xbdc426cc	-0.095777124
120	0xbe7755fa	-0.24153891
121	0xbd991cee	-0.07476221
122	0x3d6afa6c	0.057367727
123	0x3c95b1f9	0.01827334
124	0x3daa1dd2	0.08306469
125	0xbd655159	-0.055985782
126	0xbd166587	-0.036717918
127	0x3df91f52	0.12164177
128	0xbc0a23a1	-0.008431346
129	0x3ba4a1ca	0.0050241696
130	0x3eccdd77	0.40012714
131	0xbe5970e7	-0.21234475
132	0x3eba79fe	0.36421198
133	0xbef98b6b	-0.4873918
134	0x3df4d261	0.11954189
135	0xbf33512a	-0.7004572
136	0xbc7e9ff6	-0.015541067
137	0x3dd36465	0.10321883
138	0xbeeaeda5	-0.45884433
139	0xbc93c7c3	-0.01803959
140	0x3f1b4e7e	0.60666645
141	0xbda19479	-0.07889647
142	0xbd5d2bcd	-0.05399685
143	0x3e252a9d	0.16129537
144	0x3d7e50e4	0.062088862
145	0xbe084b74	-0.13310033
146	0x3d25acaf	0.040447887
147	0x3db4f072	0.08834924
148	0xbdd22701	-0.10261346
149	0x3da9c793	0.08290019
150	0x3ed9e0ef	0.42554423
151	0xbf083f49	-0.53221565
152	0x3c8fa1a3	0.01753313
153	0x3e067dc4	0.13133913
154	0xbdb2f425	-0.08737973
155	0xbe7bffa5	-0.2460924
156	0xbdaf96bb	-0.085736714
157	0x3eb25ad6	0.34834927
158	0x3d89026c	0.06689915
159	0x3c5f97d9	0.013647043
160	0x3da5d992	0.08098139
161	0x3cc61b80	0.024183035
162	0x3dd6473a	0.10462804
163	0x3c72e049	0.014823982
164	0x3f149478	0.58039045
165	0xbe9dcf48	-0.30822206
166	0xbe34bbe4	-0.176498
167	0x3e6fcb9d	0.23417516
168	0x3e8a0c2c	0.2696241
169	0xbf40f220	-0.75369453
170	0xbd22e519	-0.039769266
171	0xbdabc8e7	-0.083879285
172	0x3c529aa7	0.012854255
173	0xbe96482a	-0.29351932
174	0xbbd95258	-0.0066321306
175	0x3eec715a	0.4618023
176	0x3ea578e3	0.32318792
177	0x3f1662c6	0.58744466
178	0xbe4a195b	-0.19736235
179	0xbc915869	-0.017742353
180	0xbc9c990a	-0.019115943
181	0xbd31b51f	-0.04338562
182	0x3e7b31e6	0.24530753
183	0xbcb64e90	-0.022254258
184	0xbc7e172e	-0.015508456
185	0x3e87d639	0.26530626
186	0x3dc40197	0.09570616
187	0x3e79e02c	0.24401921
188	0xbd58278d	-0.052772094
189	0xbc99af70	-0.018760413
190	0xbd0915a5	-0.033467907
191	0xbd995b20	-0.07488084
192	0xbdb33ba9	-0.08751614
193	0x3dd9876c	0.10621533
194	0x3e0a8a7e	0.13529393
195	0x3e31d9ce	0.17368242
196	0xbe89da44	-0.26924336
197	0xbca6155d	-0.020273859
198	0xbee82f15	-0.4534842
199	0x3f1a0b70	0.601737
200	0xbf04b233	-0.5183441
201	0x3ef3fde9	0.47654656
202	0xbdd84290	-0.10559571
203	0x3e94e1af	0.29078433
204	0x3d0ceb38	0.03440401
205	0x3c984aae	0.018590298
206	0xbc13fcc6	-0.009032434
207	0xbe9f9d50	-0.31174707
208	0xbdd95d7b	-0.10613533
209	0xbff7308b	-1.9311689
210	0xbe049ed7	-0.12951218
211	0xbcf7763a	-0.030207742
212	0x3d09539a	0.033526994
213	0xbd834f12	-0.06411566
214	0xbe620c09	-0.22074904
215	0x3debeae0	0.11519408
216	0xbea36069	-0.31909493
217	0xbd7f26fe	-0.062293045
218	0x3dab5748	0.08366257
219	0x3e2277cb	0.1586601
220	0x3c1e934b	0.009678672
221	0x3d0c8184	0.034303203
222	0xbe825245	-0.25453392
223	0x3da04b91	0.07826913
224	0xbe1977bb	-0.1498708
225	0xbd9e0b14	-0.07716957
226	0xbd8234e9	-0.06357748
227	0xbaded78b	-0.0017001493
228	0x3e501fda	0.2032465
229	0x3c17e638	0.009271197
230	0xbec7a7df	-0.38995263
231	0xbf027a6e	-0.5096806
232	0xbc4820c9	-0.012214848
233	0xbec66192	-0.38746315
234	0xbd82871d	-0.06373427
235	0xbdc346f5	-0.09535018
236	0xbe99ac0f	-0.30014083
237	0x3f475a93	0.7787258
238	0x3df6eefc	0.120573014
239	0x3e906914	0.28205168
240	0x3c27bc0f	0.010237708
241	0x3ecaf0c2	0.3963681
242	0x3e095031	0.13409497
243	0xbe9ac46b	-0.3022798
244	0xbd024732	-0.03180618
245	0xbe48997e	-0.19589803
246	0xbc54b1f3	-0.0129818795
247	0x3f3916f8	0.7230067
248	0xbf30fe2b	-0.6913783
249	0xbf13e612	-0.57772934
250	0xbd7b7595	-0.06139143
251	0x3dba8c0f	0.09108745
252	0xbdabc6db	-0.08387538
253	0xbe1199a7	-0.1421877
254	0x3f4a86b2	0.7911178
255	0xbd9bee04	-0.07613757

network.4.bias f4 [10]
0	0xbfc12974	-1.5090775
1	0xbf99ee2d	-1.202581
2	0x3f2f922d	0.6858242
3	0x3f24b49a	0.64338076
4	0x3fd903ae	1.6954248
5	0xbf94d7ce	-1.1628358
6	0xbf88f7e5	-1.0700651
7	0xbf95404b	-1.1660246
8	0xbf860e16	-1.0473049
9	0xbf8d8c7e	-1.10585
