Training/Model/model_actor_robot_subset_joint5_04.pt (torch, 279087 bytes, 6 tensors)

network.0.weight f4 [256, 10]
0.28860685 0.34308916 -0.21043272 0.05571184 -0.016100185 -0.13577226 -0.22718915 0.16003762
0.030635167 -0.063351616 -0.04065178 -0.0963901 -0.65754175 -0.20435104 -0.24947228 -0.15846853
0.32908115 0.4050367 0.25444117 -0.04419784 0.07647809 -0.2582771 -0.043833166 -0.078566425
-0.22996224 0.0026666936 -0.0018587264 0.3759146 0.06749696 0.21680667 0.16898456 0.088129394
-0.1346052 0.3902186 -0.039580986 0.49172515 -0.11093736 -0.17782141 0.06485451 -0.47144037
0.044928905 0.41027766 0.046389148 -0.019285575 0.15900765 -0.036543712 0.21740769 0.20570312
-0.26077378 0.37637168 0.1951966 -0.15237658 0.26304808 0.11989117 0.047638237 -0.07708964
0.06881234 -0.03715536 -0.119542465 -0.13302894 0.3240338 -0.07932031 -0.07274207 -0.042955887
0.024311814 -0.17556943 -0.13665178 -0.20057769 0.04071887 0.06731453 -0.18698104 0.14092442
0.17978178 0.094226345 0.23301435 0.9707476 0.20302087 -1.5790999 -0.009176236 -0.14289072
-0.09838739 0.14287704 0.2155014 -0.23901731 -0.1291422 -0.111658126 0.011875063 0.009123832
0.3004116 -0.289377 0.26194707 -0.033647478 -0.18750796 -0.06337538 0.0458059 0.13357577
-0.06493139 0.044238478 -0.050513715 0.04475051 -0.004328702 0.5032387 -0.18146227 0.39276072
-0.17213292 0.66031283 -0.18650277 -1.0914953 -0.21303171 -0.20253971 -0.05523554 0.480152
0.24972713 0.27153307 0.13473871 0.1619035 -0.008470828 0.07749329 -0.14457639 -0.13251105
0.3274298 0.08544183 0.0838131 -0.056966033 0.19396982 0.10940678 0.068139516 0.06820015
-0.28607047 0.36244753 0.012480438 0.077022254 -0.12785295 0.0090735555 -0.005946487 0.06483108
0.20010164 -0.26032868 -0.18732381 0.06538522 0.12505755 -0.02188477 0.16029528 0.054220796
-0.16452925 -0.28015298 -0.18288738 0.00064599514 0.014557034 -0.19283119 0.2882585 -0.12798448
0.106937796 0.27206466 0.46056467 -0.19354267 0.4592137 0.38140067 -0.4068567 -0.029252794
-0.06489651 0.28748688 -0.23900433 0.39918292 0.065457515 -0.3620958 0.3637596 -0.30014366
0.031190803 0.25357506 -0.27508834 -0.17920178 0.26557866 0.07646963 -0.24564454 -0.20920871
0.19045177 0.04038024 -0.17620625 0.20662722 0.41156587 0.3471037 -0.12422407 -0.18307662
-0.14135084 -0.09988468 0.14213474 -0.036765676 -0.036180682 0.12863317 0.13274436 0.4390283
0.38740712 -0.080469616 0.35236552 0.5970431 -0.019540243 0.2431589 -0.20890199 -0.022949388
-0.15146351 0.39289308 -0.13742897 -0.09446399 0.19723248 -0.07486982 0.13770907 0.034915928
0.1180655 0.3079048 0.07091483 -0.0952674 -0.08348297 0.24729492 0.16322707 -0.18417346
0.18645783 -0.1247005 -0.24323162 0.37506104 0.04683134 -0.21397474 0.24826911 -0.31539214
0.03964165 0.09104246 0.1401161 0.091905504 -0.2733747 0.16212064 0.03879729 0.13842836
0.1130445 0.19811699 -0.06680027 -0.16565104 -0.070005 0.11287093 -0.27358398 0.30548128
0.27744022 6.365776e-05 0.14658228 0.27388957 -0.26997873 -0.24171768 -0.18386267 -0.030813694
-0.22391027 0.21068075 0.2071267 0.10116057 0.2193669 0.14192714 -0.09566589 -0.21329346
00000000: 47c4 933e 62a9 af3e ad7b 57be 1932 643d
00000010: 89e4 83bc e207 0bbe 46a4 68be e7e0 233e
00000020: 9af6 fa3c 7ebe 81bd 7b82 26bd 2c68 c5bd
00000030: a854 28bf 6641 51be a975 7fbe 9345 22be
00000040: 537d a83e f860 cf3e 1d46 823e cb08 35bd
00000050: 8ba0 9c3d e53c 84be 688a 33bd 6fe7 a0bd
00000060: 397b 6bbe b2c3 2e3b 82a0 f3ba e177 c03e
00000070: d93b 8a3d 9102 5e3e 4a0a 2d3e 2f7d b43d
00000080: f2d5 09be bbca c73e ac1f 22bd 66c3 fb3e
00000090: 2033 e3bd d116 36be 71d2 843d a260 f1be
000000a0: 5f07 383d ea0f d23e 8c02 3e3d c8fc 9dbc
000000b0: e7d2 223e dcae 15bd 1fa0 5e3e d7a3 523e
000000c0: 2484 85be cab3 c03e 9ee1 473e 9b08 1cbe
000000d0: 3dae 863e 8089 f53d 5020 433d 2ce1 9dbd
000000e0: 7ced 8c3d 3830 18bd aed2 f4bd bd38 08be
000000f0: c2e7 a53e b072 a2bd cbf9 94bd 83f2 2fbd
00000100: 9229 c73c 79c8 33be 72ee 0bbe 3d64 4dbe
00000110: d4c8 263d 33dc 893d f577 3fbe 7e4e 103e
00000120: b718 383e bef9 c03d 509b 6e3e ea82 783f
00000130: b4e4 4f3e f21f cabf ec57 16bc f251 12be
00000140: 547f c9bd 5c4e 123e 66ac 5c3e f4c0 74be
00000150: da3d 04be 04ad e4bd a08f 423c 207c 153c
00000160: 8dcf 993e 3929 94be ed1d 863e f0d1 09bd
00000170: 1602 40be f4ca 81bd f89e 3b3d 16c8 083e
00000180: c0fa 84bd 6833 353d 78e7 4ebd 504c 373d
00000190: c9d7 8dbb 40d4 003f 3fd1 39be ef17 c93e
000001a0: 9d43 30be 430a 293f 95fa 3ebe 1eb6 8bbf
000001b0: fc24 5abe 9266 4fbe a93e 62bd 7cd6 f53e
000001c0: 78b8 7f3e 6206 8b3e f2f8 093e 08ca 253e
000001d0: 3ac9 0abc cdb4 9e3d d50b 14be fab0 07be
000001e0: e1a4 a73e 20fc ae3d 34a6 ab3d 3755 69bd
000001f0: 06a0 463e a910 e03d bb8c 8b3d 85ac 8b3d
00000200: d477 92be b992 b93e c07a 4c3c d8bd 9d3d
00000210: e2eb 02be 40a9 143c c0da c2bb 28c6 843d
00000220: 72e7 4c3e cd49 85be d0d1 3fbe b0e8 853d
00000230: 160f 003e b047 b3bc 7224 243e a016 5e3d
00000240: 5b7a 28be 3670 8fbe d446 3bbe 0058 293a
00000250: a080 6e3c 8a75 45be 9e96 933e 5d0e 03be
00000260: 3402 db3d 0f4c 8b3e 22cf eb3e 0d30 46be
00000270: 0f1e eb3e f346 c33e 854f d0be 8ea3 efbc
00000280: 76e8 84bd 7b31 933e 8dbd 74be b461 cc3e
00000290: 970e 863d 9f64 b9be b33e ba3e 6eac 99be
000002a0: db83 ff3c 97d4 813e 61d8 8cbe ac80 37be
000002b0: edf9 873e 1c9c 9c3d 3e8a 7bbe cf3a 56be
000002c0: ca05 433e c065 253d 696f 34be 1696 533e
000002d0: c3b8 d23e 93b7 b13e 3069 febd 7078 3bbe
000002e0: 46be 10be 5790 ccbd c58b 113e 9b97 16bd
000002f0: 3232 14bd 6ab8 033e 23ee 073e 51c8 e03e
00000300: 3a5a c63e 41cd a4bd 4169 b43e d1d7 183f
00000310: dc12 a0bc a6fe 783e 67ea 55be 5b00 bcbc
00000320: 4019 1bbe 4829 c93e 2eba 0cbe 5676 c1bd
00000330: 50f7 493e 5955 99bd 9b03 0d3e 0104 0f3d
00000340: 53cc f13d b3a5 9d3e cb3b 913d 8e1b c3bd
00000350: 1ff9 aabd e13a 7d3e ff24 273e f897 3cbe
00000360: cdee 3e3e fa62 ffbd b611 79be 0008 c03e
00000370: 38d2 3f3d 321c 5bbe 423a 7e3e 147b a1be
00000380: 485f 223d 7874 ba3d 987a 0f3e f438 bc3d
00000390: c5f7 8bbe f402 263e e8e9 1e3d 2ac0 0d3e
000003a0: e083 e73d 2edf 4a3e 94ce 88bd 6da0 29be
000003b0: c85e 8fbd e028 e73d 3313 8cbe 0b68 9c3e
000003c0: a50c 8e3e 0080 8538 aa19 163e 413b 8c3e
000003d0: a73a 8abe d784 77be 7f46 3cbe 006d fcbc
000003e0: bc48 65be b2bc 573e 0619 543e 462d cf3d
000003f0: b7a1 603e 5955 113e 7aec c3bd 9a69 5abe

network.0.bias f4 [256]
-0.1404437 0.2748266 -0.11380854 -0.038678642 -0.034715313 -0.15694077 -0.1888102 -0.054810047
-0.29038766 -0.2960906 0.09498119 0.03962864 0.10635569 0.013577551 -0.20836946 0.10653329
-0.06514264 -0.15095554 -0.048913755 -0.01444753 -0.17300864 0.033839967 -0.109180585 -0.1375064
-0.30819595 0.07820584 0.06124285 -0.068191424 -0.31393752 -0.17611717 -0.06343546 0.09806573
-0.1315135 0.16703813 0.10115374 -0.15720798 -0.28899518 0.017045727 -0.09539822 -0.005126173
-0.16693372 0.05114366 -0.25997362 -0.21752532 0.006204826 -0.13772006 -0.018685931 -0.13664676
-0.040771827 -0.16727704 -0.029741053 -0.13001332 -0.17708312 -0.29329076 -0.056161582 0.10465592
-0.15050223 -0.27241424 -0.0795238 0.118315674 -0.2547829 -0.12303734 0.27295262 -0.16044818
0.06683552 -0.09737349 -0.12853451 0.11557255 -0.13525125 0.06678739 0.04129488 -0.21838412
-0.0016241544 0.063718714 -0.09847176 -0.2489956 -0.25396955 0.03449723 0.34873095 0.19675072
0.0689927 0.010799228 -0.2687549 -0.20516902 -0.31493282 0.0026459692 0.00821472 0.12921968
-0.26564834 -0.13677087 0.1675065 -0.32338116 0.070980005 -0.28096443 0.019415408 -0.19522895
-0.18856929 -0.02038689 -0.13724177 -0.06276463 -0.2988656 -0.23765463 -0.2509331 -0.26153886
-0.06755233 0.04341526 0.048389286 -0.14985788 -0.14411624 -0.21616216 -0.19659458 -0.22665225
-0.195034 0.075217955 0.07327937 0.055527933 -0.05338416 -0.28307784 0.07322571 -0.1441251
-0.11975216 -0.2088876 -0.099745624 0.013154086 0.1232184 0.09888538 0.14070481 -0.100827634
-0.018304143 0.042369425 -0.19843331 0.0516017 -0.059303194 -0.0394949 0.077614546 -0.17439556
-0.20370314 -0.31453982 -0.094014406 0.07305175 0.012407956 0.12427017 -0.12411629 0.13033454
-0.19203413 0.17520681 -0.2086592 0.0037518023 -0.19910684 -0.05741185 -0.16377015 0.078975484
-0.19798571 0.048147008 -0.14031807 -0.06351686 -0.31260931 -0.23290291 -0.23889841 -0.09867736
0.06832124 -0.2725152 -0.2170752 -0.06506669 -0.0874369 -0.17398778 0.13470073 -0.20389026
-0.052753925 -0.1812311 -0.16903833 -0.27279475 0.20110658 0.061558604 0.18544911 -0.23214546
-0.059917092 -0.1060327 0.027879747 -0.0803159 -0.03012523 -0.059116106 0.067717694 -0.06565416
0.07525037 -0.13800623 0.07419123 0.10668546 0.02250647 0.21813668 0.04411498 0.08417096
-0.06172414 0.115867846 -0.13984416 -0.27963203 -0.22113013 -0.089559205 0.034929097 -0.29166108
-0.36892527 -0.31154007 -0.130455 0.1693198 -0.03119567 -0.26606554 -0.05680141 -0.1652892
-0.29035193 -0.009596069 0.23074962 -0.07722203 0.09962081 0.0029131556 -0.1443849 0.21624736
-0.030893655 -0.3028093 -0.11115448 0.098329514 -0.26735836 0.007101282 0.058433603 0.06248818
-0.092879556 -0.16176626 0.015308663 -0.20302911 -0.09637371 -0.084369905 -0.03488767 0.10344442
0.08732115 0.1507394 0.017337957 -0.25116578 -0.07891463 -0.047344968 0.16532609 0.14120579
-0.22182852 -0.17492352 -0.13116927 -0.052450575 0.0155442925 -0.24590325 0.14644967 -0.053287122
-0.13779606 -0.23009115 -0.026232015 0.01626783 -0.10381086 -0.110855184 -0.18069346 -0.018257266
00000000: 79d0 0fbe 12b6 8c3e 7414 e9bd 7f6d 1ebd
00000010: a531 0ebd 15b5 20be 7657 41be 8080 60bd
00000020: b1ad 94be 3099 97be 8085 c23d a451 223d
00000030: 03d1 d93d 6074 5e3c ce5e 55be 202e da3d
00000040: 8169 85bd 1794 1abe ca59 48bd 55b5 6cbc
00000050: 2d29 31be c79b 0a3d 129a dfbd 7ace 0cbe
00000060: dccb 9dbe 622a a03d c8d9 7a3d f2a7 8bbd
00000070: 6bbc a0be 0f58 34be 73ea 81bd afd6 c83d
00000080: 7aab 06be 0b0c 2b3e b129 cf3d 21fb 20be
00000090: 2df7 93be 7ba3 8b3c 2460 c3bd 75f9 a7bb
000000a0: acf0 2abe 047c 513d 431b 85be f5be 5ebe
000000b0: da51 cb3b 7d06 0dbe 3d13 99bc 21ed 0bbe
000000c0: 5c00 27bd ac4a 2bbe 82a3 f3bc 3622 05be
000000d0: 4755 35be 352a 96be b009 66bd d855 d63d
000000e0: 421d 1abe e179 8bbe 60dd a2bd 7d4f f23d
000000f0: e772 82be 00fb fbbd 72c0 8b3e 874c 24be
00000100: 10e1 883d c16b c7bd 8d9e 03be 4db1 ec3d
00000110: 4e7f 0abe d4c7 883d d224 293d 16a0 5fbe
00000120: 94e1 d4ba f57e 823d 90ab c9bd b4f8 7ebe
00000130: 4c08 82be f84c 0d3d dd8c b23e 0579 493e
00000140: 0b4c 8d3d 3fef 303c 3e9a 89be d417 52be
00000150: e03e a1be ff67 2d3b 0897 063c 2a52 043e
00000160: 0f03 88be aa0d 0cbe d386 2b3e 3792 a5be
00000170: f75d 913d 92da 8fbe 100d 9f3c 19ea 47be
00000180: 4f18 41be 6802 a7bc 1b89 0cbe be8a 80bd
00000190: e904 99be bc5b 73be 4e7a 80be 6ce8 85be
000001a0: e058 8abd 33d4 313d d833 463d 5874 19be
000001b0: 3593 13be 9d59 5dbe 1750 49be 8717 68be
000001c0: feb6 47be df0b 9a3d 7f13 963d 4271 633d
000001d0: 59a9 5abd 94ef 90be 5cf7 953d 8895 13be
000001e0: 9f40 f5bd a2e6 55be 6f47 ccbd 3c84 573c
000001f0: ee59 fc3d 6b84 ca3d ec14 103e b87e cebd
00000200: 92f2 95bc 908b 2d3d 1a32 4bbe 4e5c 533d
00000210: e8e7 72bd 67c5 21bd 60f4 9e3d c094 32be
00000220: 8e97 50be 5d0b a1be a08a c0bd 289c 953d
00000230: bd4a 4b3c 5c81 fe3d ae30 febd 6b76 053e
00000240: 98a4 44be 6a69 333e c2aa 55be cce0 753b
00000250: aae2 4bbe b028 6bbd 5db3 27be e6bd a13d
00000260: c4bc 4abe cc35 453d 8aaf 0fbe 2115 82bd
00000270: 540e a0be 1a7e 6ebe c9a1 74be 5b17 cabd
00000280: 02ec 8b3d 1d87 8bbe f648 5ebe af41 85bd
00000290: 1e12 b3bd da29 32be fdee 093e 9cc8 50be
000002a0: 8014 58bd a594 39be 6218 2dbe c1ab 8bbe
000002b0: e2ee 4d3e e024 7c3d 5fe6 3d3e 8ab7 6dbe
000002c0: a06b 75bd ac27 d9bd 1164 e43c aa7c a4bd
000002d0: 30c9 f6bc bb23 72bd 93af 8a3d b075 86bd
000002e0: de1c 9a3d 8151 0dbe 92f1 973d e87d da3d
000002f0: 7d5f b83c 395f 5f3e e9b1 343d d361 ac3d
00000300: 74d2 7cbd 1f4c ed3d 4f33 0fbe ee2b 8fbe
00000310: f06f 62be d16a b7bd d011 0f3d 9a54 95be
00000320: c6e3 bcbe 2e82 9fbe ff95 05be 2b62 2d3e
00000330: 108e ffbc be39 88be 98a8 68bd 9241 29be
00000340: 02a9 94be d538 1dbc a149 6c3e 9526 9ebd
00000350: ff05 cc3d a4ea 3e3b a3d9 13be f36f 5d3e
00000360: b114 fdbc d209 9bbe f6a4 e3bd fc60 c93d
00000370: 32e3 88be dfb1 e83b 1358 6f3d 9bf3 7f3d
00000380: a337 bebd 0ea6 25be 30d1 7a3c dde6 4fbe
00000390: 945f c5bd 21ca acbd 60e6 0ebd abda d33d
000003a0: 6ed5 b23d 6e5b 1a3e 5508 8e3c cd98 80be
000003b0: fe9d a1bd ccec 41bd 3e4b 293e 4098 103e
000003c0: 0427 63be 271f 33be 3d51 06be 6ad6 56bd
000003d0: 7dad 7e3c 10ce 7bbe e7f6 153e 9943 5abd
000003e0: 691a 0dbe 049d 6bbe 86e4 d6bc 1d44 853c
000003f0: ca9a d4bd 0b08 e3bd b507 39be 4390 95bc

network.2.weight f4 [256, 256]
-0.07971623 0.007173791 -0.009505228 -0.10753388 -0.05966967 -0.059439234 -0.022743732 -0.044344924
0.025067635 0.015010953 -0.045544896 -0.031016935 -0.016699435 -0.062204145 0.0544511 -0.008437482
0.009063795 0.048650406 -0.07748943 0.0026706439 -0.102114126 -0.07993521 0.041039288 -0.042830072
-0.03247557 -0.09328358 -0.039478507 -0.011163991 0.046261072 -0.06149578 -0.11040013 -0.11425054
-0.026897237 -0.03232776 -0.03659629 0.018384323 -0.061934873 -0.08520713 -0.07609294 -0.102765314
-0.09941014 0.039827824 0.010741355 0.02723972 -0.102976814 -0.038097046 -0.057713058 -0.051192325
-0.04367694 -0.07854669 -0.07936935 -0.037849758 -0.0030367896 0.026268393 0.0065728724 -0.057127114
0.04390604 0.043855816 -0.0016557954 -0.06689682 -0.01098831 -0.01436443 -0.085734054 0.024885707
-0.04647459 -0.028131234 -0.030607596 -0.07967938 -0.07120979 -0.081380844 -0.017519277 0.010393478
-0.013292351 -0.04506609 0.035839036 0.046232246 0.005850047 -0.03247029 -0.06525129 -0.02245042
-0.066189155 -0.030221116 0.024423636 -0.039069384 -0.046428315 -0.06216695 -0.04507251 -0.024512403
-0.0568866 -0.10398154 -0.010871638 0.00044792358 -0.06032992 0.057710037 0.033438317 0.00933157
-0.058179446 -0.07242815 0.02308537 -0.08469799 -0.047923923 0.009125233 0.02018454 0.04096221
-0.03523633 3.4138306e-05 0.03601394 0.01806546 -0.010834284 -0.022254452 0.019258462 -0.0697661
0.0005303398 -0.07942693 0.002919501 -0.07472788 -0.109060116 -0.04974962 -0.012387699 -0.040938802
-0.039979044 -0.012625694 -0.021463875 -0.08811997 -0.011425108 -0.017296428 0.016393065 -0.016177
0.018717902 -0.058141623 0.00498686 -0.09813285 -0.040445656 -0.10679012 -0.10416793 -0.025033675
-0.09852995 0.020732895 -0.110205226 -0.047971614 -0.06372591 -0.12380424 0.011902995 -0.10285219
0.0095792245 -0.011061705 -0.028704338 -0.056758206 -0.01707476 -0.039783284 0.10298432 -0.06375036
-0.03830163 -0.10903608 -0.06301939 -0.06563256 0.01858621 -0.005476527 0.00085233897 -0.107597865
-0.027796367 -0.04403889 -0.0055384934 -0.055098765 -0.034232248 0.00891139 -0.10391443 -0.056596067
-0.020637698 0.048902057 -0.019684728 -0.052080713 -0.00019381665 -0.016298458 -0.0073349257 -0.058778558
-0.032270912 -0.013798028 -0.039522015 -0.045628317 -0.061626025 -0.014830014 -0.103252955 -0.09958353
-0.0452746 0.039552175 -0.07987025 -0.020138081 -0.014575138 -0.0064399703 -0.050789442 -0.036149926
-0.05836191 -0.0891817 -0.020838048 0.02624676 0.008720815 -0.016738277 0.032969303 0.039719887
-0.06674361 0.01896698 0.054146215 -0.03016801 -0.037444726 0.042586476 -0.006795995 -0.042292845
-0.037282504 -0.038965553 -0.053214308 -0.049605962 -0.0036629606 -0.02633809 0.04203391 -0.03732291
-0.032524407 0.011084326 -0.050462518 -0.071941674 -0.0604268 -0.060678266 -0.11193186 -0.07142318
-0.06774926 -0.019781515 -0.0025540246 -0.028673843 -0.025700016 -0.07191132 0.0472916 -0.07965415
-0.016762009 -0.07158033 0.0035488342 -0.056141596 -0.02071292 -0.08815543 -0.060672794 -0.075724125
-0.05183973 0.037379324 0.024183614 0.00024804808 -0.03934578 -0.003276199 -0.088807136 0.004473937
-0.046033178 -0.03057938 -0.0010994126 0.003325039 -0.025894074 -0.06863169 -0.056189857 -0.03648923
00000000: 4342 a3bd 1f12 eb3b d1bb 1bbc b93a dcbd
00000010: 2f68 74bd 8e76 73bd 1051 babc 06a3 35bd
00000020: a45a cd3c 80f0 753c 498d 3abd 3a17 febc
00000030: 41cd 88bc c6c9 7ebd 1e08 5f3d 5d3d 0abc
00000040: 5080 143c a645 473d c7b2 9ebd f805 2f3b
00000050: 3621 d1bd 12b5 a3bd d018 283d 966e 2fbd
00000060: 1a05 05bd 760b bfbd 37b4 21bd 2ce9 36bc
00000070: 407c 3d3d 00e3 7bbd 7719 e2bd 30fc e9bd
00000080: 9857 dcbc 1d6a 04bd fee5 15bd b89a 963c
00000090: 6caf 7dbd 1381 aebd 9ed6 9bbd 9f76 d2bd
000000a0: 8b97 cbbd 8022 233d 82fc 2f3c d525 df3c
000000b0: 82e5 d2bd a60b 1cbd 8764 6cbd 0baf 51bd
000000c0: 97e6 32bd 16dd a0bd 668c a2bd 5908 1bbd
000000d0: e004 47bb d030 d73c 4061 d73b 1ffe 69bd
000000e0: d2d6 333d 28a2 333d 4607 d9ba 3301 89bd
000000f0: 5008 34bc c958 6bbc 5695 afbd 1cdd cb3c
00000100: 245c 3ebd 7973 e6bc c8bc fabc f12e a3bd
00000110: 70d6 91bd 00ab a6bd 9684 8fbc 6849 2a3c
00000120: 29c8 59bc 3897 38bd f4cb 123d 065e 3d3d
00000130: c0b1 bf3b 91ff 04bd 78a2 85bd f1e9 b7bc
00000140: 2e8e 87bd 4692 f7bc 1414 c83c 3807 20bd
00000150: 9e2b 3ebd c6a2 7ebd f49d 38bd 3cce c8bc
00000160: ec01 69bd 46f4 d4bd f41e 32bc 49d7 ea39
00000170: 821c 77bd 5c61 6c3d 9ef6 083d 71e3 183c
00000180: 924d 6ebd 3655 94bd 881d bd3c 2476 adbd
00000190: e04b 44bd 0082 153c 0c5a a53c fec7 273d
000001a0: f853 10bd ba2f 0f38 5a83 133d 04fe 933c
000001b0: 4882 31bc f84e b6bc ecc3 9d3c 87e1 8ebd
000001c0: 8006 0b3a 96aa a2bd 1955 3f3b ee0a 99bd
000001d0: e95a dfbd 42c6 4bbd c7f5 4abc 72af 27bd
000001e0: 11c1 23bd 00dc 4ebc 02d5 afbc 3e78 b4bd
000001f0: 6030 3bbc 3db1 8dbc c04a 863c a185 84bc
00000200: 4956 993c e925 6ebd d068 a33b e0f9 c8bd
00000210: 58aa 25bd c7b4 dabd ff55 d5bd 6c13 cdbc
00000220: 12ca c9bd 08d8 a93c 47b3 e1bd e27d 44bd
00000230: bb82 82bd 148d fdbd c804 433c 2ba4 d2bd
00000240: 2ef2 1c3c 273c 35bc 5c25 ebbc 4b7b 68bd
00000250: 5ee0 8bbc ccf3 22bd 71e9 d23d 8c8f 82bd
00000260: 2ce2 1cbd 4f4e dfbd 4f10 81bd 5d6a 86bd
00000270: 1c42 983c 7074 b3bb 806f 5f3a 455c dcbd
00000280: 35b5 e3bc 2062 34bd 407c b5bb 3eaf 61bd
00000290: 1d37 0cbd 1401 123c 17d1 d4bd 47d1 67bd
000002a0: 6410 a9bc 864d 483d de41 a1bc 9652 55bd
000002b0: 433b 4bb9 5884 85bc d159 f0bb c9c1 70bd
000002c0: 812e 04bd 2011 62bc d6e1 21bd c2e4 3abd
000002d0: 926b 7cbd 96f9 72bc 4976 d3bd 73f2 cbbd
000002e0: dc71 39bd 7601 223d 0393 a3bd 9ef8 a4bc
000002f0: 8fcc 6ebc 6306 d3bb 9708 50bd f211 14bd
00000300: e60c 6fbd e5a4 b6bd 8eb4 aabc 7203 d73c
00000310: c0e1 0e3c b61e 89bc d20a 073d 52b1 223d
00000320: e0b0 88bd a460 9b3c 6cc8 5d3d e722 f7bc
00000330: a45f 19bd 286f 2e3d f0b0 debb 433b 2dbd
00000340: 8ab5 18bd 589a 1fbd 3ff7 59bd 9f2f 4bbd
00000350: 480e 70bb fac2 d7bc c02b 2c3d e8df 18bd
00000360: 5038 05bd 089b 353c c9b1 4ebd 2856 93bd
00000370: 1882 77bd c689 78bd 883c e5bd 5146 92bd
00000380: 20c0 8abd d80c a2bc 6c61 27bb 68e5 eabc
00000390: d788 d2bc 3e46 93bd d6b4 413d b721 a3bd
000003a0: 7b50 89bc b598 92bd 8f93 683b bbf4 65bd
000003b0: 24ae a9bc d68a b4bd 0984 78bd 4015 9bbd
000003c0: e655 54bd 101b 193d b71c c63c 730c 8239
000003d0: 0a29 21bd 80b5 56bb 84e0 b5bd 1b9a 923b
000003e0: 498d 3cbd 9c81 fabc 2a1a 90ba e6e8 593b
000003f0: cf1f d4bc c68e 8cbd 5627 66bd bb75 15bd

network.2.bias f4 [256]
-0.039738808 -0.06742697 -0.049952354 -0.046836574 -0.032201033 -0.049438335 -0.090634115 0.0025599832
-0.019393696 -0.10284964 -0.053741373 -0.060018938 -0.0021203237 -0.10731632 -0.032323953 -0.04197536
-0.11199756 -0.005514843 -0.057544287 -0.016222838 0.008357028 -0.042394303 -0.09217236 -0.11452138
-0.2869199 -0.026105957 -0.0680395 -0.016249714 0.0017925058 -0.058316432 -0.06880764 -0.06615964
-0.0025368556 -0.09835165 0.11273202 -0.06339971 1.2137404e-05 0.0021379748 -0.19832273 -0.17968482
-0.26676473 -0.10545591 -0.08820948 -0.091705225 -0.0018826912 -0.06665659 -0.042174015 -0.03625083
-0.021863014 -0.031108659 -0.0885164 -0.06996948 -0.07898691 0.6517891 -0.057660937 -0.0836308
-0.033476952 -0.065686524 -0.051580492 -0.04213521 0.014522697 -0.0017543816 -0.112625204 -0.22905466
-0.0853523 -0.068345696 -0.032955594 -0.0041515967 -0.0074797384 -0.020895455 -0.29661387 -0.039900135
-0.04912349 -0.035321493 -0.0236919 -0.26086804 0.015563401 0.14732406 -0.049906693 -0.056503873
-0.052098304 -0.08554828 -0.03460937 -0.039069563 -0.043546703 -0.058360796 -0.04725172 -0.038333148
-0.09643549 -0.14073695 -0.06116813 -0.06156713 -0.018151887 -0.07960563 0.004951246 -0.2753059
-0.24623063 0.00073836 -0.031606972 -0.098841876 -0.22198157 -0.008046324 -0.10506025 -0.00031447897
-0.10993774 -0.26733133 -0.07688638 0.016520403 -0.05897776 -0.02394182 -0.29398543 -0.080039
-0.029472675 -0.110049844 0.33584893 -0.008763439 -0.046764962 -0.061010726 -0.07134936 -0.025548715
-0.0155479545 -0.016224526 -0.09377681 -0.077708565 -0.0045959353 -0.13507758 -0.05094736 -0.0979584
-0.06191265 -0.05706182 -0.07998112 -0.014444979 -0.010480443 -0.039371975 -0.03214498 -0.043599714
-0.03004056 -0.34226784 0.7357707 -0.21453463 -0.03710992 -0.0027931184 -0.08459297 -0.0051239524
-0.02429398 -0.25923973 -0.0023706164 -0.047274522 0.1976262 -0.06256814 -0.23670214 -0.002332642
-0.03827074 -0.042762093 -0.020381842 -0.09131783 -0.06556799 -0.026690966 0.13889514 -0.03478802
0.0010927871 -0.022329697 -0.11084566 -0.0044377986 -0.2572207 -0.10602243 -0.029161982 -0.020031143
-0.07617172 -0.23730934 -0.22033961 -0.050545692 -0.053032044 -0.031268198 -0.04866819 -0.042498097
-0.25624892 -0.018971765 -0.049135067 -0.021723121 -0.047109492 0.006486172 -0.07014959 -0.122327134
-0.025629865 0.27965546 -0.0061060903 -0.09927617 -0.14488563 -0.08601771 -0.04690651 -0.020754064
-0.026371012 -0.4540722 -0.05981222 -0.05425571 -0.038809404 -0.056236457 -0.07792962 -0.06402338
-0.024007417 -0.03092686 -0.074430175 -0.26118177 -0.00645623 -0.102224566 0.30557644 -0.05307318
-0.10731256 -0.026455164 -0.035659283 -0.029374717 -0.05761771 -0.17429581 -0.011298835 -0.13544898
-0.004333868 -0.0877947 -0.0018645962 -0.087960996 -0.046096653 -0.07002955 -0.043705482 -0.05811726
-0.17451863 -0.047777217 -0.06616508 0.06976912 0.0025623876 -0.062250383 -0.0051428243 -0.029785682
-0.021325063 -0.041066244 -0.02361787 -0.002147885 -0.077810936 -0.10398201 -0.005108796 -0.05589802
-0.009679925 -0.25710303 -0.052686457 -0.03157146 -0.048191063 -0.06691094 -0.060765136 -0.058917917
0.07083285 0.01898414 -0.28313705 -0.076050654 -0.116960816 -0.04363061 0.020137826 -0.289893
00000000: 29c5 22bd 2717 8abd d79a 4cbd b5d7 3fbd
00000010: 3be5 03bd da7f 4abd 619e b9bd 64c5 273b
00000020: 87df 9ebc d5a2 d2bd ea1f 5cbd 6bd6 75bd
00000030: 21f5 0abb a9c8 dbbd 1f66 04bd 5bee 2bbd
00000040: fa5e e5bd dbb5 b4bb 8fb3 6bbd c2e5 84bc
00000050: eaeb 083c a6a5 2dbd ddc4 bcbd 2f8a eabd
00000060: 2ae7 92be 29dc d5bc 4b58 8bbd 1f1e 85bc
00000070: 84f2 ea3a 36dd 6ebd 05eb 8cbd b57e 87bd
00000080: 6041 26bb 976c c9bd 0ce0 e63d b5d7 81bd
00000090: c1a1 4b37 441d 0c3b 1d15 4bbe 4cff 37be
000000a0: 6395 88be 45f9 d7bd 2ca7 b4bd f3cf bbbd
000000b0: a2c4 f6ba 4083 88bd a9be 2cbd c07b 14bd
000000c0: 101a b3bc 96d7 febc 1648 b5bd 294c 8fbd
000000d0: e4c3 a1bd a7db 263f e02d 6cbd a046 abbd
000000e0: 211f 09bd a886 86bd 1146 53bd f895 2cbd
000000f0: 9bf0 6d3c 47f3 e5ba 0ba8 e6bd 4e8d 6abe
00000100: 30cd aebd d4f8 8bbd 72fc 06bd 1e0a 88bb
00000110: 9818 f5bb f22c abbc c6dd 97be 536e 23bd
00000120: b635 49bd 45ad 10bd 8415 c2bc 7f90 85be
00000130: a3fd 7e3c 1edc 163e f66a 4cbd 9b70 67bd
00000140: 0865 55bd f033 afbd 8ec2 0dbd 6807 20bd
00000150: 075e 32bd bb0b 6fbd 058b 41bd 3803 1dbd
00000160: f87f c5bd 591d 10be 6f8b 7abd d12d 7cbd
00000170: 44b3 94bc 4708 a3bd 103e a23b e5f4 8cbe
00000180: e223 7cbe 808e 413a 5076 01bd 9c6d cabd
00000190: 234f 63be bbd4 03bc d429 d7bd a7e0 a4b9
000001a0: 0a27 e1bd a7df 88be 9b76 9dbd cc55 873c
000001b0: aa92 71bd a321 c4bc 4285 96be 7deb a3bd
000001c0: ae70 f1bc d061 e1bd 64f4 ab3e 8794 0fbc
000001d0: 9e8c 3fbd 62e6 79bd 9d1f 92bd 8a4b d1bc
000001e0: d9bc 7ebc 4ce9 84bc 0e0e c0bd ab25 9fbd
000001f0: 8099 96bb c751 0abe 2eae 50bd 6a9e c8bd
00000200: 1e98 7dbd a8b9 69bd 24cd a3bd a2aa 6cbc
00000210: 2ab6 2bbc 8244 21bd 74aa 03bd 9d95 32bd
00000220: 9f17 f6bc bb3d afbe 785b 3c3f f7ae 5bbe
00000230: 9200 18bd c00c 37bb 143f adbd d4e6 a7bb
00000240: 2b04 c7bc 12bb 84be 585c 1bbb eea2 41bd
00000250: 865e 4a3e ba23 80bd 0c62 72be 3ddf 18bb
00000260: c8c1 1cbd 4e27 2fbd d2f7 a6bc d804 bbbd
00000270: 8348 86bd 03a7 dabc 873a 0e3e e27d 0ebd
00000280: da3b 8f3a c5ec b6bc 0d03 e3bd f46a 91bb
00000290: 6eb2 83be 4a22 d9bd 1ce5 eebc 5a18 a4bc
000002a0: ebff 9bbd 3801 73be b5a0 61be 0009 4fbd
000002b0: 2138 59bd 1513 00bd 4c58 47bd 7c12 2ebd
000002c0: 0f33 83be ad6a 9bbc da41 49bd b0f4 b1bc
000002d0: e2f5 40bd f489 d43b 97aa 8fbd a686 fabd
000002e0: b9f5 d1bc 002f 8f3e 9915 c8bb 4e51 cbbd
000002f0: e65c 14be 0e2a b0bd 0a21 40bd 6d04 aabc
00000300: 0508 d8bc 277c e8be a9fd 74bd 3c3b 5ebd
00000310: 9cf6 1ebd 3358 66bd 9199 9fbd b11e 83bd
00000320: 34ab c4bc 545a fdbc d96e 98bd 9eb9 85be
00000330: c88e d3bb 1d5b d1bd 8474 9c3e 4363 59bd
00000340: b0c6 dbbd 80b8 d8bc 780f 12bd 3fa3 f0bc
00000350: 8c00 6cbd 9a7a 32be c01e 39bc 23b3 0abe
00000360: 1f03 8ebb b5cd b3bd 7765 f4ba e524 b4bd
00000370: d8cf 3cbd a76b 8fbd 8504 33bd 5d0c 6ebd
00000380: 03b5 32be 0bb2 43bd 8f81 87bd 1de3 8e3d
00000390: bbed 273b 42fa 7ebd 2385 a8bb 1a01 f4bc
000003a0: e6b1 aebc 1435 28bd 437a c1bc 88c3 0cbb
000003b0: 575b 9fbd 85f4 d4bd b067 a7bb 52f5 64bd
000003c0: 8c98 1ebc 02a3 83be c1cd 57bd 1351 01bd
000003d0: fe63 45bd 9a08 89bd dde4 78bd ea53 71bd
000003e0: d010 913d a184 9b3c 57f7 90be 72c0 9bbd
000003f0: 2789 efbd 03b6 32bd 15f8 a43c db6c 94be

network.4.weight f4 [2, 256]
0.012336152 -0.068165466 0.067228466 -0.026629528 0.014081702 0.050609455 -0.061119627 0.08068486
-0.028328408 0.05807811 0.026181318 0.012993355 -0.010029877 -0.12618586 -0.08981681 -0.05515455
0.025565537 -0.02253829 0.011723486 0.036013726 -0.017834561 -0.046328 0.07870678 -0.0010939925
0.2803029 0.06644451 -0.03494356 0.044984024 -0.004909293 0.01734126 0.0386748 0.08369589
0.0047621764 -0.024033474 0.18583868 -0.011977276 0.034032136 0.061300058 -0.23740844 0.032299165
0.24161813 0.038437877 -0.005338678 0.06360283 -0.027487485 0.020347077 -0.0056058676 -0.026915753
0.042043433 -0.0074089994 -0.03687191 -0.05808523 -0.035760116 -0.7933146 -0.045154333 0.052893266
-0.0027243241 -0.011342044 0.0650675 0.04626476 -0.0047362167 -0.01862162 -0.071672946 0.12182339
-0.095380284 0.015394495 -0.065727964 0.0019618315 0.03622283 -0.0074944072 -0.2111769 0.007877721
0.018150162 0.09060184 -0.02266933 0.19126429 0.004126639 0.08877049 -0.061429806 0.007345466
0.059799705 -0.007359928 -0.03834848 -0.059640117 0.030546784 -0.029956667 0.0018666966 -0.009919663
-0.017155372 -0.14746915 -0.008947069 -0.0096415095 -0.0014758036 0.04008366 -0.018535964 0.18519719
0.19943593 -0.02654554 -0.048197694 -0.04800138 0.14141074 0.008674723 -0.011483431 0.03481444
-0.0001718474 -0.20733914 -0.0056949775 -0.04645397 -0.0054315776 0.011038355 -0.05866968 0.09662814
0.011442452 -0.093683645 0.36308175 0.09240511 -0.021201842 0.051471293 -0.0008677337 -0.034840208
-0.0042423583 -0.034530215 0.06510265 -0.026679462 -0.021197282 0.056476083 0.060872674 0.04843744
0.0011795312 0.05831354 0.033570718 -0.023916397 -0.027791733 -0.0072553423 -0.12035626 -0.015840739
0.033892337 -0.12774055 -0.9136852 -0.08051399 0.05385375 -0.04796592 -0.05110066 -0.029581696
0.006315681 -0.019931354 -0.042818137 -0.06714965 -0.12360196 -0.05415048 0.18855579 0.026971808
-0.0015449249 -0.032267027 -0.06218658 -0.008252112 -0.0717146 -0.065632865 -0.098821685 -0.0147519335
0.0019154643 0.047725532 0.02326025 0.076721765 -0.0984845 0.04054806 0.046580628 -0.0007755711
0.0562868 -0.01822189 0.19965199 0.05293435 0.0772718 0.06950127 0.052737035 0.05554545
0.2894423 0.04265878 0.001418747 -0.009367185 0.042518225 0.008470736 -0.06833084 -0.019651962
-0.006992684 -0.14260373 0.047439106 0.029818263 -0.12087352 0.030315133 -0.047944807 -0.04175033
-0.01978302 -0.26360217 0.09678685 0.012840739 -0.05897741 0.012547256 0.036773816 0.052419983
-0.07035493 0.043972984 0.015812729 -0.2184327 -0.05463643 0.06640475 0.23940828 0.0018447979
0.05932431 -0.017213471 -0.09318624 -0.010250591 -0.023728399 0.023206918 -0.06300645 -0.15137118
0.008529146 0.034836292 -0.028527576 0.0017247983 0.025746226 -0.10602194 0.0028561973 0.010856329
-0.051327303 -0.04156113 -0.011724393 0.17500187 0.040320687 -0.004758656 -0.013455248 -0.011096953
-0.030984286 -0.010061321 -0.0061064446 -0.0008490035 0.006581883 -0.010573147 0.051058087 0.03909128
-0.07705666 0.16738823 -0.02992538 0.0011187869 0.06249605 -0.0032707124 0.015840244 0.015747994
-0.6633011 0.027683605 0.064528026 -0.019955881 0.04417636 -0.017065195 0.065596454 0.14705117
00000000: 921d 4a3c 569a 8bbd 14af 893d 2b26 dabc
00000010: f0b6 663c dc4b 4f3d 9358 7abd 1b3e a53d
00000020: fa10 e8bc 50e3 6d3d 347a d63c 15e2 543c
00000030: 5a54 24bc de36 01be e0f1 b7bd bde9 61bd
00000040: d16e d13c 38a2 b8bc dd13 403c 2183 133d
00000050: c919 92bc 6ec2 3dbd 0531 a13d 4c64 8fba
00000060: dd83 8f3e 0f14 883d fa20 0fbd 2b41 383d
00000070: 22de a0bb 420f 8e3c 7869 1e3d c068 ab3d
00000080: 080c 9c3b d9e1 c4bc 7f4c 3e3e 563c 44bc
00000090: 4865 0b3d c515 7b3d 331b 73be 214c 043d
000000a0: be6a 773e 0971 1d3d 14f0 aebb 3342 823d
000000b0: 6f2d e1bc eaae a63c 6db1 b7bb 6d7e dcbc
000000c0: bc35 2c3d 31c7 f2bb 0007 17bd c7ea 6dbd
000000d0: 3379 12bd aa16 4bbf c0f3 38bd 9ca6 583d
000000e0: 938a 32bb fbd3 39bc 1c42 853d 1e80 3d3d
000000f0: 4432 9bbb 5e8c 98bc 44c9 92bd 8b7e f93d
00000100: bd56 c3bd 3139 7c3c 629c 86bd 1292 003b
00000110: 645e 143d a593 f5bb c23e 58be 8f11 013c
00000120: a6af 943c 758d b93d 08b5 b9bc c9da 433e
00000130: c238 873b 4dcd b53d d29d 7bbd 3cb2 f03b
00000140: 89f0 743d 8d2b f1bb 4c13 1dbd 3249 74bd
00000150: 403d fa3c af67 f5bc f2ab f43a 1586 22bc
00000160: 6c89 8cbc 2702 17be ba96 12bc 6cf7 1dbc
00000170: c06f c1ba c42e 243d bcd8 97bc 55a4 3d3e
00000180: ef38 4c3e 0876 d9bc f26a 45bd 189d 44bd
00000190: facd 103e 6d20 0e3c 0025 3cbc 9699 0e3d
000001a0: ef31 34b9 b650 54be ef9c babb 8546 3ebd
000001b0: 60fb b1bb 37da 343c 9e4f 70bd f9e4 c53d
000001c0: 1f79 3b3c 36dd bfbd dae5 b93e e43e bd3d
000001d0: 7caf adbc 90d3 523d 9f78 63ba 9bb4 0ebd
000001e0: 7b03 8bbb 8e6f 0dbd 8a54 853d e38e dabc
000001f0: eca5 adbc 7753 673d a055 793d 5666 463d
00000200: 809a 9a3a 2eda 6e3d 7381 093d 52ec c3bc
00000210: 7dab e3bc 39be edbb 587d f6bd 70c4 81bc
00000220: b1d2 0a3d 6bce 02be 46e7 69bf 85e4 a4bd
00000230: c095 5c3d ea77 44bd ed4e 51bd 5055 f2bc
00000240: c6f3 ce3b 1447 a3bc 1262 2fbd c185 89bd
00000250: 0623 fdbd e5cc 5dbd c514 413e fbf3 dc3c
00000260: 147f caba 6e2a 04bd 5bb7 7ebd de33 07bc
00000270: 1bdf 92bd 866a 86bd 0663 cabd 18b2 71bc
00000280: 5110 fb3a d97b 433d 488c be3c 4d20 9d3d
00000290: 3eb2 c9bd b915 263d 54cb 3e3d b24f 4bba
000002a0: fd8c 663d 1346 95bc 9271 4c3e b0d1 583d
000002b0: ad40 9e3d af56 8e3d ca02 583d a083 633d
000002c0: c831 943e f9ba 2e3d 40f5 b93a d278 19bc
000002d0: 9727 2e3d d8c8 0a3c 0af1 8bbd 27fd a0bc
000002e0: e322 e5bb b606 12be 824f 423d 6e45 f43c
000002f0: 898c f7bd 7157 f83c c661 44bd 6502 2bbd
00000300: 0010 a2bc ddf6 86be 2f38 c63d f761 523c
00000310: 4c92 71bd 0293 4d3c 24a0 163d 56b6 563d
00000320: 3f16 90bd 041d 343d b289 813c d2ac 5fbe
00000330: 73ca 5fbd 37ff 873d 7227 753e 25cd f13a
00000340: 0cfe 723d 4403 8dbc 6dd8 bebd 18f2 27bc
00000350: 0f62 c2bc 6f1c be3c 8709 81bd 0c01 1bbe
00000360: d5bd 0b3c 80b0 0e3d aab2 e9bc a112 e23a
00000370: c0e9 d23c 0822 d9bd 0a2f 3b3b bfde 313c
00000380: 943c 52bd 013c 2abd ab17 40bc b133 333e
00000390: 4e27 253d 80ee 9bbb 6773 5cbc ffcf 35bc
000003a0: c2d2 fdbc 3dd8 24bc 9218 c8bb a98f 5eba
000003b0: d6ac d73b fe3a 2dbc 4922 513d 2e1e 203d
000003c0: e2cf 9dbd d267 2b3e 1226 f5bc 42a4 923a
000003d0: dcfb 7f3d 7359 56bb 66c3 813c f001 813c
000003e0: 1ace 29bf bac8 e23c 4527 843d 847a a3bc
000003f0: 45f2 343d 4fcc 8bbc 6f57 863d 9594 163e

network.4.bias f4 [2]
0.09412622 -0.22645852
00000000: 3fc5 c03d bee4 67be
