Training/Model/model_critic_robot_subset_joint4_02.pt (torch, 280119 bytes, 5 tensors)

network.0.weight f4 [256, 12]
00000000: 639d 5c3e 32f4 bcbe 5f5f 313d f5a5 5abe
00000010: 4c4c d23e ebc1 84be fd11 8a3e b44d 653e
00000020: c4e2 edbc 08c5 95be 6e0c e9bb eb29 1cbd
00000030: 5118 6939 16ad 193d 2ee6 87be dcbb 553f
00000040: d370 ea3d 8b5e 073f 7ccb c43d ec11 583d
00000050: 3ea7 0cbe 6c4a 993d e221 59be b080 9abe
00000060: 791e 8d3e f13c 6cbb 5c55 073f fd57 443b
00000070: 5f20 093f 33e3 cdbd d7fd f8be a0ac 0bbf
00000080: 435c f0bd dfcb a83e 17c2 803e 63b7 2fbd
00000090: 2a16 f73d 57b4 ed3e 71b8 09be a84d 04bf
000000a0: 773a 55bd 350d 24bf 0599 8ebf 0f48 c03e
000000b0: 4e55 55be 5e4d 0e3f 8cea 08bd e6fa 943b
000000c0: 838d 0e3e af83 5cbe ff78 24be db07 5bbe
000000d0: 668f 7d3f 69bf ee3e 9b8d e5bd 7210 ab3d
000000e0: 057b 3cbe 5afd 0b3f 8d55 df3d 2f60 aebc
000000f0: 8275 a2be ba51 25bf 1caa 4a3e 981e 083f
00000100: a5cf 29bd 87d9 923d f308 3a3d fb08 233e
00000110: 0263 133b 0b67 393e 3758 26bd b462 3dbe
00000120: efbd dbbe 7cab ab3e 9e42 603e 30b9 a53d
00000130: 57d2 06bf fee0 c1be cd4a c1bc 757a 5f3f
00000140: 1a96 9bbe c46e 0cbf 9f8d 9e3c b9da c8bb
00000150: 2114 f5be 95f9 9f3e 2cf2 a8be 672d 12be
00000160: 6af9 0cbf 0a73 493e eebf 263d 149c bf3e
00000170: d6ba fdbd a786 edbd a729 41bd 96d1 14bd
00000180: dec9 01bf 34a2 383e 9927 e9be a98b 99bf
00000190: e9b6 54bd 5dad ae3d 33da d53d 5827 5c3e
000001a0: 6f5c cc3b 71e1 c1bd 4a70 12bd f720 db3e
000001b0: a921 38bf 9ff2 9bbd 549b b2be a5cc f2bd
000001c0: cd6d 913f bba0 90bd 9d4f fd3c 0498 42be
000001d0: 4914 97bc 59e1 bc3e fb88 ba3d 9399 df3c
000001e0: a1b6 e13c d538 2abe a309 f5bd 2822 2e3e
000001f0: 1dde c0bd 90e4 4c3e 8388 ccbc b12e e93d
00000200: e5c3 52be d461 4d3e 6570 1c3e 8076 90bd
00000210: 8f77 13bf 00d1 8e3e 10fc 5bbe af17 963e
00000220: 04c6 d03d 8a44 cc3e 4b31 753d dbad 0bbe
00000230: a7bc 8cbe afc2 cc3c 7fe9 42bd 32fa e4bd
00000240: a708 b73c ddc9 18be ebc6 b03d 7775 493e
00000250: 7e70 d83e d103 a93c 0422 f23e 709e c33d
00000260: 4631 f4bd 432b 18be 7e65 633c 986e 783d
00000270: 4038 0cbf 392d 413e d1fd 2cbe 0362 dcbe
00000280: ebb5 39bd a125 e4be 0097 b13e a880 9e3d
00000290: f15e 223e d1a1 153e 346c 113e 0653 283d
000002a0: 8fe1 96be 27f8 c43d 00d2 68be 6500 233e
000002b0: 8d49 a7bd 151a 78be 8fb7 5a3e 430f fbbb
000002c0: e34b 9cbe 08e4 c1be 8e82 c9bd 39c7 f3bd
000002d0: 8f17 1ebe fb79 d4bd 1f9c fd3e 13bb 863c
000002e0: c3b3 b83d 6e32 32be ba65 cb3d b53f 06be
000002f0: fdd6 813d 3883 853e 1303 a53c fcc6 8bbb
00000300: 25d7 febe afaa ecbd 0fdb 3e3e ec30 623d
00000310: 165a e9bd 7f0f c9bd 57f0 51bd 55ef 06be
00000320: 8306 43be 3517 edbc 60f1 adba d804 74be
00000330: e85e 033d 61b1 f83d 2b2a ef3d a424 ecbd
00000340: 8122 dfbd 98a8 843e 4574 ec3e 1bf7 ebbd
00000350: c8e3 45be a407 c03e e85b ef3d 0937 233e
00000360: 458e b03e f6d5 e0bd 8146 d93c 8e69 8e3d
00000370: 61fd 18bb c4b5 773c 702c 7e3e cc52 d23e
00000380: c307 483e 1b02 c43e a177 613e ca02 0abe
00000390: 8db1 133e 051c 4e3d e257 893e 707d 983e
000003a0: d784 723e 9825 bebd 8ba3 bebe 3f69 fc3e
000003b0: e48f b83c 344b cabe 9fb0 4fbe 4f79 8bbe
000003c0: 02ca 24bf 2c18 edbd efb1 b4be 023f a43e
000003d0: 3223 533e 7553 8c3d 7503 293e 25bb 99be
000003e0: 96b0 2f3d 1692 003e fd88 1a3c c696 ca39
000003f0: 6ebc bf3e 7751 42be bf96 d93e 644f 22be
0.21544413 -0.36905056 0.043303844 -0.2135237 0.41073835 -0.25929198 0.2696685 0.22392923
-0.029038794 -0.29251885 -0.0071120774 -0.038125914 0.0002222967 0.037518583 -0.265428 0.83489776
0.11447301 0.52878636 0.09609124 0.052751467 -0.13735673 0.07484898 -0.21204332 -0.30176306
0.2756231 -0.0036047066 0.52864623 0.0029959672 0.5356502 -0.100531004 -0.48631164 -0.5456028
-0.117363475 0.3296804 0.2514808 -0.0428995 0.12064774 0.4642665 -0.13449265 -0.51680994
-0.05205771 -0.6408265 -1.1140448 0.37554976 -0.20833322 0.555868 -0.033426806 0.004546511
0.1392117 -0.21534608 -0.16061781 -0.21389715 0.99046934 0.4663041 -0.1120865 0.08352746
-0.18406303 0.5468346 0.109049894 -0.021286098 -0.31730276 -0.6457783 0.19791454 0.5317168
-0.04145779 0.07170396 0.04541869 0.15921395 0.0022489433 0.18105714 -0.040611472 -0.18494684
-0.42918345 0.3352927 0.21900412 0.08091962 -0.52664703 -0.37866968 -0.023595238 0.8729623
-0.30387956 -0.54856515 0.01935464 -0.0061295894 -0.4786692 0.31245103 -0.32997262 -0.14275132
-0.55068076 0.1967279 0.040710382 0.37423766 -0.12389152 -0.115979485 -0.047158863 -0.03633269
-0.5069865 0.18030626 -0.45538023 -1.1995746 -0.05193225 0.0852916 0.10442009 0.21499383
0.006236605 -0.09466828 -0.03575162 0.42798588 -0.7192636 -0.07614636 -0.3488413 -0.11855439
1.1361634 -0.07061907 0.030921752 -0.19003302 -0.01844229 0.36890677 0.09108158 0.02729491
0.027552905 -0.16623242 -0.11964729 0.17005217 -0.09417365 0.20009065 -0.024967438 0.11385859
-0.2058254 0.2005685 0.1527725 -0.07053852 -0.57604307 0.2789383 -0.21482873 0.29314944
0.101940185 0.3989604 0.059861463 -0.1364054 -0.2748768 0.024995176 -0.04758596 -0.111805335
0.022342993 -0.14920755 0.086316906 0.19673716 0.42273325 0.020631703 0.47291577 0.09551704
-0.11923461 -0.14860253 0.013879178 0.060652345 -0.5477333 0.18864907 -0.16893698 -0.43043527
-0.045339506 -0.4455996 0.34685516 0.07739383 0.1585653 0.1461251 0.14201432 0.041094802
-0.29468963 0.09617644 -0.22736359 0.15918119 -0.081683256 -0.242287 0.21359085 -0.0076617314
-0.30526647 -0.37869287 -0.098393545 -0.11903233 -0.15438674 -0.103748284 0.49533173 0.016446626
0.09018662 -0.1740205 0.09931512 -0.1311024 0.06339834 0.26076674 0.020143067 -0.004265664
-0.49773517 -0.11555993 0.18638252 0.055222437 -0.11394136 -0.09817409 -0.051254597 -0.13177235
-0.19045453 -0.02894173 -0.0013270788 -0.23829973 0.03207293 0.12143207 0.11677965 -0.11530426
-0.10895253 0.25909877 0.46182457 -0.11521741 -0.19325173 0.3750583 0.116874516 0.15938963
0.34483543 -0.1097831 0.026522877 0.06953727 -0.0023344385 0.01511902 0.24821639 0.41078794
0.19534211 0.38282856 0.22018291 -0.13477626 0.14423199 0.05031969 0.26824862 0.297832
0.23683487 -0.09284514 -0.37234148 0.49299046 0.02252955 -0.395105 -0.2028222 -0.2724099
-0.6437074 -0.11576876 -0.35292003 0.3207932 0.20618895 0.06851856 0.16505225 -0.30025592
0.042893015 0.12555727 0.009432075 0.00038640777 0.37448448 -0.18976389 0.42497823 -0.15850598

network.0.bias f4 [256]
00000000: 771e 923d 16d4 12bd 9031 5dbe 833b 29be
00000010: 57a4 38be 67f4 98bd b64f 23be db01 9dbc
00000020: e4ff 9ebe 12cb c1bb e038 a8be 944e 4a3e
00000030: db6c 1a3e af53 b9ba fe30 233e a807 aebd
00000040: ec05 683e abd0 c4be 6d5f 8bbe 1b6f b8be
00000050: f2ee b83d 7758 233d 652b 593d 3be4 1d3d
00000060: cc77 1cbe f7ec 523c bcf3 95be 3061 87be
00000070: 94fb a7be e764 1b3e d9d0 883e 994f fabb
00000080: 8c99 85be 9156 d53d e14f cc3c 8c08 7bbe
00000090: bacd 533c 029f 073d dcd4 93be bad1 dcbe
000000a0: 4474 933d 995c 2bbe 336d a73e e43e bbbe
000000b0: 9b10 9dbd afa5 f5bd ddd0 053e f70c 1abe
000000c0: a16c 76be 6f75 0cbe 959a c0be bf00 9f3e
000000d0: 82f8 79be 040a 57bd 1dd6 87be fe14 a6be
000000e0: 0820 483e 941a 81be 46c3 c0be e334 4a3e
000000f0: 654b b1be 7896 cabe bc65 f6bb cdb3 5e3d
00000100: c0c0 d13d c656 c3be eb71 49be 556e 6f3e
00000110: a218 843d 7b09 b9be 0e33 26be f517 80bb
00000120: a1e6 a7bd 6e8d c1be 2df1 36be c036 273e
00000130: 34d1 90be b86a 5bbe 01b0 8ebe f23e d0be
00000140: 9791 bdbe 38d9 dabe 295e 0fbe 9b14 07bc
00000150: b47b 2fbe 2eb1 83bd 023d 6b3e 70b3 b03d
00000160: aaf2 f4be 22ea 22be 1004 37be a349 333e
00000170: ea4a b7bd a2b7 173d 7c9b fc3c d42f 9c3d
00000180: 3644 0ebe 9f31 513e de7e f83d 80ea c93d
00000190: 3cec b4be 54e8 9ebe 76dc ffbe 9a3e a4be
000001a0: ca17 47be 230a a93d cab2 233e 4a65 1fbe
000001b0: 3067 813e c1bd 63be 6447 273e 71fb 123e
000001c0: fe1a 30be 9140 4d3e 92ac a4be 49e5 febd
000001d0: 7055 21be dd99 8dbd 17a4 263d 69e6 37be
000001e0: f2b4 fb3d 7434 493e 78b0 efbe 8d07 22be
000001f0: 7e5a 3dbe 28b8 d73d 808d a8be 9fb5 d93d
00000200: 201e 113d baec b9be 8d3b 40be 5b8e e23c
00000210: 7b4f 863d 2808 223e 8f8a 29be 88a7 293e
00000220: 99e1 b4bb fc1e 8f3d efe9 7e3d 4e54 90be
00000230: 4dc5 693d cb20 8fbd 6169 55be 3ef3 3c3e
00000240: 735a b4be 9f6f fcbe dd6f 0e3e 1966 033e
00000250: 67c9 0dbe 924e 7c3b 35cf 023b bb1c ea3d
00000260: f8dc debc cea7 b9be e48a 9f3d 96b6 c8be
00000270: 7264 0f3e 3d12 1c3e e73b 433e b92a 6fbe
00000280: cab9 9c3c 032e b4be 0b18 8b3c a15a 83be
00000290: 5161 9c3d 4c3c ecbd 67eb 23be f4c5 e13d
000002a0: 1f7b 26be 632b 66bd c142 363e 74a5 68be
000002b0: f934 433e bffd c73d e057 75bd cf43 003c
000002c0: 33ba e43d 9994 0c3d 96ff 003e 40c6 d93d
000002d0: c78f 713d 2ff6 9ebe 23cc 2bbe 37e6 89be
000002e0: d5bb 4cbe 173a 673e 2ba7 01be 5a5b 9ebe
000002f0: 8184 3d3e f170 ee3d d636 383e d750 043e
00000300: 714d e0bd aac5 a7be 802e c73d 295e 27be
00000310: c3ec a9be ca44 613e ecb5 97be 079a 69bc
00000320: 5ac2 8a3e 30a7 8c3c 9e86 98be a069 01be
00000330: 5bcf 003e 0e70 423e f060 14be 41ae aebd
00000340: 20fc 5c3e 9c57 84be 1fb0 59be 5a9a ef3d
00000350: c2b4 2fbe 7ed1 b9bd 2c8a b7be 2f9d 96bd
00000360: d5de 07bd 71f0 c6bb ca19 ec3d 9956 35be
00000370: 728c cf3d c780 4abe 434f 16bd ba2c cdbd
00000380: 0451 fdbe 4345 f8bd 1ec2 243e d4ba e3bd
00000390: 6cd5 10be b564 433d facc acbd 77d0 033e
000003a0: 844f 413e a571 81be 138c 3bbe c47a bc3b
000003b0: 7492 50be ec29 313e 55fb 49be 55ba ce3c
000003c0: fe6e a4bd cd77 93bd 2379 58be 5a00 5fbe
000003d0: 2e50 fc3d ee89 cbbe a7ba ffbd 6b8d b0bd
000003e0: 7754 96bd 8227 75be 328d a0be 298e 2abe
000003f0: 63ff 3cbd 74a1 f7be de09 c5be 6d17 d2bd
0.07134717 -0.035846792 -0.21600938 -0.16526608 -0.1803144 -0.07468491 -0.15948376 -0.019165924
-0.31054604 -0.0059141004 -0.32855892 0.19756538 0.15080588 -0.001413932 0.15936658 -0.08497554
0.22658509 -0.3844045 -0.27221242 -0.36022267 0.0902995 0.03987929 0.0530199 0.038547736
-0.15280074 0.01287388 -0.29287517 -0.26441336 -0.32809126 0.1517521 0.26721838 -0.0076388833
-0.2609371 0.10416902 0.024940433 -0.24514979 0.012927467 0.033110626 -0.28873336 -0.4312876
0.0719991 -0.16734542 0.327005 -0.3657142 -0.07669183 -0.11994492 0.13067956 -0.15044008
-0.24064876 -0.13716672 -0.37617937 0.31055257 -0.24411204 -0.052499786 -0.26530543 -0.3243789
0.19543469 -0.2521559 -0.37648982 0.19746737 -0.34627834 -0.39567924 -0.007519452 0.05437069
0.10241842 -0.3815214 -0.19672363 0.23381932 0.06450011 -0.36140046 -0.16230413 -0.003909106
-0.08198286 -0.37803215 -0.17865439 0.16329479 -0.2828461 -0.21427429 -0.27868655 -0.40673023
-0.3702514 -0.4274385 -0.14000763 -0.008244659 -0.17137033 -0.06430279 0.22972491 0.08627975
-0.47841388 -0.15909627 -0.17872643 0.17508559 -0.089498356 0.03704036 0.03083586 0.0762631
-0.13893208 0.20429085 0.12133573 0.098591805 -0.35336483 -0.31036627 -0.49972886 -0.3207901
-0.19442669 0.082538866 0.15986171 -0.15565982 0.25274038 -0.22240354 0.16335827 0.1435373
-0.17197797 0.20044161 -0.3216291 -0.124460764 -0.15755248 -0.06914113 0.040683832 -0.17958988
0.12290372 0.19648916 -0.46814322 -0.15823193 -0.18491551 0.10533172 -0.32920456 0.106303446
0.03542912 -0.3631342 -0.18772717 0.027655771 0.065581284 0.15823424 -0.16556762 0.16567814
-0.0055200574 0.06988332 0.062234815 -0.2818932 0.057072926 -0.06988677 -0.2084098 0.18452165
-0.35225257 -0.4930391 0.1390986 0.12831916 -0.1384636 0.003849898 0.001995993 0.11431261
-0.027204975 -0.36260837 0.07790163 -0.39201802 0.1400316 0.15241332 0.1906582 -0.23356141
0.01913156 -0.35191354 0.016979238 -0.25655082 0.07635749 -0.11534938 -0.16007768 0.11024085
-0.16257904 -0.05619372 0.17798902 -0.22719365 0.19063176 0.09765195 -0.059898257 0.007828667
0.11168327 0.0343214 0.12597498 0.10633516 0.058975007 -0.31047198 -0.1677709 -0.26933452
-0.19993527 0.22580753 -0.12661426 -0.3092907 0.18507577 0.116426356 0.17989668 0.12921463
-0.10952271 -0.32767993 0.09725666 -0.16344513 -0.33188447 0.21998897 -0.29630983 -0.014257914
0.27101403 0.017169565 -0.29790205 -0.12637949 0.125791 0.18988058 -0.14490104 -0.0852933
0.21580553 -0.2584809 -0.21258591 0.11699362 -0.17158797 -0.090731606 -0.35847604 -0.07354199
-0.033171494 -0.0060711433 0.115283564 -0.17708816 0.1013421 -0.19775687 -0.036696684 -0.100182965
-0.49475873 -0.121225856 0.16089675 -0.11119619 -0.14143914 0.047703464 -0.08437534 0.12872492
0.18877989 -0.25282016 -0.18315153 0.0057519395 -0.20368367 0.17301148 -0.19724782 0.025235334
-0.080289826 -0.072005846 -0.2113996 -0.21777478 0.123199806 -0.3975367 -0.12486773 -0.08620723
-0.07340329 -0.23940852 -0.31357723 -0.16655792 -0.046141993 -0.48365366 -0.3848409 -0.10258374

network.2.weight f4 [256, 256]
00000000: 90ab 08be 8c70 803d a081 733e 1142 51be
00000010: 6c76 21be ea73 c3bb 90cf 1fbf 9bd8 da3c
00000020: 1ab4 59be be79 a6be 2c36 3ebd 6431 053d
00000030: a436 92bd 8224 37be 714e 1abd 4c11 70bd
00000040: c26f fd3c 3b5b 713d 1692 54bd 5c50 5cbe
00000050: dd6d abbc 6fe3 42bd a8ec 6f3c e685 2e3b
00000060: 6036 1e3e 36f8 d0bd 7453 36bd dbfe 94ba
00000070: d247 2fbe 1656 fcbd 2738 4ebe 58cf 5abe
00000080: 5b3f 843d 7b34 b53d 78b0 2c3d cf6c c33c
00000090: 6946 aebd 27ae 00bc e061 03bf 5ab6 63bd
000000a0: 9c85 95be fc76 9ebe 6086 fe3d 1929 0ebe
000000b0: 4804 e63b 8208 7d3d c5b6 59bd a373 2c3d
000000c0: 5242 1b3d 9514 1c3e eee3 583d 4c5c 503d
000000d0: 76f6 84bd 37ff 37bc d179 92bd d7bb 57bd
000000e0: 41e0 31be aadc dcbd d6a8 553d 13c4 2cbd
000000f0: 601b b3bb 876e 60bc 8ac4 503d b7fc 07be
00000100: d022 b0bd 433d a8bd 10d9 44bd 1727 90bd
00000110: 60e8 103c f4cb 423d 498c 6a3c 4bf8 dc3c
00000120: 84e8 d4bb 810c 9fbc 5d1e 08bb cf6b 4cbd
00000130: 4b42 a2bd 6924 b3bc e4e4 213d 8072 fbbb
00000140: 44eb fabc 0003 6c3b 0677 6bbd 9ec2 f3be
00000150: 722a 56be 84c9 43bd 8e34 a4bd 3002 97bb
00000160: 8fe0 0c3e bc11 25bd fea0 cabd 16f0 24bd
00000170: c699 0cbd ea66 86bd 908a a0bc 2712 71bd
00000180: f2e2 183c 74db 793d 30b7 1c3d f16c 1bbd
00000190: 65fd 9b3c c056 c0bd ead7 72bc 92f1 74bd
000001a0: 1c5c 883c 951f f4bc 8bdd 013e 63fc ab3c
000001b0: f968 5dbc b057 26be 1d5e 80bc e2f0 b03b
000001c0: d074 c63c a266 4bbd 8646 793d bb12 233d
000001d0: 4120 10bc 38be a83d d390 e1be 41cf f0bd
000001e0: 3b41 13be 132e c2bd fa35 5e3d a861 fa3c
000001f0: f963 8abd 170e 683d 4cba 75bd 3437 64bc
00000200: 2005 97bc c7e2 6fbd ef56 0abd bbfb 2cbd
00000210: 89c8 13bd ae75 92bd 70ef 82be 3c72 7db8
00000220: d672 96bd ab67 ddbd 7e73 ac3c c2ea cfbd
00000230: 908e 473d 363f af3d ee49 32bd 0894 853e
00000240: 7a90 f4bd fe09 fc3c eaa7 fabd 7aa5 9d3b
00000250: 4830 72bd f5b9 e5bd b1fe 66bd da00 4bbd
00000260: 2b41 2abe ed78 db3c 7f2a 3f3c 2207 203c
00000270: 6387 fdbd 23a1 bbbd c7c7 02be e761 09bd
00000280: c48d ddbd 8c05 1dbd 2b04 29be 90ab c8bd
00000290: 4eec e4bd 5815 1e3d c889 c13d 9ab3 a93b
000002a0: ffc0 3dbd 0440 b23d a473 34bd 3fa5 83bb
000002b0: a36b 0dbe 901d 0a3d f390 90bd dec6 e1bd
000002c0: ce6f e9bd 0f97 29bc 948e bbbd 3eb5 fc3b
000002d0: a124 e83b 1ebd 1b3d a5c3 47bd 9a92 933b
000002e0: 9e0d 1dbe a4c4 7bbd 3b0d 95be ce1c 953d
000002f0: 37e8 8dbd 527d e3bd 0024 473a 9684 4c3d
00000300: c899 7cbd bf72 f2bc f85d 643d 35c7 913d
00000310: 9887 5f3d 5455 c0bd 4101 20be 4662 3ebe
00000320: eaa0 9fbc ba0d 38be 32ee 86be 6b6e 6dbc
00000330: d629 dc3c 7ab6 47bb c980 0bbd 1117 ffbd
00000340: ff2d 21bd 7fdd 17be 590c 51bd 49ea 893d
00000350: 7e5b 3cbe 7a4e 84bd 1ddf bb3e 9856 063e
00000360: 4732 cc3d 1448 8bbd b4e5 54bd 59d0 2cbc
00000370: 0939 083d 071d bdbd e313 d43c 00e9 cd3e
00000380: b7d0 ad3d ca8b cdbc 5370 f2bd d8cc 61be
00000390: 8698 14be 2d98 983d 196d 413e ea95 52bd
000003a0: 31cd 34bc 2b64 8bbc 880d 5e3c db1d 96bd
000003b0: bc8c 8e3d e1d5 7dbd 564e 153d b837 56be
000003c0: 615f a9bc 5ca8 f7bc 25c6 ae3d 0a49 f9bd
000003d0: 4345 a63c 491f 0c3e 1db6 3e3d dc6f 7c3d
000003e0: 40a3 91bd d09c f53c 0cb4 e1bd b62b dabd
000003f0: bc03 60bd c734 59be 26fc c6bc 59a0 b03d
-0.13346696 0.062714666 0.23779917 -0.20435359 -0.1576783 -0.005964746 -0.6242609 0.026714614
-0.2126011 -0.32514757 -0.04643838 0.032517806 -0.07139328 -0.1788502 -0.037672464 -0.058610246
0.03093708 0.058924895 -0.05189713 -0.2151503 -0.02092641 -0.04758018 0.014643826 0.0026630103
0.1545043 -0.102035925 -0.04451318 -0.0011367457 -0.17117241 -0.12321107 -0.20138608 -0.21368158
0.064573966 0.088479005 0.04216048 0.023855595 -0.085095234 -0.007854021 -0.5132122 -0.055593826
-0.29203498 -0.30950153 0.12427974 -0.13882865 0.0070195533 0.06177569 -0.05315282 0.042102467
0.037905045 0.15242226 0.052951746 0.05086927 -0.06492321 -0.011230282 -0.07152141 -0.052669372
-0.17370702 -0.10784276 0.052162968 -0.04217918 -0.00546591 -0.013698227 0.050968684 -0.13279997
-0.0860039 -0.0821481 -0.04805857 -0.07038706 0.008844465 0.047557786 0.014315673 0.026973864
-0.0064974446 -0.019415142 -0.002077005 -0.0499075 -0.07922801 -0.021867948 0.039524928 -0.0076735616
-0.030629762 0.003601253 -0.057486556 -0.4760942 -0.20914629 -0.047799602 -0.080178365 -0.004608415
0.13757537 -0.040300116 -0.09893988 -0.040268026 -0.034326337 -0.06562598 -0.019597322 -0.058855202
0.009331452 0.061000302 0.03826064 -0.03794569 0.019041726 -0.09391546 -0.014821986 -0.059800692
0.016645484 -0.029800216 0.12682168 0.02099437 -0.013513797 -0.16244388 -0.015669877 0.005399809
0.024225622 -0.049658425 0.060858272 0.039812785 -0.008796752 0.08239406 -0.44055805 -0.117582805
-0.14380352 -0.09481444 0.054250695 0.030564144 -0.067573495 0.056654062 -0.05999212 -0.013929177
-0.018435061 -0.05856588 -0.033774313 -0.042232256 -0.036079917 -0.07151352 -0.255733 -6.042629e-05
-0.07346122 -0.10810789 0.021051165 -0.101521984 0.048719943 0.085569784 -0.043527536 0.260895
-0.11941619 0.030766483 -0.12239058 0.004810986 -0.059128076 -0.11217109 -0.056395236 -0.04956136
-0.16626422 0.02679106 0.011667847 0.009767326 -0.123793386 -0.09161594 -0.12771522 -0.033540633
-0.10818055 -0.038335368 -0.16505496 -0.09798348 -0.11177884 0.038594574 0.09450108 0.005178881
-0.046326634 0.08703616 -0.044055596 -0.0040175016 -0.13810591 0.0337196 -0.07058897 -0.11024259
-0.11398278 -0.010350957 -0.09158054 0.0077120354 0.0070844446 0.038022153 -0.048770566 0.0045035603
-0.15337226 -0.061466828 -0.29111657 0.07280885 -0.06929057 -0.11107887 0.0007596612 0.04993113
-0.061670095 -0.02959573 0.055753678 0.07118074 0.05457267 -0.09391275 -0.15625478 -0.18592176
-0.01948591 -0.17973986 -0.26353604 -0.014491658 0.026875418 -0.0030473755 -0.034058366 -0.124555714
-0.039350506 -0.14830588 -0.051037166 0.067341395 -0.18394276 -0.06460281 0.3669366 0.1311897
0.09970527 -0.06800857 -0.051976874 -0.010547721 0.033257518 -0.09234052 0.025888389 0.40216827
0.08487075 -0.02509107 -0.118378304 -0.22050798 -0.14511308 0.074509 0.18889274 -0.0514125
-0.01103525 -0.017015537 0.013553031 -0.07329913 0.06960437 -0.06197155 0.03645166 -0.20919693
-0.020675363 -0.030231647 0.08533887 -0.12172134 0.020296698 0.1368381 0.046560396 0.061630115
-0.071112156 0.029982 -0.11020669 -0.106528684 -0.05469106 -0.21211539 -0.024290156 0.08624334

network.2.bias f4 [256]
00000000: 1dbc 0abd da0d 15bd 88db 84bd c579 63bc
00000010: fb61 6dbd 16b4 0c3b b06a 80bc 80de 56bc
00000020: fb4e bb3b 1528 873d aad1 f2bc aa6f 62bd
00000030: 7d58 86be a1f3 083e e1cb 1d3c c07f 173d
00000040: bcc7 5cbd df2f d63c 34e8 843e 318b a23d
00000050: 35e0 a43c 3942 1ebd 9ab8 71bb 0d1f 86bc
00000060: d729 d53d 2512 cd3c f758 e3bb 0d0a e4bb
00000070: 5d4f 03bd 0feb 05bd 85a5 9b3d 6c80 45bd
00000080: 80ad 9cbd 98d6 97bd 344f 063e c315 46bd
00000090: d592 c4bc 6b89 653c be43 17be aee9 6ebd
000000a0: d31a 973d 3dcf e7bd 69fc c63d bfe2 2cbd
000000b0: 8cfe 07bd b125 9b3c 840f 613c 2077 59bd
000000c0: 68bf 053b 3a53 2e3d 72d4 783c dac4 30bd
000000d0: 5bb5 6ebd f8c4 e0bd 1e63 0dbe 881a 063e
000000e0: 5209 bcbd 72fc 8f3d 32da c6bd 55c2 8e3d
000000f0: 7f18 823d 5ef2 9fbd 5a35 9abc 4ca6 963d
00000100: 9f74 adbc 63e2 093d 8caa 41bd 44d9 43bc
00000110: a04e 64bd d190 9c3d d9cb ffbd e144 89bd
00000120: 0d88 903c 3806 d8bc caf2 db3c 36bf 6cbc
00000130: b763 9cbc df17 023d db73 67bd 8ba3 38bd
00000140: 81b8 423d 43ba 853d 6689 ca3c cea7 763c
00000150: b731 983d 1539 f13d d682 efbc a52d 81bc
00000160: 130d bc3d 3aca af3c e7e2 e93c 8cbe cebc
00000170: f86d 1bbd c2e9 c23d 0b35 69bd e4f1 66bd
00000180: a087 a9bd 7090 8c3b 781c 40bd f875 d3bd
00000190: 341c 30bd 5f10 dc3c 3c9c d6bc 55f8 bb3c
000001a0: 3044 cebb 5a9f 38bd 7371 993c 13c0 d0bc
000001b0: bf1d 3dbd b0e0 80bd e56a 7bbb fb49 3e3d
000001c0: 65f9 e3bc e011 7f3d ece0 ad3c 80d5 963d
000001d0: d51b 633c 501d de3c c00f 003d 3c05 98bc
000001e0: f06a 653c 8750 db3b 64f9 373c a1b6 78bd
000001f0: 7e1d 12be 658d 72bd 2a8d ed3c e45e 76bc
00000200: 2d42 fcbd 96d1 9bbd 2c04 a2bd 2da9 01be
00000210: d6d4 ca3d f9d2 8dbd 3234 2abd 0249 c8bc
00000220: 57d2 c23c 8b31 ff3d 5679 b03c 9064 da3d
00000230: cc50 fc3c c4a9 053e 2d7e faba b78a b0bd
00000240: a044 0d3c 237b 8cbd d3b3 223d e1ce ea3c
00000250: 6d83 9c3d b4b5 6abb 61f1 41bd eec3 f23a
00000260: f366 403c 2358 ccbc 7104 36bd aa2e 5dbd
00000270: a5d9 c7bd 551d 0c3d 39b3 91bd f89f 813c
00000280: 2df9 ebbc 11a4 13bc 54c2 0c3e 6bc6 97bb
00000290: c178 17bd cc2a 4abe c862 c43c 82db 12bc
000002a0: 723f e43c f35b 8e3b 306a 79bd cc3f 4bbc
000002b0: 3869 99bd 6caf a0bd dac2 c93d 62e7 20be
000002c0: d497 e33d a515 29bd b927 dc3d ea14 1dbc
000002d0: 51b1 8ebd 925f 773d fb56 f4bc 0b2a 053e
000002e0: 2561 40bc 8460 f43c fb72 44bc 639a fc3c
000002f0: 2d22 11be eb44 94bd fdbd 8ebd 0a78 2dbc
00000300: de93 1bbe 7bc0 6a3d df54 813c 5b03 0f3d
00000310: 5a81 c4bd b7ad 933c 2a67 f3bc c6a4 c8bc
00000320: 30f7 dd3c 7947 303e 15fa a23c 278d 32bd
00000330: 09a0 9d3d 8048 dc3d 2d75 cf3a eca6 9e3d
00000340: 1b37 c63d 41fb 003d 9cb4 863e d76c 71bd
00000350: 0324 0cbe ffb9 74bd 96b0 0a3d cb49 b23d
00000360: dd60 94bd 14b7 753c 479d 27bd 832e b4bd
00000370: cbaf 103c 29e6 4c3c 0beb 833c 70a1 32bd
00000380: 25a6 d43d af02 81bd c17d 36bd d8db fb3c
00000390: 1b6b 8fbd bbea 983c 3df6 dd3d 7e54 213d
000003a0: 4425 22bd d799 113c 53b9 b73c fe42 6b3c
000003b0: 65a2 65bd 8823 cdbc 90c2 ad3d e6a5 41bc
000003c0: a2e5 2b3e c4e0 ee3c 8e88 55bd 6c97 3bbd
000003d0: 78dd e5bd b0d8 9a3c 0899 3b3d 10d6 7fbc
000003e0: 8563 2ebd 1cc0 1dbe b15e c93c 86db a7ba
000003f0: 217b 6bbd 68e1 88bd 5d7e fdbc 94b0 c0bc
-0.033870805 -0.036390163 -0.06487185 -0.013884013 -0.05795477 0.0021469644 -0.015675873 -0.013114572
0.0057162023 0.06599442 -0.029640991 -0.055282272 -0.26239386 0.13374187 0.009631128 0.036987066
-0.05390142 0.026145874 0.25958407 0.07936705 0.020126441 -0.038637374 -0.0036883713 -0.016372228
0.10408371 0.025033066 -0.0069380957 -0.006959206 -0.03205811 -0.032694872 0.0759993 -0.048218176
-0.0765028 -0.074139774 0.13116151 -0.048360597 -0.023995796 0.014009814 -0.14771935 -0.058328323
0.07378163 -0.113188244 0.09716112 -0.04220843 -0.03320174 0.018938871 0.013736609 -0.053092122
0.0020408276 0.04255984 0.01518737 -0.043156482 -0.058278423 -0.10975069 -0.13807341 0.13096058
-0.09181465 0.07030572 -0.09709586 0.0697066 0.063523285 -0.078099 -0.018824268 0.07355937
-0.021173773 0.033663165 -0.047281787 -0.011953656 -0.055739045 0.07644809 -0.12490053 -0.06702591
0.017642999 -0.026370153 0.02684917 -0.014449885 -0.019090516 0.031761046 -0.056506973 -0.04507784
0.047539238 0.06529667 0.02472372 0.015054656 0.07431357 0.11778466 -0.029237192 -0.015768835
0.09182181 0.021458734 0.028550578 -0.025237344 -0.03794667 0.09517242 -0.05693535 -0.05638303
-0.082778215 0.004289679 -0.04690215 -0.10325235 -0.042995647 0.026863275 -0.026197545 0.022945562
-0.0062947497 -0.045073844 0.018730855 -0.025482213 -0.046170946 -0.06292856 -0.0038363275 0.046457272
-0.027828882 0.062272906 0.021225415 0.07364941 0.013861616 0.027113587 0.03126502 -0.018557183
0.014002547 0.006692949 0.011228893 -0.060721043 -0.14269063 -0.059216876 0.028997976 -0.015037272
-0.123173095 -0.07608335 -0.07910952 -0.12662192 0.099038765 -0.069250055 -0.041553684 -0.024448875
0.023781938 0.124606214 0.021542232 0.10663712 0.030800246 0.13053042 -0.001911109 -0.08620208
0.0086223185 -0.06859424 0.039722275 0.0286631 0.07642255 -0.003581387 -0.047349337 0.0018521526
0.011743295 -0.02494437 -0.04443783 -0.05399958 -0.09758309 0.03420766 -0.07114262 0.01582335
-0.02880534 -0.009011284 0.13746005 -0.0046318076 -0.036980394 -0.19742888 0.023972884 -0.008963468
0.027862284 0.0043444573 -0.060892284 -0.012405347 -0.07490772 -0.07845959 0.09851618 -0.15713266
0.11112943 -0.041280407 0.10749764 -0.009587506 -0.06967414 0.060393877 -0.029826632 0.1300432
-0.011741911 0.029831178 -0.011990304 0.030835336 -0.14173193 -0.072397076 -0.06969831 -0.010587702
-0.15193126 0.05731247 0.01578754 0.03491531 -0.09594984 0.01802717 -0.029712278 -0.024492633
0.027095407 0.17214765 0.019894639 -0.043591645 0.0769654 0.10756016 0.0015827768 0.077466816
0.09678479 0.031489614 0.2630967 -0.05894169 -0.13685612 -0.059747692 0.03385981 0.08705481
-0.07245038 0.0149972625 -0.040921476 -0.08797934 0.008830975 0.012506046 0.016103288 -0.04361099
0.10383252 -0.0629934 -0.044553522 0.030744478 -0.070028506 0.018666616 0.10837982 0.03938722
-0.03958632 0.008886776 0.022427237 0.014359234 -0.056063075 -0.025041357 0.084843755 -0.011819338
0.16786817 0.029159911 -0.05213218 -0.045798704 -0.112238824 0.018902153 0.04580024 -0.015615001
-0.042575378 -0.15405315 0.024581285 -0.0012806512 -0.05749047 -0.06683618 -0.030944044 -0.023521699

network.4.weight f4 [1, 256]
00000000: 4ca7 473d b8f8 7e3c e7db 93bc 65e2 0f3c
00000010: 33ee 58bd 0486 0ebd f5db 763e 814d 643e
00000020: 0275 8abc adcc 6bbc ae90 ef3d 6f82 14bd
00000030: 6060 a93e 9224 833d b6bd 65bc 0422 013a
00000040: 24b3 8fbc dd91 8b3e b003 86be 7fef 403d
00000050: b3e5 a3bc 678d ef3c 6fa3 613c fbb1 da3c
00000060: bb9d b63d 80d9 b7bc 955d 08bd 288d 983c
00000070: 6faf 0fbd f3c1 8bbc 2092 1b3e 9c2e 44bc
00000080: 773b a8bb 03a3 edbc 26c4 8a3d b74f 6b3c
00000090: 23b4 f9bc fad2 2ebc 2769 15bd 0cf0 19bd
000000a0: b4e1 b73d 6951 66bd 5e80 a83c f02e 0dbc
000000b0: ac7e d43c 617c aa3c fdf4 09bd 4fb8 a2bb
000000c0: dbca c7bc 9c23 ddbc 5602 fbbc 2f06 9a3c
000000d0: ffb5 91bd f6ae be3d 4abf 5bbd fe3f 4b3d
000000e0: 4b61 87bc f5bd 06bf dc11 cebb c056 dc3a
000000f0: f255 383d 9701 9fbc a4da bdbc e92c faba
00000100: 0f75 7539 f233 91bc 347d 353d 65c6 c0bb
00000110: f8bd 55bc db8a be3c 73af d43c 2e1f 2fbd
00000120: 2d52 bf3c be95 393d d821 8e3c 329f 45bc
00000130: 245e 993b aa8e 103a 3dfc 863e 31f3 f23c
00000140: f782 d93c d261 933d cf05 e839 7f14 883c
00000150: c73e 2d3d 4587 9d3d bd88 043c 87b5 923b
00000160: 758f 503d 514a 48bc a627 b7bc 3fa1 83bb
00000170: 2dc7 5e3c 851b b13c 9c41 1bbc 704b d4bc
00000180: 2485 edbd dbd6 3dbb d0e2 fa3c 0ca8 883d
00000190: 766e a53c 2ca9 25bd 8b7f 20bd e67c 82bb
000001a0: 547a 563d 83a8 163c 28c9 1b3c 06ff 2dbd
000001b0: aea1 403c d02a 4a3c 4f76 993d 3e43 5e3c
000001c0: d71a e33d 384e f1ba bb6c 0abc 1c93 c63d
000001d0: 7cc1 3a3d 2630 f1bb 81b0 833d 6413 ed3b
000001e0: b735 733c 7c84 71bc dede 2bbd 3c78 dc3c
000001f0: 2f00 a2bd 4734 2fbd d033 96bb 504c 80be
00000200: b266 7c3d 661f 65bc edfa d3bc 36e9 603c
00000210: b1b6 f43c 3f0d 9f3c a800 e0bc 76da e8bc
00000220: f235 033e accd 673d 064a 993b 3be3 9c3d
00000230: d2dc 8c3d 95a0 823d 1697 363c 0290 f13c
00000240: fc6e c03d 6ec8 3e3c 51e5 d73d 13eb 173a
00000250: 2a35 493c d21f ebbb f61a fbbc 7850 5f3c
00000260: 8c4a 613d 6c95 9dbd f5ba 863c 7ddd b83b
00000270: 007e 993c 23ed 253d 225d 97bc 61c5 0dbd
00000280: b06d 963c 2c26 bb3a abe5 a43d fbaf 913b
00000290: 3605 7bbb d545 633e b1bc f93d 890d a5bc
000002a0: 25e5 c43c ea42 803c 171c 1d3d 9243 743d
000002b0: f1c1 ec3b 9600 80bc ac84 ed3c d25a 5dbd
000002c0: 587f 2c3e 6f3e 593c 6c5a ad3d bc40 8ebc
000002d0: bcbf 49bc 4885 343d b1af 1a3e 03c5 873e
000002e0: 67d0 1c3c 95be c3bc f736 b43c f4f5 353e
000002f0: b018 c3bd 1b50 b53b a7b0 02bc 269f 463c
00000300: 1b8c 383d e981 58bc 2b2a b03d 7d0a 42bb
00000310: d6fe 2cbd e9bd 5c3b c465 08bd 9f51 5cbd
00000320: 1622 373c 6210 953e 8f4f 6ebc 7b86 bf3c
00000330: 12d9 5f3c 2a1d 46be 0c31 423e 363d dc3d
00000340: b12b 853d 5462 bb3c ed63 a5be 308a 13bb
00000350: a2b4 b73c 75ca 523c 64e8 903c bf8d d63c
00000360: a409 d63d 0b7b 8cbc ea9f 4bbc efa6 8dbc
00000370: a277 dbbc 403e 733c ea62 603d 0413 15bb
00000380: c907 053d ac9a 2bbc c1c9 96b7 2bad 4dbc
00000390: ee06 0b3c a731 61bc 2c0e 903d e5c4 e0bc
000003a0: 05fd 6dbc ff26 263c 391e 12bd 54ba 16bc
000003b0: 84b4 193b d038 abbb 4d5f 053f 8b90 56b8
000003c0: 7775 893e e1d4 433c f0ef 113c 0a5d 5ebc
000003d0: 7c0e 48bd 057a 6cbd cd54 cebc 0f32 ccbc
000003e0: 2b82 28bd 80bf 7fbd d1af 4e3b 1e75 dfbc
000003f0: 8b97 15bd f57c 85bc f590 6d3c cdd2 aabb
0.04874353 0.015562229 -0.018049194 0.008782004 -0.05296154 -0.034795776 0.24107344 0.2229519
-0.016901497 -0.01439206 0.11697517 -0.036257204 0.3308134 0.064034596 -0.014022281 0.0004926028
-0.017541476 0.27259722 -0.26174688 0.0471034 -0.02000699 0.02924223 0.013771876 0.026696196
0.089168034 -0.02244258 -0.03329237 0.018621996 -0.035079416 -0.017060256 0.15192461 -0.011974003
-0.005134042 -0.029008394 0.067756936 0.014362267 -0.030481404 -0.010670418 -0.036477234 -0.037582442
0.08978596 -0.056229983 0.020569023 -0.008617148 0.025939308 0.020811262 -0.033680905 -0.004965819
-0.024388721 -0.026994519 -0.030640762 0.018801777 -0.07114791 0.09310715 -0.053649224 0.049621575
-0.016525885 -0.526336 -0.00628875 0.0016810521 0.04500384 -0.019409938 -0.023175545 -0.0019086871
0.00023408628 -0.017724965 0.044308856 -0.0058830255 -0.01304578 0.02325957 0.025962567 -0.042754345
0.023354614 0.04530882 0.017350122 -0.012061881 0.004680412 0.00055144227 0.26364318 0.029656978
0.026551707 0.07196392 0.00044254816 0.016611336 0.042296197 0.07691816 0.008089242 0.004477206
0.05091806 -0.01222475 -0.022357773 -0.0040170248 0.013597292 0.021619568 -0.009476092 -0.025914878
-0.1159766 -0.0028967175 0.03062573 0.066726774 0.020194273 -0.040444538 -0.039184134 -0.003982174
0.052362755 0.00919545 0.009508409 -0.042479537 0.011757297 0.012339309 0.07493269 0.0135658365
0.11089104 -0.0018410152 -0.008448775 0.09696028 0.045594677 -0.007360476 0.0643015 0.0072349776
0.01484435 -0.014741059 -0.04196059 0.026912801 -0.07910191 -0.042774465 -0.0045838133 -0.25058222
0.061621375 -0.013984537 -0.025876487 0.013727477 0.02987227 0.019415496 -0.027344063 -0.028424483
0.12813547 0.05659263 0.0046780137 0.07660528 0.06878056 0.06378285 0.01114442 0.029487614
0.093961686 0.011644466 0.105417855 0.00057952217 0.012280742 -0.007175424 -0.030652504 0.013630025
0.055002734 -0.076945156 0.01644657 0.005641638 0.01873684 0.040509354 -0.018477026 -0.034612063
0.01836285 0.0014278344 0.08051618 0.0044460273 -0.0038302667 0.22194608 0.12194193 -0.020148056
0.024035046 0.015656907 0.038356867 0.059634753 0.007225268 -0.01562528 0.028993927 -0.05404169
0.16845453 0.013259514 0.08464512 -0.017364852 -0.012313779 0.04407242 0.15106083 0.26517496
0.009571171 -0.023894588 0.021998866 0.17769605 -0.09526193 0.005533231 -0.0079766875 0.012122905
0.04505549 -0.013214567 0.08601793 -0.0029608302 -0.042235218 0.0033682531 -0.033300176 -0.053788777
0.01117756 0.29114062 -0.014545335 0.023379555 0.013662593 -0.19347063 0.18964022 0.107538626
0.06502474 0.022874035 -0.323028 -0.0022512786 0.022425 0.012865652 0.017688937 0.026190637
0.104510576 -0.017148515 -0.012428263 -0.017291514 -0.026790444 0.0148463845 0.05478183 -0.002274693
0.032478128 -0.010473888 -1.7975342e-05 -0.0125534935 0.008485539 -0.013744748 0.07033953 -0.027437637
-0.014525657 0.010141133 -0.035673354 -0.0091996975 0.0023453543 -0.0052252784 0.5209854 -5.1156192e-05
0.2684743 0.01195261 0.008907303 -0.013571987 -0.04884194 -0.057733554 -0.02518692 -0.024926214
-0.041139763 -0.062438488 0.00315379 -0.027277526 -0.036521476 -0.016294936 0.0144998925 -0.0052131177
