Training/Model/model_actor_gym_InvertedDoublePendulum_v4_102.pt (torch, 286679 bytes, 6 tensors)

network.0.weight f4 [256, 11]
000000 6f a3 88 3f 21 de b3 bf f1 a2 c5 3e 78 7e 0c be
       1.0674876 -1.4052163 0.38600877 -0.13720119
000010 57 84 82 bd ec 32 72 3d 16 b8 de be 24 01 b2 3e
       -0.06372898 0.059130594 -0.4349982 0.34766495
000020 67 65 c0 bc c8 fc 6b 3e 62 8a a4 bd a5 95 c3 3e
       -0.023485852 0.23045647 -0.08034207 0.38200107
000030 c2 2e 8e 3f 77 27 51 40 02 4a 99 3e a4 0b 3d bd
       1.1108019 3.2680337 0.29939276 -0.04615368
000040 52 4e 8e 3d ed 57 10 3f 8f 84 80 3f 0d 43 dc 3d
       0.06948532 0.56384164 1.0040454 0.107549764
000050 54 6a dc 3d c2 25 36 3e e7 90 35 bf c2 33 4f c0
       0.10762468 0.17787841 -0.7092423 -3.237534
000060 89 bf 14 c0 e5 c5 c0 bd 4b c0 11 3e 63 ba 1d bf
       -2.3241904 -0.094127454 0.1423351 -0.6161253
000070 a0 f9 7d bf 2b 13 1f bf e2 66 93 bd a8 34 99 be
       -0.9920902 -0.62138623 -0.07197358 -0.29922986
000080 64 f9 33 3e f0 02 75 3e 5b 75 07 bf d9 0d 72 c0
       0.17575604 0.23926902 -0.52913445 -3.7820952
000090 1e fe 46 3c b6 09 94 3e 46 2c 27 bf c3 bc 31 bf
       0.012145547 0.2891366 -0.6530193 -0.6942865
0000a0 a5 a5 81 be cc cd 8d be d4 d1 d9 3d 92 a3 89 3e
       -0.2532169 -0.27696073 0.10635725 0.26882607
0000b0 a2 16 96 3f 42 f7 6d be 09 3c b3 3f 31 4f b1 bd
       1.1725657 -0.23238853 1.4002696 -0.08657683
0000c0 9c da 7c bd 3b 82 81 3f 44 9d 2a be ce a7 fb bd
       -0.06173192 1.0117868 -0.16661555 -0.122878656
0000d0 66 eb c3 3d b6 0a 26 be d2 41 34 be 9b e9 c1 be
       0.09566383 -0.16215023 -0.17603233 -0.3787354
0000e0 2b e6 ad bf c1 76 23 40 97 35 16 bf e7 5d eb be
       -1.3585867 2.5541232 -0.5867552 -0.4597008
0000f0 e9 2c 24 3d 88 4a ca be c6 5a cc 3e 0a be 35 bd
       0.040081892 -0.39509988 0.39913005 -0.04437069
000100 9c f0 be 3d 00 a6 df 3c d1 40 69 3c e5 8d 7b be
       0.09323236 0.027300835 0.014236645 -0.24565847
000110 c1 0e 1d 40 6a 36 bd bd 43 f8 12 be 06 4c 15 3f
       2.4540255 -0.09238894 -0.14352517 0.5831913
000120 0f f7 94 3e 2b 3b 5a 3f bf 8d 7e be c2 e0 91 3e
       0.2909474 0.85246533 -0.2485876 0.2849179
000130 32 f0 03 be f9 b7 50 3f 49 e1 3b 3f 68 83 0f 40
       -0.12884596 0.8153072 0.7339063 2.2423954
000140 23 2c ac bd e1 a3 0c bf 61 ea 13 3f 5c f3 6c 3e
       -0.08406856 -0.5493756 0.5777951 0.23139709
000150 fd 27 f6 3e 83 35 64 bd 28 5e 4d 3e 60 45 54 3d
       0.48077384 -0.055715095 0.20055449 0.051823974
000160 63 aa 4d be a1 2c a4 3f 93 49 1c bf c3 fe 68 be
       -0.20084529 1.282612 -0.61049765 -0.22753434
000170 b5 a3 a6 be 1d ac 29 be 31 73 03 3f bd 55 6e bf
       -0.32546774 -0.16569562 0.51347643 -0.93099576
000180 af aa 65 3e ca ec ae bd 48 5a 78 3e 1e 02 6d bf
       0.22428392 -0.08541258 0.2425319 -0.92581356
000190 0c 82 eb bf c5 4a 8e 3f 2b 86 3a be 06 8c 03 bf
       -1.8399062 1.1116568 -0.18215244 -0.51385534
0001a0 0b 6f bf be b8 80 3f be 44 9e ae 3d 3f c0 12 3e
       -0.37389407 -0.18701446 0.085262805 0.14331149
0001b0 4c f9 23 3e cc 83 43 3e 71 27 c0 bd b3 a3 02 40
       0.16013068 0.19093245 -0.09382523 2.0412414
0001c0 ac 9e a4 c0 52 f2 cf bd d3 51 e1 bc 51 68 72 be
       -5.144369 -0.10153641 -0.027504837 -0.23672606
0001d0 25 5a b6 3d e7 87 07 bf 88 4a 07 be 9c ce 82 3d
       0.089039125 -0.52941746 -0.13212025 0.06387064
0001e0 86 5d 2f 3e a6 d1 2f be 39 69 92 bf 0b 0d 32 3f
       0.1712552 -0.17169818 -1.1438361 0.6955115
0001f0 8b 62 6e be 9d 6f 0e be 82 fe a5 be 6a fe c1 be
       -0.23279779 -0.13909765 -0.32420737 -0.37889415
000200 a0 01 1b bd 4d 59 cb bd d8 35 d1 3d 70 ec 69 3e
       -0.037843347 -0.09929142 0.10215348 0.228441
000210 39 7b ed be c5 d7 dd 3f 1f 79 e4 bd 12 e2 3b be
       -0.46383074 1.7331473 -0.111559145 -0.18347958
000220 a1 3e f8 bc 20 64 16 be bd ea 9d 3e 85 cb 09 3f
       -0.030303301 -0.14686632 0.30843154 0.5382617
000230 b9 02 f8 3e fa 25 8d be f0 58 81 bd 35 a0 0c be
       0.48439577 -0.27568036 -0.063157916 -0.13732989
000240 ef 7b 56 c0 c7 41 f7 3f bf 47 18 be 28 b8 13 3e
       -3.3513143 1.9316949 -0.14871119 0.14425719
000250 1d e4 ec 3e 79 14 ae be 94 38 66 be 59 fd 6d be
       0.46267787 -0.33999994 -0.2248252 -0.23241176
000260 b4 fe b3 3d dc 1e 8d 3e 5f fe 8d 3f 79 e1 6c bf
       0.08788815 0.27562606 1.1093253 -0.92531544
000270 cc ad da 3f fa 25 04 bf d1 e0 f3 be 03 c5 05 3f
       1.7084289 -0.5162045 -0.4763246 0.5225374
000280 e4 57 d5 be ac c5 d5 3e 61 bc 03 be db 6b 18 be
       -0.41668618 0.41752374 -0.1286483 -0.14884894
000290 86 6a 25 3e ac 02 2d 3f 47 cf f6 bd 69 46 9f 3f
       0.16153917 0.675822 -0.12051254 1.2443362
0002a0 8f 5c d0 be 60 11 c6 be 47 df a6 3d a2 56 6b 3d
       -0.40695617 -0.3868513 0.081480555 0.057455666
0002b0 61 14 bf 3d d1 7c b9 bd bc 2b 80 3e 3b 85 26 be
       0.09330059 -0.0905701 0.25033367 -0.16261761
0002c0 a8 4c 82 3f a3 0e 2f bf 71 48 71 bf cb 2a 13 be
       1.0179644 -0.6838171 -0.9425116 -0.14371793
0002d0 ee 7f e8 3b 17 d0 e5 3e 6c 11 2a bf ac e8 4e be
       0.0070953285 0.44885322 -0.66432834 -0.20205945
0002e0 b3 4c 81 be 28 f3 d8 3d 0c 7f fa 3d 22 f6 a5 bf
       -0.2525383 0.105932534 0.122312635 -1.2965739
0002f0 96 b6 8a 3f 41 27 87 bf 4d 16 84 be 43 ce de 3d
       1.0836971 -1.0558854 -0.25798264 0.10879185
000300 2e cc 25 3f f3 97 03 be 70 6d a7 be 14 88 86 3e
       0.6476468 -0.12850933 -0.32700682 0.26275694
000310 50 fc 89 3e 98 15 1f 3d 1e 20 a8 3f 6d ed 5b bf
       0.26950312 0.038838953 1.3134801 -0.8590916
000320 2d 11 e0 bf bd f0 00 3d 8b 39 b6 bd 79 72 76 3e
       -1.7505242 0.031479586 -0.08897694 0.24067105
000330 45 49 c3 be f1 c4 0f bf 0b 15 99 bd 02 59 17 be
       -0.38141838 -0.56159884 -0.07474717 -0.14780048
000340 da 05 45 3e 99 14 cf 39 51 25 29 3f 78 70 69 c0
       0.19240513 0.00039497463 0.66072565 -3.6474895
000350 cc 3b aa be fe 4c ed 3c 37 cc 60 bd 0c 74 d5 be
       -0.33248746 0.028967377 -0.054882254 -0.416901
000360 7c c7 43 3e 77 0d b5 3e 00 59 64 be a8 f0 ee 3d
       0.19119066 0.35361835 -0.22299576 0.11666995
000370 6e 24 56 be 32 1d 97 bf c4 56 86 c0 cb 62 21 3e
       -0.20912334 -1.1805785 -4.1980915 0.15760343
000380 ea ce 17 3e 40 1a a7 be 83 d9 51 bf 59 91 f9 be
       0.14825025 -0.32637215 -0.8197252 -0.48743704
000390 f5 c0 a6 bd 0c 2a a5 3d 48 68 c8 3d bb dc df be
       -0.081422724 0.080646604 0.09785515 -0.4372309
0003a0 78 1e b9 be 12 7f 67 c0 a6 ce 51 3d a6 98 06 3e
       -0.36156058 -3.6171308 0.051222466 0.13144168
0003b0 de 83 96 be ef c9 ec be 13 b9 d1 be 84 fb c9 3e
       -0.29397482 -0.46247813 -0.40961513 0.39449704
0003c0 48 e2 1d bd f8 0d 4b be 31 b7 74 3f 8d e2 0c 40
       -0.038545877 -0.19829547 0.9559203 2.2013276
0003d0 17 11 65 c0 92 0f ca be 4a 2e ab be 11 0d a4 bd
       -3.579168 -0.39465004 -0.33433753 -0.08010305
0003e0 f9 d8 8d 3e aa a2 fa be 54 c5 43 bd 4a 02 0f 3e
       0.277046 -0.48952228 -0.04779561 0.13965717
0003f0 6a 84 87 be d7 06 8b 3e 18 3b a9 3e e8 05 eb 3f
       -0.2646821 0.27153656 0.33052897 1.8361177

network.0.bias f4 [256]
000000 a4 c2 6f be 49 6f 6c bc 7c e0 bb bd 98 b6 fd 3c
       -0.23414093 -0.014430829 -0.09173676 0.030970857
000010 cd b6 bd be 2a e0 5c be 52 cd 50 be db 8e 0f be
       -0.37053528 -0.21569887 -0.20390823 -0.14019339
000020 67 96 6f be 0d c6 88 be 4a ee 6b 3e 3f bd 99 be
       -0.23397218 -0.267136 0.23040119 -0.30027196
000030 0b d9 b1 3e 85 fa 3c 3c b6 cf f2 be bb 36 28 bd
       0.34735903 0.011534338 -0.47424096 -0.04106782
000040 a5 bc 2a be b1 59 7b 3d 77 45 11 3e 8d 49 62 be
       -0.16673525 0.061364833 0.14186655 -0.2209837
000050 b1 41 92 3c ff 85 90 3d 6d 89 81 be 14 60 4a 3e
       0.01785359 0.07056808 -0.2530016 0.19763213
000060 b8 00 86 be 4e d7 69 3e d0 7e 73 bc 01 4c 36 be
       -0.26172423 0.22836038 -0.014861777 -0.1780243
000070 b9 e6 56 bd fc 89 95 3e 31 42 16 3e 5c ec 65 be
       -0.052466128 0.29206836 0.14673688 -0.22453445
000080 95 4b c3 3c 0b 41 c1 be a9 af b3 3d 0b eb 46 be
       0.023839751 -0.37744936 0.08773739 -0.194256
000090 31 73 fc 3b d2 2d 80 bd e7 d2 9a bd b4 ea b0 3c
       0.0077041616 -0.062587395 -0.07559758 0.02159629
0000a0 5c da c7 3e 64 13 d9 bd a1 d0 fa bd 4a fb b5 bd
       0.39033782 -0.105994016 -0.12246824 -0.0888582
0000b0 e3 a9 c4 bd 41 39 34 3e 89 bd a1 be 61 22 b8 bd
       -0.09602716 0.17599966 -0.31589916 -0.08990932
0000c0 ed 0a 80 be 96 30 38 3d 7c e3 20 be 2b 78 38 3e
       -0.25008336 0.04496821 -0.15711778 0.1801459
0000d0 6a 54 c8 bd 05 49 ad be 00 d1 e4 be c1 88 18 3e
       -0.09781726 -0.33844772 -0.44690704 0.14895917
0000e0 66 03 ff be 7b ca 82 be 09 ae 8b be 20 36 0f be
       -0.4980728 -0.25545105 -0.27281216 -0.13985491
0000f0 00 2e c7 be 5e 83 0d 3e 5e 0a 90 3e 85 bb a3 be
       -0.38902283 0.13819644 0.2813291 -0.31979004
000100 05 0b b4 be d0 8c f8 bd 5f ce 52 3e f2 01 aa be
       -0.35164657 -0.12136233 0.20586537 -0.3320461
000110 22 e9 83 bd 0c d8 86 be ed 4b b0 be 24 50 b5 3c
       -0.06440951 -0.26336706 -0.34432927 0.02213294
000120 2a 78 f5 be af 13 7c bd a8 b0 c3 be 77 70 7a be
       -0.4794324 -0.06154221 -0.38220716 -0.24456964
000130 f8 ff a2 3d 1c 4b 7e be 32 8b 4e 3d de 69 34 be
       0.079589784 -0.2483334 0.050425716 -0.1761851
000140 66 4c 43 3e f7 bd 89 bd 58 1a 11 3e 65 b6 18 3e
       0.19072112 -0.06725686 0.14170206 0.14913328
000150 04 87 99 bd 5a 15 fb bd 90 e4 8e 3e 7c 05 3e be
       -0.07496455 -0.12259932 0.27908754 -0.1855678
000160 f7 ee 03 bd 21 8d 6b 3c 1c f2 05 3e ff f0 1a 3e
       -0.032210317 0.0143769095 0.13080639 0.15130995
000170 de ab 91 be 54 26 e8 be 42 d6 8e 3e a0 d2 f1 bd
       -0.28451437 -0.45341742 0.2789784 -0.11807752
000180 aa 2e 73 3e ef b1 0e bd 7b cf 83 be 24 40 41 3e
       0.2374827 -0.03483766 -0.25744233 0.18872124
000190 69 e8 1b be 32 f9 26 bd ab 1b ad bc 09 16 5a 3d
       -0.15225376 -0.040764995 -0.021131357 0.05324367
0001a0 c0 62 aa 3e 5a 33 c7 be 15 ef 0b be 81 ad 85 3e
       0.33278465 -0.38906366 -0.13665421 0.26108935
0001b0 f9 04 99 3c 9a 97 2b be 2e a0 ad bd 07 31 92 bd
       0.018679129 -0.1675705 -0.084778175 -0.071382575
0001c0 2c 92 1a be 31 56 b6 be 60 4c e1 bb 20 b4 8d bd
       -0.15094823 -0.35612634 -0.0068755597 -0.06919122
0001d0 ba 5d 5c be 06 91 00 3e 18 67 99 3d a6 98 6a be
       -0.21520129 0.12555322 0.07490367 -0.22909793
0001e0 c0 98 df be 69 f0 84 be 1e 06 44 3d 17 9b 9c be
       -0.43671227 -0.25964668 0.047857396 -0.30587074
0001f0 ec 63 ce be 4a df a2 3e f2 85 ac 3e 40 5f 36 3d
       -0.4031061 0.3181098 0.33695942 0.04452443
000200 1a a3 b8 be 83 cc 05 be 9a 0d e0 bc 77 e9 4f be
       -0.36061937 -0.13066296 -0.027350236 -0.20303904
000210 1c 8a 3c be e5 56 10 be 7a 88 21 bf 2c bc 83 3e
       -0.1841206 -0.14095648 -0.6309887 0.257295
000220 d7 3e 94 3e 01 c6 93 be 4d eb 2e bd 95 0c 66 be
       0.28954193 -0.28862002 -0.04270487 -0.22465737
000230 08 bb 85 be 24 2e 62 3e e8 0f b2 be ce ba cb 3d
       -0.26119256 0.22087914 -0.3477776 0.099477395
000240 dc 6f 99 be c3 89 3c 3d d8 b3 c5 be 7a 69 db bc
       -0.29968154 0.046029817 -0.38613772 -0.026783694
000250 1e d9 41 bd 9d ed bd bd dd a5 e0 3c 69 cf c5 3e
       -0.0473262 -0.09273837 0.02742284 0.38634804
000260 96 99 59 bd 32 b3 98 3d 71 93 c3 be ad 9c 21 be
       -0.053124987 0.07456054 -0.38198426 -0.15782423
000270 7e 12 81 3e 9a a4 6f 3c 45 64 e5 bc 40 29 7f be
       0.2520942 0.014626646 -0.028001914 -0.2491808
000280 2c 31 19 be 9d 0c ff bc 99 70 72 3e e0 ab 95 be
       -0.14960164 -0.031133944 0.23675765 -0.29232693
000290 58 69 65 be c6 f1 7c 3e b7 2d ab be 0f 93 13 3e
       -0.22403467 0.24701604 -0.33433315 0.14411567
0002a0 bc b1 56 be bb 12 a0 be 82 21 30 3c b8 93 aa be
       -0.20966238 -0.3126429 0.010750176 -0.33315825
0002b0 a2 67 84 3e e7 70 3a bc 8c 57 a7 3c 58 be 79 bc
       0.25860316 -0.011379457 0.020427488 -0.015243135
0002c0 11 8c 54 3e 22 6e 2b be d2 14 4b 3e 3b a4 4e 3e
       0.20756556 -0.16741231 0.19832161 0.20179836
0002d0 18 de 09 bf c4 04 4d be 52 f5 ab 3d 56 49 80 be
       -0.53854513 -0.20021349 0.083964005 -0.2505595
0002e0 ae af 42 3e 87 6f 35 be 3f 37 8a bd dd dc c8 3e
       0.19012329 -0.17718326 -0.067488186 0.39231005
0002f0 68 b4 9c bd c0 d4 49 3d a1 ca 7e 3e 60 1c 0d 3e
       -0.07651597 0.04927516 0.24881984 0.13780355
000300 a5 28 74 bd 9c 95 f0 be 0d 57 22 be f2 29 e2 bd
       -0.059609074 -0.46989143 -0.1585352 -0.11043157
000310 ff 5d fb bd 34 75 ff bd 59 d4 53 3e 75 06 c7 be
       -0.12273788 -0.124735266 0.20686473 -0.38872114
000320 90 64 c8 bd a9 fb 6b be c4 37 81 3e ec dc 25 3d
       -0.09784806 -0.2304522 0.25237858 0.04049389
000330 30 3e 9d 3d 4d 6d eb bc 12 04 02 3e 7a 81 d0 3d
       0.07677877 -0.028738642 0.12696865 0.10180946
000340 3d 75 af be 0f b9 ed be 87 c3 9e be 9f 7f 29 3e
       -0.34269133 -0.4643025 -0.3100855 0.1655259
000350 62 62 d2 bd d8 c2 ae 3d fd 25 17 3e 51 5b 1f be
       -0.10272671 0.08533257 0.14760585 -0.15562178
000360 85 ad b5 bd df ae 11 be 2b 03 c8 bc de fa f2 bd
       -0.08870987 -0.14226864 -0.024415573 -0.11864255
000370 23 31 d8 bc 94 d8 59 be 51 9d 82 be 4c 1b 93 3d
       -0.026390618 -0.21274024 -0.25510648 0.07182941
000380 7b 8e be 3c 01 4a 3f 3e 9c 1a c2 be dd 2c fa 3c
       0.0232613 0.18680574 -0.37910926 0.03053897
000390 85 0d 80 be f3 bc 07 be d4 3c 9f be 84 12 4a 3e
       -0.25010315 -0.13255672 -0.31101096 0.19733626
0003a0 65 c5 5c bd 1a 34 a9 3d 88 0b 7e 3e bf d8 98 3e
       -0.053899188 0.08261891 0.24809086 0.29852864
0003b0 5f fc ed 3d 8b 49 7e 3e 59 69 b2 3d 81 27 11 be
       0.116204016 0.24832742 0.087115 -0.14175226
0003c0 66 3f ac 3e 2c b6 84 bd ba 34 17 bd 0e 55 92 3e
       0.3364212 -0.06480059 -0.03691552 0.28580517
0003d0 bb 69 f4 3d 34 73 65 be 7a c4 1e 3e f7 d3 b0 be
       0.11934229 -0.22407228 0.15504637 -0.34536716
0003e0 2e 2d ca 3e 08 cf 7f bd 2c b4 29 bd 31 41 d6 bd
       0.39487594 -0.0624533 -0.04143159 -0.10461653
0003f0 2c 31 96 3d 9e c5 33 3d c8 52 10 be 0b 71 34 3e
       0.073335975 0.043889634 -0.14094079 0.17621247

network.2.weight f4 [256, 256]
000000 6e 79 d9 3d 91 1a c0 3e 3f 79 aa 3e a4 97 2e bd
       0.10618864 0.3752027 0.33295628 -0.042625085
000010 4f 73 4e bf b9 c8 69 be c6 19 87 3e 68 93 ec 3c
       -0.80644697 -0.22830476 0.2638685 0.028878883
000020 79 cd 53 bd df 05 4e bf f2 03 db be 3d 56 37 3d
       -0.051709626 -0.8047771 -0.42776448 0.044759978
000030 0d 8f 5e 3e 1e 1a d9 be f7 b0 40 3c aa 3c 79 be
       0.21734257 -0.42402738 0.011760942 -0.24339548
000040 db 55 90 be 7e 96 34 3f d6 97 7f be d8 86 f4 3d
       -0.28190503 0.7054213 -0.24960265 0.11939782
000050 39 55 91 3d 53 14 24 be 56 ff 18 3e 2e a1 57 bd
       0.07096333 -0.16023378 0.14941153 -0.052643947
000060 f7 17 ea be 60 93 72 be 31 80 37 bf f2 3e bc be
       -0.4572141 -0.23689032 -0.7167998 -0.36766773
000070 02 80 a1 bd df a5 e1 3d ee d0 84 3d da 37 66 bf
       -0.07885744 0.110179655 0.06485163 -0.8992897
000080 14 fa bc 3e 06 56 00 bf 8f 2a 94 be 12 36 d0 be
       0.36909544 -0.5013126 -0.2893872 -0.40666252
000090 59 3c 52 3d b0 90 e4 3d 19 e1 8a 3e e6 e2 24 bf
       0.051327083 0.111604095 0.2712486 -0.6440872
0000a0 36 db a3 3e 98 53 20 bf 5e 4a 49 be 23 5f e6 3e
       0.32003182 -0.62627554 -0.19657275 0.4499446
0000b0 52 15 4e be 9c 71 8d be 25 ca e5 be d6 2e 68 3d
       -0.2012532 -0.2762574 -0.44880787 0.05668529
0000c0 b0 59 0e be 42 1b 1b bc ea 8c ad bd fb 7a 92 bd
       -0.139014 -0.009466948 -0.08474143 -0.07152363
0000d0 ba d9 a1 3e 87 87 22 be 06 73 ee be 42 d4 86 3c
       0.31611425 -0.15872012 -0.4657213 0.016458634
0000e0 37 0e 46 3e d8 6f 85 3e b9 94 65 3e 6c 04 f4 bd
       0.1934136 0.26061893 0.22420014 -0.11914906
0000f0 d2 92 5f 3e 84 df fb bc 40 a7 f1 3e 53 ab 37 be
       0.21833351 -0.030746229 0.47197914 -0.17936449
000100 04 86 c2 bd c0 f6 16 3e ba a1 d6 3d 74 81 22 bf
       -0.09498218 0.14742565 0.10480066 -0.6347878
000110 f5 5d b1 3e 32 c2 b0 be ae 95 51 be c4 98 80 bf
       0.34641996 -0.3452316 -0.20467255 -1.004662
000120 a7 23 8d bd 24 ec 81 be d6 04 60 bf 75 c5 87 be
       -0.06891566 -0.25375473 -0.8750738 -0.26517835
000130 d1 e1 60 be 2f 2c ae bd 59 97 73 bd f1 dd a6 be
       -0.21961142 -0.08504521 -0.05947051 -0.32591203
000140 5d 06 c7 3d c5 ab b2 be 74 20 1a bf 91 4c 99 bf
       0.097180106 -0.34896675 -0.6020577 -1.1976491
000150 88 78 29 be cc b1 ba 3d f4 0b 6a bd c1 29 28 be
       -0.16549885 0.09115943 -0.057140306 -0.16422178
000160 7c d1 fc 3d fb 6c 0f bf f5 d3 9a 3e b7 a1 e7 3e
       0.123446435 -0.56025666 0.30239835 0.45240566
000170 79 72 12 bf 03 d8 2d be aa 6d 1a bf a5 d7 bf 3e
       -0.5720592 -0.16976933 -0.60323584 0.3746921
000180 d3 da 02 3e f5 ec 37 3e ce dc 54 3e 7a d9 2e 3e
       0.12778787 0.17961486 0.20787355 0.17075148
000190 41 52 0d 3f 54 23 f3 be 3f fd ae 3e 60 91 96 3d
       0.55203635 -0.4748789 0.34177586 0.07351947
0001a0 cd a4 f9 be 53 4a 32 3f cb fb 61 3e a0 9f b1 3e
       -0.48758546 0.6964466 0.22068708 0.34692097
0001b0 22 a0 31 be 9c cc 93 be 77 ad bf 3d fc 94 6d bd
       -0.17346242 -0.28867042 0.09359258 -0.05800341
0001c0 ca fc 81 bd e5 24 32 bf d7 e5 c1 be bc b0 c1 be
       -0.06347044 -0.69587547 -0.37870666 -0.3783015
0001d0 43 9f bd bd 8b c1 e0 be 63 cd 8e 3c 8a 78 4b 3e
       -0.092588924 -0.43897662 0.01743192 0.19870201
0001e0 79 4b ce bd 88 57 22 3f 77 9f 97 3d 1f 26 e0 3e
       -0.10072989 0.6341481 0.074034624 0.43779084
0001f0 e8 9d 43 3f a7 6e 53 3f 01 b3 b2 be 36 c1 35 bc
       0.7641282 0.8259072 -0.34902194 -0.011093428
000200 8a d0 02 3e cf cd 11 bf 8d ca e9 bb a5 f9 f8 3d
       0.12774864 -0.56954664 -0.0071347416 0.12156991
000210 2f 93 d7 be 7d 1d 88 be 51 6f 92 3d a7 be cd bd
       -0.4210448 -0.26584998 0.07150138 -0.1004613
000220 e8 25 d8 3e 58 d1 83 3e 5c f1 98 3e 11 2e a6 3e
       0.4221642 0.25745654 0.29871643 0.3245702
000230 15 ce bd 3e f6 33 c8 bf e5 4b 4e be a3 31 fa be
       0.3707129 -1.5640857 -0.20146139 -0.48865995
000240 cd 64 bf be 6f 35 22 be af 3f 05 bf fc 34 4b 3e
       -0.37381592 -0.15840696 -0.520503 0.1984443
000250 4c 5f fc 3e d5 4c 49 3d 57 ee 8d 3e bd 85 c4 be
       0.49291456 0.04914554 0.277209 -0.38383284
000260 9e 67 50 bf 5c fa 0b 3f ab 51 ed 3e f0 d9 8a 3e
       -0.8140811 0.54678893 0.4635137 0.27119398
000270 ce ad 5f bf 74 76 a8 3d b9 60 d8 be c9 ea 97 be
       -0.8737458 0.08225718 -0.42261294 -0.29671314
000280 0e d0 bb be 6c cf 22 3e 10 55 42 3e 5f 91 bf 3e
       -0.3668217 0.15899438 0.18977761 0.37415597
000290 d9 17 eb 3d 60 72 86 3e fb ff 66 3e 81 d0 50 bc
       0.11479158 0.26259136 0.22558586 -0.012745024
0002a0 bd c7 c7 3e 26 a6 65 3c 4b e5 5b bd 46 d5 65 bd
       0.39019576 0.014016664 -0.053685468 -0.056111597
0002b0 fa 0f 04 bf ce 94 8c bd 5d 05 06 bf c2 a1 ba 3e
       -0.5158688 -0.0686432 -0.52351934 0.36451536
0002c0 7c 2b c9 be 50 54 a7 be 08 c4 98 bd cc d3 55 be
       -0.39290988 -0.32681513 -0.07459265 -0.20881575
0002d0 81 09 a0 bd 6b d2 01 be b1 d0 62 3e 37 91 74 be
       -0.07814313 -0.12677924 0.22149922 -0.2388352
0002e0 04 0e 2f 3e 74 92 a0 bd 88 17 22 bf 72 93 38 b9
       0.1709519 -0.07840434 -0.63317156 -0.00017602535
0002f0 34 7f b4 bd 7e 40 67 be 3d 2a db 3e 9b 94 83 3e
       -0.088133246 -0.22583196 0.42805663 0.25699314
000300 8a 80 25 3d 3c 8b 00 bf 3b 9c 20 3e 5c be 2b be
       0.040405788 -0.50212455 0.15684597 -0.16771835
000310 59 a8 91 bd e9 7b 2a be c9 8d be be 97 e1 d1 bd
       -0.07112188 -0.1664883 -0.37217548 -0.10248106
000320 ad df 24 3e 6b 05 56 3d 31 e5 84 bf 8e 07 5d 3d
       0.1610095 0.05225126 -1.0382444 0.053962283
000330 e0 21 00 bf 95 e2 39 3d ee 5b 8e bd 98 3e 93 3d
       -0.5005169 0.0453821 -0.06951128 0.07189673
000340 3b 88 92 be 17 90 72 3e 54 ab e0 be 31 d6 41 bf
       -0.2861956 0.23687778 -0.43880713 -0.75717455
000350 41 cd 33 be 25 6b e8 bd 1a ff e6 be 1e e0 ac 3e
       -0.17558767 -0.11348561 -0.45116502 0.33764738
000360 14 28 87 bd e7 ed 68 be c5 4b 33 3e 3b f7 c5 be
       -0.06599441 -0.22747003 0.17509373 -0.38665184
000370 9a a1 d0 3d 41 f4 9f bc ca 31 15 bd b0 de 4d 3e
       0.10187073 -0.019525649 -0.036424436 0.2010448
000380 63 26 6b 3e d9 1a 3a 3e 9a 5e 0c bf ec d0 df be
       0.22963862 0.18174304 -0.5483185 -0.43714082
000390 f6 4f df bc 8c 2b 26 bf 12 2f c0 3e 33 85 81 bf
       -0.027259808 -0.649102 0.37535912 -1.0118774
0003a0 5b c1 79 bc 50 44 1c 3f 6f 2b 6f 3e 8b af c6 3d
       -0.015243853 0.61041737 0.23356412 0.09701451
0003b0 1f 69 9a 3d dc 6f 86 3e c2 a1 a5 bc 8a 04 82 3e
       0.075395815 0.26257217 -0.020218734 0.25394088
0003c0 d3 e4 8f 3d 27 13 60 be 9b 60 a9 bd 72 c0 21 3e
       0.07026067 -0.21882306 -0.08270379 0.15796068
0003d0 e5 b2 f6 be 54 d4 58 3e 55 6a e4 3d 43 4f 55 3d
       -0.4818336 0.21174747 0.11153094 0.052077543
0003e0 b8 0b ba bd 2f 92 b5 bd a6 ef e0 be 18 e4 44 be
       -0.090842664 -0.08865773 -0.43932837 -0.19227636
0003f0 cf 40 27 be 58 fe 24 bf 82 d3 14 bf 39 db a9 3e
       -0.16333316 -0.644506 -0.58135235 0.33175066

network.2.bias f4 [256]
000000 48 f5 76 3e 9a 16 f8 bd c1 1d 43 bd d9 16 76 bd
       0.24117005 -0.12113686 -0.047635797 -0.060080383
000010 ae 93 55 3f e7 91 af bd d0 ac f7 3b 80 3f 2d be
       0.83428466 -0.085727505 0.0075584427 -0.16918755
000020 83 6c 27 3f 15 49 36 bd dd 41 f2 3c 88 54 e9 3c
       0.6539995 -0.04450329 0.029572422 0.02848269
000030 e2 e9 9b 3b ff 7d 05 3e 0a 94 90 3d c9 ad 35 be
       0.0047581056 0.13036345 0.07059486 -0.17742075
000040 a8 65 b6 3e 73 2c 93 bd 01 39 c0 bd 5d cb b5 bb
       0.35624433 -0.071862124 -0.09385873 -0.0055479244
000050 2e 8f 83 be 4e d9 10 3c 89 f7 13 be 5d 9f 62 bc
       -0.25695175 0.008840872 -0.14449896 -0.0138319405
000060 9d 03 fe 3e 61 b6 03 bf 4e 5d cb bc 91 a8 13 3e
       0.49612132 -0.51450163 -0.024824765 0.14419772
000070 a5 17 7d 3c b0 7f 5f bc 55 01 a0 be fa 42 f8 3d
       0.015447532 -0.013641283 -0.31251016 0.1212215
000080 0d 8e c5 39 d9 99 25 3f 95 f9 54 bd 43 aa 96 bd
       0.00037680604 0.6468788 -0.051995832 -0.073566936
000090 4a fc 09 3e 52 8e 11 bc 4d 99 e4 3e 74 d5 b8 3b
       0.13475147 -0.008884029 0.4464821 0.00564068
0000a0 24 e1 90 be 40 12 95 bd 93 2c 81 bd be 4b 38 bd
       -0.2829677 -0.072788715 -0.0630733 -0.04499411
0000b0 c3 64 f1 3c b4 b4 6c bd 5d 06 44 3f 7f 53 13 3f
       0.029466992 -0.05778952 0.7657221 0.5754928
0000c0 4b ac 5c 3d 86 32 9f be a7 eb 58 3c 16 ba 88 3e
       0.05387525 -0.31093234 0.013239778 0.26704472
0000d0 b6 01 ae bd 56 04 3f bd 35 b7 83 3d ff 55 ae be
       -0.0849642 -0.046634994 0.06431428 -0.34049985
0000e0 ec 23 d7 bb 02 25 c1 3c 1e 0b 5c 3a 55 fa 0b 3e
       -0.0065655615 0.023577217 0.00083939906 0.13669713
0000f0 62 d9 ca 3e ed 16 6d bd 95 6a 22 be 69 a4 ac bc
       0.39618975 -0.05788319 -0.1586097 -0.02107449
000100 7d 40 8c 3c e5 9e 81 bd 2b 9a c4 3c ed cd f9 3d
       0.017120594 -0.06329135 0.023999294 0.1219748
000110 86 aa 7a be e9 34 5f bd 06 68 73 be 52 0a 62 bd
       -0.24479112 -0.05449382 -0.2377015 -0.055185623
000120 2d ea 8e bb 34 41 51 bd 1a 72 13 bd d1 c2 5e bd
       -0.004361412 -0.051087573 -0.035997488 -0.05438501
000130 48 3e 02 3e d5 2b 93 bd 80 d5 cb ba 9c 0d 7c bc
       0.12719071 -0.07186095 -0.0015551299 -0.015384104
000140 f7 69 9c be a3 73 86 bd 34 e1 84 bd 47 66 67 3e
       -0.30549595 -0.06565025 -0.064882666 0.2259761
000150 00 ea e6 bc fb 33 89 bd 10 3c 6f bd 9c ec 7d bd
       -0.028187752 -0.066993676 -0.05840689 -0.061993226
000160 f5 f2 b5 3c ee 94 86 3b 1f 80 65 bd fd b7 07 bd
       0.022210578 0.0041071093 -0.05603039 -0.03313445
000170 96 10 25 bc 1f 9c 03 bd 75 e5 ef bc 84 e5 7e bd
       -0.010074755 -0.03213131 -0.029284218 -0.062230602
000180 fe 2a 3f bd 29 6b 4e 3d df 43 de be 9b 1a 7d be
       -0.04667186 0.050395165 -0.43411157 -0.2471718
000190 fe c4 9a bd 88 22 fd 3c ec 74 9e be b9 97 9a 3c
       -0.075571045 0.030900255 -0.3094858 0.018871175
0001a0 83 23 5b 3f 1e 44 e9 be c9 43 81 bd b6 09 42 bd
       0.8560106 -0.45559782 -0.06311757 -0.047372542
0001b0 b2 93 64 3d 10 2d 98 bd 10 7b 80 3e ce 30 ad bb
       0.055804916 -0.0743047 0.2509389 -0.005285359
0001c0 87 54 83 be 59 75 a9 3e c8 6c c0 bc d8 fe 95 3b
       -0.25650427 0.33097342 -0.023489371 0.004577499
0001d0 3b d9 b7 bc 0a 93 f3 bc 00 11 10 3f f5 ae 22 3c
       -0.02244245 -0.0297332 0.5627594 0.009929408
0001e0 72 11 43 be 40 26 93 bc 7f d0 0a be 4d b5 94 bd
       -0.19049624 -0.017962575 -0.13556097 -0.07261143
0001f0 ea 51 69 3b 37 93 c8 3b a0 16 36 3f 66 80 c0 3e
       0.0035601803 0.006121065 0.71128273 0.3759796
000200 26 e6 12 bf 1d 14 62 be db 96 fc bd d8 70 da 3b
       -0.5738243 -0.22077985 -0.12333461 0.006666284
000210 6b 43 85 be dc 45 05 3e db cf 89 bc 96 c7 63 3f
       -0.26027998 0.1301493 -0.016822746 0.8897642
000220 d7 d5 31 bc b0 56 f1 bc a3 ac 6a bd a1 e3 a1 3e
       -0.010854206 -0.029460281 -0.057293545 0.3161898
000230 ca 0e 00 3e 7b 62 8f bc a1 3e fd bd a8 b8 72 be
       0.12505642 -0.017503014 -0.12365461 -0.23703253
000240 12 fb 94 bd c2 ee 5f bd 85 aa ba bc 37 79 9d 3c
       -0.0727445 -0.054671057 -0.022786388 0.019222839
000250 78 3a 96 3e a6 9f 7c 3c de a1 2e 3e f9 ac 69 3e
       0.29341483 0.0154189225 0.17053935 0.2281989
000260 fa f2 26 3e e9 da 18 3f be 37 de bc 00 cc b1 3c
       0.16303626 0.5970903 -0.02712619 0.02170372
000270 91 5b 4e 3e 32 2e 49 bd 56 92 18 bd 4b dd 8c bd
       0.20152117 -0.04911632 -0.03724893 -0.06878146
000280 4f 29 01 bc 23 3e cb bb 8f 66 91 bd 0b 58 26 bd
       -0.007883384 -0.0062024756 -0.070996396 -0.040611308
000290 dd f6 39 bd 3c 7a 65 3f 81 4a ee 3e 9a 33 96 bd
       -0.045401443 0.8963964 0.46541217 -0.07334061
0002a0 35 10 e0 3e 5b ea 8c 3e 42 cf e3 bc 76 17 65 bc
       0.43762365 0.2752255 -0.02780879 -0.013982644
0002b0 51 c1 8e bc 16 42 28 bd ca 4a 1e 3d c6 c1 b3 be
       -0.017426165 -0.04107865 0.038645543 -0.35108775
0002c0 f4 a2 52 3d 3d 68 93 3a 59 64 10 3e 53 0a 86 be
       0.051424935 0.0011246275 0.1410078 -0.26179752
0002d0 9b 5e f7 3c 5a 12 da bc d2 b1 10 3d 14 4d ac bc
       0.030196479 -0.026620079 0.035325833 -0.021032847
0002e0 98 61 8b 3e 48 05 9a be 18 be 98 be a8 db 18 bf
       0.27222896 -0.30082154 -0.2983253 -0.5971017
0002f0 3b ed 40 bd a6 be 87 bd 06 85 96 bd 70 8e 08 be
       -0.04710124 -0.0662816 -0.07349591 -0.13335586
000300 26 fd 85 3d 91 36 ae bc a9 39 cf bb 0d f9 90 be
       0.06542425 -0.021266254 -0.0063240123 -0.2831501
000310 3d 43 79 bd 4b b4 34 3e 09 cf 82 bd 8d 18 26 bd
       -0.06085514 0.17646901 -0.06387145 -0.040550757
000320 c0 3c 09 bf 9c 8a 34 bc 53 2a 18 bd be 8b 80 bd
       -0.5360832 -0.011019375 -0.03714974 -0.06276654
000330 b8 5f 07 3d 39 5b b8 3e 0b 6b 8b 3e d3 3e bb bc
       0.03305027 0.36007097 0.27230105 -0.022857105
000340 1b 1c df 3e 72 22 79 be 8e 1e c3 ba 3a e5 ef 3d
       0.4357613 -0.24329546 -0.0014886425 0.11713643
000350 56 2d 0e 3f df ef 73 3c 82 2e 79 bd ca 8a 89 3d
       0.5553793 0.014888733 -0.06083537 0.06715925
000360 4b 8d b5 bc c5 b5 29 3c 18 29 1e 3d 2d 77 bc 3e
       -0.0221621 0.010358279 0.03861341 0.36809674
000370 57 3d d8 3d be b2 57 bd ba 9f c2 be d0 be 89 bc
       0.10558575 -0.052660696 -0.38012487 -0.01681462
000380 df 6b 0d 3d c1 69 f1 bd 71 32 c5 3c 83 21 15 bd
       0.034526702 -0.11787749 0.024071904 -0.036408912
000390 2f 89 5a be 37 6b 1f bf e6 a6 ca 3c ba 1c 1c be
       -0.21341394 -0.6227297 0.024737787 -0.15245333
0003a0 b7 5b f8 3c 8a f8 d2 3c 19 15 82 bd a2 f8 72 3c
       0.03031717 0.025753278 -0.0635168 0.0148297865
0003b0 df 60 18 bd 4f cd 92 be e9 79 8d 3e 7a 5a a0 3e
       -0.03720176 -0.28672263 0.27632073 0.31319028
0003c0 e3 d5 25 bd 4e 7d 37 bd c0 be 8e 3b 83 bd a0 bc
       -0.04048718 -0.044797234 0.0043562353 -0.019621616
0003d0 44 29 42 3b 60 8a 2c 3d 3c 16 d4 3c fe da a0 bd
       0.0029626647 0.042124152 0.025889508 -0.078542694
0003e0 11 0f 05 be 5f e7 ef 3c 99 c0 42 bd 82 81 bf bc
       -0.12994029 0.029285131 -0.047546957 -0.023377184
0003f0 e7 82 b9 be 57 0b 4e 3e 71 1b 27 3d 7e e4 4b bc
       -0.36232683 0.20121513 0.040797655 -0.0124446135

network.4.weight f4 [9, 256]
000000 b1 ff 68 bf 2d 71 31 be a6 35 96 3c 7d bc 54 3d
       -0.91015154 -0.1732833 0.018336128 0.05193757
000010 5f 19 9d bf 47 82 bb 3b ec 71 72 bc 38 1f c2 bd
       -1.2273368 0.0057223174 -0.014797669 -0.09478611
000020 a1 01 cd bf a5 f1 79 3d 0f 6a d3 3c 59 a6 8d bb
       -1.6016122 0.061021466 0.025807409 -0.0043228087
000030 1d df 00 3d 34 de 58 bf 3a fb 2b be 0a 5a 07 3e
       0.031462777 -0.84714055 -0.16795054 0.13217941
000040 92 88 c9 bc bc 51 6c bc a2 6a 95 be 39 0b eb bc
       -0.024601255 -0.014423784 -0.29182917 -0.028691875
000050 7f 68 0a 3d 60 14 5c bc a3 e9 5e bd 80 6f 6b 3c
       0.03379106 -0.013432592 -0.054422032 0.014369845
000060 3f 83 71 bf e4 4d b7 be ba 77 33 3d cd 38 98 be
       -0.9434089 -0.35801613 0.043815352 -0.29730836
000070 f5 c8 70 3c 01 c4 ac 3c c6 e8 6c 3e 50 9c 28 bf
       0.014696349 0.021089556 0.23135671 -0.65863514
000080 86 87 2b 3d 52 04 08 bf 00 a5 c9 3c ee 9a c6 bc
       0.041877292 -0.5313159 0.024614811 -0.024243798
000090 ae 35 9e 3d 94 d2 19 bd 38 f7 2c bf 8b 29 63 bd
       0.07725082 -0.03755434 -0.67564726 -0.05545954
0000a0 8f 8a d7 3b 5d d9 11 3c 41 19 71 3d c0 2e 20 3d
       0.006577797 0.008901921 0.058861975 0.039107084
0000b0 af c9 20 3b b3 9e c8 3c 5f 43 79 bf e5 ac d5 be
       0.0024534275 0.024489736 -0.97368425 -0.4173347
0000c0 68 dd 2f 3d e9 48 9b be ac 1a ba 3c 9c bb a9 bd
       0.04293576 -0.30329064 0.022717796 -0.08287737
0000d0 69 98 c3 be 10 60 8f 3c e5 55 8e be 46 57 3e 3d
       -0.38202217 0.01750186 -0.27799907 0.04646995
0000e0 75 b5 60 bd 1f 8e 34 3d cd 64 9f bc 05 c4 13 bf
       -0.05486055 0.04408085 -0.019457245 -0.5772098
0000f0 5f 3b d2 be ce de 9b bc 86 52 aa bc f4 e4 fc 3b
       -0.41060922 -0.01902714 -0.020791303 0.007717723
000100 30 2e ac 3c ec 1d 82 bd b2 94 2d bd 7f cb 39 bf
       0.021018118 -0.063533634 -0.042378135 -0.72576135
000110 b0 e1 1a bf 9f 11 1c 3d 36 54 08 bf c2 24 a5 3c
       -0.6050062 0.038102742 -0.53253496 0.020159129
000120 88 95 2b 3d 74 aa 2f bd 9d 5a 08 bb 2f 51 64 bc
       0.04189065 -0.042887166 -0.0020805963 -0.013935371
000130 57 66 6c bf ef 78 4e bc 3d 64 7e bc e9 3d 5a 3c
       -0.9234366 -0.012602075 -0.015526828 0.013320425
000140 33 f2 67 3d 8d 6e be bc c9 b1 ac bb 83 97 b5 be
       0.056627464 -0.023246074 -0.005270217 -0.35467157
000150 79 5b 45 3d 98 47 ba bc d6 79 a3 3c 9a f6 4c bf
       0.04818294 -0.022739217 0.019955557 -0.80063784
000160 70 99 9e 3c d5 98 2a 3d 4b df bc bc 40 fc 18 3c
       0.019360274 0.04164966 -0.023055693 0.009337485
000170 8b 55 70 3c 83 99 2e bd a6 97 a5 3b 39 4a 1a bd
       0.0146688325 -0.04262687 0.0050534783 -0.03766844
000180 0d 4e 45 bd 08 05 91 be 19 af 8c be 6e 2e e8 bd
       -0.04817014 -0.2832415 -0.2747734 -0.11336981
000190 82 5f 5a 3d e5 1f ed 3c 8d cb 2c be 55 94 2d 3c
       0.05331374 0.028945873 -0.16874523 0.010594447
0001a0 e5 c6 29 bf 69 07 b7 bd 1a ea 33 3d da 7b 74 bb
       -0.66319114 -0.0893696 0.04392443 -0.0037305267
0001b0 cf b4 d0 3c b3 e9 52 3d f5 e8 4b bf 67 00 3f bc
       0.025476841 0.051492404 -0.7965234 -0.011657811
0001c0 fd fa 76 bd ba 62 a5 bf fb f1 23 bc bc c9 e6 3c
       -0.060297955 -1.2920754 -0.010006423 0.028172366
0001d0 5a 43 24 3d b9 b3 5e bd f9 7c b0 bf 15 44 03 3d
       0.040103294 -0.054370616 -1.3788139 0.03204735
0001e0 12 48 2f be 88 f8 11 bd d0 f1 0d be 97 1b ad bc
       -0.17117336 -0.03563741 -0.13861775 -0.02113132
0001f0 0b e0 7c 3d 09 62 55 bd b5 fc 9e bf d7 fa 8d be
       0.0617371 -0.052095447 -1.242087 -0.27730438
000200 1b ab 4b 3c a3 9a 93 be ca 38 20 bf ae 6c 07 3d
       0.012430931 -0.28828916 -0.62586653 0.03306263
000210 06 c1 94 be 19 05 8d be 6c 9c 1f bd f1 a5 2f bf
       -0.29053515 -0.27542952 -0.038967535 -0.6861258
000220 2a 32 6e ba 9c 2a 44 bd 88 ec 31 bd 46 bc fc bd
       -0.00090864545 -0.047892198 -0.043438464 -0.12340598
000230 31 9b f9 bd e8 7f 45 bc 66 88 fc bb 10 07 a3 bd
       -0.121878035 -0.012054421 -0.0077066896 -0.079603314
000240 7d 0b ce bc 5f 8f bf 3c 33 3c 4a 3d 18 14 1c 3d
       -0.025151962 0.023383794 0.049373817 0.0381051
000250 e6 b1 b4 be fc c2 d7 bc ae 0d 9c bf 4f 52 0e bf
       -0.35291976 -0.026338093 -1.2191675 -0.5559434
000260 67 db 7f 3e a6 8c 8a bf 81 ef 79 3d 2d b7 50 3d
       0.24986039 -1.0824172 0.061019424 0.05095594
000270 c2 2f a5 be 23 37 7a 3d 4a 42 2f 3c f2 d2 37 3d
       -0.32263 0.06108774 0.010696957 0.044878908
000280 f0 f0 85 bb 13 a8 e9 be 9c b2 40 bd b0 f4 1e 3d
       -0.00408756 -0.45636043 -0.047045335 0.03880757
000290 33 c1 4d bb d0 91 1b bf ca a7 6f be df 15 93 3c
       -0.0031395673 -0.6076937 -0.2340385 0.017954765
0002a0 e2 c6 e2 be d3 b6 bf be be 88 6f bd 1b 68 2c 3c
       -0.4429236 -0.3744417 -0.058480017 0.010522868
0002b0 34 49 1d 3d 03 75 17 bf 71 c6 cf 3c 15 31 01 bf
       0.03839989 -0.5916292 0.025363179 -0.5046552
0002c0 73 6d 96 3a 27 cc 1c 3c 95 f4 f4 be 7a b1 73 be
       0.001147671 0.009570158 -0.4784285 -0.2379817
0002d0 4b 03 be bb e4 d1 06 bd b7 80 cf bb c1 6a 95 bd
       -0.0057987324 -0.03291501 -0.0063324827 -0.07295752
0002e0 c5 b6 f4 be 80 c3 2a bf e3 ab e8 be a7 64 77 be
       -0.47795692 -0.6670456 -0.4544364 -0.2415949
0002f0 16 5c 2f 3d 56 04 0c bd 61 25 1a bc df fa 08 bf
       0.04281243 -0.034183823 -0.009408326 -0.535078
000300 b1 e9 2a be ae 37 73 bd cb 78 2a 39 f6 41 95 be
       -0.16690709 -0.059379272 0.00016257462 -0.29151887
000310 d6 0e 47 bc 9f 86 02 bf 6c 51 98 bc 69 04 7a bc
       -0.012149533 -0.50986665 -0.018593512 -0.0152598405
000320 0a 72 93 be 7a e2 20 b9 16 eb 18 bd d7 b1 0e bd
       -0.28797942 -0.00015343158 -0.03733357 -0.03483757
000330 28 d0 e4 bc 1a ad eb bf 2d 6f 46 bf 61 c9 39 3d
       -0.027931288 -1.8412201 -0.7751339 0.045358066
000340 e2 60 2a bf 3f 15 f9 be b2 d7 31 bd 4b 3e 67 bf
       -0.6655408 -0.48649022 -0.043418594 -0.90329427
000350 b8 85 1d bf 28 48 2e 3d c8 50 e5 3b 63 b0 6e bf
       -0.61532164 0.042549282 0.0069981553 -0.93237895
000360 7b 50 74 3d ce f1 d5 3c c2 a1 70 bd 00 f9 de be
       0.059647065 0.026116278 -0.058748014 -0.43549347
000370 b5 79 e9 bd 83 a7 07 3d 07 f6 f2 be 22 c6 39 bf
       -0.11400167 0.033118736 -0.4745333 -0.7256795
000380 37 af 59 bc 34 5e 28 bf 19 14 8d 3c 20 72 6d 3c
       -0.013286403 -0.6576874 0.017221497 0.014492542
000390 75 74 97 be 92 8e 35 bf 1e 7b 9b b9 da 04 85 be
       -0.29581037 -0.7092067 -0.00029655633 -0.25980264
0003a0 1b c0 81 3d a2 c1 99 3c 19 e4 1f bf 0e 20 04 bc
       0.06335469 0.01876909 -0.62457424 -0.008064283
0003b0 b1 da 4a 3c 0a 24 8b bc 46 4d 8e be 9a 09 2a bf
       0.012381242 -0.016984958 -0.2779333 -0.664209
0003c0 14 26 28 be bd 41 b9 3c 01 87 c0 3c dc 6b 31 3d
       -0.16420776 0.022614354 0.023501875 0.043315753
0003d0 bc 50 74 3a 0e a1 10 bd e6 b2 65 bc 0f d1 f3 3c
       0.00093198917 -0.035309844 -0.0140197035 0.029762773
0003e0 26 39 93 3d ee c5 a0 3c cb 69 fa 3c 75 65 29 bd
       0.071886346 0.01962563 0.030568024 -0.041356523
0003f0 42 af 4a be 0f 99 ea bf ce b8 85 3c 23 e0 1a 3d
       -0.19793418 -1.832796 0.016323473 0.03781141

network.4.bias f4 [9]
000000 e5 e4 2a bf 0c a4 12 bf 5b d9 2a bf 88 ae 0f 3f
       -0.66755515 -0.57281566 -0.6673791 0.5612569
000010 92 21 26 3e a4 21 b4 3e 90 36 54 bf 97 eb f7 be
       0.16223744 0.35181916 -0.82895756 -0.48421928
000020 a1 76 1a bf
       -0.60337263
