Training/Model/model_actor_robot_subset_joint1_103.pt (torch, 287351 bytes, 6 tensors)

network.0.weight f4 [256, 10]
00000000: 6a18 e53e 04f3 393e 0b21 a73c 6908 293e
00000010: 5efe 303d b9d4 163e 8914 50bc de23 1fbe
00000020: dc5b 46bc 6b0c 103e 71fb 843e b5d2 7bbd
00000030: 1f9c 61bc 4b98 41bb d76a 93bc a006 863d
00000040: b322 503e 95c2 96be 7975 afbe aceb c93e
00000050: 00d5 6d3e 105b 7a3d fd33 bb3c 4267 383e
00000060: c426 70bd 736a d2bc f3e5 7ebe bf2c ff3d
00000070: f9fd b0be 3fb4 853e 5ce2 63bd 560a 88be
00000080: ff4e 933e e627 6fbd 787c 0dbd 4934 85be
00000090: 8bee d23d 7e2c a8be cefc 36bf 6fd7 603e
000000a0: 2252 96bd 8da4 5a3c 1ff5 3c3e 6c4d 9b3d
000000b0: 3471 51be d4ec b83d 8a07 05be a288 3abb
000000c0: 3c75 54be e1e6 8f3e 2d7f 443e b13a bc3f
000000d0: befa 61c0 f436 1f3f fdfc b2bf c890 413f
000000e0: 4b2c eebd d3cd 9a3f 63ba ffbe 44ed cc3f
000000f0: 0a35 1fbd 9a13 bfbc 741b 2dbe fb2a 00bd
00000100: 2d64 9e3d e86a be3b e493 533c 97c0 b03e
00000110: 2994 dabe c651 7c3e a60f a33d 1f54 813e
00000120: e90a 29bd f05b 0c3e b9c8 9fbd 4389 f53d
00000130: 0ba1 64be ea51 2ebe 73e6 4b3e 60f8 8abe
00000140: 9632 623f 9d9e 6abe f0ce d8bc da2c b93d
00000150: 5a9d 2e3d 6ce3 113f 2a2c 52bf fc5e fd3d
00000160: 5d8a 37bf c657 423f e62d a7c0 f3a9 cbbe
00000170: 94ce c53c 44d1 793f 110e 2740 f20a 773f
00000180: 5909 27c0 6c27 6fbf 5081 98be 8740 9a3e
00000190: 10a3 9440 59ea f1bf 0f32 173f 44e0 953f
000001a0: fc38 62bf 022d 8f3e b675 e83d e215 0340
000001b0: 4af2 1e3f 9bcf 943f f6f2 993e b478 9b3c
000001c0: 44ef 2f3d 52bd c43d 44a2 693e e53d c03d
000001d0: 4c62 4e3d 950e 91be c873 5b3c ad12 da3e
000001e0: 9abe 1d3e e3dc 70bd 2ad1 e9bb 41a5 cb3d
000001f0: 56a1 dbbd 1b9b 70bd d773 5c3e 9bcb 0d3d
00000200: 6661 a5bd 029a 79be e726 de3f ca68 27c0
00000210: 471b 0dc0 7a70 ecbd 3fc4 73bf 4af4 923e
00000220: a651 c73f 3fcf 97bd f3cd 08bf 2044 3b3f
00000230: 6fe3 7cba 1717 fdbb 025b aabd c395 803e
00000240: fca8 c1bd 40f6 703e 2a8c 333e 4b22 ae3c
00000250: 6806 02bf b66a dc3d 32ca a3bf 1ded a2bf
00000260: 55f0 98be 0294 d1be 0d92 29bc 4a69 963f
00000270: bba7 debe 4146 46be 02a1 a7bf 45ea f6bd
00000280: 0a94 afbd 4168 1cbe 118d 3ebe 101b 6abd
00000290: 8019 33bd a86f 043e 60fc a83c a49f 263e
000002a0: eb11 13be 4098 cc3b b4e6 803e 2669 3bbe
000002b0: 6fff ba3e c8d6 d13f 3a61 86be 8243 d23f
000002c0: 4a00 85bf 0b07 98bf 924f 843c ab39 943e
000002d0: bb3d aa3e f616 f03d 9bd5 513d f529 c73e
000002e0: b98b 03bc 032d 8ebd 7edb 27be fccd d3bd
000002f0: b758 53bd c4c0 793e e08f d23f 8ee9 2a3f
00000300: d5d1 4bbf 855f eebe 3cb7 c93f 107a 8abf
00000310: b9ee 02c0 8e00 34bf 5176 17c0 015f c63e
00000320: 4765 dd3f a624 0a3f f682 32be d4e0 383d
00000330: d2b5 23be 5830 113d 0e84 4a3f 47f8 acbe
00000340: 974e cc3c 2ef7 b93e f420 7bbb 5cb0 99be
00000350: ce3f 92be 7831 4f3e 78cf ac3d 0c1c 3abd
00000360: ce9f e13e 8abe cbbe dcde 07bf d0ef f23e
00000370: a314 31bf c187 b93e e7dc f93e f9fc b13e
00000380: 07cc 633e 50cd 3e3e ba9d 0dbf 5ccb 30be
00000390: 6a1f febe d3b2 753f b065 263f df6d 423f
000003a0: 1394 3ec0 4210 573f 3409 a7bf f03c f93e
000003b0: 3515 ae3f 5d4d b6bf a4fa 793e c6d7 483f
000003c0: e715 8cbe 69fd f73c 8d73 07be 0902 923d
000003d0: 674f bc3e d62c 733d a971 fdbc 07b7 bfbb
000003e0: 1a98 5abe c769 4b3b 538a eebc f333 c2bc
000003f0: 070b d1bc 5b80 863e 042f 8ebe f04d 8bbd
0.4474519 0.1815911 0.020401498 0.16507114 0.043211333 0.14729585 -0.012700208 -0.15541026
-0.012106862 0.14067237 0.25973085 -0.061480243 -0.013770132 -0.0029540237 -0.017995281 0.06544232
0.20325737 -0.2944533 -0.34269312 0.39437616 0.23225784 0.061122 0.022851938 0.1800814
-0.05863072 -0.025685525 -0.24892406 0.124597065 -0.34568766 0.2611408 -0.055635795 -0.26570386
0.28771207 -0.05838766 -0.03454253 -0.26016453 0.10299405 -0.32846445 -0.714795 0.21957181
-0.07339884 0.013344896 0.18452881 0.075831264 -0.2045334 0.090295464 -0.12991157 -0.0028462787
-0.20747846 0.28105834 0.19189139 1.4705411 -3.530929 0.62193227 -1.3983456 0.75611544
-0.11629542 1.2094063 -0.4994689 1.6009908 -0.03886894 -0.023324776 -0.16905004 -0.03129099
0.07733951 0.005811084 0.012913678 0.34521934 -0.42691162 0.24640569 0.07961969 0.25259492
-0.04127017 0.13706946 -0.07801957 0.11989071 -0.22327058 -0.17023435 0.19912128 -0.2714262
0.8835844 -0.22912069 -0.026465863 0.09041758 0.04263053 0.56987643 -0.8209864 0.123716325
-0.716955 0.7591518 -5.224353 -0.39778098 0.024146356 0.9758494 2.6102335 0.96501076
-2.6099455 -0.9341953 -0.29786158 0.30127355 4.644905 -1.8899642 0.5906076 1.1709065
-0.883682 0.27964026 0.113505766 2.0482106 0.62088454 1.1625856 0.30068177 0.018978454
0.04295279 0.096064225 0.22815806 0.093868054 0.050386712 -0.28331438 0.013394304 0.42592373
0.1540474 -0.058804404 -0.00713553 0.09943629 -0.10724132 -0.05874167 0.21528564 0.034618
-0.08075218 -0.24375156 1.7355622 -2.6157708 -2.2047899 -0.11544891 -0.9522132 0.28702003
1.5571792 -0.07412576 -0.53439254 0.73150826 -0.00096469274 -0.0077237 -0.083181396 0.2511426
-0.09456059 0.23531437 0.17533937 0.021256587 -0.50791025 0.10762541 -1.279608 -1.2728611
-0.2987086 -0.40933233 -0.010349763 1.1750882 -0.43487343 -0.19362737 -1.3096011 -0.12056402
-0.08573158 -0.15274145 -0.186085 -0.057154715 -0.04372549 0.12933218 0.020628154 0.16271836
-0.14362304 0.0062437356 0.25176013 -0.1830183 0.36523005 1.6393671 -0.26246053 1.6426852
-1.0390713 -1.1877149 0.016151223 0.28950247 0.33250222 0.117231295 0.0512291 0.38899198
-0.008028918 -0.06942179 -0.16392323 -0.10342023 -0.051598277 0.2438994 1.6450157 0.66762626
-0.79617053 -0.4655725 1.5759044 -1.08185 -2.0458205 -0.70313346 -2.3665965 0.38744357
1.7296532 0.5396217 -0.1743277 0.045136288 -0.15987328 0.035446495 0.7910775 -0.3378317
0.024939818 0.36321396 -0.0038319202 -0.30017364 -0.28564304 0.20233715 0.08438009 -0.045436904
0.44067234 -0.39793807 -0.5307443 0.47448587 -0.69172114 0.36236385 0.48801348 0.34763315
0.22245799 0.18633008 -0.55318797 -0.17265075 -0.49633342 0.9597599 0.6499891 0.759489
-2.9777877 0.8400918 -1.3049684 0.48679304 1.3600222 -1.4242359 0.24412018 0.78454244
-0.2736046 0.030272203 -0.13227673 0.071292944 0.3677933 0.05936893 -0.030937986 -0.005850676
-0.21347085 0.003103839 -0.029118693 -0.023706412 -0.025517954 0.26269802 -0.27770245 -0.06801975

network.0.bias f4 [256]
00000000: 30a5 91be 6aaa c4be 606f 8cbe 0489 1fbf
00000010: adfe 3ebe ccce 29bf e7a4 e0be da90 a6be
00000020: 928c d7be 5cf1 49bf 7a3a 203e 71ce 12bf
00000030: 7723 b8be 3b2a 33bf 0011 67be 03de 73bf
00000040: 6d5a 90be 693a bcbd 0739 12bf b566 95be
00000050: 0e87 d3be ffdb 14bf 3934 4dbf d960 00be
00000060: 68fd 09bf b3ba 05bf 377b 6cbf 894a 11bf
00000070: a1eb 96be 70b7 a3bf ff93 12bf 7d12 99bf
00000080: c114 9ebe 27b0 fcbe 3195 01bf 0979 1fbd
00000090: a08e efbd 0c76 f2be d74c 873e 8110 7ebf
000000a0: 1b25 5dbe f189 33bf 8443 35be 1c6e 6c3d
000000b0: fc7c 9cbe 38e4 2bbf 07f7 6ebf 366e 96be
000000c0: ee52 4dbf a44f c1bf 68c9 05bf e659 98bf
000000d0: c259 1ebf e30a c4be 64ba 5ebf af0d edbe
000000e0: fd86 a2be 763b b7bb adb5 94bf 6b07 9abe
000000f0: 84e4 b3bf 9052 04bf 3552 5bbf 1818 febe
00000100: 70ef e1be 35bb 5dbe fb0d ee3e 5106 79bf
00000110: 0b1f 55bf 9813 c8be 4411 19be e2df e6be
00000120: d164 1bbf de0e f2be 8049 02bf 897d cfbe
00000130: f357 b3be a851 93bf fb9c 23bf 9e16 dabe
00000140: 4477 03bf 480e a8be 7beb 0e3d 93eb 80bf
00000150: b970 00bf d699 25bf bc50 b3bf 6268 87be
00000160: 4a31 ba3b fa99 14bf 7aa2 bf3d 47a7 ecbe
00000170: cb38 b73e 8874 83be 842f 31bf 8b0f 4abe
00000180: 8519 d4be 5ba2 34bf 25d2 5fbf 39e4 79bf
00000190: 9ccf 8abd 961f 0abf c8df d2be cfed a6be
000001a0: 66c0 7dbe 1383 f8be 3007 84bc 5bce 45bf
000001b0: f458 9cbe be78 9cbe 58d0 17be a7e9 53bf
000001c0: d7d6 07bf 8c2f 99be 6e94 d0be 798a 0ebf
000001d0: eaac 78bf c313 19bf fa2d b8be f512 4bbe
000001e0: 8da2 57bf 31ed 5abf 12fc a1be 5960 99bf
000001f0: 734f b6bf 7629 40bf 00f2 24be a920 b7be
00000200: f404 a7be 6d4d 07bf 8aae 03bf 88e5 1cbf
00000210: 5ec4 40bf 7e4c 8abe edc8 67bf 3612 06bf
00000220: e36b d4be 7c6c 65be 274f 0bbe d7ec 0dbf
00000230: 4467 3cbf acbb edbe ce32 6cbf e820 44be
00000240: 48d9 08bf 4bc3 0dbf b983 eebe 2e01 90bf
00000250: 3ca7 103f 6e66 00bf e235 8ebf 4fda 81bf
00000260: 0ce4 49bf 5a89 8cbf b284 ecbe 4999 a6be
00000270: 73ab ebbe 8dbd 58bf 10eb 55be 1ee8 f0be
00000280: 4d25 abbf 11bf c63d afb0 87be ac93 84bf
00000290: bd07 e7be 3ef2 e4be 575e 87be 53a8 5dbf
000002a0: 4841 29bf fb99 85be 5218 11bf acee f2be
000002b0: af66 12bf d6ad 19be cc99 66be 8a0f 28bd
000002c0: 720e 303d 5729 b0be 51ff 45bf 009b 1bbe
000002d0: 0186 96be 3827 91be 1faa 19bf 9a2b 06bf
000002e0: 0828 4fbe 2c15 d0be 5119 39be 5804 513d
000002f0: f056 dfbe 60f5 6bbd 2ec7 89be 9750 99be
00000300: 14df 0bbf c79c 9bbf 7a1a 13bb 6659 debe
00000310: bec6 79be f052 0abf 431e b5be a426 7ebe
00000320: f0e8 ecbe f76d fbbe 0884 1bbe daf2 36bf
00000330: 783c 23bf 2a37 39bf e50d d6be dce9 c2be
00000340: e3a2 30bf a55d 8abf 4ace d1be 2c56 bfbf
00000350: 2e5d 11be b13a 64be ce35 0bbf b4e7 03bf
00000360: f7ab 52be b53d e6be c290 a6bf 99ab 14bf
00000370: 744a a8be 7522 19be 4030 71bf 0428 31bf
00000380: 31e2 81be 4a77 41bf ae38 90be c9ed 3dbf
00000390: 0d88 a5be c663 153c 13f0 47bf ed19 bcbe
000003a0: e8b9 bfbf 8234 25bf 8858 17bf a5aa 80bf
000003b0: 6357 aabe 95a1 61bf a0f5 f6be 0e99 9dbe
000003c0: f6e1 12bf bb8f c6be f6f5 28bf b62e dabe
000003d0: 4eca 1ebf a489 bbbe b74c 8ebe 5ba2 babe
000003e0: 4412 16bf ca86 ecbe 90f4 0bbf 523d c63c
000003f0: 3dce 2f3f 9db5 72be c289 f1be cc94 a9bf
-0.2844634 -0.38411266 -0.27428722 -0.62318444 -0.18651839 -0.6633117 -0.4387581 -0.32532388
-0.42099434 -0.7888391 0.15647307 -0.57346255 -0.35964558 -0.69986314 -0.22565079 -0.9526064
-0.2819399 -0.09190828 -0.57118267 -0.29179922 -0.41313976 -0.5814819 -0.8015781 -0.12536944
-0.5390229 -0.52238005 -0.9237551 -0.56754357 -0.29476646 -1.2790356 -0.57257074 -1.1958767
-0.3087521 -0.49353144 -0.50618273 -0.038933787 -0.116971254 -0.47355688 0.26425812 -0.9924393
-0.21596186 -0.70132357 -0.17701536 0.057722196 -0.30564106 -0.6714511 -0.93345684 -0.2938096
-0.80204666 -1.5102429 -0.52260447 -1.1902435 -0.6185571 -0.38289556 -0.8700316 -0.46299502
-0.31743613 -0.005591805 -1.1617943 -0.30083784 -1.4054112 -0.5168848 -0.8567231 -0.49627757
-0.4412799 -0.21653445 0.4649504 -0.97275263 -0.8325049 -0.3907745 -0.14947993 -0.45092684
-0.6070071 -0.47276968 -0.508934 -0.40525463 -0.35028037 -1.1509295 -0.6391141 -0.4259538
-0.5135386 -0.32823396 0.03489254 -1.0071892 -0.50172 -0.6468786 -1.4009013 -0.26446825
0.0056821452 -0.5804745 0.09357162 -0.46221372 0.35785517 -0.25674844 -0.6921313 -0.19732492
-0.4142572 -0.70560235 -0.8743003 -0.97613865 -0.067778796 -0.53954446 -0.41186357 -0.3260331
-0.24780425 -0.48537502 -0.016116709 -0.77268 -0.30536616 -0.3056087 -0.1482557 -0.827784
-0.53062195 -0.29919088 -0.40738243 -0.5568004 -0.97138846 -0.5979578 -0.35972577 -0.1983145
-0.8423241 -0.85518175 -0.31637627 -1.1982528 -1.4242996 -0.75063264 -0.1610794 -0.35767105
-0.32620966 -0.5285252 -0.514382 -0.61287737 -0.7529963 -0.27011484 -0.90540963 -0.5237154
-0.4148856 -0.22404665 -0.13604413 -0.55439514 -0.7359507 -0.46432245 -0.9226502 -0.19153178
-0.53456545 -0.5537612 -0.4658487 -1.125036 0.5650518 -0.50156295 -1.1110194 -1.0144747
-0.78863597 -1.0979416 -0.46194988 -0.32538822 -0.46029243 -0.8466423 -0.2089045 -0.4705209
-1.3370758 0.09704412 -0.26501986 -1.0357566 -0.4512309 -0.44716066 -0.26439163 -0.8658497
-0.66115236 -0.2609404 -0.56677735 -0.47447717 -0.5718793 -0.1500772 -0.22519606 -0.041030444
0.042982526 -0.3440654 -0.77342707 -0.15195847 -0.29399112 -0.28350234 -0.6002521 -0.5241028
-0.20230114 -0.40641153 -0.18076064 0.051029533 -0.43621016 -0.057607055 -0.26909775 -0.29944298
-0.54637265 -1.215722 -0.0022446201 -0.4342758 -0.2439222 -0.540328 -0.3537465 -0.24819428
-0.46271467 -0.49107334 -0.15187085 -0.7146431 -0.63764143 -0.723498 -0.41807476 -0.38069046
-0.68998545 -1.0809828 -0.409777 -1.4948173 -0.14195701 -0.22288014 -0.54378974 -0.51525426
-0.20573412 -0.44968954 -1.3012927 -0.5807434 -0.32869303 -0.1495455 -0.9421425 -0.69201684
-0.25367883 -0.75572646 -0.28168243 -0.74190956 -0.3233036 0.009118026 -0.781007 -0.3673853
-1.4978609 -0.64533246 -0.5911946 -1.0052077 -0.33269796 -0.8813718 -0.48234272 -0.30780834
-0.5737604 -0.38781533 -0.66000307 -0.42613763 -0.6202744 -0.3662845 -0.27792904 -0.36451992
-0.5862162 -0.46196586 -0.5467005 0.024199162 0.6867407 -0.23702092 -0.47175413 -1.3248534

network.2.weight f4 [256, 256]
00000000: ad3f 5bbd 7bfd c1bd 5471 b93c d639 92bd
00000010: 7cc5 b3bc dc54 95bd ecc0 593d e8fc 9fbd
00000020: e418 bdbd afcb 25bd 84db 9abd d8b5 e8bd
00000030: d242 51bd 6e84 0abf 7678 a0bd 95d1 0a3c
00000040: 2a12 663d a61a bcbc c2ef e0bd 987a 8db9
00000050: ed13 95bd e252 31bd 6096 cebd a519 cabb
00000060: 789c 3bbd 8001 af3b 0c60 d0bd bfd7 c23b
00000070: 905f 2ebd bf5d 8fbd cee5 07bc 8858 04be
00000080: 4cc9 343c 4c2b 75bd 5019 a2bd 8736 93bd
00000090: c6e2 04bc c730 a2bd 7af8 73bd 0466 5abd
000000a0: 9bd4 0cbd 5404 503d d8e4 5cbd 12d7 d4bd
000000b0: 730f ccbc a68f d93b d97b 46bd 218b 8dbd
000000c0: 740a b33c a440 a5bc de36 07bd 97cc c8bd
000000d0: 40b8 a9bc 7ee1 1cbd 14d3 6a3d e0c8 72bb
000000e0: fcbe bfbd 8dde acbb 3bd4 14bd 4cf6 053d
000000f0: ec9a 8fbc 795c d0bd dbf9 06bd 787d d1bc
00000100: c636 84bd 92ec 95bd 53c4 c1bd 803d 6d3c
00000110: e0b4 26bd febf aabd ded7 23bd be97 eebb
00000120: b989 6bbd 0ea6 97be d6f2 7dbd 2106 123d
00000130: aa8b 143c 7360 bfbc 088a 213d 11a1 8ebc
00000140: 6614 65bd ad51 bfbb e1de a6bd 4a27 49bc
00000150: 72be 9fbd ed5e 38bd 3dd2 eabd d8b0 20bd
00000160: b8da a2bd cba9 47bd 7f64 d8bb 14a6 2b3d
00000170: 9fd2 bbbd 78af 67bd a064 e6bc 8d16 3cbc
00000180: b4ff dd3c e5eb babc d0e4 723d 1d68 3fbd
00000190: 7b88 e3be a127 43bd 274e aebb 1a74 1fbd
000001a0: cdc8 1fbc 4cc1 cfbd 0ad9 6abd 3e24 c43b
000001b0: 9319 75bd 58ba 233c 8de4 e7bd 3cf3 9bbd
000001c0: ca9c 54bd b232 88bd 6a78 97bd 11d8 80bc
000001d0: ffac 9cbd c1bc 7dbd 9539 abbd 3bbc a2bc
000001e0: f6f5 a9bd 8cad abbe 004d 09bc 3607 87bd
000001f0: 47bf 2ebd 6e78 673d 2d42 a0ba d55a dbbc
00000200: 4c65 c63a 039c b8bd 5f75 463d 42b4 6abd
00000210: 4ed9 80bd 966c 98bc 21f8 edbc 6eb5 ff3c
00000220: abc4 59bc 8de7 313c 9f68 95bc 3127 8abc
00000230: a49c 9c3b 7013 7dbd 50a4 cb3b f405 fdbd
00000240: 0e3b 653d d1c5 27bb 4926 23bd 2cae 533d
00000250: 2055 44bd f889 183c 70d2 e4bc 79f4 04bd
00000260: 8c77 06bd 80df abbd ec60 84be 7319 b5bd
00000270: d381 6f3d 5869 82bd 83ae 76bc 88c6 a73c
00000280: 20be 6c3b f18a 8dbd bd5a 48bd da1d 123d
00000290: 32ed 1f3d 4fed 8bbc d526 133b c2ca 4cbd
000002a0: 04c9 50bd 81d9 57bd 45e3 8ebc 2860 94bb
000002b0: b12d 8dbc 6441 0fbd fda2 09be af07 acbd
000002c0: f80c 6d3d 4549 02be 4035 a93a 8ab9 48bd
000002d0: 784e ab3b 5ecd 1fbd 1849 753c 8076 32bb
000002e0: 0852 5c3d 1e9b babd ecbf cd3d 278e c1bd
000002f0: e0b5 eabd 2410 19bd cfbf 8abd 46c1 bcbd
00000300: fd86 7abb 8c8b 32bc 12b6 24bd 1096 94bd
00000310: a2c1 97bc 28b3 7e3d 3656 aebd d2fd 1f3d
00000320: 7fe6 e7bd fd43 fa39 bfbc e5bc 29c8 903a
00000330: dac3 a5bd a53a ebbc e067 3dbb 8546 e9bd
00000340: ca47 2ebd cec6 09bc 6e35 523b 85d2 84bd
00000350: d1be 28bd 5454 0cbd 68ee b0bd 3075 3cbd
00000360: 7512 94bd 266c dcbd 84b3 70bd 5d72 71bd
00000370: b50d d63c a276 2b3c 57ca 06be a07b 953b
00000380: daf3 75bc 26ed b1bc c6ce 5fbd 80a8 c5bc
00000390: 8ab0 9bbd f083 bdbc 6221 aebc c4db bcbd
000003a0: 741c c4be ab82 f3bd 1d32 67bd 2fa0 543c
000003b0: 3cad 6fbd 2016 4e3d 911c a2bd c5d7 02be
000003c0: 1227 f0bd 05b3 46bd 3b3b d0bc 865a b5bd
000003d0: 0862 acbd 20f5 2dbd 69b1 05bc 56f3 19bd
000003e0: 48c2 8abd 63de a5be 4837 b43c 0bac 28bd
000003f0: f080 31bc 146b e4bc 06d2 d7bd d2f6 33bc
-0.053527523 -0.09472176 0.022637047 -0.071399376 -0.021944754 -0.07291576 0.0531625 -0.0781191
-0.09233263 -0.04047745 -0.075614005 -0.11362809 -0.051089115 -0.5410832 -0.07835476 0.00847282
0.056169666 -0.022961926 -0.1098323 -0.00026984955 -0.07279191 -0.043291934 -0.100872755 -0.006167608
-0.045803517 0.005340755 -0.101745695 0.005946129 -0.042571604 -0.070003025 -0.008294536 -0.12924397
0.011034321 -0.059855744 -0.07914984 -0.07188135 -0.008110708 -0.0791946 -0.059563138 -0.053319946
-0.034382444 0.050785378 -0.05392918 -0.10392584 -0.02490971 0.0066394387 -0.048457954 -0.06911302
0.02185557 -0.020172425 -0.03301131 -0.098046474 -0.02071774 -0.038300984 0.057330206 -0.0037046
-0.09362599 -0.0052755536 -0.03633521 0.03270559 -0.017529927 -0.10173888 -0.032953124 -0.025572523
-0.0645576 -0.07320513 -0.09461274 0.014479995 -0.04069984 -0.08337401 -0.04000079 -0.0072812727
-0.05750439 -0.29618877 -0.061999165 0.035650376 0.009066502 -0.02336142 0.039438277 -0.017410787
-0.055927657 -0.005838594 -0.081479795 -0.012277434 -0.077999964 -0.045012403 -0.11465881 -0.03923115
-0.079518735 -0.04874591 -0.006603777 0.04190643 -0.09171032 -0.056563824 -0.028124154 -0.011479986
0.027099468 -0.022817561 0.059300244 -0.04673015 -0.44440064 -0.047645215 -0.005319375 -0.038929082
-0.0097524645 -0.1014429 -0.05733589 0.0059857657 -0.059838843 0.009993158 -0.113228895 -0.07614753
-0.05190734 -0.06650294 -0.07396014 -0.015728028 -0.07650184 -0.061947588 -0.08360592 -0.019865146
-0.082988665 -0.33530843 -0.008380175 -0.06593172 -0.042662885 0.056511335 -0.0012226753 -0.02677671
0.001513639 -0.09014132 0.048451778 -0.057300813 -0.062914476 -0.018606465 -0.029048981 0.031214442
-0.013291518 0.010858429 -0.018238364 -0.016864391 0.004779415 -0.061786115 0.006214656 -0.12354651
0.055964522 -0.0025600086 -0.039831433 0.051679775 -0.047932744 0.009310238 -0.027932376 -0.03245971
-0.032828853 -0.083922386 -0.25855196 -0.08842745 0.05847342 -0.06367749 -0.015056255 0.02048041
0.0036124066 -0.069112666 -0.04891466 0.035673 0.039044566 -0.017080931 0.0022453566 -0.049998052
-0.050972953 -0.052697662 -0.017442355 -0.0045280643 -0.017233701 -0.03497447 -0.13441081 -0.08399903
0.057873696 -0.12723263 0.0012909546 -0.04900507 0.00522786 -0.039014213 0.01497104 -0.0027231276
0.05378917 -0.091116175 0.10046372 -0.094509415 -0.11460471 -0.03736891 -0.06774866 -0.092165515
-0.0038227432 -0.010897528 -0.0402127 -0.07255185 -0.018524949 0.062182575 -0.08512537 0.03906042
-0.113232605 0.0004773437 -0.028044103 0.001104598 -0.08093996 -0.028714487 -0.0028901026 -0.11390404
-0.042548932 -0.008409215 0.0032075304 -0.06485466 -0.0411976 -0.03426011 -0.086392224 -0.046010196
-0.07230083 -0.10762815 -0.05876495 -0.058946956 0.026129583 0.010465296 -0.13163124 0.0045618564
-0.015011752 -0.021719526 -0.054640554 -0.024128199 -0.076020315 -0.023134202 -0.021256153 -0.092216045
-0.38302958 -0.11890157 -0.056444276 0.012977644 -0.05851482 0.05031407 -0.07915605 -0.12777622
-0.11726202 -0.04851057 -0.025418868 -0.088551566 -0.084171355 -0.042470098 -0.008159974 -0.03758558
-0.067753375 -0.3239623 0.021999016 -0.041179698 -0.010833964 -0.02788309 -0.10538106 -0.0109841395

network.2.bias f4 [256]
00000000: b780 a0bd 0d21 e13c 263a fdbd 4e2d 3fbd
00000010: a7bb 92bd 8202 273f 024c b9bd 0330 fcbe
00000020: a203 60be 8096 6bbe c0b1 3fbf 9891 d4be
00000030: 49fe 8bbe 75f0 38bf 0319 debb c4d4 c2bd
00000040: a803 7c3f bfe6 f9be 9262 b5bd 732a b0be
00000050: 4835 aebe faf7 1fbd 97d4 96bd 1a9f fcbd
00000060: 82d7 e5bd 6da2 d0be 4b36 03be d0c0 ccbd
00000070: f7c7 85bc 3e62 83be d310 b73d b8b9 c6bd
00000080: 25df cabd a5c2 afbd 25a5 61bd 95b1 90be
00000090: 8078 03bd 85e2 58be f0ed 0d3f 379c dfbd
000000a0: e234 5fbd 7662 ffbd 36aa 4ebe b9e7 07bd
000000b0: e604 ecbd 8333 3cbd 3c05 5bbd 59a5 1dbe
000000c0: a8d8 dcbc 4f0d 403e 355a a8be ec22 8bbd
000000d0: e4d8 e6be e5aa 28bf ebf9 233e 3773 82bc
000000e0: ba8a 2ebf e426 4a3f f50c 20be 1e44 afbe
000000f0: 5924 efbe 62b8 01bf ccc9 fa3e b6af 3abd
00000100: 0a34 f6bc 4c84 01be 8392 acbd bdba 80bd
00000110: 1feb 40bd 7718 a3bd a231 e5bc 5823 08be
00000120: e271 8cbe 7087 66bd 9139 b7bd 5650 90bd
00000130: 3595 14be 8d02 a5bd c9ee 6fbd 976f d43d
00000140: 30da ecbe 4169 1ebe 7a77 ff3e 2183 d3bd
00000150: ab10 6ebe 3740 403f 56dc 1abd d185 9cbd
00000160: 2cc5 dbbd 9a6a 31bc d90e 10be fbed 17bd
00000170: b524 3dbd 9783 87bd 93e9 e4bd 13fa 70bd
00000180: 17cb 23be 2df2 c5bc 247c dbbd e8c9 8abe
00000190: 294d a9bd 39b5 6f3f 40d4 30bd e191 28bd
000001a0: 7cee e9bd 5611 8a3e 86f3 64be f308 fdbb
000001b0: 3dfe acbd 0032 ecbe c3ac e2be 78c7 c9be
000001c0: 7be9 c2bd ec7d a1be e1e6 80be af9c 03bd
000001d0: 556f c1be e306 c1be 8cc8 4a3f d5cf 98bd
000001e0: ae33 afbd b5de 2abe 8a20 953e 6837 98bd
000001f0: 0998 a9be efe9 30bd b2a5 1cbf d92a 18be
00000200: 5cd5 56bd 13be 2abd 5534 93be 9e55 8abe
00000210: 7735 7bbe 8c83 2a3f 45dd c2be 9ec0 9bbd
00000220: a413 f8bd f9be c1be ad0b a6bd 49d7 6cbe
00000230: 285f 25be 620d 42bf fa7c 693f fc49 87bd
00000240: 50a0 11bf 25c9 cabe 0d21 813f f4ed 6cbe
00000250: 3468 1ebe ea32 a1be e789 ecbc 6da4 97be
00000260: b126 cdbe e5f5 1fbe e359 59be f759 74bf
00000270: d5b8 7b3e 4979 a9bd 0efb 1bbd 2b67 2ebe
00000280: a6ef a2bd f3ab 58be 2c48 d5bc 2f18 a2bd
00000290: a40d e8bd 8555 e0be b607 53bc 9ba8 45bd
000002a0: 8dd2 62be 6b38 a8bc 07bb e0bd 5210 a7bd
000002b0: 7089 873f d25c a5bd 7cf4 2fbe 80c7 dcbe
000002c0: 612d 2abd 1c14 e3bd 630f fdbb 3302 8abe
000002d0: 8325 3d3f 5d1c 85bd 6639 693f afd3 1ebe
000002e0: 5bcc f8bc 1388 c8bd eb7b 94bd 0de7 46bc
000002f0: 386d c3bd 1229 45be 2d96 7dbe 4b60 23be
00000300: 9405 383f 9470 eebc bdba 3cbf b9d4 d0bd
00000310: 1d6b c4bd 85de 2dbf 7786 55bd 4b2f 1f3f
00000320: d8b7 edbc af6e 30bd deb6 83be cac2 e0bd
00000330: 14c9 24be 32bc 48bd 7e10 e6bd 8c50 b9be
00000340: ed68 22bf 2e98 71bd 138d 6cbc 081d 92bd
00000350: 66eb 37be c8c3 f53e bcb2 03be 67aa f43c
00000360: 04f9 afbd af4a 8cbe 62cb 9fbe 764a 6ebe
00000370: bc90 8bbf 47bd c0bd fc3b 413f 984e cebe
00000380: 6750 a1bb 4fc3 10bd f9f4 18bf d5c3 adbd
00000390: fdb4 a7be 410b cdbd 1791 aebd a20c 44bd
000003a0: 4e0d 4dbe c322 eb3e 01ca 4bbd f8b4 dbbd
000003b0: 6192 91bd b8bf d9bd bcaa f93e ad58 bdbe
000003c0: 2258 95bd d0e9 ddbd 70f0 91bd 36ee dcbd
000003d0: f5fd 0bbc 33d6 dcbd 6748 e83e b84a 16bd
000003e0: 62ea 95bd 6c91 b7be eeea a9bd d747 09bf
000003f0: eb15 c9bd bd8c 8cbd 063f fcbc 114d 4ebd
-0.078370504 0.02748158 -0.123646066 -0.046674065 -0.07164698 0.652382 -0.090477005 -0.4925538
-0.21876386 -0.2300663 -0.748806 -0.4151733 -0.27342442 -0.7224191 -0.006777884 -0.09513238
0.9844308 -0.48808858 -0.088566914 -0.34407386 -0.34025025 -0.03905485 -0.07364767 -0.12335034
-0.112227455 -0.4074892 -0.1281368 -0.099977136 -0.016330702 -0.2566089 0.08938756 -0.09703392
-0.09905843 -0.085820474 -0.055089135 -0.28260484 -0.03209734 -0.2118016 0.5544119 -0.109184675
-0.054493792 -0.12469952 -0.20182118 -0.033179972 -0.11524372 -0.045947563 -0.05347179 -0.15395106
-0.026958779 0.18755077 -0.32881323 -0.0679377 -0.4508735 -0.65885764 0.16013305 -0.01592408
-0.6818043 0.7896559 -0.15629943 -0.34231657 -0.4670742 -0.5067197 0.48982084 -0.045577727
-0.030054111 -0.12648124 -0.084263824 -0.062856175 -0.04709923 -0.07963651 -0.027977768 -0.13294733
-0.27430636 -0.056281507 -0.08946527 -0.07046573 -0.14510043 -0.08057127 -0.058577333 0.103728466
-0.46260214 -0.15469839 0.4989584 -0.10327745 -0.23248546 0.75097984 -0.037807785 -0.07642711
-0.10730967 -0.010828638 -0.14068164 -0.03709219 -0.046177585 -0.06616896 -0.11177363 -0.05883224
-0.15995441 -0.02416333 -0.10717037 -0.27107167 -0.0826667 0.936359 -0.043171167 -0.041154746
-0.114224404 0.2696635 -0.22358522 -0.007722014 -0.084469296 -0.46131897 -0.44272432 -0.39409995
-0.09517189 -0.31541383 -0.25176147 -0.032131847 -0.37780252 -0.37700567 0.7921226 -0.07461516
-0.08554779 -0.16686518 0.29126388 -0.07432443 -0.33123806 -0.043191846 -0.6119033 -0.14860095
-0.05244957 -0.041685175 -0.28750864 -0.27018446 -0.24532114 0.66606975 -0.3805944 -0.07605098
-0.12113121 -0.37841013 -0.08107696 -0.23129 -0.1614958 -0.7580167 0.91206324 -0.06605908
-0.5688524 -0.39606586 1.0088211 -0.23137647 -0.15469438 -0.31484157 -0.02887435 -0.29617634
-0.40068582 -0.15621145 -0.21225695 -0.95449775 0.24582227 -0.082750864 -0.03808122 -0.17031543
-0.079558656 -0.21159343 -0.02603539 -0.07914769 -0.11330727 -0.43815246 -0.012880256 -0.048256498
-0.22150631 -0.020534715 -0.10973173 -0.0815741 1.0588818 -0.08074345 -0.17183107 -0.43120956
-0.041547183 -0.1108782 -0.0077227815 -0.26954803 0.73885363 -0.064995505 0.9110321 -0.15510438
-0.030370882 -0.09791579 -0.07250198 -0.012140048 -0.09542316 -0.19253948 -0.24764319 -0.15954702
0.7188351 -0.029106416 -0.7372244 -0.101968236 -0.09590743 -0.6791766 -0.05213019 0.6218154
-0.029018328 -0.043074306 -0.25725454 -0.10974653 -0.1609233 -0.049007602 -0.112336144 -0.36194265
-0.63441354 -0.05898302 -0.014437932 -0.071344435 -0.17960891 0.48000932 -0.1286115 0.02986641
-0.08592418 -0.2740073 -0.31209856 -0.23270592 -1.0903544 -0.09411102 0.75482154 -0.40294337
-0.004922915 -0.03534251 -0.597488 -0.084846176 -0.3275527 -0.10011912 -0.085237674 -0.04786361
-0.20024607 0.4592496 -0.049753193 -0.107278764 -0.07107998 -0.106322706 0.48763072 -0.36981717
-0.072922006 -0.10835612 -0.07125938 -0.10787623 -0.008544435 -0.10783043 0.4536774 -0.03669235
-0.073200956 -0.35853136 -0.082967624 -0.53625244 -0.09818634 -0.06862781 -0.03079177 -0.050366465

network.4.weight f4 [10, 256]
00000000: caf9 0dbd a124 abbe 5948 823c 9f64 dabd
00000010: ca9e 91bb dbe9 443f f472 a8bc 0020 b3be
00000020: 7f78 17be eb55 60bd 8070 a43e 2f8e 233d
00000030: 860b 243d 5a2a 38be e5eb be3d c151 fe3c
00000040: 4017 113f 3b05 a03b 86da 91bd 60a0 e2bd
00000050: 67d5 dc3b b29c b4bc c8bd 4fbc f3d6 383d
00000060: 4111 ba3d 161c 793d d273 1cbf c7dd 513d
00000070: eba0 5abb 7971 a0bd 10f0 21bf 9d09 f33c
00000080: 132d 883c 2c6b 713d a900 83bd 2bdc 013f
00000090: 52fb 923d 0c66 75be f32d f6be c046 55bc
000000a0: 6082 8fbd 2cfe 043d fe4a 903c 0010 30bc
000000b0: 9c72 843d eb76 aabc e576 ebbc 8ba7 fe3c
000000c0: d519 633e a9cf cabf 8efd b43d 08b0 f13c
000000d0: dd0e 47bd f157 083e 2683 7dbf b84d c23d
000000e0: 85ae 06bf fd25 64be 606d acbd 4cad d7be
000000f0: 3385 1f3e 6b92 a23e 7697 803e d761 84bd
00000100: 8f69 e2bd 9ba0 6d3d 345f c6bd 272a 62be
00000110: 6a9e f63c f6a1 ea37 d68f 82bd 443f a4bd
00000120: ac89 18bd 6d02 58bd aff6 74bd 4364 a7bc
00000130: 5489 a4be 4ae5 3cbd 4af6 43bd b001 edbc
00000140: 29a7 a9be b3e8 a6bd 89c9 823f a419 dfbd
00000150: 0691 59be be41 903e 734d aebd 986b 3fbb
00000160: 3e7d 8cbd c798 87bd 3875 483b c841 283f
00000170: 7acc 97bd b2d3 58bd 2e32 59bd 6650 923d
00000180: 07cf da3d 168c 1cbd 162b 72bd 5869 253c
00000190: 3167 adbd 07ad 753e 1b29 c4bc 75a8 00bd
000001a0: 1aa6 213d 0395 7e3f 23b4 3abd 3fb6 83bc
000001b0: 63fd 013e 1358 013e cdac adbe 778c 44be
000001c0: 9319 4ebd 9e5b 1d3e e899 c4bd 9d21 6bbc
000001d0: 1e49 e7bd c1f6 3a3d 3f69 a53e f180 1c3d
000001e0: 77e7 8c3c e38c d33d e9cf 2dbe 4854 653d
000001f0: 2c8b 783e badf af3c 745f 83be a103 8a3d
00000200: a407 c13c 59a6 b9bc 962d a0be eb32 da3b
00000210: 6a19 8f3e 8078 03bf 150e 1b3f bdc7 263e
00000220: 0b81 53bd 283b 883d 5485 01bd a190 18bd
00000230: 382f cd3b 6572 073f 1a5f 6d3e 55d2 bebc
00000240: a55a cd3e 8618 e73d 2bea 453f 56dc 4bbc
00000250: e1e4 afbd eeed 6abf 8afc 2cbc 1b76 383f
00000260: 12e4 e43d f423 58bd 4203 b3bd 6d1a 4ebe
00000270: ec2a 9cbd c54d d8bb 45b1 d73d b0b2 c23d
00000280: e580 f6bd 769b b53c 4d96 b73d b48f a0bc
00000290: 2972 9dba a691 6fbd ed97 983d b298 06be
000002a0: ba0c 813c 0a2c db3d 7c58 aabd 702f 4c3d
000002b0: dc65 723e 44fb bc3d e532 803e 8226 c43e
000002c0: 7170 41bc 5979 b4bd aedd f1bc 92e4 173e
000002d0: e2d7 60be ab1b d23c 2603 923e e439 28bd
000002e0: 2835 033d e081 c4bd fc45 173d 4789 08bd
000002f0: 5458 55bd 1cc2 bdbe 939b 53bd 1b1d ac3e
00000300: a362 cfbc 1364 7bbc 78b6 133f 5cd6 bdbd
00000310: 9021 a8bc e754 d43e 2241 78bd a316 87bf
00000320: 8c54 af3d 01e0 8bbd 66fc d23c 334a e5bb
00000330: e61b 323e a16f 5e3d 739e f13d 11ce a53f
00000340: 9ff5 85bf d918 28be 5cad 93bd 3843 83bd
00000350: 59ae 123a b58c d4be ea69 4e3b da50 553e
00000360: 698e d7bd d22e 253e ff28 36be f041 c33c
00000370: d61d 853e 1605 a7bd fac2 d33e 7845 11be
00000380: 6fce d03b 9c72 d6bd 8e25 80bd 5c3b 283d
00000390: 36ca c93f f24b a5bd 125b e2bd 37af 223d
000003a0: 7f02 f43d 0d44 643d a9e9 b9bd 40de 9fbd
000003b0: c367 943d 08bf 58be 3de7 5ebf 619b 90be
000003c0: a679 06bd f854 2e3c 9413 273c 9736 0cbd
000003d0: 2cb4 85bc f32c d33d 12f1 56bf d834 e3ba
000003e0: 9da1 233d aab2 6b3e fb80 d13d 1c97 58be
000003f0: 3c92 59bd 8df3 41be 59b9 7dbd aaab ccbc
-0.034662046 -0.33426383 0.015903639 -0.10663723 -0.004443978 0.76919335 -0.020562626 -0.34985352
-0.1479206 -0.054769438 0.3211708 0.03993052 0.040050052 -0.17984906 0.09322337 0.031044843
0.566761 0.004883436 -0.07121758 -0.11065745 0.0067393067 -0.022047374 -0.012679525 0.045126867
0.09085322 0.0608178 -0.6111423 0.051236894 -0.0033360075 -0.07834143 -0.6325693 0.02966767
0.016623056 0.058940098 -0.0639661 0.50726575 0.07176842 -0.23964709 -0.4808193 -0.013017356
-0.07007289 0.03246896 0.017613884 -0.010746002 0.064671725 -0.020808658 -0.028743217 0.03108575
0.22177823 -1.5844623 0.08837424 0.029502884 -0.04859816 0.13314797 -0.9902824 0.0948748
-0.52610046 -0.22280116 -0.08419299 -0.42124403 0.15578155 0.31752333 0.25115556 -0.06463974
-0.1105529 0.058014493 -0.09686127 -0.22086392 0.030104835 2.7970393e-05 -0.06375091 -0.080198795
-0.03724067 -0.05273669 -0.05980557 -0.02043355 -0.32136023 -0.046117105 -0.0478423 -0.028931469
-0.33135346 -0.081498526 1.0217754 -0.108935624 -0.21246728 0.28175157 -0.08510866 -0.0029208418
-0.068598256 -0.06620937 0.0030587446 0.65725374 -0.07412048 -0.052936263 -0.05302637 0.07144241
0.106840186 -0.038219534 -0.05912312 0.010095917 -0.08466948 0.23991786 -0.023945382 -0.031410653
0.039465047 0.99446124 -0.045581948 -0.016078113 0.12694316 0.12631254 -0.339209 -0.19194208
-0.05031736 0.1536698 -0.09599668 -0.014351276 -0.11293243 0.04564548 0.3230686 0.038208906
0.017200215 0.103296064 -0.16973843 0.05598858 0.2427184 0.021468986 -0.25658762 0.067389734
0.023563214 -0.022662329 -0.3128478 0.006658902 0.27949077 -0.51355743 0.6056836 0.16287132
-0.051636737 0.06651908 -0.031621292 -0.037247304 0.0062617324 0.5290893 0.2318081 -0.023293654
0.4010822 0.11283974 0.77310437 -0.012442669 -0.08588577 -0.917693 -0.010558257 0.72055215
0.111763135 -0.052768663 -0.08740856 -0.20127268 -0.07625374 -0.0066010677 0.10531858 0.09506738
-0.120363034 0.022168856 0.089642145 -0.019599773 -0.0012012172 -0.05848851 0.074508525 -0.13144186
0.015753139 0.10701759 -0.08317658 0.049849927 0.23671669 0.092276126 0.2503883 0.3831063
-0.011806593 -0.08812208 -0.02952465 0.14833286 -0.21957353 0.025647959 0.28518027 -0.041070834
0.032033116 -0.09595084 0.036931977 -0.033334043 -0.05208619 -0.37062156 -0.05166204 0.33615956
-0.025315588 -0.015343684 0.577003 -0.092694014 -0.020523816 0.41471025 -0.06060899 -1.0553783
0.08561048 -0.06829835 0.025755119 -0.0069973706 0.17393455 0.054305676 0.117978 1.2953511
-1.0465583 -0.16415729 -0.072108 -0.06409305 0.0005595438 -0.415136 0.0031496235 0.20831624
-0.105252095 0.16131142 -0.17789076 0.023835152 0.25999326 -0.08155267 0.41359693 -0.14186656
0.006372265 -0.10471079 -0.06257163 0.041072235 1.5764835 -0.08071126 -0.110525265 0.03971788
0.119145386 0.05572896 -0.0907777 -0.07806063 0.072463535 -0.21166623 -0.8707159 -0.28243545
-0.032830857 0.010640375 0.010197539 -0.03423175 -0.016321264 0.10311308 -0.83961594 -0.0017334474
0.03994905 0.23017374 0.10229679 -0.21151394 -0.053117976 -0.18940563 -0.06194434 -0.0249842

network.4.bias f4 [10]
00000000: f483 333e 048e dd3e 2b64 28be 99f9 6e3f
00000010: 9416 8dbf 4dd1 9fbf 1fb0 9cbf 6f78 5bbf
00000020: e9bb 81bf 141b 8dbf
0.17530805 0.43272412 -0.16444461 0.93349606 -1.1022515 -1.2485749 -1.2241248 -0.8573064
-1.0135471 -1.1023889
