ArmRobotSubset/Assets/Model/test10.onnx (onnx, 89535 bytes, 19 tensors)

action_model._discrete_distribution.branches.0.bias f4 [3]
0	0x3e351a5b	0.17685835
1	0xbdc8a045	-0.09796194
2	0xbd31697a	-0.04331348

action_model._discrete_distribution.branches.0.weight f4 [3, 128]
0	0xbccd779b	-0.025081446
1	0x3d1b2503	0.037877094
2	0xbea524fa	-0.32254773
3	0x3dbdd1f6	0.092685625
4	0x3f12b28a	0.5730368
5	0xbe8a9d31	-0.27073053
6	0xbf05e17a	-0.52297175
7	0xbdcdb148	-0.10043579
8	0xbe26300a	-0.16229263
9	0xbf605c41	-0.8764077
10	0xbf02e039	-0.51123387
11	0x3cb195fb	0.021677962
12	0x3da24766	0.079237744
13	0xbc994f73	-0.018714642
14	0x3f39398a	0.7235342
15	0x3e3e0719	0.18557395
16	0x3f2a9d3c	0.6664617
17	0x3ccb604b	0.02482619
18	0x3dfebee5	0.12438754
19	0x3ed8cce1	0.4234381
20	0xbf185495	-0.5950406
21	0xbedb2331	-0.42800286
22	0xbd7fb675	-0.062429864
23	0x3e6f1fc8	0.23351967
24	0xbe14cdb2	-0.14531592
25	0xbe04411d	-0.12915464
26	0x3f2cdeba	0.67527354
27	0xbf371037	-0.71509117
28	0x3e1fc4a5	0.15602358
29	0x3f5b5cc6	0.85688436
30	0xbd93ac06	-0.07210545
31	0xbce9dd94	-0.02854804
32	0x3f380f36	0.7189821
33	0xbf515b7d	-0.81780225
34	0x3d8056b4	0.06266537
35	0xbf321309	-0.69560295
36	0xbed62d25	-0.41831318
37	0x3d10e6cb	0.03537635
38	0xbebb6e44	-0.36607563
39	0x3e6990b8	0.22809112
40	0x3e79e176	0.24402413
41	0x3da1c32e	0.07898556
42	0xbf7111d2	-0.94167817
43	0x3d99c22f	0.07507741
44	0xbf532a9b	-0.82486886
45	0xbf0d547b	-0.5520703
46	0x3ed0b076	0.4075963
47	0x3eec3a10	0.46138048
48	0x3e5938db	0.21213095
49	0x3e8b779b	0.2723969
50	0xbdd15112	-0.10220541
51	0xbf0959c9	-0.53652626
52	0x3e3f8b6b	0.18705527
53	0x3f2af751	0.66783625
54	0x3ac3d87e	0.0014941839
55	0xbf4674bb	-0.77521867
56	0x3ec663b5	0.38747945
57	0xbe2ef945	-0.17087276
58	0x3e6704cc	0.22560424
59	0xbecca8b2	-0.39972454
60	0xbf0fbd9e	-0.5614871
61	0x3daf19ad	0.08549819
62	0x3e453886	0.19259843
63	0x3e4b097c	0.19827837
64	0x3eeebb16	0.4662711
65	0xbf07ec4d	-0.5309494
66	0x3eb27c8f	0.34860656
67	0x3e3fc58e	0.18727705
68	0xbe45d431	-0.19319226
69	0x3e818de8	0.25303578
70	0xbf6573d5	-0.8962987
71	0xbed609f3	-0.41804466
72	0x3f7f741b	0.9978654
73	0x3f276f84	0.65404534
74	0xbf7429fa	-0.9537655
75	0xbd74f601	-0.05980492
76	0x3e7f5ac8	0.24936974
77	0x3f1d991c	0.6156175
78	0xbe9bdc06	-0.30441302
79	0xbf58e4ac	-0.84723926
80	0x3e19c6e5	0.15017278
81	0xbf247468	-0.6424012
82	0xbf0b8bb5	-0.5451005
83	0x3f43ab93	0.76433676
84	0x3ee05e23	0.4382182
85	0x3f8788d0	1.0588627
86	0x3f4b6a95	0.79459506
87	0x3f565bdd	0.8373392
88	0x3ed6e341	0.41970256
89	0xbe14caad	-0.1453044
90	0x3f57b861	0.84265715
91	0xbf354698	-0.7081084
92	0xbe269cc9	-0.16270746
93	0xbdfdaa93	-0.1238605
94	0x3ecb4b15	0.3970572
95	0x3e903808	0.28167748
96	0x3f03b6dd	0.514509
97	0xbe34d16b	-0.17658012
98	0xbe93e38c	-0.28884542
99	0x3eccc272	0.399921
100	0xbef362ba	-0.4753626
101	0xbecb17ba	-0.3966654
102	0xbdf15e5e	-0.11785577
103	0x3e73002e	0.23730537
104	0xbf368711	-0.71299845
105	0x3ec34037	0.3813493
106	0xbf288d32	-0.65840447
107	0xbd0320c1	-0.03201366
108	0x3e839e6f	0.25706813
109	0xbf7758cf	-0.96619886
110	0x3ef484a8	0.4775746
111	0x3e9cf490	0.30655336
112	0xbf255d33	-0.64595336
113	0x3f07ccbc	0.53046775
114	0xbdcb1645	-0.09916357
115	0x3ede3be8	0.4340508
116	0x3e5da72b	0.21645801
117	0xbf6d951a	-0.92805636
118	0x3f1e6eef	0.6188802
119	0x3cc10030	0.02355966
120	0xbdee3306	-0.11630826
121	0xbe372ceb	-0.17888229
122	0x3ea0c449	0.31399754
123	0x3e1e7858	0.15475595
124	0x3dda4728	0.10658103
125	0xbd43a097	-0.047760572
126	0x3e328389	0.17432989
127	0x3f06695b	0.5250451
128	0x3e9760ba	0.29565984
129	0x3db7a89e	0.08967708
130	0xbe385dfb	-0.180046
131	0xbe4dc644	-0.20095164
132	0xbd99bbba	-0.07506509
133	0x3e201b84	0.15635496
134	0x3e3768c0	0.17911053
135	0x3e3b670c	0.18301028
136	0x3eae16c1	0.34001735
137	0xbe1b71b7	-0.15180098
138	0xbd90dd1a	-0.07073422
139	0x3d99298b	0.07478627
140	0x3e17d7bb	0.14828388
141	0xbce12e52	-0.027487908
142	0xbed5a0d9	-0.4172428
143	0x3c001da8	0.007819571
144	0xbd9fc209	-0.07800681
145	0xbdc2c102	-0.095094696
146	0x3e0ffc2b	0.14061038
147	0xbf0a678c	-0.5406425
148	0x3e4cbad4	0.19993144
149	0xbeb57eef	-0.35448405
150	0x3effd57a	0.49967557
151	0x3e38977c	0.18026537
152	0x3ec6173d	0.38689604
153	0x3e08d2b1	0.13361622
154	0xbd3eabb5	-0.04655047
155	0x3e469d11	0.19395854
156	0xbdf0b646	-0.11753516
157	0xbe7d738b	-0.24751107
158	0x3b79fb18	0.0038144048
159	0xbdf1b227	-0.11801558
160	0xbe9a9008	-0.30188012
161	0x3e12175f	0.14266728
162	0x3dfe9f04	0.124326736
163	0x3d2f62eb	0.042818945
164	0x3e6b1fe8	0.2296139
165	0x3cc21a22	0.023694102
166	0x3e84d907	0.2594683
167	0xbe518d7c	-0.20464128
168	0xbceaeb60	-0.028676689
169	0x3da3d631	0.07999838
170	0xbdd674c1	-0.10471488
171	0xbcd2e02b	-0.025741657
172	0x3e447d73	0.1918848
173	0xbdc270f3	-0.094941996
174	0xbd419ee8	-0.047270685
175	0x3cb85e31	0.022505851
176	0x3dbb071b	0.09132215
177	0x3e07011f	0.13184021
178	0x3dd669ac	0.10469374
179	0x3c1a636d	0.009423119
180	0x3e5eeddf	0.21770428
181	0xbdf5abfc	-0.11995694
182	0xbd9b9209	-0.07596213
183	0xbdb8dc76	-0.090264246
184	0x3c0c79a6	0.008573925
185	0x3d9d559e	0.07682346
186	0x3de29ba5	0.11064843
187	0x3be83312	0.007086166
188	0x3e85931f	0.26088807
189	0x3def5de6	0.116878316
190	0x3e57794f	0.2104237
191	0xbde434ff	-0.11142921
192	0x3e119b0a	0.14219299
193	0x3e4ae9a4	0.1981569
194	0xbdbf9efe	-0.09356497
195	0x3e81722f	0.25282428
196	0xbe574991	-0.21024157
197	0xbdfdbd72	-0.123896495
198	0x3e568b78	0.2095164
199	0xbdf3925b	-0.118931495
200	0xbc0a0350	-0.008423641
201	0xbef966b3	-0.48711166
202	0x3dccb2b5	0.09995023
203	0x3e8cebf5	0.2752377
204	0x3d85850a	0.06519516
205	0xbec3f2d1	-0.38271192
206	0x3e2fb270	0.17157912
207	0x3d964da9	0.07339031
208	0xbe4908a7	-0.19632207
209	0xbe0cebbb	-0.13761799
210	0x3e72e244	0.23719126
211	0x3d739776	0.059470616
212	0xbdace707	-0.084425025
213	0xbd11a5f5	-0.03555866
214	0x3cd31836	0.02576838
215	0xbe451754	-0.1924718
216	0x3e06ca6e	0.13163158
217	0x3d1393a7	0.036029484
218	0xbe60c6b0	-0.21950793
219	0x3ec30366	0.3808853
220	0xbe95b6bf	-0.29240987
221	0xbddb2a42	-0.107014194
222	0xbe893a3d	-0.26802245
223	0x3e2545a4	0.16139847
224	0xbb93a5b1	-0.004505836
225	0xbd1bf7f4	-0.038078263
226	0x3e641349	0.22272982
227	0x3e31c218	0.17359197
228	0x3e3091a2	0.17243055
229	0x3e7efdd9	0.24901523
230	0xbee6746e	-0.45010704
231	0x3da98eb6	0.08279173
232	0xbd71163f	-0.058859106
233	0x3af61c90	0.0018776823
234	0x3de6fc9e	0.11278652
235	0x3e71360a	0.2355577
236	0xbcb07eb6	-0.021544795
237	0x3e2b9be9	0.16758694
238	0xbd8a120e	-0.06741725
239	0xbec2b57e	-0.38029093
240	0xbe8bd175	-0.2730824
241	0xbe566151	-0.20935561
242	0xbe8cb9e8	-0.27485585
243	0xbca41d72	-0.020033572
244	0x3ed44d29	0.4146512
245	0x3e8424da	0.25809366
246	0x3c152c75	0.009104838
247	0x3d027fff	0.031860348
248	0xbea36a09	-0.31916836
249	0x3eb918c4	0.36151707
250	0xbe1ddae3	-0.1541553
251	0x3e69f4a7	0.22847234
252	0xbd86cfbc	-0.06582591
253	0xbd345f89	-0.044036422
254	0xbc144bef	-0.009051307
255	0xbd8e7b49	-0.069571085

action_model._discrete_distribution.branches.1.bias f4 [3]
0	0xbdeb7805	-0.11497501
1	0x3e605f3c	0.21911329
2	0xbd79200b	-0.060821574

action_model._discrete_distribution.branches.1.weight f4 [3, 128]
0	0x3ef51700	0.4786911
1	0x3f5376ba	0.8260304
2	0xbc044108	-0.008072145
3	0x3e9236f7	0.2855756
4	0x3ac5ae82	0.0015081915
5	0xbea4beb6	-0.3217675
6	0x3e407a76	0.18796715
7	0xbe668010	-0.2250979
8	0x3ee4df24	0.44701493
9	0x3d904587	0.07044511
10	0x3eb8990f	0.36054274
11	0x3f0129b9	0.5045429
12	0x3dad55fa	0.08463664
13	0xbfda56e7	-1.705777
14	0xbe6ae5ab	-0.22939174
15	0xbf5dd94d	-0.866597
16	0xbe4ee604	-0.20204931
17	0xbde10ff3	-0.1098937
18	0xbdbb94de	-0.091592535
19	0xbcd094d3	-0.02546159
20	0xbe874649	-0.2642081
21	0x3f0f2fd3	0.5593235
22	0xbd98a6ac	-0.07453665
23	0x3f40b2de	0.7527293
24	0x3f109c4f	0.5648851
25	0x3e96d3fb	0.29458603
26	0xbd8f5112	-0.06997885
27	0x3d9a6881	0.07539464
28	0xbeaed3b2	-0.34145886
29	0x3c8cdda5	0.017195532
30	0xbe80d361	-0.2516127
31	0xbe0bb9c1	-0.13645078
32	0x3d9f2fd2	0.07772793
33	0xbd606db1	-0.05479211
34	0xbe86276e	-0.26201957
35	0x3e9f7a78	0.31148124
36	0xbec0b68e	-0.37639278
37	0x3f004218	0.5010085
38	0x3e4e3e96	0.20141062
39	0x3e58a146	0.21155271
40	0xbef21ce6	-0.47287673
41	0xbf141e00	-0.57858276
42	0xbd7694f0	-0.06020063
43	0xbde4f6e8	-0.11179906
44	0x3f01e349	0.50737435
45	0xbe0607f6	-0.13088974
46	0xbf3f9c5d	-0.74847966
47	0xbe831e5f	-0.2560911
48	0x3ebb47fa	0.3657835
49	0x3e3a6dbb	0.18205921
50	0x3e43366d	0.1906373
51	0xbe94ca5c	-0.29060638
52	0x3eae6ff8	0.340698
53	0x3d855bcb	0.06511649
54	0xbfc0d601	-1.5065309
55	0xbc1ccb3e	-0.009569941
56	0xbeddd29c	-0.43324745
57	0x3e4211ee	0.18952152
58	0x3d6790b6	0.05653449
59	0x3e8750e0	0.2642889
60	0x3e5a39b5	0.21311076
61	0xbf8f70cf	-1.1206301
62	0x3df65163	0.12027242
63	0x3e8b9b60	0.2726698
64	0x3d194943	0.037423383
65	0x3e50551f	0.20344971
66	0xbeadfcd3	-0.33981952
67	0x3f1d76d2	0.6150943
68	0xbe31dc3a	-0.17369166
69	0x3dc4f541	0.09617091
70	0xbd1fb4fb	-0.038990956
71	0xbed58cef	-0.41709086
72	0xbc86ca9e	-0.016454037
73	0xbd4e388a	-0.05034689
74	0x3d897cc2	0.06713249
75	0x3f3dd94d	0.741597
76	0x3e3841e6	0.17993888
77	0x3ee94f71	0.4556842
78	0x3d589c95	0.052883703
79	0x3ea7ca2d	0.32771435
80	0x3e18914b	0.14899175
81	0x3e5e072d	0.21682425
82	0x3dc25cc9	0.094903536
83	0x3e19bc9a	0.15013352
84	0x3e190b4f	0.1494572
85	0x3e9aa870	0.30206633
86	0x3e9ef097	0.3104293
87	0x3e018b7e	0.12650868
88	0xbd99d09c	-0.07510492
89	0xbdd9bb33	-0.106314085
90	0xbdbaec51	-0.09127105
91	0x3ebea8c9	0.37238148
92	0x3e5cf06a	0.21576086
93	0x3e950da1	0.2911196
94	0xbd5528b3	-0.052040767
95	0x3f3a0d4e	0.7267655
96	0xbe57767c	-0.21041292
97	0x3e816cf2	0.2527843
98	0x3f1c4c2b	0.61053723
99	0x3ece2f2a	0.40270358
100	0xbb9c31ae	-0.0047666645
101	0x3e870434	0.26370394
102	0x3f6c383b	0.922733
103	0x3cc6e81d	0.024280602
104	0xba59f99b	-0.0008315087
105	0xbef82d34	-0.48471987
106	0xbba5fe5d	-0.005065723
107	0x3f12dc76	0.57367647
108	0xbe8588a8	-0.26080823
109	0xbe72acb7	-0.23698698
110	0xbe7daeee	-0.24773762
111	0xbd082427	-0.033237603
112	0x3a753056	0.0009353211
113	0xbf24e896	-0.644174
114	0xbf9236ee	-1.1423013
115	0x3f1d87e6	0.6153549
116	0x3ddfdb83	0.109305404
117	0xbe659b2f	-0.22422479
118	0x3e6eed1f	0.23332642
119	0xbf288521	-0.6582814
120	0xbf499c53	-0.78754157
121	0x3e1c680a	0.15274063
122	0xbf5842a8	-0.8447671
123	0x3e461f35	0.19347842
124	0xbecc3a32	-0.3988815
125	0x3e7ac681	0.24489786
126	0xbec83c13	-0.39108333
127	0xbebdd36d	-0.37075368
128	0x3dcda16c	0.100405544
129	0xbe6258a2	-0.22104123
130	0x3e2a3a31	0.16623761
131	0xbca6f5cc	-0.020380877
132	0x3c986b17	0.018605752
133	0x3e4819b1	0.1954105
134	0xbdc2392b	-0.0948356
135	0xbf135c0c	-0.5756233
136	0xbee3f2ca	-0.4452117
137	0x3e975364	0.2955581
138	0xbd43644f	-0.047703084
139	0xbd3ce243	-0.046114217
140	0xbeb302d9	-0.3496311
141	0x3eb7892a	0.35846835
142	0x3d9259b3	0.07146015
143	0xbddca62e	-0.10773884
144	0x3eb6367d	0.35588446
145	0xbebde9bb	-0.37092385
146	0xbe82929c	-0.2550248
147	0x3e52f211	0.20600154
148	0xbe49a9c3	-0.19693665
149	0x3e7405db	0.23830359
150	0xbc96bfed	-0.018402064
151	0xbedc7b16	-0.43062657
152	0xbee8ffa6	-0.45507544
153	0xbe2c3862	-0.16818383
154	0x3d731ac8	0.059351712
155	0xbe962add	-0.29329577
156	0xbf8efc7e	-1.1170805
157	0x3e99b1cc	0.3001846
158	0x3e54f492	0.20796421
159	0xbf27be21	-0.6552449
160	0x3ddebc90	0.10875809
161	0xbd387f5e	-0.04504334
162	0x3dd41a5c	0.1035659
163	0xbdc34b19	-0.09535808
164	0xbdb8191e	-0.08989166
165	0xbeb6fca9	-0.3573964
166	0x3e0abc94	0.135485
167	0x3e5dab51	0.21647383
168	0x3e463d9c	0.1935944
169	0xbee5a842	-0.44854933
170	0x3e53ebbc	0.20695394
171	0x3ca143e6	0.019685697
172	0x3df6ca6d	0.120503284
173	0x3cc4aa18	0.024006888
174	0xbeb7c49a	-0.35892183
175	0x3dca6844	0.09883168
176	0xbf00da5e	-0.503332
177	0xbe16c327	-0.14722882
178	0xbea23c3a	-0.31686574
179	0xbd110a41	-0.03541017
180	0xbec40967	-0.38288423
181	0x3e4a90e8	0.1978184
182	0xbe849932	-0.2589813
183	0x3ea98b08	0.33113885
184	0xbe19aa5a	-0.1500639
185	0x3e8cdd3f	0.27512547
186	0x3e95a853	0.29229984
187	0x3e9a65b6	0.30155724
188	0x3deb99bc	0.11503932
189	0x3dd47ef2	0.103757754
190	0x3beb76c5	0.0071857893
191	0x3e344211	0.17603327
192	0x3e7acb42	0.24491599
193	0xbe2bf785	-0.1679364
194	0xbc71275d	-0.014718858
195	0x3e048cd7	0.12944351
196	0x3b4650db	0.0030260596
197	0x3e9c58ae	0.30536407
198	0x3d5b055d	0.05347191
199	0x3e090a15	0.13382752
200	0x3e316d91	0.17326953
201	0x3db06bfd	0.08614347
202	0x3d803635	0.06260339
203	0xbcec212b	-0.02882441
204	0x3c8d6730	0.017261118
205	0xbe11c186	-0.1423398
206	0x3c82f21a	0.015984584
207	0xbdf9dc9b	-0.1220028
208	0x3da3d0c1	0.07998801
209	0x3c804c3a	0.015661348
210	0x3daa201e	0.08306907
211	0x3e351339	0.17683114
212	0xbe81620b	-0.25270113
213	0x3e86a62f	0.26298663
214	0xbe0630dc	-0.13104576
215	0x3e14d0a8	0.14532721
216	0x3df52a65	0.11970977
217	0x3f13200c	0.57470775
218	0xbd549b34	-0.051905826
219	0xbf2e2dd3	-0.6803867
220	0x3ec5fc89	0.38669232
221	0xbdc50c31	-0.09621466
222	0x3c63e111	0.0139086405
223	0xbf01781c	-0.505739
224	0x3e824d2e	0.25449508
225	0x3e6fdd2e	0.23424217
226	0xbe62c1f9	-0.22144307
227	0xbe546fd4	-0.20745784
228	0x3eb7db4b	0.35909495
229	0xbf397a05	-0.7245181
230	0x3cba7014	0.022758521
231	0x3e76a505	0.24086387
232	0x3d3b8f0e	0.045790724
233	0xbd9d2d00	-0.07674599
234	0x3e06f141	0.13177969
235	0xbd010b48	-0.0315049
236	0xbda40589	-0.08008868
237	0x3ea1d797	0.31609794
238	0x3e779f70	0.24181914
239	0x3ee1fc26	0.44137686
240	0x3e7c90df	0.24664639
241	0x3e7a4563	0.24440531
242	0x3e0f1755	0.13973744
243	0xbec1862e	-0.37797683
244	0xbbd02a4e	-0.0063526994
245	0x3e007baa	0.12547174
246	0x3d72ad32	0.059247203
247	0x3b7a6348	0.003820615
248	0x3e1e4540	0.15456104
249	0xbda4d523	-0.08048465
250	0x3e6a5afb	0.22886269
251	0x3e325d64	0.17418438
252	0x3dc1d663	0.09464719
253	0x3e00ed42	0.12590507
254	0x3f19c7d3	0.6007053
255	0x3df552cb	0.11978682

action_model._discrete_distribution.branches.2.bias f4 [3]
0	0xbe1fe077	-0.1561297
1	0xbd4139df	-0.04717433
2	0x3e8fbdc9	0.28074482

action_model._discrete_distribution.branches.2.weight f4 [3, 128]
0	0x3e5d3f1e	0.21606109
1	0x3de4e7d1	0.11177028
2	0xbe3a2ba8	-0.18180716
3	0xbf177fda	-0.5917946
4	0xbe1c40c4	-0.15259081
5	0xbee286f2	-0.4424358
6	0xbe4b956d	-0.1988122
7	0x3e81cd87	0.25352117
8	0x3e8d2da1	0.27573875
9	0xbf1b7ddc	-0.6073892
10	0x3e32a782	0.17446712
11	0x3d95a919	0.073076434
12	0x3e9be106	0.30445117
13	0x3e49fb0f	0.19724678
14	0xbe566e3b	-0.20940487
15	0xbdadbd26	-0.08483343
16	0x3e9b83d5	0.30374017
17	0x3f1fbb0b	0.6239478
18	0xbe9a8dcb	-0.30186304
19	0xbd337ebd	-0.04382204
20	0x3e86fbd6	0.2636401
21	0xbe6f2c1d	-0.23356672
22	0xbec13983	-0.3773919
23	0x3ceec30b	0.029145738
24	0x3eb55677	0.3541753
25	0xbd9edb31	-0.07756651
26	0xbd6b4257	-0.057436313
27	0x3eadab8c	0.33919942
28	0x3f50f866	0.81629026
29	0x3e92b08f	0.2865033
30	0x3e232deb	0.15935485
31	0xbd24ac5d	-0.04020344
32	0x3f0dbe4f	0.5536851
33	0xbf2fd937	-0.6869082
34	0x3e3fd6dc	0.18734306
35	0x3c0f0544	0.008729283
36	0xbe933270	-0.28749418
37	0xbe0d7546	-0.13814268
38	0xbf883310	-1.0640583
39	0x3e8608d5	0.26178613
40	0x3e417098	0.18890607
41	0x3ea624fe	0.32450098
42	0xbe591848	-0.21200669
43	0xbf3f2767	-0.746695
44	0xbf881ebc	-1.0634379
45	0x3f0030d6	0.5007452
46	0x3b840e46	0.004030022
47	0x3e561e57	0.20910011
48	0xbea9f059	-0.33191183
49	0xbf2465f8	-0.6421809
50	0x3c5a886a	0.013338188
51	0x3c944281	0.018098118
52	0xbdd4c021	-0.10388208
53	0x3e77eb8f	0.24210952
54	0x3ec2b0d5	0.38025537
55	0xbe31afc9	-0.17352213
56	0x3dd1e2cb	0.102483355
57	0xbc489ae0	-0.012243956
58	0xbeeeeee1	-0.46666625
59	0x3ef4ace0	0.47788143
60	0x3e5f6228	0.21814787
61	0x3e88efd5	0.26745477
62	0xbfc52313	-1.5401329
63	0xbd8fb082	-0.07016088
64	0xbe9691f7	-0.29408237
65	0xbe9d6fa5	-0.3074924
66	0x3f68b378	0.9089885
67	0xbf47156c	-0.7776706
68	0xbe25c05c	-0.1618666
69	0x3e5ce1f5	0.21570571
70	0x3df6b873	0.120469
71	0x3e71df37	0.23620306
72	0xba770540	-0.00094230846
73	0x3ecae98a	0.396313
74	0xbeb71189	-0.35755566
75	0xbf1f3c78	-0.62201643
76	0x3ea1571a	0.31511766
77	0xbe01100a	-0.12603775
78	0xbe0a4a38	-0.13504875
79	0x3ca66dc8	0.02031602
80	0x3dd020e2	0.10162522
81	0xbe5d9e62	-0.2164245
82	0xbf44e5d1	-0.7691317
83	0x3e0a0d52	0.13481644
84	0x3aff66e0	0.0019485615
85	0x3c4e1327	0.012577808
86	0x3f069162	0.52565587
87	0x3dc7aa63	0.097492956
88	0xbef20e9f	-0.4727678
89	0xbe14c824	-0.14529473
90	0xbe060bc3	-0.13090424
91	0x3e1c70c1	0.15277387
92	0xbe336631	-0.17519452
93	0x3e374473	0.17897205
94	0x3e209255	0.15680821
95	0xbf61b323	-0.88163966
96	0x3eca4d07	0.39511892
97	0x3e3df452	0.18550232
98	0xbe82a504	-0.25516522
99	0xbdcb002b	-0.099121414
100	0xbe86d7ca	-0.2633651
101	0x3f106867	0.56409305
102	0xbed0438e	-0.4067654
103	0x3e460432	0.19337538
104	0xbdd7edf1	-0.105434306
105	0x3ea2569e	0.3170671
106	0xbec58308	-0.3857653
107	0xbe21c22c	-0.15796727
108	0xbec64f60	-0.38732433
109	0xbdf6dccc	-0.120538324
110	0x3d4fa910	0.05069834
111	0x3d344a29	0.044016037
112	0x3e49192c	0.19638509
113	0x3f02a543	0.5103342
114	0x3f16b986	0.58876836
115	0xbe696ac7	-0.22794639
116	0x3e91105e	0.283328
117	0xbe881e27	-0.26585504
118	0xbf533f57	-0.82518524
119	0x3ecee100	0.40406036
120	0x3e996090	0.29956484
121	0x3ed3d0e6	0.41370314
122	0x3e9c62b3	0.30544052
123	0xbee9b1c9	-0.45643452
124	0x3df60dd8	0.12014359
125	0x3db064cf	0.08612978
126	0x3ee1ea7a	0.44124204
127	0x3ee73e2f	0.4516463
128	0xbe96120d	-0.29310647
129	0xbd54dce4	-0.05196847
130	0x3e8fe255	0.28102365
131	0x3eb9e56c	0.36307847
132	0xbe26368b	-0.16231744
133	0xbd194eec	-0.03742878
134	0x3e8d0d30	0.27549124
135	0x3d2e6f8c	0.04258685
136	0xbc16e798	-0.00921049
137	0x3e8c676e	0.2742266
138	0xbd7318d2	-0.059349842
139	0xbf34b77d	-0.7059248
140	0xbdb382c8	-0.08765179
141	0x3ec6f351	0.3885751
142	0x3dd92f08	0.106046736
143	0x3e837645	0.2567617
144	0xbe35aaca	-0.17740932
145	0xbf26bf03	-0.6513521
146	0xbea86da0	-0.32896137
147	0x3f2bd945	0.671284
148	0x3de651b5	0.11246053
149	0x3ec9c399	0.39407042
150	0x3d8a7083	0.06759741
151	0x3cb9f6f3	0.022700762
152	0xbeee8e9d	-0.4659318
153	0xbdb84ea3	-0.08999374
154	0xbdcd7865	-0.10032729
155	0xbdfd3a7a	-0.12364669
156	0xbec524e7	-0.38504717
157	0xbe0c3e2a	-0.13695589
158	0x3e9d78c1	0.3075619
159	0x3e0a94d2	0.13533333
160	0xbd54cd85	-0.05195381
161	0x3e47331e	0.19453093
162	0xbdeb6fec	-0.11495957
163	0xbc7e00df	-0.015503137
164	0x3f26b4d2	0.6511966
165	0x3e0d4b7d	0.13798328
166	0xbe25f754	-0.1620763
167	0x3e343f1f	0.17602204
168	0x3e590e47	0.21196853
169	0x3d899782	0.06718351
170	0x3dc55a49	0.09636361
171	0xbd1c6625	-0.03818335
172	0x3f361969	0.7113252
173	0xbe946b19	-0.2898796
174	0x3e584e4f	0.21123622
175	0x3e613dfb	0.219963
176	0x3e4fcc1f	0.2029271
177	0xbc37ddab	-0.011222283
178	0xbd880dd5	-0.06643263
179	0x3dbdbf93	0.092650555
180	0xbe28fae9	-0.16501965
181	0xbe58b37b	-0.21162216
182	0x3ee95c9e	0.45578474
183	0x3ee8287c	0.45343387
184	0x3e256507	0.1615182
185	0xbf33680e	-0.7008065
186	0x3ebec872	0.37262303
187	0xbf4e1d74	-0.8051369
188	0xbd344b69	-0.04401723
189	0xbbe6b66a	-0.0070407884
190	0x3ed146fe	0.40874475
191	0x3e761b2e	0.24033806
192	0x3ed64f70	0.4185748
193	0xbd428615	-0.04749115
194	0xbe5893e3	-0.21150164
195	0x3dbdd6a2	0.092694536
196	0x3e01e752	0.12685898
197	0x3df051ee	0.11734377
198	0x3eb08298	0.34474635
199	0x3e5cb439	0.21553124
200	0x3e4d4351	0.2004521
201	0xbe7ee013	-0.24890165
202	0x3eb43c51	0.35202268
203	0x3df04d6e	0.117335185
204	0x3f27fc52	0.65619385
205	0x3ec3ddb8	0.38255095
206	0x3f0de7ba	0.5543171
207	0xbdf8727c	-0.12131211
208	0xbd1976ed	-0.037466932
209	0xbe37c729	-0.17947067
210	0x3e87685c	0.26446807
211	0x3dc33249	0.095310755
212	0x3e6b1c83	0.22960095
213	0x3e0f18b1	0.13974263
214	0x3e41ea5a	0.18937054
215	0x3e2e83cf	0.17042468
216	0xbe19895c	-0.14993805
217	0x3de90bf8	0.11379236
218	0x3e2c0513	0.1679881
219	0xbeb5a1eb	-0.35475096
220	0xbdd06f29	-0.10177452
221	0xbe3665f5	-0.17812331
222	0xbe22069f	-0.15822838
223	0x3f26c922	0.65150654
224	0xbe56c397	-0.20973049
225	0xbeed99af	-0.46406314
226	0x3d62411a	0.055237867
227	0xbdee6dad	-0.11642013
228	0xbce68235	-0.02813826
229	0xbe2ecc22	-0.17070058
230	0xbe568aa1	-0.2095132
231	0xbeb16348	-0.34646058
232	0x3c63a025	0.013893162
233	0xbec843e4	-0.39114296
234	0x3dbd52d0	0.09244311
235	0xbd5ad2af	-0.05342358
236	0xbe142d86	-0.14470491
237	0x3d3ab024	0.045578137
238	0x3ef1a66f	0.4719729
239	0x3ee55ea7	0.44798777
240	0xbd34901e	-0.044082753
241	0xbea1ad9a	-0.3157776
242	0x3e4d9de8	0.20079768
243	0xbe003f1b	-0.12524073
244	0xbf1424a1	-0.5786839
245	0x3ea341e4	0.31886208
246	0x3ed76266	0.4206726
247	0x3e0b6890	0.13614106
248	0xbdf1f91c	-0.11815092
249	0x3d6325df	0.05545604
250	0xbd41cb32	-0.047312923
251	0x3d40e589	0.0470939
252	0x3ea043de	0.3130178
253	0x3ec41a35	0.38301244
254	0xbd931f0b	-0.07183655
255	0x3d09dc8e	0.033657603

action_model._discrete_distribution.branches.3.bias f4 [3]
0	0x3e755f7a	0.23962203
1	0xbe6e28be	-0.2325773
2	0x3d99ce32	0.07510032

action_model._discrete_distribution.branches.3.weight f4 [3, 128]
0	0xbdd9cd79	-0.10634894
1	0x3d058acd	0.032603074
2	0xbf1994c8	-0.5999265
3	0x3d80524c	0.06265697
4	0x3e5382a3	0.20655303
5	0xbe2ae124	-0.16687447
6	0x3e1bfddc	0.15233558
7	0xbd8b01d3	-0.06787457
8	0xbf1da462	-0.61578953
9	0x3e686ad6	0.22697005
10	0xbdfe080a	-0.12403877
11	0xbef0a138	-0.46998
12	0xbf86ef42	-1.0541766
13	0x3debdc0b	0.11516579
14	0x3f350ab3	0.7071945
15	0xbeb021d0	-0.34400797
16	0x3e0328fb	0.12808602
17	0x3f0f30d4	0.5593388
18	0xbf02a863	-0.5103819
19	0x3ee72ab0	0.45149755
20	0x3dbb5357	0.09146755
21	0xbea3bb07	-0.31978628
22	0x3e901419	0.28140333
23	0xbe89333a	-0.26796895
24	0x3ec36937	0.3816621
25	0xbeeb59af	-0.4596686
26	0x3ee407e8	0.44537282
27	0xbd4e4590	-0.05035931
28	0x3e997d82	0.29978567
29	0x3ebca8a8	0.36847425
30	0xbd8b4c11	-0.06801618
31	0x3e758fd5	0.23980649
32	0x3f283cdc	0.65717864
33	0x3e39b80b	0.18136613
34	0x3f1a0eb4	0.60178685
35	0xbe19bf6f	-0.15014432
36	0x3dc4bde5	0.09606532
37	0x3d826683	0.06367209
38	0x3ce116d1	0.0274767
39	0xbf39d74e	-0.72594154
40	0x3e999906	0.2999956
41	0xbd4ea4d7	-0.050450172
42	0x3e8b1fe8	0.2717278
43	0x3e33e616	0.1756824
44	0xbe0c08c4	-0.13675219
45	0x3f0f1c69	0.55902725
46	0x3d538b41	0.051646475
47	0x3f36796f	0.7127904
48	0x3e6838d5	0.2267793
49	0x3b950df4	0.0045487825
50	0xbc970b34	-0.01843796
51	0x3e964e39	0.29356554
52	0xbeaa2b88	-0.33236337
53	0x3e48ce59	0.19609965
54	0x3f53581f	0.8255634
55	0xbdc5c155	-0.09656016
56	0x3f1fd8f2	0.6244041
57	0xbf44b0f6	-0.7683252
58	0x3ebd2bc4	0.36947453
59	0xbed62358	-0.4182384
60	0xbecc3ecc	-0.3989166
61	0xbf0876bb	-0.5330617
62	0x3e399159	0.18121852
63	0x3e53a675	0.20668967
64	0xbe678684	-0.22609907
65	0x3d90e616	0.070751354
66	0x3f33976f	0.70152944
67	0xbe8952a3	-0.2682086
68	0x3d8894a1	0.06668974
69	0x3e05e0b4	0.13073999
70	0x3f051b69	0.5199495
71	0xbf052ee7	-0.5202469
72	0xbc098adb	-0.008394922
73	0x3ef4e736	0.4783265
74	0x3cf6c9ff	0.030125616
75	0x3eab7591	0.33488134
76	0x3e4d8cb1	0.20073201
77	0x3d7f3e90	0.062315524
78	0xbf761c3e	-0.96136844
79	0xbc99e2d0	-0.01878491
80	0xbf139152	-0.57643616
81	0x3cdae1ac	0.026718937
82	0xbe6138b0	-0.21994281
83	0x3f044f11	0.51683146
84	0x3d3653d6	0.044513546
85	0x3d679540	0.05653882
86	0xbebe5cd3	-0.37180194
87	0x3ef8f3d6	0.48623532
88	0x3e3f1307	0.18659602
89	0x3e70b6fe	0.23507306
90	0x3f238b8f	0.63884825
91	0xbf3f6fe6	-0.7478012
92	0xbec14a93	-0.37752208
93	0x3dffad6e	0.12484251
94	0xbd85a4c7	-0.065255694
95	0xbd900b24	-0.07033375
96	0xbd28b260	-0.041185737
97	0xbd84e115	-0.064882435
98	0xbf435cfd	-0.76313764
99	0x3da82c2c	0.0821155
100	0xbf3c293d	-0.73500425
101	0x3eb95920	0.3620081
102	0xbf3a503e	-0.7277869
103	0xbe92c1df	-0.28663537
104	0x3de545cb	0.111949526
105	0x3e33340a	0.1750032
106	0xbe62a698	-0.22133863
107	0xbf1e0116	-0.61720407
108	0x3e88348c	0.2660259
109	0x3e5dab83	0.21647458
110	0x3f23be34	0.639621
111	0xbe9115b6	-0.28336877
112	0xbe93ea46	-0.28889674
113	0x3d0a1f4e	0.03372126
114	0x3da0c80d	0.07850657
115	0xbd549983	-0.051904213
116	0x3efcad93	0.49351177
117	0xbdb92f87	-0.09042268
118	0x3ede4a34	0.43415987
119	0x3e50441d	0.20338483
120	0x3e8c143a	0.27359182
121	0xbbc4cdbd	-0.006005971
122	0x3ee096df	0.43865106
123	0x3da494cc	0.08036193
124	0x3d909558	0.07059735
125	0xbde01794	-0.10941997
126	0x3d8c2934	0.06843796
127	0xbe8f7161	-0.2801619
128	0x3ed7f04b	0.42175516
129	0xbe03109c	-0.12799305
130	0x3e410a01	0.18851472
131	0x3ec960bc	0.39331615
132	0xbce29561	-0.02765912
133	0x3e89b0d4	0.26892722
134	0x3d334427	0.043766167
135	0x3e45d611	0.19319941
136	0x3ec2084a	0.3789695
137	0xbd8800a7	-0.066407494
138	0x3de53c56	0.11193149
139	0x3f24c233	0.64358824
140	0x3ef8da9e	0.48604292
141	0xbe3ad71e	-0.18246123
142	0xbf207f12	-0.62693894
143	0x3dd247fc	0.10267636
144	0xbe2dfe48	-0.16991532
145	0xbf1d6ee3	-0.61497325
146	0x3ef01415	0.4689032
147	0xbe23343e	-0.15937898
148	0xbd95c461	-0.07312847
149	0x3df0e701	0.117628105
150	0x3e622473	0.22084217
151	0x3f054da3	0.5207159
152	0xbe2b940f	-0.16755699
153	0x3e4d5705	0.20052727
154	0xbcc8017e	-0.024414774
155	0x3ec7b6d0	0.39006662
156	0xbdf9a9f1	-0.12190617
157	0xbea9243d	-0.3303546
158	0x3f43ff0f	0.76561064
159	0xbf0a633a	-0.5405766
160	0xbf43d2de	-0.7649363
161	0xbe4c2734	-0.1993683
162	0xbe8f219e	-0.27955335
163	0x3eaae008	0.33374047
164	0x3e5c5c10	0.21519494
165	0x3d1a4889	0.03766683
166	0xbd6f918d	-0.058488417
167	0x3ef4e8f4	0.4783398
168	0xbde112a1	-0.10989881
169	0x3e3f5dca	0.18688121
170	0x3d8651be	0.0655856
171	0x3ec92145	0.39283195
172	0x3f162a3f	0.5865821
173	0xbf113e4a	-0.5673567
174	0x3e18e3c0	0.1493063
175	0xbf69035a	-0.9102074
176	0xbd26ff0e	-0.040770583
177	0x3dc4da65	0.09611968
178	0x3ea9d09d	0.33166972
179	0xbf0469df	-0.51724046
180	0xbe8da90e	-0.2766804
181	0x3d2a5d2c	0.041592762
182	0xbefcee6a	-0.49400645
183	0x3e05dd56	0.13072714
184	0xbf095fe6	-0.53661954
185	0x3f202f0e	0.625718
186	0xbeb8a7cd	-0.36065522
187	0x3eb1168d	0.34587517
188	0x3f29d6fd	0.6634367
189	0x3ec69071	0.38782075
190	0x3e11dd05	0.14244469
191	0xbe9e2bd6	-0.3089282
192	0x3d8f3e95	0.069943585
193	0x3f2bb0a4	0.6706641
194	0xbe01d302	-0.1267815
195	0x3f0a3948	0.53993654
196	0x3e8c8e4f	0.27452323
197	0xbd012df9	-0.031537984
198	0xbde62e99	-0.112393565
199	0x3eec2608	0.46122766
200	0x3d041724	0.03224863
201	0xbd113457	-0.035450306
202	0x3c94cc44	0.018163808
203	0x3e8d12a5	0.27553287
204	0xbe2893a7	-0.16462575
205	0x3d7617ee	0.060081415
206	0x3f31a697	0.6939482
207	0x3ebb2bac	0.36556756
208	0x3eaa19ee	0.33222908
209	0x3dc63067	0.09677201
210	0xbd585164	-0.052811995
211	0xbdcfb574	-0.10142031
212	0xbe30bd4c	-0.17259711
213	0x3ee55b17	0.4479606
214	0x3e8835ba	0.2660349
215	0xbcc4c063	-0.024017518
216	0x3ddc524b	0.10757884
217	0x3e92fd58	0.2870891
218	0xbf19c6eb	-0.6006915
219	0x3f421377	0.7581095
220	0x3e9bb198	0.3040893
221	0x3e0359c8	0.12827218
222	0x3cab5e5a	0.020919014
223	0x3e71628b	0.23572747
224	0x3e85e0b1	0.26147988
225	0xbd1af23c	-0.03782867
226	0x3f4b2fb9	0.79369694
227	0x3dda281e	0.10652183
228	0x3e991dd1	0.2990556
229	0xbe91e5a5	-0.28495517
230	0x3f00270e	0.5005959
231	0x3ebc9edc	0.3683995
232	0xbe0ca083	-0.13733105
233	0xbd0faaf4	-0.035075143
234	0x3f2aa509	0.66658074
235	0x3f24e528	0.64412165
236	0xbe4d8f88	-0.20074284
237	0xbe23514a	-0.15948978
238	0xbd0f6418	-0.035007566
239	0x3e77d080	0.2420063
240	0x3f07bd38	0.530231
241	0x3eec2a5c	0.46126068
242	0xbd0d0c67	-0.034435656
243	0x3db4c44e	0.08826505
244	0x3d037855	0.03209718
245	0x3e683d6e	0.22679684
246	0xbe3bb124	-0.18329293
247	0xbe9f9e31	-0.31175378
248	0xbec6d22a	-0.38832217
249	0x3efd3697	0.4945571
250	0xbe9f570f	-0.31121108
251	0x3cc7ed5f	0.02440518
252	0x3e911e17	0.2834327
253	0x3e15e3b9	0.1463765
254	0xbc9e4de8	-0.019324258
255	0xbd744206	-0.059633277

action_model._discrete_distribution.branches.4.bias f4 [3]
0	0x3eadf253	0.3397394
1	0xbe5f4260	-0.21802664
2	0x3cb21d6d	0.021742547

action_model._discrete_distribution.branches.4.weight f4 [3, 128]
0	0x3ebeba10	0.3725133
1	0xbf46e07d	-0.7768629
2	0xbe5ceb92	-0.21574238
3	0xbecb96a6	-0.39763373
4	0x3e9faf98	0.31188655
5	0x3dab5c3a	0.083672
6	0x3daf4495	0.08558003
7	0x3e2ddfa2	0.1697984
8	0xbd56e389	-0.05246309
9	0x3d815582	0.063151374
10	0x3eb3609d	0.35034648
11	0xbe40da6a	-0.18833318
12	0x3edc0a6a	0.42976695
13	0x3b5b4d6d	0.0033462897
14	0xbd805224	-0.06265667
15	0x3d467cb3	0.048458766
16	0x3ec28d04	0.3799821
17	0x3c6d67fd	0.014490125
18	0xbde20d9c	-0.11037752
19	0xbdda2d57	-0.10653179
20	0xbe295b99	-0.16538848
21	0xbec8a581	-0.3918877
22	0xbdfe6744	-0.1242204
23	0xbe8ce337	-0.275171
24	0x3e348ffb	0.17633049
25	0xbea22c58	-0.31674457
26	0x3e36dc05	0.17857368
27	0x3e13a93e	0.1442003
28	0x3ebe3aa4	0.37154114
29	0x3e506123	0.20349555
30	0x3df9d2b3	0.12198391
31	0x3e13d545	0.14436825
32	0xbda30faa	-0.07961972
33	0x3ee5610e	0.4480061
34	0x3edfe507	0.43729421
35	0xbd7adab3	-0.061243724
36	0xbf621611	-0.8831492
37	0xbf2196c0	-0.6312065
38	0xbdd8619a	-0.10565491
39	0xbe770779	-0.24123944
40	0xbe98810a	-0.2978595
41	0xbddea087	-0.10870462
42	0xbd98911e	-0.07449554
43	0xbd9942ea	-0.07483466
44	0xbee44131	-0.44580987
45	0xbe882abd	-0.26595107
46	0xbe95a06f	-0.29223964
47	0x3f006ee1	0.5016919
48	0xbdd8bf59	-0.10583372
49	0x3e72d9c9	0.23715891
50	0xbf2c5ccb	-0.6732909
51	0xbd881660	-0.06644893
52	0x3e1ef057	0.1552137
53	0x3e84cb7f	0.25936505
54	0xbe2aad81	-0.16667749
55	0xbecbeb16	-0.39827794
56	0x3dc9de9a	0.09856911
57	0x3e325c25	0.17417963
58	0x3f046d45	0.5172923
59	0x3f4411ac	0.76589465
60	0x3eee2114	0.46509612
61	0x3e0f060d	0.13967152
62	0x3e9e7636	0.30949563
63	0xbbeac594	-0.0071646664
64	0xbd164a79	-0.036692116
65	0xbd974d0d	-0.07387743
66	0x3d58385d	0.052788127
67	0xbe640541	-0.22267629
68	0x3ec2b45b	0.38028225
69	0x3e2310b3	0.15924339
70	0x3de6fc21	0.112785585
71	0x3e891297	0.26771995
72	0x3ee214c0	0.44156456
73	0x3ec0e32e	0.37673324
74	0xbc9a99f5	-0.01887224
75	0x3ee9211c	0.45533073
76	0xbe0e2ae3	-0.13883547
77	0x3cdd950d	0.027048612
78	0xbe97b732	-0.29631954
79	0xbedbeb11	-0.4295278
80	0xbf0e799e	-0.55654323
81	0x3dba281d	0.09089682
82	0x3ea1b2b1	0.31581643
83	0x3caa667b	0.02080082
84	0xbee6cf59	-0.4508007
85	0xbed3ecfa	-0.41391736
86	0xbf0de81d	-0.554323
87	0xbe6f5906	-0.23373803
88	0x3e90d600	0.2828827
89	0xbe4f3295	-0.2023414
90	0x3e7848ba	0.24246493
91	0x3f1d1d2a	0.61372626
92	0xbeda4789	-0.42632702
93	0x3f064eb4	0.5246384
94	0x3e580a3e	0.21097657
95	0xbf18c148	-0.59669924
96	0xbd4e478c	-0.0503612
97	0xbe2ef136	-0.17084202
98	0xbf0f6a54	-0.5602162
99	0xbe1aa4c6	-0.15101919
100	0xbec09701	-0.37615207
101	0x3e0520d2	0.13000801
102	0xbe5c7fb9	-0.21533097
103	0xbe0b8c78	-0.13627803
104	0x3ebfed34	0.3748566
105	0x3f11062a	0.5665003
106	0xbdfdd86b	-0.12394794
107	0x3ed91e16	0.42405766
108	0xbec472c3	-0.38368806
109	0xbe840ee7	-0.2579262
110	0x3daa6628	0.08320266
111	0x3ef1a200	0.4719391
112	0xbee0f203	-0.4393464
113	0x3ed2bf8c	0.41161764
114	0x3efa16c4	0.48845494
115	0xbdf40b48	-0.11916214
116	0x3e8aa13c	0.27076137
117	0x3e9a6523	0.30155286
118	0x3f063542	0.52425015
119	0xbe60a528	-0.21938002
120	0xbf1dcef6	-0.6164392
121	0xbe94b3bd	-0.2904338
122	0x3e81548f	0.25259826
123	0x3ecca89f	0.39972398
124	0x3eff31c9	0.4984267
125	0x3d83ccd0	0.06435549
126	0x3e1b1964	0.15146405
127	0x3ecc6194	0.39918196
128	0x3e300f24	0.17193276
129	0x3ef58fab	0.47961172
130	0xbd1b88a7	-0.03797212
131	0x3e70504e	0.23468134
132	0x3e6eb935	0.23312838
133	0x3f11839c	0.56841445
134	0x3d96ac5e	0.07357095
135	0x3dc29cc5	0.09502558
136	0x3eec2e26	0.46128958
137	0xbd0f70e0	-0.035019755
138	0xbf417299	-0.7556549
139	0x3eb65177	0.35609028
140	0x3d880be3	0.06642892
141	0x3e786243	0.24256234
142	0x3e28bf10	0.16479135
143	0x3d160624	0.03662695
144	0xbd5e7f67	-0.05432072
145	0x3e2790cd	0.16363831
146	0x3f409cc3	0.752392
147	0x3e46d470	0.19416976
148	0xbe60bc21	-0.21946765
149	0x3e504f06	0.20342645
150	0x3e956eb6	0.29186028
151	0x3e82aaa1	0.25520805
152	0x3d0553df	0.03255069
153	0xbd90b005	-0.07064823
154	0xbdfdcfe1	-0.123931654
155	0xbdab948d	-0.08377943
156	0x3eb3bf1a	0.35106736
157	0x3deb4d09	0.11489303
158	0x3efcf09f	0.4940233
159	0xbe405eb0	-0.1878612
160	0x3c98e8a5	0.018665621
161	0x3c05181d	0.008123425
162	0x3e91cb05	0.28475204
163	0x3d5c664d	0.0538085
164	0x3f0f1dae	0.5590466
165	0x3e6c20d0	0.23059392
166	0x3eb79251	0.35853818
167	0xbe7d2420	-0.24720812
168	0xbd5fe05b	-0.05465732
169	0x3ed61348	0.41811585
170	0xbd8f848a	-0.07007702
171	0x3e00917f	0.12555502
172	0x3f75c7d7	0.96008056
173	0x3eccd05d	0.4000272
174	0x3e8881f7	0.26661655
175	0xbd8b26b6	-0.06794493
176	0xbe886ef6	-0.26647156
177	0x3c1abefd	0.009444949
178	0x3efae8dd	0.49005786
179	0x3e873032	0.26403958
180	0x3e9da942	0.30793196
181	0xbe83de51	-0.2575555
182	0x3f0025f9	0.5005794
183	0x3e9667c4	0.29376042
184	0xbbb1073f	-0.005402475
185	0x3e83ebf0	0.25765944
186	0x3cb6ebd4	0.022329248
187	0xbe463c97	-0.1935905
188	0xbdc29459	-0.09500951
189	0xbea694f8	-0.3253553
190	0xbcc7571a	-0.024333525
191	0xbd13ecba	-0.036114432
192	0x3eed712e	0.46375412
193	0xbe69c830	-0.22830272
194	0x3eb766bf	0.35820577
195	0x3f05c39a	0.5225159
196	0x3e107561	0.14107276
197	0x3e9b108d	0.30286065
198	0x3d37344b	0.044727605
199	0xbe4d7a9d	-0.20066305
200	0xbe21d242	-0.15802863
201	0xbf082ff5	-0.53198177
202	0x3d430d89	0.04762033
203	0x3e0ec03e	0.13940522
204	0xbd7f572c	-0.062338993
205	0x3ea9be23	0.33152875
206	0x3f193ff1	0.5986319
207	0x3e909f3b	0.28246483
208	0x3f20d043	0.6281778
209	0x3e12fd97	0.1435455
210	0xbeb52749	-0.35381535
211	0xbd4cb40f	-0.049976405
212	0x3f16bb7e	0.5887984
213	0xbdb6ea9a	-0.089314654
214	0x3f355294	0.7082913
215	0x3e650834	0.2236641
216	0xbe91a127	-0.28443262
217	0x3d8a5b74	0.067557245
218	0x3ddb98a5	0.10722474
219	0xbe5fcac2	-0.2185469
220	0x3e0c5e8c	0.13707942
221	0xbe86601f	-0.2624521
222	0xbe01217d	-0.12610431
223	0x3ea4dcb9	0.32199648
224	0xbe8a9cf6	-0.27072877
225	0x3dfe5c67	0.12419968
226	0x3f968c70	1.1761608
227	0x3d7df70c	0.06200318
228	0x3e443e9b	0.19164507
229	0x3f021b7b	0.5082318
230	0x3e91ea4e	0.28499073
231	0x3d7c418d	0.06158595
232	0xbe876a1b	-0.2644814
233	0xbd9823b2	-0.07428683
234	0x3efe5c30	0.49679708
235	0xbdea9c09	-0.114555426
236	0x3f6428eb	0.89124936
237	0x3e9b66ab	0.30351767
238	0x3d089e77	0.03335425
239	0xbdecc18f	-0.11560356
240	0x3f2e88e6	0.6817764
241	0xbeba14fc	-0.36344135
242	0xbcc6b51d	-0.024256283
243	0x3e7d2e15	0.2472461
244	0xb9899381	-0.00026240575
245	0x3ddceef6	0.10787766
246	0xbc51ba4b	-0.012800763
247	0x3e14d203	0.14533238
248	0x3ec7891a	0.38971788
249	0x3e34fec2	0.17675307
250	0xbecf508d	-0.40491143
251	0xbc849063	-0.01618213
252	0x3e92dd95	0.2868468
253	0x3f098dbe	0.53731906
254	0x3edbaed3	0.42906818
255	0xbe3a790c	-0.18210238

action_model._discrete_distribution.branches.5.bias f4 [3]
0	0x3c010cde	0.007876603
1	0xbcd03ff2	-0.025421117
2	0x3dd7d9f8	0.10539621

action_model._discrete_distribution.branches.5.weight f4 [3, 128]
0	0xbe0c60c7	-0.13708793
1	0x3f91b877	1.1384419
2	0x3e0afc9b	0.13572924
3	0xbe79ecdc	-0.24406761
4	0xbd21a3e5	-0.039462943
5	0x3e822ac8	0.25423265
6	0xbeb23982	-0.348095
7	0x3dfb13fb	0.1225967
8	0x3e3c61a0	0.18396616
9	0xbe178eb9	-0.14800538
10	0xbea288da	-0.31745034
11	0x3f14014c	0.5781448
12	0x3ebeb1c5	0.37245002
13	0xbec369b2	-0.38166577
14	0xbf2af447	-0.6677899
15	0xbe63cc6c	-0.2224595
16	0xbdb8e2a4	-0.09027603
17	0xbd47b94d	-0.0487607
18	0x3e6d46d2	0.23171547
19	0x3eabaeec	0.33531892
20	0x3df6bdac	0.12047896
21	0x3f187dbe	0.5956687
22	0xbea8fb2a	-0.33004123
23	0xbc89a70a	-0.016803283
24	0xbddac8ff	-0.10682868
25	0xbec5fc72	-0.38669163
26	0x3db7abd9	0.08968324
27	0x3ddc1c53	0.1074759
28	0xbe404ddd	-0.18779702
29	0x3e0be60e	0.13661978
30	0x3dcd98cd	0.1003891
31	0xbf0accd5	-0.542188
32	0x3d3c800a	0.046020545
33	0xbee23a2e	-0.44185013
34	0xbed5420e	-0.41651958
35	0x3ecd09c1	0.40046504
36	0x3edc91d8	0.4308002
37	0xbe991718	-0.29900432
38	0x3da3a884	0.07991126
39	0x3f496972	0.7867652
40	0xbd9ad098	-0.07559317
41	0xbc8f0bc7	-0.01746167
42	0xbc14ce67	-0.009082413
43	0xbf437dd9	-0.76363903
44	0xbe1136da	-0.1418108
45	0x3c12b3bf	0.008953988
46	0xbe4256c9	-0.18978418
47	0xbea4dffb	-0.32202134
48	0xbec93e60	-0.393054
49	0x3e9c69c9	0.30549458
50	0x3e588d50	0.21147656
51	0x3d6f2f99	0.058395002
52	0xbe4ffe1f	-0.20311783
53	0xbe935190	-0.28773165
54	0xbeee1794	-0.46502364
55	0x3ee4b424	0.44668686
56	0xbed7de32	-0.4216171
57	0x3e68be40	0.22728825
58	0x3e8b3e65	0.2719604
59	0x3e48404f	0.19555782
60	0x3ef16e73	0.4715458
61	0x3f4844fa	0.7823025
62	0x3ed64ce3	0.41855535
63	0xbdfc6e35	-0.12325708
64	0xbe485e65	-0.19567259
65	0xbe3bc815	-0.18338044
66	0x3f0a566b	0.54038113
67	0x3f3b34d4	0.73127484
68	0xbe14b04c	-0.14520377
69	0x3f864c08	1.0491953
70	0x3ea24fc0	0.3170147
71	0x3e091146	0.13385496
72	0x3edfbe22	0.43699747
73	0x3ead362a	0.33830386
74	0xbe0da2ee	-0.13831684
75	0xbf266e2b	-0.6501185
76	0x3ea6f02f	0.3260512
77	0x3e7e396f	0.24826597
78	0x3e74e5b0	0.23915744
79	0x3e21c5f0	0.15798163
80	0x3eafe894	0.3435713
81	0x3ddcaf62	0.10775639
82	0xbdb508d8	-0.088395774
83	0xbec39d56	-0.38205975
84	0x3ed40f4f	0.4141793
85	0x3ebb7c1f	0.36618134
86	0xbd441fe3	-0.047881972
87	0x3e19a215	0.15003236
88	0xbeeaf362	-0.4588881
89	0xbebf495c	-0.37360656
90	0x3dd473c8	0.10373646
91	0x3de9cd1c	0.11416075
92	0x3eb7513e	0.3580417
93	0xbe8828fa	-0.26593763
94	0xbed5e37e	-0.41775125
95	0x3f0a089b	0.5391938
96	0x3de8581f	0.11344933
97	0xbe67e028	-0.22644103
98	0x3e286c83	0.16447644
99	0xbb25935e	-0.002526484
100	0x3e0aef0c	0.13567752
101	0x3da84532	0.08216323
102	0x3d9c5064	0.07632521
103	0x3f67efa4	0.9060004
104	0xbda8fb29	-0.0825103
105	0xbe85efac	-0.26159418
106	0xb8c026de	-9.162513e-05
107	0x3f0b67ae	0.5445508
108	0x3dd080a4	0.10180786
109	0x3dfbee59	0.123013206
110	0x3ebc473e	0.36773103
111	0xbe9dfbec	-0.30856264
112	0x3ed45c4e	0.41476673
113	0x3f4eec15	0.8082898
114	0xbf65c051	-0.89746577
115	0x3de84882	0.11341955
116	0x3e19c80b	0.15017717
117	0x3d6f7162	0.05845774
118	0x3ba596fb	0.0050533987
119	0xbe1fa187	-0.15588962
120	0x3f2ecccf	0.68281263
121	0xbd291244	-0.041277185
122	0xbd0407a3	-0.032233845
123	0x3ee7d1c2	0.4527722
124	0x3e8afb68	0.27144933
125	0x3e819ec6	0.25316447
126	0x3db091c7	0.08621555
127	0x3d3131c7	0.043260362
128	0xbedc7f5c	-0.43065917
129	0xbdc7474b	-0.09730395
130	0x3e53ecf1	0.20695855
131	0xbb2b6c38	-0.0026157033
132	0x3e7339a3	0.23752455
133	0x3e8195e2	0.25309664
134	0xbd886d1e	-0.066614375
135	0x3d9c7242	0.076389804
136	0xbe5905fc	-0.21193689
137	0xbd8c3510	-0.06846058
138	0xbd4b5095	-0.049637396
139	0xbe3d7d6c	-0.18504876
140	0xbddaf3e6	-0.10691051
141	0x3f066c0d	0.5250862
142	0x3f380719	0.7188583
143	0x3d95dc39	0.07317395
144	0x3e557791	0.20846392
145	0x3f130a03	0.5743715
146	0x3e7e6da0	0.24846506
147	0x3e6bea88	0.23038685
148	0x3eff9806	0.49920672
149	0x3ed49882	0.41522604
150	0x3edadcc3	0.42746553
151	0x3e902b85	0.28158203
152	0xbddf38bf	-0.10899495
153	0x3d4d494f	0.05011874
154	0x3e51de22	0.20494893
155	0x3f0dd2fa	0.5540005
156	0xbd042212	-0.032259054
157	0x3d4c67f4	0.049903825
158	0x3ec195ec	0.37809694
159	0xbe391ce9	-0.18077435
160	0xbdb15462	-0.08658673
161	0xbe821ced	-0.25412694
162	0x3d55e2cd	0.052218247
163	0xbd6d04c8	-0.057865888
164	0x3eec4702	0.46147925
165	0x3e0de6af	0.1385753
166	0x3db3ca46	0.08778815
167	0xbf1ddad0	-0.61662006
168	0x3e7b31ff	0.24530791
169	0xbdc1cdb8	-0.09463066
170	0xbe37bd55	-0.17943318
171	0x3e98926d	0.29799214
172	0x3d74c2be	0.059756033
173	0x3dbb742a	0.09153016
174	0x3e4e3705	0.20138176
175	0x3ec313cc	0.3810104
176	0x3d539892	0.051659174
177	0x3ec11100	0.37708282
178	0x3ecf2f23	0.4046565
179	0x3e5c5fc1	0.21520902
180	0x3ec4ef42	0.3846379
181	0x3dfb5559	0.12272138
182	0x3e5050c8	0.20343316
183	0xbd951ede	-0.07281278
184	0x3ec08074	0.37598002
185	0xbea8ace6	-0.3294441
186	0x3e7be008	0.2459718
187	0xbf4fc034	-0.81152654
188	0xbef49454	-0.47769415
189	0xbd2719bf	-0.040796038
190	0x3e36368a	0.17794243
191	0x3f28a29e	0.65873134
192	0x3d0e645c	0.03476368
193	0x3e44645e	0.19178912
194	0xbe961225	-0.29310718
195	0xbe8178e5	-0.25287548
196	0xbee0dd3b	-0.43918785
197	0xbf3981d0	-0.72463703
198	0xbe475fe1	-0.19470169
199	0x3e8b8fbc	0.27258098
200	0x3e17cd78	0.14824474
201	0xbd0615cc	-0.03273563
202	0x3e39685d	0.18106218
203	0x3e7dd662	0.24788812
204	0x3c8bfdef	0.017088858
205	0xbe2d8d7f	-0.16948508
206	0xbcac2f4e	-0.02101865
207	0xbdd3b99a	-0.10338135
208	0x3e269a77	0.16269861
209	0x3e8e428a	0.2778514
210	0x3da64d24	0.08120182
211	0x3ecc0c6d	0.3985323
212	0xbe7f4de0	-0.2493205
213	0xbdd6e486	-0.10492806
214	0x3e925b46	0.2858526
215	0xbe7fd7ae	-0.24984619
216	0xbce72f02	-0.028220657
217	0x3efdae02	0.4954682
218	0x3e2ebb80	0.17063713
219	0x3e8c512e	0.27405685
220	0xbdf6bb39	-0.12047429
221	0x3da7b212	0.08188261
222	0x3d7ebd93	0.06219251
223	0x3ed8d6eb	0.4235147
224	0x3c56aa4e	0.013102127
225	0x3f2463c9	0.6421476
226	0x3f1afe98	0.6054473
227	0x3e232b3b	0.1593446
228	0x3f05ea11	0.5231028
229	0xbeb81e29	-0.3596051
230	0x3e8615f1	0.26188615
231	0xbe237228	-0.15961516
232	0x3e41ef7a	0.1893901
233	0x3f511311	0.8166972
234	0x3e2c766e	0.16842052
235	0xbe092fbd	-0.13397117
236	0xbe5cf1f3	-0.21576671
237	0x3df92e3f	0.12167024
238	0xbe24b225	-0.16083582
239	0x3e95bcc5	0.29245582
240	0x3c04db30	0.008108899
241	0xbf649b6a	-0.89299643
242	0xbb9665c9	-0.0045897705
243	0x3eb7084a	0.35748512
244	0xbd397d16	-0.045285307
245	0xba37d64e	-0.000701283
246	0x3e9d93bf	0.30776784
247	0xbb9e5acc	-0.004832601
248	0xbeb30d14	-0.34970915
249	0x3f076931	0.52894884
250	0x3e395e63	0.18102412
251	0xbe8e672b	-0.27813086
252	0xbe66c810	-0.22537255
253	0xbf48b17f	-0.7839584
254	0xbedfbabc	-0.43697155
255	0xbeb0fafd	-0.3456649

action_model._discrete_distribution.branches.6.bias f4 [3]
0	0xbe8c3b8e	-0.27389187
1	0x3da7fbee	0.08202349
2	0x3e6dd000	0.23223877

action_model._discrete_distribution.branches.6.weight f4 [3, 128]
0	0x3f19d8bf	0.60096353
1	0x3e4e133a	0.20124522
2	0xbe15737c	-0.14594835
3	0x3d5d0a8d	0.05396514
4	0x3e6164bb	0.22011082
5	0x3d867501	0.065652855
6	0x3de51d2e	0.11187206
7	0x3ee04155	0.43799844
8	0xbf1b7a87	-0.60733837
9	0x3ea3f4a2	0.32022578
10	0xbd5b9620	-0.053609967
11	0x3e82f13b	0.2557467
12	0x3b3658b3	0.0027823865
13	0xbea2b79d	-0.3178071
14	0x3e2bfdb2	0.16795996
15	0x3e921001	0.28527835
16	0x3e405129	0.1878096
17	0xbe1e8d22	-0.15483525
18	0x3f1169df	0.5680217
19	0xbf01a88c	-0.5064781
20	0x3d879277	0.06619733
21	0x3e72e3d2	0.23719719
22	0xbec8f387	-0.39248297
23	0xbe17687a	-0.14785948
24	0xbe4e6dfb	-0.20159142
25	0xbfd2187e	-1.6413724
26	0xbd58f895	-0.05297144
27	0x3f1fc091	0.6240321
28	0xbe0fbfa3	-0.14037947
29	0x3cae32a0	0.021264374
30	0x3f06c912	0.5265056
31	0x3f39ba05	0.7254947
32	0x3e400cfc	0.18754953
33	0x3e1041a0	0.14087534
34	0x3de4fda2	0.11181189
35	0xbe58da73	-0.21177082
36	0x3e860a12	0.26179558
37	0x3ec4fb20	0.38472843
38	0x3eef963a	0.467943
39	0xbf050ddd	-0.5197428
40	0xbe69aa5c	-0.22818893
41	0xbde89f8c	-0.11358556
42	0x3b08047f	0.0020754633
43	0x3e165d13	0.14683942
44	0xbf0bcabc	-0.54606223
45	0xbdd3df1c	-0.10345289
46	0xbecaae91	-0.3958631
47	0xbe79970c	-0.24374026
48	0x3eaddeb8	0.33958983
49	0x3eae442d	0.3403639
50	0x3d1405d5	0.036138374
51	0xbf0e8185	-0.5566638
52	0x3d8d08c4	0.068864375
53	0xbf02a054	-0.5102589
54	0xbf85cbc7	-1.0452813
55	0xbefd6e4d	-0.49498215
56	0xbe716cd3	-0.2357667
57	0x3e1f0a92	0.15531376
58	0x3ed9639e	0.42458814
59	0xbe549487	-0.20759784
60	0x3ca3a58a	0.019976396
61	0x3f02f860	0.5116024
62	0x3e80b94c	0.2514137
63	0x3cee5cf9	0.029097067
64	0xbe4806e3	-0.19533877
65	0x3d992f66	0.07479744
66	0xbedf4f32	-0.4361511
67	0x3f389b6f	0.7211217
68	0x3a40c3d2	0.0007353398
69	0xbf50f7b7	-0.8162798
70	0xbe4f93b8	-0.20271194
71	0x3f079f6b	0.5297763
72	0x3eaced84	0.3377496
73	0x3d427ebb	0.04748414
74	0x3e3dc2c0	0.18531322
75	0x3f058b72	0.521659
76	0xbeb36430	-0.35037374
77	0x3e89b096	0.26892537
78	0x3dcc6bc1	0.0998149
79	0x3dbd2f39	0.09237523
80	0x3f013d8f	0.50484556
81	0xbb2452f7	-0.0025073865
82	0x3df2b9c4	0.11851838
83	0x3d8b6df9	0.06808085
84	0x3d9a9d2d	0.0754951
85	0x3df37b59	0.11888761
86	0xbe95ed6d	-0.29282704
87	0x3e7b2549	0.24525942
88	0x3e90e93b	0.2830294
89	0x3ea2a61a	0.3176735
90	0xbe3e5bb8	-0.18589675
91	0xbee765a0	-0.4519472
92	0xbf427705	-0.7596286
93	0x3ebfce11	0.37461904
94	0xbedf3116	-0.43592137
95	0xbd75c004	-0.059997573
96	0x3e383062	0.17987207
97	0x3d2e4137	0.042542662
98	0x3f1d027d	0.6133192
99	0xbe7578ec	-0.2397191
100	0x3e732d8d	0.23747845
101	0x3ef26fbc	0.47350872
102	0x3e481a68	0.19541323
103	0x3e942500	0.2893448
104	0x3d8d4da5	0.06899575
105	0xbe20eaee	-0.15714619
106	0x3ec6936e	0.38784355
107	0x3f24b9dc	0.643461
108	0x3f9b8144	1.2148824
109	0x3d4b6a6f	0.04966205
110	0x3eb05420	0.34439182
111	0xbe711eb7	-0.23546873
112	0xbe2a1932	-0.16611174
113	0x3f2c0610	0.6719675
114	0x3e495a71	0.19663407
115	0xbdd048d6	-0.10170142
116	0xbdc63c8b	-0.096795164
117	0xbe8ff955	-0.28119913
118	0x3dc5d8d6	0.09660499
119	0x3e4b5eab	0.19860332
120	0x3e723e38	0.23656547
121	0x3ef34a6a	0.4751771
122	0xbd8fcea6	-0.07021837
123	0xbc906188	-0.017624632
124	0xbe0d8bcf	-0.13822864
125	0x3e81e308	0.25368524
126	0xbe0e0314	-0.13868362
127	0x3e063873	0.13107471
128	0xbeb13893	-0.34613475
129	0xbe97b518	-0.2963035
130	0x3e52b52a	0.20576921
131	0xbdecae12	-0.11556639
132	0x3ee49a68	0.44649053
133	0x3e2974e1	0.16548492
134	0xbf714576	-0.94246614
135	0xbe7b4ea9	-0.24541725
136	0x3e32bd7f	0.174551
137	0xbda0b088	-0.07846171
138	0xbe913e60	-0.283679
139	0x3edb22d7	0.42800018
140	0xbec9294c	-0.3928932
141	0x3e951019	0.29113844
142	0x3d195318	0.03743276
143	0x3ee6184e	0.44940418
144	0x3e830796	0.25591725
145	0xbd150888	-0.03638509
146	0x3cb2473c	0.021762483
147	0x3e810eed	0.252067
148	0x3f4cc204	0.79983544
149	0x3e336171	0.1751764
150	0x3e95afce	0.2923569
151	0x3f25f042	0.6481973
152	0x3ea2750d	0.31729928
153	0x3f4d43da	0.8018166
154	0x3d721316	0.059100233
155	0xbe33e877	-0.17569147
156	0xbe2b435f	-0.16724919
157	0xbe6e84f4	-0.23292905
158	0xbc264371	-0.010147915
159	0xbdf85f9e	-0.121276125
160	0xbd88a0f3	-0.066713236
161	0xbec00c51	-0.37509397
162	0x3ef93d14	0.4867941
163	0x3d999962	0.074999586
164	0xbe5b22af	-0.2139995
165	0xbf2eb253	-0.6824085
166	0x3a2ab2f0	0.0006511649
167	0x3e928ed2	0.28624588
168	0x3e07fa59	0.13279094
169	0x3e98c9ff	0.2984161
170	0xbe0a60a9	-0.13513435
171	0xbe19e895	-0.15030129
172	0x3f06061c	0.5235307
173	0x3e127260	0.14301443
174	0xbe962dfc	-0.29331958
175	0x3de54b3d	0.11195991
176	0xbf431dd1	-0.7621737
177	0x3a060d12	0.0005113642
178	0x3ebb49e0	0.365798
179	0x3dfca14f	0.12335455
180	0xbebfa28f	-0.3742871
181	0x3df2c050	0.11853087
182	0x3f4b44c3	0.794018
183	0x3ba00e4c	0.004884517
184	0xbd15f230	-0.03660792
185	0xbe14af4f	-0.1452
186	0xbe053dce	-0.13011858
187	0x3d532e69	0.051557932
188	0x3dec2e2d	0.11532245
189	0x3d068f7a	0.032851674
190	0x3e16d906	0.14731225
191	0x3f40553b	0.7513005
192	0x3d7105d6	0.058843456
193	0xbd447b1d	-0.047968972
194	0x3df1e418	0.118110836
195	0xbeedf4ed	-0.46475926
196	0x3d717c37	0.05895635
197	0x3f20694c	0.6266067
198	0xbeaed0c6	-0.34143656
199	0x3ec4e12c	0.38453043
200	0xbc9f13ac	-0.01941856
201	0x3e8d3344	0.27578175
202	0x3e8710e5	0.26380077
203	0xba308731	-0.0006734012
204	0x3e55fb12	0.20896557
205	0x3d5348ff	0.051583286
206	0x3e5f26ba	0.21792117
207	0x3e535fe1	0.20642044
208	0x3ddf8787	0.10914522
209	0x3df53365	0.11972693
210	0xbd957a53	-0.07298722
211	0x3cad2664	0.02113647
212	0xbe939dac	-0.28831232
213	0xbd46a813	-0.04850013
214	0x3f005a6c	0.5013797
215	0xbd1bd797	-0.0380474
216	0x3e9457e3	0.28973302
217	0x3dedbcd2	0.1160828
218	0x3ec0970b	0.37615237
219	0x3f0d60ba	0.5522572
220	0x3dc9b4ba	0.09848924
221	0xbf83a10f	-1.0283526
222	0xbd02ffac	-0.03198211
223	0xbe0b4944	-0.13602167
224	0xbeb62fbb	-0.3558329
225	0x3e69977a	0.2281169
226	0x3e410302	0.18848804
227	0x3f0ba96f	0.5455541
228	0x3e632553	0.22182207
229	0x3f12e10e	0.57374656
230	0x3f47e40a	0.78082335
231	0xbd939671	-0.07206429
232	0xbe482bda	-0.19547978
233	0x3e9c41ba	0.30518895
234	0xbe89af1f	-0.2689142
235	0xbe98cffd	-0.29846182
236	0xbeb8d3f4	-0.36099207
237	0x3e04d8eb	0.12973373
238	0xbe269fdc	-0.16271919
239	0x3df85f8a	0.12127598
240	0xbe999001	-0.2999268
241	0xbe69fea0	-0.22851038
242	0xbe3a6569	-0.18202747
243	0x3e0a1a93	0.134867
244	0xba9ed534	-0.0012117983
245	0xbda86593	-0.08222499
246	0x3e411650	0.18856168
247	0xbe04c340	-0.12965107
248	0xbd87ed87	-0.066371016
249	0xbe786e0e	-0.24260733
250	0x3e3b2145	0.1827441
251	0x3e9937e8	0.29925466
252	0xbdee9c9b	-0.11650964
253	0xbec3d2d2	-0.3824678
254	0x3ef9cdcf	0.48789832
255	0xbebe6006	-0.37182635

discrete_action_output_shape f4 [1, 7]
0	0x40400000	3.0
1	0x40400000	3.0
2	0x40400000	3.0
3	0x40400000	3.0
4	0x40400000	3.0
5	0x40400000	3.0
6	0x40400000	3.0
