ArmRobotOriginal/results/testDefault02/RobotAgent.onnx (onnx, 91978 bytes, 21 tensors)

145 f4 [13]
91.52209 52.894352 72.112076 139.84511 120.978745 119.92765 94.455795 0.22470856
0.19390318 0.25675103 0.22470856 0.193867 0.25675103
00000000: 4f0b b742 d193 5342 6239 9042 59d8 0b43
00000010: 1ef5 f142 f5da ef42 5ee9 bc42 001a 663e
00000020: 8e8e 463e df74 833e 001a 663e 1285 463e
00000030: df74 833e

action_model._discrete_distribution.branches.0.bias f4 [3]
0.0027819893 0.0039951643 -0.0074511045
00000000: 0952 363b dee9 823b 6528 f4bb

action_model._discrete_distribution.branches.0.weight f4 [3, 128]
0.010349002 0.011763696 0.014072417 0.0025036568 0.009675756 0.010706804 0.010466496 0.0056532705
0.0012938761 -0.03178017 -0.004755911 -0.0070798853 0.0005019756 0.0022005183 0.01912249 -0.0044671022
0.008309653 -0.0053192033 0.012777094 -0.0071703247 0.0077306926 -0.019748183 -0.010710944 -0.006756644
-0.00095293176 0.0044972417 0.006298791 -0.009979038 0.004703738 0.018652176 -0.0016883819 -0.003129248
0.020398023 0.004560732 -0.010237121 0.001775288 -0.028776484 -0.009010208 -0.00970029 0.016739424
0.0016285506 0.013765338 -0.008529287 -0.022373708 -0.0032815759 -0.016240695 -0.008267088 0.013668844
0.00585311 -0.014177787 0.0062207156 0.0108405305 -0.0010533632 -0.010300145 0.019920958 0.020559857
-0.011019963 0.0024977648 0.012099976 0.0062399427 0.02091522 -0.016256405 0.0081311995 -0.01089842
-0.020235663 0.017319616 -0.019504733 -0.010342039 0.0049610334 0.01229345 0.017873535 0.012731011
-0.0018300245 -0.0010876856 -0.019520609 -0.020653665 0.022928989 -0.009783372 -0.02482973 0.0013318621
-0.009534421 -0.005033829 -0.019382665 -0.0008851302 -0.00050582556 -0.0011446053 0.014520791 0.0026310126
-0.005480769 -0.00085034873 0.0071028466 0.008111321 -0.0068251365 0.015043086 -0.008322431 0.023762094
-0.008993777 -0.0044347765 0.0020286539 0.0011966171 -0.007883186 -0.008488929 0.007203119 0.004455586
0.003027846 -0.01077383 0.010695542 0.013954361 -0.004718776 0.0077723195 -0.027617149 -0.012652615
0.016465813 0.0119860815 0.009460184 0.0014672313 0.026857555 0.015132296 0.0015215958 0.03475436
-0.0074413395 -0.0026903853 0.022667043 -0.0083458545 -0.009774086 0.010401677 -0.011471295 -0.00021960068
0.004065629 -0.0045142593 -0.017653337 0.007232774 0.019070579 -0.0025086114 0.005757662 0.0056382073
-0.009788684 0.014854669 0.0069317333 0.010734135 0.003581805 0.006194055 0.0065259687 -0.010117561
-0.0060037943 -0.010072698 -0.013224532 0.0032786932 -0.02394256 -0.00762101 0.01063155 0.0046641296
0.0067642815 0.009620057 -0.012618313 0.009449663 0.008553725 0.00414081 -0.0095895305 0.0042726696
-0.017499093 0.003295086 0.012002489 0.010023286 -0.0115721915 -0.009683661 0.010100422 0.0023345493
-0.010386079 -0.00023028709 0.015261453 0.010063087 0.003535453 -0.0018067117 0.002795069 -0.017879367
0.008683821 0.0064606634 -0.0014162975 0.0065389676 0.0074717053 0.0041918834 0.0038112067 0.0034154234
-0.011786985 0.00513247 -0.006205318 -0.009819892 -0.004754396 0.0032594728 0.0072181425 -0.008615166
-0.0027062811 -0.010857115 0.03455537 0.009043899 -0.010902927 0.009046777 -0.002739494 -0.014359351
-0.0038246296 0.00091393583 0.0058818497 0.01573421 -0.008583065 -0.013634174 -0.017453087 0.004184869
-0.008997851 0.0082406085 0.013485271 -0.0021079625 0.003617782 0.015208941 0.003295156 0.0030144148
-0.007716713 0.0066464804 -0.0064077564 -0.0044684517 0.016042395 0.0016497563 0.009785619 0.0050272793
-0.00089625665 -0.0063764136 0.003294802 -0.0018260619 0.0030950888 0.008016921 -0.0120619405 -0.020425929
-0.009264101 0.0087088505 -0.014487142 0.01478965 -0.010512274 0.0051400247 0.023050357 0.014657575
-0.021481588 -0.0045593497 0.010230372 0.0028871794 -0.020394156 -0.0046701212 0.012765557 0.006273277
-0.0071293656 -0.0029352666 -0.012833437 -0.012650025 0.017128857 -0.005703989 -0.004120742 0.014466521
00000000: dc8e 293c 84bc 403c ff8f 663c 6414 243b
00000010: 1087 1e3c 976b 2f3c ab7b 2b3c 123f b93b
00000020: 4797 a93a ec2b 02bd 79d7 9bbb 62fe e7bb
00000030: 0397 033a 9236 103b c5a6 9c3c c560 92bb
00000040: 3625 083c b64c aebb 0457 513c 0bf5 eabb
00000050: c051 fd3b f1c6 a1bc f57c 2fbc d766 ddbb
00000060: 2bce 79ba 995d 933b 1766 ce3b 1e7f 23bc
00000070: d021 9a3b 73cc 983c b24c ddba 1214 4dbb
00000080: c119 a73c 3172 953b 99b9 27bc c8b0 e83a
00000090: a9bc ebbc 8d9f 13bc f7ed 1ebc 1e21 893c
000000a0: 1775 d53a 0388 613c 6cbe 0bbc 1149 b7bc
000000b0: b50f 57bb 350b 85bc ae72 07bc 49f3 5f3c
000000c0: 72cb bf3b f349 68bc 25d7 cb3b 7b9c 313c
000000d0: 0111 8aba f0c1 28bc 4731 a33c 256d a83c
000000e0: 138d 34bc 8ab1 233b fa3e 463c 6f78 cc3b
000000f0: 6556 ab3c 272c 85bc b938 053c 498f 32bc
00000100: 43c5 a5bc dee1 8d3c 64c8 9fbc a871 29bc
00000110: 2a90 a23b 776a 493c 856b 923c bb95 503c
00000120: 6fdd efba ac90 8eba afe9 9fbc e031 a9bc
00000130: 93d5 bb3c 704a 20bc b867 cbbc e091 ae3a
00000140: 4336 1cbc d1f2 a4bb 65c8 9ebc 1508 68ba
00000150: 6199 04ba 9506 96ba 9de8 6d3c 116d 2c3b
00000160: 0698 b3bb f0e9 5eba ffbe e83b 59e5 043c
00000170: 65a5 dfbb 4777 763c ce5a 08bc b9a8 c23c
00000180: a35a 13bc 9a51 91bb 2af3 043b cfd7 9c3a
00000190: 7b28 01bc 2615 0bbc 2408 ec3b 2a00 923b
000001a0: d46e 463b b884 30bc 5b3c 2f3c d5a0 643c
000001b0: f69f 9abb f1ae fe3b 5c3d e2bc ea4c 4fbc
000001c0: 50e3 863c 4561 443c e3fe 1a3c 1d50 c03a
000001d0: 6004 dc3c 73ed 773c 4870 c73a 965a 0e3d
000001e0: 7bd6 f3bb 2d51 30bb 3cb0 b93c 0dbd 08bc
000001f0: 7d23 20bc cc6b 2a3c 19f2 3bbc 9c44 66b9
00000200: f838 853b 5aec 93bb bb9d 90bc e800 ed3b
00000210: e739 9c3c 8467 24bb c5aa bc3b b6c0 b83b
00000220: b760 20bc ff60 733c 9823 e33b 3ade 2f3c
00000230: b7bc 6a3b 80f7 ca3b cbd7 d53b 20c4 25bc
00000240: 7abb c4bb f507 25bc b5ab 58bc 58df 563b
00000250: 3023 c4bc aab9 f9bb f42f 2e3c 8ed5 983b
00000260: e8a6 dd3b 729d 1d3c 0abd 4ebc c2d2 1a3c
00000270: ec24 0c3c a2af 873b 681d 1dbc c001 8c3b
00000280: 425a 8fbc 5ff2 573b 16a6 443c b538 243c
00000290: 4a99 3dbc 38a8 1ebc 3e7c 253c 3dff 183b
000002a0: 5f2a 2abc 3879 71b9 2c0b 7a3c a5df 243c
000002b0: 0fb3 673b 2fcf ecba 7a2d 373b c077 92bc
000002c0: 9646 0e3c f9b3 d33b 0fa3 b9ba d644 d63b
000002d0: 35d5 f43b 115c 893b 70c5 793b 4cd5 5f3b
000002e0: 331e 41bc 472e a83b fb55 cbbb 9de3 20bc
000002f0: c4ca 9bbb e19c 553b 2b86 ec3b a026 0dbc
00000300: dd5b 31bb 0ae2 31bc ef89 0d3d dd2c 143c
00000310: 31a2 32bc ef38 143c 1589 33bb 7c43 6bbc
00000320: a3a6 7abb 3295 6f3a 88bc c03b 08e5 803c
00000330: fc9f 0cbc df61 5fbc c7f9 8ebc 3a21 893b
00000340: b96b 13bc 9e03 073c 53f1 5c3c be25 0abb
00000350: 4f18 6d3b ec2e 793c 8bf3 573b 7d8d 453b
00000360: 7bdc fcbb b8ca d93b 28f8 d1bb 176c 92bb
00000370: 576b 833c a33c d83a dc53 203c e0bb a43b
00000380: c4f2 6aba 3cf1 d0bb 9bed 573b 7858 efba
00000390: f9d6 4a3b 6759 033c 729f 45bc 4754 a7bc
000003a0: 75c8 17bc 91af 0e3c 7a5b 6dbc 4a50 723c
000003b0: ac3b 2cbc a76d a83b 1ad4 bc3c 5326 703c
000003c0: 28fa afbc 9966 95bb 4a9d 273c d536 3d3b
000003d0: a511 a7bc d107 99bb a026 513c 1090 cd3b
000003e0: 749d e9bb 9a5d 40bb 5643 52bc 0d42 4fbc
000003f0: d151 8c3c 87e8 babb 4a07 87bb fd04 6d3c

action_model._discrete_distribution.branches.1.bias f4 [3]
0.013889086 -0.008418543 -0.0068794554
00000000: 0d8f 633c eeed 09bc 0e6d e1bb

action_model._discrete_distribution.branches.1.weight f4 [3, 128]
0.01700212 0.022245979 0.023889972 0.0067992825 0.010077171 0.003990803 -0.003321325 0.016656399
0.023122061 -0.017437734 0.015984342 0.0141198775 0.0009393144 -0.018286543 0.007370786 -0.0041984133
0.014464761 0.011039264 -0.004898901 -0.004187882 0.003664961 -0.010843125 0.012439211 0.008903311
0.005319695 0.0229358 -0.0037304135 0.0015126703 -0.0145507 0.017588573 0.012829148 -0.0010949776
0.018862212 0.007469265 0.02024629 -0.003958322 0.0090387855 -0.009549022 0.0075805257 -0.005272399
-0.0010767522 0.028551692 0.0073643676 -0.0039307657 0.01913963 -0.017777564 -0.010702081 0.014324427
-0.0034115468 0.0023843048 -0.0020623791 0.02241097 -0.021672118 -0.0044962848 0.010784527 0.01036685
0.01595376 0.002565603 -2.5752279e-05 0.006568073 -0.002934697 -0.0017433325 0.0043418957 -0.026806971
0.015659913 -0.0028462824 -0.02709202 0.012211074 0.0013592553 0.010751607 0.0085340915 -0.018966781
0.014197509 -0.0014717453 -0.014976061 -0.035528123 0.011166466 -0.0022526335 0.0034902946 0.0037982895
-0.0039027648 -0.024402432 -0.00024241576 0.011799704 -0.01672265 -0.0068162396 0.0068124915 0.04425047
-0.011481892 -0.008731209 -0.0056434018 0.008277567 -0.009957088 0.0048767487 -0.01014831 0.0065080905
0.025153058 -0.017683722 -0.0034653756 0.0001473955 0.01381279 0.0001633126 0.010552959 -0.020509746
0.02411732 0.00096851314 0.010535293 0.018029828 -0.027391456 -0.0009436848 -0.00013510558 -0.020881288
0.0030000154 0.0063683405 -0.005338108 -0.0015127996 4.3442004e-05 0.02507871 -0.008345777 -0.006858703
-0.0042839753 0.01248876 0.01989316 0.008779 -0.0021590819 0.014840644 -0.016630797 -0.004788635
0.0037620831 0.013920209 -0.0037476881 -0.010820218 -0.011971053 -0.0033050792 0.003933611 -0.009177592
0.01335661 0.00704447 0.014851848 -0.009066542 -0.014872885 0.027299134 -0.020335497 -0.0009154979
-0.00086178054 -0.004997556 0.008045352 -0.017591147 0.004713792 0.009803955 0.0116173215 0.02941076
0.008355759 0.0066114604 -0.012927833 -0.011791325 0.0014691524 0.009610269 0.017140057 0.0026214176
-0.008225766 0.035156168 -0.010035202 -0.01771256 0.017001411 -0.0038604767 -0.005808487 -0.005769378
0.007831862 -0.0076362523 -0.003970533 0.006920397 -0.0037723812 0.018359091 -0.007765386 0.006708716
-0.0009470118 0.007306664 -0.011115003 0.0049931295 0.0022810975 -0.0022129163 0.0026616873 0.008835778
0.0037229562 0.0036516169 -0.014430451 -0.0132559845 0.015189317 0.017849734 0.003140307 0.015027982
-0.008027619 0.024114387 -0.0085160555 -0.008915409 -0.01618269 0.00870061 -0.009598491 -0.0066000726
0.014657845 0.011295155 0.01510484 0.018311264 0.0027720195 -0.00403224 0.006771417 0.008652315
-0.0042970716 0.012998161 0.0091058025 -0.008812792 0.0036232208 -0.009680884 -0.012311698 -0.0036367835
0.032804266 -0.008669222 0.0073592383 -0.0055027963 0.0047463565 0.014227375 -0.015490457 -0.014895192
-0.008605687 -0.007847244 0.009656706 -0.0066210483 0.0021697888 0.005555126 0.009433146 0.007427376
-0.004078442 0.025953935 -0.0068194023 -0.0016992127 0.004359697 -0.0026277124 0.022401698 0.008632847
0.0019568324 -0.0036116224 -0.021482764 -0.0024464685 -0.0034642548 0.003889476 0.009615159 0.022048766
0.0047752787 0.008205202 -0.00042118272 0.0021992198 0.017754816 0.0026640673 0.013688909 0.038617242
00000000: 0848 8b3c 333d b63c e7b4 c33c 84cc de3b
00000010: b81a 253c 48c5 823b 96aa 59bb 0073 883c
00000020: 7a6a bd3c 94d9 8ebc 98f1 823c 0f57 673c
00000030: 533c 763a a9cd 95bc a286 f13b d892 89bb
00000040: 9bfd 6c3c 07de 343c f686 a0bb 803a 89bb
00000050: d82f 703b 5da7 31bc d5cd 4b3c 31df 113c
00000060: d650 ae3b dce3 bb3c f479 74bb cb44 c63a
00000070: 0f66 6ebc e915 903c 5931 523c 5a85 8fba
00000080: ed84 9a3c bcc0 f43b 8cdb a53c d0b4 81bb
00000090: 6a17 143c 8073 1cbc 0f66 f83b 17c4 acbb
000000a0: cf21 8dba 3de5 e93c cb50 f13b a7cd 80bb
000000b0: b7ca 9c3c 41a2 91bc c857 2fbc 00b1 6a3c
000000c0: 4294 5fbb ff41 1c3b fb28 07bb 3697 b73c
000000d0: ba89 b1bc 9255 93bb 96b1 303c b8d9 293c
000000e0: 76b1 823c ad23 283b 9906 d8b7 fd38 d73b
000000f0: 0c54 40bb 8880 e4ba 7646 8e3b 4b9a dbbc
00000100: 3849 803c b288 3abb 15f0 ddbc f510 483c
00000110: 0a29 b23a 8227 303c 93d2 0b3c 3960 9bbc
00000120: ab9c 683c 94e7 c0ba 275e 75bc f085 11bd
00000130: 8ef3 363c eba0 13bb 6dbd 643b b9ec 783b
00000140: 87c5 7fbb 9ce7 c7bc fc30 7eb9 8c53 413c
00000150: f0fd 88bc c35a dfbb 523b df3b fb3f 353d
00000160: 8c1e 3cbc 580d 0fbc 49ec b8bb a29e 073c
00000170: 0e23 23bc 22cd 9f3b 1945 26bc d241 d53b
00000180: c90d ce3c 74dd 90bc 5b1b 63bb 2e8e 1a39
00000190: 0a4f 623c e43e 2b39 51e6 2c3c 0e04 a8bc
000001a0: b091 c53c d1e3 7d3a 399c 2c3c 4ab3 933c
000001b0: 0c64 e0bc 9d61 77ba 21ab 0db9 3c0f abbc
000001c0: e89b 443b 83ad d03b 4ceb aebb 2249 c6ba
000001d0: 7f35 3638 de71 cd3c babc 08bc f9be e0bb
000001e0: 9760 8cbb a89d 4c3c fbf6 a23c cbd5 0f3c
000001f0: 627f 0dbb 2c26 733c 4f3d 88bc fbe9 9cbb
00000200: 488d 763b 9711 643c c69b 75bb 4947 31bc
00000210: 3c22 44bc 079a 58bb 85e5 803b 9c5d 16bc
00000220: afd5 5a3c 4cd5 e63b 2a55 733c d58b 14bc
00000230: 67ad 73bc 6fa2 df3c a196 a6bc 06fe 6fba
00000240: 1de9 61ba 8ac2 a3bb a7d0 033c 4f1b 90bc
00000250: 2776 9a3b c5a0 203c 9456 3e3c d6ee f03c
00000260: 98e6 083c f3a4 d83b 43cf 53bc 6730 41bc
00000270: 9390 c03a 6474 1d3c 4e69 8c3c 17cc 2b3b
00000280: 5dc5 06bc eaff 0f3d b06a 24bc ee19 91bc
00000290: 8b46 8b3c 0d00 7dbb 1f55 bebb 0d0d bdbb
000002a0: 3651 003c 8739 fabb 3f1b 82bb 7fc4 e23b
000002b0: 0e3a 77bb ce65 963c c774 febb cad4 db3b
000002c0: e340 78ba bd6c ef3b b41b 36bc 689d a33b
000002d0: 777e 153b 9306 11bb b46f 2e3b f0c3 103c
000002e0: d7fc 733b f74f 6f3b b36d 6cbc a12f 59bc
000002f0: 9ddc 783c 9b39 923c 9ccd 4d3b ed37 763c
00000300: 4686 03bc 898b c53c ed86 0bbc f011 12bc
00000310: 9091 84bc 018d 0e3c fd42 1dbc 6c45 d8bb
00000320: 7527 703c 500f 393c 4a7a 773c 8101 963c
00000330: c5aa 353b e120 84bb c3e2 dd3b 70c2 0d3c
00000340: 73ce 8cbb 3df6 543c 8130 153c 8763 10bc
00000350: 8f73 6d3b 929c 1ebc 01b7 49bc 1a57 6ebb
00000360: c45d 063d 5a09 0ebc c425 f13b cd50 b4bb
00000370: 5387 9b3b f019 693c b0cb 7dbc f70a 74bc
00000380: defe 0cbc ba91 00bc 2937 1e3c 61f5 d8bb
00000390: 0433 0e3b c607 b63b 7b8d 1a3c 5961 f33b
000003a0: 74a4 85bb 599d d43c 4b75 dfbb 1eb8 deba
000003b0: cadb 8e3b b335 2cbb c483 b73c c970 0d3c
000003c0: 333e 003b f8b0 6cbb 9ffc afbc ee54 20bb
000003d0: 8d08 63bb 94e6 7e3b e688 1d3c 9d9f b43c
000003e0: f179 9c3b 1d6f 063c 30d2 dcb9 c920 103b
000003f0: 8c72 913c a297 2e3b 7247 603c 1d2d 1e3d

action_model._discrete_distribution.branches.2.bias f4 [3]
0.00092167157 -0.011236037 0.009808649
00000000: 559c 713a 5b17 38bc 75b4 203c

action_model._discrete_distribution.branches.2.weight f4 [3, 128]
-0.014955481 -0.013749779 -0.0034330823 -0.017679606 -0.0024170228 -0.012339925 -0.013290329 -0.017459339
-0.00323362 -0.0038855649 -0.02618261 0.013181001 -0.024574447 0.004988407 0.008567722 0.027236775
0.00593894 -0.0044160057 0.011295019 0.019707767 -0.006434133 0.0032923166 0.006540307 0.005620156
0.018691618 -0.012721816 0.018658724 0.014430168 0.004154729 -0.023929657 -0.011095888 0.005120196
-0.006089163 0.01532525 0.024197735 0.005691911 0.0035242876 0.0044795317 0.0026059167 -0.01660133
0.011233391 -0.035802282 -0.0057098004 0.023907037 -0.0065354635 -0.0030316096 -0.0043373527 -0.007853492
-0.005288739 0.021796482 0.026510011 -0.0068140663 0.011054029 0.011860826 -0.02469724 0.0071650515
-0.010794725 -0.0011885603 0.002610558 0.016296871 -0.013891031 0.005777992 -0.0019002254 -0.025216991
-0.008133896 -0.002877666 0.0035349207 0.021760687 -0.01000127 0.0050833304 0.013834214 -0.019956486
-0.0042440854 -0.007536419 0.021371946 0.010610319 0.0129227135 0.010204386 0.020242276 -0.015706968
-0.030631637 -0.008164471 0.007811863 0.007223317 -0.0013225427 0.0011275476 -0.023163067 -0.0109139
0.016444147 0.014782582 9.119068e-05 0.0041056303 -0.016772907 -0.009972632 0.013166204 -0.007338747
-0.0056610573 0.007160596 -0.017365126 0.013360013 -0.0090628 -0.0072636525 -0.029389057 -0.010039961
0.007830145 0.006827637 -0.014691597 -0.0053876955 -0.004396222 0.0114411535 0.017294044 0.02269911
-0.013023155 0.00081777445 -0.0018162233 0.012628645 -0.0051564355 -0.0006243704 -0.00061853917 -0.0050511765
-0.018796833 -0.0073468755 0.012177507 0.002756873 0.015934803 -0.02456803 -0.012319055 0.020360246
0.026146006 0.004693303 -0.00632953 0.0037276563 -0.0071748784 -0.0024894653 0.005822117 0.01458238
0.004590352 0.0008580949 -0.0091169 0.00014446453 -0.0008454156 -0.011094546 -0.0008280296 -0.028917827
-0.016699865 -0.0037734006 0.0008762096 0.007352192 -0.018236607 0.0060282904 -0.0035344607 0.003080524
-0.008542629 0.0021044984 -0.030863235 -0.003217309 -0.007961411 0.03163405 0.011669371 -0.029739657
0.010316085 -0.016547285 -0.010466625 0.0017403547 0.008515124 -0.011986628 0.019568292 0.012658658
-0.014480583 0.035142615 -0.028598024 -0.034666758 0.009495214 -0.0014414358 -0.031326957 -0.007113747
-0.003699372 -0.01539902 -0.0072745727 0.01044036 -0.00015395245 -0.00020019563 -0.012846754 -0.009365117
0.013092915 0.0013669467 -0.0015456505 -0.014604786 0.0111282505 -0.0034103822 0.0018390331 0.024442228
-0.030004714 -0.006158439 -0.014260995 -0.008016989 -0.0002687308 -0.025461197 0.0036246777 -0.0048207114
-0.013567327 0.020002756 0.0053285803 -0.030100439 0.008098593 0.0060613113 -0.0068303267 -0.011609889
0.0046109147 0.0036156203 0.0032133632 0.008163328 0.016573105 -0.006078065 -0.0019608631 6.926299e-05
0.0017581444 0.014898778 0.019832944 -0.024277557 0.011988826 -0.006450833 -0.018443625 -0.0050941515
-0.002760445 0.017977715 0.016015176 -0.007819387 0.011988843 0.008882168 0.007507476 0.009808551
-0.008934738 -0.0025194609 0.004694687 -0.019108808 0.0024638143 -0.0032249687 0.002005335 -0.00031663955
0.0082512945 -0.002516965 0.0006064932 -0.015340822 0.01029469 0.025785828 0.013390224 0.02067204
0.013278243 -0.006784565 0.009115029 -0.007576421 -0.00090846355 0.0044857557 0.01358427 -0.032845393
00000000: d507 75bc c146 61bc 90fd 60bb d2d4 90bc
00000010: ea66 1ebb 662d 4abc aebf 59bc e306 8fbc
00000020: 24eb 53bb f6a4 7ebb ea7c d6bc 20f5 573c
00000030: 5a50 c9bc ca75 a33b a15f 0c3c a81f df3c
00000040: 719b c23b 24b4 90bb be0e 393c 2f72 a13c
00000050: 6bd5 d2bb e8c3 573b 1250 d63b 4929 b83b
00000060: 2a1f 993c 2a6f 50bc 2eda 983c 836c 6c3c
00000070: 6524 883b 2108 c4bc 87cb 35bc 51c7 a73b
00000080: 9a87 c7bb c216 7b3c 543a c63c 3683 ba3b
00000090: bcf7 663b 09c9 923b 07c8 2a3b 83ff 87bc
000000a0: 420c 383c 6aa5 12bd 4719 bbbb b1d8 c33c
000000b0: 7127 d6bb f8ad 46bb 5a20 8ebb efab 00bc
000000c0: 294d adbb 898e b23c 862b d93c 8848 dfbb
000000d0: f51b 353c e953 423c de51 cabc cfc8 ea3b
000000e0: 5cdc 30bc 77c9 9bba e515 2b3b 0481 853c
000000f0: 3597 63bc 4f55 bd3b fc10 f9ba dd93 cebc
00000100: 0844 05bc 3997 3cbb 21aa 673b 7843 b23c
00000110: 5edc 23bc 1192 a63b e6a8 623c c97b a3bc
00000120: f811 8bbb 11f4 f6bb 3814 af3c e7d6 2d3c
00000130: cab9 533c 4c30 273c 21d3 a53c e6ab 80bc
00000140: 33ef fabc 46c4 05bc a8fa ff3b 93b1 ec3b
00000150: 2b59 adba 38ca 933a 79c0 bdbc 37d0 32bc
00000160: e0b5 863c a532 723c a03d bf38 8688 863b
00000170: 5667 89bc 4064 23bc 10b7 573c df79 f0bb
00000180: 6480 b9bb 6fa3 ea3b 4f41 8ebc f5e3 5a3c
00000190: 237c 14bc ef03 eebb 52c1 f0bc a67e 24bc
000001a0: 024a 003c 5fba df3b 06b5 70bc 448b b0bb
000001b0: 2f0e 90bb ad73 3b3c 3dac 8d3c 7cf3 b93c
000001c0: 125f 55bc ea5f 563a 570e eeba 60e8 4e3c
000001d0: 51f7 a8bb caac 23ba 7625 22ba 5784 a5bb
000001e0: d1fb 99bc 0fbe f0bb 2b84 473c a7ac 343b
000001f0: b489 823c e542 c9bc ddd5 49bc 88ca a63c
00000200: 2630 d63c 47ca 993b f267 cfbb b24b 743b
00000210: 3e1b ebbb 4c26 23bb 75c7 be3b efea 6e3c
00000220: aa6a 963b c6f1 603a 0d5f 15bc 677b 1739
00000230: e19e 5dba e6c5 35bc 2010 59ba 14e5 ecbc
00000240: 28ce 88bc 284b 77bb 6eb1 653a a8ea f03b
00000250: f064 95bc f788 c53b 69a2 67bb 9ee2 493b
00000260: 62f6 0bbc a0eb 093b e5d4 fcbc 7dd9 52bb
00000270: 9470 02bc b592 013d e430 3f3c 95a0 f3bc
00000280: cc04 293c 2c8e 87bc 357c 2bbc 9d1c e43a
00000290: 0583 0b3c 9063 44bc af4d a03c 4366 4f3c
000002a0: f83f 6dbc b4f1 0f3d 6746 eabc bbfe 0dbd
000002b0: d091 1b3c 8fee bcba b250 00bd 6f1a e9bb
000002c0: 2a71 72bb 2c4c 7cbc 8a5f eebb 0b0e 2b3c
000002d0: 4c6e 21b9 9beb 51b9 317b 52bc 2670 19bc
000002e0: aa83 563c 1f2b b33a 6d97 caba ea48 6fbc
000002f0: 4453 363c b880 5fbb b60b f13a 113b c83c
00000300: 72cc f5bc bbcc c9bb f3a6 69bc b059 03bc
00000310: 70e4 8cb9 0094 d0bc 008c 6d3b 0ff7 9dbb
00000320: 7e49 5ebc d2dc a33c 5f9b ae3b 3295 f6bc
00000330: f6af 043c f79d c63b efd0 dfbb 6737 3ebc
00000340: 2817 973b 0bf4 6c3b 4a97 523b 7bbf 053c
00000350: 52c4 873c 812a c7bb d381 00bb 4941 9138
00000360: 8971 e63a 011a 743c b378 a23c bae1 c6bc
00000370: c86c 443c 8261 d3bb 1617 97bc d7ec a6bb
00000380: 95e8 34bb 0046 933c 4232 833c e31c 00bc
00000390: da6c 443c 8386 113c 4601 f63b 0bb4 203c
000003a0: 0263 12bc 8a1d 25bb e4d5 993b 138a 9cbc
000003b0: f277 213b ff59 53bb f06b 033b a402 a6b9
000003c0: 7030 073c aaf3 24bb 12fd 1e3a 1258 7bbc
000003d0: 0fab 283c cd3c d33c ac62 5b3c 6958 a93c
000003e0: fd8c 593c 0e51 debb 3457 153c a043 f8bb
000003f0: f525 6eba 3ffd 923b 8f90 5e3c e488 06bd

action_model._discrete_distribution.branches.3.bias f4 [3]
-0.0019258327 0.003591216 -0.0023254694
00000000: 396c fcba 9b5a 6b3b e766 18bb

action_model._discrete_distribution.branches.3.weight f4 [3, 128]
-0.0004064342 -0.017204309 -0.007890191 0.009618948 0.011513658 -0.028369028 0.008006927 0.015081445
0.008232226 0.001916844 0.0117649 -0.017910505 -0.009144046 -0.0022088133 0.012127704 -0.020147644
-0.008158311 -0.0146063175 0.0045889337 0.01664513 -0.025622139 -0.0011513748 -0.013350708 -0.008489649
-0.0075253053 -0.012091355 0.0016944845 -0.0143069215 -0.0012635806 0.00028104355 -0.0043867677 0.011029654
-0.011564575 -0.013806373 0.00061055686 0.0010908446 0.013954381 -0.0019219554 -0.006229518 0.0027776847
-0.0057338323 0.014454447 -0.020725 -0.02219608 -0.0058891135 0.00035420974 -0.012648453 -0.007136081
0.0076741884 0.015412055 0.01115187 -0.0058628437 -0.01632243 0.016905868 -0.011949836 -0.00056584156
0.0068640867 0.010013732 -0.0034934538 -0.020404276 -0.010128911 -0.018605946 -0.014971671 0.004296197
-0.013792158 0.007170087 -0.003526916 0.0026527555 0.0048664245 0.002085104 0.020994328 -0.009516272
-0.020011064 0.0010933458 0.021297496 0.009919927 0.008386054 0.0001540201 0.004738169 -0.0074496996
-0.01984755 0.022660198 0.015774531 0.017025245 -0.0009912313 0.0041118353 -0.0075839316 -0.017529353
-0.012108527 0.007935401 0.009472474 -0.031702567 0.013187961 -0.02638981 -0.024174737 0.008649765
-0.011585385 -0.006121189 0.00086619856 -0.013827263 -0.013674112 0.0012912679 -0.005287325 -0.0072701024
-0.021298641 -0.003529906 -0.0027944439 -0.014793795 0.005554346 -0.03228217 0.01965081 0.0074928
-0.021557853 0.013462436 0.023373421 -0.02304975 -0.00803154 -0.0076412754 0.01764057 -0.0073778355
0.004013881 0.006724182 -0.0037211091 0.005127555 0.019247748 -0.010913981 -0.012889016 -0.010838232
-0.0029339462 -0.0101807695 -0.018375667 0.012767984 -0.0067990846 0.006673278 -0.002096762 -0.026037076
0.0092712995 0.012282954 0.016115937 -0.0097751245 -0.016167214 0.0016919797 -0.01343983 0.0048043784
0.010315593 0.0014196446 0.001052141 -0.031481374 -0.01907483 0.010934026 0.023603575 0.00079675944
0.013829516 0.013923651 -0.007503378 -0.00902084 0.010287121 -0.011421462 -0.019188173 0.021624582
-0.009993705 0.023019202 -0.011330768 0.0126472525 0.007613235 -0.007442966 -0.019839954 0.008101678
-0.008722663 -0.008878312 0.012252328 0.015181749 0.008892248 0.013287039 0.012743214 -0.015785197
-0.016425548 0.013519885 -0.011707914 0.0013981378 -0.0059787417 -0.008008684 -0.0010541759 0.012494309
-0.0076717176 -0.0012745454 -0.009759957 -0.006846254 -0.014952585 0.012547552 -0.006836762 -0.018387595
0.018007036 -0.002007681 -0.02106684 -8.335878e-05 -0.0075572245 -0.0002283597 -0.019264586 0.0006190252
0.018103622 0.020272147 0.010472191 0.004942281 -0.0077930796 -0.008738969 -0.018200383 0.0047047543
-0.019260816 -0.021269172 0.010066507 -0.028280674 -0.009280119 0.014247429 -0.018440468 -0.0018458004
0.008461569 -0.032092538 -0.021668032 0.01513972 -0.017330244 0.0076946104 0.00665086 -0.006488011
0.013430855 -0.021267649 0.003271303 -0.0015779842 0.0081066685 0.004921802 -0.0011256977 -0.00013852898
0.00648921 -0.009652372 -0.01979308 0.011065896 0.004316822 -0.011339421 -0.017964406 0.008347454
0.020314738 -0.016704142 -0.0035177013 -0.0018349016 -0.0015914511 -0.0034814673 -0.014775114 -0.0054872236
0.0021935718 -0.003371145 0.0023264054 -0.0075414237 0.014930877 -0.0019468974 -0.010512656 0.038389403
00000000: ad16 d5b9 0df0 8cbc dc45 01bc cb98 1d3c
00000010: c8a3 3c3c 2a66 e8bc 7c2f 033c 2a18 773c
00000020: 75e0 063c 9d3e fb3a 91c1 403c 0db9 92bc
00000030: e9d0 15bc bdc1 10bb 47b3 463c ac0c a5bc
00000040: 70aa 05bc 564f 6fbc c45e 963b 5e5b 883c
00000050: 85e5 d1bc bae9 96ba eebc 5abc 2b18 0bbc
00000060: d696 f6bb d21a 46bc 7719 de3a 9467 6abc
00000070: bb9e a5ba 0759 9339 e0be 8fbb b9b5 343c
00000080: 5879 3dbc 2034 62bc c70d 203a acfa 8e3a
00000090: eba0 643c 1fea fbba fc20 ccbb d109 363b
000000a0: dfe2 bbbb 58d2 6c3c 7ac7 a9bc 8ed4 b5bc
000000b0: 77f9 c0bb 3ab5 b939 753b 4fbc c9d5 e9bb
000000c0: c277 fb3b d882 7c3c 55b6 363c 191d c0bb
000000d0: 9eb6 85bc 2d7e 8a3c 3fc9 43bc fc54 14ba
000000e0: 22ec e03b a310 243c 6ef2 64bb de26 a7bc
000000f0: bbf3 25bc 7f6b 98bc bd4b 75bc 1dc7 8c3b
00000100: 81f8 61bc 0df3 ea3b d523 67bb dad9 2d3b
00000110: 8776 9f3b 3da6 083b 4cfc ab3c 23ea 1bbc
00000120: 3eee a3bc 994e 8f3a 1678 ae3c 3187 223c
00000130: a965 093c 7580 2139 a442 9b3b 9c1c f4bb
00000140: 5497 a2bc e1a1 b93c 9739 813c 8778 8b3c
00000150: 34ec 81ba 93bc 863b a182 f8bb b899 8fbc
00000160: d862 46bc 7c03 023c 7032 1b3c 8dda 01bd
00000170: 5112 583c 712f d8bc 190a c6bc beb7 0d3c
00000180: a0d0 3dbc 4194 c8bb 9a11 633a bf8b 62bc
00000190: 6209 60bc c33f a93a 4c41 adbb 0a3a eebb
000001a0: 7d7a aebc ff55 67bb fd22 37bb ac61 72bc
000001b0: 3b01 b63b 4f3a 04bd bcfa a03c 2986 f53b
000001c0: 189a b0bc 8d91 5c3c 9e79 bf3c d4d2 bcbc
000001d0: b896 03bc aa63 fabb f582 903c c5c1 f1bb
000001e0: e086 833b 8756 dc3b dadd 73bb 0d05 a83b
000001f0: 74ad 9d3c 8ed0 32bc 742c 53bc d792 31bc
00000200: 7347 40bb 3ecd 26bc 9188 96bc ce30 513c
00000210: dbca debb 83ab da3b d469 09bb b54b d5bc
00000220: a6e6 173c 713e 493c 9205 843c d827 20bc
00000230: 1b71 84bc 6bc5 dd3a bc32 5cbc 0c6e 9d3b
00000240: bc02 293c 5e13 ba3a fee7 893a 9df2 00bd
00000250: d142 9cbc a124 333c 495c c13c 9fdd 503a
00000260: 3295 623c 0620 643c e6de f5bb 25cc 13bc
00000270: 508b 283c 1521 3bbc 8430 9dbc 0926 b13c
00000280: a3bc 23bc c492 bc3c afa4 39bc 6c36 4f3c
00000290: 7278 f93b 20e4 f3bb 6687 a2bc e7bc 043c
000002a0: 80e9 0ebc 5776 11bc fdbd 483c dfbc 783c
000002b0: cbb0 113c e1b1 593c eac8 503c f54f 81bc
000002c0: df8e 86bc 8282 5d3c 8dd2 3fbc b841 b73a
000002d0: 52e9 c3bb db36 03bc 462c 8aba eeb4 4c3c
000002e0: 0863 fbbb a60e a7ba 3ae8 1fbc 8b56 e0bb
000002f0: b0fb 74bc 3f94 4d3c eb06 e0bb 95a1 96bc
00000300: 7e83 933c 4c93 03bb 5e94 acbc e7d0 aeb8
00000310: 98a2 f7bb d773 6fb9 c4d0 9dbc 1446 223a
00000320: 0c4e 943c c611 a63c 8d93 2b3c dcf2 a13b
00000330: 175d ffbb e52d 0fbc f818 95bc 572a 9a3b
00000340: dcc8 9dbc b03c aebc feed 243c dfac e7bc
00000350: a40b 18bc 0c6e 693c 7710 97bc c9ee f1ba
00000360: 65a2 0a3c 7773 03bd 2881 b1bc 970c 783c
00000370: 28f8 8dbc 1223 fc3b 75ef d93b 6299 d4bb
00000380: 170d 5c3c 7e39 aebc 5b63 563b 5dd4 ceba
00000390: d5d1 043c 1147 a13b 268c 93ba 1742 11b9
000003a0: 70a3 d43b fc24 1ebc 1925 a2bc bb4d 353c
000003b0: 2174 8d3b fbc8 39bc 172a 93bc c2c3 083c
000003c0: 186b a63c 20d7 88bc 3c89 66bb 1581 f0ba
000003d0: 3d98 d0ba 5429 64bb 5213 72bc 2bce b3bb
000003e0: 07c2 0f3b 6eee 5cbb 9b76 183b 0c1e f7bb
000003f0: a3a0 743c 092f ffba 463d 2cbc 353e 1d3d

action_model._discrete_distribution.branches.4.bias f4 [3]
0.007976383 0.0015924255 -0.011035626
00000000: 60af 023c efb8 d03a c5ce 34bc

action_model._discrete_distribution.branches.4.weight f4 [3, 128]
-0.01068141 0.0027470742 0.0033120406 0.0043160063 -0.00044627272 0.013215384 0.015116846 -0.018714238
-0.011132314 0.011049258 0.019216808 0.012789517 -0.009788025 0.009879853 -0.00033179228 -0.008695781
0.008587119 -0.010563426 -0.004219756 -0.01346118 0.0012105985 0.0075437445 0.010790151 0.008066487
0.040812295 0.0073008095 -0.01147103 -0.018174501 0.0010692565 0.0048555937 -0.0151056 -0.012901169
-0.016673781 0.011404715 -0.0012143521 0.003988549 0.014557662 -0.0063811434 0.0007406346 -0.018705152
-0.0018267126 -0.015534767 0.017694928 -0.0014710405 -0.024774278 0.0024583568 -0.0075332196 -0.015278684
-0.020499142 0.014671862 -0.0134552065 -0.0019305957 0.010450089 0.010214146 -0.0069900225 -0.019613124
0.00074572786 0.0048315446 0.00039369467 0.0109434575 0.010033006 0.011211994 -1.8823273e-06 0.003252759
0.007355234 -0.009876946 0.008111273 0.00355639 -0.01190334 0.019574001 3.1985663e-05 -0.014819007
0.00620083 0.020186407 -0.007763466 0.009172133 0.0039869593 -0.030683748 -0.007641564 -0.013058736
-0.022773482 0.0002057508 0.027252914 0.005571755 -0.012885797 0.01302691 -0.011578924 0.0010837557
0.026292462 0.0023599202 0.008662784 0.009479744 0.006830017 -0.007781348 0.015514296 -0.0044379537
0.01736189 0.012635638 0.0044216714 -0.0025653352 0.012236217 -0.025556542 -0.010373282 -0.009764889
0.0109693855 0.0033954817 0.011053388 0.0064488016 -0.009843249 0.017439703 0.0148282405 0.011795114
-0.00063876936 -0.008523493 -0.008210613 0.0061840885 -0.010751133 -0.0047438317 0.011367292 -0.018257488
-0.013458891 -0.0048634093 0.003992105 0.009171022 0.018715316 -0.010798522 -0.0031020779 0.010035263
0.0032719802 0.010050606 -0.00152812 -0.0030350832 -0.003783961 -0.024812914 -0.012880741 -0.0015795944
-0.022728913 0.0075119417 -0.020387804 -0.007947054 -0.0028204848 0.019085044 0.015771385 0.009695945
-0.013749235 0.0017512138 0.019281091 -0.0009425686 0.007419373 0.019519731 0.010057762 0.013330447
-0.0076081264 -0.005060734 0.010706856 0.01832178 -0.009767965 0.0012047379 -0.007204426 0.0011280667
0.0054065315 -0.0018073649 0.02332583 -0.00820047 -0.008935983 -0.020670053 0.015372681 0.000478442
0.015706662 -0.011003637 -0.0038524633 0.0068009957 -0.00042117437 -0.007876367 -0.002077841 0.0054528303
0.00770994 0.0027290455 0.004432111 -0.011925873 -0.0017719886 0.00081860326 0.0030073745 -0.0042189206
0.0055105425 0.006612437 0.009639405 -0.0014382807 -0.008902062 -0.010578968 -0.0019942145 0.013228968
-0.0107747065 0.017407723 0.007746902 0.023342403 0.022716139 -0.0044360915 0.010660463 0.0027170186
-0.015478617 -0.0028204443 -0.0018856742 -0.0060317786 -0.0011378451 0.0026058748 -0.004585082 0.00040228246
-0.005759041 0.0015556011 -0.017708879 0.004474957 0.0158181 -0.009929215 -0.004674716 -0.0024990279
-0.01527734 -0.013376339 -0.0099104075 0.0017510318 0.0053481827 -0.00011887565 0.011836531 -0.010985771
-0.0025544176 0.00213574 0.005290998 -0.016801232 0.0011502451 0.009217242 0.0067332448 0.010574464
-0.012802635 0.014299246 -0.00089809473 -0.00484316 -0.013165734 0.010154143 0.0022874344 -0.016412687
-0.0034990674 -0.010011709 0.020883141 -0.020198226 -0.0004099372 0.012100625 -0.0013450241 0.010493569
0.033512324 -0.00722294 -0.0047105323 0.018287413 0.004399563 0.009716539 0.006468837 -0.002685777
00000000: 1501 2fbc 4208 343b d20e 593b 496d 8d3b
00000010: b6f9 e9b9 5785 583c a6ac 773c 9a4e 99bc
00000020: 4f64 36bc f207 353c 916c 9d3c 1f8b 513c
00000030: f45d 20bc 1bdf 213c 68f4 adb9 c078 0ebc
00000040: fdb0 0c3c 3812 2dbc e145 8abb 488c 5cbc
00000050: f2ac 9e3a 8431 f73b 2cc9 303c 4c29 043c
00000060: cb2a 273d a13b ef3b fdf0 3bbc b1e2 94bc
00000070: 4b26 8c3a ac1b 9f3b 7a7d 77bc 6d5f 53bc
00000080: 7497 88bc d7da 3a3c e52a 9fba 60b2 823b
00000090: 4383 6e3c e918 d1bb 2627 423a 8c3b 99bc
000000a0: 4e6e efba 8985 7ebc f4f4 903c eecf c0ba
000000b0: 6df3 cabc 621c 213b 3ad9 f6bb 7253 7abc
000000c0: d1ed a7bc 4062 703c 3a73 5cbc 0b0c fdba
000000d0: da36 2b3c 3c59 273c 8f0c e5bb b4ab a0bc
000000e0: f37c 433a ef51 9e3b ce68 ce39 304c 333c
000000f0: 7a61 243c 83b2 373c 46a4 fcb5 3e2c 553b
00000100: 2d04 f13b ead2 21bc 25e5 043c 5312 693b
00000110: 3a06 43bc a859 a03c 5828 0638 6ccb 72bc
00000120: 5530 cb3b f75d a53c ac64 febb b746 163c
00000130: 0aa5 823b 7c5c fbbc 1666 fabb 4ff4 55bc
00000140: 748f babc cfbe 5739 8141 df3c 4593 b63b
00000150: f31e 53bc d26e 553c 87b5 3dbc cf0c 8e3a
00000160: 4a63 d73c e4a8 1a3b 59ee 0d3c ee50 1b3c
00000170: 56ce df3b aefa febb ac2f 7e3c 416c 91bb
00000180: 863a 8e3c b505 4f3c abe3 903b 2f1f 28bb
00000190: 6a7a 483c f45b d1bc b3f4 29bc eafc 1fbc
000001a0: f0b8 333c bb86 5e3b 4519 353c 7850 d33b
000001b0: 9445 21bc b5dd 8e3c 26f2 723c 4b40 413c
000001c0: 1673 27ba 1fa6 0bbc cf85 06bc e5a3 ca3b
000001d0: 8525 30bc 2572 9bbb e13d 3a3c ba90 95bc
000001e0: ae82 5cbc 3c5d 9fbb 34d0 823b 0e42 163c
000001f0: dd50 993c 49ec 30bc 3b4c 4bbb f26a 243c
00000200: b86e 563b 4cab 243c 334b c8ba 3fe8 46bb
00000210: 55fc 77bb 7444 cbbc be09 53bc 650a cfba
00000220: fc31 babc bc26 f63b 5304 a7bc 5c34 02bc
00000230: e2d7 38bb 3d58 9c3c fe32 813c bedb 1e3c
00000240: 7944 61bc fc88 e53a 61f3 9d3c b516 77ba
00000250: 361e f33b d8e7 9f3c 50c9 243c f267 5a3c
00000260: 974d f9bb 84d4 a5bb cf6b 2f3c 8f17 963c
00000270: d109 20bc 4ce8 9d3a 1b13 ecbb a3db 933a
00000280: 4629 b13b 1ae5 ecba d015 bf3c 445b 06bc
00000290: 3b68 12bc 3e54 a9bc b3dd 7b3c 66d7 fa39
000002a0: 42ab 803c 9948 34bc 9c79 7cbb e3da de3b
000002b0: 11d1 dcb9 e10b 01bc 632c 08bb a8ad b23b
000002c0: aaa3 fc3b c9d9 323b 3e3b 913b bd64 43bc
000002d0: 1242 e8ba 8997 563a 5f17 453b df3e 8abb
000002e0: c891 b43b 24ad d83b 98ee 1d3c b184 bcba
000002f0: f4d9 11bc 6853 2dbc 5eb1 02bb 50be 583c
00000300: 6588 30bc a49a 8e3c b9d9 fd3b 9138 bf3c
00000310: 3217 ba3c a25c 91bb 39a9 2e3c 0210 323b
00000320: 069a 7dbc 34d7 38bb ba28 f7ba 3aa6 c5bb
00000330: bf23 95ba 53c7 2a3b 753e 96bb 70e9 d239
00000340: 56b6 bcbb 50e5 cb3a 3612 91bc a9a2 923b
00000350: f694 813c 25ae 22bc 5c2e 99bb bbc6 23bb
00000360: cf4d 7abc 6f28 5bbc 435f 22bc e182 e53a
00000370: cf3f af3b e14c f9b8 02ee 413c aafd 33bc
00000380: 0468 27bb c5f7 0b3b 1c60 ad3b bda2 89bc
00000390: d2c3 963a ea03 173c 8da2 dc3b 8440 2d3c
000003a0: 25c2 51bc 6247 6a3c 1e6e 6bba 5fb3 9ebb
000003b0: 17b5 57bc 905d 263c c8e8 153b e673 86bc
000003c0: 9c50 65bb 2708 24bc 1f13 ab3c c076 a5bc
000003d0: d7ec d6b9 b341 463c 854b b0ba 38ed 2b3c
000003e0: 3844 093d 6aae ecbb cf5a 9abb 7ccf 953c
000003f0: 362a 903b 1e32 1f3c 8af8 d33b dc03 30bb

action_model._discrete_distribution.branches.5.bias f4 [3]
0.015549629 -0.009143074 -0.007672258
00000000: dfc3 7e3c d5cc 15bc 9167 fbbb

action_model._discrete_distribution.branches.5.weight f4 [3, 128]
-0.01131591 -0.006235751 0.013318493 0.0061619 0.009057048 0.006266503 -0.013342048 0.006067727
0.00068403 -0.011940359 -0.0032346037 -0.0073438236 0.005404471 0.008278171 0.01759647 -0.0036737677
0.011406339 -0.012751765 -0.012883741 0.011901761 -0.0021657431 0.005566809 -0.009417542 -0.003074779
-0.0034888505 -0.021077706 0.01737784 0.0042576515 -0.021340746 -0.009016991 -0.0075175394 0.005837566
0.006665183 -0.0035804424 0.0063159913 0.003162578 0.009189423 0.018254781 0.016273368 -0.0045730486
0.005781516 -0.013701544 0.0038877737 0.00018464922 0.009978984 0.015136658 -0.0010535002 0.0019790048
0.02243082 0.018266257 0.005108484 -0.016481414 0.00092361274 0.0007772927 0.0066710087 0.019141901
0.0015762444 0.012652037 0.013266361 0.02974253 -0.004451112 -0.017806929 0.0059719244 0.001549631
0.0030472314 -0.018598905 -0.005126652 0.011964113 -0.0057440377 0.011080411 0.008551489 0.0150945615
0.007483633 -0.007623673 -0.007807418 0.017372994 0.019810434 0.004661269 0.019990318 0.009336292
-0.0037248023 0.0052630287 0.0071122306 0.012928862 -0.0026919902 0.0046868753 0.0045902184 0.02225593
-0.0045873644 -0.015098139 -0.009381712 0.012488319 0.019870596 0.008608662 0.008274921 -0.007500247
0.0055073206 0.016686436 -0.018019147 0.0063536703 -0.0064614527 0.007181068 0.005750029 0.028151343
-0.0010909275 0.0052697835 0.016434027 0.0014360789 -0.008580639 0.021871831 0.005540448 0.010864527
0.005023103 0.007028277 -0.0046103513 0.017695816 0.009003063 0.0012193173 0.0036266772 -0.0036103735
0.007846491 -0.006422342 0.0004284544 -0.0023015395 0.019480506 0.010962813 0.0031029445 -0.008478886
-0.021602204 -0.01099107 -0.02304942 -0.012341785 0.006991142 -0.023013106 0.014219408 -0.01787548
0.005915023 0.014620913 -0.012386646 0.034367222 0.003351934 -0.008116908 -0.014119501 0.01217163
0.010620232 0.0029250178 0.0091627035 -0.0046902513 0.008673997 0.007390358 0.023145419 -0.0061807036
-0.0047409134 0.017594472 0.022163238 -0.014894884 0.0011336965 0.03158087 -0.009511588 -0.002497631
-0.0005107821 -0.008068134 -0.005123358 0.00070064847 -0.01019882 0.00070896436 -0.025163475 -0.0017689712
-0.0031219337 -0.019905262 0.010027137 -0.017945368 0.0052756714 0.022102626 -0.0036328626 -0.008708723
-0.010574544 -0.008572662 0.00036168325 0.008792733 0.0024379147 0.0007205314 -0.01821914 0.005758205
0.011806621 -0.01251981 -0.013313826 0.009712059 0.019981522 0.012234651 -0.010392232 -0.011162429
0.013378335 0.008958858 0.015225069 -0.023603879 -0.021097945 0.0044861482 -0.021324117 0.022640018
0.0066043306 -0.00063903705 -0.0012400168 0.005959524 -0.013089602 -0.001170373 -0.016774792 -0.020519312
0.027664918 -0.008453874 -0.0044738026 -0.008203434 -0.013912558 -0.003954476 -0.0020959089 -0.0313927
0.002230117 -0.007125839 0.0073747383 -0.015783226 0.000543365 0.0060223015 0.003940923 0.01737364
-0.009108365 -0.002136348 -0.019326689 -0.004366254 0.0016555509 -0.007874896 -0.010387022 0.0061970674
-0.0058787432 0.0074062184 -0.01826353 0.006135865 0.022245003 -0.0020731732 -0.012323245 0.0025691583
-0.016853241 -0.012271469 -0.00897046 0.0067866053 -0.0026372536 -0.016315142 -0.01054164 -0.0076843086
-0.012123701 0.010306291 -0.022872265 -0.003863844 0.010221208 -0.005251799 -0.012725199 0.005975929
00000000: 5e66 39bc 4555 ccbb cf35 5a3c c3e9 c93b
00000010: 0364 143c 3d57 cd3b 9b98 5abc c9d3 c63b
00000020: 7a50 333a 7fa1 43bc a5fb 53bb 75a4 f0bb
00000030: fd17 b13b 2aa1 073c 7926 903c 98c3 70bb
00000040: a7e1 3a3c c7ec 50bc 5416 53bc 9bff 423c
00000050: 24ef 0dbb c769 b63b 094c 1abc 3b82 49bb
00000060: 33a5 64bb 27ab acbc f95b 8e3c c583 8b3b
00000070: cad2 aebc 00bc 13bc b155 f6bb 0e49 bf3b
00000080: 9c67 da3b dba5 6abb 60f6 ce3b 4143 4f3b
00000090: 3c8f 163c 0d8b 953c ba4f 853c 83d9 95bb
000000a0: df72 bd3b 717c 60bc 05ca 7e3b 669e 4139
000000b0: e47e 233c bfff 773c 9a15 8aba 31b2 013b
000000c0: d7c0 b73c 1ea3 953c 1265 a73b 0804 87bc
000000d0: 9a1e 723a 3bc3 4b3a 7a98 da3b 7acf 9c3c
000000e0: fc99 ce3a 7d4a 4f3c 275b 593c 9ba6 f33c
000000f0: a2da 91bb d6df 91bc 22b0 c33b fd1c cb3a
00000100: 0fb4 473b bb5c 98bc 79fd a7bb 2105 443c
00000110: 7b38 bcbb 9d8a 353c 8b1b 0c3c 2e4f 773c
00000120: 4339 f53b 01d0 f9bb 5ed5 ffbb cf51 8e3c
00000130: 7e49 a23c 8fbd 983b bcc2 a33c 3ff7 183c
00000140: d01b 74bb 7c75 ac3b b70d e93b 94d3 533c
00000150: 1a6c 30bb 5c94 993b 8b69 963b 1152 b63c
00000160: 9a51 96bb 2f5e 77bc c1b5 19bc ce9b 4c3c
00000170: a9c7 a23c 580b 0d3c 8993 073c a2c4 f5bb
00000180: c176 b43b feb1 883c e49c 93bc 7332 d03b
00000190: 98ba d3bb 2a4f eb3b bd6a bc3b a59d e63c
000001a0: 74fd 8eba 26ae ac3b a7a0 863c d03a bc3a
000001b0: cf95 0cbc 8e2c b33c a58c b53b 2101 323c
000001c0: d898 a43b 764d e63b 6e12 97bb d1f6 903c
000001d0: 9581 133c 80d1 9f3a 8cad 6d3b 049c 6cbb
000001e0: 928e 003c 8272 d2bb 2da2 e039 6dd5 16bb
000001f0: 9595 9f3c 5f9d 333c c55a 4b3b 07eb 0abc
00000200: 1bf7 b0bc e413 34bc 23d2 bcbc 3335 4abc
00000210: f315 e53b fb85 bcbc 85f8 683c 996f 92bc
00000220: cfd2 c13b 8e8c 6f3c 5cf1 4abc a5c4 0c3d
00000230: 1fac 5b3b c8fc 04bc 7b55 67bc 846b 473c
00000240: 7b00 2e3c a8b1 3f3b 2a1f 163c aeb0 99bb
00000250: 611d 0e3c d12a f23b 769b bd3c 8087 cabb
00000260: aa59 9bbb 4822 903c ae8f b53c ac09 74bc
00000270: 8b98 943a f15a 013d 7ed6 1bbc 4baf 23bb
00000280: 02e6 05ba 3530 04bc d8e1 a7bb b9ab 373a
00000290: f418 27bc cbd9 393a a223 cebc d3dc e7ba
000002a0: 5b99 4cbb 5c10 a3bc dc48 243c 2a02 93bc
000002b0: 8adf ac3b 9110 b53c 5215 6ebb 08af 0ebc
000002c0: da40 2dbc 5a74 0cbc 4ea0 bd39 650f 103c
000002d0: 6cc5 1f3b 0be2 3c3a 4e40 95bc 53af bc3b
000002e0: 8f70 413c e41f 4dbc 3c22 5abc 541f 1f3c
000002f0: 4ab0 a33c d873 483c 2e44 2abc 9fe2 36bc
00000300: ce30 5b3c 2dc8 123c 9172 793c ec5c c1bc
00000310: 99d5 acbc 8a00 933b eaaf aebc 8f77 b93c
00000320: 2469 d83b 0d85 27ba 0f88 a2ba 1c48 c33b
00000330: c575 56bc 3467 99ba 4a6b 89bc 1e18 a8bc
00000340: 8aa1 e23c 1e82 0abc fa98 92bb b267 06bc
00000350: 7ff1 63bc 8d94 81bb 845b 09bb a295 00bd
00000360: 2827 123b df7f e9bb caa7 f13b d34b 81bc
00000370: 9c70 0e3a ba56 c53b dc22 813b 2a53 8e3c
00000380: 403b 15bc f901 0cbb 0153 9ebc cb12 8fbb
00000390: 12ff d83a b505 01bc 542e 2abc c510 cb3b
000003a0: 79a2 c0bb ddaf f23b 669d 95bc 5e0f c93b
000003b0: 273b b63c 13de 07bb 70e7 49bc 535f 283b
000003c0: cf0f 8abc 460e 49bc d6f8 12bc 2c62 de3b
000003d0: c6d5 2cbb 55a7 85bc d8b6 2cbc a7cc fbbb
000003e0: 7da2 46bc b8db 283c 9e5e bbbc 8c38 7dbb
000003f0: db76 273c 4817 acbb 5a7d 50bc bad1 c33b

action_model._discrete_distribution.branches.6.bias f4 [3]
0.0055059628 -0.020888504 0.013088761
00000000: 5d6b b43b 5e1e abbc 3e72 563c

action_model._discrete_distribution.branches.6.weight f4 [3, 128]
0.006267021 -0.0018002948 0.0145008005 -0.018026318 0.01829689 0.0034886082 0.006733245 0.0058731176
-0.0039803525 -0.0030686446 -0.013766909 -0.008048394 0.013024591 -0.017742613 0.0012573759 -0.02401398
0.0071329726 0.0021343667 -0.017648315 -0.01547879 0.014605544 -0.00013025233 -0.017706389 -0.011390248
0.0012600237 -0.0026790898 0.006258769 0.0059196954 0.0062761246 -0.0050631748 -0.007288582 -0.0072758626
-0.0019168826 -0.012775727 -0.020607645 -0.003917187 -0.01307307 0.0041719377 0.0024229873 0.002858525
-0.009432185 0.0014662013 -0.0010444629 -0.007577306 -0.003659492 -0.011407816 0.027683238 -0.0040687397
-0.013692344 0.010499491 -0.00071700057 -0.0047831233 -0.00867059 0.02139485 0.0075250715 -0.012094514
0.0062611187 0.016165102 0.012609126 -0.0046110027 -0.0043533025 -0.012758834 0.010292535 -0.012641455
0.014660941 -0.019774156 -0.005874865 0.0011636014 0.0051416503 -0.0015577034 0.0054502147 -0.0050639114
0.00080558535 -0.0028126824 -0.008217334 -0.03071129 0.007634728 -0.0111251 -0.0114958 -0.02784134
0.012350353 0.010294457 0.015118139 0.010272653 -0.0034094444 -0.02011082 0.0049886736 0.025783112
-0.004030375 -0.006008992 -0.0067661577 0.025044246 -0.020248666 -0.005610288 0.0030575474 0.017651953
0.017040841 -0.0012134527 0.039472654 -0.0054672165 -0.0061642965 -0.017678246 -0.0040003583 -0.017919462
-0.0023355728 -0.0017896148 -0.006742059 -0.0044713677 -0.003656992 -0.008095148 -0.010007973 -0.009141313
0.0032737772 -0.012990189 0.009396771 -0.00017679669 0.0129612945 -0.007119561 -0.0053402227 -0.024650201
0.0005696031 0.008941334 0.0028506885 0.014126867 0.020468261 0.007783441 0.00090586767 0.0040659425
-0.0046885717 0.016581502 -0.003228271 0.025513018 -0.023471842 -0.0033930566 -0.0059810863 -0.019290503
0.012344597 0.016179156 -0.0069118016 0.0093016075 -0.0328369 -0.011590544 -0.0026424248 0.01028901
-0.0014383212 -0.00680336 0.015488512 0.0073477225 -0.012424793 0.02453878 -0.0070332047 -0.014009666
0.013255524 0.020456789 -0.014473816 -0.010340959 0.002957042 0.016949594 -0.013760643 0.0023718749
-0.00079751073 -0.017112335 0.0027113503 0.0151288565 0.026640022 -0.019311212 0.021727763 -0.014477687
0.006920659 0.024639623 -0.02169004 -0.0064674453 0.021897946 -0.011246116 -0.03219021 -0.016688935
-0.018526353 -0.0047237 -0.011848513 0.023066154 0.009320499 -0.001638019 -0.006238158 0.020967795
-0.009497068 -0.03980143 -0.011581428 -0.00015453431 0.017418027 0.0011441935 -0.014535361 -0.00455655
-0.025169179 0.007975696 0.0039010674 -0.007777604 -0.005973407 -0.005948859 -0.0031221888 -0.017468328
-0.008841264 -0.011109977 0.020796953 0.023460338 -0.016218849 0.019833054 0.009096044 0.008335644
-0.0066564535 0.028028565 0.0056559555 -0.007775321 -0.013721354 0.018605908 -0.025535857 -0.0421928
0.008117763 0.029226389 0.030148014 -0.015649304 0.0008792349 -0.011457625 0.010526641 -0.009623743
-0.021340162 0.01082721 -0.014774636 -0.010790559 -0.026734432 0.033819817 -0.015127309 -0.020704098
-0.007242048 -0.0010019504 0.0019641335 -0.01049578 0.018058753 -0.0021386098 0.007781273 0.005921191
-0.013294003 -0.0029505312 -0.002985638 0.0003882401 -0.007461752 0.0053760805 0.021493724 0.0049753077
0.013514777 -0.008590296 -0.025455698 0.008166196 -0.007909316 -0.023547767 -0.00935262 0.008479126
00000000: 955b cd3b dff7 ebba c494 6d3c eeab 93bc
00000010: 5ce3 953c 22a1 643b 8ea2 dc3b 4873 c03b
00000020: 9e6d 82bb 501b 49bb 9a8e 61bc 69dd 03bc
00000030: 1865 553c f558 91bc 89ce a43a f7b8 c4bc
00000040: b6bb e93b bbe0 0b3b 3393 90bc c09a 7dbc
00000050: 174c 6f3c 5894 08b9 fd0c 91bc 2a9e 3abc
00000060: 6127 a53a ab93 2fbb 5c16 cd3b 01fa c13b
00000070: f3a7 cd3b fde8 a5bb 0fd5 eebb 5c6a eebb
00000080: e83f fbba 4851 51bc 5dd1 a8bc bf5b 80bb
00000090: 6e30 56bc c0b4 883b fbca 1e3b 1756 3b3b
000000a0: 7489 1abc 8d2d c03a 5ce6 88ba 0d4b f8bb
000000b0: 16d4 6fbb d9e7 3abc f5c7 e23c 1053 85bb
000000c0: da55 60bc 0f06 2c3c 18f5 3bba bfbb 9cbb
000000d0: 170f 0ebc 4144 af3c e094 f63b 1228 46bc
000000e0: 122a cd3b ad6c 843c 8296 4e3c e517 97bb
000000f0: 26a6 8ebb 6e0a 51bc 05a2 283c 1b1e 4fbc
00000100: 7234 703c 69fd a1bc f181 c0bb fc83 983a
00000110: 4a7b a83b da2b ccba b797 b23b 2bef a5bb
00000120: eb2d 533a fb54 38bb ffa1 06bc 3e96 fbbc
00000130: be2c fa3b 0d46 36bc e158 3cbc 8613 e4bc
00000140: 2359 4a3c 15aa 283c 12b2 773c a14e 283c
00000150: fc70 5fbb 72bf a4bc 0778 a33b 1b37 d33c
00000160: 3c11 84bb 14e7 c4bb a5b6 ddbb 9729 cd3c
00000170: 88e0 a5bc 82d6 b7bb 2261 483b d49a 903c
00000180: 3c99 8b3c b70c 9fba 14ae 213d 5626 b3bb
00000190: defd c9bb f8d1 90bc 7015 83bb d6cb 92bc
000001a0: 6910 19bb 8291 eaba 7dec dcbb 8d84 92bb
000001b0: 25aa 6fbb 83a1 04bc 7bf8 23bc 72c5 15bc
000001c0: de8c 563b cdd4 54bc eaf4 193c 8062 39b9
000001d0: 9c5b 543c 354b e9bb 09fd aebb 38ef c9bc
000001e0: 6b51 153a ac7e 123c 9ed2 3a3b 6074 673c
000001f0: 0ead a73c 3c0c ff3b c077 6d3a 993b 853b
00000200: 97a2 99bb eed5 873c 6691 53bb ad00 d13c
00000210: 0548 c0bc 0b5e 5ebb fdfc c3bb 1e07 9ebc
00000220: fe40 4a3c 268a 843c 657c e2bb c565 183c
00000230: fc7f 06bd 44e6 3dbc 882c 2dbb 3c93 283c
00000240: 0d86 bcba b8ee debb 87c3 7d3c 2ac5 f03b
00000250: 5c91 4bbc 8d05 c93c cc76 e6bb cc88 65bc
00000260: b32d 593c ff94 a73c 9623 6dbc 206d 29bc
00000270: efca 413b e0d9 8a3c 5274 61bc 7571 1b3b
00000280: 0a10 51ba 2b2f 8cbc e9b0 313b 06df 773c
00000290: 2d3c da3c 8c32 9ebc 6cfe b13c d233 6dbc
000002a0: b2c6 e23b 09d9 c93c 50af b1bc ddec d3bb
000002b0: 5263 b33c a141 38bc e2d9 03bd 3cb7 88bc
000002c0: 94c4 97bc 45c9 9abb 4420 42bc 3bf5 bc3c
000002d0: 02b5 183c ccb2 d6ba 7669 ccbb a7c4 ab3c
000002e0: 9799 1bbc d306 23bd 08c0 3dbc 7d0a 22b9
000002f0: 40b0 8e3c c3f8 953a b925 6ebc 1d4f 95bb
00000300: 982f cebc 7eac 023c 0da9 7f3b 45db febb
00000310: 92bc c3bb a5ee c2bb a39d 4cbb bd19 8fbc
00000320: f3da 10bc 9f06 36bc 5f5e aa3c e52f c03c
00000330: 64dd 84bc ee78 a23c 9307 153c 3a92 083c
00000340: 611e dabb 299c e53c 9855 b93b 1fc8 febb
00000350: 88cf 60bc 6b6b 983c 9330 d1bc 5cd2 2cbd
00000360: 5e00 053c 2e6c ef3c f8f8 f63c f832 80bc
00000370: 757c 663a c3b8 3bbc ef77 2c3c e7ac 1dbc
00000380: 90d1 aebc 9c64 313c 5111 72bc e3ca 30bc
00000390: 2b02 dbbc a686 0a3d 88d8 77bc a49b a9bc
000003a0: b44e edbb e053 83ba b1b8 003b 7ef6 2bbc
000003b0: f3ef 933c eb27 0cbb 0dfa fe3b 8d06 c23b
000003c0: 17cf 59bc b35d 41bb b2aa 43bb b48c cb39
000003d0: b681 f4bb d529 b03b 9b13 b03c e807 a33b
000003e0: 156d 5d3c 50be 0cbc 7888 d0bc 82cb 053c
000003f0: 1396 01bc 3fe7 c0bc bb3b 19bc 08ec 0a3c

discrete_action_output_shape f4 [1, 7]
3.0 3.0 3.0 3.0 3.0 3.0 3.0
00000000: 0000 4040 0000 4040 0000 4040 0000 4040
00000010: 0000 4040 0000 4040 0000 4040

network_body._body_endoder.seq_layers.0.bias f4 [128]
-0.01408679 -0.0024185884 0.0069222543 0.0014816071 -0.00021669113 0.0012886862 0.00645343 0.004165094
-0.0065504173 0.0080429865 0.003849937 0.02297786 -0.01622886 0.009206458 0.014858447 0.016212115
0.009458641 -0.00283361 -0.0014297969 0.005407756 0.010564724 -0.005757925 0.0048911637 -1.5963877e-05
0.014415985 7.712906e-06 0.016335776 0.0018276392 -0.004997034 0.008642643 -0.0075217434 -0.01216984
0.015498693 -0.0017771787 0.014488864 0.012947271 0.021995895 -0.004874132 0.009124801 0.017934125
0.02187345 0.011263533 0.02334698 -0.0035397052 -0.0038661254 0.008988448 0.014394501 0.005495196
0.008328665 0.006895667 0.00800052 0.013215184 0.008930409 -0.012224485 0.018966636 0.021802392
-0.0030416027 0.0015644134 0.007694201 0.005892273 -0.004945304 0.0062258043 -0.010684806 0.0039165057
0.016610537 -0.0071282275 0.0053540873 0.004673085 0.022901291 -0.0055508018 0.017629907 0.023744866
-0.020084903 -0.005629544 0.01633383 0.002220486 0.0043024183 -0.0051544895 0.0014358058 -0.017252427
0.015366581 0.0145382015 0.011529968 -0.0044307923 0.010702749 0.004915227 -0.0026828225 0.013113857
0.024998706 0.0073123774 0.0024766214 -0.01301829 -0.011787006 0.0041993055 -0.0024757627 0.022224603
-0.011180398 0.029652148 0.0052104164 -0.0012563878 -0.0023632073 0.001828115 -0.004369431 0.010281108
-0.0032593934 0.009118681 0.006680796 0.005901925 0.008829347 0.005618894 -0.008574316 0.010191462
-0.014305364 -0.0063284277 -0.017161846 0.009665292 0.012833561 0.00977733 -0.009020073 0.005387497
0.007888046 -0.008663845 0.0050375285 -0.0061227637 0.01631767 0.0070993192 0.0104563255 -0.0011900744
00000000: 48cc 66bc 2e81 1ebb 14d4 e23b 7c32 c23a
00000010: 9537 63b9 22e9 a83a 4b77 d33b 577b 883b
00000020: e2a4 d6bb bbc6 033c 3a4f 7c3b 113c bc3c
00000030: 63f2 84bc afd6 163c d870 733c 45cf 843c
00000040: 6af8 1a3c 16b4 39bb 0668 bbba 8c33 b13b
00000050: aa17 2d3c faac bcbb 0e46 a03b 2aea 85b7
00000060: 0631 6c3c ae66 0137 9bd2 853c 658d ef3a
00000070: 29be a3bb df99 0d3c f578 f6bb 0264 47bc
00000080: 3bee 7d3c 39f0 e8ba b362 6d3c ca20 543c
00000090: bc30 b43c 2fb7 9fbb 3080 153c 96ea 923c
000000a0: f32f b33c ae8a 383c 2a42 bf3c 66fa 67bb
000000b0: d25e 7dbb 4944 133c ead6 6b3c 0c11 b43b
000000c0: f474 083c 0cf5 e13b 9d14 033c 8084 583c
000000d0: da50 123c 3549 48bc eb5f 9b3c ee9a b23c
000000e0: a055 47bb 010d cd3a a31f fc3b f813 c13b
000000f0: 370c a2bb d501 cc3b 530f 2fbc 0856 803b
00000100: d212 883c e893 e9bb 5771 af3b ae20 993b
00000110: 7d9b bb3c 80e3 b5bb 986c 903c 9884 c23c
00000120: 1889 a4bc 0a78 b8bb 86ce 853c 9385 113b
00000130: 4dfb 8c3b fee6 a8bb a631 bc3a f654 8dbc
00000140: 1dc4 7b3c a331 6e3c 31e8 3c3c 2e30 91bb
00000150: 955a 2f3c ea0f a13b 4bd2 2fbb 81db 563c
00000160: 16ca cc3c ab9c ef3b d04e 223b aa4a 55bc
00000170: 491e 41bc 549a 893b 6840 22bb 5f10 b63c
00000180: fd2d 37bc 10e9 f23c 24bc aa3b 61ad a4ba
00000190: 0ae0 1abb 5c9d ef3a 722d 8fbb 1872 283c
000001a0: 8c9b 55bb 8566 153c 94ea da3b ef64 c13b
000001b0: f7a8 103c b31e b83b 4a7b 0cbc 17fa 263c
000001c0: 0c61 6abc b35e cfbb 0097 8cbc 2c5b 1e3c
000001d0: db43 523c 1831 203c eec8 13bc 9a89 b03b
000001e0: dd3c 013c cdf2 0dbc da11 a53b 77a1 c8bb
000001f0: a2ac 853c 68a1 e83b 0251 2b3c 45fc 9bba
