results/test04/RobotAgent/RobotAgent-80019.onnx (onnx, 91978 bytes, 21 tensors)

145 f4 [13]
68.862946 48.828995 55.055664 66.36022 66.939095 64.795364 75.69318 0.32638535
0.15556802 0.33606136 0.32638535 0.15552634 0.33606136
00000000: d4b9 8942 e450 4342 0039 5c42 6fb8 8442
00000010: d1e0 8542 3a97 8142 e862 9742 fb1b a73e
00000020: 394d 1f3e 3c10 ac3e fb1b a73e 4c42 1f3e
00000030: 3c10 ac3e

action_model._discrete_distribution.branches.0.bias f4 [3]
0.017546313 -0.018513815 -0.0012452484
00000000: 49bd 8f3c 49aa 97bc 9a37 a3ba

action_model._discrete_distribution.branches.0.weight f4 [3, 128]
0.042661723 0.030735709 -0.016269589 0.020589257 -0.027253738 -0.007654155 -0.04559872 -0.018939093
0.010847781 -0.0038817208 0.0066540223 -0.0018256424 0.011436149 0.0010405709 -0.08440272 0.022309434
-0.017290479 0.009476049 -0.02473003 0.0020229905 0.04066033 0.008170011 0.031184534 -0.03135859
-0.01629315 0.005801456 0.002271409 0.01532785 0.024814239 0.0075894766 0.003606933 -0.058180086
-0.005110161 0.026204595 0.019911526 -0.017431831 -0.022944596 0.03729287 -0.00061342237 0.007857242
-0.012606819 -0.0022185599 0.004847538 0.0028255924 0.019385278 -0.03839128 -0.037941884 0.019114442
-0.01968093 -0.012052925 -0.019834356 0.031920727 0.016951386 0.0037571054 -0.035995226 0.012837739
0.009695609 -0.030946719 0.006331114 -0.030332042 -0.04303279 0.023389317 0.03781761 -0.015979923
-0.0156143885 0.0063054613 0.020792088 0.027361002 0.045311976 -0.011613288 0.0066923434 0.012703796
0.007273878 0.014356159 0.01627291 0.018776117 0.025895348 0.032908984 0.009389486 0.0113275675
0.0089092525 0.011458024 0.0014419323 -0.024751477 0.0012885622 -0.003325177 0.03199916 -0.007612039
0.019677212 0.011504017 -0.008806148 0.025233893 -0.024810487 0.014352739 0.01752544 -0.0063260873
-0.0045353184 -0.017183792 -0.045643102 -0.016954938 -0.008007241 -0.010536324 0.023627663 -0.025167484
0.01373866 0.009794228 0.017261272 -0.010693214 0.012926337 0.02009256 0.00076293625 0.015268365
-0.015049079 0.019565279 0.028538011 -0.0021620446 0.0076576294 0.021303726 -0.0059202197 0.008249003
-0.01322017 -0.04148355 -0.0029708508 -0.0008023961 -0.0097088795 0.014561323 0.025229018 -0.004260716
0.010929358 -0.00636168 -0.015036627 -0.019212859 0.019733312 0.018901223 0.00020144276 0.027634535
0.007926634 0.00293275 -0.019195413 0.018385842 0.0006662554 0.0073368223 0.0019790027 0.007969201
0.010794803 0.0052366764 0.016998867 -0.020412015 -0.016721891 0.004781327 -0.026869126 -0.0013036623
0.031459253 -0.011268659 -0.015155515 -0.012450895 -0.0028581622 -0.02821356 -0.020668285 -0.0012114834
-0.035405867 0.0036190264 -0.021080153 0.04171361 0.005608225 -0.003313686 0.005838372 -0.008327796
-0.016175663 -0.010854225 0.007295762 -0.0061701946 0.013124272 -0.0071015167 0.0009207061 -0.020724105
0.00713525 -0.0019117057 0.016479598 -0.02003138 0.026014982 -0.010636799 -0.002086966 0.010039441
-0.023756579 0.00600209 -6.1665334e-05 -0.00016846119 0.012740501 -0.014539369 0.007811342 -0.010733788
0.013153143 -0.007845883 -0.0049333316 -0.01133072 -0.013794456 0.0014902148 -0.015548298 0.025433805
-0.0088555915 -0.006165414 -0.000133281 -0.023728903 -0.011074445 -0.0067646913 -0.004233806 -0.005747539
0.0075882524 0.0003001943 0.006691804 -0.00032422386 0.0034223103 0.015700899 -0.018133 0.013688695
0.011321067 -0.0046799835 -0.009893702 -0.00035223528 0.009534122 -0.0044499175 -0.021677133 -0.016622307
-0.026716098 -0.033745024 0.007961888 -0.0064130514 -0.0074186805 -0.013454714 -0.021038193 -0.011302745
0.008441791 -0.0056893365 0.0014106936 0.018164188 0.016687196 -0.0076428405 -0.0075500496 0.0028177907
0.01187731 0.004128495 0.0056541814 0.018089801 -0.0333012 -0.01976074 0.0058452203 -0.016209295
-0.013996982 0.01393692 -0.012042445 -0.0063699363 -1.0187243e-05 -0.011744514 -0.009508042 -0.030052138
00000000: 0fbe 2e3d 74c9 fb3c cd47 85bc cdaa a83c
00000010: 3b43 dfbc b5cf fabb b9c5 3abd 2826 9bbc
00000020: e4ba 313c 7864 7ebb fc09 da3b 654a efba
00000030: af5e 3b3c c463 883a 55db acbd 46c2 b63c
00000040: c3a4 8dbc 6e41 1b3c a296 cabc 2694 043b
00000050: 728b 263d 83db 053c b576 ff3c dd71 00bd
00000060: 3679 85bc 241a be3b ebdb 143b aa21 7b3c
00000070: 3b47 cb3c 25b1 f83b 4b62 6c3b 3e4e 6ebd
00000080: 2373 a7bb 05ab d63c 7f1d a33c 33cd 8ebc
00000090: 4ef6 bbbc 69c0 183d 14ce 20ba a9bb 003c
000000a0: d58c 4ebc 4265 11bb 19d8 9e3b 932d 393b
000000b0: e0cd 9e3c 2d40 1dbd f368 1bbd e495 9c3c
000000c0: e739 a1bc a279 45bc a97b a2bc 4fbf 023d
000000d0: a2dd 8a3c c539 763b bb6f 13bd 6155 523c
000000e0: 55da 1e3c f983 fdbc 3c75 cf3b e77a f8bc
000000f0: 2743 30bd f49a bf3c a3e6 1a3d 54e8 82bc
00000100: 7ed3 7fbc 0b9e ce3b 2b54 aa3c 2e24 e03c
00000110: 0d99 393d a945 3ebc 724b db3b 9523 503c
00000120: b659 ee3b 1836 6b3c c44e 853c 5fd0 993c
00000130: 7b22 d43c 92cb 063d 5cd6 193c 4397 393c
00000140: 1df8 113c 70ba 3b3c 38ff bc3a 9cc3 cabc
00000150: f9e4 a83a 36eb 59bb 8d11 033d 696e f9bb
00000160: 1b32 a13c 587b 3c3c a947 10bc 4fb7 ce3c
00000170: 5d3f cbbc c027 6b3c 8391 8f3c 114b cfbb
00000180: 029d 94bb 06c5 8cbc 43f4 3abd 15e5 8abc
00000190: ce30 03bc 8ca0 2cbc cd8e c13c 0a2c cebc
000001a0: 1e18 613c f877 203c 8367 8d3c 9732 2fbc
000001b0: fdc8 533c 2799 a43c c9ff 473a 2a28 7a3c
000001c0: 6a90 76bc 5d47 a03c 8cc8 e93c 17b1 0dbb
000001d0: daec fa3b 2785 ae3c 67fe c1bb d426 073c
000001e0: 6999 58bc a8ea 29bd 9bb2 42bb e457 52ba
000001f0: fe11 1fbc 9e92 6e3c 16ad ce3c 7a9d 8bbb
00000200: 0d11 333c a475 d0bb 2f5c 76bc 4964 9dbc
00000210: c1a7 a13c bdd6 9a3c 613a 5339 d261 e23c
00000220: b6de 013c 6133 403b b33f 9dbc e89d 963c
00000230: a5a7 2e3a ba69 f03b 28b2 013b 4091 023c
00000240: afdc 303c 6d98 ab3b 3541 8b3c 1937 a7bc
00000250: 59fc 88bc aeac 9c3b a41c dcbc a6df aaba
00000260: 6bdb 003d 2ea0 38bc d64e 78bc d7fe 4bbc
00000270: 0150 3bbb 2020 e7bc 8950 a9bc a3ca 9eba
00000280: be05 11bd 302d 6d3b 49b0 acbc e4db 2a3d
00000290: 33c5 b73b 6d2a 59bb d04f bf3b 4f71 08bc
000002a0: d382 84bc ebd5 31bc 4a11 ef3b 582f cabb
000002b0: 3007 573c d7b3 e8bb 8a5b 713a 99c5 a9bc
000002c0: d1ce e93b 3392 faba 3900 873c d918 a4bc
000002d0: 5f1d d53c f845 2ebc 7bc5 08bb 787c 243c
000002e0: 289d c2bc 2ead c43b 5352 81b8 f5a4 30b9
000002f0: 89bd 503c 8936 6ebc 49f6 ff3b c5dc 2fbc
00000300: 4880 573c 058c 00bc c9a7 a1bb 7ca4 39bc
00000310: 2402 62bc 5053 c33a 4abe 7ebc 8e5a d03c
00000320: 0b17 11bc 3e07 cabb 59c1 0bb9 1e63 c2bc
00000330: 9771 35bc 58aa ddbb bdbb 8abb da55 bcbb
00000340: e0a6 f83b 6663 9d39 ec46 db3b 97fc a9b9
00000350: d748 603b 2c9f 803c a88b 94bc 8c46 603c
00000360: ff7b 393c 8c5a 99bb 3219 22bc 38ac b8b9
00000370: 0235 1c3c 9dd0 91bb 3e94 b1bc 812b 88bc
00000380: b8db dabc 3938 0abd 9472 023c 9324 d2bb
00000390: 6718 f3bb 2971 5cbc 4a58 acbc 262f 39bc
000003a0: 704f 0a3c 9d6d babb 06e7 b83a 10cd 943c
000003b0: 96b3 883c cb70 fabb 6866 f7bb afaa 383b
000003c0: 0d99 423c 5448 873b b646 b93b 1031 943c
000003d0: d766 08bd 47e1 a1bc 4389 bf3b 5bc9 84bc
000003e0: 9953 65bc ae57 643c ad4d 45bc e6ba d0bb
000003f0: e0e9 2ab7 106c 40bc 9ec7 1bbc e72f f6bc

action_model._discrete_distribution.branches.1.bias f4 [3]
0.02722328 -0.054751966 0.024920825
00000000: 5b03 df3c 9943 60bd c226 cc3c

action_model._discrete_distribution.branches.1.weight f4 [3, 128]
-0.026998613 0.028364288 0.03310714 0.0002692391 0.0033974694 -0.0144518 0.00010198067 -0.010418702
-0.054860137 0.028290372 -0.047982536 0.017417304 0.025970254 -0.021567605 0.014283119 0.011253943
-0.0026834095 0.008421436 0.00898466 -0.008523523 -0.032940075 0.011674852 -0.006186448 -0.0017047415
-0.009384765 0.018351894 0.018213583 0.012210224 0.026986312 0.03849267 -0.007186119 0.018162966
0.024902599 0.0068697897 0.027808696 -0.035154443 -0.023535969 -0.02268183 0.016042318 0.007523924
0.017323289 -0.05106774 -0.06682399 0.045180093 -0.041506283 0.047492813 0.017012086 -0.063575596
0.030197896 0.033073027 -0.040898364 0.011774587 -0.04147391 0.01799278 0.018586148 0.014034096
-0.02783397 -0.023473602 0.030345893 0.015484651 0.031495936 0.025930136 -0.05932458 -0.0069931378
0.024734616 0.00274649 0.008700411 0.0023888652 -0.022210345 0.0056597176 0.02650786 -0.06783093
0.0029369497 -0.0124666095 -0.007918754 0.0029388855 0.009832934 -0.025975456 0.035760604 -0.011263995
-0.01627347 -0.022254014 0.0053924765 0.013638123 -0.047759585 -0.07475016 -0.00019944839 0.035581768
-0.02727365 0.005681239 0.04243177 0.031474225 -0.030495368 0.024717761 0.022980556 0.009412125
-0.04395748 -0.003720189 0.035015635 0.029184954 -0.017603477 0.022488512 -0.017847901 -0.04738947
-0.016454743 -0.004416346 0.006872682 0.030718451 0.014777084 0.02440812 -0.02612696 0.013861833
-0.0059118075 -0.017048292 -0.026056647 -0.0019110165 0.0102660945 -0.05309141 -0.01257901 0.04310602
0.057532765 0.028549291 0.024068441 0.017054206 0.01779697 -0.07354476 -0.0126750665 0.03454741
0.0013550491 -0.01242156 0.0030618391 -0.0038456651 0.0020656725 -0.0120149935 0.05721659 -0.0008346628
0.0020250243 -0.00052872323 -0.008080208 -0.016043054 0.027000954 -0.009884799 0.0039021028 0.004374273
0.031764604 -0.0016714458 0.0028188436 -0.01561235 -0.0023403894 -0.024964226 -0.021744348 0.0152862035
0.0061160363 0.013710054 0.004528984 -0.029898593 0.012644948 -0.023027612 -0.013024074 -0.010540102
0.02200254 -0.037405662 -0.008594827 0.028871153 0.032808647 0.0054346235 0.020624002 0.013820804
-0.01069163 0.010578044 0.018315073 -0.010993374 0.0061953836 0.023923121 0.024409195 0.017308515
0.01487588 -0.025506085 0.0641318 -0.02275812 0.03386212 0.0112107145 0.017526876 -0.01638638
-0.008729491 0.007866001 -0.02394359 0.016583277 -0.006027083 -0.03546659 -0.005062459 -0.027517166
-0.0014211943 -8.0866484e-05 0.013180976 -0.00064517366 0.020391025 -0.009452408 -0.028697638 0.03499767
-0.007902132 -0.00012107721 -0.0036571436 -0.013170458 -0.025784155 -0.0030845497 -0.023626944 0.0072994763
0.0281211 -0.016190315 -0.0005507412 0.0023092285 0.008837152 0.0400366 -0.0056990427 -0.012136809
-0.018196035 -0.01291897 0.0025474126 -0.02477004 0.019166788 -0.020350618 0.004542143 -0.0073094824
-0.00957081 -0.009411817 -0.01958383 0.025506038 0.003474945 -0.02597404 -0.015881896 0.032745287
0.0009316703 -0.016664324 -0.0066534844 -0.025664538 -0.023360822 0.037834402 -0.0030389617 -0.001231863
0.02297487 0.01191741 -0.024721961 0.03024694 -0.038240932 0.017456226 -0.014618458 -0.034972973
0.044884905 -0.00029716705 -0.013643057 -0.0029827987 0.026570978 0.01047018 -0.0077751726 -0.018357279
00000000: 322c ddbc 395c e83c 5a9b 073d a928 8d39
00000010: 14a8 5e3b 3ec7 6cbc 75de d538 34b3 2abc
00000020: 06b5 60bd 36c1 e73c 5689 44bd bcae 8e3c
00000030: 92bf d43c 8cae b0bc be03 6a3c 7562 383c
00000040: 24dc 2fbb 10fa 093c 6534 133c 3fa6 0bbc
00000050: 2cec 06bd e147 3f3c b0b7 cabb a271 dfba
00000060: 8fc2 19bc b656 963c a734 953c 640d 483c
00000070: 6612 dd3c 7daa 1d3d 8979 ebbb 80ca 943c
00000080: 8900 cc3c f91b e13b 10cf e33c 1bfe 0fbd
00000090: 81ce c0bc 3fcf b9bc 2e6b 833c 408b f63b
000000a0: 92e9 8d3c 682c 51bd 04db 88bd c30e 393d
000000b0: 7e02 2abd d387 423d ee5c 8b3c ec33 82bd
000000c0: 9461 f73c 9577 073d 0b85 27bd 33ea 403c
000000d0: 8ce0 29bd 9865 933c fa41 983c 44ef 653c
000000e0: 1104 e4bc b64b c0bc f397 f83c 55b3 7d3c
000000f0: e201 013d 706b d43c 55fe 72bd b126 e5bb
00000100: 40a0 ca3c 75fe 333b 2b8c 0e3c 828e 1c3b
00000110: 78f2 b5bc 2775 b93b 0327 d93c f1ea 8abd
00000120: d779 403b c040 4cbc a9bd 01bc 519a 403b
00000130: 501a 213c 7bca d4bc b679 123d 9f8c 38bc
00000140: f14f 85bc 0d4e b6bc 5fb3 b03b 6f72 5f3c
00000150: 8e9f 43bd 9d16 99bd 0523 51b9 30be 113d
00000160: fd6c dfbc b029 ba3b f0cc 2d3d 1eeb 003d
00000170: 6cd1 f9bc e77c ca3c b841 bc3c 5035 1a3c
00000180: c20c 34bd 6ace 73bb 8e6c 0f3d 4915 ef3c
00000190: 2b35 90bc d439 b83c c335 92bc 761b 42bd
000001a0: 19cc 86bc ffb6 90bb 3c34 e13b 43a5 fb3c
000001b0: 951b 723c 8af3 c73c 3508 d6bc be1c 633c
000001c0: d6b7 c1bb dca8 8bbc c074 d5bc 137b faba
000001d0: 1f33 283c 6176 59bd 3118 4ebc f08f 303d
000001e0: 7aa7 6b3d 34e0 e93c 2e2b c53c 43b5 8b3c
000001f0: f4ca 913c a39e 96bd 15ab 4fbc 9681 0d3d
00000200: e79b b13a cc83 4bbc 23a9 483b 8e07 7cbb
00000210: 3c60 073b 89da 44bc f15b 6a3d 46cd 5aba
00000220: 45b6 043b 049a 0aba d962 04bc b96c 83bc
00000230: 1b31 dd3c daf3 21bc 6cba 7f3b 1056 8f3b
00000240: 9a1b 023d 6a14 dbba 59bc 383b f1ca 7fbc
00000250: 3861 19bb c781 ccbc 3421 b2bc fc72 7a3c
00000260: 0869 c83b 22a0 603c df67 943b e5ed f4bc
00000270: c22c 4f3c 67a4 bcbc ed62 55bc 64b0 2cbc
00000280: ac3e b43c ae36 19bd 51d1 0cbc 3283 ec3c
00000290: 5c62 063d ed14 b23b abf3 a83c a770 623c
000002a0: f22b 2fbc 884f 2d3c 7e09 963c 8d1d 34bc
000002b0: a502 cb3b 6cfa c33c cbf5 c73c 96ca 8d3c
000002c0: f7b9 733c 23f2 d0bc 8857 833d 3d6f babc
000002d0: 02b3 0a3d 25ad 373c 8694 8f3c bb3c 86bc
000002e0: 2406 0fbc 66e0 003c 5925 c4bc a7d9 873c
000002f0: d67e c5bb 6a45 11bd fce2 a5bb ae6b e1bc
00000300: 5e47 baba dd96 a9b8 05f5 573c df20 29ba
00000310: 140b a73c 46de 1abc 4f17 ebbc b859 0f3d
00000320: f277 01bc d5ea fdb8 b0ac 6fbb e8c8 57bc
00000330: 4b39 d3bc 2826 4abb 4b8d c1bc 7230 ef3b
00000340: 395e e63c 8da1 84bc 9e5f 10ba 6d56 173b
00000350: b4c9 103c 6bfd 233d 09bf babb 77d9 46bc
00000360: da0f 95bc 16aa 53bc 7ef2 263b 8aea cabc
00000370: ab03 9d3c 57b6 a6bc 42d6 943b 6284 efbb
00000380: e3ce 1cbc 0634 1abc 456e a0bc 0af2 d03c
00000390: e7bb 633b 83c7 d4bc c01a 82bc ec1f 063d
000003a0: 563b 743a 9f83 88bc 7905 dabb 703e d2bc
000003b0: 325f bfbc 3ff8 1a3d 5129 47bb 7776 a1ba
000003c0: cb35 bc3c 3e41 433c b685 cabc 6ec8 f73c
000003d0: 86a2 1cbd 5c00 8f3c 4282 6fbc d23f 0fbd
000003e0: 3cd9 373d 16cd 9bb9 2187 5fbc 0f7b 43bb
000003f0: 61ab d93c 1e8b 2b3c e0c6 febb 0162 96bc

action_model._discrete_distribution.branches.2.bias f4 [3]
0.0037800597 -0.01925738 0.016709672
00000000: e1ba 773b a7c1 9dbc b9e2 883c

action_model._discrete_distribution.branches.2.weight f4 [3, 128]
-0.009613465 -0.010873338 -0.02506523 0.01335965 -0.007563149 0.022227699 -0.02136522 2.197779e-05
0.024557406 -0.003947696 0.036831997 0.014418552 -0.02759933 0.028395616 -0.021636795 -0.014261578
-0.003262826 -0.00056929904 0.015482501 0.033319395 0.012230314 0.03500174 0.024994526 -0.016856069
-0.0028641399 0.015747316 -0.03079979 -0.017084062 -0.016513107 -0.0035792086 -0.02396915 -0.024888508
0.0056998935 -0.019847928 0.0064221835 0.043788977 0.013140064 0.022157418 -0.019040026 0.0046519926
-0.031368952 0.03016264 0.03171903 0.003101144 0.020584652 0.0042305104 -0.025527954 0.036521457
0.0014492145 -0.041765362 -0.0024246874 -0.007563301 0.04258483 0.025720783 -0.0039429087 -0.0038141496
-0.026428152 0.029029205 0.016181143 -0.022244288 -0.005603377 0.016757024 0.033682294 0.0031277812
-0.02995084 -0.0071759666 0.007734276 0.0032701942 0.036927436 -0.012323267 -0.00021534874 0.025084507
-0.013633315 -0.0061845887 0.00028522726 0.030312808 0.0005433599 0.018223729 0.0018174467 -0.027217424
0.023460886 0.015759911 -0.021853346 -0.0050166515 0.036838256 0.0007223993 0.004275097 -0.016257977
0.01496166 -0.015619298 -0.018578427 0.017768081 0.028640589 -0.011699504 -0.034021214 -0.0036919275
0.0029223335 0.020946128 -0.004209613 -0.0238669 0.019153101 -0.036162842 0.019302707 0.0066924305
0.0018835311 0.032279674 0.009030525 0.007429136 -0.008788075 -0.047458638 0.013049262 -0.0019191212
0.016468223 0.0013886011 0.017102294 0.0031863842 0.0057927687 0.026972998 -0.0019522962 -0.027256759
-0.040686324 0.01150692 -0.015759263 -0.0036042822 -0.009099967 0.052009266 0.013673298 -0.01176982
0.023051439 0.0010700148 -0.0135612525 -0.003949014 -0.016167782 -0.01100228 0.01380791 -0.0090324925
-0.0033201866 -0.012388861 0.008857426 -0.011963476 0.0014793427 -0.016342003 -0.014663531 0.016690286
-0.013854186 0.009929975 -0.010996578 0.024954852 -0.0035146708 0.008765588 -0.016255926 0.009052829
0.008743117 -0.0036033406 -0.03234511 -0.025147183 -0.011405367 0.0024097995 0.012246877 0.002833022
0.001630317 0.025466574 -0.009205338 -0.016687853 0.012501236 0.020730944 0.02407885 -0.01846294
-0.0037898524 -0.00064134586 0.021344641 -0.005044762 -0.008529558 0.0060512223 0.0070533776 -0.01565434
-0.009086001 -0.011880367 0.02312891 0.0122872535 -0.0028722405 -0.006432932 -0.0008035742 -0.00072076643
0.015556826 0.014462463 -0.006234347 -0.0125477305 0.019488478 0.007643736 -0.02164014 0.007738276
-0.0045701214 0.014093103 0.018482456 -0.023273164 -0.011224186 -0.025679765 -0.027344786 -0.0017175428
-0.016410802 0.04070745 -0.0006277676 -0.009952099 0.0018754908 -0.009699362 -0.0072853914 0.048602916
0.014421138 0.0027423948 -0.009173879 -0.021314329 -0.015831439 0.0089967195 0.022222485 -0.014142263
-0.00082502764 -0.00747122 0.0014284203 0.0076707066 -0.015734265 -0.0008434188 0.0012328466 -0.0030410893
-0.004195296 -0.018170666 0.0052524637 0.009945671 -0.007918612 0.0037602782 0.0014471881 0.0019028335
0.00954372 -0.00909554 -0.020517442 -0.0030620925 -0.0068521965 0.0015850455 -0.0314131 0.0059253206
0.0010541 -0.0086478675 -0.0070696343 -0.016108062 -0.018579774 -0.0026595956 -0.019936943 -0.0019153061
0.015391431 -0.021350319 0.012418093 -0.00027557334 0.004333837 0.028963702 -0.014616178 -0.0054527307
00000000: cb81 1dbc 1626 32bc 9955 cdbc 6fe2 5a3c
00000010: 4bd4 f7bb dd16 b63c 1d06 afbc f25c b837
00000020: 9d2c c93c ad5b 81bb 26dd 163d ca3b 6c3c
00000030: fd17 e2bc ec9d e83c a63f b1bc 65a9 69bc
00000040: 23d5 55bb 033d 15ba 51aa 7d3c eb79 083d
00000050: a861 483c fc5d 0f3d 52c1 cc3c bd15 8abc
00000060: 4bb4 3bbb 8400 813c d74f fcbc e0f3 8bbc
00000070: 7f46 87bc 2891 6abb f35a c4bc fce2 cbbc
00000080: 2cc6 ba3b 1f98 a2bc 2e71 d23b 125c 333d
00000090: 6c49 573c 7983 b53c d4f9 9bbc be6f 983b
000000a0: bb7c 00bd a417 f73c d0eb 013d 903c 4b3b
000000b0: 25a1 a83c 18a0 8a3b 0020 d1bc 8697 153d
000000c0: 92f3 bd3a 2812 2bbd 81e7 1ebb 91d5 f7bb
000000d0: 6e6d 2e3d 64b4 d23c 8433 81bb d0f6 79bb
000000e0: da7f d8bc a8ce ed3c 518e 843c a739 b6bc
000000f0: 889c b7bb 0746 893c 72f6 093d 76fb 4c3b
00000100: 775b f5bc 5f24 ebbb cf6f fd3b c150 563b
00000110: 3941 173d 87e7 49bc 3dcf 61b9 067e cd3c
00000120: 455e 5fbc 17a8 cabb 8e8a 9539 9152 f83c
00000130: 4470 0e3a ee49 953c 6437 ee3a 13f7 debc
00000140: 0b31 c03c ee1a 813c ca05 b3bc b962 a4bb
00000150: b6e3 163d 655f 3d3a 1d16 8c3b 732f 85bc
00000160: c021 753c 16e8 7fbc c931 98bc 5e8e 913c
00000170: ab9f ea3c 47af 3fbc d459 0bbd 44f4 71bb
00000180: 9f84 3f3b 3797 ab3c cbf0 89bb 8484 c3bc
00000190: f7e6 9c3c 7d1f 14bd b620 9e3c 2d4c db3b
000001a0: d1e0 f63a b137 043d c4f4 133c 1c70 f33b
000001b0: dcfb 0fbc fd63 42bd 92cc 553c 068b fbba
000001c0: 5ee8 863c b901 b63a 1c1a 8c3c a8d2 503b
000001d0: 44d1 bd3b 7af6 dc3c 31e4 ffba 9149 dfbc
000001e0: b4a6 26bd 8587 3c3c 9219 81bc d235 6cbb
000001f0: 0718 15bc ab07 553d f805 603c 34d6 40bc
00000200: 5fd6 bc3c bd3f 8c3a 0430 5ebc bb66 81bb
00000210: 4c72 84bc e842 34bc 923a 623c 05fd 13bc
00000220: 7d97 59bb a6fa 4abc bd1e 113c 7502 44bc
00000230: 81e6 c13a aadf 85bc 4f3f 70bc 11ba 883c
00000240: abfc 62bc 55b1 223c fe2a 34bc 1e6e cc3c
00000250: 6456 66bb 8a9d 0f3c 262b 85bc 5152 143c
00000260: 4a3f 0f3c 0626 6cbb 4e7c 04bd 7701 cebc
00000270: 94dd 3abc baed 1d3b 20a7 483c 39aa 393b
00000280: 5cb0 d53a 479f d03c fcd1 16bc f7b4 88bc
00000290: fcd1 4c3c f1d3 a93c 0241 c53c 973f 97bc
000002a0: 2c5f 78bb fe1f 28ba f5da ae3c 884e a5bb
000002b0: 8fbf 0bbc 5549 c63b 0520 e73b 883d 80bc
000002c0: 73dd 14bc dfa5 42bc d778 bd3c 7a50 493c
000002d0: 333c 3cbb 58cb d2bb f4a6 52ba d1f1 3cba
000002e0: 0fe2 7e3c f7f3 6c3c 7e49 ccbb ff94 4dbc
000002f0: 4da6 9f3c 4e78 fa3b aa46 b1bc 5d91 fd3b
00000300: f5c0 95bb c2e6 663c 8568 973c 5da7 bebc
00000310: a6e5 37bc 5f5e d2bc 2c02 e0bc 2c1f e1ba
00000320: f26f 86bc dbbc 263d c590 24ba 210e 23bc
00000330: 07d3 f53a 13ea 1ebc 4bba eebb da13 473d
00000340: a346 6c3c c0b9 333b 0a4e 16bc 639b aebc
00000350: efb0 81bc fa66 133c ee0b b63c f3b4 67bc
00000360: ab46 58ba 23d1 f4bb d539 bb3a 8d5a fb3b
00000370: 25e5 80bc e118 5dba 7897 a13a 034d 47bb
00000380: b278 89bb a6da 94bc dc1c ac3b 2bf3 223c
00000390: 11bd 01bc 006f 763b 93af bd3a 7f68 f93a
000003a0: 435d 1c3c 7605 15bc 3214 a8bc 63ad 48bb
000003b0: 6488 e0bb 4dc1 cf3a 06ab 00bd 3129 c23b
000003c0: ba29 8a3a c9af 0dbc 64a8 e7bb 0ef5 83bc
000003d0: 9c34 98bc 9c4c 2ebb cd52 a3bc 020b fbba
000003e0: 572c 7c3c dde6 aebc 4275 4b3c d47a 90b9
000003f0: dc02 8e3b 4945 ed3c b278 6fbc d2ac b2bb

action_model._discrete_distribution.branches.3.bias f4 [3]
0.0034252813 -0.011375549 0.00858954
00000000: af7a 603b 8360 3abc 24bb 0c3c

action_model._discrete_distribution.branches.3.weight f4 [3, 128]
0.028241478 0.011749917 -0.03837862 -0.008295604 -0.02334819 0.007117406 -0.003285037 -0.008544834
-0.022010956 -0.0052449824 0.007414981 0.008897871 -0.035359137 0.0009271363 -0.028311616 0.021700187
-0.023210565 0.03346596 0.007705452 0.014941457 0.018599547 -0.00090121053 -0.001785975 0.0069434843
0.008473501 -0.009701007 -0.009719827 -0.011077096 -0.049958393 0.013190552 0.017938789 0.011987835
-0.021445796 0.02337396 -0.043880135 0.037686165 0.009675519 0.020370992 0.021133251 -0.015211148
0.005207221 0.01858435 -0.0021978912 -0.008412356 0.02838224 -0.02950448 -0.042246256 0.016080987
-0.03590437 -0.022405272 0.0041121244 0.018351736 0.00094073254 0.005309972 0.0023155229 -0.018980086
0.0051964433 0.009412081 0.010295697 -0.033341955 0.00291292 0.01915675 0.019549863 0.0036974573
-0.018584667 0.033353087 0.033614684 0.004793343 0.015954668 -0.025172768 0.02913163 0.011971956
0.011828926 -0.010400704 -0.02118634 -0.023718806 0.021391988 0.003505355 -0.011419941 0.017234677
0.0029865345 0.028215215 -0.012695276 -0.00035114755 0.04079167 0.009169985 -0.014908178 0.012394213
0.0018210879 -0.014299958 0.018780114 -0.008744951 0.00953783 -0.0014756605 -0.035532754 0.01278731
-0.019211052 -0.008015285 -0.012875256 -0.009214004 -0.0014521258 -0.00902539 -0.006049297 -0.028070712
0.0029932726 0.014668431 0.011269295 0.011168042 -0.00022474985 -0.026570274 -0.02034227 0.013058509
0.012098381 -0.021101786 -0.0014436982 0.009904893 -0.034497585 0.006303915 0.010200833 -0.004921322
-0.0374467 -0.011314614 -0.010955201 -0.016463565 0.033254474 -0.012825586 -0.0033179678 -0.0113597745
-0.0032916295 -0.023081731 0.013355095 0.011892041 0.029733608 -0.0074479654 -0.003644218 0.026815418
-0.022822762 0.0042485655 -0.022242034 -0.0020327999 0.030171469 0.015749218 0.02911347 -0.002849279
0.01744176 -0.024359344 -0.01583284 -0.0070909765 -0.0038625668 -0.004683548 -0.008862951 0.003944576
0.0016554095 -0.014433066 0.0037656436 -0.010537358 0.013367299 -0.01382438 -0.011092526 0.013126661
0.009720653 -0.024218516 0.012465712 -0.009876705 -0.005099766 0.005926837 -0.03087941 -0.00043422493
-0.0066571073 -0.0018035272 -0.0005814963 0.013947253 0.013075039 0.014658298 0.019475935 0.0068840734
0.013597633 0.004626193 0.002869975 -0.015486297 0.0029852164 0.0007729162 0.023693439 -0.012030991
-0.010749718 0.027540645 -0.020045329 0.01241653 0.0008371976 -0.009511568 0.00061337586 -0.0098100845
0.031007752 -0.011458316 -0.032963358 -0.012607916 -0.0072534615 0.019584272 -0.022805123 -0.0034830826
-0.022715941 -0.004588543 0.00490837 -0.012864762 -0.011402638 0.016921066 0.00524669 -0.021954142
0.021503432 -0.0052946047 0.013570794 -0.0060891174 -0.0120799355 0.014876894 -0.0038363063 -0.0015964251
0.007281059 0.01006954 -0.02601262 -0.0012806639 0.019829966 -0.0006220755 -0.0026699407 -0.011782744
-5.2895488e-05 -0.014366544 0.03508679 0.007036705 0.0055990354 -0.0042455764 0.018860629 -0.003956903
0.016771805 -0.00023142995 -0.0071132504 -0.005548612 -0.009747557 -0.013799984 -0.0054091383 -0.023252472
-0.0031976905 0.01472325 -0.007191769 0.0032415197 -0.004377128 0.013869561 0.021106055 -0.0023332518
0.013101754 0.006783325 0.002504177 0.0094493255 -0.013235766 0.038342386 -0.0075339247 -0.018779594
00000000: ac5a e73c b982 403c e632 1dbd 49ea 07bc
00000010: b444 bfbc 2139 e93b c649 57bb a2ff 0bbc
00000020: 5250 b4bc 1ade abbb 5ef9 f23b 60c8 113c
00000030: bed4 10bd 100b 733a c3ed e7bc 97c4 b13c
00000040: 1524 bebc 9a13 093d 047e fc3b 03cd 743c
00000050: 145e 983c 373f 6cba 6017 eaba 2b86 e33b
00000060: 70d4 0a3c f9f0 1ebc e93f 1fbc b57c 35bc
00000070: 2ca1 4cbd 2f1d 583c 5ef4 923c a068 443c
00000080: 18af afbc bf7a bf3c a8bb 33bd cf5c 1a3d
00000090: 1186 1e3c 11e1 a63c a41f ad3c 2e38 79bc
000000a0: 56a1 aa3b 353e 983c 7f0a 10bb fad3 09bc
000000b0: df81 e83c 61b3 f1bc 690a 2dbd 46bc 833c
000000c0: 7610 13bd 438b b7bc 00bf 863b 6156 963c
000000d0: 7e9b 763a 46ff ad3b 07c0 173b 207c 9bbc
000000e0: ed46 aa3b 2135 1a3c 48af 283c 9391 08bd
000000f0: b0e6 3e3b 9eee 9c3c 0927 a03c 0a51 723b
00000100: df3e 98bc 3f9d 083d 8daf 093d 7a11 9d3b
00000110: 5db3 823c 1f37 cebc 75a5 ee3c 0626 443c
00000120: 1dce 413c b767 2abc fa8e adbc f14d c2bc
00000130: 403e af3c 19ba 653b b41a 3bbc bd2f 8d3c
00000140: bcb9 433b 9823 e73c d9ff 4fbc 3a1a b8b9
00000150: 2b15 273d b43d 163c 6e41 74bc 1911 4b3c
00000160: 92b1 ee3a 5f4a 6abc c1d8 993c fc46 0fbc
00000170: 8f44 1c3c f36a c1ba cb8a 11bd de81 513c
00000180: 7f60 9dbc 8b52 03bc bdf2 52bc 55f6 16bc
00000190: 4255 beba 3bdf 13bc 2e39 c6bb 8df4 e5bc
000001a0: c82a 443b dc53 703c d9a2 383c 2afa 363c
000001b0: d4aa 6bb9 e7a9 d9bc d5a4 a6bc 5bf3 553c
000001c0: 4a38 463c a7dd acbc 793a bdba 2248 223c
000001d0: 574d 0dbd 1291 ce3b 6521 273c 0b43 a1bb
000001e0: b661 19bd ee60 39bc 727d 33bc 99de 86bc
000001f0: d835 083d 6822 52bc 4372 59bb 591e 3abc
00000200: 61b8 57bb e615 bdbc 54cf 5a3c d6d6 423c
00000210: e593 f33c 100e f4bb d5d3 6ebb 02ac db3c
00000220: cdf6 babc 8d37 8b3b ed34 b6bc b938 05bb
00000230: 282a f73c 8104 813c 5f7f ee3c f8ba 3abb
00000240: 06e2 8e3c 3f8d c7bc dfb3 81bc 6c5b e8bb
00000250: 1e23 7dbb 7378 99bb e935 11bc 8041 813b
00000260: 53fa d83a ab78 6cbc 04c9 763b e2a4 2cbc
00000270: 8402 5b3c a77f 62bc 6dbd 35bc 3511 573c
00000280: 6043 1f3c e965 c6bc fc3c 4c3c e7d1 21bc
00000290: f01b a7bb ea35 c23b d1f6 fcbc afa8 e3b9
000002a0: dd23 dabb 5564 ecba 8e6f 18ba 0583 643c
000002b0: b038 563c 5c29 703c ff8b 9f3c cb93 e13b
000002c0: 9bc8 5e3c 5297 973b 3116 3c3b 3dba 7dbc
000002d0: 9fa3 433b 879d 4a3a be18 c23c a21d 45bc
000002e0: 961f 30bc eb9c e13c 1a36 a4bc b46e 4b3c
000002f0: 6177 5b3a 68d6 1bbc f5ca 203a 7aba 20bc
00000300: f803 fe3c a9bb 3bbc 9604 07bd 6f91 4ebc
00000310: 72ae edbb 326f a03c cfd1 babc 6e44 64bb
00000320: c816 babc 7d5b 96bb 64d6 a03b b9c6 52bc
00000330: 21d2 3abc 0c9e 8a3c 6dec ab3b 2cd9 b3bc
00000340: f727 b03c 5d7e adbb 0958 5e3c 3887 c7bb
00000350: ecea 45bc 37be 733c 8a6a 7bbb 233f d1ba
00000360: f395 ee3b b6fa 243c 6b18 d5bc f3db a7ba
00000370: 7472 a23c c812 23ba 2cfa 2ebb 690c 41bc
00000380: 19dc 5db8 a761 6bbc 2ab7 0f3d 2994 e63b
00000390: 1d78 b73b 7a1e 8bbb 9b81 9a3c e8a8 81bb
000003a0: 0665 893c 01ac 72b9 4516 e9bb 22d1 b5bb
000003b0: 38b4 1fbc 5419 62bc 243f b1bb f87b bebc
000003c0: 5890 51bb c939 713c eea8 ebbb ad6f 543b
000003d0: 036e 8fbb 283d 633c 9be6 ac3c 78e9 18bb
000003e0: bda8 563c a846 de3b 1e1d 243b 58d1 1a3c
000003f0: d4da 58bc e80c 1d3d 24df f6bb aad7 99bc

action_model._discrete_distribution.branches.4.bias f4 [3]
-0.024049807 -0.00179069 0.025796643
00000000: 1a04 c5bc 96b5 eaba 7b53 d33c

action_model._discrete_distribution.branches.4.weight f4 [3, 128]
0.00029129544 -0.02623456 -0.02325681 0.024457641 -0.0021284986 -0.0005333204 0.0075072264 0.021429898
-0.004943988 0.017271757 -0.023874654 0.018177923 0.02025247 0.00961982 -0.009364348 -0.0031231206
-0.025008641 -0.007910493 0.0013800606 -0.010169666 -0.0076618 0.011832864 -0.006122255 -0.0033531568
0.005965686 -0.02131345 -0.024800628 0.010820197 0.0072583435 -0.0054894225 -0.03307377 -0.00093123864
0.006979479 -0.003328878 0.031340357 0.0146065345 0.020463409 -0.006217378 -0.020104265 -0.039668355
0.011858086 -0.0029676026 0.026752962 -0.017574683 0.020951875 -0.0056134397 -0.00597576 0.034005214
0.00613725 -0.031354185 0.0148797715 0.01348485 0.016269356 -0.02385073 -0.022558557 -0.0014493236
-0.02043124 0.023361295 0.008133876 -0.041151613 -0.0029472492 0.0012801151 0.02550576 0.01107416
-0.004008086 -0.0070116413 -0.00080956565 0.0019517491 0.0035280257 -0.0015730893 0.0025703171 0.006029702
-0.026819872 0.02647879 -0.025659576 -0.038609833 0.0067507867 -0.035592422 0.009688625 -0.017607618
0.04842146 0.0155190565 -0.027672933 0.01433868 0.0045221597 0.033499766 0.042007446 -0.02046003
-0.011437524 0.010512239 -0.00054234726 0.022127282 0.010641731 -0.028492814 0.000509146 -0.014951331
-0.012799917 -0.042971525 0.0042700158 -0.008244536 0.00024413117 -0.002631539 -0.020121248 0.0065755155
0.027308783 -0.01078382 -0.0021815686 0.00035520547 -0.004496537 0.0031526883 0.0042572627 -0.02108817
-0.015168949 0.021945907 0.015295875 0.0233126 -0.015271303 0.011931881 -0.005062475 -0.015613459
0.0063776486 0.0032328782 -0.009397125 -0.005123283 -0.013221073 0.007946575 -0.010660315 0.004858331
0.013627848 -0.023876464 0.010591434 0.0031744756 0.008733089 0.0072677312 -0.0060623563 0.020915337
-0.003067011 0.014101919 0.006060781 -0.005424004 -0.006746569 0.0033040661 0.007487103 -0.008157936
0.01358573 -0.0053640865 0.018156683 -0.0027038653 -0.0014075869 0.010609361 0.006864642 0.013450531
0.019439287 0.01299022 0.01862908 -0.015955834 0.0005916086 -0.009715228 -0.016026843 -0.0042946567
-0.000439263 -0.021901313 -0.020211745 -0.023858981 -0.009792567 0.01014855 0.0030561609 0.0055782716
-0.0033824341 0.02055005 0.02549019 0.017469672 -0.0024546238 -0.015360205 -0.014097597 -0.011624055
-0.0025632912 0.0023797192 0.00080670125 0.002733766 0.0148509145 0.014447888 -0.0074852714 0.015877793
-0.007582995 -0.012154472 -0.030061264 0.011405308 0.00468443 -0.019817736 0.0025683572 0.0005675728
0.009017872 -0.0141119985 -0.033291828 -0.0020526676 -0.011762906 0.009138805 -0.0096804295 -0.0006684408
0.007583394 -0.0058412626 0.023223417 0.0197825 -0.014163601 0.008671736 -0.025102846 -0.00780061
-0.014675002 0.01066732 0.0050824964 -0.008227989 0.006410056 -0.00579149 -0.009964347 -0.012661708
0.0142067745 0.0014890095 0.030909205 0.012358452 -0.0007205926 -0.018219769 -0.0123351915 0.011695709
0.012154827 0.034707505 0.019381631 -0.009595171 0.015778566 0.0058961767 0.0052641206 0.02379724
0.017024262 0.021541918 -0.0063908086 0.0009444979 -0.009404815 -0.010011014 0.015044754 -0.013066483
-0.004903885 -0.010109992 -0.017136302 0.0038807213 0.011472253 0.0031602955 -0.00081134646 0.012075377
-0.027592227 -0.007669491 -0.026864167 -0.0014696022 -0.0018072523 0.020372016 -0.00026799628 -0.019774474
00000000: 03b9 9839 dce9 d6bc 1185 bebc 645b c83c
00000010: 487e 0bbb 87ce 0bba 2eff f53b c18d af3c
00000020: 2d01 a2bb 807d 8d3c c794 c3bc dee9 943c
00000030: 82e8 a53c 739c 1d3c ec6c 19bc 45ad 4cbb
00000040: ecde ccbc 039b 01bc 26e3 b43a ac9e 26bc
00000050: d60f fbbb a1de 413c 339d c8bb a3c0 5bbb
00000060: cd7b c33b 8b99 aebc b02a cbbc 3247 313c
00000070: 66d7 ed3b 9de0 b3bb 5d78 07bd 5e1e 74ba
00000080: 1db4 e43b 4e29 5abb bf5e 003d 3f50 6f3c
00000090: e1a2 a73c 26bb cbbb b3b1 a4bc 497b 22bd
000000a0: 6b48 423c 1c7c 42bb 0729 db3c c8f8 8fbc
000000b0: 44a3 ab3c f2f0 b7bb 4fd0 c3bb 0d49 0b3d
000000c0: fc1a c93b 3f6d 00bd 49ca 733c 8fef 5c3c
000000d0: 5047 853c 9b62 c3bc b9cc b8bc 3bf7 bdba
000000e0: 6a5f a7bc 3060 bf3c f343 053c 988e 28bd
000000f0: a326 41bb 89c9 a73a 75f1 d03c 6570 353c
00000100: 4356 83bb e9c1 e5bb 0839 54ba d5d1 ff3a
00000110: 7336 673b 1e30 ceba c472 283b ce94 c53b
00000120: 59b5 dbbc 0cea d83c 0834 d2bc 5825 1ebd
00000130: b435 dd3b 5cc9 11bd 0abd 1e3c da3d 90bc
00000140: 9555 463d a443 7e3c 59b2 e2bc c8ec 6a3c
00000150: a02e 943b 0d37 093d 0010 2c3d cb9b a7bc
00000160: 7464 3bbc 873b 2c3c 4f2c 0eba 4644 b53c
00000170: a85a 2e3c c369 e9bc 3678 053a 6df6 74bc
00000180: beb6 51bc e902 30bd 7deb 8b3b 1714 07bc
00000190: 76fd 7f39 e675 2cbb 51d5 a4bc 6c77 d73b
000001a0: abb6 df3c 9fae 30bc a6f8 0ebb df3a ba39
000001b0: b057 93bb 559d 4e3b 8280 8b3b 19c1 acbc
000001c0: 2f87 78bc e7c7 b33c 8d9b 7a3c 11fa be3c
000001d0: 7d34 7abc f07d 433c 1ee3 a5bb 98cf 7fbc
000001e0: 98fb d03b b2de 533b 66f6 19bc 36e1 a7bb
000001f0: 339d 58bc 5a32 023c 9aa8 2ebc a232 9f3b
00000200: 5647 5f3c 9398 c3bc b287 2d3c dd0a 503b
00000210: 3b15 0f3c 2626 ee3b bba6 c6bb a456 ab3c
00000220: e8ff 48bb bc0b 673c 8499 c63b d8bb b1bb
00000230: 5312 ddbb 0889 583b 5f56 f53b dda8 05bc
00000240: af96 5e3c 38c5 afbb 53bd 943c 5533 31bb
00000250: c77e b8ba e3d2 2d3c caf0 e03b 9e5f 5c3c
00000260: 243f 9f3c efd4 543c 039c 983c cfb5 82bc
00000270: 2e16 1b3a 9f2c 1fbc ba4a 83bc 31ba 8cbb
00000280: e24c e6b9 626a b3bc 1a93 a5bc e973 c3bc
00000290: 0171 20bc 1b46 263c df49 483b efc9 b63b
000002a0: d4ab 5dbb 9458 a83c ced0 d03c 8f1c 8f3c
000002b0: c1dd 20bb 5fa9 7bbc 9cf9 66bc d272 3ebc
000002c0: e4fc 27bb 10f5 1b3b ce78 533a fc28 333b
000002d0: 4051 733c d6b6 6c3c 0247 f5bb 2512 823c
000002e0: c67a f8bb 8d23 47bc 0a43 f6bc 54dd 3a3c
000002f0: d97f 993b ce58 a2bc e251 283b 2ac9 143a
00000300: b2bf 133c 0336 67bc 035d 08bd 0c86 06bb
00000310: 34b9 40bc edba 153c aa9a 1ebc 4e3a 2fba
00000320: 1f7e f83b 1068 bfbb 093f be3c e90e a23c
00000330: 730e 68bc e613 0e3c 7ca4 cdbc 429c ffbb
00000340: 6b6f 70bc fcc5 2e3c 128b a63b b0ce 06bc
00000350: 720b d23b 8ac6 bdbb 8041 23bc 0d73 4fbc
00000360: 88c3 683c de2a c33a 4d35 fd3c 1b7b 4a3c
00000370: 27e6 3cba a041 95bc 8b19 4abc 5c9f 3f3c
00000380: 0a25 473c 7529 0e3d 3ac6 9e3c 1035 1dbc
00000390: 0d42 813c b734 c13b a57e ac3b 6ef2 c23c
000003a0: 7776 8b3c ad78 b03c fd69 d1bb 2e98 773a
000003b0: a716 1abc 3c05 24bc 467e 763c cd14 56bc
000003c0: c5b0 a0bb 61a4 25bc 6e61 8cbc b353 7e3b
000003d0: 1ef6 3b3c f61c 4f3b 8ab0 54ba cdd7 453c
000003e0: 1809 e2bc 5b50 fbbb 3e12 dcbc ab9f c0ba
000003f0: 53e1 ecba 37e3 a63c da81 8cb9 14fe a1bc

action_model._discrete_distribution.branches.5.bias f4 [3]
-0.01501201 0.010278217 0.004405775
00000000: eff4 75bc f765 283c 525e 903b

action_model._discrete_distribution.branches.5.weight f4 [3, 128]
-0.014958149 -0.02182498 0.0028571542 0.012709641 -0.0075065037 0.0050805616 0.039840244 0.002689792
0.009200405 0.02128917 0.0007791382 0.0032854439 0.03238228 0.00982179 -0.00023015609 0.030959196
-0.012881076 -0.008249445 0.0077579524 0.008007218 -0.019521294 0.017864542 -0.015628386 -0.0038329163
0.01235563 -0.003560013 0.00357658 -0.024546375 -0.0070148176 0.015746599 -0.002519611 -0.009522405
0.012984172 0.004218575 -0.018010508 0.0024401597 0.032773796 0.012362344 0.0071161706 -0.021307759
0.03249663 0.010395618 -0.0048444485 0.011036013 0.00029948444 0.003014311 -0.00054756354 0.006978716
0.018447815 0.013631286 0.0109707 -0.020242378 -0.01511326 0.010053525 -0.017500492 -0.003641962
-0.0114145195 -0.0028387948 0.011283298 -0.033234876 0.002020634 0.011573149 -0.010471058 0.078047164
-0.006365506 0.015695482 -0.023075975 -0.0032842986 -0.020452786 -0.0016004588 -0.020691825 -0.021173937
-0.01911199 -0.00395686 0.0063070823 -0.0048504276 0.024029661 -0.01703687 -0.0047183787 -0.01970243
0.020366404 -0.021681055 -0.012589137 0.0008243691 -0.003508388 -0.018399252 0.025164977 0.0034050283
-0.012622622 0.029524421 0.0068882275 0.02248736 -0.012318943 -0.022892404 -0.007828657 0.016114695
-0.010733634 -0.017947322 0.0077878213 0.009791741 -0.029812621 0.016137445 -0.020085497 -0.0055065393
0.047540907 -0.023987321 -0.008671926 -0.014842891 -0.00085508014 -0.009424452 0.030186465 -0.0033263557
-0.032411706 -0.004096854 -0.0040594926 -0.009557909 0.019295556 -0.02623711 0.000435047 0.0064129736
0.023810567 -0.029515848 0.009823372 0.0062978873 -0.018474555 -0.029890385 0.0033524733 0.01774585
0.009370276 0.00791601 -0.012373174 0.001985196 -0.007802804 0.011167816 -0.023772521 -0.005579317
-0.00014319329 -0.0049211355 0.031457268 -0.005255544 -0.01010985 0.011667969 -0.010583953 0.009760182
-0.011849237 -0.017292995 -0.0003423946 -0.0071828407 0.007951551 -0.007821937 0.0016719697 -0.010227111
-0.0047892607 -0.0065050474 -0.008443432 -0.0037566847 -0.021556867 -0.00027600522 0.019531 -0.013874993
-0.021993784 -0.013531583 -0.028209565 0.0020985692 -0.012196334 0.0053459336 -0.015112003 -0.014628001
-0.009220673 0.009222155 0.021088425 -0.0071962043 0.03425759 -0.028853817 -0.006639654 0.012072731
-0.012443072 -0.0028912786 0.0010800979 -0.007820515 0.028636988 0.0028508853 0.000536735 -0.0076522576
0.0031222855 -0.000743337 -0.01802115 0.015435574 -0.017070305 0.0035567693 0.014791618 -0.008638394
0.0009986222 -0.008259865 -0.002143485 -0.009048292 -0.005584267 0.012627258 -0.00667597 0.004965119
0.012220897 0.00014135899 0.0038100223 0.0063379547 -0.0010298743 0.023130156 -0.013420418 0.0040179132
0.004722103 0.0327729 0.008883847 -0.024238348 0.032076847 0.020810219 0.005607294 -0.01608706
0.00821278 0.002299722 -0.015275748 -0.007928494 -0.0041134106 -0.010754773 -0.0050449655 0.0117717935
0.028849654 0.005561524 0.007480995 -0.04174281 0.0006876318 -0.002940518 0.009223776 -0.003629032
-0.012870326 -0.0090244785 -0.0049574664 -0.0057594324 -0.023172917 -0.004943943 -0.007927137 -0.0047689355
0.015209266 0.021608856 0.016786035 -0.033545967 -0.014409671 0.03161343 0.012359794 -0.0002613946
-0.02115697 -0.025934068 -0.0022804546 0.002664901 -0.03338238 0.0076724747 -0.0022585236 -0.024129942
00000000: 0613 75bc 4dca b2bc 183f 3b3b 193c 503c
00000010: 1ef9 f5bb d77a a63b 862f 233d 3947 303b
00000020: 4cbd 163c a066 ae3c 143f 4c3a 9a50 573b
00000030: 48a3 043d 93eb 203c 0e56 71b9 249e fd3c
00000040: 260b 53bc ae28 07bc 6c36 fe3b b530 033c
00000050: 1feb 9fbc a958 923c 1a07 80bc aa31 7bbb
00000060: 456f 4a3c 1b4f 69bb 0e65 6a3b 7b15 c9bc
00000070: 8edc e5bb 03ff 803c 0f20 25bb dd03 1cbc
00000080: 91bb 543c f93b 8a3b c68a 93bc 16eb 1f3b
00000090: d13d 063d 6e8b 4a3c c42e e93b 9c8d aebc
000000a0: 301b 053d 6252 2a3c 2ebe 9ebb 65d0 343c
000000b0: 1f04 9d39 bf8b 453b 5e8a 0fba b6ad e43b
000000c0: df1f 973c c255 5f3c 73be 333c 58d3 a5bc
000000d0: 9b9d 77bc 8ab7 243c 315d 8fbc fcad 6ebb
000000e0: f703 3bbc 130b 3abb 95dd 383c 4b21 08bd
000000f0: 9d6c 043b 4e9d 3d3c cd8e 2bbc 31d7 9f3d
00000100: bc95 d0bb d093 803c d409 bdbc 633d 57bb
00000110: 9a8c a7bc 7cc6 d1ba e781 a9bc f774 adbc
00000120: c090 9cbc 8ca8 81bb a4ab ce3b 56f0 9ebb
00000130: dad9 c43c e890 8bbc a19c 9abb fe66 a1bc
00000140: 72d7 a63c 789c b1bc ab42 4ebc 791a 583a
00000150: fcec 65bb 07ba 96bc c826 ce3c e526 5f3b
00000160: 1dcf 4ebc 33dd f13c a4b6 e13b 6937 b83c
00000170: 64d5 49bc da88 bbbc c443 00bc f702 843c
00000180: 20dc 2fbc 4306 93bc fb30 ff3b 8a6d 203c
00000190: 9939 f4bc ad32 843c 578a a4bc 3370 b4bb
000001a0: 41ba 423d 0f81 c4bc b214 0ebc 992f 73bc
000001b0: 7527 60ba 0469 1abc 9b49 f73c fdfe 59bb
000001c0: 23c2 04bd e73e 86bb 7e05 85bb c798 1cbc
000001d0: b711 9e3c 35ef d6bc 0517 e439 ec23 d23b
000001e0: 610e c33c 38cb f1bc 35f2 203c 825e ce3b
000001f0: f357 97bc aedc f4bc 2bb5 5b3b bf5f 913c
00000200: c985 193c 27b2 013c dab8 4abc 101a 023b
00000210: aaae ffbb 37f9 363c 97be c2bc b4d2 b6bb
00000220: 2826 16b9 7a41 a1bb 56d9 003d b336 acbb
00000230: c9a3 25bc 022b 3f3c 5168 2dbc 2ce9 1f3c
00000240: 4d23 42bc 0aaa 8dbc 6d83 b3b9 095e ebbb
00000250: 3947 023c 9527 00bc fe25 db3a 9d8f 27bc
00000260: 3bef 9cbb 4b28 d5bb 5256 0abc b632 76bb
00000270: 0798 b0bc cbb4 90b9 7aff 9f3c f053 63bc
00000280: 4f2c b4bc 93b3 5dbc bf17 e7bc 2688 093b
00000290: 22d3 47bc f12c af3b 5698 77bc 48aa 6fbc
000002a0: 4e12 17bc 8618 173c a2c1 ac3c 23ce ebbb
000002b0: b051 0c3d d75e ecbc 7491 d9bb b4cc 453c
000002c0: 07de 4bbc 9b7b 3dbb 1292 8d3a 9e21 00bc
000002d0: 1e98 ea3c ebd5 3a3b adb3 0c3a cabf fabb
000002e0: 429f 4c3b 80dc 42ba 17a1 93bc 7de5 7c3c
000002f0: 06d7 8bbc b018 693b 8b58 723c 0d88 0dbc
00000300: 33e4 823a 6354 07bc b679 0cbb 4a3f 14bc
00000310: 3afc b6bb 8fe2 4e3c 18c2 dabb 70b2 a23b
00000320: 283a 483c c439 1439 91b1 793b 9eae cf3b
00000330: d9fc 86ba 747b bd3c 50e1 5bbc b3a8 833b
00000340: dfbb 9a3b e03c 063d 8e8d 113c 808f c6bc
00000350: 0363 033d 317a aa3c 64bd b73b 03c9 83bc
00000360: e58e 063c efb6 163b 2247 7abc 84e6 01bc
00000370: cac9 86bb ca34 30bc 3d50 a5bb 7bde 403c
00000380: 1c56 ec3c 723d b63b 2223 f53b 82fa 2abd
00000390: 3042 343a b5b5 40bb 521f 173c 0ed5 6dbb
000003a0: 0fde 52bc 68db 13bc 3e72 a2bb 9fb9 bcbb
000003b0: 21d5 bdbc cd00 a2bb d3e0 01bc bb44 9cbb
000003c0: 4930 793c 0e05 b13c de82 893c 7f67 09bd
000003d0: 8a16 6cbc 157d 013d bc80 4a3c ca0b 89b9
000003e0: 6251 adbc af73 d4bc ae73 15bb 9fa5 2e3b
000003f0: f6bb 08bd 6269 fb3b bd03 14bb 28ac c5bc

action_model._discrete_distribution.branches.6.bias f4 [3]
-0.002300782 -0.0063648485 0.0083152605
00000000: b7c8 16bb 3890 d0bb bb3c 083c

action_model._discrete_distribution.branches.6.weight f4 [3, 128]
-0.015187236 -0.009525884 0.0010959384 -0.0062383106 0.017813584 0.009292168 -0.0022290552 0.00014335527
-0.0011833578 -0.007131743 -0.009281976 -0.005512289 0.013039626 -0.010194882 0.005072062 0.007453575
-0.0032792946 0.0013627239 -0.0004539903 0.015400121 -0.022095595 0.005030286 0.01886841 0.026229938
-0.0049386234 -0.008002426 0.0016615611 -0.011661802 -0.043190088 0.0076855584 0.008506109 -0.0037526404
0.009316754 0.003730359 -0.00024435396 0.014302744 -0.0077141863 -0.015029306 0.0012167711 0.0009361692
-0.011652873 0.0064769206 -0.00070892676 -0.011672049 -0.0061466694 0.019629467 -0.0100203445 -0.0032445265
0.010613144 -0.0014676993 -0.0112659875 -0.006445711 -0.012313009 -0.007832957 0.014788376 0.008917364
-0.005364952 -0.0047335755 0.010055471 -0.0012712758 0.0032815945 0.013977319 -0.0015074966 -0.004503567
-0.010053862 0.0073532145 0.029510902 -0.007380222 -0.0004742626 -0.0025521712 -7.754364e-05 -0.007990384
0.002299285 -0.005218251 -0.009830766 -0.0205749 -0.010742074 -0.0038788998 0.019423703 -0.004136153
-0.0077783647 -0.0040110387 0.015207881 0.003845914 -0.005507479 0.022763733 0.00010339596 0.020192895
0.0037100925 0.002500062 0.008913061 0.00034805608 0.015038048 0.008636485 -0.017284889 -0.0051537585
0.004907069 -0.001114392 -0.0041511646 -0.019246193 -0.014653388 0.0095244255 -0.0028395033 0.00913085
-0.030806202 0.001508161 -0.0042617405 0.025310164 -0.0017494285 -0.015756408 -0.018925434 0.011346029
-0.010705272 0.014881302 -0.012452013 -0.00611037 -0.028729724 0.0009834229 -0.00445421 -0.004272756
-0.00027912523 0.010399726 -0.0046996293 -0.00987675 0.01612347 -0.012293677 0.004533857 0.0052491683
0.029540336 -0.00014531112 -0.014197409 -0.026513359 0.0055458774 0.009535204 -0.006949795 -0.018399438
-0.004850769 -0.02273112 0.019970594 -0.0223384 0.00053945894 0.005822932 -0.00061591074 0.023593528
-0.008850925 0.008030418 -0.0061730645 -0.00080557395 0.013862496 -0.015382382 -0.024471898 0.013176736
0.015902812 0.006943108 0.019770922 -0.031856604 0.028202696 -0.008464339 0.0033799305 0.022153756
-0.021732997 0.00951981 -0.017110625 -0.007807235 -0.004995332 0.00797093 0.011247876 -0.024375923
0.0015384215 0.017502315 0.019028649 0.00910074 0.018246744 -0.019538797 0.00048323435 -0.00572981
-0.011133497 0.0021217677 -0.001217177 0.005232 0.015690843 -0.0004983032 -0.0004679439 0.002189765
-0.01538086 0.01488298 -0.0067240316 0.006357798 0.014463786 0.0053279786 0.022279846 -0.008812704
0.0004909056 0.0006175152 -0.018319614 -0.0083768945 -0.0064905616 0.03373652 -0.0032533226 0.028039502
-0.0056767007 0.017289318 0.0043285307 0.0055309506 -0.01512616 0.0046749446 -0.0059514516 0.013365639
-0.002690983 -0.008145801 0.01141204 -0.035088945 -0.02228959 0.009055542 -0.0025599287 -2.6520973e-05
-0.0026277427 0.0032990384 0.023819756 0.003847919 0.0077895345 -0.030012256 -0.016435098 0.008837405
0.0053936164 -0.024661865 0.019193798 -0.015771024 0.00015231948 -0.007504054 0.017155128 0.019580103
0.010040392 -0.0016254319 -0.01325618 -0.010470276 -0.0092436345 -0.016731009 0.0354328 0.005740683
-0.008237461 0.0046331617 0.025240839 -0.019887516 -0.0075936206 0.040740542 -0.0142398765 0.005461417
-0.032465547 -0.0013747461 -0.009487286 -0.023492897 0.0003367343 0.021803282 -0.015084878 0.005954474
00000000: e2d3 78bc 7412 1cbc 97a5 8f3a be6a ccbb
00000010: cbed 913c 2d3e 183c 5715 12bb a351 1639
00000020: e61a 9bba 65b1 e9bb 6e13 18bc 6ea0 b4bb
00000030: 28a4 553c 6f08 27bc 8a33 a63b 1e3d f43b
00000040: 6fe9 56bb 6d9d b23a 8c05 eeb9 ca50 7c3c
00000050: d201 b5bc 19d5 a43b ec91 9a3c 2be0 d63c
00000060: 2dd4 a1bb 9b1c 03bc bdc8 d93a 2511 3fbc
00000070: 17e8 30bd 23d7 fb3b 355d 0b3c dcee 75bb
00000080: 4ca5 183c 0a79 743b a21c 80b9 0e56 6a3c
00000090: 49c7 fcbb 7a3d 76bc 107c 9f3a 4069 753a
000000a0: b1eb 3ebc 593c d43b 45d7 39ba 1f3c 3fbc
000000b0: 006a c9bb facd a03c 5f2c 24bc 1fa2 54bb
000000c0: c1e2 2d3c d15f c0ba fa94 38bc 8b36 d3bb
000000d0: 81bc 49bc ce55 00bc f24a 723c 231a 123c
000000e0: 7bcc afbb 1c1c 9bbb b4bf 243c f0a0 a6ba
000000f0: 0510 573b 2001 653c 3197 c5ba a892 93bb
00000100: f4b8 24bc 3cf3 f03b d9c0 f13c cad5 f1bb
00000110: 73a6 f8b9 5442 27bb ed9e a2b8 19ea 02bc
00000120: 9aaf 163b ddfd aabb 3911 21bc b18c a8bc
00000130: 86ff 2fbc 2435 7ebb 751e 9f3c 9188 87bb
00000140: a7e1 febb 086f 83bb 7a2a 793c bb0b 7c3b
00000150: 1578 b4bb 027b ba3c 49d6 d838 926b a53c
00000160: 0625 733b 15d8 233b 1608 123c 4c7b b639
00000170: 2562 763c 0b80 0d3c 0a99 8dbc dce0 a8bb
00000180: 7acb a03b ca10 92ba 7e06 88bb 31aa 9dbc
00000190: c414 70bc 560c 1c3c f616 3abb 9099 153c
000001a0: 4a5d fcbc 7cad c53a 12a6 8bbb 4357 cf3c
000001b0: 144d e5ba 9513 81bc 8309 9bbc b2e4 393c
000001c0: 2a65 2fbc b4d0 733c 8703 4cbc 8039 c8bb
000001d0: 995a ebbc 32e6 803a 9ff4 91bb 7a02 8cbb
000001e0: 8e57 92b9 9d63 2a3c 59ff 99bb 18d2 21bc
000001f0: 5e15 843c 6b6b 49bc c090 943b 3701 ac3b
00000200: 93fe f13c a85e 18b9 409c 68bc 8b32 d9bc
00000210: 31ba b53b 8b39 1c3c 1bbb e3bb 6bba 96bc
00000220: 33f3 9ebb 9d36 babc 5f99 a33c 05ff b6bc
00000230: 7a6a 0d3a 4bce be3b 1275 21ba 3747 c13c
00000240: 7803 11bc 0492 033c 6b47 cabb 272d 53ba
00000250: 861f 633c 6306 7cbc 4a79 c8bc 3de3 573c
00000260: 9d46 823c 0383 e33b a1f6 a13c 127c 02bd
00000270: 5709 e73c 03ae 0abc d381 5d3b cb7b b53c
00000280: 6609 b2bc faf8 1b3c 952b 8cbc d5d3 ffbb
00000290: e2af a3bb 8198 023c 0349 383c 04b0 c7bc
000002a0: dca4 c93a 0461 8f3c f8e1 9b3c 451b 153c
000002b0: 327a 953c d40f a0bc 9e5a fd39 21c1 bbbb
000002c0: 4569 36bc 5b0d 0b3b af89 9fba 3271 ab3b
000002d0: 158a 803c 90a0 02ba 5e56 f5b9 2982 0f3b
000002e0: 0100 7cbc bed7 733c 4455 dcbb 1355 d03b
000002f0: 84f9 6c3c 5396 ae3b 3984 b63c 2963 10bc
00000300: 1eb0 003a bee0 213a 0413 96bc 3e3f 09bc
00000310: c7ae d4bb 4e2f 0a3d b235 55bb 19b3 e53c
00000320: 9e03 babb 54a2 8d3c 59d6 8d3b fa3c b53b
00000330: b7d3 77bc 4730 993b 6504 c3bb 8efb 5a3c
00000340: 345b 30bb f775 05bc 91f9 3a3c 6db9 0fbd
00000350: a998 b6bc b25d 143c 7ac4 27bb 5b79 deb7
00000360: 3536 2cbb ae34 583b a621 c33c 5e2d 7c3b
00000370: 5a3f ff3b 43dc f5bc e6a2 86bc c3ca 103c
00000380: efbc b03b ae07 cabc 503c 9d3c 3c32 81bc
00000390: f3b7 1f39 91e4 f5bb e988 8c3c 7466 a03c
000003a0: 7580 243c 720c d5ba 7330 59bc 858b 2bbc
000003b0: 9d72 17bc 780f 89bc fc21 113d 571c bc3b
000003c0: 6af6 06bc c7d1 973b e0c5 ce3c 25eb a2bc
000003d0: e8d3 f8bb 8edf 263d 5f4e 69bc b0f5 b23b
000003e0: 98fa 04bd d330 b4ba 9070 1bbc 2d74 c0bc
000003f0: b68b b039 cc9c b23c 9026 77bc c01d c33b

discrete_action_output_shape f4 [1, 7]
3.0 3.0 3.0 3.0 3.0 3.0 3.0
00000000: 0000 4040 0000 4040 0000 4040 0000 4040
00000010: 0000 4040 0000 4040 0000 4040

network_body._body_endoder.seq_layers.0.bias f4 [128]
-0.0019362608 0.010720291 0.02436504 -0.001870387 0.013241849 0.031241613 0.028393196 0.039202143
0.0042759464 -0.0032361695 -0.01882391 0.025664158 0.014505968 -0.0054892316 -0.051052384 -0.0064620087
0.02931376 -0.019486414 -0.016160116 0.011049713 -0.009451925 0.036524303 0.026670098 0.04230929
0.022689939 0.026679188 0.033684548 0.024460163 0.0040311525 0.027151134 0.0032269203 0.0093262475
0.03723389 -0.002543892 0.00038522115 0.013021483 0.029533388 0.007916719 0.0073908884 0.025467176
0.025588466 -0.015645428 0.020166185 0.0067858757 0.016588386 0.021085512 0.008657216 0.04251788
0.0099170245 0.016577076 0.0069227577 0.00025431975 0.008792502 0.012110992 0.004854471 0.013265624
0.010846014 0.03246811 0.041967154 -0.0017154859 0.034387928 0.04577077 0.00062369305 -0.002456575
0.037774622 0.057077784 -0.003905786 0.027470868 0.014480782 0.033228967 0.007676404 0.023452092
0.039000213 -0.006934685 0.027436264 0.014185156 0.0058578085 -0.020251825 0.06451218 0.032359157
-0.0028336968 -0.008876721 0.00604618 -0.028015977 0.019132089 0.00879719 0.009393614 0.020731617
0.026410477 0.03986184 0.011489928 0.051564157 0.047610093 0.0020151727 -0.011474329 -0.0066245864
0.01656019 0.01889987 -8.114406e-05 0.024378628 0.02675207 0.027654102 -0.0010031018 0.019995783
-0.030682007 -0.011253495 0.013861342 0.026605932 0.028142799 0.007224405 0.0011224621 0.009550919
0.029677857 0.008549231 -0.003563412 -0.0012619551 0.022307303 0.008630122 0.02087608 0.014492521
-0.018558996 0.009824218 0.023422185 0.010663027 0.028795347 -0.02405922 0.001986442 0.05588156
00000000: 22ca fdba 29a4 2f3c 3199 c73c c627 f5ba
00000010: 57f4 583c 69ee ff3c d998 e83c 6d92 203d
00000020: 3d1d 8c3b ea15 54bb 9a34 9abc a43d d23c
00000030: 71aa 6d3c 03df b3bb 4e1c 51bd 42bf d3bb
00000040: 6923 f03c f9a1 9fbc 3862 84bc db09 353c
00000050: 3fdc 1abc 829a 153d 407b da3c 824c 2d3d
00000060: 40e0 b93c 508e da3c cff8 093d ae60 c83c
00000070: c217 843b 0e6c de3c bd7a 533b 1ecd 183c
00000080: 9082 183d 6db7 26bb 82f7 c939 0f58 553c
00000090: 01f0 f13c 20b5 013c 442f f23b 8aa0 d03c
000000a0: e79e d13c d72a 80bc 8e33 a53c 0d5c de3b
000000b0: 5ee4 873c 86bb ac3c ffd6 0d3c 3b27 2e3d
000000c0: 047b 223c a6cc 873c 4dd8 e23b 3856 8539
000000d0: 6d0e 103c 2f6d 463c 4112 9f3b 0f58 593c
000000e0: 7bb3 313c 48fd 043d c0e5 2b3d 28da e0ba
000000f0: 5bda 0c3d 227a 3b3d 557f 233a 7dfe 20bb
00000100: 90b9 1a3d 65ca 693d 37f8 7fbb 960a e13c
00000110: cd40 6d3c 191b 083d 588a fb3b 9a1e c03c
00000120: b0be 1f3d 5b3c e3bb 04c2 e03c db68 683c
00000130: dcf2 bf3b 28e7 a5bc f61e 843d 098b 043d
00000140: 8bb5 39bb ab6f 11bc 091f c63b c381 e5bc
00000150: e6ba 9c3c 1722 103c ace7 193c 5ad5 a93c
00000160: c95a d83c 2b46 233d 4040 3c3c f034 533d
00000170: cd02 433d fd10 043b d3fe 3bbc 0f13 d9bb
00000180: 3ca9 873c e6d3 9a3c e32b aab8 b0b5 c73c
00000190: 2827 db3c db8a e23c 837a 83ba 32ce a33c
000001a0: d558 fbbc 9460 38bc af1a 633c aff4 d93c
000001b0: ba8b e63c b4ba ec3b 941f 933a 757b 1c3c
000001c0: fa1e f33c 1312 0c3c 2288 69bb 3068 a5ba
000001d0: cebd b63c 5b65 0d3c 5004 ab3c 0a72 6d3c
000001e0: 0909 98bc c2f5 203c e2df bf3c fab3 2e3c
000001f0: 38e4 eb3c d717 c5bc f72e 023b 10e4 643d
