ArmRobotExpanded/Assets/Model/test12.onnx (onnx, 89535 bytes, 19 tensors)

action_model._discrete_distribution.branches.0.bias f4 [3]
00000000: 63ac 103e cddb 81bd 02d8 47bd
0.1412826 -0.06340752 -0.048789985

action_model._discrete_distribution.branches.0.weight f4 [3, 128]
00000000: 07db 23be ae01 e63c 3aa0 5d3d 96f9 513e
00000010: 52e3 2d3e 05c9 c3be d6b7 803d 8ed2 b53d
00000020: 2f1f 89be 6e31 043f a03d 1dbc 0070 0d3f
00000030: a0e2 813e 8932 06bf 4746 96be 63d1 f03d
00000040: 0a5f 6cbe 242d 29bf 3920 8e3c 3df3 983c
00000050: 7d8d aa3e 989a eb3e 6022 31be 49f5 a7be
00000060: b928 1d3e d28f e13e 0448 2e3e 9ae1 3cbf
00000070: f13b 393e 78f6 383e d17e 6bbf 2f63 513f
00000080: 0ce7 e23e b331 a33c 336f 953e fc8e 88be
00000090: 7bee a73c 8b12 d93c fa30 e0be 7d33 fd3e
000000a0: 5d2a 2dbe 8b47 8cbe de69 a3be 8101 583e
000000b0: ba96 93be b34d f8bd 38c3 9ebd 3b36 a4be
000000c0: 9ac2 053e f9eb d0be eab1 81bf 0cd5 10bd
000000d0: 013c b6be 2c39 683f 8722 2f3f 629d b9be
000000e0: acaa ca3e 0287 91be a36b 3e3f 1bc7 4ebf
000000f0: 5806 4e3e 9114 49be b3f6 79be 4dda 4abe
00000100: 573c f43e adca 7e3e 2b60 98bf fba0 0dbf
00000110: 27da 88bf 437d 3e3e a8b0 033d b537 0fbf
00000120: f756 653e a509 093f 28ee 02be 4500 c03e
00000130: 2c9b 6b3f 9ab2 b2be 3e4f ad3e f4a6 a03d
00000140: 4a95 903e 6125 19bf deb6 0fbf e8a5 4c3e
00000150: beb2 13bf 4c9f 04be 3665 b9bd c6ef 19bf
00000160: 428c a53d 9b8b d83d 5725 77be 0935 ac3e
00000170: eded 883f 6813 81be 7114 033f ce1c f2be
00000180: 1046 28bd 6283 9bbe ddf8 533e 7f2f ee3d
00000190: 62ff 103f 0606 c9be 5340 c53e db26 ca3e
000001a0: 1fed 5cbf 6159 08bf 166b 3f3f 1f6a 553f
000001b0: 6f62 7ebe d62c b63d b939 d9be 4949 07bf
000001c0: 7f8f 023f 33a6 323f bdfc 103f 676e 84bf
000001d0: 9327 183f 7e5f 4a3f d52f a43e cb25 173d
000001e0: c33e 71bc 8f56 62bf 8f5c 133e 7c56 b23d
000001f0: 28d4 2c3f 9417 493e 22da 2bbc 9ceb 3f3f
00000200: a54d 813e 3e68 b9bd 6fe9 6fbe 2996 babe
00000210: 9651 05be e697 0b3f 1f38 e93d 7e32 96be
00000220: a467 4d3d b29a df3d 9069 5d3e 4a67 d0be
00000230: 39a6 d8bd 0b3a e53c 7c0a 92be f333 24be
00000240: 923e a03d ea14 4d3e 6d4a 373e bb25 763e
00000250: 9fef 81be 6fa1 adbe bdcd 283e 6003 7b3d
00000260: 998a 283e 470d f9bd b1f1 2e3e ca8c 12be
00000270: 0208 113e c2c4 4f3e 1990 27be f930 97be
00000280: 8830 56be e89d de3d 3fa6 04bf 4be4 303e
00000290: ef35 043d d347 23bd d3a9 a4bd 9fd4 c23d
000002a0: 1c86 15be 6877 2b3f 1df4 abbd fbb2 d03d
000002b0: c879 983e 5a54 333e 1c24 a63d 2f99 a0bd
000002c0: 7212 fd3d 466a 86bc 03f1 713d ece9 6b3e
000002d0: a9bc 90be bf32 03bf dfcd b9be 3a82 9a3d
000002e0: 6883 143f 2c5d a53c 4eb4 61bd 1a79 6c3e
000002f0: b7cb 49be ad01 0dbd ea8a d13e 780a 743e
00000300: 56f7 5d3d e463 d3bd f926 e83e dd39 2dbe
00000310: 4869 883e 0bca 16be 0bc4 ba3c fd90 443d
00000320: d559 38be 1731 cb3e be6e b7be d00a 683e
00000330: d8e2 82bc 78ef a2bd 6e71 fbbb ca02 d3bd
00000340: e34e 473e 71f4 ad3d ade7 223e 6a33 8c3c
00000350: a02d a4be 9ec1 af3d 4ebb 7a3e 70cd 633e
00000360: 4769 543e 15ac 85bc a60a 1bbe 4768 89bd
00000370: 2fa5 9dbe 228d 23be e83f c7bd 65af 153d
00000380: e736 e73c 7325 77bd 05cf 123e e6a6 73be
00000390: 7ac1 373e 37ac 1e3e 42aa 19bf 04ae 0abe
000003a0: ecd1 45bd 3ff8 e43d ce77 a2be 705b a8be
000003b0: fb4a 353e c126 20be 5995 e33d 45eb 70bd
000003c0: 1811 273c 66cd 863d 7bb0 c7be a4ed 733e
000003d0: 370e 8b3e 476d 28be 93fe 073e c7da 073e
000003e0: f760 1abe 4e79 233c df8a b5bb ebdf b13e
000003f0: c399 f4be b32e 80bf 0806 3e3e 368a eabd
-0.16001521 0.028076973 0.054107882 0.20505366 0.16981247 -0.38239303 0.06285064 0.08878051
-0.26781604 0.51637924 -0.009597212 0.55249023 0.25368214 -0.5242086 -0.29350492 0.11758687
-0.2308313 -0.66084504 0.01734935 0.018670673 0.33311072 0.46016383 -0.1729827 -0.32804325
0.15347566 0.4405504 0.1701966 -0.7378174 0.18089272 0.1806277 -0.9199038 0.8179197
0.443169 0.01992116 0.291864 -0.26671588 0.020499459 0.0264981 -0.43787366 0.49453345
-0.16910692 -0.27398333 -0.31916708 0.21094324 -0.28825933 -0.12124195 -0.07752079 -0.32072625
0.13062516 -0.40805033 -1.013242 -0.035359427 -0.35592654 0.9071224 0.6841206 -0.36252886
0.39583337 -0.28423315 0.7438299 -0.8077256 0.20119607 -0.19636752 -0.24410515 -0.19809838
0.47702286 0.24882002 -1.1904348 -0.5532376 -1.0691575 0.18602471 0.032150894 -0.5594438
0.22396456 0.5353034 -0.12786162 0.37500206 0.9203365 -0.34901887 0.3384952 0.07844344
0.282389 -0.5982266 -0.5613841 0.19985163 -0.57694614 -0.12951392 -0.090525076 -0.6013149
0.08083393 0.10573503 -0.24135338 0.33634213 1.0697609 -0.25210118 0.51203066 -0.472876
-0.04108244 -0.30373675 0.20700403 0.11630153 0.56639683 -0.39262408 0.38525638 0.3948277
-0.8629932 -0.5326138 0.74772775 0.8336505 -0.24842237 0.088952705 -0.4242685 -0.528462
0.5100021 0.6978485 0.5663565 -1.0346192 0.59435385 0.7905196 0.32067743 0.036901277
-0.014724436 -0.8841333 0.14390777 0.08707902 0.67511225 0.196379 -0.010489019 0.74968886
0.2525455 -0.09053086 -0.23428892 -0.36442688 -0.13019404 0.54528654 0.113876574 -0.29335397
0.050147668 0.10918178 0.216223 -0.40703803 -0.105785795 0.027981779 -0.28523624 -0.16035442
0.07824434 0.2002751 0.17899485 0.2403783 -0.2537813 -0.33912227 0.16484733 0.061282516
0.16459121 -0.121607356 0.17084385 -0.1431152 0.14163211 0.20289901 -0.16363563 -0.2952955
-0.2091695 0.10869962 -0.5181617 0.17274587 0.032277998 -0.03986342 -0.08040204 0.095132105
-0.1460194 0.66979074 -0.0839617 0.10190388 0.29780412 0.17512646 0.08112356 -0.078417175
0.12357034 -0.016408097 0.059067737 0.23038453 -0.28268936 -0.5124931 -0.3628988 0.0754437
0.5801301 0.02018603 -0.055103593 0.23093072 -0.19706617 -0.034425426 0.40926296 0.23832119
0.054190956 -0.10321787 0.45342234 -0.16916604 0.26642823 -0.14725511 0.022798559 0.047989834
-0.18003018 0.3968589 -0.35826677 0.22660375 -0.015977308 -0.07955831 -0.007673434 -0.10303266
0.19463687 0.08493889 0.1590869 0.01711436 -0.3206606 0.085818514 0.24485514 0.22246337
0.20743285 -0.016317407 -0.15140781 -0.067093424 -0.30790088 -0.15971807 -0.09728986 0.036544222
0.028224422 -0.06033845 0.14336784 -0.23794135 0.17944899 0.15495382 -0.6002542 -0.13542944
-0.0482959 0.11180162 -0.3173203 -0.3288226 0.17704384 -0.15639783 0.1111247 -0.05881812
0.010196947 0.065821454 -0.3900183 0.23821121 0.27159283 -0.16447936 0.13280706 0.1326705
-0.15076052 0.009977652 -0.0055402364 0.34741148 -0.4777356 -1.0014251 0.18556988 -0.11452143

action_model._discrete_distribution.branches.1.bias f4 [3]
00000000: 7a1c 9abe bd68 4b3e 741d f73d
-0.3009985 0.19864173 0.120661646

action_model._discrete_distribution.branches.1.weight f4 [3, 128]
00000000: e24d 64be 0778 263f f03a 1abf 581a a03e
00000010: 5f7a 233f 0fc3 8c3d 4340 dc3e 7534 99bd
00000020: 6408 b33e e98b 8e3e f334 a0bd fdf4 99be
00000030: d286 363e e9c8 b2bd ed4e 45bf c096 d8bd
00000040: 970b 9a3e 2370 0a3b 8e97 f5be d873 9fbe
00000050: 914e 95be ba84 ba3e c768 e6be 7d0d b4bd
00000060: f68a 01be 0ed0 143d 607a d2be ad4b 3fbe
00000070: 9771 ccbd 765a da3e 3606 463e 13bf 19be
00000080: 5cbe 8b3e b787 3d3f 2d5c fe3c 52ce 9f3d
00000090: 8f57 bd3e a094 273f d56b 423f 575f ec3e
000000a0: 6cba ffbe bc64 8d3e 09b7 acbe 5fb3 d6bd
000000b0: 8394 79bf 8052 4abd 2db5 cd3d ed35 b2bd
000000c0: c4b3 1e3f cb18 efbe 5215 af3e 6859 373e
000000d0: 4f2e 1dbf a57b c4be c7bb df3d 7bf5 463f
000000e0: f7da ebbe dfe6 c4bd cdf3 76be 3395 d23e
000000f0: 4ff1 31be fa5c 85be 0b35 95be cc76 16bf
00000100: 586b 7c3e 9d42 d63e fab2 403f 657e 493d
00000110: 3786 713c a39d fcbe 6b6f 0fbe 3cb3 c1be
00000120: 549c 5c3f 56a3 a43d 34df 3fbf 6cb2 d5be
00000130: 90e6 47be 74db eb3d b039 353f 9840 383e
00000140: c2b7 e53d d1f8 6abe b48a f13e 381d 363e
00000150: a3de f8be 567d 77be 9014 d4bd 009a 0dbe
00000160: 8d6b 413f 3c27 adbc 5fa5 32be 1d06 1bbe
00000170: c2a3 6cbe 981a 09bf 2ea4 093e 55c6 953d
00000180: c505 e43d c58f a23b f840 29bf 5547 823d
00000190: 0cd5 913e 1e4a bdbd ed80 103e c4b5 65be
000001a0: 1e01 03be 22a4 a63d 0f0f c7bd bad8 58bd
000001b0: 4809 be3e d6a5 5a3f 2d48 453f fae5 06be
000001c0: a05e 923d 79fe 8f3e 912e 25bf 591f 1c3e
000001d0: 3b1a a13d dec6 bc3e b1bd 483e 6375 0c3f
000001e0: cdc3 b53e 5f6e 4a3e 111b ba3e 6f33 8cbf
000001f0: c905 1ebf 49b3 3e3e 4918 e63e 029d 583e
00000200: aa0b edbc 813e 25be 6649 f7bd 25d8 8b3e
00000210: a6bc 5fbc 8078 2d3c 39de 64bc 6439 813e
00000220: 3bab 843c 478b 1ebe f26b c53e f915 1cbe
00000230: a17a 22bf e3f7 7d3e f2a6 3cbd a186 033c
00000240: 5935 34be 9ef6 97bd 7fd5 b93d f0a2 6f3e
00000250: eeb1 d2bd 2fef 96be 92fb 83bd 91c1 9fbd
00000260: 269e b4bd 0606 ad3d 3254 e2be 22d6 0ebd
00000270: 0d77 bbbd 1398 da3d 4427 4fbd a162 883e
00000280: c479 4e3e 9db2 23be 5e0b e13e 7b53 d5bd
00000290: 7370 b23e bfd3 8cbc 1bb3 f5bd 32ea 303d
000002a0: 6a52 923d 1323 883e 8dcb 23bf e4d0 42be
000002b0: 09e3 3abf 7609 793e 0bd5 313e f165 06be
000002c0: c9be f03d f006 d6bc 3ef6 fa3d 805c 10be
000002d0: 8225 243e 9c5c 8f3e 5d14 fe3d 12d8 86bd
000002e0: 774e 463e 7624 93be a0a2 05be 97a3 a2bd
000002f0: d055 723e 45bb 913e 3202 17bc 8fcb 9e3d
00000300: 6da2 a83e 3922 aebe 1f2a 6dbf c8f6 40be
00000310: d19e 763e 789c 323e 23a6 233e 014e 12be
00000320: f8cb 393d 13d7 c73d c79e fe3c 46b8 95bd
00000330: 1523 a63d 8684 15bf cd06 90bd 96e7 933d
00000340: 9530 ee3e 16cd 423d 61f5 29be 229e 4f3e
00000350: 1888 c03e 9452 343d 6476 ae3b 3688 e73c
00000360: 5e18 33bf f681 663f 4439 d93e 4175 5dbc
00000370: 0882 8abd b3db 14bf 5e55 043e bc27 86bd
00000380: acc0 21be 22a5 be3d ce13 7dbd 9a2d ff3e
00000390: 905c cbbe 9a1d 0e3e ceae 21be cb0a 9a3e
000003a0: 59b8 b83e ace0 9f3e b8eb 253d bfe1 983e
000003b0: 04a6 a53e 113b 31be 1f6a a93d 1e7d f93d
000003c0: 3972 92be 9ddf 72be 406a 383e f121 99bb
000003d0: befd fcbe 8f85 e5bd 3355 02be 8304 963e
000003e0: 0152 c5be 7738 803e d8c8 d7bd 0e6f 1cbe
000003f0: 1051 d13e 1b28 32bf d467 c5be f568 7b3b
-0.22295335 0.650269 -0.6024618 0.312701 0.638586 0.06873142 0.43017778 -0.074807085
0.3496734 0.27841118 -0.07822599 -0.30069724 0.17824867 -0.08729727 -0.77073556 -0.10575628
0.30086967 0.0021123968 -0.4796719 -0.3114307 -0.29161504 0.36429387 -0.45001814 -0.08791635
-0.12650666 0.03633123 -0.4110899 -0.18681212 -0.09982603 0.4264714 0.19338307 -0.15014295
0.2729367 0.7403521 0.031049812 0.07803024 0.36980864 0.6546116 0.7594579 0.4616649
-0.49946916 0.27615917 -0.33733395 -0.10483431 -0.97492236 -0.049395084 0.10044322 -0.08701692
0.6199305 -0.46698603 0.34195954 0.179052 -0.61398786 -0.38375583 0.109244876 0.77718323
-0.46065494 -0.09614348 -0.2411644 0.41129455 -0.17377208 -0.26047498 -0.2914203 -0.5877502
0.24650323 0.41847697 0.75273097 0.049192805 0.014741472 -0.49339017 -0.14007346 -0.37832057
0.8617604 0.08038966 -0.74949956 -0.41737688 -0.19521546 0.11516467 0.7079115 0.1799339
0.1121669 -0.22946478 0.47176135 0.17784584 -0.48607358 -0.24168906 -0.103554845 -0.13828278
0.75554734 -0.021136872 -0.17445897 -0.15139051 -0.23109344 -0.53556204 0.13441536 0.073132195
0.11133913 0.0049609863 -0.6611476 0.06361262 0.28482854 -0.09242652 0.14111681 -0.2243262
-0.12793395 0.081367746 -0.09719669 -0.05294106 0.37116456 0.85409296 0.77063257 -0.13173667
0.071469545 0.28123835 -0.6452418 0.15246333 0.07866331 0.36870474 0.19603612 0.5486662
0.35500947 0.19768666 0.36348775 -1.0953196 -0.6172758 0.1862308 0.44940403 0.21153644
-0.028936226 -0.16137125 -0.120745465 0.27313343 -0.013655817 0.0105878115 -0.013968998 0.25239098
0.01619493 -0.15482818 0.38558918 -0.15242757 -0.63468367 0.24801593 -0.04605765 0.0080277035
-0.17598476 -0.07420085 0.09073924 0.23402 -0.10287844 -0.29479358 -0.064444676 -0.07800592
-0.08819227 0.084484145 -0.4420486 -0.03487218 -0.091535665 0.10673537 -0.050574556 0.26637748
0.20163637 -0.15986104 0.43953985 -0.10416313 0.34851417 -0.017190812 -0.11997052 0.043192096
0.071446255 0.2658926 -0.6398247 -0.19024998 -0.7300268 0.24320015 0.17366426 -0.13124825
0.117551394 -0.026126355 0.12253998 -0.14097786 0.16029933 0.28000343 0.12406228 -0.06584181
0.1936587 -0.28738755 -0.13050318 -0.079413585 0.23665547 0.28463188 -0.009216832 0.077536695
0.3293642 -0.34010485 -0.92642397 -0.1884414 0.24084021 0.174425 0.15981345 -0.14287569
0.045360535 0.09757819 0.03108157 -0.07310538 0.0811216 -0.5840534 -0.07032547 0.07221906
0.4652144 0.047558866 -0.16597511 0.20275167 0.3760383 0.044024065 0.005324172 0.028263193
-0.69959056 0.90042055 0.42426503 -0.013516725 -0.06763083 -0.58147734 0.1292319 -0.065505475
-0.15796155 0.0930884 -0.061786465 0.4983948 -0.39719057 0.1387848 -0.15789339 0.3008636
0.36078146 0.312261 0.040508002 0.2985973 0.32353222 -0.17307688 0.08272194 0.12182067
-0.2860277 -0.23718114 0.18009281 -0.0046732356 -0.4941234 -0.11207115 -0.12727813 0.29300317
-0.38539127 0.2504308 -0.10536355 -0.15276739 0.40882158 -0.69592446 -0.38555777 0.003836212

action_model._discrete_distribution.branches.2.bias f4 [3]
00000000: 8e09 bbbd b65a 973d 2cc3 a03d
-0.09132682 0.073903486 0.07849726

action_model._discrete_distribution.branches.2.weight f4 [3, 128]
00000000: 7243 cebe 272a 18bf 21ad 363e d0e9 3e3f
00000010: e596 08bd 86e9 893e 0859 23bf a410 1abe
00000020: 3408 4d3d 456d c23e 0d13 373f 5970 f53e
00000030: dc34 90be dab9 b9be 599a 473e 8ab1 7dbe
00000040: bfb4 8abe b06a 023e 5f98 95be 99e8 4bbd
00000050: dfe6 f83e 3a15 bebd a755 8b3d f73e 4abf
00000060: bc3c 613e 4842 c7be ab83 003f 5a2c c13d
00000070: 57c2 a03d 785e 2e3c 6d08 0abf e193 42be
00000080: dbd6 efbd 9a31 babe 9c7b c23e 9be3 223e
00000090: b7df 22bf e12e 1f3f e4ef f7be 6351 9a3e
000000a0: e8c1 923e 6398 3f3f 63a4 c7bd cfeb 2a3e
000000b0: 7c77 62bf 86e4 3b3f 1eb7 203e 9473 a23c
000000c0: b5dc 98bf d754 273f 548a 953e d010 da3e
000000d0: 607b dbbd 29f7 3d3f 2d58 b1be a416 35bf
000000e0: 5997 9fbd 9abc b6be 2009 313f f4d2 dfbc
000000f0: ea41 6dbe 2f41 773e 84a1 023f a4f3 ba3e
00000100: 5b50 fc3e 78bd 313c b56a 77bf 30ae 283f
00000110: 822b 09be d9a5 393e 3409 3e3f 347b 113f
00000120: 7a70 cfbd 47c6 a43e 1952 ba3f 1170 1d3f
00000130: a8bf 0d3f ef2d 36bd 059b 55be afb2 bd3e
00000140: 1b24 ddbe 8f6b 793d 57cc bcbd 46de 92be
00000150: f1ab fe3d 282c 9bbe 5ac8 083f 0921 00bf
00000160: 6c58 88bd 423c 843f ee13 613f 4c3c b03e
00000170: 5dfc 1e3e f3cc 763f cc92 a23e 2acf b33e
00000180: 8bd9 c3bc 7274 50be b283 0d3f 0489 3dbf
00000190: 0922 6a3e 951f 20be 0eea 22bf 0926 81be
000001a0: eab6 7cbe 6393 efbd 9eb2 103f 17f8 d83e
000001b0: d74a 27bf 326f 49be 59c0 663d 0fac 5abf
000001c0: cfef 8fbd 40a6 3bbe c016 173b 2e11 963c
000001d0: 10ae dfbd 51a5 8c3e c28c d13e 518d c43e
000001e0: 8e54 99bd 0a2b e33d 3614 503f ecd2 3bbf
000001f0: 3e14 abbe d28d a7be 8c43 4cbf 2762 39bf
00000200: 3758 bb3e 86ea d23b 8630 343e 6c78 b9be
00000210: 2fa7 773d a20f d6bd 905f a83d 5186 36bd
00000220: 61d8 9c3e 10a4 e1be 619c 37be 9988 02be
00000230: 2eba cfbc 0ba5 c8be b21b b53e 5731 c8bd
00000240: 6882 1f3f 9d4b 04bf beb3 02bd 865d 363e
00000250: c421 90bd 83f0 d7bd 2892 e2bd ebb9 713d
00000260: c506 4fbe b5c8 1abb aace aa3c 4bee 5bbd
00000270: 3d13 2d3e 6e1c 913e 887f 2c3f ea07 043e
00000280: 1b09 2dbe a760 a43e 6ef2 2bbf 1556 73be
00000290: 018d debb ef20 203d d410 333e df73 b93d
000002a0: 1434 aabe 3b82 673e 5fac 5cbd e574 ee3d
000002b0: 41bc cf3f a183 adbd 77d1 b13e 71ff c73e
000002c0: c303 a03e 1df9 d93b 4829 37be cc71 8f3e
000002d0: e8a9 603d c319 a5bd 6262 203e f39d d23d
000002e0: ddd3 94be 7844 343f 9e40 41be fd40 573e
000002f0: b30e 34bc e65d 433e d73c bdbe 44ab 683e
00000300: e0cf 37bf a0b8 c13d f13c a93e f14f 2cbe
00000310: 10aa c13b 728f 67bd 14a0 41be 9013 8ebe
00000320: f34a af3e 4dc7 b0bd 3484 2fbf 0aa3 f93c
00000330: e492 c6be 9728 ee3e 98a3 473c 2639 10bf
00000340: 8f1f 993b 3493 613e 56f9 e73d d22f 403b
00000350: da4e 2f3e 5320 2a3e 2033 56be ce95 ce3e
00000360: 7a74 36bb 5364 c6be c72b 10bf 76d7 9c3e
00000370: 55d8 16be 2b43 0ebe d2da 46be 7d2d 083e
00000380: 8d06 ff3d 1bfc 8ebe 5510 093e 48c2 8ebd
00000390: 1454 72be 2cd5 063f 310c e23b 601d 243d
000003a0: 9508 9d3e fbf5 fcbe a2f2 48bd 9731 02be
000003b0: a391 74be ceff 843e 2236 423c 63de 303e
000003c0: 7990 06be 9a49 8e3e 08e5 103c 3d64 81be
000003d0: be21 103f 365d d2bd 6c02 f9bd 693c c3be
000003e0: a405 21bc 40e8 98be a28f 16be 13da 8abc
000003f0: 91f7 db3e 2824 413f 8715 5b3e e37b 4b3e
-0.40285832 -0.5943932 0.17839481 0.7457552 -0.03334703 0.26935977 -0.63807726 -0.1504541
0.05005665 0.3797399 0.71513444 0.47937277 -0.28165329 -0.36274606 0.19492473 -0.24774757
-0.27091023 0.1273601 -0.29217812 -0.04978237 0.4861364 -0.092813924 0.06803446 -0.79002327
0.21995825 -0.38917756 0.5020091 0.094322875 0.078495674 0.01064264 -0.53919107 -0.19001724
-0.11710902 -0.36365968 0.3798493 0.15907137 -0.6362261 0.62180907 -0.4842521 0.30140218
0.28663564 0.748419 -0.09748151 0.16691516 -0.8846357 0.73395574 0.15694854 0.019830503
-1.1942354 0.6536383 0.29207098 0.42590952 -0.10716891 0.7420526 -0.34637585 -0.7073767
-0.07792539 -0.35690767 0.6915455 -0.02732227 -0.23169675 0.2414596 0.51027703 0.36514008
0.49280056 0.0108483955 -0.96647197 0.6589079 -0.13395503 0.18129672 0.7423279 0.5682862
-0.10128875 0.32182524 1.4556304 0.61499125 0.5537057 -0.0444774 -0.20859917 0.37050387
-0.4319161 0.06089359 -0.09218662 -0.28685206 0.12435139 -0.30307126 0.5343071 -0.5005041
-0.0665749 1.0330889 0.87921035 0.34421003 0.15525956 0.9640648 0.31752622 0.3511899
-0.023907444 -0.2035692 0.55279076 -0.74037194 0.22864546 -0.15637048 -0.6363839 -0.2522433
-0.24679151 -0.11698034 0.5652255 0.42376778 -0.6534857 -0.19671324 0.05633578 -0.8541879
-0.07028162 -0.18325138 0.0023054332 0.018318739 -0.10921872 0.27469876 0.40927702 0.38389066
-0.07486831 0.110921934 0.8128084 -0.73368716 -0.3341388 -0.32725388 -0.7979057 -0.72415394
0.3659074 0.006436649 0.17596635 -0.36224687 0.060462173 -0.104522005 0.08221352 -0.044561688
0.30633834 -0.44070482 -0.17930748 -0.1274742 -0.025357332 -0.39188418 0.35372692 -0.09775036
0.6230836 -0.51677877 -0.031909697 0.17809114 -0.0703769 -0.10543921 -0.11063033 0.059015196
-0.20217426 -0.0023618166 0.020850498 -0.05369405 0.1690187 0.28342003 0.673821 0.12893644
-0.16898005 0.3210499 -0.67166793 -0.23763306 -0.0067917113 0.039093908 0.17486888 0.09055304
-0.33242857 0.22608273 -0.053875323 0.116433896 1.6229326 -0.08472372 0.34730121 0.39062074
0.3125287 0.006652011 -0.17886841 0.28016508 0.054849535 -0.08061554 0.1566253 0.10284033
-0.2906789 0.70416975 -0.18872306 0.21020885 -0.010989833 0.19078788 -0.3696048 0.22721583
-0.7180157 0.094590425 0.33054307 -0.1682737 0.0059101656 -0.056533284 -0.18908721 -0.277493
0.3423687 -0.086317636 -0.685611 0.03047325 -0.38783944 0.46515343 0.012185 -0.563372
0.0046729515 0.2202881 0.11326854 0.0029325378 0.17119923 0.16613893 -0.2091794 0.40348667
-0.0027840422 -0.38748416 -0.563168 0.30633134 -0.14730962 -0.1389281 -0.19419411 0.13298602
0.12452421 -0.27926716 0.13385136 -0.0697065 -0.23664886 0.52669024 0.006898426 0.040067077
0.3067061 -0.49406418 -0.049059518 -0.1271423 -0.23883681 0.25976413 0.011853727 0.17272334
-0.1314105 0.2779053 0.008843668 -0.25271788 0.56301486 -0.10271685 -0.12158665 -0.38132027
-0.009828005 -0.29864693 -0.14703229 -0.016949689 0.42962316 0.75445795 0.21394931 0.19871478

action_model._discrete_distribution.branches.3.bias f4 [3]
00000000: 601f 9ebd 24ce eabd 2245 853e
-0.07720828 -0.114650995 0.26029307

action_model._discrete_distribution.branches.3.weight f4 [3, 128]
00000000: 579b f13e f144 563e fa04 0bbc 0091 57be
00000010: 0a71 1f3f 7706 8cbe 1e66 16be 90b0 51be
00000020: d2ab d7be f656 94bd 22c1 a6be b275 33bf
00000030: 1265 81be 20a9 8bbe 2fa8 2abf 5ee5 c93e
00000040: 940e 0f3f 0153 0bbe 46e1 9bbe 1182 14be
00000050: c365 0a3e fcf1 ed3e b39f 82be 7cd2 1fbf
00000060: bb7f 663e 4e22 df3e 4092 573e 2df2 32be
00000070: e845 2abe 0293 203f c379 7cbe 46eb cdbd
00000080: 18ca 463f be9e 90be 9ca9 753e 5bd4 8d3e
00000090: a250 37bd 59a4 3cbf fa11 9a3e 0bde 503e
000000a0: 70a2 9ebe 15fe 373f 606d 12be 9774 ffbd
000000b0: db90 8e3e ddca 59be 2bcd 5ebe 53a0 1e3e
000000c0: e364 723e 2458 5cbe 3c79 54bd 95ff 1e3e
000000d0: a334 b4be 14c9 f03e c532 5e3d 7476 5dbf
000000e0: d0d6 babe 9ff1 25bf 2ec7 c7be 6eb3 85bd
000000f0: cd01 a5be 02d1 f73d 78d6 d83e a307 4bbf
00000100: 358c 9fbe 74d9 61be 58d0 8f3d c28b c0bc
00000110: f453 e4be 5094 2e3e 45fb 273f 5b42 e83d
00000120: 9b0a a53e 7aa6 493e 0a07 0e3e 4a9e b13e
00000130: ab9f b13e 1bb3 03bc a2dc 82bd 15fc 543e
00000140: 50e9 813e 0a53 653e 9d60 ca3d be1d a4be
00000150: 4f02 b63d b563 903e cbd3 8b3d b7c8 d43e
00000160: 79b0 883e c753 ccbe bfe4 463f a09d 493e
00000170: f96e 2e3f 193b 743e d5ae e53e df55 94bd
00000180: 43d3 36bf aff1 523e ae64 d9be fefb d93e
00000190: 7ad4 a93e 3882 08bf 2485 92bd fff5 f43e
000001a0: 3e60 af3e ba7b 18bf 0a96 9c3e eacc 653e
000001b0: 8599 19be 52b4 923f b16a eb3c cb38 1cbe
000001c0: fa8c d73e bd26 dfbc 4138 7d3d de37 9c3e
000001d0: 9586 2dbe a255 3fbf a11d fcbe 4b85 7bbe
000001e0: b1c5 80be 1a97 d6be d8b5 4a3d 8efb ab3e
000001f0: 4812 cabe b90d 173e 9637 6f3e 1a50 ebbd
00000200: b3b6 9dbe 9df3 dc3e f41d 6fbe 1021 203f
00000210: 29f4 0abe 5479 12be 0d4c 303f a9ae b83e
00000220: e591 063f c3d1 b83d b0e2 803e b3d3 3cbf
00000230: d90c 71bd a9af 8c3d 8df0 853e 91f1 633d
00000240: 3377 04bf 48c6 1fbc b7d2 9c3e 14a8 303e
00000250: 71b7 32bd 1fa6 8dbe bcb6 efbc aa34 0e3f
00000260: 2887 2b3f 1ee0 ccbd b5e3 1bbe 36f1 b53c
00000270: 30c4 f93e 2158 e2be f144 8f3d f522 0cbd
00000280: c80f febd a319 3f3e a0e6 763e c793 ba3e
00000290: 2db2 0bbe 1a68 3f3f 1687 5f3d 0e9e f9bd
000002a0: 268d d43d ef11 a7bf 6f09 283e db8c 053f
000002b0: 4ff2 c9bf b332 dbbe f973 013f b284 5dbe
000002c0: 0467 d8bd 574c 1cbe 71d3 673d 5ed7 e6be
000002d0: a8df d03e c709 c1be be10 0fbf c863 323f
000002e0: 7457 183f a478 e33e f729 993d 9532 913e
000002f0: b407 79be 1a00 be3d 9c84 0c3e 9a79 ac3d
00000300: c6b9 d03d 4dd1 383e 1282 edbe 58cc 9e3e
00000310: ab87 033f 7842 36bf 1c0a 4abf bb03 1e3d
00000320: 1562 1abe 228a db3d 9801 24be 160b d9be
00000330: 67ae 6f3e ff36 98bd 0e21 b73d d0b3 993c
00000340: 06a8 dcbe d8dc d9be 4e78 2c3d 7c5e 0c3f
00000350: f06a bb3c 2594 dabb e385 443e 6109 c63d
00000360: 7084 1bbf 3058 a13e 93b5 77bd 73c7 db3d
00000370: 06e1 8c3d 3ede 243f b974 a3bd 05c6 193e
00000380: 539e d73e 33f0 7a3e 36ec 133f 11e8 20be
00000390: 2345 993d b443 45be aa1d 4e3d fd03 9abe
000003a0: 3fbb 8abb 729f 043e b7af 42be dd3d 533d
000003b0: fc1e 18bc 4e93 6dbf 6036 f4bd c646 243d
000003c0: 6cf0 0abe 10d3 cdbd fe88 6e3d 5adc 84bd
000003d0: 1154 b8be 2cc4 003f aebc 0e3f 6571 903e
000003e0: 84bf 3f3f bc55 0b3f b27e 36be b21a 26bf
000003f0: fdf2 a03e deb3 babf 9330 ecbd 38e1 a33d
0.47188827 0.20924737 -0.008485073 -0.21051407 0.6228186 -0.27348682 -0.14687392 -0.2047751
-0.42123276 -0.07243149 -0.32569224 -0.70101464 -0.25272423 -0.2727747 -0.6666288 0.39432806
0.5588162 -0.13605882 -0.30445307 -0.14502741 0.13515382 0.46473682 -0.25512466 -0.6243055
0.22509663 0.4358086 0.21051884 -0.17475195 -0.1662823 0.62724316 -0.24655823 -0.100546405
0.7765212 -0.2824611 0.23990482 0.27701077 -0.04475463 -0.73688275 0.3009184 0.20397203
-0.30983305 0.71872073 -0.14299536 -0.124734096 0.2784489 -0.21268792 -0.21757953 0.15490846
0.23671298 -0.21517998 -0.05187343 0.15527184 -0.3519641 0.4702841 0.054247636 -0.8650887
-0.36492014 -0.6482181 -0.3901915 -0.06528364 -0.32227936 0.12100412 0.42351127 -0.7930853
-0.31161657 -0.22055608 0.0702216 -0.023504142 -0.445953 0.17048764 0.6561778 0.11340781
0.32234654 0.19692412 0.13869873 0.34691077 0.3469213 -0.008038308 -0.063897386 0.20799287
0.25373316 0.22394958 0.09881709 -0.3205394 0.08887159 0.2820107 0.06827506 0.41559383
0.26697138 -0.39907667 0.7769279 0.19689035 0.6813808 0.23850669 0.4485995 -0.07242941
-0.7141611 0.20600007 -0.42459625 0.42575067 0.3316992 -0.533237 -0.07154301 0.4784393
0.34253114 -0.5956379 0.3058322 0.2244145 -0.1499997 1.1461279 0.028737398 -0.1525604
0.42099744 -0.027240152 0.061821226 0.30511373 -0.1694587 -0.7474004 -0.49241355 -0.24562566
-0.25150827 -0.41912156 0.049489826 0.33590358 -0.39467072 0.14751329 0.23361048 -0.114898875
-0.3080345 0.43154612 -0.2335127 0.6255045 -0.13569702 -0.14304096 0.68866044 0.36070755
0.5256637 0.09024384 0.2517295 -0.7376053 -0.058850143 0.06869442 0.26160088 0.055650298
-0.51744384 -0.009751864 0.30629513 0.17251617 -0.043631975 -0.27665803 -0.02926194 0.5554911
0.6700311 -0.100036845 -0.15223582 0.022209745 0.48782492 -0.44207862 0.069955714 -0.034213025
-0.12405354 0.18662123 0.24111414 0.3644087 -0.13642187 0.7476822 0.054572187 -0.1218835
0.103784844 -1.3052348 0.16409849 0.52168053 -1.5777072 -0.42812118 0.50567585 -0.2163265
-0.10566524 -0.15263496 0.05659813 -0.45086187 0.40795636 -0.37702772 -0.5588492 0.69683504
0.5950844 0.4442798 0.07478707 0.28358904 -0.24319345 0.09277363 0.13722461 0.08421631
0.101916835 0.18048592 -0.46388298 0.31015277 0.5137889 -0.71195173 -0.78921676 0.038577776
-0.15076478 0.10719706 -0.16016233 -0.4239127 0.23406373 -0.07432365 0.089418516 0.0187625
-0.43096942 -0.42551303 0.04210692 0.5483167 0.02287814 -0.0066704922 0.19191699 0.09669758
-0.6074896 0.31512594 -0.060475897 0.10731401 0.06878857 0.64401615 -0.079812475 0.15016945
0.4211298 0.24505691 0.57782304 -0.15713526 0.0748389 -0.19264108 0.05032126 -0.30081168
-0.0042337473 0.12951449 -0.19012342 0.05157267 -0.009284731 -0.92802894 -0.11924434 0.040106557
-0.13568276 -0.100500226 0.058236115 -0.06487341 -0.36001638 0.50299335 0.5575665 0.28211513
0.74901605 0.54427695 -0.17821768 -0.64884484 0.31435385 -1.4586141 -0.11532702 0.080019414

action_model._discrete_distribution.branches.4.bias f4 [3]
00000000: 2232 84be c404 f2bc 0c49 643e
-0.25819498 -0.029543288 0.2229349

action_model._discrete_distribution.branches.4.weight f4 [3, 128]
00000000: de16 053f e425 a3be 340d e5bd c55c 51bf
00000010: 2c22 81be 7494 a8be cebf fa3d a3b8 8c3e
00000020: f2fa e0be 3ba9 3ebe 93f1 7d3c b9fc e23d
00000030: 3e1f 5f3d c36f 883d 07bd 0f3e 56ca d3be
00000040: 74c5 7b3e b9e9 c33e a9e3 173e 2a8a 7d3e
00000050: 1812 a3be d414 88be 9872 dcbe 9154 083e
00000060: 060c 4abe 9dd2 1cbe 2983 863e 5655 123d
00000070: 22d6 c43d e047 f8bd d8b4 cf3e 796a c63c
00000080: 3de3 333e 3963 d53e 899f a03e bd66 053f
00000090: b5dc b83d ec64 b1be 08fd 9b3b 815e 95be
000000a0: 640a 84bf da18 a83d bfd2 36bf 24dc 7c3e
000000b0: 5c02 903e 2c00 18be 9abc cf3c 9b7d 413d
000000c0: 300d 533e 3669 913c 5171 8e3d 90d4 6bbd
000000d0: 6471 d2be 7d68 c83d 6bf0 0a3f f1af cd3e
000000e0: 7456 b53d ee9a b83e 7884 f03c c389 583e
000000f0: 79ee 1d3e d11f 3c3f 08f2 793d a95e 893f
00000100: a99e 573e 5070 093f 26a5 12bf 4b55 a2be
00000110: 2ca7 e03c 82c4 87be 4ff2 0fbe fe5b 233c
00000120: 57cc cf3d fb70 603e 3f0e 92bd 9952 91be
00000130: 250d 28be 0808 863e 25c2 c1bc 7e70 38bf
00000140: 4b6d 99bd e960 de3d 9ba6 943e 1b29 733e
00000150: 27f8 c2be 1f83 b2be de71 36be 657f 49bf
00000160: ed9b 303e 3b3c 543e 6724 8dbe b9a7 d93e
00000170: bbf3 4c3e a475 023f a1d4 acbe 9920 07bf
00000180: d476 883e 47b9 c1bd e990 863d 1e1d 1abe
00000190: d99f 2ebe 63ea 5e3f ce65 923d 7cd8 29bf
000001a0: 9866 cb3c f496 f83e a9d1 2d3f 5ca5 43bc
000001b0: a6aa c6be 2121 de3e a00a d5bd 3e58 18be
000001c0: b070 a4bd 103f 28be c731 e4bd 6847 053c
000001d0: 02f3 153f 9312 4e3e 7ac6 8d3e 4428 d43e
000001e0: bd63 d0be bbec d43d 3f14 a73e d9be 703e
000001f0: 787d 18bd 5a87 d73e 9518 ad3e 976d 40bc
00000200: f360 943d 362e 663e 4326 4bbd 9abb e03d
00000210: 705b cf3e 55a9 e7be b445 52bd 1e0e 26bf
00000220: 5b32 cbbe 62cf d23e ffcb e03b a69f 113e
00000230: cf6b 463e 18f5 b33c 9231 003f 700b 593d
00000240: 043d aebe e55f ba3e 3d6b 69be 6b9b 913e
00000250: bd81 343f c874 e43e e988 8fbe 8417 a7be
00000260: 2b07 0bbe ee4f 9e3e 592e 42be 5071 46be
00000270: 8ce9 8dbe db0a aa3e 57e0 0abf 1478 863e
00000280: bbdc 393f ad57 57be c6af b9be 7aaa ff3e
00000290: 87b1 9a3e 891e b93e 4775 1e3f 492a 483f
000002a0: b933 8dbe 115d 3ebf 4392 553f 76b5 b2be
000002b0: b028 d23e 26b7 ab3e 4ef0 893d bddf b83e
000002c0: 74f8 47be f0d9 39bf d23f febb 8672 333e
000002d0: 34f5 d3be 62ec a53c 11f1 053d 58d0 e3bd
000002e0: ff0f 02bf acb7 72be cac1 f9be 8caf 933e
000002f0: e7a7 973e ff6a a2be be54 2cbf 359a 03bf
00000300: bf74 913e fcb0 c23e a9fb b2be ef42 c8be
00000310: 15d2 8abd 4361 363f f7f8 f03d 80b3 a5be
00000320: 0eed d4bb c599 393e 8c1d a73e ccee bcbe
00000330: d410 e73d 3871 d4be 2846 313e db92 5abe
00000340: d69a 853e e3d4 3bbe 08f6 a1bd 6066 6bbe
00000350: 4ae0 853e 59e5 27bf 1b74 73bf a840 61bd
00000360: 76e7 943e 46b9 1a3e 9ec6 a73e a15f 953b
00000370: 2b6c 86bd 6626 f9bd 66b2 563d bb61 483e
00000380: 3473 4bbe e3e1 31be 0c06 43be ebb9 f83e
00000390: 6762 5c3e 0210 23bf 073a 4bbe e838 d53d
000003a0: ba12 293e 46df a1be 84a4 663d d6e9 af3e
000003b0: 4ffb 1e3d e9c9 2dbf 23ca 7c3e 9e3b c73d
000003c0: 815a a33e 1e02 8b3e 390a acbe 5c41 623e
000003d0: 251a d6be 8379 9f3e 9a54 70be c921 e0be
000003e0: 0cc8 c6bd ddee dd3d 5661 303e 9d04 bcbe
000003f0: f533 91be a8f8 823d 23af febd 558b dc3e
0.5198802 -0.31864846 -0.11184159 -0.8178218 -0.25221384 -0.3292576 0.12243615 0.27484617
-0.43941456 -0.18619244 0.01549949 0.11083359 0.054473154 0.06661942 0.14036952 -0.41365308
0.24587041 0.38264254 0.14832939 0.24759737 -0.31849742 -0.2657839 -0.43056178 0.1331351
-0.19731149 -0.15314718 0.26271942 0.035725914 0.09611155 -0.12123084 0.4056766 0.024220692
0.17567153 0.41677263 0.31371716 0.5210989 0.090264715 -0.3464731 0.0047603883 -0.29173663
-1.0315671 0.08207865 -0.71415323 0.24693352 0.281268 -0.14843816 0.025358487 0.047238927
0.206105 0.017750364 0.06955207 -0.057575762 -0.41102135 0.097855546 0.542731 0.40173295
0.0885438 0.36055702 0.029360041 0.21146302 0.15423001 0.7348605 0.061021835 1.0732013
0.21056618 0.53687 -0.57283247 -0.31705698 0.027423464 -0.2651711 -0.14057277 0.009970663
0.101463966 0.21918099 -0.071316235 -0.2838333 -0.16411264 0.26178002 -0.023652146 -0.7204665
-0.07491549 0.10858328 0.2903336 0.23746149 -0.3807995 -0.34865662 -0.17816874 -0.78710014
0.17246981 0.20726101 -0.27566835 0.42510775 0.20014851 0.50960755 -0.33755973 -0.52784115
0.2665316 -0.09459167 0.06570608 -0.1505017 -0.17053165 0.87076396 0.07148324 -0.66345954
0.024829194 0.48552668 0.6789804 -0.01194128 -0.3880207 0.4338465 -0.10402417 -0.14877412
-0.08029306 -0.16430306 -0.11142307 0.0081347 0.58573925 0.20124273 0.27690488 0.4143697
-0.40701094 0.10396715 0.32632634 0.23510303 -0.03722903 0.42095453 0.33807817 -0.011744878
0.07245054 0.22478566 -0.049597036 0.10973282 0.4049945 -0.45246378 -0.051336005 -0.6486529
-0.39686856 0.41173846 0.0068602557 0.14221057 0.19377063 0.021967456 0.5007564 0.052989423
-0.34030926 0.36401287 -0.22794814 0.28438887 0.70510465 0.44620347 -0.28034142 -0.32635128
-0.13576953 0.30920357 -0.18962993 -0.19379163 -0.27717245 0.33211407 -0.54248565 0.26263487
0.7260243 -0.2102954 -0.36266917 0.4993475 0.30213568 0.3615611 0.618977 0.7818952
-0.27578524 -0.7436076 0.834263 -0.3490407 0.41046667 0.3353817 0.067352876 0.361082
-0.19528371 -0.7259817 -0.007759073 0.17524156 -0.41398013 0.020254318 0.032700602 -0.11123723
-0.5080566 -0.23702878 -0.48780662 0.2884487 0.29620287 -0.31722257 -0.67316806 -0.51407176
0.28409383 0.38025653 -0.34957626 -0.39113566 -0.06778351 0.7124216 0.11766236 -0.3236351
-0.0064979857 0.18125065 0.3263973 -0.36900938 0.112825066 -0.4149263 0.17311919 -0.21345083
0.26094693 -0.18342929 -0.07908255 -0.22988272 0.2614768 -0.6558433 -0.9509904 -0.0549933
0.2908284 0.15109739 0.3276872 0.004558519 -0.065636 -0.12165527 0.052416228 0.19568531
-0.19868165 -0.17371325 -0.19045275 0.48579344 0.21521913 -0.636963 -0.19846354 0.10411245
0.1651105 -0.31615657 0.056309238 0.3435809 0.038813885 -0.67886215 0.24686484 0.09728168
0.31904987 0.27150053 -0.3360155 0.22095245 -0.41816822 0.31147394 -0.23469773 -0.43775776
-0.09706125 0.10836575 0.1722463 -0.3672227 -0.28359953 0.06395084 -0.124357484 0.43075052

action_model._discrete_distribution.branches.5.bias f4 [3]
00000000: 720e 283e e997 93be 130e c03d
0.1641176 -0.28826836 0.093776844

action_model._discrete_distribution.branches.5.weight f4 [3, 128]
00000000: 2954 51be 1922 a43e a262 2bbd 0756 3a3f
00000010: e8e8 99be 27c1 33bf e965 103c 516e efbe
00000020: 0955 ebbe ff1e 26be 6de3 0cbf 9ae1 b33e
00000030: 36f7 f83c 971b 073e e502 91bd 30cc 87bf
00000040: 7ead 45be 4e9e d5be 9422 5fbe 4052 dcbe
00000050: 5654 4f3e cac6 70bd 648c b93e 26fe 723e
00000060: a180 633e e9fb 833e 06a2 033e f0ef 203e
00000070: 01c2 57bf 742d ed3e ff76 cb3d 5994 a83e
00000080: 70a9 313f 5b00 a7be 8557 883e af94 f33c
00000090: 7e2a ee3e c70e a5be 59f8 8dbd 96c8 b53d
000000a0: f705 5cbd 8d5f 09bf 69e2 e63d 745a 2ebd
000000b0: 79e7 e43f d900 c2bd 6687 b2be 1565 a4be
000000c0: f4de fa3e c8f9 f4bd 3dc1 043f 1bd8 29be
000000d0: de15 96be ef63 983e 2f1b e43e a383 54bf
000000e0: d8ee e93e 3616 0bbf c15e 00be d135 843e
000000f0: 6cb0 953e d6b6 623e bee6 253e cf3d c33b
00000100: 9411 ab3e 2cf1 2dbe a502 4dbd d28e c1bc
00000110: 81d4 ad3d b96d d4bb 40d2 373f 96b5 6a3e
00000120: 426f 95be 8c25 5cbe b056 16bf b13a d5bc
00000130: de1f 8f3d 4164 a1bd 67a9 893d e7bb 0b3e
00000140: 6027 12bf ce47 c53e 40e2 ce3e b569 03bf
00000150: 874f 82be d099 0a3e 8ed4 61be d03f ad3d
00000160: c48f 933e 4b0f a63e cd78 f73e b9b0 5b3e
00000170: 8e54 083f 6f62 b6bf 143d 963e d587 5dbd
00000180: a833 323f 3c44 033e 0ffb 4ebe 9fb0 843e
00000190: 3878 a83e c00e 8c3e 837c 75be 3338 0a3f
000001a0: 80fb 71be 0b64 7a3e f4e9 0c3f 3572 77be
000001b0: 1d24 833d c31a 483f 008a e3be f6a5 5ebe
000001c0: 2100 45be dbad a8be 0c3f 4a3e 3513 2cbd
000001d0: fc3a a23e 9ace ae3c 39b3 44be 2f86 84be
000001e0: ac9f 09bd 2907 87bc 6e2d a73e d33f 963d
000001f0: 969d 253e 8827 533f 8fc3 90be 1ed3 c03d
00000200: c0bc 5c3e 9ab5 b3bd 968d 0fbf 8242 44bf
00000210: d6c2 bc3e c37b a7be 32c2 31be 03b7 d8be
00000220: 1530 0abe 62be 0b3f d1e1 1d3f 870e 703f
00000230: 54e9 f83d 0797 263f b14b b5be 68f5 333f
00000240: 1cca 153f 5a26 3e3f dd13 e8bd 2c7e f63e
00000250: 1a85 e53e da9d 47bd 59f0 51bf 0d1e 26be
00000260: d97d 3cbe 43bb f0be f172 4dbe 73b3 6a3e
00000270: 8478 0c3e c70b 803e d91e e03c 1811 323e
00000280: e98f e7be faf3 2c3e 102f febe 1d41 c33e
00000290: d678 95be 67bd 6bbd 9348 a63e afca 963e
000002a0: b739 b9be 6880 84bf c724 333f b80f 3bbf
000002b0: c377 91be 800e 07bf dbe4 9a3e d724 d43e
000002c0: 2455 93be 72d7 66bd 4f0e 64be 8a8f 613e
000002d0: e2a0 463e 6a22 1c3e 560d bfbe 536a 403e
000002e0: 6e78 803d 9d13 c93d 6d5e c4bd c6bb 0abe
000002f0: cd08 233f 9f98 2abe cec5 8abe f9dd 16bf
00000300: 20a0 9abe 3a9b cc3e 2977 a43e d864 8e3e
00000310: c3aa b7be eabd cd3e 6422 763e d248 ebbe
00000320: c2d4 dd3d c37e b73e 5d05 6bbd f63d cbbb
00000330: 9356 7c3e 756f 8abc b128 23bf 0683 4cbf
00000340: a3ca a63e 7e79 9d3c 8b65 b8bd 45dd a83e
00000350: 7ea8 c6be 2c4c 93bf ea81 403f 2a4f 8e3d
00000360: ace5 babe a186 943d 6a5d f4be f355 1c3f
00000370: 4eab 8bbe 9b01 58bd 352f 61bf bafd 1dbe
00000380: fcb4 123f ca32 cbbe 1cf3 a83e b9f6 b3be
00000390: 0011 1abe 9215 74bf cd02 0cbf f21d c3bd
000003a0: 5758 9d3e 4dfd 6a3e 24c3 64be 8083 34be
000003b0: cac6 643d 3436 8cbf 75ba 763d 8fbf 8cbe
000003c0: b761 4e3e fc0a ca3e ca3a 81be 7938 12bf
000003d0: 2837 2cbf bf35 f23d f247 a3bd 7215 6a3e
000003e0: 39ba acbe 004e 04bf 451e 72bf 3c0c f43e
000003f0: 9445 623e 3819 7ebe 391e 0fbe c2fc 033f
-0.20442261 0.32057264 -0.04184211 0.7278752 -0.30060506 -0.702166 0.00881336 -0.46763852
-0.45963314 -0.16222762 -0.55034524 0.35133058 0.030391317 0.13194118 -0.0708063 -1.0609188
-0.19304463 -0.4172234 -0.21790534 -0.43031502 0.20247015 -0.05878333 0.36239922 0.23729762
0.22217037 0.2577813 0.12854776 0.15716529 -0.842804 0.4632374 0.09934806 0.3292568
0.69399166 -0.3261746 0.26629272 0.029733984 0.46516794 -0.32237837 -0.06932134 0.08876149
-0.053716626 -0.53661424 0.11273653 -0.04256673 1.788314 -0.09472818 -0.34868926 -0.3210837
0.48998225 -0.119617045 0.5185736 -0.16586344 -0.29313558 0.29763743 0.4455199 -0.8301336
0.45690036 -0.54330766 -0.12536146 0.2582231 0.29236162 0.22140059 0.16201302 0.005958296
0.3341185 -0.16986531 -0.05005135 -0.023627672 0.084877975 -0.0064828065 0.7180519 0.22920832
-0.29186445 -0.21498698 -0.58726025 -0.026028963 0.069885 -0.0788045 0.06721764 0.13645898
-0.5709133 0.38531345 0.4040699 -0.5133317 -0.254513 0.13535237 -0.2205374 0.08459437
0.28820622 0.32433543 0.4833435 0.21454133 0.5325402 -1.424879 0.29343474 -0.054084618
0.6961007 0.12818998 -0.20212959 0.25916 0.3290422 0.27355003 -0.23973279 0.53992003
-0.23631096 0.24452226 0.55044484 -0.2416466 0.064033724 0.78165835 -0.44441223 -0.21742997
-0.1923833 -0.3294514 0.19750613 -0.042010505 0.31685627 0.02133875 -0.19208993 -0.25883624
-0.03359954 -0.016482906 0.32651848 0.07336392 0.16173396 0.82482195 -0.282742 0.094152674
0.21556377 -0.08774872 -0.5607542 -0.7666398 0.36867398 -0.3271161 -0.17359236 -0.42327127
-0.13494904 0.54587376 0.61672693 0.93772167 0.12153879 0.650742 -0.3540931 0.70296335
0.5851152 0.7427727 -0.113319136 0.48143137 0.4482811 -0.048734523 -0.82007366 -0.16222401
-0.18407382 -0.4701787 -0.20063378 0.22920017 0.13717848 0.25008985 0.02735846 0.17389333
-0.45226982 0.16889945 -0.4964528 0.38135615 -0.29193753 -0.057553675 0.32477245 0.2945151
-0.36176845 -1.0351686 0.6997799 -0.7307086 -0.28411683 -0.527565 0.30252728 0.41434357
-0.28775895 -0.05635781 -0.22271083 0.22027412 0.1939731 0.15247503 -0.37314862 0.1879056
0.0627297 0.09818194 -0.09588323 -0.13548192 0.63685304 -0.16659783 -0.27104038 -0.58932453
-0.3020029 0.39962178 0.32122162 0.27811313 -0.35872468 0.40183955 0.24036556 -0.45953995
0.10831596 0.358389 -0.05737816 -0.0062024547 0.246424 -0.01689885 -0.63733965 -0.79887426
0.32576475 0.019222971 -0.09003743 0.32981315 -0.38800424 -1.1507621 0.75198233 0.06948693
-0.3650335 0.07252241 -0.4772752 0.6106865 -0.27279133 -0.052735906 -0.8796266 -0.1542882
0.5730741 -0.39687186 0.32997978 -0.35149172 -0.15045547 -0.95345414 -0.54691774 -0.09527196
0.3073146 0.22948189 -0.22340065 -0.17628288 0.055853643 -1.0954041 0.060236413 -0.27489898
0.20154463 0.39461505 -0.25240165 -0.5711742 -0.6727166 0.118266575 -0.07972707 0.22859743
-0.33735827 -0.5168152 -0.9457744 0.47665584 0.22096854 -0.24814308 -0.13976373 0.5155755

action_model._discrete_distribution.branches.6.bias f4 [3]
00000000: 667a a23d 742b 813b 8d23 b8bd
0.07933502 0.0039419476 -0.08991156

action_model._discrete_distribution.branches.6.weight f4 [3, 128]
00000000: dc7b 12bd 9d7d 933d 73a0 9bbd 9f22 8cbe
00000010: 033d 38bd 00ec 07be c153 963e 98cf 51be
00000020: 9592 903d be36 703e 591e 1cbe c36d 74bd
00000030: 18f6 ea3e 268a e1be 61c7 e3be 2e72 acbd
00000040: 67aa 4a3e 16cd f3bd cae2 35be 885c a33e
00000050: 3f0b 7a3e 4c27 023f f712 6c3e a515 17bf
00000060: 4d6a ff3d b54e 993e 1ccc d7bd 0b2f 81be
00000070: ae8d 42be 0c53 7ebc 0372 3b3e cc25 bb3e
00000080: 93b5 0abe 65aa 2f3e 16f0 9dbd cf28 bf3d
00000090: d10f b73e 59bb 893e 490e 9cbe baff c33e
000000a0: c6bc 34bf 5f4c a33d 73d4 2fbe eed0 d03d
000000b0: 7fd8 8bbf 6e89 c13e d7d0 213e 5345 783e
000000c0: b86f a63e f0fb 17bf 461d a4bd fd7a ebbe
000000d0: 3d2a 1bbf 7b29 c2be 1963 063e 55e7 77be
000000e0: 0fe0 913e 3b94 2ebe 7ec3 78be 39cc 1dbf
000000f0: af57 cb3d d589 613e 8200 1e3e 1d9f d8be
00000100: 04df 83bd e848 dbbe 90a6 b2bd 20dd f53e
00000110: e001 e9be 55e8 b9be 77d1 09be cb42 f7bd
00000120: 5616 443e 2fa7 89bd 6473 5e3e 68c4 a13e
00000130: 8389 503e 49fc 60be 5da5 02bf 4d06 1c3f
00000140: 8c50 85be dc0a 923d ad9e 71bd deab 363e
00000150: 9534 a5bd 432d 88bc 394b 633e add9 f33e
00000160: 0bc4 7cbd 0888 6c3f fc2b a1be d876 0f3e
00000170: 3bb2 aa3e 495a c4bd c5b6 103f 048a 82bf
00000180: 8df0 89be ee09 ccbe e7b3 9a3e b34b a83e
00000190: d4a6 9c3d 79fb 9fbe b902 363e 6380 333d
000001a0: b61f d23b 1754 adbe 6cbc ae3e c82a 043e
000001b0: b61e 863e a7fa edbd 8eba 1bbe b19e 243e
000001c0: 85fd 35be 6df5 283e 67af f83e 4cb9 683e
000001d0: 5bb7 063f 6e3f b23e e8c2 6c3e 950a bf3c
000001e0: 05eb c6be 8b16 b9bd 1f2a 773d 1405 1e3e
000001f0: 4cff 03bf b98d 11bf 3dec a13e 73bf 93be
00000200: 7640 ab3e 8b67 2ebf ed77 0dbe 443c 83be
00000210: 0a69 b4be 64d9 3abf 6006 143a 1e20 0abd
00000220: dc9c 1d3e 0733 a53e 5845 573e 3c46 b3ba
00000230: 05d2 673c 1b28 6c3e 0c81 cd3e 85db 98bd
00000240: 2e8c 58bf d0a1 c9bd ac41 f6bd 244d 803c
00000250: 9eb3 4a3d 2f9e a8be 176b b3ba f6fd 2fbe
00000260: 32b0 86bf 0c1b a5bd 54e5 dabb c0c9 2a3f
00000270: 12ae debe ed41 913e 5ea1 6a3b 8d03 523d
00000280: 4ef3 553f ba8a 1fbf d28c 9fbd c6ea a73d
00000290: 83ed 603e 23be 1fbe b254 a8be f01e 253d
000002a0: 9b57 363f de48 36bf c243 783f 368c de3e
000002b0: 8438 af3f 1986 863d 5e29 77bd 4c04 8abe
000002c0: 1b75 213d 3501 473e ed1f a33e 479d 643e
000002d0: 2b40 4cbe c10a 253f f20f 60bd 5601 a9bd
000002e0: 95fb bfbe 3bac b83d 88b0 c53d d919 b63e
000002f0: caae debd 4fd8 623c 6465 e6be 9131 253f
00000300: c6a5 99be f27a 093e bad9 5d3e a2e8 02bf
00000310: 4bba 293e 0ed1 ce3d 4088 9e3e 9c4b d13e
00000320: 9d38 81be 062d 3fbd 63fe 8abe 03fb c63e
00000330: 9006 b93e 549e ff3e 8b66 b73d 3774 15be
00000340: 8ebf 2e3f 3d5f c13e 544f 953e be11 433e
00000350: ec5a 3cbe 2fbc c5be 77e9 f2bd 3cbc 3ebe
00000360: da3c a73e 5ae6 afbe 9164 373e 73ef 1c3f
00000370: fbe9 da3d bdab 16bd 93f8 47bf b7bf 6f3e
00000380: b23f 013f 0fe6 b8bc 0a2f 79bd 23bb 25be
00000390: d423 ab3e 22d4 0d3e 33fd 00bf 5e07 5a3c
000003a0: 7611 97bd b118 3bbd f007 3b3d 70b6 ee3e
000003b0: 97ee f9bb 6b85 183f 2b54 febd 5bee 55be
000003c0: e8d3 083d 3fd6 12be 50bc 403e 685a b23c
000003d0: 7952 7abe 1715 88bf 1e21 9cbe 5114 30bc
000003e0: f914 133f e02f 18bd 74a5 8f3e 6322 7abe
000003f0: be78 4abf 0e8c 6ebe 6afa 26bf 0273 65bd
-0.035762653 0.07201693 -0.07598963 -0.27370164 -0.04498006 -0.1327362 0.29360774 -0.20489347
0.07059208 0.23458382 -0.15245952 -0.05967499 0.4589088 -0.4405071 -0.44488052 -0.084202155
0.19791566 -0.119043514 -0.17762294 0.31906533 0.24418353 0.5084121 0.2305411 -0.590174
0.12471447 0.2994286 -0.10536978 -0.25231203 -0.18999359 -0.01552273 0.18305211 0.36552274
-0.13545828 0.17154844 -0.077118084 0.093339555 0.35754254 0.26900747 -0.3047965 0.3828104
-0.70600545 0.07973551 -0.17170887 0.101961 -1.0925444 0.37800163 0.15802322 0.24245195
0.3250711 -0.593688 -0.08013396 -0.4599227 -0.60611326 -0.37922272 0.1312374 -0.2420934
0.28491256 -0.17048733 -0.24293324 -0.61639744 0.09928834 0.22025235 0.15429881 -0.42308894
-0.06439021 -0.4282906 -0.087231755 0.48020267 -0.45509243 -0.36310068 -0.13458811 -0.120732866
0.19149145 -0.06721341 0.21723706 0.3159516 0.20364957 -0.21971239 -0.51033574 0.60947114
-0.26038015 0.071309775 -0.058989216 0.17839 -0.0806667 -0.016623145 0.22196664 0.4762701
-0.0617104 0.9239507 -0.3147887 0.14010179 0.33339104 -0.09587533 0.56528884 -1.0198369
-0.26941338 -0.39851326 0.3021538 0.32870254 0.076490074 -0.31246546 0.17774476 0.04382361
0.0064124716 -0.33853218 0.3412813 0.12906945 0.26195306 -0.11620074 -0.15207884 0.16076161
-0.17772491 0.16499873 0.4857132 0.22726935 0.5262353 0.34814018 0.23121226 0.023320476
-0.3885118 -0.09037503 0.060342904 0.15431625 -0.5156143 -0.56856877 0.31625548 -0.28857002
0.33447617 -0.68126744 -0.1381528 -0.25631917 -0.35236388 -0.7298796 0.0005646702 -0.033722036
0.15391868 0.32265493 0.21022546 -0.0013677548 0.014149194 0.23062174 0.40137517 -0.07463745
-0.845889 -0.098453164 -0.12024245 0.015661784 0.049487703 -0.32933185 -0.0013688531 -0.17186722
-1.052252 -0.080617994 -0.00668017 0.66714096 -0.4349218 0.2837061 0.0035801749 0.051272918
0.8357438 -0.62321055 -0.07790531 0.08199076 0.21965604 -0.15599875 -0.32877117 0.040312707
0.71227425 -0.71204937 0.9697839 0.43466347 1.3689122 0.06568546 -0.060342185 -0.26956403
0.03941832 0.19434054 0.31860295 0.22325622 -0.19946353 0.64469534 -0.054702707 -0.08252208
-0.3749663 0.09017225 0.09652811 0.35566595 -0.10873182 0.013845517 -0.4499923 0.6452876
-0.30009288 0.13425806 0.21665087 -0.5113622 0.16574971 0.10098468 0.30963326 0.40877998
-0.25238505 -0.046673797 -0.27147207 0.38863382 0.3613782 0.49925482 0.089551054 -0.14595114
0.6826104 0.37767974 0.29162085 0.19049737 -0.18394059 -0.38620135 -0.11860936 -0.18626493
0.32663614 -0.34355432 0.17909457 0.6130287 0.106891595 -0.036784876 -0.7811367 0.23412977
0.50487816 -0.022570638 -0.060835876 -0.16184668 0.33425772 0.13850453 -0.5038635 0.013307421
-0.07376377 -0.045677844 0.045661867 0.46623564 -0.007627319 0.5957858 -0.124183975 -0.20891707
0.033405215 -0.14339541 0.18821836 0.021771625 -0.24445523 -1.0631436 -0.30494016 -0.010747031
0.57453877 -0.037155032 0.28055918 -0.2442718 -0.7909049 -0.23295614 -0.6522585 -0.056017883

discrete_action_output_shape f4 [1, 7]
00000000: 0000 4040 0000 4040 0000 4040 0000 4040
00000010: 0000 4040 0000 4040 0000 4040
3.0 3.0 3.0 3.0 3.0 3.0 3.0

network_body._body_endoder.seq_layers.0.bias f4 [128]
00000000: b94b 89be 3777 22bd 4083 7b3e 0e5c bdbd
00000010: 43a5 19bd 48c7 44be 75b2 a0bc 53ee a33d
00000020: 39a2 533e 8f0c 7f3e 0233 88be 064a 1abe
00000030: 5aa8 643d a753 f03d 5361 81be 7080 163e
00000040: f286 2b3e b436 6d3d a612 23bd 083d 82be
00000050: 5216 013e 2b34 13be 51f0 0abe e0fa cf3d
00000060: e64b 15be d119 043f be39 f4bd 0c17 cd3b
00000070: 50e5 873d 2e61 d43e ac00 083b ba45 f73e
00000080: ae19 bbbc 78c3 d1bd dcd7 813d 909a e5bd
00000090: 6916 6c3e d536 db3c 3bed 74be 3109 813d
000000a0: 5ec8 63bd abe2 37bc 7667 06bd b25d 183f
000000b0: c6ea 873c e327 eb3d 030a 553e 512c 09bc
000000c0: a305 04be 35a4 683e dbf6 b9bd 5274 8d3b
000000d0: 5201 643e 8578 a63e 7017 4d3d dd49 d63e
000000e0: d9fb 81be 469a adbd 8fe9 76be 4035 c5bd
000000f0: f4a3 2abe 3042 203e ee12 17bd f246 813e
00000100: 9006 d23d b90c 333c 1a85 9a3e e9e2 c3bc
00000110: a8f1 49be 81cc 2d3e 24fc 133e 45eb 01be
00000120: 683f 623e 1410 493b 9759 53bc b91c 223e
00000130: 6a4b f23e 5408 65bc 4c53 083c f56c f9bd
00000140: 2ec7 1a3f 086d 19be 9ae4 a83e 8026 11be
00000150: 7fb7 433e 9ea6 1abe 1fb6 2b3e e298 1e3e
00000160: ae5c 813d 7858 01be 438f d93d 43bc 733d
00000170: 68ee d93d baf8 d9bd fcf6 213e 7e03 bf3e
00000180: 114f 1a3e 62a0 303e b6b1 9c3d 659b b43c
00000190: 8a61 373e 33ce fd3d eaa3 06be b9f9 8c3d
000001a0: 73ae a03e a1a2 0b3e 94e9 873e 252e 33be
000001b0: b0a7 2f3c 188b 0abe dd27 1c3f fb01 74bd
000001c0: 65bf 113e 0741 39bd dd6c 7cbb f6f7 2cbd
000001d0: 6198 6fbe dc54 6f3e 490c b5be 1548 833d
000001e0: 21cf c83d 2411 61bd 9358 a13e 9031 54be
000001f0: e8a8 5cbe 9708 8f3d f54d 19be 0d0e 543d
-0.26815584 -0.039664473 0.24561787 -0.09246074 -0.03751112 -0.19216645 -0.019616345 0.08004441
0.20667352 0.24907134 -0.26601416 -0.150673 0.055824615 0.117347054 -0.25269565 0.14697433
0.16750696 0.057913497 -0.039812706 -0.25437188 0.12606171 -0.14375369 -0.13568236 0.101552725
-0.14579734 0.5160189 -0.11925076 0.006258851 0.06635535 0.41480392 0.0020752354 0.48295385
-0.022839393 -0.10242361 0.0634 -0.11211121 0.23055424 0.026759544 -0.23918621 0.06300581
-0.055611007 -0.011223475 -0.03281351 0.5951797 0.01659144 0.11482217 0.208046 -0.008372382
-0.12892775 0.2271889 -0.09080287 0.004316845 0.22266129 0.32513824 0.05007118 0.41853228
-0.25387457 -0.08476691 -0.24112533 -0.09629297 -0.16664106 0.15650249 -0.036883287 0.2524944
0.10255158 0.010928326 0.30179673 -0.02391191 -0.19721091 0.16972543 0.14451653 -0.12687404
0.220945 0.003067975 -0.012899778 0.1583127 0.4732316 -0.013979036 0.008320641 -0.12178985
0.60460174 -0.14982998 0.3298691 -0.14174843 0.19112967 -0.15102622 0.16768692 0.15488008
0.06316505 -0.12631404 0.10623028 0.059505712 0.106411755 -0.10643144 0.15816873 0.37307352
0.15069224 0.17248681 0.07651083 0.022046754 0.17908302 0.12392845 -0.13148466 0.06883568
0.31383094 0.13636257 0.26545393 -0.17498071 0.010721132 -0.13529623 0.60998327 -0.0595722
0.14233167 -0.04522803 -0.0038517036 -0.04222866 -0.23397972 0.23372215 -0.35360935 0.06410233
0.09805132 -0.054947987 0.3151289 -0.20722032 -0.21548808 0.0698406 -0.14971144 0.051771212
